2023/baseline0806/model/WLTP_trained_0822/PPO_actorcritic_31episode.pt (torch, 101527 bytes, 17 tensors)

weight f4 [128, 7]
000000 63 eb 72 be 13 85 8b be 56 03 80 3e 7d d8 b5 be
       -0.23722605 -0.27249965 0.25002545 -0.3551673
000010 dd 70 76 be 7a 7b c0 3e 60 b6 b5 3e 1e ce 25 bd
       -0.24066491 0.37594205 0.35490704 -0.04047977
000020 ac b0 39 be 07 fb ad 3d 21 fc 8e be 93 1b 0c be
       -0.18133801 0.08495145 -0.27926734 -0.13682394
000030 ee 79 b9 be b6 61 9a be 7c 3d dd 3d a3 1f b2 bd
       -0.36225837 -0.30152673 0.10802743 -0.086974405
000040 d5 3c 35 be d2 07 d2 3d d4 29 ae 3e 15 65 c1 3e
       -0.17698987 0.10255398 0.34016287 0.37772432
000050 2d 56 8d 3d d0 38 97 be d0 1f 68 be 38 e1 82 be
       0.06901202 -0.29535532 -0.22668386 -0.25562453
000060 6a e3 a7 bd 89 a4 23 be 5d 7a 8a 3e b0 38 cc 3e
       -0.08197673 -0.15980734 0.2704648 0.39887
000070 b1 de e3 3d 74 e7 3b be 5d 25 da be c2 9d ff 3d
       0.111264594 -0.18350011 -0.4260663 0.12481262
000080 f2 2c ab 3d b3 3e 3e 3e 4d dd 82 bc 58 06 56 bd
       0.08358182 0.18578605 -0.015974665 -0.052252144
000090 b0 b9 85 bd f1 ce a1 be 33 08 20 3c 84 4f 88 3e
       -0.06529558 -0.31603196 0.00976758 0.26623166
0000a0 cc 3c 0d 3e 94 73 a5 3e 94 a8 ad be 0c e3 81 be
       0.13792723 0.32314742 -0.33917677 -0.25368536
0000b0 9a 09 ad be f4 85 42 3c 75 50 8d be c1 60 15 be
       -0.33796388 0.011872757 -0.27600446 -0.1458769
0000c0 7b c1 9a bb 7f 5b cc 3d 66 41 ab be 32 12 ad 3e
       -0.0047227717 0.09978389 -0.33448333 0.33802944
0000d0 02 6d 9f 3e 80 76 a0 3e 58 e9 c0 be 1a 42 01 bd
       0.31137854 0.31340408 -0.37678027 -0.03155718
0000e0 6f 78 e2 3e 15 f9 2e bd 11 62 8e be 2e a8 37 bc
       0.4423251 -0.042718012 -0.27809194 -0.011209531
0000f0 d6 03 c2 3e 56 a8 6d be ae eb 3e 3d 9b a9 ae 3e
       0.37893552 -0.23208746 0.04661148 0.34113774
000100 57 9c 42 be 9f 1d be be bb 7f b7 be 77 38 0d be
       -0.19004951 -0.37131974 -0.35839638 -0.13791071
000110 15 85 b4 3e a6 88 9e 3e ce 3f a1 3e 40 2d 86 3e
       0.35257784 0.3096363 0.31493992 0.26206398
000120 7a d1 3e 3d 34 09 21 3e 31 56 98 be 96 59 17 3d
       0.04658649 0.15726167 -0.2975326 0.03695067
000130 4e c5 4a 3d 7a 54 87 bd 3d e6 c9 3e f3 4a 38 3e
       0.04950457 -0.066079095 0.3943347 0.17997341
000140 96 e5 f0 bd 46 70 4f 3e 49 af 4c bd 81 c5 dd bd
       -0.1176254 0.20257673 -0.049971852 -0.108286865
000150 d2 6f 7e be 21 54 92 be f1 4b 81 3e e9 a5 b1 be
       -0.24847344 -0.2857981 0.2525325 -0.34696892
000160 c4 f3 85 3e 44 14 16 be 18 1b 5a 3e 7a 08 83 3e
       0.2616254 -0.14656168 0.21299398 0.25592405
000170 04 d5 4a 3e 19 64 97 3e cf 82 3f 3d ac c1 18 be
       0.19807822 0.29568556 0.04675561 -0.1491763
000180 46 a3 13 be d7 11 91 be 79 1f 3e bd cc cb e6 3c
       -0.14417753 -0.28333923 -0.046416733 0.02817335
000190 85 27 d8 3d 06 71 01 3d a8 2c 30 bd 7f 15 26 3e
       0.10554413 0.03160193 -0.043011338 0.16219138
0001a0 02 4f 73 be 62 a5 4f 3e a2 90 84 be 47 f6 0b bc
       -0.23760608 0.20277932 -0.25891596 -0.008542604
0001b0 14 ed 34 3e 73 c8 27 bd a4 a9 98 3e a9 17 7d be
       0.17668563 -0.040962648 0.29816926 -0.24716057
0001c0 62 63 49 be 19 7e b3 be f5 cd 64 be a1 96 8d 3e
       -0.19666818 -0.35057142 -0.22344191 0.27653983
0001d0 0d b6 cd 3d 09 5d 01 be 60 a1 17 3d b9 8e 0e be
       0.10044489 -0.12633146 0.037019134 -0.13921632
0001e0 96 0e e9 3e 5c 60 e6 bd 66 6e e1 3e 3e e4 5e be
       0.4551894 -0.11248848 0.4402954 -0.21766755
0001f0 1b d4 fe bd fe a3 3e be 57 ef be 3e c1 75 13 be
       -0.124428 -0.18617246 0.37291977 -0.14400388
000200 c0 dc ae 3c d9 22 be be 06 54 93 be cf 7d 85 be
       0.021345496 -0.37135962 -0.28775042 -0.26072547
000210 77 23 83 be 32 73 13 be a4 49 94 be 07 00 49 3d
       -0.25612995 -0.14399412 -0.28962433 0.04907229
000220 c6 af aa be 99 a6 37 3d e3 27 3c bd 73 be 00 bd
       -0.3333723 0.044836614 -0.045936476 -0.031431627
000230 0b a9 b1 3e 7c e4 1a be cf f0 c1 3d c1 89 20 3d
       0.34699282 -0.15126222 0.09469759 0.039193872
000240 74 40 35 3d 6e 94 ad 3e 02 1a a4 3e 09 f1 bd bd
       0.04425092 0.33902305 0.32051092 -0.092744894
000250 f9 bf 52 3c 9d ef a1 bd 73 1a f3 bd cc de 45 3c
       0.012863153 -0.07907031 -0.11870279 0.012077045
000260 bf c8 53 be f2 f8 91 3d a4 da aa be 54 d9 29 3d
       -0.20682047 0.07127561 -0.33369935 0.041467026
000270 37 30 64 3e 82 47 e6 bd 92 18 b6 3c d1 1c 12 be
       0.22284018 -0.11244108 0.022228513 -0.14268805
000280 fa c9 86 3e ac 58 8e 3e dd f0 ff bd d5 a3 34 3e
       0.2632597 0.27802026 -0.12497113 0.17640622
000290 b5 99 71 3e b5 c8 9b 3d 52 40 aa 3e 41 79 c9 3e
       0.23593791 0.07606641 0.33252198 0.39350322
0002a0 71 f4 c6 3e cb 9e 68 be 28 5e 54 3d 90 52 93 be
       0.3885837 -0.22716825 0.051847607 -0.28773928
0002b0 3b 81 b6 3e a1 35 e5 bd 53 44 95 3e c5 d3 64 3d
       0.3564547 -0.111918695 0.2915369 0.05586602
0002c0 0d 46 33 3d 20 20 b3 be c9 5e d8 bd 90 23 21 bd
       0.043767978 -0.34985447 -0.10564954 -0.039340556
0002d0 5d 38 22 3e fa 3b 3f be 24 b5 6e 3e 79 d2 a4 be
       0.15841813 -0.18675223 0.23311287 -0.32191828
0002e0 00 ec 7f 3e c1 b2 53 be 36 4c 18 be fd a9 71 3e
       0.2499237 -0.20673658 -0.14872822 0.23600002
0002f0 17 04 20 3e 68 c1 a7 3e 31 d4 80 3d 19 92 06 3e
       0.1562656 0.32764745 0.06290472 0.1314167
000300 8b 9c 59 3e da 36 99 3e 9c 89 1a be 6d 69 8b 3e
       0.21251123 0.2992466 -0.15091556 0.2722887
000310 af 59 93 bc 25 83 ae 3e 6b 8f a0 bd 45 54 98 3e
       -0.0179871 0.3408443 -0.07839855 0.29751793
000320 af 0d 64 be 18 81 f7 bd 47 4e 31 3e ed 15 a0 3e
       -0.22270845 -0.120851696 0.17315017 0.31266728
000330 c5 e2 75 3c 07 fd 22 3e 6d ab 73 be 86 d5 12 3e
       0.015007679 0.15916835 -0.23795862 0.14339265
000340 f4 f0 c7 3e b9 e1 4b 3e 80 2d d4 bd 80 b9 78 be
       0.3905102 0.19910325 -0.10360241 -0.24289513
000350 b0 4e d5 bd 8f 24 b0 3d 27 28 73 be 18 8f 69 3e
       -0.10415399 0.08600723 -0.23745786 0.22808492
000360 35 6b 92 3e 65 cb 3f 3e c4 27 27 be 03 fc f8 3d
       0.28597417 0.18729933 -0.16323763 0.121574424
000370 77 3c ce bd e4 62 8a 3e 22 ec b6 3e 48 56 7f 3e
       -0.100701265 0.27028573 0.3572703 0.24935257
000380 f2 c8 d1 3d a1 7c 83 be 24 91 fc bd e4 2c a2 3e
       0.102434054 -0.25681022 -0.12332371 0.31674874
000390 49 d2 a9 3e 9c d7 2a be be b4 48 bc 56 2f 6c 3e
       0.33168247 -0.16683811 -0.012250124 0.23064932
0003a0 39 7e 8d 3d 30 64 56 3d aa ed ae 3e 38 33 57 3e
       0.06908841 0.05234164 0.34165698 0.21015632
0003b0 f8 b9 70 be 2a fe a4 3e 37 a4 14 3e 76 4c 96 be
       -0.23508441 0.32225162 0.14515768 -0.2935521
0003c0 e0 82 4d be e4 6d 23 be 6a a9 ae 3e 09 37 4b be
       -0.20069456 -0.15959889 0.34113628 -0.19845213
0003d0 ff e4 31 3d b5 4e 05 3e 22 1b 7a 3d 00 04 75 3e
       0.04343128 0.13018306 0.061061032 0.23927307
0003e0 03 85 db bd fa 45 6b 3d d9 37 50 be 76 a8 a2 3e
       -0.10718729 0.05743978 -0.20333804 0.3176915
0003f0 cb 9e 57 be 5d 28 90 3e ae 87 53 3d 38 d0 90 3e
       -0.21056668 0.28155795 0.051643066 0.28283858

bias f4 [128]
000000 85 22 43 be f0 48 74 be 1b f6 46 3e 75 06 d2 3e
       -0.19056137 -0.23855948 0.1942982 0.4102055
000010 30 e1 81 3d 7c 5f 19 be 23 db d1 bd 42 31 c7 3d
       0.06341779 -0.1497783 -0.10246875 0.09726192
000020 60 de ee 3b 8e ec c7 3e ac cc 98 3e 82 85 a4 3c
       0.0072896928 0.39047664 0.29843652 0.020083193
000030 cf 7f c3 3d 47 da 5e 3e f3 e8 37 3d 80 25 17 be
       0.09545862 0.21762954 0.044899892 -0.14760399
000040 5c 69 4c be 4e 38 46 3e 89 69 b6 3e 6e a5 57 3e
       -0.19962066 0.19357416 0.35627392 0.210592
000050 fa b7 8d bd 7e f2 9a be f9 e5 5f 3e 00 cc 54 be
       -0.06919856 -0.30263132 0.21865071 -0.20780945
000060 8e 63 87 bd 02 0c 91 be c8 e9 cb bd d7 69 86 3d
       -0.066107854 -0.28329474 -0.099566996 0.06563156
000070 4f 0e a9 be 2e 44 aa be d0 f7 8f 3e 0a 2e db 3b
       -0.3301873 -0.33255142 0.28118753 0.006688838
000080 ef 18 a0 3e 8e a4 88 3d 0a f0 96 3e 4e 65 61 be
       0.31269023 0.06672011 0.2948001 -0.22011301
000090 30 3c 94 be 5e f7 cf bd 0b 9b ad be 16 6e ce bd
       -0.2895217 -0.101546034 -0.3390735 -0.10079591
0000a0 72 67 58 be 23 1a cd be 45 13 64 bb dd c9 28 bd
       -0.21133211 -0.40059003 -0.0034801525 -0.041208137
0000b0 a2 46 92 be c6 cc 06 bd 21 e5 8a be 20 ba 0b bc
       -0.28569514 -0.03291013 -0.27127936 -0.008528262
0000c0 38 0c 82 be f1 63 c6 bd 36 49 5f 3e 1a 8b c7 3e
       -0.25399947 -0.09687031 0.21805272 0.38973314
0000d0 6d f3 c5 3c 90 e5 a3 be 7b 70 14 be 1a d5 57 3e
       0.024163926 -0.3201108 -0.14496033 0.21077386
0000e0 44 61 99 3e 6e 5b 88 3e 8b ce 8c bd 4c 82 b3 be
       0.2995702 0.26632255 -0.068753324 -0.35060346
0000f0 f2 42 aa be 85 35 14 3e 3e 46 af 3c f1 f2 96 3e
       -0.332542 0.14473541 0.021395799 0.29482225
000100 1f 69 95 3e 6c d3 46 be 4f f3 b5 be e7 92 b3 be
       0.29181764 -0.19416589 -0.35537192 -0.35073015
000110 86 7c c8 3e c8 31 bd 3d 2f a0 c8 3d b0 7d 12 bd
       0.39157504 0.09238011 0.097961776 -0.035764396
000120 7d 3b 80 be 1a a8 b0 3e e8 7c 93 3d 22 a6 80 bd
       -0.25045386 0.3450325 0.07201558 -0.06281687
000130 62 94 1a 3e e9 17 96 3e fb 13 c4 bd 22 32 98 3e
       0.15095666 0.29315117 -0.095741235 0.29725748
000140 7f eb 95 3e 84 d3 92 3e 32 20 2f 3e 6b 32 84 be
       0.29281232 0.28677 0.17102125 -0.25819716
000150 06 04 e8 bd 1a c1 ef bd 3c c4 9b be b4 9d 62 be
       -0.113288924 -0.11706753 -0.30423152 -0.22130471
000160 5f a5 ac be a7 8c 1e be 2e 03 be 3e f4 bf 90 3e
       -0.33719918 -0.15483342 0.371118 0.2827145
000170 7b 83 bd 3e 03 19 d1 3e f9 fc c0 3d be 00 99 be
       0.37014374 0.40839395 0.09423251 -0.2988338
000180 28 82 a8 3d 44 51 88 3e 4a 94 ff 3d 87 6f a7 be
       0.0822795 0.266245 0.12479456 -0.32702276
000190 d3 ae cb 3e 0d 3a 8c 3e b7 2f 46 3e 32 e7 b8 3e
       0.39781818 0.2738804 0.1935414 0.36113888
0001a0 68 9f 55 be d9 6f d9 3c d2 02 a6 3d 19 d7 2a be
       -0.2086159 0.02654259 0.08106007 -0.16683616
0001b0 c9 8f 1b be f4 75 da 3d f3 5f 83 3d bd 75 80 be
       -0.15191568 0.10667029 0.06414785 -0.25089827
0001c0 64 eb ac be 9f c6 a2 bd 20 14 a3 3e cf 03 0d 3d
       -0.3377334 -0.0794804 0.31851292 0.03442746
0001d0 d8 41 25 be 97 c2 55 3e 6a 00 86 3e 82 93 17 be
       -0.16138399 0.20875011 0.2617219 -0.14802364
0001e0 fa d2 8b 3e 70 ed b9 bd 17 77 1b be 30 59 55 3e
       0.273094 -0.09078491 -0.15182148 0.20834804
0001f0 c4 63 3e 3e 1d 9b 8f be ea 71 a1 3e 2a 18 8b be
       0.18592745 -0.2804803 0.31532222 -0.27166873

weight f4 [64, 128]
000000 fe f1 e2 bc fd f6 ac 3d 9a e1 0d 3b 69 62 3f 3d
       -0.027703281 0.08445547 0.0021649362 0.04672471
000010 e7 fe 78 3d 7f 63 73 bd 81 3d ae 3d be 79 c4 bc
       0.06078997 -0.05942106 0.08507825 -0.023983832
000020 d5 e8 a2 bd 3d 83 6d bd 1b 1c 4a 3c 66 64 b4 3d
       -0.079545654 -0.057986487 0.012335802 0.08808212
000030 54 74 b3 bc 9e 49 b3 3c 74 2a a5 bd 09 d1 87 3c
       -0.021906056 0.02188569 -0.08064738 0.016579168
000040 70 87 5e 3c 9d 18 93 bd bb a4 e8 bc 8a 06 0b bd
       0.0135820955 -0.07182429 -0.028398862 -0.033941783
000050 44 79 16 bd 35 71 89 3d 24 74 03 bc 58 96 60 bd
       -0.03673674 0.06711046 -0.008023296 -0.05483088
000060 88 38 bc 3c f2 71 28 3d bb e9 09 3d 90 ad fa 3b
       0.022976175 0.04112429 0.03367017 0.007650085
000070 88 cb 29 bc d8 c4 88 bd 9d 64 6d bd 8c c4 6d 3d
       -0.010363467 -0.0667817 -0.05795728 0.05804877
000080 ed 73 9e 3d 42 42 ee bc a7 0b 2f bb 69 c5 82 bd
       0.07736955 -0.029084329 -0.0026709826 -0.06385309
000090 40 cb 3d bb a0 50 a0 bd 10 16 b1 3d d5 3e c8 3c
       -0.0028960258 -0.07827878 0.08646786 0.024444023
0000a0 24 22 ca bc 15 3b 9d 3c aa 78 78 3d cb 75 ae 3c
       -0.024674483 0.019193212 0.06066195 0.021296402
0000b0 76 c3 a9 3d 98 4f 13 bd b6 c9 55 bc 84 db 9b bd
       0.08289234 -0.03596458 -0.01304858 -0.07610229
0000c0 7b b4 9a 3d a6 d4 9e bd bb b6 44 ba 97 b9 6c bd
       0.07553955 -0.07755403 -0.00075040356 -0.05779418
0000d0 5a fd 1a bd 59 d6 71 3d 3c e3 d9 bc 63 52 9f 3d
       -0.03783927 0.05904231 -0.026597612 0.07779386
0000e0 3c 65 1a 3d 4c c6 7b bd 63 53 ed bc 3b 73 6d bd
       0.0376942 -0.061468408 -0.028970426 -0.05797122
0000f0 d8 49 90 bd 84 5c a9 bb 97 a9 6f bd 07 4e 86 bd
       -0.070453346 -0.0051684994 -0.058511343 -0.06557851
000100 d2 df 37 bd 1f e0 aa 3d 65 a6 99 3d b7 38 58 3d
       -0.044891186 0.08343529 0.0750244 0.052788462
000110 72 c8 2a 3d 33 ca 20 3d 12 50 15 bb 4a c0 8c 3d
       0.041695066 0.039255332 -0.0022783321 0.06872614
000120 cb f5 64 3d 52 86 54 3d 49 38 73 3c 03 db ad bd
       0.05589847 0.05188591 0.014844962 -0.08489039
000130 9b a2 82 bd 3f 73 9a 3c 7f 84 92 bd f0 89 86 bd
       -0.06378671 0.018853782 -0.07154178 -0.06569278
000140 52 fc 10 3d dc d1 30 bd 65 3d 89 bd 8c 7f eb bc
       0.03539688 -0.043168887 -0.06701163 -0.028747343
000150 56 e8 96 bb 14 26 cd bc eb 99 22 bd 8d 1a 7a 3d
       -0.0046053333 -0.025042571 -0.03969757 0.061060477
000160 01 83 f2 3c 76 74 aa 3d c0 bb 0f bd 0c a5 ac 3c
       0.029603483 0.083229944 -0.03509116 0.021074794
000170 a0 d4 0e bd cf 11 9f 3d da 02 35 3d 32 03 aa bc
       -0.034870744 0.077670686 0.044192173 -0.020753477
000180 d3 b4 ef 3c 3a d5 b3 3c 5d 5e 16 bb c4 8f 52 bd
       0.029261028 0.02195226 -0.0022944428 -0.051406637
000190 e0 93 b5 3b 8d 6f de 3c 21 a7 bc bb d0 e7 00 3d
       0.0055413097 0.027152801 -0.005757228 0.031471074
0001a0 96 88 41 3d e7 0c 6e 3d fa 9c 8f bc 5f 4f 8b bc
       0.0472494 0.058117773 -0.017530907 -0.01700562
0001b0 04 4b 4f 3d f2 ca 90 bd c3 bd a7 3d f7 f9 c5 3c
       0.05060865 -0.07069959 0.08190491 0.024167044
0001c0 a4 4f c5 3c 0d 7e 03 3d aa c2 61 bd 5a 30 96 bd
       0.024085827 0.032102633 -0.055117287 -0.07333441
0001d0 52 ce 37 bd e8 cb 9d 3c fd 42 95 3a 49 20 52 bd
       -0.044874497 0.01926227 0.0011387762 -0.05130032
0001e0 a9 2d 03 bd 4d e0 8e 3d 5e 71 33 3c 69 50 70 bc
       -0.032025967 0.06976376 0.010952322 -0.014667609
0001f0 e0 4e 13 bd 16 77 5e bd 98 b5 93 bd db f3 6b 3d
       -0.035963893 -0.054312788 -0.07212371 0.057605606
000200 61 cc 58 3d 19 4e ab 3d a5 a6 78 bd 44 46 b5 bc
       0.052929286 0.08364505 -0.0607058 -0.022128232
000210 f8 26 14 bd 61 51 09 3b 1c d9 47 bd 6e da b5 3c
       -0.036169976 0.0020953047 -0.048791036 0.022198882
000220 78 97 36 3b 7e b0 24 3d bd b8 94 bc 8d 1f 27 bd
       0.0027861279 0.04020738 -0.018154496 -0.040801574
000230 54 e1 3c bc 93 21 1e bd ad 60 d6 bb f9 2e 8c bc
       -0.011528332 -0.038606238 -0.0065422864 -0.017112242
000240 a1 b7 2a 3d dc c1 19 3d 08 72 82 bd b6 37 de 3c
       0.04167903 0.037538394 -0.06369406 0.027126174
000250 65 10 97 3d 77 b9 b1 3d e3 da 99 bc a8 34 fb 3c
       0.07376174 0.08677953 -0.018781131 0.030664757
000260 75 d5 61 bd 9a 33 77 3d 9e 3a a9 3b 00 4c 49 3d
       -0.05513521 0.060351945 0.0051644584 0.049144745
000270 e4 30 7e 3d d1 7b 3b bd 69 f6 84 3d 93 13 00 3d
       0.062058344 -0.045772377 0.064923115 0.031268667
000280 15 12 2a bd 7e a3 93 bd 72 07 05 3d b3 b1 5c 3d
       -0.04152115 -0.07208918 0.032477804 0.053880405
000290 57 04 9f 3d 9c 3d a6 3d ad b2 74 3d 98 ac dc bc
       0.077645 0.0811722 0.05974071 -0.026937768
0002a0 29 df ec bc 3c d3 31 bd da 0d b3 bc da 89 7d 3d
       -0.028915005 -0.04341434 -0.02185719 0.061899044
0002b0 f0 be ab 3d 8d 5b 6b bc f7 7e cc ba 1e 94 bd bc
       0.08386028 -0.014365089 -0.0015601803 -0.023141917
0002c0 6d b7 95 bd c5 f3 5a bd fc 09 9c 3d b2 eb 1f bd
       -0.07310376 -0.053455133 0.07619092 -0.039043136
0002d0 27 96 e1 3c ff 7d d7 3c 14 75 90 bd 89 23 23 bd
       0.027537419 0.026305197 -0.07053581 -0.03982881
0002e0 fd e5 74 bd 1f 85 dd ba 82 c0 ec 3c a8 b2 6b 3d
       -0.059789646 -0.0016900635 0.028900389 0.057543427
0002f0 0c 38 5b 3d 8a fb 87 bd 7b 8d 00 3d c9 2e 5e 3d
       0.053520247 -0.06639774 0.031384926 0.054243837
000300 d7 47 ff 3c 1c 03 a3 3d 5e 80 34 bd 38 9f ad bd
       0.031162186 0.079595774 -0.044067733 -0.08477634
000310 e1 b8 88 bd 23 32 8b 3c ad 5b a4 3d 95 3c 2e 3d
       -0.06675888 0.01699168 0.08025298 0.042538244
000320 3c a7 97 bc ae 71 39 bd 52 77 3e 3d 4f 72 26 3d
       -0.01851236 -0.04527443 0.04650051 0.040636357
000330 00 3a 85 3d b0 aa 9e bd 6f 0d 3d bd 27 d9 d6 3c
       0.06505203 -0.077474 -0.04615539 0.026226593
000340 bc ec f4 bb 60 45 26 3d ea 16 e7 bc 4a 3f 94 bd
       -0.00747451 0.040593505 -0.028209168 -0.07238634
000350 a8 3a 9f 3d 64 d2 88 3b 8f 7c c2 bc 7a d9 b0 bd
       0.0777486 0.004175471 -0.023741035 -0.0863523
000360 d0 75 88 3d c4 9c 09 3a 15 14 ba bb 84 30 97 bd
       0.06663096 0.0005249495 -0.0056786635 -0.073823005
000370 64 39 1a bd 42 2b 9c bd 22 b5 2f bc c1 8a 49 3b
       -0.03765239 -0.07625438 -0.010724338 0.003075287
000380 0e 91 af 3c 61 39 69 3d 08 ad 5d 3c 40 28 a7 bd
       0.021431472 0.056939486 0.013530023 -0.08161974
000390 4f 9c 25 bd 7c 12 6b bc 41 4b 99 bd 04 9e a0 3d
       -0.04043227 -0.014347669 -0.07485057 0.07842639
0003a0 4c 9c d6 bc 6a 16 43 bd 20 26 12 bc 63 13 44 bd
       -0.026197575 -0.047628798 -0.0089202225 -0.04787005
0003b0 71 a1 4c 3c 4b 33 59 3d ef 89 9e bd 2e 25 7a 3d
       0.0124896625 0.053027432 -0.077411525 0.061070614
0003c0 3a 8f b1 3d c8 8a 48 3c df e5 16 3d da 68 96 bd
       0.086698964 0.012240119 0.036840316 -0.073442176
0003d0 fa b9 00 bd b9 d2 b2 3d fb 9a 14 3b 5e 04 34 3d
       -0.03142736 0.087315984 0.0022675383 0.043949477
0003e0 b7 d4 7c bd 83 ee 62 bd a4 a0 27 3d f0 bf b0 bb
       -0.0617263 -0.055403244 0.040924683 -0.0053939745
0003f0 e7 a0 1a 3d ec 74 ac 3d ab 1a 7b 3d 20 07 2b 3d
       0.037751105 0.084207386 0.06130473 0.04175484

bias f4 [64]
000000 c6 4f 94 bd 3b 52 ce bc 3e 6b b2 3d 03 63 97 3d
       -0.07241778 -0.025185695 0.08711861 0.07391932
000010 f4 54 35 3d a9 8c 6c 3d ae d9 2c 3d 3d 63 e4 3d
       0.04427047 0.05775133 0.042199783 0.11151741
000020 ad e6 29 3b ac 73 19 bc 07 25 aa 3c 94 6e bb bb
       0.0025924847 -0.009365957 0.02076961 -0.005719969
000030 f9 45 87 3d 00 be 81 3d ec 67 4a 3c 72 02 97 3b
       0.06605143 0.06335068 0.0123538785 0.004608446
000040 64 68 ec 3c 4a 1f 13 3d 04 95 2d 3d af f1 ad 3b
       0.028858371 0.03591851 0.04237844 0.005308352
000050 63 94 c1 3d 2c 8d f4 3a f1 74 8c bb eb af b5 bb
       0.09452131 0.0018657795 -0.0042864014 -0.0055446527
000060 a3 74 6e bc e7 bc 84 bc e6 31 dc bc 2b 03 cd bc
       -0.014554176 -0.016203357 -0.026879262 -0.025025925
000070 4a 84 17 3d 7b 97 28 bd 95 fe 34 3c 42 4f f2 bc
       0.036991395 -0.041160088 0.011047025 -0.029578809
000080 70 42 78 3d d7 5b 6d 3d b7 a6 fe 3c 63 ca 37 bc
       0.060610235 0.057948913 0.031085355 -0.011217686
000090 b7 a5 7b 3d b8 b8 b0 bd 9c 42 5b 3d 09 ac b3 bd
       0.061437335 -0.08628982 0.05353032 -0.087730475
0000a0 b2 71 00 bb 8b b9 8e 3d 01 65 55 3d dd 31 ae bd
       -0.0019599018 0.06968983 0.052098278 -0.085056044
0000b0 c9 8c 5b 3d d5 6e ef 3c f9 05 09 3d 54 ff be 3d
       0.05360106 0.029227654 0.03345296 0.09326044
0000c0 f9 a7 e9 bc 01 b5 7c 3d e2 24 fb bc ec 64 95 3d
       -0.028522478 0.061696056 -0.030657236 0.0729464
0000d0 bf d5 b4 3c 26 e5 83 bd 37 2d 4e bc 52 7c df 3d
       0.022074578 -0.06440191 -0.012584022 0.10912384
0000e0 8c 98 a3 3d 9e 41 16 3e 61 1e 2f 3d de 65 83 bd
       0.079880804 0.14673468 0.04275358 -0.06415914
0000f0 a2 a0 98 3c 82 43 2c bd 26 90 a5 3c ab 5e 02 3e
       0.018631283 -0.042056568 0.020210337 0.12731425

weight f4 [32, 64]
000000 90 39 3f 3d 9c 4a b7 bd 50 17 10 3e ab 63 e9 bb
       0.046685755 -0.089497775 0.14071393 -0.007122477
000010 40 79 46 bd c7 9d bb 3d 85 15 f8 3d 4d ec f9 bc
       -0.048455477 0.09160953 0.121134795 -0.030508185
000020 f3 88 ed 3d 62 17 f7 3c dc df fa 3d 41 a6 f3 3d
       0.115983866 0.030162517 0.12249729 0.11896945
000030 13 59 b6 3d 3d 63 06 3e 3f 01 83 bd 64 f9 bb 3d
       0.08903708 0.13123794 -0.06396722 0.09178427
000040 7c 4d 7e bd 29 9d 5c bd 78 5c 6f 3d da 69 fd bd
       -0.062085614 -0.053860817 0.058437794 -0.12373705
000050 f8 4a c5 bd 60 62 ed bd d9 71 c2 bd dc 7e 8c 3d
       -0.0963344 -0.11591029 -0.09494371 0.06860134
000060 da ed 02 be a4 31 1a 3d 25 4b ca 3d 93 e3 01 3e
       -0.12786046 0.037644997 0.09877614 0.12684469
000070 ae c0 5c be af 99 d9 3d 6c 61 9c 3d 4e 2a 9c 3d
       -0.21557876 0.10625016 0.07635769 0.076252565
000080 d6 7d 14 3c de 0f 09 3e 5f 72 ca bd f4 e9 4b bd
       0.009063205 0.13384959 -0.09885096 -0.049783662
000090 46 5b aa bd c0 3c 24 bb 9f a8 02 3d 34 ae 31 bd
       -0.0831819 -0.0025060624 0.03189909 -0.043379024
0000a0 cf af 00 bc aa 05 89 3d b0 f6 0a bd 4c 40 7f bd
       -0.007854416 0.066905335 -0.033926666 -0.062317178
0000b0 87 50 89 bd 25 df ac bc c1 a6 89 3d 7e 6e bd 3d
       -0.067048125 -0.021102497 0.06721259 0.0924959
0000c0 0c 8d 32 3b 24 de 24 bd f1 4b c1 bd 56 3c c0 bd
       0.0027244715 -0.040250912 -0.09438313 -0.09386508
0000d0 9e e4 c4 bd d0 59 11 bc 71 42 59 3d 5b f3 b9 3c
       -0.09613918 -0.008871511 0.05304188 0.022699049
0000e0 21 51 dd 3d 3e d5 0e bb db 57 a4 bd 67 4f 2d bc
       0.1080649 -0.0021794583 -0.080245696 -0.010578013
0000f0 7e 9d 8a bd 20 b4 ab 3d 2e 1c fe 3d 01 92 9e 3d
       -0.067683205 0.083839655 0.124077186 0.07742692
000100 c0 47 6c bc d9 cb 95 bc 71 6f c6 3d 08 47 1f 3e
       -0.014421403 -0.018285679 0.096892245 0.1555444
000110 47 b2 b0 3a 7a 11 aa bd 57 d3 2e 3d c7 ff 35 be
       0.0013480865 -0.08304115 0.042682018 -0.17773353
000120 a7 16 08 3d 88 1d af 3d fd 54 52 bd 23 ea e1 bc
       0.033224728 0.085505545 -0.051350582 -0.027577465
000130 af 89 8c 3d 42 35 65 3d f1 72 db bd 23 2f 05 3d
       0.068621986 0.055958994 -0.10715283 0.032515656
000140 32 4e 30 be 99 82 c4 bd f0 10 e2 bc b0 13 f9 3d
       -0.17217329 -0.09595222 -0.027595967 0.12161958
000150 a3 5d 25 3e 7b 8d 31 bd cf 01 8b 3d 65 40 d4 3c
       0.16149001 -0.043347817 0.06787454 0.025909612
000160 f2 31 04 be 5d ba 37 bd d3 f2 a9 bc e9 e1 28 3d
       -0.12909678 -0.044855464 -0.02074567 0.04123107
000170 41 fc 11 3e 55 42 88 3d 37 1a 4c bb 32 00 df 3d
       0.14256383 0.06653277 -0.0031143555 0.10888709
000180 64 9e bd 3d 3b 82 79 3d 2f 91 b0 bd c0 66 5b 3d
       0.09258726 0.060915213 -0.086214416 0.053564787
000190 f1 da c1 3d f4 33 23 bd 18 1b b0 3d 82 dc 6f bd
       0.09465588 -0.03984447 0.08598918 -0.058559902
0001a0 e4 02 de 3c 56 6f be 3d 18 24 92 bd 98 11 a6 3c
       0.027100988 0.092985794 -0.071357906 0.020272061
0001b0 8c 5d cf bd aa b2 e8 3d e1 57 85 bc ad a0 31 3d
       -0.101252645 0.113622025 -0.016277255 0.043366123
0001c0 31 17 14 3e 8f 7f 29 3c 8b b5 6a bd b8 bd 6c 3d
       0.14461972 0.010345354 -0.05730204 0.057798117
0001d0 fd bf ac bd f2 74 4e 3d 29 40 80 bb 51 c6 e5 bb
       -0.08435056 0.050404496 -0.0039138985 -0.0070121665
0001e0 1c bc 7e be e1 20 83 be 44 0b 08 3e 3c a7 75 3d
       -0.24876446 -0.25611022 0.13285547 0.05997394
0001f0 c3 78 19 3d e0 2e ef 3c a1 8e 88 bd 96 81 05 3e
       0.037468683 0.029197156 -0.06667829 0.13037714
000200 92 3b cb 3d 68 eb c4 3c 52 82 93 bd 4d af d6 bd
       0.099234715 0.024038032 -0.07202591 -0.10482655
000210 0e 5e c2 3d 2d 8c 9b bd 76 63 aa 3c d2 c1 c2 bd
       0.09490596 -0.07595096 0.02079938 -0.095096245
000220 76 8e dd bd cb 59 39 bd 60 76 e9 bd c4 12 ee bd
       -0.10818188 -0.04525165 -0.11399531 -0.11624673
000230 aa f2 9e bd 26 fb 8d 3d dc 7a 2b bd 7c 16 56 3d
       -0.07761128 0.069326684 -0.041865215 0.052267537
000240 40 ed 3e bc 1a 76 d8 bd 16 af ae 3d 14 5f b4 3d
       -0.0116532445 -0.10569401 0.08529489 0.08807197
000250 8c 74 f9 3b 94 13 f9 bd d8 e5 3a bd 3f 05 59 bd
       0.0076127704 -0.12161937 -0.045629352 -0.05298352
000260 12 41 cf 3d c1 12 63 3d aa 31 4b 3d 78 28 ac 3d
       0.10119833 0.055437807 0.04960791 0.08406156
000270 89 66 de 3d 1c d3 06 bd c0 fa 8e 3d 7c 7d bd 3d
       0.10859401 -0.032916173 0.069814205 0.0925245
000280 d0 73 fd 3c c7 94 00 3d 53 af c4 bd 60 e0 66 3d
       0.030939013 0.031391885 -0.09603753 0.056366324
000290 80 2b f4 3c 78 a2 f1 3d 78 9c e0 bc aa 71 17 3d
       0.029805899 0.117985666 -0.02741836 0.036973633
0002a0 59 9f a2 bd 4d 95 e0 bd b4 8d 33 bd 44 1c b6 3d
       -0.079405494 -0.10965977 -0.04383631 0.0889211
0002b0 c0 17 c2 3d 46 2c a9 3d da 62 89 3d 0f 69 af 3c
       0.09477186 0.082603976 0.067083076 0.0214124
0002c0 ca 0f a8 bd d0 2e 66 bc d8 b2 1c 3d 9d 16 fc bb
       -0.082061365 -0.014049247 0.038256496 -0.0076931254
0002d0 0a 26 4c bd 98 8e 79 3d e0 bb 2d 3c c2 fb 7f 3d
       -0.049840964 0.060927004 0.010603875 0.062495954
0002e0 38 0d 91 bc d6 00 b8 bd 17 28 c3 3d 58 c9 17 bd
       -0.017706499 -0.089845344 0.09529131 -0.03705725
0002f0 48 5d d9 bd 0c 33 d6 bd 6a 06 c4 bd 87 17 aa bd
       -0.10613495 -0.10458955 -0.09571536 -0.08305269
000300 48 72 c3 bd c3 00 e3 bd cd c2 a6 3c d7 70 35 3e
       -0.09543282 -0.1108413 0.02035656 0.17718826
000310 0b 21 13 3e 66 a1 2a 3e d7 df e9 bd f1 bc 86 39
       0.14368074 0.16663131 -0.11419647 0.00025699244
000320 22 20 10 3e c3 0a 08 3d e3 40 d7 3d ed a2 eb 3b
       0.14074758 0.03321339 0.10510423 0.007191053
000330 2a 1a a9 3b ce 0a c8 bc 0b df 99 3b 04 ea 81 bd
       0.0051605897 -0.024419215 0.0046957782 -0.06343463
000340 f9 ec 17 3d 28 36 0a be a3 84 6f 3d 6b 0a 60 3d
       0.03709123 -0.13497221 0.0584761 0.054697435
000350 a3 22 ce 3d 2d 23 70 bd 6c ed 07 bd 85 66 2e 3e
       0.100652 -0.058627296 -0.033185408 0.17031296
000360 92 4b f8 ba d2 b2 df 3d 02 ae 82 bc a4 97 25 3e
       -0.001894342 0.10922779 -0.015952114 0.16171128
000370 b2 2c bd 3d 53 dd b9 bd a0 32 35 bc 1c e8 d3 3d
       0.092370406 -0.09075417 -0.011059433 0.10347006
000380 d9 1b 46 bd 07 28 0c 3e 2e 97 8a bc e8 a3 31 3d
       -0.0483664 0.13687144 -0.016917791 0.043369204
000390 0f 3e 49 3d 40 fc 25 bd 4c 23 e7 3c b6 e1 bc bd
       0.04913145 -0.040523767 0.028215073 -0.092227384
0003a0 6d 07 b5 3c c7 a2 ca 3d 72 03 0a 3e c0 6a f1 3c
       0.022098267 0.098943286 0.13477877 0.029469848
0003b0 78 27 a1 3d b5 52 47 3d b4 b2 82 bd 31 0c b2 3d
       0.07868856 0.04866286 -0.06381741 0.086937316
0003c0 e1 0c 29 3e fc 7f 88 bd 38 7f 3e 3c 1a 9d fb bc
       0.16508819 -0.06665036 0.011627011 -0.03071456
0003d0 ef 0d a7 bb 35 5f 95 3d d7 d3 95 3d c9 d3 6d bd
       -0.0050980966 0.0729355 0.07315796 -0.058063302
0003e0 56 ab 33 3e 76 01 78 3e 9e 4c 06 3e d2 3c f5 bd
       0.17545828 0.24219307 0.13115165 -0.11974491
0003f0 20 21 da 3d d0 ec bb bd ac 11 44 3d 26 c3 04 3e
       0.10650849 -0.09176028 0.047868416 0.12965068

bias f4 [32]
000000 90 87 90 bd 29 89 e0 3d 72 46 3f bd f3 94 af 3d
       -0.070571065 0.10963661 -0.04669804 0.08573332
000010 78 e0 b3 bd d8 86 ad bc e0 6f 27 3e 5b d1 f7 3d
       -0.087830484 -0.021182463 0.1635127 0.12100478
000020 55 7e 0f 3e 61 8b 03 3b 99 bd 04 bc 94 1f 7f 3d
       0.14013036 0.002007209 -0.008101844 0.062285975
000030 9b 83 09 3d bf 4f 0a bd 43 85 a0 bd 34 8a ba 3c
       0.033572774 -0.033767458 -0.07837918 0.022770979
000040 71 04 0d be 39 f1 3f bd db 64 aa 3d 83 dc c6 3c
       -0.13771226 -0.046860907 0.08320018 0.02427507
000050 42 80 13 3e 40 91 dd bd 7d af bf 3c a3 79 96 bd
       0.14404395 -0.1081872 0.023399109 -0.07347419
000060 49 d4 f1 3d 54 7b a5 3d ea f6 86 3d 7e a6 56 bb
       0.11808068 0.080801636 0.06590064 -0.0032753046
000070 e1 83 ad bd be 31 29 3d b0 b2 9f bd dd 24 b0 3d
       -0.084724195 0.041307203 -0.07797754 0.08600781

weight f4 [128, 7]
000000 9a d6 6a be 8a d7 58 3e 5d 9e 90 bd c0 24 94 3e
       -0.22933426 0.21175972 -0.070614554 0.28934288
000010 3d 06 41 be 07 04 93 3c 8b 9a 2e 3e 8c 04 3c 3d
       -0.18850036 0.017946256 0.17051141 0.045902774
000020 a8 e6 a9 be 8f cc a9 bc b2 3a 99 3e 29 4e f4 3c
       -0.3318379 -0.020727424 0.29927593 0.029822426
000030 e6 29 67 bb 3e 04 7d bd b0 0c 30 3e 35 e4 52 3e
       -0.0035272776 -0.061771624 0.1719234 0.20594867
000040 61 29 4f be 87 0f 87 be a8 6c bf be a4 d0 a3 be
       -0.20230629 -0.26379034 -0.37387586 -0.31995118
000050 0b bd 5e 3e 4f 6b b9 be e0 18 85 bd 03 43 a0 3d
       0.21751802 -0.36214682 -0.06498885 0.078252815
000060 90 c5 c4 3e bf 20 91 3e eb ea 21 3d a6 6b 09 3e
       0.38431978 0.28345296 0.039530676 0.13419971
000070 72 4f 69 be 1b f4 b8 bd 1e 73 9a 3e 71 b5 80 be
       -0.22784212 -0.090309344 0.30165952 -0.2513843
000080 50 68 86 3e 6f c4 aa bd d2 bf 90 be 70 a7 32 3d
       0.2625146 -0.08338248 -0.28271347 0.043616712
000090 99 c6 77 3e f7 38 6c 3e 06 30 93 3e 25 24 ae 3e
       0.24196853 0.23068605 0.28747576 0.3401195
0000a0 5a 94 82 be fd 62 a3 3e d6 0d 50 3e 06 0e 3e 3e
       -0.25503808 0.3191146 0.20317778 0.18560037
0000b0 88 93 c4 3e f1 76 0c be eb 23 60 3e 68 9f 5d be
       0.38393807 -0.13717248 0.21888702 -0.2164284
0000c0 38 c0 2e 3e bb 0e 41 be e8 0b 87 3e cf e6 0b be
       0.17065513 -0.18853275 0.2637627 -0.13662265
0000d0 67 15 a8 3e d8 70 53 be 1f cc 80 be f8 45 98 3e
       0.3282883 -0.20648515 -0.25155732 0.29740882
0000e0 3c 1a b2 be c7 9e 34 be df c0 9a be 1b 50 8d 3e
       -0.3478564 -0.17638694 -0.30225274 0.27600178
0000f0 f2 44 9c 3e 64 de 56 3e cc c6 16 bd e9 54 3b 3e
       0.3052135 0.20983273 -0.03681068 0.1829411
000100 17 d9 8e 3e a0 b7 2f 3e 9b 8f 9b 3e f7 bf b6 be
       0.279 0.17159891 0.30383 -0.35693333
000110 6d 7e 77 3d 65 0d 93 be d5 88 cd bd d1 c0 9b be
       0.060423303 -0.28721157 -0.10035864 -0.30420545
000120 38 e1 99 be cd 66 a8 be 13 7c a0 3e e0 83 29 be
       -0.3005464 -0.3289093 0.3134466 -0.16554213
000130 90 cb b3 3c 92 ef 85 3e e1 08 7f 3e c6 88 4c 3c
       0.021947652 0.2615934 0.24905731 0.012483781
000140 c9 22 c9 bc 83 5d fe bc 35 2c f2 bd ec c6 82 3d
       -0.02455272 -0.03105045 -0.11824838 0.063855976
000150 16 62 ef bd 06 c1 0a 3e 64 ca 7d 3e 35 06 71 be
       -0.1168863 0.13550195 0.24784237 -0.23537524
000160 00 f4 44 be 41 b2 9f be 19 8d a9 3e fb 10 b3 3e
       -0.19233704 -0.31190684 0.3311546 0.34973893
000170 3b 03 13 be e8 6d cc bd 41 5f 95 be f7 76 a5 be
       -0.14356701 -0.099819005 -0.29174235 -0.32317325
000180 2e 6a b9 be ab ff e6 3c 80 bf 57 bd 78 a5 ab 3e
       -0.3621382 0.028198084 -0.052672863 0.3352468
000190 17 99 82 3c 64 22 b6 3e 01 91 66 be dc 62 d8 3d
       0.01594214 0.35573113 -0.22516252 0.10565731
0001a0 45 e5 a1 be 6c 44 54 3e 66 a6 9e 3d a6 a9 89 3e
       -0.3162023 0.20729226 0.07746582 0.26887244
0001b0 34 c6 4d bd bf 57 8a 3e 00 6d c4 3e 15 e9 3a be
       -0.05023785 0.2702007 0.3836441 -0.18252976
0001c0 2a 8e 78 be b4 bb 98 be dc b0 1a 3e f1 fd 1a be
       -0.24272981 -0.29830706 0.15106529 -0.15135933
0001d0 66 71 80 3b 69 09 95 3d b2 bf 1c be 30 1e b7 be
       0.003919768 0.072771855 -0.15307501 -0.3576522
0001e0 a1 f7 77 be 20 b8 8b bd 8f 27 f4 bd 0a 12 69 bc
       -0.24215557 -0.068222284 -0.11921608 -0.014225492
0001f0 bd 63 a6 be 5b 53 b2 be e6 ad b7 3e 8b 7c 68 3e
       -0.3249797 -0.3482922 0.3587486 0.2270376
000200 dc a8 a8 3b 27 b2 78 be 70 b8 c5 3d 17 7e cd 3d
       0.0051470827 -0.2428671 0.09654319 0.10033815
000210 f6 92 8d 3d a0 6d fa 3d a8 6a 28 be d3 53 1a 3d
       0.06912796 0.122279406 -0.16446936 0.037677597
000220 b9 e6 28 3e 05 0b 5c be 8c 31 a1 3e a4 34 36 be
       0.16494264 -0.21488579 0.31483114 -0.17793518
000230 93 b5 40 bd 72 92 e9 3c 0e b2 47 3d b0 eb f3 bd
       -0.047048163 0.028512213 0.04875379 -0.11910188
000240 62 88 bd be f4 1e db bc 0d 8f 6d be e6 88 bc 3e
       -0.37018114 -0.026748158 -0.23199101 0.36823195
000250 e1 fa b4 be d8 44 31 be 19 fc ba be e2 e2 1a 3e
       -0.35347655 -0.17311418 -0.3652046 0.15125611
000260 da 41 5f be d0 c6 aa 3d 94 a0 c9 be 34 7d 85 3e
       -0.21802464 0.08338702 -0.39380324 0.26072085
000270 f3 6e 47 be ca 8f db 3d 10 65 15 be 3e 0e 4f 3d
       -0.19475918 0.10720785 -0.14589334 0.05055069
000280 a8 df cc 3e c5 e5 da be 8a 55 a5 3e ec 19 8c 3e
       0.40014386 -0.42753425 0.32291824 0.27363527
000290 a6 03 79 bd 29 04 b2 3e 48 9d f5 bb 74 6e 91 3d
       -0.060794495 0.347688 -0.007495556 0.071011454
0002a0 ad ed d5 3e 45 73 b9 be aa 0b c1 3c 43 7c 84 be
       0.41782895 -0.36220756 0.023565132 -0.25876054
0002b0 66 30 a7 bc e7 d7 31 3e 99 88 e8 3d ba a9 b6 be
       -0.02040882 0.17367516 0.11354179 -0.35676366
0002c0 eb 91 4f be 4c 52 02 3e d0 94 ef bd 5f 85 a0 be
       -0.20270507 0.12726706 -0.116983056 -0.31351754
0002d0 24 a7 39 3d 4d b4 46 bd 5f ac f7 bd b3 32 bd be
       0.045325413 -0.048511792 -0.12093424 -0.36952743
0002e0 fe 07 83 bd b0 b6 ae be cc c1 b2 be 35 fd 6d 3e
       -0.06398009 -0.34123755 -0.3491348 0.23241122
0002f0 73 c3 7b 3e 00 18 eb 3e 2f 7b a4 be 8e 13 bb 3e
       0.24586277 0.45916748 -0.32125232 0.36538357
000300 08 1a c3 bd a8 aa 04 3c 1e bc 69 be d2 68 94 3e
       -0.095264494 0.008097328 -0.22825667 0.28986222
000310 be bf e8 3e b5 42 69 be 02 6f a8 be 19 eb 25 3c
       0.45458788 -0.22779353 -0.32897192 0.010126852
000320 34 1d 5c 3e 2d 85 6d 3d 62 f8 69 be d2 f6 81 be
       0.21495515 0.057988334 -0.22848657 -0.2538362
000330 96 31 19 3d ee 80 74 be e8 8a be be 46 b2 07 bd
       0.037400804 -0.23877308 -0.37215352 -0.033129
000340 20 bf 2b bb cd 44 78 3e d3 a2 8d 3e 3f ac 1a be
       -0.0026206449 0.24244995 0.27663288 -0.15104769
000350 2a ec 4c 3e bd df 38 3d 2b 95 b2 be 68 99 e4 3d
       0.20011964 0.04513525 -0.3487943 0.111620724
000360 fb a0 4e be cb 95 24 3e f2 16 4f be 54 a9 e4 bb
       -0.20178597 0.16072766 -0.20223597 -0.0069781933
000370 30 34 56 3e 18 cc 47 be 63 d5 b1 3d 66 4e 40 3d
       0.20918345 -0.1951145 0.086832784 0.046949767
000380 df d9 65 3c 3b 78 c7 3d 3f 73 b3 3e a8 35 ba 3e
       0.014028995 0.09739729 0.35048863 0.3636906
000390 3e 79 bb 3b 43 57 ca bd 6b b2 d2 3d 7a 35 d0 3e
       0.0057212403 -0.09879925 0.10287937 0.406658
0003a0 3e ca 18 be d8 fd f5 bc 28 60 c4 be b1 65 b1 be
       -0.149209 -0.030028269 -0.3835461 -0.34647897
0003b0 9a f0 69 be da d5 fa 3d 2b 50 6c 3e d1 b9 4b be
       -0.22845688 0.1224782 0.23077457 -0.19895102
0003c0 0a 3c 96 3e 43 59 bc 3e 32 a0 31 3e f8 d7 48 be
       0.2934268 0.3678685 0.17346266 -0.19613636
0003d0 03 ea 07 be 47 8d 8b be ca 16 86 be 52 ca ae be
       -0.13272862 -0.27256224 -0.26189262 -0.34138733
0003e0 08 68 ae 3e 2b c2 3b 3e cb 4d 8e bc 93 48 97 be
       0.34063745 0.18335788 -0.017371079 -0.29547557
0003f0 fb ee 60 be 01 f1 92 be 08 8a c4 3e 94 ca 2a 3e
       -0.21966164 -0.28699496 0.3838656 0.1667884

bias f4 [128]
000000 58 49 0b 3e 07 0d bc be d1 98 9a 3e 81 c7 6a 3e
       0.13602197 -0.3672869 0.30194715 0.22927667
000010 a5 1d aa be 5f 11 48 3e 3b ce 43 bd a9 1c e9 bd
       -0.33225742 0.19537877 -0.0478041 -0.113824196
000020 23 c3 5f 3e 28 39 b0 3d 7a 23 cc bb b4 30 3c be
       0.21851783 0.08604652 -0.006229815 -0.18377954
000030 e3 96 82 be 9c fe 40 3e b5 4d d8 3e 28 36 35 be
       -0.25505742 0.18847126 0.42246786 -0.1769644
000040 4e 20 b7 be 1f b6 54 be 36 6b a7 3e 1a 94 95 be
       -0.35766834 -0.20772599 0.32698983 -0.29214555
000050 54 bf e0 bd 61 b4 f5 bc db a5 b6 3e 9d ee 8f 3e
       -0.10973993 -0.029993238 0.35673413 0.28111735
000060 7c 4b b7 3e c2 e9 bd be de 9f 31 3b 79 a4 8c bd
       0.35799778 -0.37092406 0.0027103345 -0.06867308
000070 9f 27 80 3e 1a 70 9b 3e 7a 07 35 be f8 f5 cb 3e
       0.25030228 0.30358964 -0.17678633 0.39836097
000080 9d 70 ac be 9f f4 ab bd 10 a9 25 3e 2d b3 cc 3e
       -0.33679667 -0.08396267 0.16177773 0.3998045
000090 5a e0 e0 bd f7 82 93 3e 5b 5f 9b 3e 06 e6 c7 3d
       -0.10980292 0.28810856 0.30346188 0.0976067
0000a0 e6 46 0f be eb 40 68 3e 17 7b e9 bd 8d 14 ce 3e
       -0.1399189 0.22681014 -0.11400431 0.40250054
0000b0 68 b7 57 3e dc 6b 96 3e f5 f4 4b be e5 af c9 3e
       0.21066058 0.29379165 -0.19917662 0.3939201
0000c0 cc b5 8c be b0 28 0a 3d 1f 5d 83 3d 52 2e 85 be
       -0.2748245 0.03373021 0.06414246 -0.26011902
0000d0 1b 7f 6f be 58 74 9f 3e d6 87 c7 3e 4f a6 76 3e
       -0.2338833 0.3114345 0.38970822 0.24086879
0000e0 6f a9 1e bd 11 a8 31 3e 6e 00 85 3e 0f b1 f3 3d
       -0.038735803 0.17349268 0.2597689 0.118990056
0000f0 f3 85 4b 3d 7d 3f 1b 3e 91 27 c0 be 7d a7 5c be
       0.04968829 0.15160938 -0.37530187 -0.21548267
000100 64 2e 09 be 58 70 a8 bd a2 dd 98 be 16 d1 2b 3d
       -0.13396603 -0.08224553 -0.29856592 0.041947447
000110 65 c9 5d 3e d2 da ac be 5a 53 93 bd d2 fa 12 be
       0.21658857 -0.33760697 -0.071936324 -0.14353493
000120 7d 3d 0e be 8d 9c 62 be f4 4c b2 3e 80 9e 4c 3e
       -0.13890643 -0.22130032 0.34824336 0.19982338
000130 71 bd a7 be 3a 5e b2 bd a4 ea 95 3e 91 51 12 bc
       -0.3276172 -0.087093785 0.2928058 -0.00893058
000140 26 c3 a3 3e ae 22 e3 3e 4f 42 c1 be b6 d5 cc 3e
       0.31984824 0.44362396 -0.37745902 0.40006799
000150 de 07 c4 3e 01 0e 78 3e 58 d8 8d be 39 ff 2e 3e
       0.38287252 0.24224092 -0.2770412 0.17089547
000160 04 97 81 be c9 82 fe bd b7 80 80 3e 9d 12 72 3e
       -0.25310528 -0.12427289 0.25098202 0.23639913
000170 87 9e b9 3b d7 ce dd 3e f3 29 ca 3e eb 9f 73 bc
       0.00566465 0.4332187 0.3948513 -0.01486967
000180 3f 25 49 be cb f1 8e be 1f 12 80 be ea 4b 31 3e
       -0.19643115 -0.27918848 -0.25013825 0.17314115
000190 7f 09 3c 3c 55 87 f2 3d 30 7c 8d 3e 93 a3 81 3e
       0.011476873 0.11842219 0.2763381 0.2532011
0001a0 36 42 98 3d dc 56 bd 3e 4f 79 6f 3e 60 ab b2 be
       0.07434504 0.3698033 0.2338612 -0.34896374
0001b0 06 22 9b 3e 51 a7 93 3e 78 99 41 be 5e ba b1 3e
       0.30299395 0.2883859 -0.189062 0.347125
0001c0 ef 9e 94 3e 6f 68 86 be be 14 96 3e 41 0b e6 3e
       0.29027507 -0.26251552 0.293127 0.4493046
0001d0 68 75 46 be 2d ca 6c 3e b2 b3 b7 bc e3 1c 0b 3e
       -0.19380724 0.23123999 -0.022424553 0.13585238
0001e0 09 6b b8 3e 03 af 79 be ac ec a8 3e bd 09 65 be
       0.3601916 -0.24383168 0.32993066 -0.22366996
0001f0 4a e2 12 3e cb 17 2f 3e 9a 1c ad 3e 43 ed 32 be
       0.14344135 0.1709892 0.33810884 -0.1747332

weight f4 [64, 128]
000000 78 e8 9c 3d c2 21 47 3c fe 1a 4e bd 7d a4 3c 3d
       0.076615274 0.012154045 -0.05031871 0.046055306
000010 c9 63 9e bd f1 04 08 bd e2 88 6b bd b2 c1 9d bd
       -0.07733876 -0.033207837 -0.05750359 -0.0770296
000020 8d af 5d bc 14 45 5a 3c 48 f4 a9 bb 96 19 33 3d
       -0.013530624 0.013322134 -0.0051865913 0.043725573
000030 97 10 68 bd 18 ea 1c 3d cb db a1 3c 21 e8 24 bd
       -0.056656446 0.038309187 0.019758126 -0.040260438
000040 6a 15 85 bd 81 05 63 3d a1 8c 86 bc 5d ea 82 3d
       -0.06498225 0.05542517 -0.016424479 0.063923575
000050 bf f0 a0 3c b3 a5 75 3d 30 78 65 bd 67 73 9e 3c
       0.019646047 0.059972476 -0.056022823 0.019342138
000060 c2 af ae bd 33 e9 b2 bd 20 8f 9b 3d 09 a8 af bc
       -0.08529617 -0.087358855 0.07595658 -0.02144243
000070 de 6f 72 bd dc 65 2a bd ec 46 ae 3c 70 c1 0b bd
       -0.059188716 -0.041601047 0.021274053 -0.034120023
000080 9d 01 a3 bd 77 de 1d bc a0 62 8e 3d f0 70 37 3d
       -0.07959292 -0.009635559 0.06952405 0.04478544
000090 31 45 23 3d a2 9e 33 3d ea a9 8c bd d9 6c a9 3d
       0.039860908 0.043852456 -0.06868346 0.08272714
0000a0 ff 17 87 3c 86 2d 83 3d d3 79 86 bc 61 b5 01 3c
       0.016490934 0.06405167 -0.016415512 0.007916779
0000b0 b3 c5 6c bd 4c 02 09 3d a0 1e f4 bb 9e 54 7d 3d
       -0.05780573 0.033449456 -0.00744994 0.061848275
0000c0 bf d0 aa bd 82 da 95 3c cf 88 64 3d fa 7d a4 3a
       -0.083405964 0.01829267 0.055794533 0.0012549751
0000d0 3b bb 65 bd bd 70 a1 bd 18 86 81 bd f7 54 95 bd
       -0.05608676 -0.07882831 -0.063244045 -0.072915964
0000e0 a3 24 7a 3d 2e d1 9e 3d 27 c4 1c bd ab 97 dc 3c
       0.061070096 0.077547416 -0.038273003 0.02692779
0000f0 cc c1 6d 3d 01 03 88 3d ca b3 f7 3c c0 af a6 3c
       0.058046147 0.06641198 0.030237097 0.020347476
000100 99 c3 91 3d 8a df 8d bd ed 61 6f 3d 42 cd a0 bd
       0.071173854 -0.06927402 0.058443 -0.0785165
000110 9c 58 95 3d 39 6b e2 3c e7 6e 29 3d 32 fd aa 3d
       0.072922915 0.027639018 0.04136553 0.083490744
000120 84 11 8c bc d9 86 fa bb 98 26 24 bd 2f 48 ed 3b
       -0.017098196 -0.0076454696 -0.04007587 0.007241271
000130 f6 65 0a bd a9 94 80 bc 6d a1 a3 bd a4 e1 95 bd
       -0.033788644 -0.015695887 -0.07989774 -0.07318428
000140 05 6c 03 3d 78 f3 aa bd 89 73 e5 3b d4 40 79 3c
       0.032085437 -0.08347219 0.0070022983 0.01521321
000150 17 89 1c bd 5d 3d 31 3d fe 2b 42 bd d4 1a 4e bd
       -0.038216677 0.04327141 -0.047405235 -0.050318554
000160 14 9d ab 3d c5 b1 07 bc c7 f4 a9 3d d4 fa a2 3d
       0.0837957 -0.00828213 0.08298641 0.07957998
000170 07 12 62 3d 88 c3 f5 b8 db 94 2d bd 5b 75 5d bd
       0.055192973 -0.00011718931 -0.042378288 -0.054066997
000180 ae d3 9f bd 32 8c fa bc ef 32 07 bd 3f 20 de 3c
       -0.078040466 -0.030584428 -0.03300756 0.027114986
000190 72 a7 23 bd 77 bf 10 3d 4b 19 bb bc 14 7a 85 bd
       -0.03995461 0.035338845 -0.022839209 -0.06517425
0001a0 04 53 9d 3d d1 38 90 bd d1 96 ae bd 8b 3c 2d 3d
       0.076818496 -0.07042087 -0.0852486 0.042294066
0001b0 ea 61 02 bc 21 44 7e bd c7 b4 41 3d 19 0c e1 3c
       -0.007957915 -0.06207669 0.047291543 0.027471589
0001c0 3c 2b a2 3c ae a1 cb ba 39 05 89 bc 63 ba 85 bd
       0.019796006 -0.0015535855 -0.016726123 -0.06529691
0001d0 dc a6 6b bc 9f c5 68 3d 3a 04 12 bc 5e 04 fe ba
       -0.014383044 0.05682909 -0.0089121405 -0.0019379964
0001e0 5f 5d 65 3d b3 40 b0 3d 5c aa 1b bd 67 65 b1 bd
       0.05599725 0.086060904 -0.038004264 -0.08661919
0001f0 88 6b 8e 3c 0f 6a dc 3b f6 fe 38 bc b0 c4 02 3d
       0.01738526 0.0067265104 -0.011291256 0.031925857
000200 1a 8a 9b 3b 6b 5a 44 bd 2e f7 59 bd 9b 61 3d bb
       0.0047466876 -0.04793779 -0.053214245 -0.0028897289
000210 ec ef a7 bd b3 50 f4 bc 12 07 5d 3d 6d ba 93 bd
       -0.08200058 -0.029823637 0.05396182 -0.07213292
000220 e7 b4 83 bd 19 57 d2 bc 2b 2b c9 bb 15 d0 82 bd
       -0.06430989 -0.025676297 -0.006139179 -0.06387345
000230 1d 94 93 3d 72 d2 13 bd 95 4e bc 3c 4f 2b a7 bc
       0.07205985 -0.03608937 0.02298669 -0.020406393
000240 b5 10 d2 bb 19 b2 14 bd 8e f8 bb bd 73 0f 1f ba
       -0.006410683 -0.03630266 -0.091782674 -0.0006067671
000250 e6 c6 8d 3c 6a 4e 44 3c b1 2d 88 bd 0f 81 e5 bb
       0.017306756 0.011981586 -0.0664934 -0.0070039104
000260 ca 49 91 bd 4d 18 a6 bd 11 46 8f bb 61 58 7f 3c
       -0.07094152 -0.08110104 -0.0043723662 0.015585036
000270 d4 da 46 3d 89 b1 a2 bd 09 4f 50 bd 60 f2 8b bd
       0.048548535 -0.079440184 -0.050856624 -0.06833339
000280 b7 91 41 bd b2 39 56 3d f8 51 5a bc af 34 5d bd
       -0.047258105 0.052301116 -0.013325207 -0.05400532
000290 26 67 9b bd 36 7c 56 bd 60 3c ca bc 34 7c 0c 3d
       -0.075880334 -0.05236455 -0.024686992 0.034298137
0002a0 f6 75 5c bd a8 da 90 3c bb ea 84 3d 86 cb c4 3c
       -0.053823434 0.017682388 0.06490084 0.024022829
0002b0 88 2d c8 3c 6d 32 a6 bd 53 63 d3 3b 79 f1 41 3d
       0.024435773 -0.08115087 0.0064510494 0.047349427
0002c0 cc 2e 94 3d a1 26 8f bd 90 17 a3 3d 97 c2 86 3b
       0.07235488 -0.0698979 0.079634786 0.0041125524
0002d0 d1 aa 4b 3d 96 a7 45 bd a6 61 5f 3d 1a a9 7e 3d
       0.04972345 -0.048255526 0.054536484 0.062172987
0002e0 95 07 ba bc c0 61 b0 3c ad 98 06 bc 30 aa a4 bd
       -0.022708694 0.021530986 -0.008215112 -0.08040273
0002f0 7b ca 4d 3c 39 bf 6f 3d 99 25 97 bd 5e 61 a1 bd
       0.012560482 0.058531974 -0.07380218 -0.078798994
000300 00 52 a3 3d 32 47 b2 3d 34 65 03 3c fb 92 8e bc
       0.07974625 0.08704986 0.008019734 -0.01740407
000310 91 f9 c1 ba de 0f 9a bd 51 41 79 b7 ee 62 ac 3d
       -0.0014799108 -0.07522558 -1.4856764e-05 0.08417307
000320 8e 00 24 3d b6 3f c9 3b f1 d7 9a 3d 11 c6 81 3d
       0.04003959 0.006141628 0.07560719 0.06336606
000330 3a de 77 3d 6d 4f 6f 3d 5b 48 40 3d ce 3d e0 3b
       0.060514666 0.058425356 0.046944004 0.006843305
000340 03 27 88 bd 04 c3 2c bd 99 36 98 3c 11 66 7b 3d
       -0.06648066 -0.04217817 0.018580722 0.061376635
000350 09 42 bc 3b 57 38 0a bd 67 09 92 3d d3 38 fd bc
       0.0057451767 -0.033745136 0.071306996 -0.030910885
000360 3d 48 6c bd f2 de 3d 3b 7b a1 28 3d 80 e7 54 bd
       -0.05768608 0.0028971997 0.041169625 -0.051978588
000370 cc e2 17 3d 8b d0 c5 bd 2b 05 4c 3d 94 70 9c 3d
       0.037081525 -0.09658917 0.049809616 0.0763866
000380 93 e2 93 3d f2 50 5f bd 8f 62 71 3d bf 8f fb 3c
       0.0722095 -0.054520555 0.058931883 0.030708192
000390 7c 78 a6 bd 78 f0 09 bc d0 b1 86 3d 13 dc 5d bd
       -0.08128449 -0.008419149 0.06576884 -0.054164957
0003a0 49 9c bc bd 8e d9 c3 bc 94 83 91 3d ea f7 c9 3c
       -0.092094965 -0.02390745 0.07105175 0.024654347
0003b0 58 54 57 bc 75 9d a7 bd 5b 98 73 3d 20 04 32 bd
       -0.013142668 -0.081843294 0.05947147 -0.043460965
0003c0 b2 47 8e 3d 3c 65 a7 bb 50 6a 11 3c 4c e8 d6 bc
       0.069472685 -0.0051085036 0.0088754445 -0.026233815
0003d0 dc cc a9 bb 9e ef a7 3d 41 12 24 3c ad 42 13 3d
       -0.005181892 0.082 0.010014118 0.03595226
0003e0 63 82 91 3d 8a b4 5e 3d f8 8c 67 3d 49 ac 1d 3d
       0.071049474 0.054371394 0.056530923 0.038494382
0003f0 8a ee 6d 3d c1 6a 44 3d 32 d7 c9 bd 11 6c 77 bc
       0.058088817 0.04795337 -0.098554984 -0.015101449

bias f4 [64]
000000 d3 0d 47 3b c7 5e 9a 3d 04 45 5b bc bb d5 6f 3c
       0.003037323 0.075376086 -0.013383154 0.01463836
000010 01 94 44 3c cb 7d 6d 3c a9 42 8a 3d b8 d2 74 3c
       0.0119981775 0.014495323 0.06750996 0.014942817
000020 3c de a6 3c 6d 9f c2 3c ab bc 5d 3d 74 a9 51 3c
       0.020369641 0.02375766 0.054135006 0.012796748
000030 f2 4d 0d 3a db 48 21 bd 56 4f 16 bc 05 17 9b bd
       0.0005390338 -0.03937612 -0.009174189 -0.0757275
000040 56 4e fb 3b cb cf 0a 3e 96 18 20 bc 49 6f 9d 3d
       0.0076692505 0.13555829 -0.009771487 0.076872416
000050 11 76 a8 3d d0 48 89 bd 55 14 a4 3d d5 9a a1 bd
       0.082256444 -0.06703341 0.080116905 -0.0789086
000060 2f 8b 98 3d 95 96 d0 bc 41 9f 9d 3d 20 0e 85 3d
       0.07448422 -0.025462428 0.07696391 0.06496835
000070 ac 2b 08 3d 8b 83 3b 3d c0 ae 7f bd b5 67 8d 3d
       0.033244774 0.045779746 -0.062422514 0.06904546
000080 27 a7 13 3d ae af af 3d 6e 68 d8 3d 20 ab cf 3c
       0.03604808 0.0857843 0.105667934 0.025350153
000090 44 18 2a bd ac 33 75 3d f1 52 e2 3d 7f 7a 7a bd
       -0.041527048 0.05986373 0.11050976 -0.061151978
0000a0 56 81 af ba da 8b 54 bc f4 91 70 3d a8 a2 82 3d
       -0.0013389986 -0.012972796 0.05873294 0.063786805
0000b0 7b 8d 63 3c da 06 ca 3d 19 fe de bc 0d 32 bd 3c
       0.013888712 0.09864588 -0.027220773 0.023095155
0000c0 d2 e9 94 bc 79 a6 34 3d 6b ce 60 3d 32 20 28 3d
       -0.0181779 0.044104073 0.054884356 0.04104633
0000d0 ef 5b 6d 3d ae fe 04 3e 20 01 1e bd 23 7b cb 3d
       0.057949003 0.12987778 -0.03857529 0.09935596
0000e0 a5 d5 d4 3d fe 00 51 bd 01 74 c6 bc 25 5f aa bd
       0.10392312 -0.051026337 -0.024225237 -0.08318929
0000f0 76 db 91 3d 30 b2 33 3d f9 9a 3f bd 2d 96 0c 3e
       0.07121937 0.043871105 -0.046778653 0.13729163
