2023/baseline0806/model/WLTP_trained_0822/PPO_actorcritic_19episode.pt (torch, 101527 bytes, 17 tensors)

weight f4 [128, 7]
-0.21346192 -0.20414129 0.26200125 -0.30596548 -0.2575839 0.38028863 0.3772155 -0.04047977
-0.18133801 0.08495145 -0.27926734 -0.13682394 -0.36225837 -0.30152673 0.08932457 -0.039952297
-0.16937882 0.13481602 0.32321942 0.3777138 0.076132566 -0.31240934 -0.17803223 -0.24621487
-0.04621042 -0.17243917 0.26611364 0.40489525 0.091757625 -0.18350011 -0.3682189 0.07411985
0.081675045 0.19185579 -0.0138529185 -0.04815168 -0.06910875 -0.3005549 0.0019514593 0.2698367
0.14565735 0.32938406 -0.33917677 -0.25368536 -0.33796388 0.011872757 -0.27600446 -0.1458769
-0.0047227717 0.10198025 -0.30191895 0.36276346 0.33099115 0.32029703 -0.37394518 -0.018383767
0.412168 -0.03072015 -0.26649266 0.00030324538 0.32991892 -0.26780522 0.029435098 0.32437894
-0.14722908 -0.36117807 -0.3304417 -0.1506934 0.35439402 0.31647462 0.30818242 0.30091247
0.07593043 0.18541038 -0.29553252 0.037651256 0.061308354 -0.040886737 0.415627 0.19767135
-0.10597214 0.21034949 -0.046456773 -0.09122292 -0.26418918 -0.2333497 0.2599685 -0.31303373
0.24495366 -0.14589849 0.2203435 0.24495727 0.24478531 0.314398 0.085548855 -0.16127115
-0.14966485 -0.2744568 -0.027728463 0.020818906 0.113534555 0.021021685 -0.030081084 0.172193
-0.2290763 0.20277932 -0.25891596 -0.008542604 0.17668563 -0.040962648 0.29816926 -0.24716057
-0.19666818 -0.35057142 -0.22344191 0.27653983 0.10044489 -0.12633146 0.037019134 -0.17227861
0.3723705 -0.1980249 0.37441638 -0.21751352 -0.1181642 -0.22600612 0.35235628 -0.11439528
0.012607565 -0.34188128 -0.29980502 -0.25852242 -0.25238127 -0.24795125 -0.28962433 -0.15897192
-0.12573725 -0.007137054 -0.24555889 -0.2975131 0.32565677 -0.10689091 0.09927939 0.07034886
0.030735252 0.33812147 0.32678866 -0.092744894 0.012863153 -0.07907031 -0.11870279 0.012077045
-0.20682047 0.07127561 -0.3395233 0.08697207 0.2582558 -0.076637834 0.021903137 -0.14358664
0.27966732 0.25153208 -0.09014828 0.18394008 0.25621268 0.05907415 0.3222599 0.39593503
0.36284834 -0.18985252 0.059612464 -0.2732841 0.33928424 -0.10216667 0.29985115 0.05586602
0.043767978 -0.34985447 -0.10564954 -0.039340556 0.15841813 -0.18675223 0.21358621 -0.2552687
0.2536846 -0.15750653 -0.16385923 0.23697658 0.16298893 0.31627062 0.10641892 0.1443151
0.24261847 0.2851431 -0.15139909 0.2819637 -0.04945453 0.2920783 -0.12163917 0.25458026
-0.2378352 -0.09485097 0.12962563 0.3277703 0.06958595 0.16656908 -0.19510604 0.1275588
0.39070493 0.21550348 -0.119208746 -0.17921197 -0.08859776 0.13922498 -0.24983655 0.22264041
0.29625753 0.17203803 -0.11967406 0.13172711 -0.07253702 0.25574937 0.36382502 0.2597271
0.09376334 -0.20701413 -0.089632995 0.35657895 0.3111641 -0.16423611 0.003998414 0.2243252
0.1124615 0.07247055 0.37329614 0.19841889 -0.23482656 0.33374852 0.12850139 -0.25874257
-0.20553106 -0.121753514 0.3259064 -0.1999412 0.046152692 0.08440167 0.0018659922 0.18392625
-0.15342689 0.048573382 -0.17999782 0.26713732 -0.21056668 0.28155795 0.051643066 0.28283858
00000000: c395 5abe 6a0a 51be 0725 863e 82a7 9cbe
00000010: 09e2 83be 31b5 c23e 6422 c13e 1ece 25bd
00000020: acb0 39be 07fb ad3d 21fc 8ebe 931b 0cbe
00000030: ee79 b9be b661 9abe cdef b63d 05a5 23bd
00000040: a471 2dbe 360d 0a3e 047d a53e b463 c13e
00000050: 64eb 9b3d 1ef4 9fbe 154e 36be c01f 7cbe
00000060: 2347 3dbd e593 30be 0c40 883e 6e4e cf3e
00000070: 6ceb bb3d 74e7 3bbe 3087 bcbe 26cc 973d
00000080: 3f45 a73d d875 443e 5af7 62bc b23a 45bd
00000090: e388 8dbd 55e2 99be 1cc8 ff3a 0928 8a3e
000000a0: 3327 153e 07a5 a83e 94a8 adbe 0ce3 81be
000000b0: 9a09 adbe f485 423c 7550 8dbe c160 15be
000000c0: 7bc1 9abb 05db d03d 1f95 9abe 22bc b93e
000000d0: ac77 a93e f9fd a33e be75 bfbe 8e99 96bc
000000e0: af07 d33e d3a8 fbbc ba71 88be e8fc 9e39
000000f0: 22eb a83e c41d 89be e021 f13c ff14 a63e
00000100: 38c3 16be 55ec b8be a82f a9be 5f4f 1abe
00000110: 2273 b53e f608 a23e 16ca 9d3e 3311 9a3e
00000120: 6a81 9b3d 38dc 3d3e 0a50 97be 3438 1a3d
00000130: 781e 7b3d da78 27bd 10cd d43e 5c6a 4a3e
00000140: ec07 d9bd db65 573e 7549 3ebd 15d3 babd
00000150: ce43 87be 39f3 6ebe 971a 853e f545 a0be
00000160: 22d5 7a3e 6a66 15be baa1 613e 14d6 7a3e
00000170: 00a9 7a3e c6f8 a03e 3d34 af3d 4424 25be
00000180: be41 19be 9a85 8cbe cd26 e3bc 698c aa3c
00000190: ce84 e83d ab35 ac3c 9b6c f6bc 5d53 303e
000001a0: fa92 6abe 62a5 4f3e a290 84be 47f6 0bbc
000001b0: 14ed 343e 73c8 27bd a4a9 983e a917 7dbe
000001c0: 6263 49be 197e b3be f5cd 64be a196 8d3e
000001d0: 0db6 cd3d 095d 01be 60a1 173d ce69 30be
000001e0: 59a7 be3e 0ac7 4abe 81b3 bf3e ddbb 5ebe
000001f0: 1200 f2bd 266e 67be 0b68 b43e 1348 eabd
00000200: f68f 4e3c 100b afbe 0b80 99be 0d5d 84be
00000210: 1e38 81be efe6 7dbe a449 94be 89c9 22be
00000220: 44c1 00be f3dd e9bb ca73 7bbe a353 98be
00000230: 7cbc a63e 9fe9 dabd fe52 cb3d 1013 903d
00000240: 7fc8 fb3c 421e ad3e d850 a73e 09f1 bdbd
00000250: f9bf 523c 9def a1bd 731a f3bd ccde 453c
00000260: bfc8 53be f2f8 913d ffd5 adbe 6a1e b23d
00000270: 1b3a 843e 4cf4 9cbd 356e b33c 6008 13be
00000280: 8e30 8f3e d0c8 803e a99f b8bd ca5a 3c3e
00000290: 4f2e 833e bcf7 713d 40ff a43e ffb7 ca3e
000002a0: 42c7 b93e b368 42be 332c 743d e5eb 8bbe
000002b0: aab6 ad3e c23c d1bd 1786 993e c5d3 643d
000002c0: 0d46 333d 2020 b3be c95e d8bd 9023 21bd
000002d0: 5d38 223e fa3b 3fbe 58b6 5a3e 94b2 82be
000002e0: f3e2 813e 6449 21be b7ca 27be fda9 723e
000002f0: 92e6 263e 39ee a13e 2af2 d93d 56c7 133e
00000300: fa70 783e 47fe 913e 5d08 1bbe 8c5d 903e
00000310: d590 4abd 498b 953e f51d f9bd 5858 823e
00000320: 128b 73be 3a41 c2bd 95bc 043e 82d1 a73e
00000330: 1483 8e3d 1691 2a3e e1c9 47be c69e 023e
00000340: 7a0a c83e f2ac 5c3e b723 f4bd 5883 37be
00000350: be72 b5bd fe90 0e3e 27d5 7fbe d9fb 633e
00000360: 11af 973e bd2a 303e ac17 f5bd 79e3 063e
00000370: 4a8e 94bd 95f1 823e 4647 ba3e f3fa 843e
00000380: fe06 c03d 83fb 53be 8191 b7bd 8491 b63e
00000390: e750 9f3e 832d 28be 2105 833b 81b5 653e
000003a0: 3752 e63d 716b 943d ac20 bf3e 522e 4b3e
000003b0: 6076 70be 16e1 aa3e de95 033e e879 84be
000003c0: bc76 52be e859 f9bd 34dd a63e 63bd 4cbe
000003d0: 9b0a 3d3d c8da ac3d 4f94 f43a 2a57 3c3e
000003e0: f01b 1dbe e2f4 463d 5951 38be 39c6 883e
000003f0: cb9e 57be 5d28 903e ae87 533d 38d0 903e

bias f4 [128]
-0.17599295 -0.23855948 0.19466671 0.4120084 0.063006826 -0.14551905 -0.10246875 0.110748224
-0.02485 0.39302772 0.30803984 0.044284385 0.098141395 0.22273025 0.06687768 -0.14760399
-0.19962066 0.16846982 0.35429773 0.08287509 -0.07156706 -0.30263132 0.23070055 -0.21690117
-0.07147873 -0.28329474 -0.10424989 0.07395451 -0.37740162 -0.3233935 0.28432986 0.010460821
0.32259232 0.07578501 0.29551733 -0.274575 -0.2895217 -0.101546034 -0.32379743 -0.11461865
-0.21233219 -0.39959058 -0.0031816114 -0.06115846 -0.28569514 -0.020590773 -0.26561424 -0.0032313112
-0.25399947 -0.15113549 0.2292115 0.39726394 0.030918844 -0.3201108 -0.14496033 0.2165057
0.30831116 0.28900412 -0.068753324 -0.35060346 -0.332542 0.14906201 0.023614313 0.30605957
0.28886962 -0.19416589 -0.35537192 -0.35159215 0.41104314 0.09430759 0.10230923 -0.036062855
-0.2679288 0.3601208 0.083262935 -0.04856006 0.15254487 0.2970793 -0.095486626 0.31473556
0.29931384 0.28806335 0.17187451 -0.25819716 -0.13875464 -0.11019014 -0.30423152 -0.21288033
-0.33719918 -0.13239059 0.37694383 0.29136837 0.38505015 0.41008028 0.10259554 -0.2988338
0.004611814 0.28070083 0.13596566 -0.32702276 0.40667927 0.27346334 0.19923304 0.3646917
-0.2086159 0.024638543 0.093456976 -0.17405108 -0.1566861 0.10891247 0.07385514 -0.25089827
-0.3377334 -0.110334836 0.3203068 0.057522066 -0.165177 0.11599355 0.26656467 -0.15053111
0.27025503 -0.11477198 -0.15182148 0.19598639 0.19138414 -0.2883169 0.32144892 -0.27166873
00000000: 7f37 34be f048 74be b656 473e c4f2 d23e
00000010: b909 813d f202 15be 23db d1bd f7cf e23d
00000020: 3a92 cbbc ee3a c93e 66b7 9d3e 8b63 353d
00000030: 5bfe c83d 6613 643e 2af7 883d 8025 17be
00000040: 5c69 4cbe 5a83 2c3e 8366 b53e 6aba a93d
00000050: c091 92bd 7ef2 9abe c43c 6c3e 571b 5ebe
00000060: 7163 92bd 020c 91be f780 d5bd 7675 973d
00000070: c93a c1be d593 a5be af93 913e dd63 2b3c
00000080: d22a a53e 2c35 9b3d 0c4e 973e 1895 8cbe
00000090: 303c 94be 5ef7 cfbd c7c8 a5be 2fbd eabd
000000a0: 9c6d 59be 2397 ccbe 9582 50bb 4b81 7abd
000000b0: a246 92be fbad a8bc 97fe 87be 68c4 53bb
000000c0: 380c 82be 43c3 1abe 6bb6 6a3e 2e66 cb3e
000000d0: 8449 fd3c 90e5 a3be 7b70 14be acb3 5d3e
000000e0: f6da 9d3e 59f8 933e 8bce 8cbd 4c82 b3be
000000f0: f242 aabe b6a3 183e ce72 c13c d7b3 9c3e
00000100: b8e6 933e 6cd3 46be 4ff3 b5be e303 b4be
00000110: 3f74 d23e 5624 c13d 8087 d13d a5b6 13bd
00000120: f72d 89be c161 b83e c285 aa3d eae6 46bd
00000130: b934 1c3e c71a 983e 7e8e c3bd 0525 a13e
00000140: aa3f 993e 0a7d 933e dfff 2f3e 6b32 84be
00000150: b215 0ebe 5eab e1bd 3cc4 9bbe 4dfd 59be
00000160: 5fa5 acbe 6691 07be c8fe c03e 3c2e 953e
00000170: 4b25 c53e 0bf6 d13e 9c1d d23d be00 99be
00000180: b31e 973b 05b8 8f3e 953a 0b3e 876f a7be
00000190: 4438 d03e 6303 8c3e bf03 4c3e dfb8 ba3e
000001a0: 689f 55be c5d6 c93c 5f66 bf3d 723a 32be
000001b0: 5272 20be 800d df3d 5d41 973d bd75 80be
000001c0: 64eb acbe 3bf7 e1bd 41ff a33e 429c 6b3d
000001d0: 2924 29be 078e ed3d 2a7b 883e d424 1abe
000001e0: de5e 8a3e 920d ebbd 1777 1bbe a8b0 483e
000001f0: 34fa 433e 469e 93be f494 a43e 2a18 8bbe

weight f4 [64, 128]
-0.027703281 0.08445547 0.0021649362 0.04672471 0.06078997 -0.05942106 0.08507825 -0.023983832
-0.079545654 -0.057986487 0.012335802 0.08808212 -0.021906056 0.02188569 -0.08064738 0.016579168
0.0135820955 -0.07182429 -0.028398862 -0.033941783 -0.03673674 0.06711046 -0.008023296 -0.05483088
0.022976175 0.04112429 0.03367017 0.007650085 -0.010363467 -0.0667817 -0.05795728 0.05804877
0.07736955 -0.029084329 -0.0026709826 -0.06385309 -0.0028960258 -0.07827878 0.08646786 0.024444023
-0.024674483 0.019193212 0.06066195 0.021296402 0.08289234 -0.03596458 -0.01304858 -0.07610229
0.07553955 -0.07755403 -0.00075040356 -0.05779418 -0.03783927 0.05904231 -0.026597612 0.07779386
0.0376942 -0.061468408 -0.028970426 -0.05797122 -0.070453346 -0.0051684994 -0.058511343 -0.06557851
-0.044891186 0.08343529 0.0750244 0.052788462 0.041695066 0.039255332 -0.0022783321 0.06872614
0.05589847 0.05188591 0.014844962 -0.08489039 -0.06378671 0.018853782 -0.07154178 -0.06569278
0.03539688 -0.043168887 -0.06701163 -0.028747343 -0.0046053333 -0.025042571 -0.03969757 0.061060477
0.029603483 0.083229944 -0.03509116 0.021074794 -0.034870744 0.077670686 0.044192173 -0.020753477
0.029261028 0.02195226 -0.0022944428 -0.051406637 0.0055413097 0.027152801 -0.005757228 0.031471074
0.0472494 0.058117773 -0.017530907 -0.01700562 0.05060865 -0.07069959 0.08190491 0.024167044
0.024085827 0.032102633 -0.055117287 -0.07333441 -0.044874497 0.01926227 0.0011387762 -0.05130032
-0.032025967 0.06976376 0.010952322 -0.014667609 -0.035963893 -0.054312788 -0.07212371 0.057605606
0.052929286 0.08364505 -0.0607058 -0.022128232 -0.036169976 0.0020953047 -0.048791036 0.022198882
0.0027861279 0.04020738 -0.018154496 -0.040801574 -0.011528332 -0.038606238 -0.0065422864 -0.017112242
0.04167903 0.037538394 -0.06369406 0.027126174 0.07376174 0.08677953 -0.018781131 0.030664757
-0.05513521 0.060351945 0.0051644584 0.049144745 0.062058344 -0.045772377 0.064923115 0.031268667
-0.04152115 -0.07208918 0.032477804 0.053880405 0.077645 0.0811722 0.05974071 -0.026937768
-0.028915005 -0.04341434 -0.02185719 0.061899044 0.08386028 -0.014365089 -0.0015601803 -0.023141917
-0.07310376 -0.053455133 0.07619092 -0.039043136 0.027537419 0.026305197 -0.07053581 -0.03982881
-0.059789646 -0.0016900635 0.028900389 0.057543427 0.053520247 -0.06639774 0.031384926 0.054243837
0.031162186 0.079595774 -0.044067733 -0.08477634 -0.06675888 0.01699168 0.08025298 0.042538244
-0.01851236 -0.04527443 0.04650051 0.040636357 0.06505203 -0.077474 -0.04615539 0.026226593
-0.00747451 0.040593505 -0.028209168 -0.07238634 0.0777486 0.004175471 -0.023741035 -0.0863523
0.06663096 0.0005249495 -0.0056786635 -0.073823005 -0.03765239 -0.07625438 -0.010724338 0.003075287
0.021431472 0.056939486 0.013530023 -0.08161974 -0.04043227 -0.014347669 -0.07485057 0.07842639
-0.026197575 -0.047628798 -0.0089202225 -0.04787005 0.0124896625 0.053027432 -0.077411525 0.061070614
0.086698964 0.012240119 0.036840316 -0.073442176 -0.03142736 0.087315984 0.0022675383 0.043949477
-0.0617263 -0.055403244 0.040924683 -0.0053939745 0.037751105 0.084207386 0.06130473 0.04175484
00000000: fef1 e2bc fdf6 ac3d 9ae1 0d3b 6962 3f3d
00000010: e7fe 783d 7f63 73bd 813d ae3d be79 c4bc
00000020: d5e8 a2bd 3d83 6dbd 1b1c 4a3c 6664 b43d
00000030: 5474 b3bc 9e49 b33c 742a a5bd 09d1 873c
00000040: 7087 5e3c 9d18 93bd bba4 e8bc 8a06 0bbd
00000050: 4479 16bd 3571 893d 2474 03bc 5896 60bd
00000060: 8838 bc3c f271 283d bbe9 093d 90ad fa3b
00000070: 88cb 29bc d8c4 88bd 9d64 6dbd 8cc4 6d3d
00000080: ed73 9e3d 4242 eebc a70b 2fbb 69c5 82bd
00000090: 40cb 3dbb a050 a0bd 1016 b13d d53e c83c
000000a0: 2422 cabc 153b 9d3c aa78 783d cb75 ae3c
000000b0: 76c3 a93d 984f 13bd b6c9 55bc 84db 9bbd
000000c0: 7bb4 9a3d a6d4 9ebd bbb6 44ba 97b9 6cbd
000000d0: 5afd 1abd 59d6 713d 3ce3 d9bc 6352 9f3d
000000e0: 3c65 1a3d 4cc6 7bbd 6353 edbc 3b73 6dbd
000000f0: d849 90bd 845c a9bb 97a9 6fbd 074e 86bd
00000100: d2df 37bd 1fe0 aa3d 65a6 993d b738 583d
00000110: 72c8 2a3d 33ca 203d 1250 15bb 4ac0 8c3d
00000120: cbf5 643d 5286 543d 4938 733c 03db adbd
00000130: 9ba2 82bd 3f73 9a3c 7f84 92bd f089 86bd
00000140: 52fc 103d dcd1 30bd 653d 89bd 8c7f ebbc
00000150: 56e8 96bb 1426 cdbc eb99 22bd 8d1a 7a3d
00000160: 0183 f23c 7674 aa3d c0bb 0fbd 0ca5 ac3c
00000170: a0d4 0ebd cf11 9f3d da02 353d 3203 aabc
00000180: d3b4 ef3c 3ad5 b33c 5d5e 16bb c48f 52bd
00000190: e093 b53b 8d6f de3c 21a7 bcbb d0e7 003d
000001a0: 9688 413d e70c 6e3d fa9c 8fbc 5f4f 8bbc
000001b0: 044b 4f3d f2ca 90bd c3bd a73d f7f9 c53c
000001c0: a44f c53c 0d7e 033d aac2 61bd 5a30 96bd
000001d0: 52ce 37bd e8cb 9d3c fd42 953a 4920 52bd
000001e0: a92d 03bd 4de0 8e3d 5e71 333c 6950 70bc
000001f0: e04e 13bd 1677 5ebd 98b5 93bd dbf3 6b3d
00000200: 61cc 583d 194e ab3d a5a6 78bd 4446 b5bc
00000210: f826 14bd 6151 093b 1cd9 47bd 6eda b53c
00000220: 7897 363b 7eb0 243d bdb8 94bc 8d1f 27bd
00000230: 54e1 3cbc 9321 1ebd ad60 d6bb f92e 8cbc
00000240: a1b7 2a3d dcc1 193d 0872 82bd b637 de3c
00000250: 6510 973d 77b9 b13d e3da 99bc a834 fb3c
00000260: 75d5 61bd 9a33 773d 9e3a a93b 004c 493d
00000270: e430 7e3d d17b 3bbd 69f6 843d 9313 003d
00000280: 1512 2abd 7ea3 93bd 7207 053d b3b1 5c3d
00000290: 5704 9f3d 9c3d a63d adb2 743d 98ac dcbc
000002a0: 29df ecbc 3cd3 31bd da0d b3bc da89 7d3d
000002b0: f0be ab3d 8d5b 6bbc f77e ccba 1e94 bdbc
000002c0: 6db7 95bd c5f3 5abd fc09 9c3d b2eb 1fbd
000002d0: 2796 e13c ff7d d73c 1475 90bd 8923 23bd
000002e0: fde5 74bd 1f85 ddba 82c0 ec3c a8b2 6b3d
000002f0: 0c38 5b3d 8afb 87bd 7b8d 003d c92e 5e3d
00000300: d747 ff3c 1c03 a33d 5e80 34bd 389f adbd
00000310: e1b8 88bd 2332 8b3c ad5b a43d 953c 2e3d
00000320: 3ca7 97bc ae71 39bd 5277 3e3d 4f72 263d
00000330: 003a 853d b0aa 9ebd 6f0d 3dbd 27d9 d63c
00000340: bcec f4bb 6045 263d ea16 e7bc 4a3f 94bd
00000350: a83a 9f3d 64d2 883b 8f7c c2bc 7ad9 b0bd
00000360: d075 883d c49c 093a 1514 babb 8430 97bd
00000370: 6439 1abd 422b 9cbd 22b5 2fbc c18a 493b
00000380: 0e91 af3c 6139 693d 08ad 5d3c 4028 a7bd
00000390: 4f9c 25bd 7c12 6bbc 414b 99bd 049e a03d
000003a0: 4c9c d6bc 6a16 43bd 2026 12bc 6313 44bd
000003b0: 71a1 4c3c 4b33 593d ef89 9ebd 2e25 7a3d
000003c0: 3a8f b13d c88a 483c dfe5 163d da68 96bd
000003d0: fab9 00bd b9d2 b23d fb9a 143b 5e04 343d
000003e0: b7d4 7cbd 83ee 62bd a4a0 273d f0bf b0bb
000003f0: e7a0 1a3d ec74 ac3d ab1a 7b3d 2007 2b3d

bias f4 [64]
-0.07241778 -0.025185695 0.091424935 0.07340498 0.049401693 0.06691715 0.042199783 0.13394614
0.0035907824 0.00076194963 0.02076961 -0.005719969 0.088053025 0.07349342 0.013199467 0.004608446
0.03882946 -0.013663336 0.042933267 0.005308352 0.09508783 -0.00072238746 -0.0030048634 -0.010458083
0.00045344193 -0.009535162 -0.007918439 -0.016343577 0.0371601 -0.041160088 0.011047025 -0.03151924
0.05861151 0.061668072 0.045454998 -0.0071551967 0.061437335 -0.08628982 0.05095618 -0.087677345
0.0112445615 0.06569958 0.048390217 -0.085056044 0.05476072 0.03054827 0.034059692 0.09277648
-0.02703598 0.062912926 -0.030657236 0.070691735 0.048089817 -0.06440191 -0.012584022 0.11634124
-0.030140987 0.013577061 0.04193953 -0.06415914 0.018631283 -0.042056568 0.022839414 0.12567836
00000000: c64f 94bd 3b52 cebc ff3c bb3d 5a55 963d
00000010: 6e59 4a3d dc0b 893d aed9 2c3d 2d29 093e
00000020: 5553 6b3b 93bd 473a 0725 aa3c 946e bbbb
00000030: 2555 b43d b883 963d 9442 583c 7202 973b
00000040: a40b 1f3d 2fdc 5fbc cbda 2f3d aff1 ad3b
00000050: 69bd c23d 9a5e 3dba 3eed 44bb 6158 2bbc
00000060: f2bb ed39 5e39 1cbc 57bc 01bc f7e2 85bc
00000070: 3035 183d 7b97 28bd 95fe 343c 521a 01bd
00000080: 9f12 703d a997 7c3d 052f 3a3d 2476 eabb
00000090: b7a5 7b3d b8b8 b0bd 6db7 503d 2e90 b3bd
000000a0: 1c3b 383c 808d 863d d234 463d dd31 aebd
000000b0: c74c 603d 5e40 fa3c 2d82 0b3d 9801 be3d
000000c0: 8f7a ddbc 7ed8 803d e224 fbbc d4c6 903d
000000d0: d4f9 443d 26e5 83bd 372d 4ebc 5144 ee3d
000000e0: 3bea f6bc 5272 5e3c c9c8 2b3d de65 83bd
000000f0: a2a0 983c 8243 2cbd b919 bb3c d4b1 003e

weight f4 [32, 64]
0.046685755 -0.089497775 0.14652163 -0.0008987156 -0.04098619 0.09898661 0.121134795 -0.022401765
0.122815974 0.03503485 0.12249729 0.11896945 0.09282738 0.13524736 -0.06396722 0.09178427
-0.055014238 -0.045750562 0.058437794 -0.12373705 -0.09018623 -0.108705506 -0.09494371 0.07473571
-0.120147556 0.044775903 0.105356775 0.13387582 -0.20897344 0.10625016 0.07635769 0.082576804
0.015762186 0.1401278 -0.09164083 -0.043017384 -0.0831819 -0.0025060624 0.037651137 -0.043379024
-0.0019368002 0.07060625 -0.026832309 -0.062317178 -0.067048125 -0.014764491 0.067350306 0.0982909
0.009514467 -0.040250912 -0.09438313 -0.08748813 -0.08784713 -0.008871511 0.05304188 0.029663939
0.12238831 0.045029107 -0.07338209 -0.010578013 -0.067683205 0.083839655 0.12995666 0.08396324
-0.014421403 -0.018285679 0.09356482 0.15223409 -0.003671139 -0.08973563 0.042682018 -0.18273263
0.02906306 0.0827749 -0.051350582 -0.027577465 0.061566968 0.052533455 -0.107784934 0.032515656
-0.17695943 -0.036902856 -0.027655067 0.12161958 0.15770073 -0.046922017 0.06747781 0.023586113
-0.13319321 -0.049502857 -0.026354477 0.036723435 0.13987695 0.06653277 -0.0031143555 0.10572594
0.09054163 0.057482403 -0.09013582 0.049275883 0.09465588 -0.03984447 0.08292248 -0.05855979
0.022677502 0.09002273 -0.0709461 0.020272061 -0.10136127 0.113725774 -0.017460281 0.040686402
0.14128776 0.010356029 -0.05730204 0.05515535 -0.08870841 0.050404496 -0.0039138985 -0.011715611
-0.10257459 -0.10339489 0.12918717 0.05997394 0.037468683 0.029197156 -0.07059472 0.12731795
0.099234715 0.024038032 -0.07202591 -0.10482655 0.09490596 -0.07595096 0.02079938 -0.095096245
-0.10818188 -0.04525165 -0.11399531 -0.11624673 -0.07761128 0.069326684 -0.041865215 0.052267537
-0.0116532445 -0.10569401 0.08529489 0.08807197 0.0076127704 -0.12161937 -0.045629352 -0.05298352
0.10119833 0.055437807 0.04960791 0.08406156 0.10859401 -0.032916173 0.069814205 0.0925245
0.030939013 0.031391885 -0.09603753 0.056366324 0.029805899 0.117985666 -0.02741836 0.036973633
-0.079405494 -0.10965977 -0.04383631 0.0889211 0.09477186 0.082603976 0.067083076 0.0214124
-0.082061365 -0.014049247 0.038256496 -0.0076931254 -0.049840964 0.060927004 0.010603875 0.062495954
-0.017706499 -0.089845344 0.09529131 -0.03705725 -0.10613495 -0.10458955 -0.09571536 -0.08305269
-0.09543282 -0.1108413 0.023216622 0.17662902 0.1451487 0.17021653 -0.11419647 0.0069707725
0.14261378 0.033996455 0.10510423 0.007191053 0.009769157 -0.021638138 0.0037695009 -0.06343463
0.04392404 -0.11165024 0.05833411 0.054697435 0.1030012 -0.058002163 -0.034422062 0.1674059
0.0059363605 0.10758098 -0.011174653 0.16350362 0.094843574 -0.09075417 -0.011059433 0.10359837
-0.05240752 0.14280634 -0.011915652 0.045422297 0.04913145 -0.040523767 0.029745968 -0.09222778
0.025412241 0.09843017 0.13198271 0.029469848 0.07864839 0.04795136 -0.06383666 0.08639776
0.16275778 -0.06664642 0.011627011 -0.03186358 0.000484892 0.0729355 0.07315796 -0.054627426
0.0663629 0.09883029 0.13387541 -0.11974491 0.10650849 -0.09176028 0.049876068 0.12703863
00000000: 9039 3f3d 9c4a b7bd c409 163e c897 6bba
00000010: 23e1 27bd 7eb9 ca3d 8515 f83d e883 b7bc
00000020: f186 fb3d b480 0f3d dcdf fa3d 41a6 f33d
00000030: 481c be3d 497e 0a3e 3f01 83bd 64f9 bb3d
00000040: 9c56 61bd f164 3bbd 785c 6f3d da69 fdbd
00000050: 8fb3 b8bd fea0 debd d971 c2bd 090f 993d
00000060: ec0f f6bd f066 373d 4bc5 d73d be16 093e
00000070: 22fd 55be af99 d93d 6c61 9c3d 071e a93d
00000080: b31f 813c a97d 0f3e 30ae bbbd ff32 30bd
00000090: 465b aabd c03c 24bb 1438 1a3d 34ae 31bd
000000a0: 3bdc fdba 029a 903d 6ecf dbbc 4c40 7fbd
000000b0: 8750 89bd c3e6 71bc f5ee 893d bd4c c93d
000000c0: 91e2 1b3c 24de 24bd f14b c1bd fa2c b3bd
000000d0: 32e9 b3bd d059 11bc 7142 593d ca01 f33c
000000e0: b9a6 fa3d 7170 383d 5949 96bd 674f 2dbc
000000f0: 7e9d 8abd 20b4 ab3d 5c13 053e ebf4 ab3d
00000100: c047 6cbc d9cb 95bc ea9e bf3d 41e3 1b3e
00000110: 7e97 70bb 50c7 b7bd 57d3 2e3d 431e 3bbe
00000120: a815 ee3c e385 a93d fd54 52bd 23ea e1bc
00000130: a52d 7c3d 522d 573d 59be dcbd 232f 053d
00000140: da34 35be 7327 17bd e18c e2bc b013 f93d
00000150: 4d7c 213e 4d31 40bd ce31 8a3d aa37 c13c
00000160: cd63 08be 82c3 4abd 58e5 d7bc 506b 163d
00000170: e73b 0f3e 5542 883d 371a 4cbb d786 d83d
00000180: e46d b93d ab72 6b3d 2199 b8bd 82d5 493d
00000190: f1da c13d f433 23bd 43d3 a93d 64dc 6fbd
000001a0: 2bc6 b93c d65d b83d 304c 91bd 9811 a63c
000001b0: 7f96 cfbd 0fe9 e83d dd08 8fbc c9a6 263d
000001c0: bdad 103e 55ac 293c 8bb5 6abd 94ea 613d
000001d0: c1ac b5bd f274 4e3d 2940 80bb d6f2 3fbc
000001e0: a012 d2bd b3c0 d3bd a449 043e 3ca7 753d
000001f0: c378 193d e02e ef3c f793 90bd a35f 023e
00000200: 923b cb3d 68eb c43c 5282 93bd 4daf d6bd
00000210: 0e5e c23d 2d8c 9bbd 7663 aa3c d2c1 c2bd
00000220: 768e ddbd cb59 39bd 6076 e9bd c412 eebd
00000230: aaf2 9ebd 26fb 8d3d dc7a 2bbd 7c16 563d
00000240: 40ed 3ebc 1a76 d8bd 16af ae3d 145f b43d
00000250: 8c74 f93b 9413 f9bd d8e5 3abd 3f05 59bd
00000260: 1241 cf3d c112 633d aa31 4b3d 7828 ac3d
00000270: 8966 de3d 1cd3 06bd c0fa 8e3d 7c7d bd3d
00000280: d073 fd3c c794 003d 53af c4bd 60e0 663d
00000290: 802b f43c 78a2 f13d 789c e0bc aa71 173d
000002a0: 599f a2bd 4d95 e0bd b48d 33bd 441c b63d
000002b0: c017 c23d 462c a93d da62 893d 0f69 af3c
000002c0: ca0f a8bd d02e 66bc d8b2 1c3d 9d16 fcbb
000002d0: 0a26 4cbd 988e 793d e0bb 2d3c c2fb 7f3d
000002e0: 380d 91bc d600 b8bd 1728 c33d 58c9 17bd
000002f0: 485d d9bd 0c33 d6bd 6a06 c4bd 8717 aabd
00000300: 4872 c3bd c300 e3bd c930 be3c 3dde 343e
00000310: dca1 143e 3e4d 2e3e d7df e9bd 146b e43b
00000320: 5909 123e de3f 0b3d e340 d73d eda2 eb3b
00000330: d00e 203c 7742 b1bc bb09 773b 04ea 81bd
00000340: b2e9 333d e2a8 e4bd bfef 6e3d 6b0a 603d
00000350: 4bf2 d23d ad93 6dbd 26fe 0cbd 746c 2b3e
00000360: cd85 c23b 6b53 dc3d e415 37bc 7e6d 273e
00000370: 593d c23d 53dd b9bd a032 35bc 622b d43d
00000380: 45a9 56bd d33b 123e de39 43bc bb0c 3a3d
00000390: 0f3e 493d 40fc 25bd d1ad f33c ebe1 bcbd
000003a0: 552d d03c c295 c93d 7a26 073e c06a f13c
000003b0: 6812 a13d a568 443d cbbc 82bd 4ff1 b03d
000003c0: faa9 263e eb7d 88bd 387f 3e3c 6383 02bd
000003d0: 1a39 fe39 355f 953d d7d3 953d 02c1 5fbd
000003e0: 46e9 873d 8967 ca3d a316 093e d23c f5bd
000003f0: 2021 da3d d0ec bbbd d94a 4c3d 6a16 023e

bias f4 [32]
-0.064919464 0.106787086 -0.04669804 0.08895552 -0.087830484 -0.021182463 0.16099715 0.10503842
0.15018041 -0.008661322 -0.008101844 0.06288933 0.03388574 -0.033767458 -0.07397856 0.03575182
-0.13771226 -0.05168391 0.08320018 0.023796095 0.14968772 -0.10139394 0.027822224 -0.07345854
0.11529582 0.0856277 0.021629468 0.020999016 -0.080185145 0.061015498 -0.072988294 0.08929848
00000000: 7ff4 84bd 30b3 da3d 7246 3fbd 502e b63d
00000010: 78e0 b3bd d886 adbc 70dc 243e 621e d73d
00000020: e5c8 193e 38e8 0dbc 99bd 04bc 1fcc 803d
00000030: c6cb 0a3d bf4f 0abd 1282 97bd 8070 123d
00000040: 7104 0dbe 82b2 53bd db64 aa3d 07f0 c23c
00000050: bd47 193e a0a7 cfbd 6feb e33c 6e71 96bd
00000060: 3720 ec3d 935d af3d 4830 b13c 2106 ac3c
00000070: 1c38 a4bd 63eb 793d e37a 95bd 1fe2 b63d

weight f4 [128, 7]
-0.19784208 0.22048967 -0.059211135 0.29044217 -0.1875958 0.005561592 0.17433932 0.045902774
-0.3318379 -0.020727424 0.29927593 0.029822426 -0.0035272776 -0.061771624 0.13301168 0.1949764
-0.21582453 -0.2686693 -0.37601534 -0.30956155 0.21076173 -0.33121365 -0.05604289 0.086847626
0.3869621 0.2975269 0.02671591 0.13758652 -0.22784212 -0.090309344 0.30165952 -0.2513843
0.2625146 -0.08338248 -0.28271347 0.015042915 0.23926295 0.22637749 0.2858819 0.34375405
-0.2612847 0.31291294 0.15525526 0.1772292 0.37009355 -0.13778871 0.22256792 -0.22685963
0.15281676 -0.18368281 0.27010226 -0.13232358 0.33031285 -0.1959404 -0.25630108 0.2955054
-0.32219827 -0.17223264 -0.2957937 0.26966628 0.32336813 0.1909572 -0.044250865 0.13785398
0.26842138 0.15534069 0.2986004 -0.34293216 0.07127449 -0.30446333 -0.10763069 -0.30420545
-0.3005464 -0.3289093 0.29699057 -0.16548045 0.020655122 0.26312035 0.25115308 0.014317773
-0.023892418 -0.033172097 -0.11450102 0.0665931 -0.10678813 0.14221703 0.25284365 -0.23281139
-0.19276495 -0.30606148 0.33611342 0.3142304 -0.14870496 -0.111189306 -0.29129726 -0.32285723
-0.34900585 0.025123205 -0.084371336 0.32949293 0.00757555 0.35306755 -0.21971714 0.10557959
-0.32739618 0.20573574 0.075992785 0.26649177 -0.051372264 0.26997998 0.38159508 -0.18470392
-0.24272981 -0.29830706 0.15106529 -0.15135933 0.003919768 0.072771855 -0.15307501 -0.3576522
-0.24215557 -0.068222284 -0.11921608 -0.014225492 -0.3249797 -0.3482922 0.3178698 0.21682912
-0.0074477177 -0.24636263 0.092643216 0.11168057 0.06344301 0.122279406 -0.16446936 0.037677597
0.16494264 -0.21488579 0.31483114 -0.17793518 -0.051889155 0.02297185 0.043211304 -0.124625385
-0.36471757 -0.03240903 -0.23789425 0.3318618 -0.35347655 -0.2029282 -0.33564335 0.15982772
-0.21272352 0.07205115 -0.3605553 0.2685847 -0.18489419 0.10812818 -0.13941221 0.037726175
0.40282404 -0.39430803 0.33116403 0.284192 -0.059860155 0.3554218 -0.020364719 0.07406691
0.38270235 -0.37191218 0.011142387 -0.26146385 -0.022448774 0.18326761 0.10783522 -0.35676366
-0.20270507 0.12726706 -0.116983056 -0.31351754 0.045325413 -0.048511792 -0.11555019 -0.36956888
-0.051490426 -0.35448846 -0.3552384 0.20921104 0.23266152 0.41386053 -0.33168444 0.35066774
-0.09756152 0.002783816 -0.218131 0.28255713 0.41802388 -0.23340814 -0.35042587 0.014786336
0.21090806 0.0731483 -0.2312943 -0.24026468 0.044315618 -0.2303253 -0.37188572 -0.022157995
-0.019319 0.24264246 0.2426466 -0.15673108 0.1720964 0.060569786 -0.32064387 0.08428725
-0.23117267 0.12466423 -0.21178688 -0.018982928 0.2063286 -0.19696844 0.096103184 0.040822398
0.022285968 0.10279785 0.35478157 0.36599493 0.0056998716 -0.09475207 0.106782444 0.36808753
-0.15485322 -0.054109633 -0.36876464 -0.33920416 -0.21856765 0.11360994 0.1904885 -0.207308
0.28073058 0.36546117 0.17265956 -0.18737891 -0.14162195 -0.2762891 -0.25667462 -0.33629084
0.3483542 0.20296039 -0.042182263 -0.3030014 -0.20733185 -0.29598847 0.3818005 0.16051546
00000000: 1d97 4abe 0bc8 613e 6087 72bd d6b4 943e
00000010: 1d19 40be 043e b63b 0286 323e 8c04 3c3d
00000020: a8e6 a9be 8fcc a9bc b23a 993e 294e f43c
00000030: e629 67bb 3e04 7dbd 3734 083e e5a7 473e
00000040: 1b01 5dbe 068f 89be 1585 c0be da7e 9ebe
00000050: ecd1 573e d694 a9be 3b8d 65bd 2bdd b13d
00000060: e51f c63e 7255 983e 53db da3c 7be3 0c3e
00000070: 724f 69be 1bf4 b8bd 1e73 9a3e 71b5 80be
00000080: 5068 863e 6fc4 aabd d2bf 90be 8f76 763c
00000090: 5901 753e 80cf 673e 1d5f 923e 8800 b03e
000000a0: 1cc7 85be 2036 a03e 3cfb 1e3e 927b 353e
000000b0: e77c bd3e 7c18 0dbe d8e8 633e e44d 68be
000000c0: ff7b 1c3e 5917 3cbe d84a 8a3e d57f 07be
000000d0: c41e a93e 9aa4 48be e539 83be 7c4c 973e
000000e0: 2cf7 a4be c15d 30be 4672 97be b311 8a3e
000000f0: 8290 a53e 498a 433e 6540 35bd 9829 0d3e
00000100: 876e 893e a111 1f3e 27e2 983e ce94 afbe
00000110: 5cf8 913d 9ee2 9bbe 7b6d dcbd d1c0 9bbe
00000120: 38e1 99be cd66 a8be 260f 983e b573 29be
00000130: ee34 a93c b6b7 863e 2397 803e 1895 6a3c
00000140: 08ba c3bc 77df 07bd 837f eabd f761 883d
00000150: bcb3 dabd 57a1 113e b974 813e 1c66 6ebe
00000160: 2d64 45be 17b4 9cbe 0f17 ac3e cfe2 a03e
00000170: 1d46 18be 38b7 e3bd ea24 95be 8b4d a5be
00000180: e5b0 b2be 2ecf cd3c e1ca acbd 4cb3 a83e
00000190: 523c f83b 45c5 b43e 88fd 60be 1d3a d83d
000001a0: 79a0 a7be 64ac 523e 1ba2 9b3d 9c71 883e
000001b0: b96b 52bd d13a 8a3e 6e60 c33e 0623 3dbe
000001c0: 2a8e 78be b4bb 98be dcb0 1a3e f1fd 1abe
000001d0: 6671 803b 6909 953d b2bf 1cbe 301e b7be
000001e0: a1f7 77be 20b8 8bbd 8f27 f4bd 0a12 69bc
000001f0: bd63 a6be 5b53 b2be d5bf a23e 7408 5e3e
00000200: fc0b f4bb 7c46 7cbe babb bd3d c8b8 e43d
00000210: 69ee 813d a06d fa3d a86a 28be d353 1a3d
00000220: b9e6 283e 050b 5cbe 8c31 a13e a434 36be
00000230: b989 54bd 762f bc3c 56fe 303d 983b ffbd
00000240: 43bc babe 55bf 04bd 8d9a 73be cae9 a93e
00000250: e1fa b4be 69cc 4fbe 72d9 abbe e1a9 233e
00000260: 32d4 59be 8e8f 933d b49a b8be ef83 893e
00000270: e754 3dbe 4f72 dd3d 13c2 0ebe c386 1a3d
00000280: f43e ce3e bee2 c9be 558e a93e 9d81 913e
00000290: ec2f 75bd d9f9 b53e e9d3 a6bc 64b0 973d
000002a0: 90f1 c33e 466b bebe 8f8e 363c 97de 85be
000002b0: 7ee6 b7bc 81aa 3b3e b6d8 dc3d baa9 b6be
000002c0: eb91 4fbe 4c52 023e d094 efbd 5f85 a0be
000002d0: 24a7 393d 4db4 46bd 94a5 ecbd 2238 bdbe
000002e0: a0e7 52bd 837f b5be cfe1 b5be 6b3b 563e
000002f0: d23e 6e3e 87e5 d33e 8bd2 a9be b98a b33e
00000300: 56ce c7bd af70 363b bc5d 5fbe 54ab 903e
00000310: 3a07 d63e 8b02 6fbe 056b b3be 6342 723c
00000320: 48f8 573e c7ce 953d 6ad8 6cbe f207 76be
00000330: 4b84 353d 65da 6bbe ce67 bebe af84 b5bc
00000340: e142 9ebc 4477 783e 5a78 783e 1d7e 20be
00000350: 0a3a 303e 0618 783d 6f2b a4be cb9e ac3d
00000360: 87b8 6cbe f64f ff3d a9de 58be 1682 9bbc
00000370: ce47 533e 18b2 49be bfd1 c43d 6335 273d
00000380: 1091 b63c ae87 d23d eea5 b53e b063 bb3e
00000390: fdc5 ba3b 600d c2bd c1b0 da3d f875 bc3e
000003a0: d891 1ebe 10a2 5dbd b8ce bcbe 2bac adbe
000003b0: 33d0 5fbe 54ac e83d 6b0f 433e 8c48 54be
000003c0: ebbb 8f3e ba1d bb3e abcd 303e 42e0 3fbe
000003d0: 5805 11be c475 8dbe db6a 83be 502e acbe
000003e0: 7b5b b23e d9d4 4f3e 4fc7 2cbd 0023 9bbe
000003f0: cd4e 54be cd8b 97be 5b7b c33e 2a5e 243e

bias f4 [128]
0.12837102 -0.3672869 0.28846732 0.2213473 -0.33225742 0.16707534 -0.07430355 -0.11447643
0.19905117 0.06982126 -0.00657455 -0.18148604 -0.24907324 0.18224767 0.39422527 -0.17931707
-0.35766834 -0.20772599 0.31613347 -0.29214555 -0.115280114 -0.039885137 0.34990454 0.27552435
0.3479677 -0.37092406 -0.025952345 -0.08892775 0.24582982 0.28250965 -0.21053256 0.38613135
-0.33187628 -0.10058499 0.15163414 0.37012988 -0.11027865 0.26800075 0.2764916 0.06803056
-0.1285022 0.22046922 -0.11746609 0.3955445 0.20200838 0.27343184 -0.19917662 0.3679885
-0.2748245 0.022657031 0.040771864 -0.2578249 -0.23299243 0.29653442 0.3817758 0.21111557
-0.07440953 0.16323107 0.24540284 0.06920256 0.030200182 0.11611679 -0.36753657 -0.22681755
-0.12753439 -0.08636631 -0.29856592 0.034155343 0.21143551 -0.33760697 -0.071936324 -0.1439011
-0.13890643 -0.22130032 0.32646048 0.17634514 -0.3276172 -0.10804556 0.28312778 -0.016570028
0.31659696 0.41646194 -0.37745902 0.38588294 0.36125645 0.22060478 -0.2770412 0.1624787
-0.25310528 -0.18952857 0.24279264 0.21899824 -0.0015959318 0.40420026 0.37404907 -0.01486967
-0.19172142 -0.27918848 -0.25013825 0.1565812 -0.0021863738 0.08865459 0.2667185 0.2385605
0.05241865 0.35098016 0.19642459 -0.34442613 0.29158127 0.2759472 -0.189062 0.32186255
0.28131723 -0.26251552 0.2746076 0.4261897 -0.19380724 0.1991249 -0.054796144 0.1184797
0.33778784 -0.23478553 0.3097953 -0.21790977 0.13597742 0.15715636 0.32755768 -0.18001047
00000000: b173 033e 070d bcbe fdb1 933e dea8 623e
00000010: a51d aabe cc15 2b3e 762c 98bd 9e72 eabd
00000020: 12d4 4b3e 73fe 8e3d 536f d7bb 7ad7 39be
00000030: 0e0d 7fbe 229f 3a3e e5d7 c93e e59e 37be
00000040: 4e20 b7be 1fb6 54be 3fdc a13e 1a94 95be
00000050: fb17 ecbd 995e 23bd b026 b33e 8711 8d3e
00000060: d328 b23e c2e9 bdbe 039a d4bc c11f b6bd
00000070: d0ba 7b3e 1ba5 903e d995 57be 02b3 c53e
00000080: b0eb a9be 81ff cdbd fb45 1b3e aa81 bd3e
00000090: c6d9 e1bd 6537 893e 4f90 8d3e 9b53 8b3d
000000a0: 1596 03be afc2 613e 1092 f0bd cf84 ca3e
000000b0: 49db 4e3e 42ff 8b3e f5f4 4bbe fd68 bc3e
000000c0: ccb5 8cbe 3d9b b93c 6600 273d a001 84be
000000d0: 9195 6ebe 5cd3 973e 1e78 c33e ae2e 583e
000000e0: 0664 98bd 0c26 273e e24a 7b3e 12ba 8d3d
000000f0: 5f66 f73c a4ce ed3d c12d bcbe dc42 68be
00000100: 6098 02be d2e0 b0bd a2dd 98be 79e6 0b3d
00000110: 8d82 583e d2da acbe 5a53 93bd cf5a 13be
00000120: 7d3d 0ebe 8d9c 62be d425 a73e d293 343e
00000130: 71bd a7be fe46 ddbd 20f6 903e debd 87bc
00000140: ff18 a23e 803a d53e 4f42 c1be 7392 c53e
00000150: 9bf6 b83e 38e6 613e 58d8 8dbe d160 263e
00000160: 0497 81be c713 42be a29e 783e 1341 603e
00000170: 962e d1ba 56f3 ce3e 5c83 bf3e eb9f 73bc
00000180: 9f52 44be cbf1 8ebe 1f12 80be d256 203e
00000190: 4449 0fbb 8a90 b53d 548f 883e 3449 743e
000001a0: f0b4 563d acb3 b33e 8723 493e 9f58 b0be
000001b0: 244a 953e f448 8d3e 7899 41be 2bcb a43e
000001c0: d008 903e 6f68 86be 5e99 8c3e 8935 da3e
000001d0: 6875 46be 66e7 4b3e ec71 60bd 7ca5 f23d
000001e0: 87f2 ac3e 9e6b 70be 7d9d 9e3e bd23 5fbe
000001f0: aa3d 0b3e 99ed 203e a4b5 a73e aa54 38be

weight f4 [64, 128]
0.076615274 0.012154045 -0.05031871 0.046055306 -0.07733876 -0.033207837 -0.05750359 -0.0770296
-0.013530624 0.013322134 -0.0051865913 0.043725573 -0.056656446 0.038309187 0.019758126 -0.040260438
-0.06498225 0.05542517 -0.016424479 0.063923575 0.019646047 0.059972476 -0.056022823 0.019342138
-0.08529617 -0.087358855 0.07595658 -0.02144243 -0.059188716 -0.041601047 0.021274053 -0.034120023
-0.07959292 -0.009635559 0.06952405 0.04478544 0.039860908 0.043852456 -0.06868346 0.08272714
0.016490934 0.06405167 -0.016415512 0.007916779 -0.05780573 0.033449456 -0.00744994 0.061848275
-0.083405964 0.01829267 0.055794533 0.0012549751 -0.05608676 -0.07882831 -0.063244045 -0.072915964
0.061070096 0.077547416 -0.038273003 0.02692779 0.058046147 0.06641198 0.030237097 0.020347476
0.071173854 -0.06927402 0.058443 -0.0785165 0.072922915 0.027639018 0.04136553 0.083490744
-0.017098196 -0.0076454696 -0.04007587 0.007241271 -0.033788644 -0.015695887 -0.07989774 -0.07318428
0.032085437 -0.08347219 0.0070022983 0.01521321 -0.038216677 0.04327141 -0.047405235 -0.050318554
0.0837957 -0.00828213 0.08298641 0.07957998 0.055192973 -0.00011718931 -0.042378288 -0.054066997
-0.078040466 -0.030584428 -0.03300756 0.027114986 -0.03995461 0.035338845 -0.022839209 -0.06517425
0.076818496 -0.07042087 -0.0852486 0.042294066 -0.007957915 -0.06207669 0.047291543 0.027471589
0.019796006 -0.0015535855 -0.016726123 -0.06529691 -0.014383044 0.05682909 -0.0089121405 -0.0019379964
0.05599725 0.086060904 -0.038004264 -0.08661919 0.01738526 0.0067265104 -0.011291256 0.031925857
0.0047466876 -0.04793779 -0.052920103 -0.0028897289 -0.08200058 -0.029684883 0.054036304 -0.07213292
-0.06430989 -0.025458254 -0.006139179 -0.06387345 0.07205985 -0.035681706 0.023260264 -0.020406393
-0.006410683 -0.03630266 -0.091527104 -0.0006067671 0.017306756 0.014116127 -0.06639674 -0.0069977543
-0.0705871 -0.08110104 -0.0043723662 0.016035257 0.048992217 -0.0788015 -0.050856624 -0.06800094
-0.047258105 0.05625486 -0.012982132 -0.05267433 -0.075880334 -0.051942054 -0.023928348 0.03456774
-0.053823434 0.01792099 0.06490084 0.024331894 0.02476357 -0.080869526 0.0064510494 0.04769122
0.07235488 -0.0698979 0.079634786 0.0041125524 0.04972345 -0.047979664 0.054814667 0.062392842
-0.022587052 0.022079514 -0.007912691 -0.08040273 0.0128526185 0.06016067 -0.07380218 -0.078798994
0.07974625 0.08704986 0.008019734 -0.016094347 -0.0010721191 -0.07522558 -1.4856764e-05 0.08417307
0.04003959 0.006141628 0.07588081 0.06366925 0.060514666 0.06216741 0.04712781 0.006845031
-0.06639892 -0.041896105 0.018580722 0.0619739 0.0060683168 -0.033745136 0.071306996 -0.03052194
-0.05768608 0.02056116 0.041169625 -0.049179252 0.038526993 -0.09613352 0.050035335 0.0763866
0.0722095 -0.054520555 0.058931883 0.031112742 -0.08128449 -0.008419149 0.06615737 -0.053921103
-0.092094965 -0.02362068 0.07157951 0.024654347 -0.013030314 -0.081281774 0.05947147 -0.04324126
0.0699439 -0.0051085036 0.009181689 -0.025645424 -0.005181892 0.08209895 0.010014118 0.03595226
0.07158475 0.054371394 0.057005048 0.038494382 0.059310958 0.048210107 -0.098261006 -0.015101449
00000000: 78e8 9c3d c221 473c fe1a 4ebd 7da4 3c3d
00000010: c963 9ebd f104 08bd e288 6bbd b2c1 9dbd
00000020: 8daf 5dbc 1445 5a3c 48f4 a9bb 9619 333d
00000030: 9710 68bd 18ea 1c3d cbdb a13c 21e8 24bd
00000040: 6a15 85bd 8105 633d a18c 86bc 5dea 823d
00000050: bff0 a03c b3a5 753d 3078 65bd 6773 9e3c
00000060: c2af aebd 33e9 b2bd 208f 9b3d 09a8 afbc
00000070: de6f 72bd dc65 2abd ec46 ae3c 70c1 0bbd
00000080: 9d01 a3bd 77de 1dbc a062 8e3d f070 373d
00000090: 3145 233d a29e 333d eaa9 8cbd d96c a93d
000000a0: ff17 873c 862d 833d d379 86bc 61b5 013c
000000b0: b3c5 6cbd 4c02 093d a01e f4bb 9e54 7d3d
000000c0: bfd0 aabd 82da 953c cf88 643d fa7d a43a
000000d0: 3bbb 65bd bd70 a1bd 1886 81bd f754 95bd
000000e0: a324 7a3d 2ed1 9e3d 27c4 1cbd ab97 dc3c
000000f0: ccc1 6d3d 0103 883d cab3 f73c c0af a63c
00000100: 99c3 913d 8adf 8dbd ed61 6f3d 42cd a0bd
00000110: 9c58 953d 396b e23c e76e 293d 32fd aa3d
00000120: 8411 8cbc d986 fabb 9826 24bd 2f48 ed3b
00000130: f665 0abd a994 80bc 6da1 a3bd a4e1 95bd
00000140: 056c 033d 78f3 aabd 8973 e53b d440 793c
00000150: 1789 1cbd 5d3d 313d fe2b 42bd d41a 4ebd
00000160: 149d ab3d c5b1 07bc c7f4 a93d d4fa a23d
00000170: 0712 623d 88c3 f5b8 db94 2dbd 5b75 5dbd
00000180: aed3 9fbd 328c fabc ef32 07bd 3f20 de3c
00000190: 72a7 23bd 77bf 103d 4b19 bbbc 147a 85bd
000001a0: 0453 9d3d d138 90bd d196 aebd 8b3c 2d3d
000001b0: ea61 02bc 2144 7ebd c7b4 413d 190c e13c
000001c0: 3c2b a23c aea1 cbba 3905 89bc 63ba 85bd
000001d0: dca6 6bbc 9fc5 683d 3a04 12bc 5e04 feba
000001e0: 5f5d 653d b340 b03d 5caa 1bbd 6765 b1bd
000001f0: 886b 8e3c 0f6a dc3b f6fe 38bc b0c4 023d
00000200: 1a8a 9b3b 6b5a 44bd c0c2 58bd 9b61 3dbb
00000210: ecef a7bd b62d f3bc 2c55 5d3d 6dba 93bd
00000220: e7b4 83bd d48d d0bc 2b2b c9bb 15d0 82bd
00000230: 1d94 933d fb26 12bd 4f8c be3c 4f2b a7bc
00000240: b510 d2bb 19b2 14bd 9072 bbbd 730f 1fba
00000250: e6c6 8d3c 5447 673c 04fb 87bd 6b4d e5bb
00000260: f88f 90bd 4d18 a6bd 1146 8fbb 5f5c 833c
00000270: 10ac 483d ae62 a1bd 094f 50bd 1444 8bbd
00000280: b791 41bd 7f6b 663d 02b3 54bc 0ac1 57bd
00000290: 2667 9bbd 31c1 54bd 6205 c4bc e796 0d3d
000002a0: f675 5cbd 0acf 923c bbea 843d ae53 c73c
000002b0: f8dc ca3c ec9e a5bd 5363 d33b de57 433d
000002c0: cc2e 943d a126 8fbd 9017 a33d 97c2 863b
000002d0: d1aa 4b3d 5386 44bd 5885 603d a38f 7f3d
000002e0: 7b08 b9bc 19e0 b43c 3ba4 01bc 30aa a4bd
000002f0: ca93 523c 096b 763d 9925 97bd 5e61 a1bd
00000300: 0052 a33d 3247 b23d 3465 033c 4bd8 83bc
00000310: 5986 8cba de0f 9abd 5141 79b7 ee62 ac3d
00000320: 8e00 243d b63f c93b 6667 9b3d 0665 823d
00000330: 3ade 773d 41a3 7e3d 1709 413d 484c e03b
00000340: 28fc 87bd 409b 2bbd 9936 983c 58d8 7d3d
00000350: bbd8 c63b 5738 0abd 6709 923d 2609 fabc
00000360: 3d48 6cbd e16f a83c 7ba1 283d 2f70 49bd
00000370: 7bce 1d3d a7e1 c4bd daf1 4c3d 9470 9c3d
00000380: 93e2 933d f250 5fbd 8f62 713d 26e0 fe3c
00000390: 7c78 a6bd 78f0 09bc 847d 873d 60dc 5cbd
000003a0: 499c bcbd 2880 c1bc 4798 923d eaf7 c93c
000003b0: 197d 55bc 0f77 a6bd 5b98 733d bf1d 31bd
000003c0: bf3e 8f3d 3c65 a7bb cb6e 163c 5a16 d2bc
000003d0: dccc a9bb 7f23 a83d 4112 243c ad42 133d
000003e0: 079b 923d 8ab4 5e3d 207e 693d 49ac 1d3d
000003f0: 0cf0 723d f677 453d 113d c9bd 116c 77bc

bias f4 [64]
0.003037323 0.07562238 -0.022414885 0.00506196 0.002022135 0.009437621 0.056334738 -0.0037645185
0.020369641 0.02375766 0.049529143 0.003430858 0.0012157186 -0.047662593 -0.009174189 -0.0757275
-2.9211484e-05 0.11959019 -0.009771487 0.07022993 0.06344174 -0.07642453 0.07522838 -0.0789086
0.06116648 -0.025462428 0.066904426 0.055741012 0.022665165 0.036158327 -0.07169669 0.061965223
0.018865973 0.07524202 0.09606234 0.018184682 -0.041527048 0.049386334 0.10246961 -0.061151978
-0.010077131 -0.025535583 0.04994875 0.055909164 0.013888712 0.09317617 -0.027220773 0.023095155
-0.018016962 0.038586795 0.05454029 0.04104633 0.038299505 0.11517922 -0.04741434 0.08486553
0.097815685 -0.051026337 -0.02781988 -0.08461131 0.0630977 0.034874994 -0.056498785 0.12160469
00000000: d30d 473b e8df 9a3d 6c9f b7bc ccde a53b
00000010: cc85 043b 40a0 1a3c 41bf 663d 24b6 76bb
00000020: 3cde a63c 6d9f c23c 12df 4a3d 3fd8 603b
00000030: bf58 9f3a da39 43bd 564f 16bc 0517 9bbd
00000040: 2f0b f5b7 b4eb f43d 9618 20bc b6d4 8f3d
00000050: beed 813d 7784 9cbd 5611 9a3d d59a a1bd
00000060: b489 7a3d 9596 d0bc 3005 893d b050 643d
00000070: 4cac b93c c11a 143d b7d5 92bd 3fcf 7d3d
00000080: d08c 9a3c 7d18 9a3d 55bc c43d 0bf8 943c
00000090: 4418 2abd 5349 4a3d 96db d13d 7f7a 7abd
000000a0: 8d1a 25bc 0030 d1bc 0f97 4c3d 0201 653d
000000b0: 7b8d 633c 26d3 be3d 19fe debc 0d32 bd3c
000000c0: 4f98 93bc 300d 1e3d a465 5f3d 3220 283d
000000d0: f1df 1c3d 15e3 eb3d 8a35 42bd fbcd ad3d
000000e0: 9753 c83d fe00 51bd 84e6 e3bc b248 adbd
000000f0: 5e39 813d 15d9 0e3d 456b 67bd e10b f93d

weight f4 [32, 64]
-0.124291375 -0.005730137 0.0341781 -0.08423408 0.003586267 0.012648397 -0.06727856 -0.023546495
-0.037420392 0.11383025 -0.0016328964 0.11312532 -0.031392574 -0.0744828 0.080491304 -0.034346104
0.09149095 0.059216358 -0.015687376 0.046534155 -0.01899378 0.0739283 0.032207437 -0.03493999
-0.058298927 0.061937645 -0.099597245 0.121668756 0.096701205 0.05086784 -0.08278388 0.0067480505
0.06619815 0.04441762 0.041097205 0.040442556 0.013617352 -0.012291103 -0.08597618 0.060742006
-0.12498236 0.034054186 -0.11533243 -0.12362402 -0.05211617 -0.015606415 0.04867649 0.04631053
-0.12205808 0.107964344 -0.009117633 -0.05335796 0.022115096 -0.0063430513 0.07196716 -0.0066549373
-0.06732458 -0.08763139 0.09805195 -0.015668735 -0.02270848 -0.109933004 -0.08605565 -0.008692157
0.05935523 -0.077544354 0.14103873 -0.12712722 0.048889764 -0.09254171 -0.02509727 0.02169214
0.011448482 0.0015336933 0.047505766 -0.043871906 -0.09995914 0.20588988 0.008085027 0.07774529
-0.017584939 0.085127875 0.119213775 0.12608095 0.015284704 -0.09297746 -0.006702646 -0.0062372684
0.08844627 0.12384488 -0.041026346 0.03704204 -0.03571483 0.21872579 -0.0136182485 -0.111006185
-0.090527445 -0.068179436 0.18685421 0.06917541 -0.07070243 0.08842898 0.051650017 -0.08632615
0.10183703 0.020129224 -0.027354255 -0.07075319 0.05937271 0.096811116 -0.041191712 0.07186497
-0.123358086 -0.1263743 -0.048431516 0.08414212 0.118203096 0.009114954 0.1919811 0.16439088
-0.08313776 0.074335515 -0.07048735 0.11555303 0.18468781 0.08828316 -0.0049784696 0.119131565
-0.05391021 0.008456715 -0.04240175 -0.11413927 0.019173836 -0.069184065 -0.029120056 0.117899366
0.02101087 -0.03833959 -0.111418754 0.07967629 0.10335376 0.10193228 0.03088054 0.115431964
0.12498872 0.111142725 -0.0834932 0.05044827 0.08926959 -0.12289064 0.15251432 -0.114038825
0.052213456 -0.06320253 0.015885672 0.027694333 0.016881691 0.054149523 0.06592641 -0.104958326
0.100044 0.018470235 0.057011675 -0.07185955 0.06257594 0.040239025 -0.08374675 0.105732486
0.027595753 0.031554222 -0.054102376 0.019156585 -0.07986507 -0.10373218 0.06492084 -0.07120531
-0.053028874 -0.10731554 -0.12364155 -0.096781164 0.013405319 0.026569549 0.10808669 0.050851736
-0.092559926 -0.050903946 -0.055542298 -0.07694531 0.1538744 -0.033855464 0.120787576 0.09517958
0.1146428 -0.11800639 -0.072485425 0.0530379 0.0071625886 0.045641825 -0.120028555 -0.043207597
-0.0006572902 0.03815882 -0.1046668 0.08544 -0.08637886 -0.09787538 0.05530055 0.044802994
0.032457683 -0.027719961 0.11176363 0.06992427 -0.030784562 -0.035375103 -0.057186436 -0.08004382
-0.11444456 -0.005036831 -0.0574885 -0.074972 0.081019 0.025218802 0.05210628 -0.11037235
-0.042956334 -0.027240962 0.11991139 -0.10345897 0.0941761 0.048491497 0.09046362 -0.01738973
-0.06940331 0.074082166 0.09052045 0.028807249 -0.039734915 0.116543956 0.11434671 -0.09304394
0.03465928 0.03292954 -0.09216337 0.041232407 0.102171764 0.120915815 0.008428109 -0.12365836
-0.004600346 -0.09825431 0.06600897 -0.013385057 -0.065406956 -0.08124788 0.11777953 -0.12040863
00000000: 7a8c febd e0c3 bbbb 56fe 0b3d eb82 acbd
00000010: 9307 6b3b 393b 4f3c 57c9 89bd 94e4 c0bc
00000020: 2046 19bd d61f e93d e906 d6ba 3fae e73d
00000030: 8095 00bd 708a 98bd a0d8 a43d 80ae 0cbd
00000040: 9b5f bb3d da8c 723d d082 80bc 999a 3e3d
00000050: d898 9bbc b867 973d f2eb 033d 3c1d 0fbd
00000060: dbca 6ebd 54b2 7d3d a4f9 cbbd 782d f93d
00000070: 480b c63d cc5a 503d 988a a9bd c01e dd3b
00000080: e592 873d 40ef 353d 8b55 283d 18a7 253d
00000090: 501b 5f3c 9f60 49bc 4814 b0bd 9ccc 783d
000000a0: c0f6 ffbd 677c 0b3d 6933 ecbd 972e fdbd
000000b0: c477 55bd 0db2 7fbc 0061 473d 1cb0 3d3d
000000c0: 96f9 f9bd 691c dd3d 2062 15bc e08d 5abd
000000d0: b82a b53c 5fd9 cfbb 8563 933d a911 dabb
000000e0: 78e1 89bd 1678 b3bd 76cf c83d b85b 80bc
000000f0: 2207 babc 8e24 e1bd f23d b0bd 8d69 0ebc
00000100: 781e 733d 93cf 9ebd 756c 103e a32d 02be
00000110: a240 483d 8286 bdbd ca98 cdbc b7b3 b13c
00000120: 6a92 3b3c 3506 c93a 6895 423d 07b3 33bd
00000130: 61b7 ccbd ccd4 523e 1077 043c ec38 9f3d
00000140: 4a0e 90bc 8657 ae3d 5a26 f43d 5d1b 013e
00000150: b26c 7a3c f76a bebd dfa1 dbbb 0062 ccbb
00000160: 5123 b53d 62a2 fd3d 3e0b 28bd 65b9 173d
00000170: b749 12bd a7f9 5f3e 131f 5fbc 3657 e3bd
00000180: 7466 b9bd a9a1 8bbd b656 3f3e d6ab 8d3d
00000190: 70cc 90bd 411a b53d f88e 533d c4cb b0bd
000001a0: ef8f d03d 0be6 a43c 0816 e0bc 0ce7 90bd
000001b0: cc30 733d e844 c63d a4b8 28bd f12d 933d
000001c0: 2aa3 fcbd 4468 01be 2060 46bd b452 ac3d
000001d0: 7714 f23d e356 153c b296 443e 1556 283e
000001e0: 2144 aabd 383d 983d ac5b 90bd 11a7 ec3d
000001f0: cd1e 3d3e cdcd b43d 6e22 a3bb 40fb f33d
00000200: f4d0 5cbd 098e 0a3c 75ad 2dbd d9c1 e9bd
00000210: 7312 9d3c 60b0 8dbd 2f8d eebc 3975 f13d
00000220: fd1e ac3c f909 1dbd 842f e4bd 532d a33d
00000230: 23ab d33d dfc1 d03d 30f9 fc3c 9867 ec3d
00000240: 16fa ff3d cc9e e33d 7cfe aabd d8a2 4e3d
00000250: fad2 b63d 16ae fbbd b72c 1c3e 308d e9bd
00000260: c7dd 553d 5470 81bd ab22 823c 3adf e23c
00000270: 794b 8a3c e4cb 5d3d 6d04 873d 64f4 d6bd
00000280: dee3 cc3d e44e 973c 1385 693d 1a2b 93bd
00000290: d027 803d add1 243d 6b83 abbd 468a d83d
000002a0: 7d10 e23c 003f 013d 749a 5dbd 45ee 9c3c
000002b0: 4c90 a3bd 8a71 d4bd 38f5 843d 17d4 91bd
000002c0: ce34 59bd 40c8 dbbd c837 fdbd 3435 c6bd
000002d0: fca1 5b3c 62a8 d93c 8e5c dd3d e949 503d
000002e0: 0f90 bdbd a880 50bd 5280 63bd 8195 9dbd
000002f0: 4091 1d3e 07ac 0abd 7a5f f73d 83ed c23d
00000300: d8c9 ea3d 56ad f1bd 3d73 94bd 453e 593d
00000310: 26b4 ea3b ecf2 3a3d 88d1 f5bd 73fa 30bd
00000320: 004e 2cba 6c4c 1c3d 8c5b d6bd 2bfb ae3d
00000330: 66e7 b0bd e372 c8bd d482 623d 5883 373d
00000340: 59f2 043d f914 e3bc 54e4 e43d 7534 8f3d
00000350: e82f fcbc 7ce5 10bd 533c 6abd 04ee a3bd
00000360: e961 eabd 000c a5bb 1079 6bbd ec8a 99bd
00000370: 4aed a53d a997 ce3c 656d 553d e60a e2bd
00000380: fbf2 2fbd 7028 dfbc 1a94 f53d 4ce2 d3bd
00000390: 66df c03d 059f 463d fe44 b93d e874 8ebc
000003a0: 5323 8ebd 64b8 973d c962 b93d 2efd eb3c
000003b0: 14c1 22bd 99ae ee3d 9c2e ea3d d28d bebd
000003c0: e4f6 0d3d 20e1 063d 26c0 bcbd 50e3 283d
000003d0: 6e3f d13d b6a2 f73d 0d16 0a3c 9840 fdbd
000003e0: 80be 96bb 8e39 c9bd b62f 873d 004d 5bbc
000003f0: 15f4 85bd 4a65 a6bd 6536 f13d cd98 f6bd

bias f4 [32]
-0.06526103 -0.046569876 0.050231222 -0.027238522 -0.047507036 0.05134834 -0.010234664 0.075641975
-0.028594539 -0.078757025 0.048913665 0.10353436 -0.09121339 -0.1136661 0.0899119 -0.09422386
0.03679225 0.070979275 0.09045952 -0.08104836 -0.004496345 0.06297966 0.012090832 0.026222877
0.035893008 0.11810536 0.030367123 0.007981935 0.14136747 0.039050847 0.138029 -0.09531233
00000000: 93a7 85bd 0ec0 3ebd 41bf 4d3d 5223 dfbc
00000010: bd96 42bd a352 523d 4baf 27bc 2eea 9a3d
00000020: 183f eabc 5d4b a1bd b259 483d d309 d43d
00000030: 16ce babd c6c9 e8bd bb23 b83d 70f8 c0bd
00000040: 78b3 163d 955d 913d d742 b93d affc a5bd
00000050: 1356 93bb 7bfb 803d a018 463c 5cd1 d63c
00000060: 8c04 133d 39e1 f13d 79c4 f83c a9c6 023c
00000070: a2c2 103e c8f3 1f3d 7957 0d3e 1c33 c3bd

weight f4 [2, 32]
-0.03253006 0.11137058 -0.16133815 0.16932617 0.0018692549 -0.06357235 0.1589693 -0.10411701
0.21800964 0.09615413 -0.09762632 0.013545869 -0.15477659 -0.06187022 -0.10955445 -0.08661161
0.12842534 0.14610054 -0.084594354 -0.06309256 0.20531249 0.13863254 0.23301333 -0.031979106
-0.03880484 0.16803774 0.028589156 -0.08155638 -0.021201529 0.036511138 0.124290936 0.08855117
0.2049575 0.12802133 -0.008731444 -0.21378109 0.03955981 0.029558722 -0.13710968 0.038737204
0.0043729087 0.11753594 -0.05340731 0.18075795 0.049788248 -0.074500866 -0.09526318 -0.08788262
0.13840649 -0.15855229 -0.11468413 -0.016766861 -0.11075856 -0.07143972 0.079548106 -0.10293389
-0.092217736 -0.2110823 0.025310067 -0.2851887 0.13199295 -0.14459316 0.07030626 -0.093198575
00000000: 3d3e 05bd 4216 e43d d435 25be d763 2d3e
00000010: c901 f53a 3832 82bd d9c8 223e 4d3b d5bd
00000020: eb3d 5f3e 75ec c43d 4ff0 c7bd 7eef 5d3c
00000030: c17d 1ebe a16b 7dbd 155e e0bd 6e61 b1bd
00000040: ef81 033e 619b 153e ce3f adbd ac36 81bd
00000050: 703d 523e b0f5 0d3e 0c9b 6e3e 86fc 02bd
00000060: d3f1 1ebd 1612 2c3e ce33 ea3c 0807 a7bd
00000070: d4ae adbc b48c 153d 3f8c fe3d 515a b53d
00000080: 61e0 513e 0618 033e 550e 0fbc 6ee9 5abe
00000090: 7809 223d 2225 f23c 7b66 0cbe e7aa 1e3d
000000a0: 9e4a 8f3b afb6 f03d a0c1 5abd 9d18 393e
000000b0: c3ee 4b3d e993 98bd 5819 c3bd cefb b3bd
000000c0: 6eba 0d3e 885b 22be 83df eabd a85a 89bc
000000d0: 62d5 e2bd fd4e 92bd 1eea a23d 01cf d2bd
000000e0: a7dc bcbd f525 58be 0f57 cf3c 4104 92be
000000f0: 2929 073e 3b10 14be bafc 8f3d e5de bebd

bias f4 [2]
-0.06723485 0.014972869
00000000: 6db2 89bd c450 753c
