2023/baseline0806/model/WLTP_trained_0822/PPO_actorcritic_27episode.pt (torch, 101527 bytes, 17 tensors)

weight f4 [128, 7]
000000 9c b2 5c be 26 f2 79 be f4 fd 85 3e 25 3a ac be
       -0.21552509 -0.24408779 0.26170313 -0.3363811
000010 25 b7 78 be 91 d0 c6 3e 9a fc bf 3e 1e ce 25 bd
       -0.24288614 0.38831 0.37497407 -0.04047977
000020 ac b0 39 be 07 fb ad 3d 21 fc 8e be 93 1b 0c be
       -0.18133801 0.08495145 -0.27926734 -0.13682394
000030 ee 79 b9 be b6 61 9a be 20 b3 d7 3d 21 9c a4 bd
       -0.36225837 -0.30152673 0.10532212 -0.08037592
000040 4e 27 32 be a9 4c ce 3d 77 63 ad 3e 49 50 c6 3e
       -0.17397806 0.100732155 0.33864948 0.38733128
000050 f1 92 9a 3d 5a 13 99 be 94 6a 5d be 51 1b 81 be
       0.07547558 -0.29897577 -0.21622688 -0.25216153
000060 fe 96 a1 bd 23 1e 22 be a4 7f 8d 3e 1d a8 ce 3e
       -0.078901276 -0.15831809 0.27636445 0.40362635
000070 91 b3 da 3d 74 e7 3b be ab 0a ce be 01 60 d2 3d
       0.10678781 -0.18350011 -0.40242514 0.102722175
000080 b7 5d a9 3d 42 f0 42 3e 6e 0a 4a bc 4e 66 48 bd
       0.08269828 0.19036964 -0.012331588 -0.04892569
000090 e3 88 8d bd 88 de 9c be b1 cb 96 3b 52 0b 8b 3e
       -0.06910875 -0.30638528 0.0046019186 0.27157074
0000a0 fd 24 13 3e 29 db a7 3e 94 a8 ad be 0c e3 81 be
       0.14369579 0.32784393 -0.33917677 -0.25368536
0000b0 9a 09 ad be f4 85 42 3c 75 50 8d be c1 60 15 be
       -0.33796388 0.011872757 -0.27600446 -0.1458769
0000c0 7b c1 9a bb b0 e7 ca 3d 82 ad a4 be 1b 5d b1 3e
       -0.0047227717 0.09907472 -0.32163626 0.34641346
0000d0 f5 04 a2 3e 86 db a0 3e ee 44 be be 43 03 cf bc
       0.31644407 0.31417483 -0.37161964 -0.02527011
0000e0 8d d8 e1 3e 28 1d 32 bd 7a b4 8e be ec 61 44 bc
       0.44110528 -0.043484837 -0.27872068 -0.011986237
0000f0 0a 7e bc 3e 69 1b 7f be 43 c1 09 3d 08 e5 ac 3e
       0.3681491 -0.249128 0.033631574 0.33768487
000100 80 22 33 be 35 d2 b9 be a5 52 b4 be ec 57 0b be
       -0.1749363 -0.36293188 -0.35219303 -0.13607758
000110 58 d6 b7 3e 89 2f a2 3e 26 19 9f 3e 66 13 8c 3e
       0.3590572 0.3167689 0.31073874 0.2735855
000120 5e 63 5e 3d 5b 88 26 3e ba d1 95 be 0c 44 24 3d
       0.054293983 0.16262953 -0.2926157 0.040103957
000130 8c 0e 59 3d 4c 84 73 bd 6f d9 d1 3e de 2c 40 3e
       0.05299239 -0.05945234 0.409862 0.18767115
000140 32 50 de bd bc 74 4e 3e 74 72 4a bd 8f 41 ce bd
       -0.1085514 0.20161718 -0.049425557 -0.10071098
000150 52 09 80 be 83 8d 8f be 54 27 82 3e 6a 55 b4 be
       -0.2500711 -0.28037652 0.2542063 -0.35221416
000160 73 be 85 3e d9 ea 0b be fb c0 5f 3e b0 43 83 3e
       0.26121864 -0.13663806 0.2185096 0.2563758
000170 7c 8c 57 3e d7 54 9b 3e 0b fb 61 3d 93 bf 17 be
       0.21049684 0.30338165 0.055171054 -0.14819174
000180 9e 9c 0f be 12 bf 8d be e4 79 2e bd 3c c9 ac 3c
       -0.14024588 -0.27684838 -0.042596713 0.02109205
000190 3f 65 d6 3d 0d eb e7 3c bd 9b 1d bd b7 06 28 3e
       0.1046853 0.028310323 -0.0384786 0.16408812
0001a0 6d 6a 72 be 62 a5 4f 3e a2 90 84 be 47 f6 0b bc
       -0.2367341 0.20277932 -0.25891596 -0.008542604
0001b0 14 ed 34 3e 73 c8 27 bd a4 a9 98 3e a9 17 7d be
       0.17668563 -0.040962648 0.29816926 -0.24716057
0001c0 62 63 49 be 19 7e b3 be f5 cd 64 be a1 96 8d 3e
       -0.19666818 -0.35057142 -0.22344191 0.27653983
0001d0 0d b6 cd 3d 09 5d 01 be 60 a1 17 3d 68 1f 0c be
       0.10044489 -0.12633146 0.037019134 -0.13683856
0001e0 a0 36 ea 3e ae c0 e3 bd 21 b7 e1 3e 71 a3 5f be
       0.457448 -0.11120735 0.4408503 -0.21839692
0001f0 ab b3 09 be 80 2d 43 be 97 50 be 3e e3 10 18 be
       -0.13447444 -0.19060326 0.3717086 -0.14850192
000200 3f a4 b0 3c 60 79 bd be b7 ab 92 be 66 f4 80 be
       0.021562694 -0.37006664 -0.28646633 -0.2518646
000210 cb 65 7e be 7b 83 12 be a4 49 94 be 22 c7 86 3b
       -0.24843518 -0.14307968 -0.28962433 0.004113094
000220 4a c4 93 be 56 cd 82 3d b6 76 8c bd a7 e5 43 bd
       -0.28860694 0.06386821 -0.0685858 -0.047826435
000230 42 6b b0 3e af 61 16 be 51 ae c4 3d 2a 60 15 3d
       0.3445683 -0.14685701 0.09603561 0.036468662
000240 20 e9 38 3d 0b 13 b2 3e 70 d5 a6 3e 09 f1 bd bd
       0.0451442 0.34780154 0.32584715 -0.092744894
000250 f9 bf 52 3c 9d ef a1 bd 73 1a f3 bd cc de 45 3c
       0.012863153 -0.07907031 -0.11870279 0.012077045
000260 bf c8 53 be f2 f8 91 3d e9 80 ab be 56 a2 71 3d
       -0.20682047 0.07127561 -0.33496788 0.058992706
000270 5b a5 72 3e cb 7b cc bd a3 5d da 3c df 7f 10 be
       0.2369589 -0.09984549 0.026655978 -0.14111279
000280 dc b0 8a 3e e4 cb 8a 3e 86 c5 ec bd 2e 15 39 3e
       0.27088058 0.2710868 -0.11561112 0.18074486
000290 e4 84 71 3e cf 56 99 3d e7 8b ad 3e 43 69 cb 3e
       0.2358585 0.074872606 0.338958 0.39728746
0002a0 ef 61 c4 3e 0b 73 65 be 88 15 53 3d 03 40 99 be
       0.38355967 -0.22407167 0.051534206 -0.2993165
0002b0 36 d1 b5 3e 54 69 c4 bd 1a 91 98 3e c5 d3 64 3d
       0.35511178 -0.09590402 0.29798204 0.05586602
0002c0 0d 46 33 3d 20 20 b3 be c9 5e d8 bd 90 23 21 bd
       0.043767978 -0.34985447 -0.10564954 -0.039340556
0002d0 5d 38 22 3e fa 3b 3f be 2e 07 6e 3e 0f 52 9e be
       0.15841813 -0.18675223 0.23244926 -0.3092198
0002e0 af b4 81 3e e1 67 4c be a4 8e 19 be 8b d1 7a 3e
       0.25333163 -0.19961502 -0.1499582 0.24493997
0002f0 41 6e 29 3e 5a da a6 3e 2e 7e 99 3d 07 09 0d 3e
       0.16545965 0.32588464 0.0749477 0.13772975
000300 28 1e 5d 3e 7b d2 99 3e a8 40 13 be fa c8 8e 3e
       0.21593535 0.30043396 -0.14380133 0.27887708
000310 df 34 b1 bc 54 56 a6 3e 9d 5b b6 bd f2 f7 91 3e
       -0.021631656 0.32487738 -0.089041926 0.2850948
000320 58 96 75 be 7e 50 e6 bd c1 f8 25 3e d5 eb a3 3e
       -0.23983133 -0.112458214 0.16208173 0.32015863
000330 fa 77 e1 3c 18 a1 27 3e 1d d2 6c be f0 96 12 3e
       0.02752303 0.16370046 -0.23127027 0.1431539
000340 61 69 ca 3e 80 a7 53 3e 6d a5 d5 bd 53 8f 63 be
       0.39533523 0.20669365 -0.10431943 -0.22222643
000350 3c 68 c3 bd c9 f4 d1 3d 74 95 71 be fa 40 6d 3e
       -0.095413655 0.10251767 -0.23592168 0.23169318
000360 a9 d0 96 3e 13 77 3f 3e 0c 0d 23 be 79 71 fd 3d
       0.2945607 0.18697767 -0.15922946 0.12375159
000370 13 50 d7 bd a5 b7 89 3e 81 9a bd 3e 29 99 83 3e
       -0.1051332 0.26897922 0.3703194 0.2570279
000380 15 7d d3 3d af 74 76 be da 25 e1 bd 06 3d a8 3e
       0.10326592 -0.24067949 -0.10993548 0.32859057
000390 82 00 a9 3e fb 94 23 be be c8 12 bb 10 dc 6b 3e
       0.330082 -0.159748 -0.0022397484 0.23033166
0003a0 5b ea a6 3d 28 ad 79 3d 0d c5 b1 3e cc 51 59 3e
       0.081501685 0.06095615 0.3472065 0.2122261
0003b0 52 8b 6a be 01 65 a8 3e ca b6 13 3e a8 6a 95 be
       -0.22904709 0.3288956 0.14425197 -0.29182935
0003c0 1a 3e 4c be 40 06 22 be 6f 66 ae 3e f2 97 43 be
       -0.19945565 -0.15822697 0.34062526 -0.19100931
0003d0 cf 0d 4c 3d 99 45 f7 3d 3e 59 28 3d 90 b8 61 3e
       0.049817856 0.120738216 0.041100733 0.22043061
0003e0 5d f2 fb bd 39 ec 24 3d 48 78 42 be 26 a2 9b 3e
       -0.123020865 0.040264342 -0.18991196 0.30397147
0003f0 cb 9e 57 be 5d 28 90 3e ae 87 53 3d 38 d0 90 3e
       -0.21056668 0.28155795 0.051643066 0.28283858

bias f4 [128]
000000 0b 42 30 be f0 48 74 be ac c7 4a 3e b0 36 d3 3e
       -0.17212693 -0.23855948 0.19802731 0.4125266
000010 30 8d 84 3d 51 68 15 be 23 db d1 bd 31 97 ce 3d
       0.06472242 -0.14590575 -0.10246875 0.10087431
000020 43 35 a5 b8 07 8b c9 3e bd 6c 99 3e 85 4e d2 3c
       -7.877734e-05 0.39363882 0.29965773 0.025672207
000030 a7 6e cb 3d 32 6b 63 3e b0 2d 4c 3d 80 25 17 be
       0.09933215 0.2220886 0.04984826 -0.14760399
000040 5c 69 4c be a2 35 43 3e d0 01 b9 3e 08 9d 4f 3e
       -0.19962066 0.19063428 0.36134195 0.20274746
000050 b5 22 87 bd 7e f2 9a be cf 17 64 3e fe 01 55 be
       -0.06598417 -0.30263132 0.22274707 -0.20801541
000060 94 cf 81 bd 02 0c 91 be 55 af c1 bd da c5 8e 3d
       -0.063384205 -0.28329474 -0.0945727 0.06971331
000070 ca 95 af be 18 f0 a6 be 75 ad 92 3e e8 b4 49 3c
       -0.34293967 -0.32605052 0.28647962 0.012311198
000080 4f 64 a3 3e cc c3 90 3d 01 2d 99 3e 74 cb 6e be
       0.31912467 0.07068595 0.29917148 -0.23319799
000090 30 3c 94 be 5e f7 cf bd 8b c2 a9 be 06 28 bc bd
       -0.2895217 -0.101546034 -0.33156237 -0.09187321
0000a0 13 8a 55 be ef 9c cc be b5 8f 01 b9 ad db 78 bd
       -0.20853452 -0.3996348 -0.00012355934 -0.060756374
0000b0 a2 46 92 be 6f ee 01 bd 38 3b 8d be cd 28 aa bb
       -0.28569514 -0.03172153 -0.27584243 -0.005192852
0000c0 38 0c 82 be 7d c0 d2 bd 2e 16 61 3e ed b1 cb 3e
       -0.25399947 -0.102906205 0.21981117 0.39784184
0000d0 6d df ef 3c 90 e5 a3 be 7b 70 14 be 44 2f 5c 3e
       0.029281342 -0.3201108 -0.14496033 0.21502405
0000e0 d5 81 9c 3e 17 27 8a 3e 8b ce 8c bd 4c 82 b3 be
       0.30567804 0.26982948 -0.068753324 -0.35060346
0000f0 f2 42 aa be 57 26 13 3e 72 24 d7 3c 07 73 99 3e
       -0.332542 0.14370094 0.026262496 0.2997057
000100 ce f4 96 3e 6c d3 46 be 4f f3 b5 be b9 f3 b3 be
       0.29483646 -0.19416589 -0.35537192 -0.35146883
000110 5c fa cb 3e ae 4c c0 3d dc 1c bc 3d 3c dc 0a bd
       0.39839447 0.093896255 0.09185192 -0.033901438
000120 8d cd 83 be d6 a0 b1 3e 07 cf 8c 3d 55 a5 80 bd
       -0.2574276 0.3469302 0.06875425 -0.062815346
000130 be a6 1f 3e 3d de 98 3e 7d bd b9 bd 27 28 99 3e
       0.15590951 0.29857054 -0.09069345 0.29913446
000140 0c 76 9a 3e a4 d3 92 3e 2d 14 34 3e 6b 32 84 be
       0.30168188 0.28677094 0.17585821 -0.25819716
000150 17 3f 0e be 9a 08 e9 bd 3c c4 9b be 37 51 60 be
       -0.13891254 -0.11378594 -0.30423152 -0.21905981
000160 5f a5 ac be 23 3b 18 be f4 82 c0 3e fd f3 92 3e
       -0.33719918 -0.14866309 0.3759991 0.28701773
000170 7d 50 c0 3e be df d2 3e 7a d5 c6 3d be 00 99 be
       0.37561408 0.41186327 0.09708686 -0.2988338
000180 fd cc 70 3d ed 35 8a 3e b4 71 00 3e 87 6f a7 be
       0.058789242 0.26994267 0.12543374 -0.32702276
000190 dc c0 cd 3e 59 3a 8f 3e 44 e9 43 3e 9e db ba 3e
       0.40186203 0.27974203 0.19131953 0.3649568
0001a0 68 9f 55 be ab 19 00 3d fa 3d b4 3d ab 2e 34 be
       -0.2086159 0.03127448 0.088008836 -0.17595927
0001b0 8c 60 27 be 6c dd e9 3d 80 cc 86 3d bd 75 80 be
       -0.16345423 0.11419186 0.06581974 -0.25089827
0001c0 64 eb ac be ec 8c 91 bd 2d 2d a5 3e 0c 9a e4 3c
       -0.3377334 -0.07106957 0.3226103 0.027905487
0001d0 d3 ae 26 be e3 ba 51 3e 2c 08 88 3e e4 43 20 be
       -0.16277628 0.20481448 0.26568735 -0.15650898
0001e0 8a 82 8d 3e f6 68 b6 bd 17 77 1b be 60 33 4f 3e
       0.27638656 -0.089067385 -0.15182148 0.20234442
0001f0 89 da 42 3e 79 58 90 be c5 2c a4 3e 2a 18 8b be
       0.19028677 -0.281925 0.32065406 -0.27166873

weight f4 [64, 128]
000000 fe f1 e2 bc fd f6 ac 3d 9a e1 0d 3b 69 62 3f 3d
       -0.027703281 0.08445547 0.0021649362 0.04672471
000010 e7 fe 78 3d 7f 63 73 bd 81 3d ae 3d be 79 c4 bc
       0.06078997 -0.05942106 0.08507825 -0.023983832
000020 d5 e8 a2 bd 3d 83 6d bd 1b 1c 4a 3c 66 64 b4 3d
       -0.079545654 -0.057986487 0.012335802 0.08808212
000030 54 74 b3 bc 9e 49 b3 3c 74 2a a5 bd 09 d1 87 3c
       -0.021906056 0.02188569 -0.08064738 0.016579168
000040 70 87 5e 3c 9d 18 93 bd bb a4 e8 bc 8a 06 0b bd
       0.0135820955 -0.07182429 -0.028398862 -0.033941783
000050 44 79 16 bd 35 71 89 3d 24 74 03 bc 58 96 60 bd
       -0.03673674 0.06711046 -0.008023296 -0.05483088
000060 88 38 bc 3c f2 71 28 3d bb e9 09 3d 90 ad fa 3b
       0.022976175 0.04112429 0.03367017 0.007650085
000070 88 cb 29 bc d8 c4 88 bd 9d 64 6d bd 8c c4 6d 3d
       -0.010363467 -0.0667817 -0.05795728 0.05804877
000080 ed 73 9e 3d 42 42 ee bc a7 0b 2f bb 69 c5 82 bd
       0.07736955 -0.029084329 -0.0026709826 -0.06385309
000090 40 cb 3d bb a0 50 a0 bd 10 16 b1 3d d5 3e c8 3c
       -0.0028960258 -0.07827878 0.08646786 0.024444023
0000a0 24 22 ca bc 15 3b 9d 3c aa 78 78 3d cb 75 ae 3c
       -0.024674483 0.019193212 0.06066195 0.021296402
0000b0 76 c3 a9 3d 98 4f 13 bd b6 c9 55 bc 84 db 9b bd
       0.08289234 -0.03596458 -0.01304858 -0.07610229
0000c0 7b b4 9a 3d a6 d4 9e bd bb b6 44 ba 97 b9 6c bd
       0.07553955 -0.07755403 -0.00075040356 -0.05779418
0000d0 5a fd 1a bd 59 d6 71 3d 3c e3 d9 bc 63 52 9f 3d
       -0.03783927 0.05904231 -0.026597612 0.07779386
0000e0 3c 65 1a 3d 4c c6 7b bd 63 53 ed bc 3b 73 6d bd
       0.0376942 -0.061468408 -0.028970426 -0.05797122
0000f0 d8 49 90 bd 84 5c a9 bb 97 a9 6f bd 07 4e 86 bd
       -0.070453346 -0.0051684994 -0.058511343 -0.06557851
000100 d2 df 37 bd 1f e0 aa 3d 65 a6 99 3d b7 38 58 3d
       -0.044891186 0.08343529 0.0750244 0.052788462
000110 72 c8 2a 3d 33 ca 20 3d 12 50 15 bb 4a c0 8c 3d
       0.041695066 0.039255332 -0.0022783321 0.06872614
000120 cb f5 64 3d 52 86 54 3d 49 38 73 3c 03 db ad bd
       0.05589847 0.05188591 0.014844962 -0.08489039
000130 9b a2 82 bd 3f 73 9a 3c 7f 84 92 bd f0 89 86 bd
       -0.06378671 0.018853782 -0.07154178 -0.06569278
000140 52 fc 10 3d dc d1 30 bd 65 3d 89 bd 8c 7f eb bc
       0.03539688 -0.043168887 -0.06701163 -0.028747343
000150 56 e8 96 bb 14 26 cd bc eb 99 22 bd 8d 1a 7a 3d
       -0.0046053333 -0.025042571 -0.03969757 0.061060477
000160 01 83 f2 3c 76 74 aa 3d c0 bb 0f bd 0c a5 ac 3c
       0.029603483 0.083229944 -0.03509116 0.021074794
000170 a0 d4 0e bd cf 11 9f 3d da 02 35 3d 32 03 aa bc
       -0.034870744 0.077670686 0.044192173 -0.020753477
000180 d3 b4 ef 3c 3a d5 b3 3c 5d 5e 16 bb c4 8f 52 bd
       0.029261028 0.02195226 -0.0022944428 -0.051406637
000190 e0 93 b5 3b 8d 6f de 3c 21 a7 bc bb d0 e7 00 3d
       0.0055413097 0.027152801 -0.005757228 0.031471074
0001a0 96 88 41 3d e7 0c 6e 3d fa 9c 8f bc 5f 4f 8b bc
       0.0472494 0.058117773 -0.017530907 -0.01700562
0001b0 04 4b 4f 3d f2 ca 90 bd c3 bd a7 3d f7 f9 c5 3c
       0.05060865 -0.07069959 0.08190491 0.024167044
0001c0 a4 4f c5 3c 0d 7e 03 3d aa c2 61 bd 5a 30 96 bd
       0.024085827 0.032102633 -0.055117287 -0.07333441
0001d0 52 ce 37 bd e8 cb 9d 3c fd 42 95 3a 49 20 52 bd
       -0.044874497 0.01926227 0.0011387762 -0.05130032
0001e0 a9 2d 03 bd 4d e0 8e 3d 5e 71 33 3c 69 50 70 bc
       -0.032025967 0.06976376 0.010952322 -0.014667609
0001f0 e0 4e 13 bd 16 77 5e bd 98 b5 93 bd db f3 6b 3d
       -0.035963893 -0.054312788 -0.07212371 0.057605606
000200 61 cc 58 3d 19 4e ab 3d a5 a6 78 bd 44 46 b5 bc
       0.052929286 0.08364505 -0.0607058 -0.022128232
000210 f8 26 14 bd 61 51 09 3b 1c d9 47 bd 6e da b5 3c
       -0.036169976 0.0020953047 -0.048791036 0.022198882
000220 78 97 36 3b 7e b0 24 3d bd b8 94 bc 8d 1f 27 bd
       0.0027861279 0.04020738 -0.018154496 -0.040801574
000230 54 e1 3c bc 93 21 1e bd ad 60 d6 bb f9 2e 8c bc
       -0.011528332 -0.038606238 -0.0065422864 -0.017112242
000240 a1 b7 2a 3d dc c1 19 3d 08 72 82 bd b6 37 de 3c
       0.04167903 0.037538394 -0.06369406 0.027126174
000250 65 10 97 3d 77 b9 b1 3d e3 da 99 bc a8 34 fb 3c
       0.07376174 0.08677953 -0.018781131 0.030664757
000260 75 d5 61 bd 9a 33 77 3d 9e 3a a9 3b 00 4c 49 3d
       -0.05513521 0.060351945 0.0051644584 0.049144745
000270 e4 30 7e 3d d1 7b 3b bd 69 f6 84 3d 93 13 00 3d
       0.062058344 -0.045772377 0.064923115 0.031268667
000280 15 12 2a bd 7e a3 93 bd 72 07 05 3d b3 b1 5c 3d
       -0.04152115 -0.07208918 0.032477804 0.053880405
000290 57 04 9f 3d 9c 3d a6 3d ad b2 74 3d 98 ac dc bc
       0.077645 0.0811722 0.05974071 -0.026937768
0002a0 29 df ec bc 3c d3 31 bd da 0d b3 bc da 89 7d 3d
       -0.028915005 -0.04341434 -0.02185719 0.061899044
0002b0 f0 be ab 3d 8d 5b 6b bc f7 7e cc ba 1e 94 bd bc
       0.08386028 -0.014365089 -0.0015601803 -0.023141917
0002c0 6d b7 95 bd c5 f3 5a bd fc 09 9c 3d b2 eb 1f bd
       -0.07310376 -0.053455133 0.07619092 -0.039043136
0002d0 27 96 e1 3c ff 7d d7 3c 14 75 90 bd 89 23 23 bd
       0.027537419 0.026305197 -0.07053581 -0.03982881
0002e0 fd e5 74 bd 1f 85 dd ba 82 c0 ec 3c a8 b2 6b 3d
       -0.059789646 -0.0016900635 0.028900389 0.057543427
0002f0 0c 38 5b 3d 8a fb 87 bd 7b 8d 00 3d c9 2e 5e 3d
       0.053520247 -0.06639774 0.031384926 0.054243837
000300 d7 47 ff 3c 1c 03 a3 3d 5e 80 34 bd 38 9f ad bd
       0.031162186 0.079595774 -0.044067733 -0.08477634
000310 e1 b8 88 bd 23 32 8b 3c ad 5b a4 3d 95 3c 2e 3d
       -0.06675888 0.01699168 0.08025298 0.042538244
000320 3c a7 97 bc ae 71 39 bd 52 77 3e 3d 4f 72 26 3d
       -0.01851236 -0.04527443 0.04650051 0.040636357
000330 00 3a 85 3d b0 aa 9e bd 6f 0d 3d bd 27 d9 d6 3c
       0.06505203 -0.077474 -0.04615539 0.026226593
000340 bc ec f4 bb 60 45 26 3d ea 16 e7 bc 4a 3f 94 bd
       -0.00747451 0.040593505 -0.028209168 -0.07238634
000350 a8 3a 9f 3d 64 d2 88 3b 8f 7c c2 bc 7a d9 b0 bd
       0.0777486 0.004175471 -0.023741035 -0.0863523
000360 d0 75 88 3d c4 9c 09 3a 15 14 ba bb 84 30 97 bd
       0.06663096 0.0005249495 -0.0056786635 -0.073823005
000370 64 39 1a bd 42 2b 9c bd 22 b5 2f bc c1 8a 49 3b
       -0.03765239 -0.07625438 -0.010724338 0.003075287
000380 0e 91 af 3c 61 39 69 3d 08 ad 5d 3c 40 28 a7 bd
       0.021431472 0.056939486 0.013530023 -0.08161974
000390 4f 9c 25 bd 7c 12 6b bc 41 4b 99 bd 04 9e a0 3d
       -0.04043227 -0.014347669 -0.07485057 0.07842639
0003a0 4c 9c d6 bc 6a 16 43 bd 20 26 12 bc 63 13 44 bd
       -0.026197575 -0.047628798 -0.0089202225 -0.04787005
0003b0 71 a1 4c 3c 4b 33 59 3d ef 89 9e bd 2e 25 7a 3d
       0.0124896625 0.053027432 -0.077411525 0.061070614
0003c0 3a 8f b1 3d c8 8a 48 3c df e5 16 3d da 68 96 bd
       0.086698964 0.012240119 0.036840316 -0.073442176
0003d0 fa b9 00 bd b9 d2 b2 3d fb 9a 14 3b 5e 04 34 3d
       -0.03142736 0.087315984 0.0022675383 0.043949477
0003e0 b7 d4 7c bd 83 ee 62 bd a4 a0 27 3d f0 bf b0 bb
       -0.0617263 -0.055403244 0.040924683 -0.0053939745
0003f0 e7 a0 1a 3d ec 74 ac 3d ab 1a 7b 3d 20 07 2b 3d
       0.037751105 0.084207386 0.06130473 0.04175484

bias f4 [64]
000000 c6 4f 94 bd 3b 52 ce bc e2 6b c2 3d 3f e0 98 3d
       -0.07241778 -0.025185695 0.09493233 0.074646465
000010 f8 ce 3a 3d 37 2b 56 3d ae d9 2c 3d bf 08 d7 3d
       0.045607537 0.052287307 0.042199783 0.10499715
000020 22 d9 86 3b b4 e0 2a 3b 07 25 aa 3c 94 6e bb bb
       0.0041152397 0.0026073875 0.02076961 -0.005719969
000030 09 b6 90 3d 33 bb 97 3d e2 63 58 3c 72 02 97 3b
       0.070659705 0.07408752 0.013207408 0.004608446
000040 d9 21 b4 3c 66 9f 2e bc cb da 2f 3d af f1 ad 3b
       0.021988796 -0.010658121 0.042933267 0.005308352
000050 84 f2 ca 3d 47 25 9c 3a f1 ef 47 bb 79 96 3e ba
       0.099095374 0.0011912965 -0.0030508006 -0.0007270347
000060 bc e2 17 bc b3 4f c8 bc 98 57 e8 bc 46 26 00 bd
       -0.009270366 -0.024452066 -0.02836208 -0.0312865
000070 c3 5a 29 3d 7b 97 28 bd 95 fe 34 3c 4b a6 ec bc
       0.041346323 -0.041160088 0.011047025 -0.028887888
000080 b4 9e 80 3d fd 06 82 3d b3 1d 3c 3d 00 d8 bf bb
       0.0628027 0.06348989 0.04592676 -0.0058546066
000090 b7 a5 7b 3d b8 b8 b0 bd 13 66 76 3d da 91 b3 bd
       0.061437335 -0.08628982 0.06015594 -0.08768053
0000a0 72 ae 06 3c 70 60 9e 3d 54 9f 64 3d dd 31 ae bd
       0.008220302 0.07733238 0.05581601 -0.085056044
0000b0 c7 4c 60 3d e7 0c 08 3d f9 05 09 3d d7 c1 c8 3d
       0.05476072 0.03321543 0.03345296 0.09802597
0000c0 4f 42 d3 bc 17 7d 7e 3d e2 24 fb bc f2 f7 9f 3d
       -0.025788454 0.062131014 -0.030657236 0.07810964
0000d0 9e ab e5 3c 26 e5 83 bd 37 2d 4e bc 64 1c e0 3d
       0.028035935 -0.06440191 -0.012584022 0.10942915
0000e0 f4 31 f7 bc 52 72 5e 3c c5 12 39 3d de 65 83 bd
       -0.030175187 0.013577061 0.045183916 -0.06415914
0000f0 a2 a0 98 3c 82 43 2c bd 46 51 c5 3c 16 31 08 3e
       0.018631283 -0.042056568 0.024086606 0.13299975

weight f4 [32, 64]
000000 90 39 3f 3d 9c 4a b7 bd e1 1d 10 3e 46 e2 e7 bb
       0.046685755 -0.089497775 0.14073898 -0.0070765344
000010 49 5b 46 bd a9 bc bb 3d 85 15 f8 3d cf 24 f9 bc
       -0.0484269 0.091668434 0.121134795 -0.03041306
000020 da 9b ed 3d 19 5b f7 3c dc df fa 3d 41 a6 f3 3d
       0.11601992 0.030194806 0.12249729 0.11896945
000030 13 59 b6 3d b9 68 06 3e 3f 01 83 bd 64 f9 bb 3d
       0.08903708 0.13125886 -0.06396722 0.09178427
000040 30 e1 7d bd f1 64 3b bd 78 5c 6f 3d da 69 fd bd
       -0.061982334 -0.045750562 0.058437794 -0.12373705
000050 aa 36 c5 bd 35 4b ed bd d9 71 c2 bd 8c 91 8c 3d
       -0.09629567 -0.1158661 -0.09494371 0.06863698
000060 86 df 02 be 3c 67 1a 3d 02 67 ca 3d 85 f1 01 3e
       -0.1278058 0.03769611 0.098829284 0.12689789
000070 9b b2 5c be af 99 d9 3d 6c 61 9c 3d 1b 42 9c 3d
       -0.21552508 0.10625016 0.07635769 0.07629796
000080 2e 27 15 3c fb 1a 09 3e 75 6e ca bd e6 d3 4b bd
       0.009103579 0.13389198 -0.09884349 -0.04976263
000090 46 5b aa bd c0 3c 24 bb cf c2 02 3d 34 ae 31 bd
       -0.0831819 -0.0025060624 0.031924065 -0.043379024
0000a0 b5 26 00 bc ce 18 89 3d 56 ed 0a bd 4c 40 7f bd
       -0.0078217285 0.06694184 -0.033917747 -0.062317178
0000b0 87 50 89 bd 4c 56 ac bc c1 a6 89 3d e1 7e bd 3d
       -0.067048125 -0.021037243 0.06721259 0.09252716
0000c0 e4 3a 35 3b 24 de 24 bd f1 4b c1 bd de 27 c0 bd
       0.002765351 -0.040250912 -0.09438313 -0.09382604
0000d0 9e e4 c4 bd d0 59 11 bc 71 42 59 3d ff 47 ba 3c
       -0.09613918 -0.008871511 0.05304188 0.022739409
0000e0 b9 a6 fa 3d 71 70 38 3d e9 45 a4 bd 67 4f 2d bc
       0.12238831 0.045029107 -0.08021147 -0.010578013
0000f0 7e 9d 8a bd 20 b4 ab 3d 04 30 fe 3d 21 9e 9e 3d
       -0.067683205 0.083839655 0.12411502 0.077450044
000100 c0 47 6c bc d9 cb 95 bc 32 d2 d2 3d ae 0e 26 3e
       -0.014421403 -0.018285679 0.10293998 0.16216537
000110 da 58 04 3c 77 81 a0 bd 57 d3 2e 3d 34 0d 31 be
       0.0080778245 -0.078371935 0.042682018 -0.17290193
000120 9c 5f 24 3d 65 01 b9 3d fd 54 52 bd 23 ea e1 bc
       0.040130243 0.09033469 -0.051350582 -0.027577465
000130 ec 47 8c 3d 5b e3 76 3d 61 f2 dc bd 23 2f 05 3d
       0.068496555 0.060275417 -0.107884176 0.032515656
000140 63 62 29 be b6 e5 21 bd e1 8c e2 bc b0 13 f9 3d
       -0.16541438 -0.03952571 -0.027655067 0.12161958
000150 26 da 2b 3e 2b 5f 12 bd 9e 15 8a 3d 83 d1 08 3d
       0.16782436 -0.03573529 0.067424044 0.03340293
000160 8a 3b fa bd d0 f2 23 bd 54 a2 90 bc bc fd 3d 3d
       -0.122183874 -0.040026486 -0.01765553 0.046384558
000170 56 03 19 3e 55 42 88 3d 37 1a 4c bb c8 cb ec 3d
       0.14942679 0.06653277 -0.0031143555 0.11562306
000180 2f a4 cc 3d 2e d8 89 3d 94 bb a1 bd 75 10 76 3d
       0.09992253 0.06730686 -0.07897106 0.06007429
000190 f1 da c1 3d f4 33 23 bd bc 27 be 3d 73 dc 6f bd
       0.09465588 -0.03984447 0.092849225 -0.058559846
0001a0 d6 5a 05 3d fb 32 c9 3d 66 bd 77 bd 98 11 a6 3c
       0.03255733 0.09824177 -0.06048336 0.020272061
0001b0 7f 96 cf bd 87 73 f7 3d e1 57 85 bc 45 c8 4e 3d
       -0.10136127 0.12082582 -0.016277255 0.05048396
0001c0 7a 49 1b 3e 39 90 29 3c 8b b5 6a bd 11 77 84 3d
       0.15164748 0.010349327 -0.05730204 0.064680226
0001d0 7f 17 ac bd f2 74 4e 3d 29 40 80 bb 72 5c df ba
       -0.08402919 0.050404496 -0.0039138985 -0.0017041101
0001e0 1f 12 d2 bd b3 c0 d3 bd bf 3e 0f 3e 3c a7 75 3d
       -0.102573626 -0.10339489 0.1398878 0.05997394
0001f0 c3 78 19 3d e0 2e ef 3c d8 14 7a bd f0 a1 0c 3e
       0.037468683 0.029197156 -0.061055034 0.13733649
000200 92 3b cb 3d 68 eb c4 3c 52 82 93 bd 4d af d6 bd
       0.099234715 0.024038032 -0.07202591 -0.10482655
000210 0e 5e c2 3d 2d 8c 9b bd 76 63 aa 3c d2 c1 c2 bd
       0.09490596 -0.07595096 0.02079938 -0.095096245
000220 76 8e dd bd cb 59 39 bd 60 76 e9 bd c4 12 ee bd
       -0.10818188 -0.04525165 -0.11399531 -0.11624673
000230 aa f2 9e bd 26 fb 8d 3d dc 7a 2b bd 7c 16 56 3d
       -0.07761128 0.069326684 -0.041865215 0.052267537
000240 40 ed 3e bc 1a 76 d8 bd 16 af ae 3d 14 5f b4 3d
       -0.0116532445 -0.10569401 0.08529489 0.08807197
000250 8c 74 f9 3b 94 13 f9 bd d8 e5 3a bd 3f 05 59 bd
       0.0076127704 -0.12161937 -0.045629352 -0.05298352
000260 12 41 cf 3d c1 12 63 3d aa 31 4b 3d 78 28 ac 3d
       0.10119833 0.055437807 0.04960791 0.08406156
000270 89 66 de 3d 1c d3 06 bd c0 fa 8e 3d 7c 7d bd 3d
       0.10859401 -0.032916173 0.069814205 0.0925245
000280 d0 73 fd 3c c7 94 00 3d 53 af c4 bd 60 e0 66 3d
       0.030939013 0.031391885 -0.09603753 0.056366324
000290 80 2b f4 3c 78 a2 f1 3d 78 9c e0 bc aa 71 17 3d
       0.029805899 0.117985666 -0.02741836 0.036973633
0002a0 59 9f a2 bd 4d 95 e0 bd b4 8d 33 bd 44 1c b6 3d
       -0.079405494 -0.10965977 -0.04383631 0.0889211
0002b0 c0 17 c2 3d 46 2c a9 3d da 62 89 3d 0f 69 af 3c
       0.09477186 0.082603976 0.067083076 0.0214124
0002c0 ca 0f a8 bd d0 2e 66 bc d8 b2 1c 3d 9d 16 fc bb
       -0.082061365 -0.014049247 0.038256496 -0.0076931254
0002d0 0a 26 4c bd 98 8e 79 3d e0 bb 2d 3c c2 fb 7f 3d
       -0.049840964 0.060927004 0.010603875 0.062495954
0002e0 38 0d 91 bc d6 00 b8 bd 17 28 c3 3d 58 c9 17 bd
       -0.017706499 -0.089845344 0.09529131 -0.03705725
0002f0 48 5d d9 bd 0c 33 d6 bd 6a 06 c4 bd 87 17 aa bd
       -0.10613495 -0.10458955 -0.09571536 -0.08305269
000300 48 72 c3 bd c3 00 e3 bd 94 41 70 3c 9d 0c 2c 3e
       -0.09543282 -0.1108413 0.014664073 0.16801687
000310 1e c3 08 3e fe 21 26 3e d7 df e9 bd 8d ac 33 bb
       0.13355681 0.16223904 -0.11419647 -0.002741608
000320 76 31 06 3e 7f da e7 3c e3 40 d7 3d ed a2 eb 3b
       0.13104805 0.02830243 0.10510423 0.007191053
000330 5f d8 f9 3b d1 c8 f0 bc 72 ee 75 3b 04 ea 81 bd
       0.0076246704 -0.029392632 0.0037526158 -0.06343463
000340 40 3f ff 3c b9 c8 e7 bd bf ef 6e 3d 6b 0a 60 3d
       0.03115809 -0.11317582 0.05833411 0.054697435
000350 7a 2d be 3d 62 cb 8c bd 7a 0f 0d bd 8f fc 24 3e
       0.09286018 -0.0687473 -0.034438588 0.16111968
000360 74 53 10 bc 8b 0e d2 3d 6a 96 86 bc 85 71 20 3e
       -0.008808959 0.1025668 -0.016429145 0.15668304
000370 14 78 ab 3d 53 dd b9 bd a0 32 35 bc c1 8a c6 3d
       0.083725125 -0.09075417 -0.011059433 0.09694434
000380 e5 f2 6e bd 5c 57 08 3e b4 c0 ae bc 52 9f 0f 3d
       -0.05833711 0.13314575 -0.021332122 0.03506405
000390 0f 3e 49 3d 40 fc 25 bd e3 5f a5 3c eb e1 bc bd
       0.04913145 -0.040523767 0.020187324 -0.09222778
0003a0 70 18 8a 3c 26 15 b2 3d f6 90 f9 3d c0 6a f1 3c
       0.016857356 0.0869544 0.12185852 0.029469848
0003b0 68 12 a1 3d 8f 67 34 3d b4 b2 82 bd 2a 0e a8 3d
       0.07864839 0.044044074 -0.06381741 0.082058266
0003c0 1c de 1d 3e 2e 7f 88 bd 38 7f 3e 3c 88 4a 22 bd
       0.15416759 -0.066648826 0.011627011 -0.03962186
0003d0 11 7c 6f bb 35 5f 95 3d d7 d3 95 3d 63 59 7e bd
       -0.0036542455 0.0729355 0.07315796 -0.062096965
0003e0 cb e8 87 3d 89 67 ca 3d 60 bd fc 3d d2 3c f5 bd
       0.066361986 0.09883029 0.12340808 -0.11974491
0003f0 20 21 da 3d d0 ec bb bd 00 b4 32 3d 73 40 f2 3d
       0.10650849 -0.09176028 0.043628693 0.11828699

bias f4 [32]
000000 19 67 90 bd dd 5c ec 3d 72 46 3f bd a6 8e 9e 3d
       -0.07050914 0.1154115 -0.04669804 0.07742052
000010 78 e0 b3 bd d8 86 ad bc 6a b5 2b 3e 0a 72 03 3e
       -0.087830484 -0.021182463 0.16768423 0.12836471
000020 f8 4d 15 3e e4 f8 c4 3b 99 bd 04 bc 74 46 92 3d
       0.14580524 0.0060111154 -0.008101844 0.07142344
000030 c6 cb 0a 3d bf 4f 0a bd 12 82 97 bd a8 4c 78 3c
       0.03388574 -0.033767458 -0.07397856 0.015154995
000040 71 04 0d be 63 33 34 bd db 64 aa 3d a9 9f a0 3c
       -0.13771226 -0.04399432 0.08320018 0.019607382
000050 38 a8 12 3e c2 f5 e9 bd aa b8 98 3c 4e 78 96 bd
       0.14321983 -0.11423828 0.018642742 -0.07347165
000060 92 e0 fd 3d ed 0b a8 3d 48 30 b1 3c 00 3c 0e bc
       0.12396349 0.082054 0.021629468 -0.008681297
000070 1c 38 a4 bd fd 91 27 3d 68 a7 a7 bd 55 ba b3 3d
       -0.080185145 0.04091071 -0.08186227 0.087757744

weight f4 [128, 7]
000000 84 87 62 be 69 5c 5c 3e b0 9d 85 bd cb 74 94 3e
       -0.22122008 0.21519627 -0.06524217 0.28995356
000010 39 54 3f be 31 99 86 3c a7 58 30 3e 8c 04 3c 3d
       -0.18684472 0.01643047 0.17221318 0.045902774
000020 a8 e6 a9 be 8f cc a9 bc b2 3a 99 3e 29 4e f4 3c
       -0.3318379 -0.020727424 0.29927593 0.029822426
000030 e6 29 67 bb 3e 04 7d bd b4 06 25 3e dd 8c 4e 3e
       -0.0035272776 -0.061771624 0.16115838 0.20170923
000040 76 6f 55 be fa 3b 88 be a8 47 c0 be 49 07 a3 be
       -0.208433 -0.26608258 -0.3755467 -0.31841496
000050 98 91 5c 3e 99 6e b5 be ed 36 7d bd 14 8f a9 3d
       0.21539915 -0.35435942 -0.06181996 0.08279243
000060 cf 31 c5 3e 13 d9 93 3e f0 40 1b 3d c6 05 0b 3e
       0.38514563 0.28876552 0.037903726 0.13576421
000070 72 4f 69 be 1b f4 b8 bd 1e 73 9a 3e 71 b5 80 be
       -0.22784212 -0.090309344 0.30165952 -0.2513843
000080 50 68 86 3e 6f c4 aa bd d2 bf 90 be 18 0a 01 3d
       0.2625146 -0.08338248 -0.28271347 0.031503767
000090 e8 a4 75 3e 22 8a 68 3e 44 8f 92 3e 8d fb ad 3e
       0.23988688 0.22708943 0.28624928 0.3398098
0000a0 a5 90 82 be e2 a6 a1 3e 56 37 42 3e 1a 3e 3a 3e
       -0.2550098 0.31572634 0.18966421 0.18187752
0000b0 b3 26 c1 3e 50 d8 0c be 24 70 60 3e 84 2b 5e be
       0.37724838 -0.13754392 0.21917778 -0.21696287
0000c0 55 3b 2b 3e 35 77 3f be 42 5e 88 3e de a0 09 be
       0.16721852 -0.18697818 0.26634413 -0.13440272
0000d0 6c 88 a8 3e 71 bb 51 be 76 40 81 be 6d 02 98 3e
       0.32916582 -0.2048166 -0.25244492 0.2968935
0000e0 aa a8 af be c7 9e 34 be b5 3b 99 be 8a c5 8b 3e
       -0.34308368 -0.17638694 -0.29928365 0.27299148
0000f0 17 3e 9f 3e 72 e5 52 3e e1 72 1c bd 5e dd 2e 3e
       0.31102058 0.20595339 -0.038195495 0.17076632
000100 36 b3 8c 3e 45 57 29 3e 4d 6b 9a 3e 91 43 b5 be
       0.27480477 0.16537197 0.3015999 -0.35403112
000110 4e ae 86 3d d6 4e 94 be 26 24 cb bd d1 c0 9b be
       0.06576215 -0.28966397 -0.09919004 -0.30420545
000120 38 e1 99 be cd 66 a8 be 8e 6a 9f 3e dd 99 27 be
       -0.3005464 -0.3289093 0.31135982 -0.16367288
000130 c7 f2 c2 3c 8d 04 86 3e f8 f2 7f 3e c5 b8 59 3c
       0.023797406 0.26175347 0.24995029 0.013288681
000140 dd 3b c6 bc 9d 45 f9 bc 9b c2 ee bd b5 e4 84 3d
       -0.024198467 -0.030428702 -0.11658212 0.06488935
000150 0b 8a e5 bd 12 ce 0d 3e 26 92 80 3e 7c 01 70 be
       -0.1120797 0.13848141 0.25111502 -0.23438066
000160 a5 1d 45 be 59 a9 9d be 42 17 ab 3e 58 16 ae 3e
       -0.1924959 -0.30793265 0.33416182 0.34001422
000170 b4 f2 13 be 44 56 d7 bd 42 d0 94 be cc 13 a6 be
       -0.14448053 -0.10514501 -0.29065138 -0.3243698
000180 be 13 b8 be 62 6d e1 3c 76 52 7b bd 0e 54 aa 3e
       -0.35952562 0.027517978 -0.061357938 0.33267254
000190 98 9c 4d 3c 65 65 b5 3e b3 0a 66 be 01 0b d8 3d
       0.012549542 0.3542892 -0.22465019 0.10548974
0001a0 6d 6e a3 be 72 b1 51 3e 5e 89 9a 3d d6 12 88 3e
       -0.31920186 0.20477846 0.07545732 0.2657687
0001b0 8a c8 54 bd 25 09 8a 3e 34 16 c3 3e c8 dd 3d be
       -0.05194906 0.26960102 0.38102877 -0.18541634
0001c0 2a 8e 78 be b4 bb 98 be dc b0 1a 3e f1 fd 1a be
       -0.24272981 -0.29830706 0.15106529 -0.15135933
0001d0 66 71 80 3b 69 09 95 3d b2 bf 1c be 30 1e b7 be
       0.003919768 0.072771855 -0.15307501 -0.3576522
0001e0 a1 f7 77 be 20 b8 8b bd 8f 27 f4 bd 0a 12 69 bc
       -0.24215557 -0.068222284 -0.11921608 -0.014225492
0001f0 bd 63 a6 be 5b 53 b2 be b3 fe b1 3e 12 65 64 3e
       -0.3249797 -0.3482922 0.34764633 0.2230418
000200 79 1b 4c ba 03 5e 7a be eb 35 c1 3d a2 80 d0 3d
       -0.0007786076 -0.24449925 0.09434112 0.10180785
000210 c3 75 89 3d a0 6d fa 3d a8 6a 28 be d3 53 1a 3d
       0.067119144 0.122279406 -0.16446936 0.037677597
000220 b9 e6 28 3e 05 0b 5c be 8c 31 a1 3e a4 34 36 be
       0.16494264 -0.21488579 0.31483114 -0.17793518
000230 b9 89 54 bd 76 2f bc 3c 56 fe 30 3d 98 3b ff bd
       -0.051889155 0.02297185 0.043211304 -0.124625385
000240 43 bc ba be 55 bf 04 bd 8d 9a 73 be 5a 84 b7 3e
       -0.36471757 -0.03240903 -0.23789425 0.35843164
000250 e1 fa b4 be 65 e0 3c be 1b 47 b5 be 8b c2 1b 3e
       -0.35347655 -0.18444975 -0.35405812 0.15210931
000260 54 f5 5c be 41 02 a8 3d 54 08 c5 be b7 17 87 3e
       -0.2157796 0.08203555 -0.38482916 0.2638528
000270 17 75 42 be e4 4b dc 3d 6f d1 12 be 04 92 48 3d
       -0.18989979 0.107566625 -0.14337705 0.048967376
000280 80 a7 cd 3e bc d1 d6 be 9f 06 a7 3e e6 be 8e 3e
       0.40166855 -0.4195689 0.3262224 0.2788002
000290 a3 2d 77 bd 51 54 b3 3e 2d f2 14 bc a6 ab 94 3d
       -0.060346257 0.35025266 -0.009090942 0.07259302
0002a0 37 df d0 3e 5f 62 bb be 8a 11 93 3c 12 2d 85 be
       0.407953 -0.3659849 0.0179527 -0.26010948
0002b0 c9 7c b5 bc c8 23 33 3e 79 a7 e4 3d ba a9 b6 be
       -0.022154229 0.17494118 0.111647554 -0.35676366
0002c0 eb 91 4f be 4c 52 02 3e d0 94 ef bd 5f 85 a0 be
       -0.20270507 0.12726706 -0.116983056 -0.31351754
0002d0 24 a7 39 3d 4d b4 46 bd 4e 9e f5 bd 66 36 c0 be
       0.045325413 -0.048511792 -0.11993085 -0.37541503
0002e0 35 bd 6f bd 40 b5 b1 be d2 7b b1 be 3f 32 69 3e
       -0.05853005 -0.34708595 -0.3466478 0.22773074
0002f0 46 cf 79 3e 0f e9 e4 3e 84 ca a6 be cf af b7 3e
       0.24395475 0.4470906 -0.32576382 0.3587632
000300 e7 4e c6 bd d6 1c c8 3b 66 7a 68 be a6 3f 93 3e
       -0.09683018 0.006106953 -0.22702941 0.28759497
000310 65 d3 e3 3e 0f ac 69 be 9b da ab be d7 46 46 3c
       0.4449722 -0.22819541 -0.3356522 0.0121018505
000320 27 3e 59 3e fc 24 7a 3d 87 5b 6a be f2 d9 7c be
       0.21215115 0.061070427 -0.22886477 -0.24692515
000330 72 91 24 3d 9f c4 6f be d0 a3 be be 57 17 f5 bc
       0.04017777 -0.23414849 -0.37234354 -0.029918356
000340 bb 6a 90 bb a1 a0 79 3e 61 64 86 3e 1d 7e 20 be
       -0.0044072545 0.24377681 0.26248458 -0.15673108
000350 8f 6c 43 3e 02 75 34 3d d5 bb ad be de 20 d1 3d
       0.1908438 0.0440569 -0.33932367 0.10211347
000360 c1 92 58 be 04 53 1a 3e e7 ff 52 be 60 ac 4d bc
       -0.21149732 0.1507073 -0.20605431 -0.012553304
000370 20 91 54 3e 00 a5 49 be 09 65 b4 3d b0 34 38 3d
       0.20758486 -0.19691849 0.088083334 0.04497212
000380 94 42 88 3c 7b fa cb 3d 18 6d b4 3e ec b9 ba 3e
       0.01663331 0.09959885 0.35239482 0.36469972
000390 38 88 eb 3b 6e 1b c5 bd 05 91 d6 3d 92 08 cb 3e
       0.0071878694 -0.096243724 0.10476879 0.39654976
0003a0 d8 91 1e be 6c e6 1d bd c4 d6 c4 be 29 0e b0 be
       -0.15485322 -0.038549826 -0.38445103 -0.34385803
0003b0 da 2e 61 be a1 9e fe 3d b9 e5 60 3e 6d b6 4f be
       -0.21990529 0.124326 0.21962632 -0.20284434
0003c0 48 2d 93 3e 25 b5 bb 3e 40 d1 30 3e eb 53 48 be
       0.28745484 0.3666164 0.17267323 -0.19563262
0003d0 32 e6 0a be d0 fb 89 be ca 16 86 be 78 38 af be
       -0.13564375 -0.2694993 -0.26189262 -0.3422277
0003e0 c4 db ae 3e 7a a8 40 3e bb b9 b2 bc a1 b4 97 be
       0.34152043 0.18814269 -0.021817079 -0.29629996
0003f0 a2 80 5c be af a8 94 be cd 52 c4 3e 3e e6 27 3e
       -0.21533445 -0.29034945 0.38344422 0.16396424

bias f4 [128]
000000 3d 6e 08 3e 07 0d bc be 95 5a 99 3e 70 aa 67 3e
       0.13323303 -0.3672869 0.2995192 0.2262361
000010 a5 1d aa be 0e f7 3e 3e 14 d5 52 bd 42 6b e9 bd
       -0.33225742 0.18648931 -0.05147274 -0.11397411
000020 00 22 59 3e 29 80 ad 3d 5a bd 68 bb 4c b8 3b be
       0.21204376 0.0847171 -0.0035513253 -0.18332022
000030 9d d5 80 be 51 ad 40 3e e1 12 d4 3e d7 7a 38 be
       -0.25162974 0.18816115 0.41420653 -0.1801561
000040 4e 20 b7 be 1f b6 54 be 98 90 a6 3e 1a 94 95 be
       -0.35766834 -0.20772599 0.3253219 -0.29214555
000050 fb 17 ec bd 97 a2 f9 bc bd 97 b5 3e 34 7b 8e 3e
       -0.115280114 -0.030473037 0.3546733 0.27828372
000060 e6 6f b6 3e c2 e9 bd be 5c 7d 80 bb b5 aa 93 bd
       0.35632247 -0.37092406 -0.003921194 -0.07210294
000070 de 49 80 3e b6 17 99 3e b4 3e 43 be 90 c6 ca 3e
       0.25056356 0.29900903 -0.19066888 0.39604616
000080 16 7b ab be a3 40 ae bd 5e e9 23 3e 8c d9 c8 3e
       -0.33492345 -0.08508422 0.16006991 0.39228475
000090 b9 20 e0 bd ec 3c 91 3e 6c 5e 97 3e 6c df b5 3d
       -0.10943741 0.28366792 0.29564226 0.08880505
0000a0 c8 fd 0a be b6 38 66 3e 52 8f ed bd 9a 7d cd 3e
       -0.13573372 0.22482571 -0.11599602 0.4013489
0000b0 25 93 56 3e 96 3f 94 3e f5 f4 4b be 57 fe c5 3e
       0.20954569 0.28954762 -0.19917662 0.38670608
0000c0 cc b5 8c be 3f c4 d0 3c 0d cd 74 3d a1 f9 83 be
       -0.2748245 0.025484202 0.059765864 -0.2577639
0000d0 4d a1 6f be c5 0d 9e 3e d2 f9 c6 3e 92 46 6e 3e
       -0.23401375 0.3086988 0.38862473 0.23269108
0000e0 79 69 68 bd 4b 6e 30 3e f5 84 83 3e 74 6b dc 3d
       -0.05674121 0.17229573 0.25687376 0.107626826
0000f0 0d 36 45 3d 48 3d 12 3e 66 63 be be 66 6a 5d be
       0.04814725 0.1428119 -0.3718521 -0.21622619
000100 06 a5 05 be c8 97 af bd a2 dd 98 be 1e 9c 27 3d
       -0.13051233 -0.08573872 -0.29856592 0.04092037
000110 0e 58 5d 3e d2 da ac be 5a 53 93 bd 09 6e 12 be
       0.21615621 -0.33760697 -0.071936324 -0.14299788
000120 7d 3d 0e be 8d 9c 62 be 21 6b b0 3e 9f 2a 46 3e
       -0.13890643 -0.22130032 0.34456733 0.19352196
000130 71 bd a7 be f4 95 b7 bd 33 a2 94 3e 83 1b 91 bc
       -0.3276172 -0.08964148 0.29029998 -0.017713314
000140 5a 11 a3 3e 07 44 df 3e 4f 42 c1 be 9c 00 cb 3e
       0.31849176 0.43606588 -0.37745902 0.39648902
000150 c9 cd c1 3e 5b 27 71 3e 58 d8 8d be a8 a2 2d 3e
       0.37852314 0.23550169 -0.2770412 0.1695658
000160 04 97 81 be 25 54 1d be 9e f2 7d 3e 09 27 6e 3e
       -0.25310528 -0.1536413 0.24799582 0.23257078
000170 6b ab d2 3b 92 5e d9 3e 4c 8e c7 3e eb 9f 73 bc
       0.006429126 0.42454964 0.3897575 -0.01486967
000180 cf 71 47 be cb f1 8e be 1f 12 80 be 2f 2d 2e 3e
       -0.19477008 -0.27918848 -0.25013825 0.17009424
000190 ff 92 02 3c 8a ef e6 3d c1 f1 8c 3e 07 1f 80 3e
       0.007969617 0.11276157 0.27528194 0.25023672
0001a0 77 18 8b 3d 54 db ba 3e a5 2d 67 3e 8c a7 b1 be
       0.06791776 0.3649546 0.22576006 -0.3469814
0001b0 4e 41 99 3e 0e 78 92 3e 78 99 41 be da 39 ae 3e
       0.29932636 0.2860722 -0.189062 0.34028512
0001c0 5e 26 94 3e 6f 68 86 be 3e 27 94 3e a0 cd e2 3e
       0.28935522 -0.26251552 0.2893619 0.44297504
0001d0 68 75 46 be fd 29 65 3e e4 b9 ef bc f9 6c 06 3e
       -0.19380724 0.22379299 -0.029263444 0.13127507
0001e0 aa 7c b5 3e 64 5d 75 be ea 8d a6 3e 07 f3 61 be
       0.35446674 -0.23961407 0.32530147 -0.22065364
0001f0 86 83 12 3e a9 9c 2c 3e b1 2c ac 3e 9d 5f 36 be
       0.14307985 0.16856636 0.33627847 -0.17809911

weight f4 [64, 128]
000000 78 e8 9c 3d c2 21 47 3c fe 1a 4e bd 7d a4 3c 3d
       0.076615274 0.012154045 -0.05031871 0.046055306
000010 c9 63 9e bd f1 04 08 bd e2 88 6b bd b2 c1 9d bd
       -0.07733876 -0.033207837 -0.05750359 -0.0770296
000020 8d af 5d bc 14 45 5a 3c 48 f4 a9 bb 96 19 33 3d
       -0.013530624 0.013322134 -0.0051865913 0.043725573
000030 97 10 68 bd 18 ea 1c 3d cb db a1 3c 21 e8 24 bd
       -0.056656446 0.038309187 0.019758126 -0.040260438
000040 6a 15 85 bd 81 05 63 3d a1 8c 86 bc 5d ea 82 3d
       -0.06498225 0.05542517 -0.016424479 0.063923575
000050 bf f0 a0 3c b3 a5 75 3d 30 78 65 bd 67 73 9e 3c
       0.019646047 0.059972476 -0.056022823 0.019342138
000060 c2 af ae bd 33 e9 b2 bd 20 8f 9b 3d 09 a8 af bc
       -0.08529617 -0.087358855 0.07595658 -0.02144243
000070 de 6f 72 bd dc 65 2a bd ec 46 ae 3c 70 c1 0b bd
       -0.059188716 -0.041601047 0.021274053 -0.034120023
000080 9d 01 a3 bd 77 de 1d bc a0 62 8e 3d f0 70 37 3d
       -0.07959292 -0.009635559 0.06952405 0.04478544
000090 31 45 23 3d a2 9e 33 3d ea a9 8c bd d9 6c a9 3d
       0.039860908 0.043852456 -0.06868346 0.08272714
0000a0 ff 17 87 3c 86 2d 83 3d d3 79 86 bc 61 b5 01 3c
       0.016490934 0.06405167 -0.016415512 0.007916779
0000b0 b3 c5 6c bd 4c 02 09 3d a0 1e f4 bb 9e 54 7d 3d
       -0.05780573 0.033449456 -0.00744994 0.061848275
0000c0 bf d0 aa bd 82 da 95 3c cf 88 64 3d fa 7d a4 3a
       -0.083405964 0.01829267 0.055794533 0.0012549751
0000d0 3b bb 65 bd bd 70 a1 bd 18 86 81 bd f7 54 95 bd
       -0.05608676 -0.07882831 -0.063244045 -0.072915964
0000e0 a3 24 7a 3d 2e d1 9e 3d 27 c4 1c bd ab 97 dc 3c
       0.061070096 0.077547416 -0.038273003 0.02692779
0000f0 cc c1 6d 3d 01 03 88 3d ca b3 f7 3c c0 af a6 3c
       0.058046147 0.06641198 0.030237097 0.020347476
000100 99 c3 91 3d 8a df 8d bd ed 61 6f 3d 42 cd a0 bd
       0.071173854 -0.06927402 0.058443 -0.0785165
000110 9c 58 95 3d 39 6b e2 3c e7 6e 29 3d 32 fd aa 3d
       0.072922915 0.027639018 0.04136553 0.083490744
000120 84 11 8c bc d9 86 fa bb 98 26 24 bd 2f 48 ed 3b
       -0.017098196 -0.0076454696 -0.04007587 0.007241271
000130 f6 65 0a bd a9 94 80 bc 6d a1 a3 bd a4 e1 95 bd
       -0.033788644 -0.015695887 -0.07989774 -0.07318428
000140 05 6c 03 3d 78 f3 aa bd 89 73 e5 3b d4 40 79 3c
       0.032085437 -0.08347219 0.0070022983 0.01521321
000150 17 89 1c bd 5d 3d 31 3d fe 2b 42 bd d4 1a 4e bd
       -0.038216677 0.04327141 -0.047405235 -0.050318554
000160 14 9d ab 3d c5 b1 07 bc c7 f4 a9 3d d4 fa a2 3d
       0.0837957 -0.00828213 0.08298641 0.07957998
000170 07 12 62 3d 88 c3 f5 b8 db 94 2d bd 5b 75 5d bd
       0.055192973 -0.00011718931 -0.042378288 -0.054066997
000180 ae d3 9f bd 32 8c fa bc ef 32 07 bd 3f 20 de 3c
       -0.078040466 -0.030584428 -0.03300756 0.027114986
000190 72 a7 23 bd 77 bf 10 3d 4b 19 bb bc 14 7a 85 bd
       -0.03995461 0.035338845 -0.022839209 -0.06517425
0001a0 04 53 9d 3d d1 38 90 bd d1 96 ae bd 8b 3c 2d 3d
       0.076818496 -0.07042087 -0.0852486 0.042294066
0001b0 ea 61 02 bc 21 44 7e bd c7 b4 41 3d 19 0c e1 3c
       -0.007957915 -0.06207669 0.047291543 0.027471589
0001c0 3c 2b a2 3c ae a1 cb ba 39 05 89 bc 63 ba 85 bd
       0.019796006 -0.0015535855 -0.016726123 -0.06529691
0001d0 dc a6 6b bc 9f c5 68 3d 3a 04 12 bc 5e 04 fe ba
       -0.014383044 0.05682909 -0.0089121405 -0.0019379964
0001e0 5f 5d 65 3d b3 40 b0 3d 5c aa 1b bd 67 65 b1 bd
       0.05599725 0.086060904 -0.038004264 -0.08661919
0001f0 88 6b 8e 3c 0f 6a dc 3b f6 fe 38 bc b0 c4 02 3d
       0.01738526 0.0067265104 -0.011291256 0.031925857
000200 1a 8a 9b 3b 6b 5a 44 bd fa db 59 bd 9b 61 3d bb
       0.0047466876 -0.04793779 -0.0531883 -0.0028897289
000210 ec ef a7 bd 01 35 f4 bc 77 11 5d 3d 6d ba 93 bd
       -0.08200058 -0.02981043 0.053971734 -0.07213292
000220 e7 b4 83 bd d3 2b d2 bc 2b 2b c9 bb 15 d0 82 bd
       -0.06430989 -0.025655663 -0.006139179 -0.06387345
000230 1d 94 93 3d 3b ad 13 bd 2c 82 bc 3c 4f 2b a7 bc
       0.07205985 -0.036053877 0.02301129 -0.020406393
000240 b5 10 d2 bb 19 b2 14 bd ef ec bb bd 73 0f 1f ba
       -0.006410683 -0.03630266 -0.09176051 -0.0006067671
000250 e6 c6 8d 3c df 79 47 3c d3 29 88 bd 0f 81 e5 bb
       0.017306756 0.012175052 -0.06648602 -0.0070039104
000260 cb 39 91 bd 4d 18 a6 bd 11 46 8f bb 49 05 80 3c
       -0.07091101 -0.08110104 -0.0043723662 0.01562752
000270 e4 02 47 3d 5a 94 a2 bd 09 4f 50 bd 33 e3 8b bd
       0.04858674 -0.07938452 -0.050856624 -0.06830444
000280 b7 91 41 bd 5a b9 57 3d 6b d1 59 bc 61 b6 5c bd
       -0.047258105 0.052667 -0.013294558 -0.053884868
000290 26 67 9b bd 71 54 56 bd 0f a7 c9 bc 27 9a 0c 3d
       -0.075880334 -0.052326623 -0.024615793 0.0343267
0002a0 f6 75 5c bd 24 ee 90 3c bb ea 84 3d 44 03 c5 3c
       -0.053823434 0.01769168 0.06490084 0.024049409
0002b0 6c 6a c8 3c 5a 25 a6 bd 53 63 d3 3b ae 11 42 3d
       0.024464808 -0.08112593 0.0064510494 0.047380142
0002c0 cc 2e 94 3d a1 26 8f bd 90 17 a3 3d 97 c2 86 3b
       0.07235488 -0.0698979 0.079634786 0.0041125524
0002d0 d1 aa 4b 3d 5c 8e 45 bd c3 7a 5f 3d 9c bf 7e 3d
       0.04972345 -0.048231468 0.054560434 0.06219445
0002e0 38 e9 b9 bc 98 c6 b0 3c 6a 27 06 bc 30 aa a4 bd
       -0.022694215 0.021579072 -0.008188108 -0.08040273
0002f0 08 3d 4e 3c 79 68 70 3d 99 25 97 bd 5e 61 a1 bd
       0.012587793 0.058693383 -0.07380218 -0.078798994
000300 00 52 a3 3d 32 47 b2 3d 34 65 03 3c a8 93 8d bc
       0.07974625 0.08704986 0.008019734 -0.017282322
000310 4b 56 bd ba de 0f 9a bd 51 41 79 b7 ee 62 ac 3d
       -0.0014445273 -0.07522558 -1.4856764e-05 0.08417307
000320 8e 00 24 3d b6 3f c9 3b 45 e4 9a 3d 75 d4 81 3d
       0.04003959 0.006141628 0.0756307 0.06339351
000330 3a de 77 3d 0b da 70 3d 7b 59 40 3d 48 4c e0 3b
       0.060514666 0.058801692 0.046960335 0.006845031
000340 1d 24 88 bd d2 a8 2c bd 99 36 98 3c 80 9d 7b 3d
       -0.06647513 -0.042153187 0.018580722 0.0614295
000350 03 2f bd 3b 57 38 0a bd 67 09 92 3d 3a f1 fc bc
       0.0057734265 -0.033745136 0.071306996 -0.030876745
000360 3d 48 6c bd 3b e4 e8 3b 7b a1 28 3d 01 ee 53 bd
       -0.05768608 0.0071072853 0.041169625 -0.05174065
000370 2f 6b 18 3d c6 ba c5 bd f3 19 4c 3d 94 70 9c 3d
       0.037211593 -0.09654765 0.049829435 0.0763866
000380 93 e2 93 3d f2 50 5f bd 8f 62 71 3d f1 dc fb 3c
       0.0722095 -0.054520555 0.058931883 0.030745002
000390 7c 78 a6 bd 78 f0 09 bc 89 c3 86 3d 59 c5 5d bd
       -0.08128449 -0.008419149 0.06580264 -0.054143284
0003a0 49 9c bc bd 82 a3 c3 bc 6f a7 91 3d ea f7 c9 3c
       -0.092094965 -0.023881678 0.071120135 0.024654347
0003b0 f4 2e 57 bc 76 83 a7 bd 5b 98 73 3d 94 ef 31 bd
       -0.013133753 -0.08179371 0.05947147 -0.04344137
0003c0 21 5d 8e 3d 3c 65 a7 bb d8 db 11 3c bb 79 d6 bc
       0.06951357 -0.0051085036 0.0089025125 -0.026181092
0003d0 dc cc a9 bb f4 fa a7 3d 41 12 24 3c ad 42 13 3d
       -0.005181892 0.082021624 0.010014118 0.03595226
0003e0 d7 9b 91 3d 8a b4 5e 3d 34 b9 67 3d 49 ac 1d 3d
       0.07109802 0.054371394 0.056573108 0.038494382
0003f0 73 62 6e 3d d7 82 44 3d ca c9 c9 bd 11 6c 77 bc
       0.058199357 0.04797634 -0.09852941 -0.015101449

bias f4 [64]
000000 d3 0d 47 3b 96 69 9a 3d 6a e9 84 bc f7 17 51 3c
       0.003037323 0.0753967 -0.016224582 0.012762061
000010 10 c9 12 3c 39 ae 61 3c 4b ce 85 3d 62 3c 2a 3c
       0.00895907 0.013774448 0.06533488 0.010390373
000020 3c de a6 3c 6d 9f c2 3c 81 64 59 3d 51 47 25 3c
       0.020369641 0.02375766 0.053074364 0.010087804
000030 a7 7d 0d 3a 4f 15 2c bd 56 4f 16 bc 05 17 9b bd
       0.0005397447 -0.04201251 -0.009174189 -0.0757275
000040 b8 9f ae 3b 7b a3 06 3e 96 18 20 bc ac 42 98 3d
       0.0053290986 0.131483 -0.009771487 0.07434592
000050 a3 59 9f 3d 41 34 8b bd 3d 03 9f 3d d5 9a a1 bd
       0.07780769 -0.06797076 0.077642895 -0.0789086
000060 b1 cd 92 3d 95 96 d0 bc e5 0d 98 3d c2 3f 81 3d
       0.07168139 -0.025462428 0.07424525 0.06310989
000070 6c ff fe 3c 02 5e 2f 3d 5b 85 85 bd be b6 8a 3d
       0.031127654 0.042814262 -0.06519576 0.067731366
000080 76 e6 02 3d 6d 8a ab 3d b7 9b d2 3d 9e 07 c4 3c
       0.031958066 0.08376012 0.102836065 0.023929413
000090 44 18 2a bd f0 40 6b 3d cc 40 df 3d 7f 7a 7a bd
       -0.041527048 0.057434976 0.10901031 -0.061151978
0000a0 9b aa 84 bb 91 6a 7f bc 2d d2 68 3d 16 8e 7e 3d
       -0.004048658 -0.015589372 0.056841064 0.062147222
0000b0 7b 8d 63 3c 87 3a c8 3d 19 fe de bc 0d 32 bd 3c
       0.013888712 0.09776788 -0.027220773 0.023095155
0000c0 4f 98 93 bc 58 7c 31 3d 58 e4 61 3d 32 20 28 3d
       -0.018016962 0.043331474 0.055149406 0.04104633
0000d0 85 08 5d 3d 59 a0 01 3e cc 9a 28 bd e8 57 c3 3d
       0.053963203 0.12658824 -0.04116325 0.09538251
0000e0 3f 65 d2 3d fe 00 51 bd e3 da ce bc af 62 ad bd
       0.102732174 -0.051026337 -0.025250858 -0.08466088
0000f0 89 6b 8c 3d 34 b6 28 3d c1 f1 4a bd a6 a8 08 3e
       0.06856448 0.041189387 -0.04954696 0.13345584
