2023/baseline0806/model/WLTP_trained_0822/PPO_actorcritic_26episode.pt (torch, 101527 bytes, 17 tensors)

weight f4 [128, 7]
00000000: dd5c 56be 8330 6cbe 16e1 883e 3377 a6be
00000010: 5b06 79be 5bf1 c73e fa7d c33e 1ece 25bd
00000020: acb0 39be 07fb ad3d 21fc 8ebe 931b 0cbe
00000030: ee79 b9be b661 9abe 2e85 ac3d 6f18 6fbd
00000040: 0cd0 27be 6636 f93d 1411 ad3e 6503 c43e
00000050: dbca 9e3d ccee a2be 5994 47be b14c 77be
00000060: e999 6fbd f4ba 22be 5048 8b3e cb49 d03e
00000070: 4a9f b13d 74e7 3bbe 928b c4be 3942 b23d
00000080: c34e a43d 14f3 423e c036 71bc bff1 48bd
00000090: e388 8dbd 8588 9bbe 1c47 633b a636 8a3e
000000a0: 1cb3 133e 6810 a83e 94a8 adbe 0ce3 81be
000000b0: 9a09 adbe f485 423c 7550 8dbe c160 15be
000000c0: 7bc1 9abb cc9d ca3d 87a7 96be 72c8 bb3e
000000d0: 2b51 af3e 4285 a03e 1012 bfbe 15f8 5fbc
000000e0: 8454 ef3e 695e 0fbd 3865 8abe f333 6bbb
000000f0: d246 bb3e 77ec 70be 4d53 683d 7329 a33e
00000100: 0ad5 26be 1669 b6be 27ef aebe 2213 0cbe
00000110: 170f b83e b5f0 a23e 46e6 9b3e 1be1 983e
00000120: 0839 9c3d 5133 3f3e dca9 96be 126a 1e3d
00000130: 3154 803d 096e 55bd 29e3 dd3e 8ef4 4c3e
00000140: 9ef7 b0bd f693 4e3e cc2b 62bd f391 b4bd
00000150: 6f53 8abe 5baa 81be 4386 883e 712d a7be
00000160: a769 853e 0530 10be d592 633e 91cd 773e
00000170: 4f97 6f3e 20a7 a33e a713 a03d 5484 18be
00000180: 59d6 12be f3e0 8abe 03cd 43bd dc3b ac3c
00000190: f05c d63d eb96 e73c 8e74 1dbd d148 283e
000001a0: b24e 72be 62a5 4f3e a290 84be 47f6 0bbc
000001b0: 14ed 343e 73c8 27bd a4a9 983e a917 7dbe
000001c0: 6263 49be 197e b3be f5cd 64be a196 8d3e
000001d0: 0db6 cd3d 095d 01be 60a1 173d cdb0 e0bd
000001e0: ced4 e83e 9196 e6bd f3c5 df3e 2efd 5ebe
000001f0: 8da4 eabd 4691 2ebe ce6a b33e 1b1e 0abe
00000200: a586 d33c efa1 b6be db06 93be 1807 83be
00000210: 472f 80be ce8e eebd a449 94be d6bf 3ebd
00000220: fa9e 73be 0e14 9d3d 2b10 4bbd 90db dcbc
00000230: 5cb4 a63e d14a fabd 4e84 dc3d a250 753d
00000240: e565 363d 7242 b03e 9b25 a93e 09f1 bdbd
00000250: f9bf 523c 9def a1bd 731a f3bd ccde 453c
00000260: bfc8 53be f2f8 913d 73f0 afbe ef37 ae3d
00000270: 7633 853e 5819 99bd fa09 ce3c 8239 12be
00000280: 2004 903e 5777 833e 3a41 b8bd 3c91 4b3e
00000290: 09ff 843e 6990 973d 8c60 a93e 1a08 d03e
000002a0: 566b b83e 8e68 55be 3446 803d 1752 92be
000002b0: de4e b53e cd16 c7bd 317b 993e c5d3 643d
000002c0: 0d46 333d 2020 b3be c95e d8bd 9023 21bd
000002d0: 5d38 223e fa3b 3fbe f0d8 563e efd8 9abe
000002e0: 40d4 823e 4a87 46be 3e07 1abe 70ae 773e
000002f0: 2921 253e 364f 9f3e d81e d03d fe03 1f3e
00000300: 262d 773e 3b56 993e cb1a 15be 9a27 933e
00000310: 7410 bcbc 346d a43e 69ab b8bd a2ae 8f3e
00000320: 7af8 74be 5465 cebd 44d1 243e 78c5 a43e
00000330: 8b16 fc3c e949 293e 8c35 6abe 1047 123e
00000340: 48c7 ca3e 3577 553e 71db fdbd e27a 4dbe
00000350: 9fd2 aebd 9828 fc3d 5f36 72be 48c4 683e
00000360: 0fce 973e bf1c 2b3e b5f2 0ebe eecf 0a3e
00000370: 9f18 b2bd 364f 893e 533b bc3e eee6 843e
00000380: af65 b83d 60c5 5bbe dc06 b2bd c514 b53e
00000390: 7a93 a73e 23ff 26be af9a 953b 0882 623e
000003a0: 6f9a e23d 889a ac3d a015 c03e 0df3 573e
000003b0: e277 6cbe cb3c ad3e ef0c 003e d9d4 8abe
000003c0: 4f01 46be dd3e 0ebe ff11 ae3e 6130 47be
000003d0: 1b23 4b3d 92f1 e73d 9f6e 023d d951 5a3e
000003e0: 3a1c 08be 1989 373d fc47 35be 2fc2 973e
000003f0: cb9e 57be 5d28 903e ae87 533d 38d0 903e
-0.20933862 -0.23065381 0.26734227 -0.32512817 -0.2431883 0.39051327 0.3818205 -0.04047977
-0.18133801 0.08495145 -0.27926734 -0.13682394 -0.36225837 -0.30152673 0.084238395 -0.05837291
-0.16387957 0.12168579 0.33802092 0.3828384 0.07753535 -0.31822813 -0.19490184 -0.24150349
-0.05849639 -0.1589163 0.27203608 0.406813 0.0867296 -0.18350011 -0.38387734 0.08704037
0.08022835 0.1903804 -0.014722526 -0.049058672 -0.06910875 -0.30377594 0.0034679836 0.26994818
0.14423794 0.32825017 -0.33917677 -0.25368536 -0.33796388 0.011872757 -0.27600446 -0.1458769
-0.0047227717 0.098933786 -0.29424688 0.36676365 0.34241614 0.31351668 -0.37318468 -0.013669987
0.46744168 -0.035002146 -0.2703035 -0.0035889118 0.3657747 -0.23527704 0.056720067 0.3186756
-0.16292205 -0.3562705 -0.34166834 -0.13679174 0.35949013 0.3182427 0.30449122 0.29859242
0.07628065 0.1867192 -0.29426467 0.038675375 0.06266058 -0.05210689 0.43337372 0.20015165
-0.08640979 0.2017363 -0.05521755 -0.088169 -0.2701678 -0.25325283 0.26664934 -0.32651857
0.2605717 -0.14080818 0.2222398 0.24199511 0.23397563 0.31963444 0.078162484 -0.14894229
-0.1433958 -0.27124748 -0.047802936 0.021024637 0.10466945 0.028270205 -0.038441233 0.16434027
-0.23662832 0.20277932 -0.25891596 -0.008542604 0.17668563 -0.040962648 0.29816926 -0.24716057
-0.19666818 -0.35057142 -0.22344191 0.27653983 0.10044489 -0.12633146 0.037019134 -0.10971222
0.45474857 -0.11259187 0.4370571 -0.21776268 -0.11457167 -0.17047605 0.35042423 -0.13488047
0.02582104 -0.3567042 -0.28716168 -0.2559135 -0.2503607 -0.116483316 -0.28962433 -0.046569668
-0.23791113 0.07669841 -0.049575966 -0.026960164 0.32559478 -0.12221301 0.107674226 0.05989135
0.044530768 0.34425694 0.33036503 -0.092744894 0.012863153 -0.07907031 -0.11870279 0.012077045
-0.20682047 0.07127561 -0.34363136 0.08506762 0.26015824 -0.07475537 0.025151242 -0.1427975
0.28128147 0.25676987 -0.08996816 0.19879621 0.25975826 0.07400591 0.33081472 0.4063118
0.3601939 -0.20840666 0.0626339 -0.28578255 0.35411733 -0.09721146 0.299768 0.05586602
0.043767978 -0.34985447 -0.10564954 -0.039340556 0.15841813 -0.18675223 0.20981193 -0.30243632
0.2555256 -0.19387546 -0.15041825 0.24187636 0.16125931 0.3111512 0.10162133 0.15528867
0.24138317 0.299486 -0.14561002 0.2874115 -0.022957064 0.32114565 -0.09017069 0.28062922
-0.23922911 -0.100779206 0.16095454 0.32181907 0.030772468 0.165321 -0.22871989 0.1428492
0.39605165 0.20846255 -0.12395371 -0.20066407 -0.085362665 0.1231243 -0.23653553 0.22731125
0.29649398 0.16710185 -0.13959773 0.13555881 -0.08696102 0.26818246 0.3676401 0.25957435
0.090037696 -0.21462011 -0.086927146 0.35367408 0.32729703 -0.16308264 0.004565559 0.22119915
0.11064612 0.08427912 0.375165 0.2108881 -0.23092607 0.33835444 0.12504934 -0.27115515
-0.19336437 -0.13891168 0.33998105 -0.19452049 0.049594026 0.11325373 0.031843778 0.21320285
-0.13292018 0.04480848 -0.17703241 0.29640338 -0.21056668 0.28155795 0.051643066 0.28283858

bias f4 [128]
00000000: 2323 2bbe f048 74be 773d 453e 2e7a d13e
00000010: 0481 713d 9b26 15be 23db d1bd 59b2 dc3d
00000020: a4da d43c 09a4 c73e 3004 9c3e 970a 0a3d
00000030: 98dc c23d e91f 633e b696 433d 8025 17be
00000040: 5c69 4cbe 68e7 5c3e 1489 b53e 38e7 683e
00000050: 6b39 8dbd 7ef2 9abe f9ad 683e 8a51 56be
00000060: 5335 91bd 020c 91be 9732 d5bd a19e 913d
00000070: 498a b1be 3640 a6be 4370 903e 4d2c 003c
00000080: b5b7 a33e 2d36 973d 24b5 963e 7ccc 79be
00000090: 303c 94be 5ef7 cfbd d57c a4be 35cc 9ebd
000000a0: 2171 56be ef9c ccbe adfb f4bb 5ca3 77bd
000000b0: a246 92be e9b7 d1bc 6505 8dbe 423b dfba
000000c0: 380c 82be 03ae ecbd b449 633e 4e02 ca3e
000000d0: 2270 f53c 90e5 a3be 7b70 14be 2cae 5b3e
000000e0: d2fa 9b3e a238 913e 8bce 8cbd 4c82 b3be
000000f0: f242 aabe 5813 193e 4866 bc3c 3c7a 9a3e
00000100: 9f8b 933e 6cd3 46be 4ff3 b5be b9f3 b3be
00000110: 7682 d03e f9e3 bc3d 21dd ea3d 4911 0bbd
00000120: e7c1 78be 22e7 b53e abfc a63d 55a5 80bd
00000130: 0151 1a3e 0631 973e 9249 b8bd 9bb9 9d3e
00000140: 316b 983e f692 913e 3370 2e3e 6b32 84be
00000150: b215 0ebe 2e72 e0bd 3cc4 9bbe ecdb 60be
00000160: 5fa5 acbe f574 09be fefc bf3e 5d90 933e
00000170: 137b c23e 74e3 d03e 3099 ca3d be00 99be
00000180: ea1c 503d 75a2 8c3e f257 063e 876f a7be
00000190: 95b1 ce3e 6565 8b3e c67d 473e e483 b93e
000001a0: 689f 55be 0276 bb3c d5ef bb3d ba72 25be
000001b0: de97 24be 90b7 db3d cbd9 8f3d bd75 80be
000001c0: 64eb acbe c64e 65bd ea81 a33e 3369 483d
000001d0: 0d74 28be 6e6f 673e 1983 873e e56c 1fbe
000001e0: d639 8a3e 19ac e4bd 1777 1bbe 1a87 543e
000001f0: dbf0 403e 156d 8ebe 1a0f a33e 2a18 8bbe
-0.16712622 -0.23855948 0.19261728 0.40913528 0.05896093 -0.14565508 -0.10246875 0.107762046
0.025983162 0.38992336 0.30471945 0.033701506 0.09514731 0.22180142 0.04775115 -0.14760399
-0.19962066 0.2157265 0.35456145 0.22744453 -0.06895717 -0.30263132 0.22722615 -0.20929542
-0.07090249 -0.28329474 -0.1041004 0.07110334 -0.34675816 -0.32470864 0.2821065 0.007823062
0.31976095 0.0738338 0.29435074 -0.24394411 -0.2895217 -0.101546034 -0.3212649 -0.07753793
-0.20941593 -0.3996348 -0.007476291 -0.060458526 -0.28569514 -0.02560039 -0.27543178 -0.001703121
-0.25399947 -0.115566276 0.22196084 0.39454883 0.029960696 -0.3201108 -0.14496033 0.2145316
0.30464798 0.2836352 -0.068753324 -0.35060346 -0.332542 0.14948785 0.02299799 0.30171382
0.2881746 -0.19416589 -0.35537192 -0.35146883 0.40724534 0.0922317 0.11467958 -0.03395203
-0.24292718 0.35527903 0.08153661 -0.062815346 0.15069963 0.2952959 -0.089984074 0.30805668
0.2976928 0.28432435 0.17034988 -0.25819716 -0.13875464 -0.10959278 -0.30423152 -0.21958894
-0.33719918 -0.13423522 0.37497705 0.28821078 0.37984523 0.40798533 0.098924994 -0.2988338
0.050808825 0.27467695 0.13119486 -0.32702276 0.4036986 0.27225795 0.19481573 0.36233437
-0.2086159 0.022883419 0.09176604 -0.16157046 -0.16073558 0.10728371 0.070239626 -0.25089827
-0.3377334 -0.055983327 0.31935054 0.04892845 -0.1645052 0.22601101 0.26467207 -0.15568884
0.2699725 -0.111656375 -0.15182148 0.20754662 0.18841879 -0.27817598 0.3184746 -0.27166873

weight f4 [64, 128]
00000000: fef1 e2bc fdf6 ac3d 9ae1 0d3b 6962 3f3d
00000010: e7fe 783d 7f63 73bd 813d ae3d be79 c4bc
00000020: d5e8 a2bd 3d83 6dbd 1b1c 4a3c 6664 b43d
00000030: 5474 b3bc 9e49 b33c 742a a5bd 09d1 873c
00000040: 7087 5e3c 9d18 93bd bba4 e8bc 8a06 0bbd
00000050: 4479 16bd 3571 893d 2474 03bc 5896 60bd
00000060: 8838 bc3c f271 283d bbe9 093d 90ad fa3b
00000070: 88cb 29bc d8c4 88bd 9d64 6dbd 8cc4 6d3d
00000080: ed73 9e3d 4242 eebc a70b 2fbb 69c5 82bd
00000090: 40cb 3dbb a050 a0bd 1016 b13d d53e c83c
000000a0: 2422 cabc 153b 9d3c aa78 783d cb75 ae3c
000000b0: 76c3 a93d 984f 13bd b6c9 55bc 84db 9bbd
000000c0: 7bb4 9a3d a6d4 9ebd bbb6 44ba 97b9 6cbd
000000d0: 5afd 1abd 59d6 713d 3ce3 d9bc 6352 9f3d
000000e0: 3c65 1a3d 4cc6 7bbd 6353 edbc 3b73 6dbd
000000f0: d849 90bd 845c a9bb 97a9 6fbd 074e 86bd
00000100: d2df 37bd 1fe0 aa3d 65a6 993d b738 583d
00000110: 72c8 2a3d 33ca 203d 1250 15bb 4ac0 8c3d
00000120: cbf5 643d 5286 543d 4938 733c 03db adbd
00000130: 9ba2 82bd 3f73 9a3c 7f84 92bd f089 86bd
00000140: 52fc 103d dcd1 30bd 653d 89bd 8c7f ebbc
00000150: 56e8 96bb 1426 cdbc eb99 22bd 8d1a 7a3d
00000160: 0183 f23c 7674 aa3d c0bb 0fbd 0ca5 ac3c
00000170: a0d4 0ebd cf11 9f3d da02 353d 3203 aabc
00000180: d3b4 ef3c 3ad5 b33c 5d5e 16bb c48f 52bd
00000190: e093 b53b 8d6f de3c 21a7 bcbb d0e7 003d
000001a0: 9688 413d e70c 6e3d fa9c 8fbc 5f4f 8bbc
000001b0: 044b 4f3d f2ca 90bd c3bd a73d f7f9 c53c
000001c0: a44f c53c 0d7e 033d aac2 61bd 5a30 96bd
000001d0: 52ce 37bd e8cb 9d3c fd42 953a 4920 52bd
000001e0: a92d 03bd 4de0 8e3d 5e71 333c 6950 70bc
000001f0: e04e 13bd 1677 5ebd 98b5 93bd dbf3 6b3d
00000200: 61cc 583d 194e ab3d a5a6 78bd 4446 b5bc
00000210: f826 14bd 6151 093b 1cd9 47bd 6eda b53c
00000220: 7897 363b 7eb0 243d bdb8 94bc 8d1f 27bd
00000230: 54e1 3cbc 9321 1ebd ad60 d6bb f92e 8cbc
00000240: a1b7 2a3d dcc1 193d 0872 82bd b637 de3c
00000250: 6510 973d 77b9 b13d e3da 99bc a834 fb3c
00000260: 75d5 61bd 9a33 773d 9e3a a93b 004c 493d
00000270: e430 7e3d d17b 3bbd 69f6 843d 9313 003d
00000280: 1512 2abd 7ea3 93bd 7207 053d b3b1 5c3d
00000290: 5704 9f3d 9c3d a63d adb2 743d 98ac dcbc
000002a0: 29df ecbc 3cd3 31bd da0d b3bc da89 7d3d
000002b0: f0be ab3d 8d5b 6bbc f77e ccba 1e94 bdbc
000002c0: 6db7 95bd c5f3 5abd fc09 9c3d b2eb 1fbd
000002d0: 2796 e13c ff7d d73c 1475 90bd 8923 23bd
000002e0: fde5 74bd 1f85 ddba 82c0 ec3c a8b2 6b3d
000002f0: 0c38 5b3d 8afb 87bd 7b8d 003d c92e 5e3d
00000300: d747 ff3c 1c03 a33d 5e80 34bd 389f adbd
00000310: e1b8 88bd 2332 8b3c ad5b a43d 953c 2e3d
00000320: 3ca7 97bc ae71 39bd 5277 3e3d 4f72 263d
00000330: 003a 853d b0aa 9ebd 6f0d 3dbd 27d9 d63c
00000340: bcec f4bb 6045 263d ea16 e7bc 4a3f 94bd
00000350: a83a 9f3d 64d2 883b 8f7c c2bc 7ad9 b0bd
00000360: d075 883d c49c 093a 1514 babb 8430 97bd
00000370: 6439 1abd 422b 9cbd 22b5 2fbc c18a 493b
00000380: 0e91 af3c 6139 693d 08ad 5d3c 4028 a7bd
00000390: 4f9c 25bd 7c12 6bbc 414b 99bd 049e a03d
000003a0: 4c9c d6bc 6a16 43bd 2026 12bc 6313 44bd
000003b0: 71a1 4c3c 4b33 593d ef89 9ebd 2e25 7a3d
000003c0: 3a8f b13d c88a 483c dfe5 163d da68 96bd
000003d0: fab9 00bd b9d2 b23d fb9a 143b 5e04 343d
000003e0: b7d4 7cbd 83ee 62bd a4a0 273d f0bf b0bb
000003f0: e7a0 1a3d ec74 ac3d ab1a 7b3d 2007 2b3d
-0.027703281 0.08445547 0.0021649362 0.04672471 0.06078997 -0.05942106 0.08507825 -0.023983832
-0.079545654 -0.057986487 0.012335802 0.08808212 -0.021906056 0.02188569 -0.08064738 0.016579168
0.0135820955 -0.07182429 -0.028398862 -0.033941783 -0.03673674 0.06711046 -0.008023296 -0.05483088
0.022976175 0.04112429 0.03367017 0.007650085 -0.010363467 -0.0667817 -0.05795728 0.05804877
0.07736955 -0.029084329 -0.0026709826 -0.06385309 -0.0028960258 -0.07827878 0.08646786 0.024444023
-0.024674483 0.019193212 0.06066195 0.021296402 0.08289234 -0.03596458 -0.01304858 -0.07610229
0.07553955 -0.07755403 -0.00075040356 -0.05779418 -0.03783927 0.05904231 -0.026597612 0.07779386
0.0376942 -0.061468408 -0.028970426 -0.05797122 -0.070453346 -0.0051684994 -0.058511343 -0.06557851
-0.044891186 0.08343529 0.0750244 0.052788462 0.041695066 0.039255332 -0.0022783321 0.06872614
0.05589847 0.05188591 0.014844962 -0.08489039 -0.06378671 0.018853782 -0.07154178 -0.06569278
0.03539688 -0.043168887 -0.06701163 -0.028747343 -0.0046053333 -0.025042571 -0.03969757 0.061060477
0.029603483 0.083229944 -0.03509116 0.021074794 -0.034870744 0.077670686 0.044192173 -0.020753477
0.029261028 0.02195226 -0.0022944428 -0.051406637 0.0055413097 0.027152801 -0.005757228 0.031471074
0.0472494 0.058117773 -0.017530907 -0.01700562 0.05060865 -0.07069959 0.08190491 0.024167044
0.024085827 0.032102633 -0.055117287 -0.07333441 -0.044874497 0.01926227 0.0011387762 -0.05130032
-0.032025967 0.06976376 0.010952322 -0.014667609 -0.035963893 -0.054312788 -0.07212371 0.057605606
0.052929286 0.08364505 -0.0607058 -0.022128232 -0.036169976 0.0020953047 -0.048791036 0.022198882
0.0027861279 0.04020738 -0.018154496 -0.040801574 -0.011528332 -0.038606238 -0.0065422864 -0.017112242
0.04167903 0.037538394 -0.06369406 0.027126174 0.07376174 0.08677953 -0.018781131 0.030664757
-0.05513521 0.060351945 0.0051644584 0.049144745 0.062058344 -0.045772377 0.064923115 0.031268667
-0.04152115 -0.07208918 0.032477804 0.053880405 0.077645 0.0811722 0.05974071 -0.026937768
-0.028915005 -0.04341434 -0.02185719 0.061899044 0.08386028 -0.014365089 -0.0015601803 -0.023141917
-0.07310376 -0.053455133 0.07619092 -0.039043136 0.027537419 0.026305197 -0.07053581 -0.03982881
-0.059789646 -0.0016900635 0.028900389 0.057543427 0.053520247 -0.06639774 0.031384926 0.054243837
0.031162186 0.079595774 -0.044067733 -0.08477634 -0.06675888 0.01699168 0.08025298 0.042538244
-0.01851236 -0.04527443 0.04650051 0.040636357 0.06505203 -0.077474 -0.04615539 0.026226593
-0.00747451 0.040593505 -0.028209168 -0.07238634 0.0777486 0.004175471 -0.023741035 -0.0863523
0.06663096 0.0005249495 -0.0056786635 -0.073823005 -0.03765239 -0.07625438 -0.010724338 0.003075287
0.021431472 0.056939486 0.013530023 -0.08161974 -0.04043227 -0.014347669 -0.07485057 0.07842639
-0.026197575 -0.047628798 -0.0089202225 -0.04787005 0.0124896625 0.053027432 -0.077411525 0.061070614
0.086698964 0.012240119 0.036840316 -0.073442176 -0.03142736 0.087315984 0.0022675383 0.043949477
-0.0617263 -0.055403244 0.040924683 -0.0053939745 0.037751105 0.084207386 0.06130473 0.04175484

bias f4 [64]
00000000: c64f 94bd 3b52 cebc d89c b43d 6299 933d
00000010: fb23 4b3d 30a9 823d aed9 2c3d 1638 053e
00000020: 0803 cb3a cb02 16bb 0725 aa3c 946e bbbb
00000030: 08ff ac3d f11f 8e3d 9442 583c 7202 973b
00000040: ee47 193d 9134 60bc cbda 2f3d aff1 ad3b
00000050: 3a74 c13d ab8b 04bb 3eed 44bb c3ac 3ebc
00000060: 3589 89bb 6ffd 5cbc 6c2e 29bc 59df bebc
00000070: ea9a 163d 7b97 28bd 95fe 343c 9e9f 08bd
00000080: 86d7 6b3d 1a98 793d 8f03 0c3d 7d40 d9bb
00000090: b7a5 7b3d b8b8 b0bd 47f0 4d3d 2e90 b3bd
000000a0: a19c 493c 6b91 923d 149f 413d dd31 aebd
000000b0: c74c 603d 7813 fe3c f905 093d 40c2 ba3d
000000c0: 92db e3bc 72a6 803d e224 fbbc 186a 903d
000000d0: 3495 323d 26e5 83bd 372d 4ebc 5494 e13d
000000e0: e33f f7bc 5272 5e3c b7b9 273d de65 83bd
000000f0: a2a0 983c 8243 2cbd f1d0 a23c 5c96 ff3d
-0.07241778 -0.025185695 0.08818978 0.0720699 0.04959486 0.06379926 0.042199783 0.13009676
0.0015488574 -0.0022889848 0.02076961 -0.005719969 0.08447081 0.06939686 0.013199467 0.004608446
0.037422113 -0.013684408 0.042933267 0.005308352 0.094459966 -0.002022485 -0.0030048634 -0.011637869
-0.0041972646 -0.013488158 -0.010326009 -0.02329986 0.03676883 -0.041160088 0.011047025 -0.033355348
0.057578586 0.06093607 0.03418308 -0.006630002 0.061437335 -0.08628982 0.050277974 -0.087677345
0.01230541 0.071566425 0.04727085 -0.085056044 0.05476072 0.031015143 0.03345296 0.091190815
-0.02781466 0.06281747 -0.030657236 0.07051486 0.043599322 -0.06440191 -0.012584022 0.110146195
-0.03018183 0.013577061 0.040948596 -0.06415914 0.018631283 -0.042056568 0.019875022 0.12479851

weight f4 [32, 64]
00000000: 9039 3f3d 9c4a b7bd e11d 103e 46e2 e7bb
00000010: 495b 46bd a9bc bb3d 8515 f83d cf24 f9bc
00000020: da9b ed3d 195b f73c dcdf fa3d 41a6 f33d
00000030: 1359 b63d b968 063e 3f01 83bd 64f9 bb3d
00000040: 30e1 7dbd f164 3bbd 785c 6f3d da69 fdbd
00000050: aa36 c5bd 354b edbd d971 c2bd 8c91 8c3d
00000060: 86df 02be 3c67 1a3d 0267 ca3d 85f1 013e
00000070: 9bb2 5cbe af99 d93d 6c61 9c3d 1b42 9c3d
00000080: 2e27 153c fb1a 093e 756e cabd e6d3 4bbd
00000090: 465b aabd c03c 24bb cfc2 023d 34ae 31bd
000000a0: b526 00bc ce18 893d 56ed 0abd 4c40 7fbd
000000b0: 8750 89bd 4c56 acbc c1a6 893d e17e bd3d
000000c0: e43a 353b 24de 24bd f14b c1bd de27 c0bd
000000d0: 9ee4 c4bd d059 11bc 7142 593d ff47 ba3c
000000e0: b9a6 fa3d 7170 383d e945 a4bd 674f 2dbc
000000f0: 7e9d 8abd 20b4 ab3d 0430 fe3d 219e 9e3d
00000100: c047 6cbc d9cb 95bc aafb c23d 203c 1d3e
00000110: bd8d a6ba d47e b1bd 57d3 2e3d f9ed 37be
00000120: de1f fd3c 600f ad3d fd54 52bd 23ea e1bc
00000130: 750b 823d 7057 5b3d 59be dcbd 232f 053d
00000140: dd60 33be 3d27 17bd e18c e2bc b013 f93d
00000150: cb06 233e e7f9 37bd ce31 8a3d 2cbc cf3c
00000160: e666 06be 985d 40bd 7484 c2bc f2b4 1d3d
00000170: 8cd0 103e 5542 883d 371a 4cbb ec92 dc3d
00000180: 9a58 be3d 2931 713d 1e14 b4bd 27ac 523d
00000190: f1da c13d f433 23bd c6c8 ac3d 64dc 6fbd
000001a0: bd46 cb3c 4159 bb3d 5858 8fbd 9811 a63c
000001b0: 7f96 cfbd c56b ed3d e157 85bc e162 313d
000001c0: a218 133e 00ac 293c 8bb5 6abd 36a8 6a3d
000001d0: c250 abbd f274 4e3d 2940 80bb 2264 13bc
000001e0: 1f12 d2bd b3c0 d3bd 9520 063e 3ca7 753d
000001f0: c378 193d e02e ef3c c9f4 8bbd ec55 043e
00000200: 923b cb3d 68eb c43c 5282 93bd 4daf d6bd
00000210: 0e5e c23d 2d8c 9bbd 7663 aa3c d2c1 c2bd
00000220: 768e ddbd cb59 39bd 6076 e9bd c412 eebd
00000230: aaf2 9ebd 26fb 8d3d dc7a 2bbd 7c16 563d
00000240: 40ed 3ebc 1a76 d8bd 16af ae3d 145f b43d
00000250: 8c74 f93b 9413 f9bd d8e5 3abd 3f05 59bd
00000260: 1241 cf3d c112 633d aa31 4b3d 7828 ac3d
00000270: 8966 de3d 1cd3 06bd c0fa 8e3d 7c7d bd3d
00000280: d073 fd3c c794 003d 53af c4bd 60e0 663d
00000290: 802b f43c 78a2 f13d 789c e0bc aa71 173d
000002a0: 599f a2bd 4d95 e0bd b48d 33bd 441c b63d
000002b0: c017 c23d 462c a93d da62 893d 0f69 af3c
000002c0: ca0f a8bd d02e 66bc d8b2 1c3d 9d16 fcbb
000002d0: 0a26 4cbd 988e 793d e0bb 2d3c c2fb 7f3d
000002e0: 380d 91bc d600 b8bd 1728 c33d 58c9 17bd
000002f0: 485d d9bd 0c33 d6bd 6a06 c4bd 8717 aabd
00000300: 4872 c3bd c300 e3bd 0178 c93c 9bb0 373e
00000310: 296b 173e f0a1 353e d7df e9bd 59ac 8b3c
00000320: 6bb0 143e 6472 1e3d e340 d73d eda2 eb3b
00000330: f127 2f3c 59a4 aabc bb09 773b 04ea 81bd
00000340: 7e29 4c3d e2a8 e4bd bfef 6e3d 6b0a 603d
00000350: 00ae d63d 8d94 62bd 26fe 0cbd 1f79 313e
00000360: dc22 3e3c f706 e33d 1ee3 27bb 7720 2d3e
00000370: e9b3 ca3d 53dd b9bd a032 35bc 7a3a e23d
00000380: 88bb 42bd 7621 183e 5ab0 0cbc 3d3e 4a3d
00000390: 0f3e 493d 40fc 25bd a21e 023d ebe1 bcbd
000003a0: 5577 f53c 89b9 c73d 1da8 063e c06a f13c
000003b0: 6812 a13d 1e7d 753d b4b2 82bd 2441 c03d
000003c0: b360 2e3e eb7d 88bd 387f 3e3c 89ad e1bc
000003d0: 087d 5a3c 355f 953d d7d3 953d a866 51bd
000003e0: 02e9 873d 8967 ca3d 2c63 0b3e d23c f5bd
000003f0: 2021 da3d d0ec bbbd b7e0 673d a813 033e
0.046685755 -0.089497775 0.14073898 -0.0070765344 -0.0484269 0.091668434 0.121134795 -0.03041306
0.11601992 0.030194806 0.12249729 0.11896945 0.08903708 0.13125886 -0.06396722 0.09178427
-0.061982334 -0.045750562 0.058437794 -0.12373705 -0.09629567 -0.1158661 -0.09494371 0.06863698
-0.1278058 0.03769611 0.098829284 0.12689789 -0.21552508 0.10625016 0.07635769 0.07629796
0.009103579 0.13389198 -0.09884349 -0.04976263 -0.0831819 -0.0025060624 0.031924065 -0.043379024
-0.0078217285 0.06694184 -0.033917747 -0.062317178 -0.067048125 -0.021037243 0.06721259 0.09252716
0.002765351 -0.040250912 -0.09438313 -0.09382604 -0.09613918 -0.008871511 0.05304188 0.022739409
0.12238831 0.045029107 -0.08021147 -0.010578013 -0.067683205 0.083839655 0.12411502 0.077450044
-0.014421403 -0.018285679 0.09520657 0.15354967 -0.0012707036 -0.08666769 0.042682018 -0.17961873
0.030898985 0.08450198 -0.051350582 -0.027577465 0.063498415 0.053550184 -0.107784934 0.032515656
-0.17517419 -0.036902655 -0.027655067 0.12161958 0.1592056 -0.04491606 0.06747781 0.025358282
-0.1312519 -0.046964258 -0.0237448 0.03850264 0.14142054 0.06653277 -0.0031143555 0.107702106
0.09294243 0.058884773 -0.087928995 0.05143371 0.09465588 -0.03984447 0.08436732 -0.05855979
0.024814004 0.09147883 -0.06999272 0.020272061 -0.10136127 0.11592821 -0.016277255 0.04330719
0.14364865 0.010355949 -0.05730204 0.057289325 -0.08365013 0.050404496 -0.0039138985 -0.0089960415
-0.102573626 -0.10339489 0.13098367 0.05997394 0.037468683 0.029197156 -0.068337984 0.12923402
0.099234715 0.024038032 -0.07202591 -0.10482655 0.09490596 -0.07595096 0.02079938 -0.095096245
-0.10818188 -0.04525165 -0.11399531 -0.11624673 -0.07761128 0.069326684 -0.041865215 0.052267537
-0.0116532445 -0.10569401 0.08529489 0.08807197 0.0076127704 -0.12161937 -0.045629352 -0.05298352
0.10119833 0.055437807 0.04960791 0.08406156 0.10859401 -0.032916173 0.069814205 0.0925245
0.030939013 0.031391885 -0.09603753 0.056366324 0.029805899 0.117985666 -0.02741836 0.036973633
-0.079405494 -0.10965977 -0.04383631 0.0889211 0.09477186 0.082603976 0.067083076 0.0214124
-0.082061365 -0.014049247 0.038256496 -0.0076931254 -0.049840964 0.060927004 0.010603875 0.062495954
-0.017706499 -0.089845344 0.09529131 -0.03705725 -0.10613495 -0.10458955 -0.09571536 -0.08305269
-0.09543282 -0.1108413 0.024593355 0.17938463 0.14786972 0.17737556 -0.11419647 0.017049955
0.14520423 0.03868331 0.10510423 0.007191053 0.010690675 -0.02083032 0.0037695009 -0.06343463
0.049844258 -0.11165024 0.05833411 0.054697435 0.104824066 -0.05531745 -0.034422062 0.1733136
0.011604991 0.11085313 -0.002561755 0.16906916 0.098975964 -0.09075417 -0.011059433 0.1104631
-0.047542125 0.14856514 -0.008586967 0.04937576 0.04913145 -0.040523767 0.031767495 -0.09222778
0.029964129 0.09752185 0.13150068 0.029469848 0.07864839 0.059933774 -0.06381741 0.093874246
0.17029075 -0.06664642 0.011627011 -0.027548568 0.013335474 0.0729355 0.07315796 -0.05112329
0.066362396 0.09883029 0.1361205 -0.11974491 0.10650849 -0.09176028 0.05661079 0.12800467

bias f4 [32]
00000000: 1967 90bd 6aec dc3d 7246 3fbd e78c b43d
00000010: 78e0 b3bd d886 adbc 4a73 253e e1ac fe3d
00000020: 5c95 173e 0a75 3ebb 99bd 04bc 0f34 833d
00000030: c6cb 0a3d bf4f 0abd 1282 97bd e84b 023d
00000040: 7104 0dbe 44fb 59bd db64 aa3d 74ae 3d3d
00000050: b390 143e b581 cfbd 0717 e53c 6e72 96bd
00000060: 1c28 ec3d 68c8 af3d 4830 b13c 4daa 5e3c
00000070: 1c38 a4bd 2fa4 6a3d ba07 97bd 2ee3 b73d
-0.07050914 0.1078728 -0.04669804 0.088159375 -0.087830484 -0.021182463 0.1615726 0.12435318
0.1480307 -0.002906146 -0.008101844 0.06406414 0.03388574 -0.033767458 -0.07397856 0.03181067
-0.13771226 -0.05321814 0.08320018 0.04630895 0.14508323 -0.101321615 0.027965082 -0.073460445
0.11531088 0.08583146 0.021629468 0.013590408 -0.080185145 0.057285484 -0.073745206 0.08978878

weight f4 [128, 7]
00000000: 2861 60be 280f 5f3e d788 81bd c222 953e
00000010: f563 3fbe 2355 793c 9ccb 303e 8c04 3c3d
00000020: a8e6 a9be 8fcc a9bc b23a 993e 294e f43c
00000030: e629 67bb 3e04 7dbd cbb2 213e 3e46 4b3e
00000040: f0cc 57be 4097 89be 4b69 c0be 3f76 a2be
00000050: 13d7 5b3e 0460 b4be bb99 71bd 2a40 ad3d
00000060: cd02 c63e 5f42 943e 5069 163d e37c 0b3e
00000070: 724f 69be 1bf4 b8bd 1e73 9a3e 71b5 80be
00000080: 5068 863e 6fc4 aabd d2bf 90be 3327 e53c
00000090: c21c 753e 6bf4 673e 525b 923e 7f43 ae3e
000000a0: 5cb4 82be 9e30 a13e d24e 3e3e bd75 373e
000000b0: 6bdd bf3e a427 0ebe f5a8 603e 4cea 5dbe
000000c0: e3f8 293e b6c7 3cbe 4d4e 893e 7572 08be
000000d0: b901 a93e 761d 52be b3ac 81be 2314 983e
000000e0: b11d afbe c79e 34be 4e0b 99be cf96 8b3e
000000f0: f3ec 9f3e 3a7f 513e 1793 1ebd bd24 2b3e
00000100: 9c16 8b3e 7cef 253e 6847 993e 3762 b4be
00000110: b969 8d3d f594 94be 654a cdbd d1c0 9bbe
00000120: 38e1 99be cd66 a8be e5bf 9e3e be7c 27be
00000130: e181 c23c 7029 863e 5d3e 803e 6bfe 5f3c
00000140: 49c5 c3bc 2370 febc e2e9 eebd 458e 853d
00000150: 1578 dfbd 2b67 0f3e 5601 813e d8e2 6ebe
00000160: 58ed 45be cbe3 9dbe 5567 ab3e ae9b ac3e
00000170: dff8 16be 45b8 dbbd cdc5 95be f507 a6be
00000180: 0f78 b7be 3279 dd3c 30ba 83bd 2ec6 a93e
00000190: 970a 3d3c 8712 b53e aec7 65be c342 d83d
000001a0: 9f05 a4be 48d9 513e 76ce 9a3d dd2a 883e
000001b0: 9f98 54bd e329 8a3e 0a28 c33e 09b8 3dbe
000001c0: 2a8e 78be b4bb 98be dcb0 1a3e f1fd 1abe
000001d0: 6671 803b 6909 953d b2bf 1cbe 301e b7be
000001e0: a1f7 77be 20b8 8bbd 8f27 f4bd 0a12 69bc
000001f0: bd63 a6be 5b53 b2be c34e b03e e157 613e
00000200: a266 43bb a586 7cbe 568e c03d a5c9 d23d
00000210: a924 883d a06d fa3d a86a 28be d353 1a3d
00000220: b9e6 283e 050b 5cbe 8c31 a13e a434 36be
00000230: b989 54bd 762f bc3c 56fe 303d 983b ffbd
00000240: 43bc babe 55bf 04bd 8d9a 73be c125 b63e
00000250: e1fa b4be dbd0 3fbe d5d6 b3be ee83 1b3e
00000260: 9315 5cbe 5c25 a73d 01d7 c3be d350 883e
00000270: 07a7 40be 2f56 de3d 7e57 12be 31ad 433d
00000280: d7d7 cd3e d0c4 d5be 1b53 a83e ecb7 8f3e
00000290: 445f 72bd eb97 b33e 46f1 28bc 8080 953d
000002a0: 8562 cf3e 2be0 bcbe c8d8 813c b15b 86be
000002b0: 607a b7bc 5d2b 343e 7f55 e33d baa9 b6be
000002c0: eb91 4fbe 4c52 023e d094 efbd 5f85 a0be
000002d0: 24a7 393d 4db4 46bd b1b2 f7bd 15f9 bfbe
000002e0: b681 6cbd 5d21 b2be ebe4 b1be f557 673e
000002f0: 8abd 783e 8c0a e33e b99a a8be db51 b63e
00000300: a603 cbbd afc4 bb3b b65e 67be 4cdf 923e
00000310: 0259 e23e 8b02 6fbe b6ad adbe b94e fc3b
00000320: af6b 583e c0ea 7f3d 84cb 6abe a5b3 7bbe
00000330: 0e81 2d3d fd1a 6ebe ff4f bebe c4a8 efbc
00000340: a523 bebb 58d6 793e 3541 853e 1d7e 20be
00000350: 7b40 413e 6bf0 3c3d 939b acbe 53ba cc3d
00000360: 00d4 5abe d945 173e e8d8 55be 7b43 6ebc
00000370: fb80 523e 44e1 49be c94b b63d 027f 353d
00000380: ab8e a33c 792f cf3d 23fc b43e 0d58 bb3e
00000390: 731c 953b caf3 c7bd 6f09 d83d ca9b c93e
000003a0: d891 1ebe cf6f 26bd 81c4 c3be 4c04 b0be
000003b0: c1a4 5fbe 397c fe3d cb8b 5d3e 7b81 52be
000003c0: b007 923e 24d5 ba3e 4c9c 303e 2d23 47be
000003d0: 4c97 0bbe a63e 8abe ca16 86be 864a afbe
000003e0: 50eb ae3e 2cd9 413e f3ee c0bc 42f5 97be
000003f0: 8b76 5bbe 5605 95be a649 c43e 2230 273e
-0.21912062 0.21783125 -0.06324928 0.2912808 -0.18690474 0.015218052 0.17265171 0.045902774
-0.3318379 -0.020727424 0.29927593 0.029822426 -0.0035272776 -0.061771624 0.1579086 0.19851014
-0.21074271 -0.26873207 -0.37580332 -0.3173084 0.21468763 -0.35229504 -0.0589845 0.08459504
0.38674012 0.28956887 0.036721528 0.13621859 -0.22784212 -0.090309344 0.30165952 -0.2513843
0.2625146 -0.08338248 -0.28271347 0.027972793 0.23936751 0.22651832 0.28585297 0.3403587
-0.25528228 0.31482404 0.18584755 0.17916007 0.37473616 -0.13882309 0.21939452 -0.21671408
0.16598849 -0.18435559 0.2681755 -0.13324912 0.33009127 -0.20519051 -0.25327072 0.29702863
-0.3420234 -0.17638694 -0.29891437 0.27263495 0.31235465 0.2045869 -0.038714495 0.16713233
0.27165687 0.16204637 0.2993729 -0.35231182 0.069049306 -0.29019895 -0.10023955 -0.30420545
-0.3005464 -0.3289093 0.3100578 -0.16356179 0.023743572 0.2620349 0.2504758 0.013671498
-0.023897784 -0.03105933 -0.11665703 0.065212764 -0.10911576 0.14004199 0.25196332 -0.23328722
-0.1932882 -0.30837855 0.33477274 0.33712524 -0.14743374 -0.10728506 -0.29252473 -0.32427946
-0.35833785 0.02703533 -0.06431997 0.33159012 0.011538169 0.35365698 -0.22439453 0.10559609
-0.3203554 0.20493042 0.075589105 0.26595202 -0.051903363 0.26985082 0.38116485 -0.18527235
-0.24272981 -0.29830706 0.15106529 -0.15135933 0.003919768 0.072771855 -0.15307501 -0.3576522
-0.24215557 -0.068222284 -0.11921608 -0.014225492 -0.3249797 -0.3482922 0.3443509 0.2200618
-0.0029815813 -0.24660738 0.094021484 0.10292367 0.06647617 0.122279406 -0.16446936 0.037677597
0.16494264 -0.21488579 0.31483114 -0.17793518 -0.051889155 0.02297185 0.043211304 -0.124625385
-0.36471757 -0.03240903 -0.23789425 0.3557568 -0.35347655 -0.18732016 -0.3512484 0.15187046
-0.21492605 0.081614226 -0.38249972 0.26624164 -0.18813716 0.10856282 -0.14291188 0.04777259
0.40203735 -0.4175172 0.32875904 0.2807001 -0.059172884 0.35076842 -0.01031143 0.072999
0.40504852 -0.36889777 0.01585044 -0.2624183 -0.02239722 0.17594667 0.111002915 -0.35676366
-0.20270507 0.12726706 -0.116983056 -0.31351754 0.045325413 -0.048511792 -0.120946296 -0.37494722
-0.05774089 -0.3479108 -0.34744963 0.22592147 0.24291053 0.44343984 -0.32930544 0.35609326
-0.09912805 0.0057302336 -0.22594723 0.28685987 0.44208533 -0.23340814 -0.33921593 0.007699814
0.21134828 0.062479734 -0.22929198 -0.24580248 0.042359404 -0.23252483 -0.37170407 -0.029255278
-0.005802589 0.24398172 0.26026312 -0.15673108 0.18872254 0.046127718 -0.33712444 0.09996476
-0.21369934 0.14772739 -0.20883524 -0.014542456 0.20557015 -0.19714838 0.089011736 0.044310577
0.01996549 0.101164766 0.35348615 0.36590615 0.0045505106 -0.09763296 0.10548674 0.3937667
-0.15485322 -0.040633973 -0.38235858 -0.34378278 -0.21840192 0.12426037 0.21635358 -0.20557205
0.2852149 0.36490738 0.17247123 -0.19447012 -0.13631934 -0.27000922 -0.26189262 -0.34236544
0.34163904 0.18930501 -0.02355144 -0.29679304 -0.2143194 -0.29105633 0.3833744 0.16326955

bias f4 [128]
00000000: 418f 073e 070d bcbe cfc4 983e 5fcd 663e
00000010: a51d aabe 4eb6 3b3e 9d43 59bd 08a9 e7bd
00000020: 2e0d 573e 06bf ab3d cf68 6bbb 6b4b 3bbe
00000030: 8b40 80be 4428 403e f6a1 d23e b848 38be
00000040: 4e20 b7be 1fb6 54be 3020 a63e 1a94 95be
00000050: fb17 ecbd b7f1 fbbc 6a41 b53e 950c 8e3e
00000060: 7eff b53e c2e9 bdbe bac3 dcbb 99df 96bd
00000070: ba1c 803e 8629 983e ff84 45be 563c ca3e
00000080: a8ae aabe d0c4 afbd 1f27 233e 5a58 c73e
00000090: c311 e0bd bf4b 903e e803 963e 83a1 af3d
000000a0: 121f 09be 82b3 653e 1092 f0bd 3430 cd3e
000000b0: fac8 553e 9d50 933e f5f4 4bbe b8a7 c43e
000000c0: ccb5 8cbe d2fe ca3c b138 6f3d 96c5 83be
000000d0: 779d 6fbe c165 9d3e e3a9 c63e 7523 6b3e
000000e0: 8fb7 7fbd 0dd4 2f3e abdd 823e f542 d43d
000000f0: 8984 413d c2db 0e3e 443f bebe 8c8e 5dbe
00000100: 661f 04be 3f92 b0bd a2dd 98be 2511 263d
00000110: 03f3 5c3e d2da acbe 5a53 93bd 5484 12be
00000120: 7d3d 0ebe 8d9c 62be 6aad af3e 709d 433e
00000130: 71bd a7be a0b6 b9bd f51c 943e f91c 97bc
00000140: 75e2 a23e f4e0 dd3e 4f42 c1be 3f66 ca3e
00000150: ced5 c03e d7b8 6e3e 58d8 8dbe 5ef1 2c3e
00000160: 0497 81be 25f3 25be 4ca3 7c3e 7b54 6c3e
00000170: c606 d03b 4ddc d73e eb7a c63e eb9f 73bc
00000180: b315 47be cbf1 8ebe 1f12 80be 74bc 2c3e
00000190: e2ea cf3b 67f9 e23d cc8d 8c3e cbde 7e3e
000001a0: 7640 863d 81ef b93e 25d1 643e 7ae5 b0be
000001b0: d4bf 983e 34f2 913e 7899 41be a8f5 ac3e
000001c0: 0fbc 933e 6f68 86be 1c50 933e 41a4 e13e
000001d0: 6875 46be 1fcc 623e 7831 00bd a1fc 043e
000001e0: 5865 b43e 29b6 74be e496 a53e 90c6 60be
000001f0: ebd5 113e d26d 2b3e a8b8 ab3e 3495 37be
0.13238241 -0.3672869 0.29837653 0.2253928 -0.33225742 0.18331262 -0.053042997 -0.11311537
0.21001121 0.08386044 -0.0035920625 -0.18290488 -0.25049242 0.1876536 0.4113919 -0.1799649
-0.35766834 -0.20772599 0.32446432 -0.29214555 -0.115280114 -0.030754907 0.3540147 0.27743974
0.35546488 -0.37092406 -0.0067371996 -0.073668666 0.25021917 0.2971918 -0.19289015 0.39499158
-0.33336377 -0.08582461 0.15932892 0.38934594 -0.10940888 0.2818279 0.29299855 0.08575728
-0.13390759 0.22431758 -0.11746609 0.4007584 0.20877448 0.2877244 -0.19917662 0.3840921
-0.2748245 0.02477971 0.058403675 -0.25736684 -0.23399912 0.30741695 0.38801488 0.22962745
-0.062430914 0.17170735 0.25559744 0.103643335 0.047245536 0.13951018 -0.37157643 -0.21636409
-0.12902603 -0.08621644 -0.29856592 0.040543694 0.21577077 -0.33760697 -0.071936324 -0.14308292
-0.13890643 -0.22130032 0.34311992 0.19103026 -0.3276172 -0.09068036 0.28928342 -0.018446432
0.31813398 0.43335688 -0.37745902 0.39531133 0.3766312 0.23312698 -0.2770412 0.1688895
-0.25310528 -0.16206034 0.24671668 0.23079102 0.0063484637 0.42160264 0.38765654 -0.01486967
-0.19441871 -0.27918848 -0.25013825 0.16868764 0.006345139 0.11082726 0.27451932 0.24889676
0.06555264 0.3631554 0.22345407 -0.34550077 0.29833853 0.285051 -0.189062 0.3378117
0.28854415 -0.26251552 0.28772056 0.44070628 -0.19380724 0.22148179 -0.031297177 0.12986995
0.3523357 -0.23897614 0.32341683 -0.21950746 0.1424176 0.16741112 0.3353932 -0.1792801

weight f4 [64, 128]
00000000: 78e8 9c3d c221 473c fe1a 4ebd 7da4 3c3d
00000010: c963 9ebd f104 08bd e288 6bbd b2c1 9dbd
00000020: 8daf 5dbc 1445 5a3c 48f4 a9bb 9619 333d
00000030: 9710 68bd 18ea 1c3d cbdb a13c 21e8 24bd
00000040: 6a15 85bd 8105 633d a18c 86bc 5dea 823d
00000050: bff0 a03c b3a5 753d 3078 65bd 6773 9e3c
00000060: c2af aebd 33e9 b2bd 208f 9b3d 09a8 afbc
00000070: de6f 72bd dc65 2abd ec46 ae3c 70c1 0bbd
00000080: 9d01 a3bd 77de 1dbc a062 8e3d f070 373d
00000090: 3145 233d a29e 333d eaa9 8cbd d96c a93d
000000a0: ff17 873c 862d 833d d379 86bc 61b5 013c
000000b0: b3c5 6cbd 4c02 093d a01e f4bb 9e54 7d3d
000000c0: bfd0 aabd 82da 953c cf88 643d fa7d a43a
000000d0: 3bbb 65bd bd70 a1bd 1886 81bd f754 95bd
000000e0: a324 7a3d 2ed1 9e3d 27c4 1cbd ab97 dc3c
000000f0: ccc1 6d3d 0103 883d cab3 f73c c0af a63c
00000100: 99c3 913d 8adf 8dbd ed61 6f3d 42cd a0bd
00000110: 9c58 953d 396b e23c e76e 293d 32fd aa3d
00000120: 8411 8cbc d986 fabb 9826 24bd 2f48 ed3b
00000130: f665 0abd a994 80bc 6da1 a3bd a4e1 95bd
00000140: 056c 033d 78f3 aabd 8973 e53b d440 793c
00000150: 1789 1cbd 5d3d 313d fe2b 42bd d41a 4ebd
00000160: 149d ab3d c5b1 07bc c7f4 a93d d4fa a23d
00000170: 0712 623d 88c3 f5b8 db94 2dbd 5b75 5dbd
00000180: aed3 9fbd 328c fabc ef32 07bd 3f20 de3c
00000190: 72a7 23bd 77bf 103d 4b19 bbbc 147a 85bd
000001a0: 0453 9d3d d138 90bd d196 aebd 8b3c 2d3d
000001b0: ea61 02bc 2144 7ebd c7b4 413d 190c e13c
000001c0: 3c2b a23c aea1 cbba 3905 89bc 63ba 85bd
000001d0: dca6 6bbc 9fc5 683d 3a04 12bc 5e04 feba
000001e0: 5f5d 653d b340 b03d 5caa 1bbd 6765 b1bd
000001f0: 886b 8e3c 0f6a dc3b f6fe 38bc b0c4 023d
00000200: 1a8a 9b3b 6b5a 44bd 14d0 59bd 9b61 3dbb
00000210: ecef a7bd 5629 f4bc 9815 5d3d 6dba 93bd
00000220: e7b4 83bd 3719 d2bc 2b2b c9bb 15d0 82bd
00000230: 1d94 933d e69c 13bd 8898 bc3c 4f2b a7bc
00000240: b510 d2bb 19b2 14bd d7e7 bbbd 730f 1fba
00000250: e6c6 8d3c cada 483c 0b28 88bd 0f81 e5bb
00000260: be32 91bd 4d18 a6bd 1146 8fbb 7f2b 803c
00000270: 9014 473d 7187 a2bd 094f 50bd 8ddc 8bbd
00000280: b791 41bd 865f 583d 7799 59bc 7b7f 5cbd
00000290: 2667 9bbd 2743 56bd 4467 c9bc 59a6 0c3d
000002a0: f675 5cbd f9f9 903c bbea 843d d01b c53c
000002b0: 0385 c83c a11f a6bd 5363 d33b a71f 423d
000002c0: cc2e 943d a126 8fbd 9017 a33d 97c2 863b
000002d0: d1aa 4b3d 4783 45bd d785 5f3d 1cc9 7e3d
000002e0: 04de b9bc cbf2 b03c 20f6 05bc 30aa a4bd
000002f0: 9e6e 4e3c 1db0 703d 9925 97bd 5e61 a1bd
00000300: 0052 a33d 3247 b23d 3465 033c ae25 8dbc
00000310: af4c bbba de0f 9abd 5141 79b7 ee62 ac3d
00000320: 8e00 243d b63f c93b cde9 9a3d aeda 813d
00000330: 3ade 773d 7681 713d f160 403d 484c e03b
00000340: ba22 88bd 689d 2cbd 9936 983c afb5 7b3d
00000350: de96 bd3b 5738 0abd 6709 923d e1d1 fcbc
00000360: 3d48 6cbd a39c 113c 7ba1 283d 4f7f 53bd
00000370: c4a6 183d 5fb1 c5bd 0523 4c3d 9470 9c3d
00000380: 93e2 933d f250 5fbd 8f62 713d 5dfe fb3c
00000390: 7c78 a6bd 78f0 09bc 4ecb 863d 6fbb 5dbd
000003a0: 499c bcbd 118c c3bc 61b6 913d eaf7 c93c
000003b0: 111e 57bc 1578 a7bd 5b98 733d 9ee6 31bd
000003c0: 8e66 8e3d 3c65 a7bb 680d 123c ba49 d6bc
000003d0: dccc a9bb 30ff a73d 4112 243c ad42 133d
000003e0: daa6 913d 8ab4 5e3d 79cc 673d 49ac 1d3d
000003f0: bd94 6e3d 538d 443d e3c3 c9bd 116c 77bc
0.076615274 0.012154045 -0.05031871 0.046055306 -0.07733876 -0.033207837 -0.05750359 -0.0770296
-0.013530624 0.013322134 -0.0051865913 0.043725573 -0.056656446 0.038309187 0.019758126 -0.040260438
-0.06498225 0.05542517 -0.016424479 0.063923575 0.019646047 0.059972476 -0.056022823 0.019342138
-0.08529617 -0.087358855 0.07595658 -0.02144243 -0.059188716 -0.041601047 0.021274053 -0.034120023
-0.07959292 -0.009635559 0.06952405 0.04478544 0.039860908 0.043852456 -0.06868346 0.08272714
0.016490934 0.06405167 -0.016415512 0.007916779 -0.05780573 0.033449456 -0.00744994 0.061848275
-0.083405964 0.01829267 0.055794533 0.0012549751 -0.05608676 -0.07882831 -0.063244045 -0.072915964
0.061070096 0.077547416 -0.038273003 0.02692779 0.058046147 0.06641198 0.030237097 0.020347476
0.071173854 -0.06927402 0.058443 -0.0785165 0.072922915 0.027639018 0.04136553 0.083490744
-0.017098196 -0.0076454696 -0.04007587 0.007241271 -0.033788644 -0.015695887 -0.07989774 -0.07318428
0.032085437 -0.08347219 0.0070022983 0.01521321 -0.038216677 0.04327141 -0.047405235 -0.050318554
0.0837957 -0.00828213 0.08298641 0.07957998 0.055192973 -0.00011718931 -0.042378288 -0.054066997
-0.078040466 -0.030584428 -0.03300756 0.027114986 -0.03995461 0.035338845 -0.022839209 -0.06517425
0.076818496 -0.07042087 -0.0852486 0.042294066 -0.007957915 -0.06207669 0.047291543 0.027471589
0.019796006 -0.0015535855 -0.016726123 -0.06529691 -0.014383044 0.05682909 -0.0089121405 -0.0019379964
0.05599725 0.086060904 -0.038004264 -0.08661919 0.01738526 0.0067265104 -0.011291256 0.031925857
0.0047466876 -0.04793779 -0.053176954 -0.0028897289 -0.08200058 -0.029804867 0.05397567 -0.07213292
-0.06430989 -0.025646789 -0.006139179 -0.06387345 0.07205985 -0.036038302 0.023021951 -0.020406393
-0.006410683 -0.03630266 -0.09175079 -0.0006067671 0.017306756 0.012259195 -0.066482626 -0.0070039104
-0.070897564 -0.08110104 -0.0043723662 0.01564574 0.048603594 -0.0793599 -0.050856624 -0.06829176
-0.047258105 0.052825473 -0.013281218 -0.053832512 -0.075880334 -0.052310135 -0.024585374 0.03433833
-0.053823434 0.017697321 0.06490084 0.024061114 0.024477487 -0.081115015 0.0064510494 0.047393467
0.07235488 -0.0698979 0.079634786 0.0041125524 0.04972345 -0.0482209 0.054571 0.06220351
-0.022688873 0.021600148 -0.008176357 -0.08040273 0.012599615 0.058761705 -0.07380218 -0.078798994
0.07974625 0.08704986 0.008019734 -0.017229881 -0.0014289821 -0.07522558 -1.4856764e-05 0.08417307
0.04003959 0.006141628 0.07564125 0.06340538 0.060514666 0.058961354 0.04696745 0.006845031
-0.066472486 -0.0421423 0.018580722 0.061452564 0.005785807 -0.033745136 0.071306996 -0.030861797
-0.05768608 0.008887443 0.041169625 -0.051635083 0.037268415 -0.096529715 0.049838085 0.0763866
0.0722095 -0.054520555 0.058931883 0.030760938 -0.08128449 -0.008419149 0.06581746 -0.05413383
-0.092094965 -0.0238705 0.07114864 0.024654347 -0.013129727 -0.08177201 0.05947147 -0.043432824
0.069531545 -0.0051085036 0.008914329 -0.026158202 -0.005181892 0.0820297 0.010014118 0.03595226
0.071119025 0.054371394 0.056591485 0.038494382 0.058247317 0.04798634 -0.098518156 -0.015101449

bias f4 [64]
00000000: d30d 473b 656e 9a3d 9029 8cbc 5232 433c
00000010: 0205 023c 8eec 5a3c 9fba 833d bbf1 0c3c
00000020: 3cde a63c 6d9f c23c 6d9a 573d 1726 163c
00000030: e6b3 8f3a 3484 2fbd 564f 16bc 0517 9bbd
00000040: 96b0 983b d908 053e 9618 20bc 9cc4 963d
00000050: 3ab3 9b3d 583d 8cbd 5664 9d3d d59a a1bd
00000060: 2a56 903d 9596 d0bc 1143 963d 382d 7f3d
00000070: ed2b f73c 9870 2b3d 9c72 87bd f671 893d
00000080: ce70 f83c 679f a93d eaa4 d03d 6988 be3c
00000090: 4418 2abd 3808 673d 6fb6 dd3d 7f7a 7abd
000000a0: 0a9b a3bb bef5 88bc 696b 653d 5080 7b3d
000000b0: 7b8d 633c c339 c73d 19fe debc 0d32 bd3c
000000c0: 4f98 93bc 79a2 2f3d a90c 623d 3220 283d
000000d0: 1ded 553d 8e3a 003e b012 2cbd 4b55 c03d
000000e0: 423f d13d fe00 51bd d93d d5bc 3e16 aebd
000000f0: 3bd3 8a3d b115 253d a4d8 4ebd 2b15 073e
0.003037323 0.07540587 -0.017109662 0.011913853 0.007935764 0.013362063 0.064320795 0.008602555
0.020369641 0.02375766 0.052637506 0.009164355 0.0010963648 -0.042850688 -0.009174189 -0.0757275
0.0046597226 0.12991656 -0.009771487 0.07361719 0.07602544 -0.06847638 0.07685153 -0.0789086
0.070476845 -0.025462428 0.07337011 0.062298983 0.030172313 0.041855425 -0.06613657 0.067111894
0.030327227 0.08282357 0.10187705 0.023258405 -0.041527048 0.056404322 0.10825812 -0.061151978
-0.0049928473 -0.016718742 0.056010637 0.061401665 0.013888712 0.09727814 -0.027220773 0.023095155
-0.018016962 0.042879555 0.055187855 0.04104633 0.052228082 0.12522337 -0.04201001 0.09391268
0.102171436 -0.051026337 -0.026030468 -0.08500336 0.0677857 0.04030389 -0.050499573 0.13191669

weight f4 [32, 64]
00000000: 7a8c febd e0c3 bbbb 56fe 0b3d eb82 acbd
00000010: 9307 6b3b 393b 4f3c 57c9 89bd 94e4 c0bc
00000020: 2046 19bd d61f e93d e906 d6ba 3fae e73d
00000030: 8095 00bd 708a 98bd a0d8 a43d 80ae 0cbd
00000040: 9b5f bb3d da8c 723d d082 80bc 999a 3e3d
00000050: d898 9bbc b867 973d f2eb 033d 3c1d 0fbd
00000060: dbca 6ebd 54b2 7d3d a4f9 cbbd 782d f93d
00000070: 480b c63d cc5a 503d 988a a9bd c01e dd3b
00000080: e592 873d 40ef 353d 8b55 283d 18a7 253d
00000090: 501b 5f3c 9f60 49bc 4814 b0bd 9ccc 783d
000000a0: c0f6 ffbd 677c 0b3d 6933 ecbd 972e fdbd
000000b0: c477 55bd 0db2 7fbc 0061 473d 1cb0 3d3d
000000c0: 96f9 f9bd 691c dd3d 2062 15bc e08d 5abd
000000d0: b82a b53c 5fd9 cfbb 8563 933d a911 dabb
000000e0: 78e1 89bd 1678 b3bd 76cf c83d b85b 80bc
000000f0: 2207 babc 8e24 e1bd f23d b0bd 8d69 0ebc
00000100: 781e 733d 93cf 9ebd 3cd5 253e 9d72 05be
00000110: 7a53 963d 4ad7 c9bd 46dd eabc 3c6e ae3c
00000120: 6a92 3b3c 3506 c93a 8e60 133d ac7f cabc
00000130: 9383 ccbd 80f5 663e 1077 043c ec38 9f3d
00000140: f15f ffb9 edef b13d 5a26 f43d e879 133e
00000150: c788 833c 97a5 d3bd 258d 4e3c 0062 ccbb
00000160: e301 b03d 62a2 fd3d 6f09 9fbc 2baa 063d
00000170: a751 28bd b064 753e cd17 2d3c 04a9 e9bd
00000180: 2d56 b6bd 535e 90bd 66b7 543e 9380 793d
00000190: 70cc 90bd ccda b23d 3fe8 453d c4cb b0bd
000001a0: b9a6 ff3d feb8 993c 2dc9 f0bc 45de 9ebd
000001b0: cc30 733d 3cb8 b93d a4b8 28bd f12d 933d
000001c0: 2aa3 fcbd d6d5 0abe 83cf 7ebd b452 ac3d
000001d0: 0f48 ef3d 6ae8 183c 7972 563e e425 2b3e
000001e0: f802 b2bd 383d 983d b9e6 a2bd 5464 e83d
000001f0: c93b 4e3e a1dd e53d f750 5a3c 3446 f63d
00000200: f4d0 5cbd 098e 0a3c f7b0 b6bc d543 ecbd
00000210: 4620 303d 20dc 95bd 3d57 fabc f289 f43d
00000220: fd1e ac3c f909 1dbd 322e f5bd d792 c83d
00000230: 67cd d33d 216e f73d 30f9 fc3c 9867 ec3d
00000240: 83cc 103e 4cb4 ea3d 7cfe aabd 0d31 8a3d
00000250: 0492 bc3d 325e 04be bb83 2e3e 308d e9bd
00000260: ca84 533d 5470 81bd 3582 173d ccb9 d13c
00000270: 6ea8 613c 414f 983d e931 b73d ba3e d9bd
00000280: 84c9 d33d 54e2 943c 904a 9e3d 84e0 9fbd
00000290: d027 803d fb30 283d 8bf8 adbd 468a d83d
000002a0: b35f 4a3d f953 033d c61e 5ebd b0ae 6d3c
000002b0: 4c90 a3bd 21cb dcbd 38f5 843d 17d4 91bd
000002c0: ce34 59bd 7a13 eabd 43de 0abe 3435 c6bd
000002d0: 2f6f 6f3c e24f eb3c a757 ff3d 7e54 623d
000002e0: 9b2c c1bd a880 50bd d56b 6fbd f956 a1bd
000002f0: fee2 2c3e 3f86 2dbc a28d 0d3e d106 c93d
00000300: d8c9 ea3d 56ad f1bd 3d73 94bd 453e 593d
00000310: 26b4 ea3b ecf2 3a3d 88d1 f5bd 73fa 30bd
00000320: 004e 2cba 6c4c 1c3d 8c5b d6bd 2bfb ae3d
00000330: 66e7 b0bd e372 c8bd d482 623d 5883 373d
00000340: 59f2 043d f914 e3bc 54e4 e43d 7534 8f3d
00000350: e82f fcbc 7ce5 10bd 533c 6abd 04ee a3bd
00000360: e961 eabd 000c a5bb 1079 6bbd ec8a 99bd
00000370: 4aed a53d a997 ce3c 656d 553d e60a e2bd
00000380: fbf2 2fbd 7028 dfbc 1a94 f53d 4ce2 d3bd
00000390: 66df c03d 059f 463d fe44 b93d e874 8ebc
000003a0: 5323 8ebd 64b8 973d c962 b93d 2efd eb3c
000003b0: 14c1 22bd 99ae ee3d 9c2e ea3d d28d bebd
000003c0: e4f6 0d3d 20e1 063d 26c0 bcbd 50e3 283d
000003d0: 6e3f d13d b6a2 f73d 0d16 0a3c 9840 fdbd
000003e0: 80be 96bb 8e39 c9bd b62f 873d 004d 5bbc
000003f0: 15f4 85bd 4a65 a6bd 6536 f13d cd98 f6bd
-0.124291375 -0.005730137 0.0341781 -0.08423408 0.003586267 0.012648397 -0.06727856 -0.023546495
-0.037420392 0.11383025 -0.0016328964 0.11312532 -0.031392574 -0.0744828 0.080491304 -0.034346104
0.09149095 0.059216358 -0.015687376 0.046534155 -0.01899378 0.0739283 0.032207437 -0.03493999
-0.058298927 0.061937645 -0.099597245 0.121668756 0.096701205 0.05086784 -0.08278388 0.0067480505
0.06619815 0.04441762 0.041097205 0.040442556 0.013617352 -0.012291103 -0.08597618 0.060742006
-0.12498236 0.034054186 -0.11533243 -0.12362402 -0.05211617 -0.015606415 0.04867649 0.04631053
-0.12205808 0.107964344 -0.009117633 -0.05335796 0.022115096 -0.0063430513 0.07196716 -0.0066549373
-0.06732458 -0.08763139 0.09805195 -0.015668735 -0.02270848 -0.109933004 -0.08605565 -0.008692157
0.05935523 -0.077544354 0.16194624 -0.13032003 0.07340141 -0.09855516 -0.028669965 0.021292798
0.011448482 0.0015336933 0.035980754 -0.024719082 -0.09986033 0.22554588 0.008085027 0.07774529
-0.00048708872 0.0868834 0.119213775 0.14401972 0.016056431 -0.10334318 0.012606894 -0.0062372684
0.0859411 0.12384488 -0.019413678 0.03287713 -0.041093495 0.2396419 0.010564757 -0.1140919
-0.089031555 -0.07049241 0.20773086 0.060913634 -0.07070243 0.087331384 0.04831719 -0.08632615
0.12482972 0.018764969 -0.029392803 -0.07757238 0.05937271 0.09068343 -0.041191712 0.07186497
-0.123358086 -0.13558134 -0.062209617 0.08414212 0.11683666 0.009332756 0.20942105 0.16713673
-0.086919725 0.074335515 -0.07954163 0.11347261 0.20139994 0.11223913 0.013324968 0.12025109
-0.05391021 0.008456715 -0.02230118 -0.115363754 0.04299953 -0.07317376 -0.030559177 0.119403735
0.02101087 -0.03833959 -0.11971702 0.097936325 0.10341912 0.12081552 0.03088054 0.115431964
0.14140515 0.1146017 -0.0834932 0.06747637 0.09207538 -0.12926558 0.17042439 -0.114038825
0.05164031 -0.06320253 0.03698941 0.02560129 0.013773067 0.074369915 0.089450665 -0.10607667
0.103411704 0.018174328 0.077290654 -0.07806495 0.06257594 0.041062336 -0.084946714 0.105732486
0.049407672 0.032062504 -0.054228567 0.014506981 -0.07986507 -0.10780931 0.06492084 -0.07120531
-0.053028874 -0.11429496 -0.13561349 -0.096781164 0.014613911 0.028724615 0.1246789 0.05525636
-0.09432336 -0.050903946 -0.058452446 -0.07877917 0.16883466 -0.010591089 0.1382356 0.09815753
0.1146428 -0.11800639 -0.072485425 0.0530379 0.0071625886 0.045641825 -0.120028555 -0.043207597
-0.0006572902 0.03815882 -0.1046668 0.08544 -0.08637886 -0.09787538 0.05530055 0.044802994
0.032457683 -0.027719961 0.11176363 0.06992427 -0.030784562 -0.035375103 -0.057186436 -0.08004382
-0.11444456 -0.005036831 -0.0574885 -0.074972 0.081019 0.025218802 0.05210628 -0.11037235
-0.042956334 -0.027240962 0.11991139 -0.10345897 0.0941761 0.048491497 0.09046362 -0.01738973
-0.06940331 0.074082166 0.09052045 0.028807249 -0.039734915 0.116543956 0.11434671 -0.09304394
0.03465928 0.03292954 -0.09216337 0.041232407 0.102171764 0.120915815 0.008428109 -0.12365836
-0.004600346 -0.09825431 0.06600897 -0.013385057 -0.065406956 -0.08124788 0.11777953 -0.12040863

bias f4 [32]
00000000: 93a7 85bd d8b7 27bd 8643 673d 5223 dfbc
00000010: 5ce3 28bd ffd2 5b3d 496b 26bc aa19 a13d
00000020: 183f eabc 98e0 a5bd 1dd3 5b3d 5c57 da3d
00000030: 16ce babd a92f eabd a540 bb3d 70f8 c0bd
00000040: e8f1 233d ff83 9e3d 87a2 bc3d 47b1 94bd
00000050: ac9f ea3a 7bfb 803d a018 463c d8b7 fe3c
00000060: 0f98 123d 8fa5 f73d 1d33 0a3d 69c3 7f3c
00000070: 5f01 173e 83a5 393d 6994 113e 1c33 c3bd
-0.06526103 -0.04094681 0.05646088 -0.027238522 -0.04123245 0.05366802 -0.010157415 0.07866223
-0.028594539 -0.080994785 0.05366813 0.10661194 -0.09121339 -0.11434872 0.09143189 -0.09422386
0.04002562 0.0774002 0.09210687 -0.072603755 0.0017900369 0.06297966 0.012090832 0.031093523
0.035789546 0.12092125 0.03374015 0.015610554 0.14746617 0.04532386 0.1421677 -0.09531233

weight f4 [2, 32]
00000000: a312 05bd ebfe e53d d435 25be d71f 303e
00000010: c901 f53a 3832 82bd 77ab 243e acfe d4bd
00000020: f8fd 603e 238a c53d 4ff0 c7bd 0c99 673c
00000030: c17d 1ebe a16b 7dbd 155e e0bd b31d b5bd
00000040: ef81 033e e325 183e ce3f adbd ae06 53bd
00000050: 38e7 543e 8b94 103e 53bd 6f3e 6afc 02bd
00000060: 8ff5 17bd 5199 2e3e ce33 ea3c c61a 6bbd
00000070: d4ae adbc ea4a 583d 7317 003e 7f0f bc3d
00000080: cdc5 513e 373c 053e 550e 0fbc f919 58be
00000090: 7809 223d 2225 f23c b800 0abe b0db fa3c
000000a0: 02e6 f03b 994a f53d a0c1 5abd 2cdc 393e
000000b0: c3ee 4b3d e993 98bd 5819 c3bd e2d0 9abd
000000c0: 6eba 0d3e 5724 1fbe 83df eabd 3aaf 59bc
000000d0: 4233 dbbd 4a36 8ebd 3205 a63d 01cf d2bd
000000e0: 5388 b6bd 77a7 55be 0f57 cf3c 5870 94be
000000f0: 2929 073e b65d 10be 65e5 923d 5335 b8bd
-0.032488476 0.11230262 -0.16133815 0.17199646 0.0018692549 -0.06357235 0.16081034 -0.10400137
0.21971881 0.09645488 -0.09762632 0.01413561 -0.15477659 -0.06187022 -0.10955445 -0.08843555
0.12842534 0.14858203 -0.084594354 -0.051520042 0.20791328 0.14119165 0.23412065 -0.031979002
-0.037099417 0.17050673 0.028589156 -0.05739858 -0.021201529 0.05280582 0.12508945 0.09182643
0.20485611 0.13011251 -0.008731444 -0.21103658 0.03955981 0.029558722 -0.13476837 0.030622333
0.007351638 0.11977119 -0.05340731 0.18150395 0.049788248 -0.074500866 -0.09526318 -0.075593725
0.13840649 -0.15541206 -0.11468413 -0.013286406 -0.10703136 -0.069439486 0.0810646 -0.10293389
-0.089127205 -0.20864664 0.025310067 -0.2899196 0.13199295 -0.14098248 0.0717266 -0.08994546

bias f4 [2]
00000000: 43a9 87bd edca 973c
-0.06624081 0.01852938
