2023/baseline0806/model/WLTP_trained_0822/PPO_actorcritic_58episode.pt (torch, 101527 bytes, 17 tensors)

weight f4 [128, 7]
-0.23995987 -0.33761024 0.2607384 -0.41774923 -0.25405362 0.39231437 0.36326104 -0.04047977
-0.18133801 0.08495145 -0.27926734 -0.13682394 -0.36225837 -0.30152673 0.10566177 -0.14595951
-0.16938072 0.050881226 0.30204463 0.3920886 0.078119084 -0.297314 -0.24718107 -0.23713711
-0.09350199 -0.19729097 0.27960557 0.40950975 0.10640264 -0.18350011 -0.38512784 0.083058484
0.04676172 0.19009104 -0.008965031 -0.030531913 -0.10044595 -0.23695809 -0.07541254 0.21157284
0.1527255 0.33789408 -0.33917677 -0.25368536 -0.33796388 0.011872757 -0.27600446 -0.1458769
-0.0047227717 0.09166515 -0.34016228 0.35803404 0.3065152 0.24624729 -0.3741525 -0.021980464
0.43105176 -0.04355063 -0.2779626 -0.012069208 0.5380613 -0.2505081 0.025701137 0.33715716
-0.23530225 -0.3586895 -0.40010914 -0.17730871 0.36453295 0.31853107 0.3037738 0.25757757
0.073968925 0.15711254 -0.3488117 0.035652086 0.06020073 -0.00011765597 0.43397343 0.19988772
-0.08759166 0.22576503 -0.042644154 -0.08154541 -0.25014555 -0.31284848 0.2657277 -0.36778268
0.22491692 -0.1398499 0.22096723 0.2467911 0.18061697 0.30980113 0.03402682 -0.17297904
-0.1417358 -0.28092661 -0.009480381 0.02709738 0.105651714 0.030641941 -0.04242857 0.17802893
-0.22535005 0.20277932 -0.25891596 -0.008542604 0.17668563 -0.040962648 0.29816926 -0.24716057
-0.19666818 -0.35057142 -0.22344191 0.27653983 0.10044489 -0.12633146 0.037019134 -0.14468396
0.531065 -0.07056335 0.4853316 -0.25850967 -0.124336265 -0.18777142 0.36828497 -0.16117631
0.059225973 -0.39112103 -0.3164976 -0.2502519 -0.24294612 -0.15536352 -0.28962433 -0.023504907
-0.26090777 0.113147035 -0.07719146 -0.06418898 0.34372094 -0.18176791 0.11411453 0.014587326
0.0019598904 0.3520975 0.3343663 -0.092744894 0.012863153 -0.07907031 -0.11870279 0.012077045
-0.20682047 0.07127561 -0.3462147 0.031217044 0.24046984 -0.11739866 -0.020530954 -0.14818183
0.2663392 0.28613487 -0.1388149 0.19782634 0.22735137 0.02642821 0.34859303 0.41007867
0.382525 -0.3074077 0.05715445 -0.36275896 0.3063468 -0.09422815 0.30016616 0.05586602
0.043767978 -0.34985447 -0.10564954 -0.039340556 0.15841813 -0.18675223 0.23732546 -0.41339532
0.26872838 -0.28084236 -0.18257591 0.2533678 0.17185673 0.3244142 0.039725985 0.15242247
0.19559528 0.25225672 -0.13887234 0.28625146 0.025117552 0.38578582 -0.0296524 0.31473145
-0.24082966 -0.084668 0.22198755 0.2893599 -0.02255698 0.14306976 -0.2544248 0.142676
0.37292123 0.17590721 -0.10411589 -0.27090186 -0.089079365 0.06809727 -0.27477476 0.23924522
0.29784852 0.17984194 -0.22116053 0.12285505 -0.14832278 0.23118955 0.36448553 0.25165927
0.09037467 -0.28217742 -0.11248408 0.2987225 0.28614616 -0.1692546 -0.014117086 0.22315617
0.05844128 0.07399576 0.33674312 0.16149233 -0.2378771 0.32913193 0.14449468 -0.29784235
-0.16061856 -0.17901942 0.30296656 -0.18680541 0.057978183 0.12327138 0.099662825 0.25169405
-0.08853575 0.09531527 -0.22845161 0.30858445 -0.21056668 0.28155795 0.051643066 0.28283858
00000000: 0ab8 75be 40db acbe 817f 853e 3ae3 d5be
00000010: 5113 82be 6edd c83e 5afd b93e 1ece 25bd
00000020: acb0 39be 07fb ad3d 21fc 8ebe 931b 0cbe
00000030: ee79 b9be b661 9abe 3365 d83d 6976 15be
00000040: 2472 2dbe d568 503d 98a5 9a3e d6bf c83e
00000050: e6fc 9f3d 8a39 98be 091d 7dbe 12d4 72be
00000060: f97d bfbd a506 4abe 7628 8f3e 43ab d13e
00000070: a1e9 d93d 74e7 3bbe 7a2f c5be 911a aa3d
00000080: 3889 3f3d 3aa7 423e 11e2 12bc 101e fabc
00000090: 9bb6 cdbd 24a5 72be e471 9abd 8da6 583e
000000a0: 1364 1c3e 7400 ad3e 94a8 adbe 0ce3 81be
000000b0: 9a09 adbe f485 423c 7550 8dbe c160 15be
000000c0: 7bc1 9abb f0ba bb3d c029 aebe 3d50 b73e
000000d0: 8fef 9c3e 4028 7c3e eb90 bfbe 6010 b4bc
000000e0: d1b2 dc3e 2562 32bd 1d51 8ebe edbd 45bc
000000f0: 63be 093f 9942 80be 318b d23c dd9f ac3e
00000100: 13f3 70be 26a6 b7be 1bdb ccbe 6a90 35be
00000110: 10a4 ba3e 8116 a33e 3d88 9b3e 35e1 833e
00000120: 057d 973d 1ce2 203e 7297 b2be ec07 123d
00000130: 0a95 763d 11be f6b8 c431 de3e 5eaf 4c3e
00000140: 4263 b3bd f32e 673e a3ab 2ebd 4801 a7bd
00000150: 1413 80be ad2d a0be 760d 883e 034e bcbe
00000160: 9f50 663e d034 0fbe 3c45 623e ceb6 7c3e
00000170: a8f3 383e 419e 9e3e b55f 0b3d 6b21 31be
00000180: 3123 11be 9dd5 8fbe 9a53 1bbc 53fb dd3c
00000190: ed5f d83d cf04 fb3c 95c9 2dbd 374d 363e
000001a0: 2ac2 66be 62a5 4f3e a290 84be 47f6 0bbc
000001b0: 14ed 343e 73c8 27bd a4a9 983e a917 7dbe
000001c0: 6263 49be 197e b3be f5cd 64be a196 8d3e
000001d0: 0db6 cd3d 095d 01be 60a1 173d 0828 14be
000001e0: e0f3 073f 8583 90bd 627d f83e 615b 84be
000001f0: 03a4 febd 2747 40be d98f bc3e 670b 25be
00000200: ef96 723d 0441 c8be f90b a2be 0421 80be
00000210: dec6 78be 9d17 1fbe a449 94be 5d8d c0bc
00000220: b495 85be a2b9 e73d 8e16 9ebd 8375 83bd
00000230: 31fc af3e 5e21 3abe e1b4 e93d aeff 6e3c
00000240: 8171 003b 2046 b43e 0f32 ab3e 09f1 bdbd
00000250: f9bf 523c 9def a1bd 731a f3bd ccde 453c
00000260: bfc8 53be f2f8 913d 0e43 b1be e3ba ff3c
00000270: ba3d 763e b56e f0bd 8830 a8bc fabc 17be
00000280: 9d5d 883e 4580 923e 7e25 0ebe fd92 4a3e
00000290: ccce 683e f97f d83c c97a b23e d5f5 d13e
000002a0: 51da c33e 8b64 9dbe c91a 6a3d 8bbb b9be
000002b0: 7dd9 9c3e b0fa c0bd 61af 993e c5d3 643d
000002c0: 0d46 333d 2020 b3be c95e d8bd 9023 21bd
000002d0: 5d38 223e fa3b 3fbe 7205 733e 8da8 d3be
000002e0: c496 893e 92ca 8fbe 2ef5 3abe 6db9 813e
000002f0: 36fb 2f3e 9e19 a63e b7b7 223d a314 1c3e
00000300: 214a 483e cb27 813e 8d34 0ebe 8d8f 923e
00000310: 53c3 cd3c b885 c53e 97e9 f2bc 7b24 a13e
00000320: 0d9c 76be 6b66 adbd b450 633e fb26 943e
00000330: 6ac9 b8bc e180 123e f843 82be a819 123e
00000340: 88ef be3e 0521 343e b63a d5bd a6b3 8abe
00000350: 3e6f b6bd 9576 8b3d 47af 8cbe b3fc 743e
00000360: 9a7f 983e 7c28 383e e877 62be 6e9b fb3d
00000370: ede1 17be f4bc 6c3e d99d ba3e 7cd9 803e
00000380: 5b16 b93d 8f79 90be 0e5e e6bd 28f2 983e
00000390: c081 923e 1451 2dbe 5a4b 67bc 0d83 643e
000003a0: 2060 6f3d 178b 973d 9869 ac3e 3f5e 253e
000003b0: 0e96 73be fb83 a83e 6af6 133e cb7e 98be
000003c0: 3179 24be de50 37be 6f1e 9b3e eb49 3fbe
000003d0: 887a 6d3d b575 fc3d 061c cc3d 0bde 803e
000003e0: 3b52 b5bd a734 c33d 38ef 69be c8fe 9d3e
000003f0: cb9e 57be 5d28 903e ae87 533d 38d0 903e

bias f4 [128]
-0.18309082 -0.23855948 0.19142829 0.40816674 0.05734431 -0.13787171 -0.10246875 0.08903836
-0.00056668784 0.38669723 0.29176962 0.06829853 0.09175276 0.20793083 0.07985371 -0.14760399
-0.19962066 0.19680795 0.3536701 0.19727924 -0.071362555 -0.30263132 0.2076135 -0.19900846
-0.07214659 -0.28329474 -0.09478846 0.064567216 -0.28541812 -0.35006997 0.28050464 -0.0027958385
0.29883116 0.058599573 0.29446948 -0.24127863 -0.2895217 -0.101546034 -0.2031828 -0.040318556
-0.1891247 -0.40059003 -0.0058045583 -0.070050456 -0.28569514 -0.029524995 -0.28820676 0.21961437
-0.25399947 -0.1034134 0.21597639 0.3754279 0.018070372 -0.3201108 -0.14496033 0.2068693
0.29069042 0.24022467 -0.068753324 -0.35060346 -0.332542 0.13037875 0.0013684116 0.27799404
0.28992957 -0.19416589 -0.35537192 -0.21072371 0.3736015 0.0886519 0.112150855 -0.031378638
-0.24329704 0.31706294 0.07462401 -0.06281687 0.14455907 0.28672516 -0.10089115 0.29204172
0.29214194 0.28519687 0.16680835 -0.25819716 -0.135739 -0.12199874 -0.30423152 -0.2086689
-0.33719918 -0.15162237 0.36768395 0.26869944 0.34687403 0.40502024 0.090208165 -0.2988338
0.12935595 0.2625101 0.13178138 -0.32702276 0.39055285 0.2721928 0.1851559 0.35180935
-0.2086159 0.019290198 0.08158649 -0.1526569 -0.15857571 0.10569609 0.053869218 -0.25089827
-0.3377334 0.010766741 0.30565867 0.021235326 -0.15015772 0.21428996 0.25641957 -0.1528571
0.25281268 -0.08834244 -0.15182148 0.2457972 0.18423225 -0.2294369 0.31169057 -0.27166873
00000000: 297c 3bbe f048 74be c705 443e 3bfb d03e
00000010: dee1 6a3d 3e2e 0dbe 23db d1bd be59 b63d
00000020: c78d 14ba 2efd c53e d462 953e 1ae0 8b3d
00000030: dfe8 bb3d d2eb 543e 588a a33d 8025 17be
00000040: 5c69 4cbe 0688 493e 3f14 b53e 9203 4a3e
00000050: 8826 92bd 7ef2 9abe a298 543e e0c8 4bbe
00000060: 97c1 93bd 020c 91be 7420 c2bd d13b 843d
00000070: 5322 92be 5f3c b3be 4e9e 8f3e 633a 37bb
00000080: 6600 993e 1b06 703d b4c4 963e bf11 77be
00000090: 303c 94be 5ef7 cfbd 270f 50be 1225 25bd
000000a0: e8a9 41be 231a cdbe 2a34 bebb 9d76 8fbd
000000b0: a246 92be 67de f1bc d68f 93be 97e2 603e
000000c0: 380c 82be 68ca d3bd ea28 5d3e 1638 c03e
000000d0: 5108 943c 90e5 a3be 7b70 14be 8cd5 533e
000000e0: 60d5 943e 75fd 753e 8bce 8cbd 4c82 b3be
000000f0: f242 aabe 0282 053e 465c b33a 3c55 8e3e
00000100: a671 943e 6cd3 46be 4ff3 b5be f5c7 57be
00000110: b248 bf3e 218f b53d 59af e53d e386 00bd
00000120: dc22 79be 1356 a23e 79d4 983d 22a6 80bd
00000130: 4b07 143e a4cd 923e 05a0 cebd 7e86 953e
00000140: a193 953e 5305 923e cfcf 2a3e 6b32 84be
00000150: 2aff 0abe 7ada f9bd 3cc4 9bbe 4dad 55be
00000160: 5fa5 acbe e542 1bbe 1241 bc3e f992 893e
00000170: 7999 b13e d05e cf3e 0fbf b83d be00 99be
00000180: e375 043e b967 863e b3f1 063e 876f a7be
00000190: 8bf6 c73e db5c 8b3e 8299 3d3e 5b20 b43e
000001a0: 689f 55be 7a06 9e3c d116 a73d 1752 1cbe
000001b0: ac61 22be 3177 d83d f8a5 5c3d bd75 80be
000001c0: 64eb acbe fc66 303c 4b7f 9c3e b5f5 ad3c
000001d0: f2c2 19be d46e 5b3e 6d49 833e 9286 1cbe
000001e0: aa70 813e e2ec b4bd 1777 1bbe 43b2 7b3e
000001f0: 61a7 3c3e 82f1 6abe e895 9f3e 2a18 8bbe

weight f4 [64, 128]
-0.027703281 0.08445547 0.0021649362 0.04672471 0.06078997 -0.05942106 0.08507825 -0.023983832
-0.079545654 -0.057986487 0.012335802 0.08808212 -0.021906056 0.02188569 -0.08064738 0.016579168
0.0135820955 -0.07182429 -0.028398862 -0.033941783 -0.03673674 0.06711046 -0.008023296 -0.05483088
0.022976175 0.04112429 0.03367017 0.007650085 -0.010363467 -0.0667817 -0.05795728 0.05804877
0.07736955 -0.029084329 -0.0026709826 -0.06385309 -0.0028960258 -0.07827878 0.08646786 0.024444023
-0.024674483 0.019193212 0.06066195 0.021296402 0.08289234 -0.03596458 -0.01304858 -0.07610229
0.07553955 -0.07755403 -0.00075040356 -0.05779418 -0.03783927 0.05904231 -0.026597612 0.07779386
0.0376942 -0.061468408 -0.028970426 -0.05797122 -0.070453346 -0.0051684994 -0.058511343 -0.06557851
-0.044891186 0.08343529 0.0750244 0.052788462 0.041695066 0.039255332 -0.0022783321 0.06872614
0.05589847 0.05188591 0.014844962 -0.08489039 -0.06378671 0.018853782 -0.07154178 -0.06569278
0.03539688 -0.043168887 -0.06701163 -0.028747343 -0.0046053333 -0.025042571 -0.03969757 0.061060477
0.029603483 0.083229944 -0.03509116 0.021074794 -0.034870744 0.077670686 0.044192173 -0.020753477
0.029261028 0.02195226 -0.0022944428 -0.051406637 0.0055413097 0.027152801 -0.005757228 0.031471074
0.0472494 0.058117773 -0.017530907 -0.01700562 0.05060865 -0.07069959 0.08190491 0.024167044
0.024085827 0.032102633 -0.055117287 -0.07333441 -0.044874497 0.01926227 0.0011387762 -0.05130032
-0.032025967 0.06976376 0.010952322 -0.014667609 -0.035963893 -0.054312788 -0.07212371 0.057605606
0.052929286 0.08364505 -0.0607058 -0.022128232 -0.036169976 0.0020953047 -0.048791036 0.022198882
0.0027861279 0.04020738 -0.018154496 -0.040801574 -0.011528332 -0.038606238 -0.0065422864 -0.017112242
0.04167903 0.037538394 -0.06369406 0.027126174 0.07376174 0.08677953 -0.018781131 0.030664757
-0.05513521 0.060351945 0.0051644584 0.049144745 0.062058344 -0.045772377 0.064923115 0.031268667
-0.04152115 -0.07208918 0.032477804 0.053880405 0.077645 0.0811722 0.05974071 -0.026937768
-0.028915005 -0.04341434 -0.02185719 0.061899044 0.08386028 -0.014365089 -0.0015601803 -0.023141917
-0.07310376 -0.053455133 0.07619092 -0.039043136 0.027537419 0.026305197 -0.07053581 -0.03982881
-0.059789646 -0.0016900635 0.028900389 0.057543427 0.053520247 -0.06639774 0.031384926 0.054243837
0.031162186 0.079595774 -0.044067733 -0.08477634 -0.06675888 0.01699168 0.08025298 0.042538244
-0.01851236 -0.04527443 0.04650051 0.040636357 0.06505203 -0.077474 -0.04615539 0.026226593
-0.00747451 0.040593505 -0.028209168 -0.07238634 0.0777486 0.004175471 -0.023741035 -0.0863523
0.06663096 0.0005249495 -0.0056786635 -0.073823005 -0.03765239 -0.07625438 -0.010724338 0.003075287
0.021431472 0.056939486 0.013530023 -0.08161974 -0.04043227 -0.014347669 -0.07485057 0.07842639
-0.026197575 -0.047628798 -0.0089202225 -0.04787005 0.0124896625 0.053027432 -0.077411525 0.061070614
0.086698964 0.012240119 0.036840316 -0.073442176 -0.03142736 0.087315984 0.0022675383 0.043949477
-0.0617263 -0.055403244 0.040924683 -0.0053939745 0.037751105 0.084207386 0.06130473 0.04175484
00000000: fef1 e2bc fdf6 ac3d 9ae1 0d3b 6962 3f3d
00000010: e7fe 783d 7f63 73bd 813d ae3d be79 c4bc
00000020: d5e8 a2bd 3d83 6dbd 1b1c 4a3c 6664 b43d
00000030: 5474 b3bc 9e49 b33c 742a a5bd 09d1 873c
00000040: 7087 5e3c 9d18 93bd bba4 e8bc 8a06 0bbd
00000050: 4479 16bd 3571 893d 2474 03bc 5896 60bd
00000060: 8838 bc3c f271 283d bbe9 093d 90ad fa3b
00000070: 88cb 29bc d8c4 88bd 9d64 6dbd 8cc4 6d3d
00000080: ed73 9e3d 4242 eebc a70b 2fbb 69c5 82bd
00000090: 40cb 3dbb a050 a0bd 1016 b13d d53e c83c
000000a0: 2422 cabc 153b 9d3c aa78 783d cb75 ae3c
000000b0: 76c3 a93d 984f 13bd b6c9 55bc 84db 9bbd
000000c0: 7bb4 9a3d a6d4 9ebd bbb6 44ba 97b9 6cbd
000000d0: 5afd 1abd 59d6 713d 3ce3 d9bc 6352 9f3d
000000e0: 3c65 1a3d 4cc6 7bbd 6353 edbc 3b73 6dbd
000000f0: d849 90bd 845c a9bb 97a9 6fbd 074e 86bd
00000100: d2df 37bd 1fe0 aa3d 65a6 993d b738 583d
00000110: 72c8 2a3d 33ca 203d 1250 15bb 4ac0 8c3d
00000120: cbf5 643d 5286 543d 4938 733c 03db adbd
00000130: 9ba2 82bd 3f73 9a3c 7f84 92bd f089 86bd
00000140: 52fc 103d dcd1 30bd 653d 89bd 8c7f ebbc
00000150: 56e8 96bb 1426 cdbc eb99 22bd 8d1a 7a3d
00000160: 0183 f23c 7674 aa3d c0bb 0fbd 0ca5 ac3c
00000170: a0d4 0ebd cf11 9f3d da02 353d 3203 aabc
00000180: d3b4 ef3c 3ad5 b33c 5d5e 16bb c48f 52bd
00000190: e093 b53b 8d6f de3c 21a7 bcbb d0e7 003d
000001a0: 9688 413d e70c 6e3d fa9c 8fbc 5f4f 8bbc
000001b0: 044b 4f3d f2ca 90bd c3bd a73d f7f9 c53c
000001c0: a44f c53c 0d7e 033d aac2 61bd 5a30 96bd
000001d0: 52ce 37bd e8cb 9d3c fd42 953a 4920 52bd
000001e0: a92d 03bd 4de0 8e3d 5e71 333c 6950 70bc
000001f0: e04e 13bd 1677 5ebd 98b5 93bd dbf3 6b3d
00000200: 61cc 583d 194e ab3d a5a6 78bd 4446 b5bc
00000210: f826 14bd 6151 093b 1cd9 47bd 6eda b53c
00000220: 7897 363b 7eb0 243d bdb8 94bc 8d1f 27bd
00000230: 54e1 3cbc 9321 1ebd ad60 d6bb f92e 8cbc
00000240: a1b7 2a3d dcc1 193d 0872 82bd b637 de3c
00000250: 6510 973d 77b9 b13d e3da 99bc a834 fb3c
00000260: 75d5 61bd 9a33 773d 9e3a a93b 004c 493d
00000270: e430 7e3d d17b 3bbd 69f6 843d 9313 003d
00000280: 1512 2abd 7ea3 93bd 7207 053d b3b1 5c3d
00000290: 5704 9f3d 9c3d a63d adb2 743d 98ac dcbc
000002a0: 29df ecbc 3cd3 31bd da0d b3bc da89 7d3d
000002b0: f0be ab3d 8d5b 6bbc f77e ccba 1e94 bdbc
000002c0: 6db7 95bd c5f3 5abd fc09 9c3d b2eb 1fbd
000002d0: 2796 e13c ff7d d73c 1475 90bd 8923 23bd
000002e0: fde5 74bd 1f85 ddba 82c0 ec3c a8b2 6b3d
000002f0: 0c38 5b3d 8afb 87bd 7b8d 003d c92e 5e3d
00000300: d747 ff3c 1c03 a33d 5e80 34bd 389f adbd
00000310: e1b8 88bd 2332 8b3c ad5b a43d 953c 2e3d
00000320: 3ca7 97bc ae71 39bd 5277 3e3d 4f72 263d
00000330: 003a 853d b0aa 9ebd 6f0d 3dbd 27d9 d63c
00000340: bcec f4bb 6045 263d ea16 e7bc 4a3f 94bd
00000350: a83a 9f3d 64d2 883b 8f7c c2bc 7ad9 b0bd
00000360: d075 883d c49c 093a 1514 babb 8430 97bd
00000370: 6439 1abd 422b 9cbd 22b5 2fbc c18a 493b
00000380: 0e91 af3c 6139 693d 08ad 5d3c 4028 a7bd
00000390: 4f9c 25bd 7c12 6bbc 414b 99bd 049e a03d
000003a0: 4c9c d6bc 6a16 43bd 2026 12bc 6313 44bd
000003b0: 71a1 4c3c 4b33 593d ef89 9ebd 2e25 7a3d
000003c0: 3a8f b13d c88a 483c dfe5 163d da68 96bd
000003d0: fab9 00bd b9d2 b23d fb9a 143b 5e04 343d
000003e0: b7d4 7cbd 83ee 62bd a4a0 273d f0bf b0bb
000003f0: e7a0 1a3d ec74 ac3d ab1a 7b3d 2007 2b3d

bias f4 [64]
-0.07241778 -0.025185695 0.07702987 0.07593972 0.03274369 0.057886243 0.042199783 0.10777818
-0.001002097 -0.029803356 0.02899544 -0.005719969 0.06874078 0.042721514 0.0123538785 0.004608446
0.020675277 0.01896532 0.04237844 0.005308352 0.09932525 0.0039004174 -0.0042864014 -0.0016655914
-0.008311333 -0.027902996 -0.03897871 -0.0329444 0.044563588 -0.041160088 0.011047025 -0.02301247
0.05612429 0.05996648 0.035215598 -0.012853776 0.061437335 -0.08628982 0.05819086 -0.087730475
-0.014260602 0.053837564 0.05768531 -0.085056044 0.053565737 0.032816056 0.03345296 0.09649677
-0.02919039 0.061696056 -0.030657236 0.07464348 0.021350106 -0.06957321 -0.012584022 0.115385346
0.06571398 0.13753386 0.046308756 -0.06487752 0.018631283 -0.042056568 0.02699181 0.13057354
00000000: c64f 94bd 3b52 cebc d6c1 9d3d 4986 9b3d
00000010: 3f1e 063d 201a 6d3d aed9 2c3d ceba dc3d
00000020: cc58 83ba 2b26 f4bc d887 ed3c 946e bbbb
00000030: f7c7 8c3d c1fc 2e3d ec67 4a3c 7202 973b
00000040: 335f a93c 295d 9b3c 0495 2d3d aff1 ad3b
00000050: 096b cb3d 259e 7f3b f174 8cbb f94f daba
00000060: 422c 08bc d394 e4bc 24a8 1fbd b5f0 06bd
00000070: 4f88 363d 7b97 28bd 95fe 343c a684 bcbc
00000080: 95e2 653d 699f 753d 3b3e 103d a598 52bc
00000090: b7a5 7b3d b8b8 b0bd 8a59 6e3d 09ac b3bd
000000a0: 4da5 69bc c784 5c3d 6e47 6c3d dd31 aebd
000000b0: bf67 5b3d 216a 063d f905 093d 19a0 c53d
000000c0: af20 efbc 01b5 7c3d e224 fbbc aede 983d
000000d0: 6be6 ae3c 667c 8ebd 372d 4ebc 274f ec3d
000000e0: 0d95 863d add5 0c3e 40ae 3d3d 81de 84bd
000000f0: a2a0 983c 8243 2cbd ee1d dd3c 12b5 053e

weight f4 [32, 64]
0.046685755 -0.089497775 0.14016975 -0.007740991 -0.048769683 0.09083725 0.121134795 -0.03112824
0.115271114 0.0299772 0.12551449 0.11896945 0.08906484 0.13088392 -0.06396722 0.09178427
-0.06292342 -0.06927044 0.058437794 -0.12373705 -0.09682522 -0.11665992 -0.09494371 0.068142526
-0.12858623 0.03664989 0.098298244 0.12597464 -0.21631093 0.10625016 0.07635769 0.075555466
0.0084865475 0.13320303 -0.09941371 -0.050037485 -0.0831819 -0.0025060624 0.031341534 -0.043379024
-0.008132477 0.066906914 -0.03471187 -0.062317178 -0.067048125 -0.0218538 0.06721259 0.09196038
0.0019376781 -0.040250912 -0.09438313 -0.09436493 -0.09613918 -0.008871511 0.05304188 0.02209173
0.0769395 -0.04658091 -0.0810283 -0.010578013 -0.067683205 0.083839655 0.12346911 0.07696448
-0.014421403 -0.018285679 0.0958264 0.15430899 0.00023928468 -0.08432942 0.042682018 -0.17860131
0.03195845 0.08498258 -0.048813347 -0.027577465 0.068644926 0.05530145 -0.10715283 0.032515656
-0.17338724 -0.10359583 -0.027595967 0.12161958 0.160295 -0.044843156 0.06787454 0.024476022
-0.13049646 -0.045827568 -0.021139285 0.04014223 0.14134172 0.06653277 -0.0031143555 0.10746713
0.091427356 0.059745993 -0.08769182 0.052394297 0.09465588 -0.03984447 0.08466879 -0.058559902
0.026310055 0.09269605 -0.073321946 0.020272061 -0.101252645 0.11246834 -0.016277255 0.04198528
0.14339282 0.010345354 -0.05730204 0.05662803 -0.08435056 0.050404496 -0.0039138985 -0.008189259
-0.28974676 -0.29600233 0.13149925 0.05997394 0.037468683 0.029197156 -0.06789841 0.12915069
0.099234715 0.024038032 -0.07202591 -0.10482655 0.09490596 -0.07595096 0.02079938 -0.095096245
-0.10818188 -0.04525165 -0.11399531 -0.11624673 -0.07761128 0.069326684 -0.041865215 0.052267537
-0.0116532445 -0.10569401 0.08529489 0.08807197 0.0076127704 -0.12161937 -0.045629352 -0.05298352
0.10119833 0.055437807 0.04960791 0.08406156 0.10859401 -0.032916173 0.069814205 0.0925245
0.030939013 0.031391885 -0.09603753 0.056366324 0.029805899 0.117985666 -0.02741836 0.036973633
-0.079405494 -0.10965977 -0.04383631 0.0889211 0.09477186 0.082603976 0.067083076 0.0214124
-0.082061365 -0.014049247 0.038256496 -0.0076931254 -0.049840964 0.060927004 0.010603875 0.062495954
-0.017706499 -0.089845344 0.09529131 -0.03705725 -0.10613495 -0.10458955 -0.09571536 -0.08305269
-0.09543282 -0.1108413 0.029669845 0.18446831 0.1440109 0.17421971 -0.11419647 0.009764853
0.14654048 0.03373087 0.16414598 0.007191053 0.018561434 -0.012147449 0.0046957782 -0.06343463
0.055678427 -0.11377905 0.0584761 0.054697435 0.10767928 -0.050922208 -0.033185408 0.17580752
0.005946736 0.12715468 -0.005754414 0.1747547 0.10332772 -0.09075417 -0.011059433 0.111029126
-0.043227967 0.14451443 -0.008729803 0.043956432 0.04913145 -0.040523767 0.035736714 -0.092227384
0.024894921 0.10758044 0.13786241 0.029469848 0.07868799 0.051287934 -0.06381741 0.09110137
0.17423104 -0.06665036 0.011627011 -0.025210174 -0.0051411767 0.072911926 0.07315796 -0.05028693
0.20031293 0.26985577 0.14235865 -0.11974867 0.10650849 -0.09176028 0.054213874 0.13729544
00000000: 9039 3f3d 9c4a b7bd a988 0f3e 24a8 fdbb
00000010: b8c2 47bd e108 ba3d 8515 f83d a700 ffbc
00000020: 4313 ec3d bf92 f53c df86 003e 41a6 f33d
00000030: a067 b63d 6f06 063e 3f01 83bd 64f9 bb3d
00000040: fedd 80bd a9dd 8dbd 785c 6f3d da69 fdbd
00000050: 4d4c c6bd 65eb eebd d971 c2bd 4f8e 8b3d
00000060: 1cac 03be 321e 163d 9750 c93d 7fff 003e
00000070: 9d80 5dbe af99 d93d 6c61 9c3d d3bc 9a3d
00000080: 290b 0b3c 6066 083e 6a99 cbbd 1bf4 4cbd
00000090: 465b aabd c03c 24bb fb5f 003d 34ae 31bd
000000a0: 153e 05bc 7e06 893d 092e 0ebd 4c40 7fbd
000000b0: 8750 89bd be06 b3bc c1a6 893d b955 bc3d
000000c0: b0f9 fd3a 24de 24bd f14b c1bd 6742 c1bd
000000d0: 9ee4 c4bd d059 11bc 7142 593d b7f9 b43c
000000e0: 7592 9d3d a0cb 3ebd 2af2 a5bd 674f 2dbc
000000f0: 7e9d 8abd 20b4 ab3d 5fdd fc3d 8e9f 9d3d
00000100: c047 6cbc d9cb 95bc a240 c43d 2d03 1e3e
00000110: 7ee8 7a39 e7b4 acbd 57d3 2e3d 43e3 36be
00000120: dde6 023d 590b ae3d 81f0 47bd 23ea e1bc
00000130: b695 8c3d c683 623d f172 dbbd 232f 053d
00000140: 6d8c 31be 0d2a d4bd f010 e2bc b013 f93d
00000150: 5f24 243e 75ad 37bd cf01 8b3d f081 c83c
00000160: dda0 05be b0b5 3bbd 4b2c adbc 2e6c 243d
00000170: e2bb 103e 5542 883d 371a 4cbb ba17 dc3d
00000180: 443e bb3d 37b8 743d c597 b3bd 679b 563d
00000190: f1da c13d f433 23bd d566 ad3d 82dc 6fbd
000001a0: 2f88 d73c 6dd7 bd3d d129 96bd 9811 a63c
000001b0: 8c5d cfbd cd55 e63d e157 85bc c2f8 2b3d
000001c0: 91d5 123e 8f7f 293c 8bb5 6abd cbf2 673d
000001d0: fdbf acbd f274 4e3d 2940 80bb 3e2c 06bc
000001e0: b059 94be 9e8d 97be bda7 063e 3ca7 753d
000001f0: c378 193d e02e ef3c 520e 8bbd 1440 043e
00000200: 923b cb3d 68eb c43c 5282 93bd 4daf d6bd
00000210: 0e5e c23d 2d8c 9bbd 7663 aa3c d2c1 c2bd
00000220: 768e ddbd cb59 39bd 6076 e9bd c412 eebd
00000230: aaf2 9ebd 26fb 8d3d dc7a 2bbd 7c16 563d
00000240: 40ed 3ebc 1a76 d8bd 16af ae3d 145f b43d
00000250: 8c74 f93b 9413 f9bd d8e5 3abd 3f05 59bd
00000260: 1241 cf3d c112 633d aa31 4b3d 7828 ac3d
00000270: 8966 de3d 1cd3 06bd c0fa 8e3d 7c7d bd3d
00000280: d073 fd3c c794 003d 53af c4bd 60e0 663d
00000290: 802b f43c 78a2 f13d 789c e0bc aa71 173d
000002a0: 599f a2bd 4d95 e0bd b48d 33bd 441c b63d
000002b0: c017 c23d 462c a93d da62 893d 0f69 af3c
000002c0: ca0f a8bd d02e 66bc d8b2 1c3d 9d16 fcbb
000002d0: 0a26 4cbd 988e 793d e0bb 2d3c c2fb 7f3d
000002e0: 380d 91bc d600 b8bd 1728 c33d 58c9 17bd
000002f0: 485d d9bd 0c33 d6bd 6a06 c4bd 8717 aabd
00000300: 4872 c3bd c300 e3bd 2d0e f33c 43e5 3c3e
00000310: 9877 133e a766 323e d7df e9bd c3fc 1f3c
00000320: b50e 163e 6129 0a3d e215 283e eda2 eb3b
00000330: 260e 983c 1806 47bc 0bdf 993b 04ea 81bd
00000340: 100f 643d fe04 e9bd a384 6f3d 6b0a 603d
00000350: f486 dc3d ce93 50bd 6ced 07bd e306 343e
00000360: d6dc c23b d634 023e 868f bcbb e5f2 323e
00000370: 7c9d d33d 53dd b9bd a032 35bc 3d63 e33d
00000380: cf0f 31bd 97fb 133e 7307 0fbc a90b 343d
00000390: 0f3e 493d 40fc 25bd a960 123d b6e1 bcbd
000003a0: 6ff0 cb3c 2253 dc3d ce2b 0d3e c06a f13c
000003b0: 2b27 a13d 4c13 523d b4b2 82bd 5b93 ba3d
000003c0: 9f69 323e fc7f 88bd 387f 3e3c 9185 cebc
000003d0: 5177 a8bb d952 953d d7d3 953d abf9 4dbd
000003e0: d51e 4d3e 892a 8a3e 77c6 113e ca3e f5bd
000003f0: 2021 da3d d0ec bbbd 5e0f 5e3d 2d97 0c3e

bias f4 [32]
-0.07115879 0.10861876 -0.04669804 0.09941853 -0.087830484 -0.021182463 0.17168707 0.12072614
0.1353961 -0.00941866 -0.008101844 0.07012739 0.01715604 -0.033767458 -0.07837918 0.01315373
-0.13771226 -0.03854336 0.08320018 0.009029402 0.14066671 -0.114343524 0.01445785 -0.035498288
0.12449798 0.0925678 0.06189952 -0.0066749994 -0.084724195 0.035890248 -0.07797754 0.094743714
00000000: b3bb 91bd 8373 de3d 7246 3fbd f19b cb3d
00000010: 78e0 b3bd d886 adbc bcce 2f3e 443f f73d
00000020: 46a5 0a3e b950 1abc 99bd 04bc f39e 8f3d
00000030: d38a 8c3c bf4f 0abd 4385 a0bd be82 573c
00000040: 7104 0dbe a4df 1dbd db64 aa3d 0ff0 133c
00000050: ef0a 103e f02c eabd 9ee0 6c3c a766 11bd
00000060: ccf8 fe3d 3094 bd3d 5a8a 7d3d f4b9 dabb
00000070: e183 adbd a701 133d b0b2 9fbd fe08 c23d

weight f4 [128, 7]
-0.24353793 0.20559794 -0.07525216 0.2843206 -0.18806653 0.01907353 0.16041231 0.045902774
-0.3318379 -0.020727424 0.29927593 0.029822426 -0.0035272776 -0.061771624 0.21605712 0.2117546
-0.19774929 -0.26008186 -0.36189374 -0.32057017 0.22812349 -0.3776739 -0.07088117 0.0758421
0.37946633 0.26106516 0.039726127 0.12381933 -0.22784212 -0.090309344 0.30165952 -0.2513843
0.2625146 -0.08338248 -0.28271347 0.10351473 0.24631615 0.23478803 0.2850594 0.34446406
-0.2453603 0.3358921 0.2455206 0.19175607 0.38898155 -0.13316657 0.22604539 -0.21585521
0.1843626 -0.1967981 0.26054388 -0.13723427 0.32736957 -0.2240487 -0.25441015 0.29421914
-0.36316818 -0.18754089 -0.30386332 0.27571958 0.28834516 0.20800076 -0.04785291 0.22460298
0.28575104 0.17667985 0.30917242 -0.33537346 0.009967346 -0.30454177 -0.081126936 -0.30420545
-0.3005464 -0.3289093 0.3213614 -0.17981613 0.012365217 0.33812168 0.25676456 0.019516962
-0.014604912 -0.02431751 -0.12593038 0.07906077 -0.12549004 0.1304281 0.24505092 -0.23945975
-0.202602 -0.30785224 0.3284788 0.38909295 -0.14017853 -0.096735224 -0.28738257 -0.30595434
-0.36228073 0.040315647 -0.013769464 0.32444936 0.009176456 0.34247935 -0.25258976 0.12798236
-0.31813717 0.29927862 0.08700565 0.27818105 -0.057199705 0.28169763 0.40631026 -0.16218367
-0.24272981 -0.29830706 0.15106529 -0.15135933 0.003919768 0.072771855 -0.15307501 -0.3576522
-0.24215557 -0.068222284 -0.11921608 -0.014225492 -0.3249797 -0.3482922 0.40219235 0.23251587
0.009136296 -0.23948213 0.109955736 0.1008435 0.07993199 0.122279406 -0.16446936 0.037677597
0.16494264 -0.21488579 0.31483114 -0.17793518 -0.047048163 0.028512213 0.04875379 -0.11910188
-0.37018114 -0.026748158 -0.23199101 0.40652794 -0.35347655 -0.15442623 -0.38442412 0.14682665
-0.21281002 0.0994696 -0.42624944 0.25447047 -0.19936806 0.10173294 -0.16154024 0.052261557
0.389905 -0.44748068 0.31659263 0.26878378 -0.066056505 0.33023804 -0.0063714376 0.06033264
0.45883802 -0.35989636 0.025444273 -0.2629026 -0.010367999 0.17842662 0.12322871 -0.35676366
-0.20270507 0.12726706 -0.116983056 -0.31351754 0.045325413 -0.048511792 -0.11488674 -0.38294303
-0.07131463 -0.3343936 -0.33574232 0.23831269 0.24200818 0.5032503 -0.31525192 0.37048107
-0.09058784 0.023187365 -0.22963744 0.30144227 0.49289152 -0.22779353 -0.31841168 0.0045972327
0.2222208 0.060919777 -0.2158454 -0.28159893 0.030281974 -0.24362569 -0.37903988 -0.053524632
0.0017718298 0.23247424 0.37683275 -0.14529994 0.22569257 0.03337671 -0.34895548 0.13873897
-0.14383188 0.20325424 -0.19781438 -0.0037862002 0.21026836 -0.18540956 0.089529455 0.057399984
0.0070343465 0.09355722 0.34918723 0.3616076 -0.014635343 -0.09554265 0.10183266 0.4403504
-0.149209 -0.022091856 -0.38901493 -0.32673106 -0.29367033 0.082474194 0.2730908 -0.19292967
0.29849723 0.37273312 0.18465723 -0.19617051 -0.12102255 -0.29719207 -0.2669873 -0.33223486
0.329787 0.16450796 -0.017728956 -0.30840203 -0.2218872 -0.26900363 0.39699292 0.17346032
00000000: 0262 79be 4488 523e ce1d 9abd 7892 913e
00000010: 8394 40be 1740 9c3c 2043 243e 8c04 3c3d
00000020: a8e6 a9be 8fcc a9bc b23a 993e 294e f43c
00000030: e629 67bb 3e04 7dbd 143e 5d3e 33d6 583e
00000040: ca7e 4abe 7329 85be 234a b9be c621 a4be
00000050: 3499 693e 795e c1be 262a 91bd 1a53 9b3d
00000060: 6949 c23e 55aa 853e ddb7 223d fd94 fd3d
00000070: 724f 69be 1bf4 b8bd 1e73 9a3e 71b5 80be
00000080: 5068 863e 6fc4 aabd d2bf 90be 88ff d33d
00000090: 4d3a 7c3e 466c 703e 4ef3 913e 985d b03e
000000a0: bb3f 7bbe 0dfa ab3e c169 7b3e b45b 443e
000000b0: 9728 c73e d15c 08be 7178 673e 2609 5dbe
000000c0: 8dc9 3c3e 7185 49be 0266 853e 2487 0cbe
000000d0: fc9c a73e 066d 65be 0c42 82be e4a3 963e
000000e0: 2ef1 b9be b80a 40be f993 9bbe 1e2b 8d3e
000000f0: faa1 933e 27fe 543e 6a01 44bd 53fe 653e
00000100: f64d 923e 90eb 343e d94b 9e3e 12b6 abbe
00000110: 144e 233c e6ec 9bbe e125 a6bd d1c0 9bbe
00000120: 38e1 99be cd66 a8be 7b89 a43e b821 38be
00000130: 7b97 4a3c 491e ad3e a576 833e 09e2 9f3c
00000140: 7149 6fbc 8435 c7bc e5f3 00be 9dea a13d
00000150: 7680 00be f28e 053e a1ee 7a3e f034 75be
00000160: e676 4fbe cf9e 9dbe 602e a83e 3137 c73e
00000170: f68a 0fbe 1e1d c6bd cf23 93be 0ca6 9cbe
00000180: dc7c b9be 0522 253d 5199 61bc 3a1e a63e
00000190: d958 163c 7459 af3e 7253 81be cf0d 033e
000001a0: e0e2 a2be 0c3b 993e 0530 b23d bf6d 8e3e
000001b0: 3d4a 6abd ac3a 903e e607 d03e 7a13 26be
000001c0: 2a8e 78be b4bb 98be dcb0 1a3e f1fd 1abe
000001d0: 6671 803b 6909 953d b2bf 1cbe 301e b7be
000001e0: a1f7 77be 20b8 8bbd 8f27 f4bd 0a12 69bc
000001f0: bd63 a6be 5b53 b2be 28ec cd3e a418 6e3e
00000200: 67b0 153c ce3a 75be 7930 e13d 0987 ce3d
00000210: 62b3 a33d a06d fa3d a86a 28be d353 1a3d
00000220: b9e6 283e 050b 5cbe 8c31 a13e a434 36be
00000230: 93b5 40bd 7292 e93c 0eb2 473d b0eb f3bd
00000240: 6288 bdbe f41e dbbc 0d8f 6dbe 6e24 d03e
00000250: e1fa b4be e921 1ebe 3dd3 c4be ba59 163e
00000260: dfea 59be b8b6 cb3d 5e3d dabe f449 823e
00000270: 2427 4cbe 5c59 d03d ce6a 25be 3710 563d
00000280: a1a1 c73e 301c e5be 6e18 a23e 079e 893e
00000290: a248 87bd f614 a93e 7ec7 d0bb 5c1f 773d
000002a0: d1ec ea3e 5644 b8be 8270 d03c 2b9b 86be
000002b0: 8ade 29bc 78b5 363e 555f fc3d baa9 b6be
000002c0: eb91 4fbe 4c52 023e d094 efbd 5f85 a0be
000002d0: 24a7 393d 4db4 46bd bd49 ebbd 1c11 c4be
000002e0: 680d 92bd a335 abbe 6be6 abbe 3e08 743e
000002f0: fed0 773e 03d5 003f b368 a1be b2af bd3e
00000300: 1e86 b9bd 6ef3 bd3c 1426 6bbe a456 9a3e
00000310: 475c fc3e b542 69be db06 a3be 62a4 963b
00000320: d98d 633e 0487 793d 9406 5dbe bc2d 90be
00000330: e711 f83c 0379 79be 8411 c2be a53c 5bbd
00000340: be3c e83a ba0d 6e3e 39f0 c03e 82c9 14be
00000350: f41b 673e 04b6 083d 4baa b2be 9711 0e3e
00000360: aa48 13be e121 503e da8f 4abe e621 78bb
00000370: 9750 573e 01dc 3dbe 385b b73d 3f1c 6b3d
00000380: 6080 e63b ee9a bf3d abc8 b23e a224 b93e
00000390: 14c9 6fbc ddab c3bd a48d d03d 9c75 e13e
000003a0: 3eca 18be fbf9 b4bc f72c c7be 4b49 a7be
000003b0: f55b 96be 3be8 a83d 8fd2 8b3e 5b8f 45be
000003c0: a1d4 983e e0d6 be3e c916 3d3e ece0 48be
000003d0: acda f7bd 8f29 98be 8fb2 88be b01a aabe
000003e0: d7d9 a83e c674 283e 513c 91bc dfe6 9dbe
000003f0: 6636 63be d8ba 89be a842 cb3e 959f 313e

bias f4 [128]
0.15805463 -0.3672869 0.3083854 0.25049937 -0.33225742 0.22353914 -0.049618747 -0.11879172
0.24330235 0.07132036 -0.008374019 -0.12089226 -0.25964803 0.18937536 0.4712011 -0.10800788
-0.35766834 -0.20772599 0.3306116 -0.29214555 -0.10973993 -0.031309713 0.36574337 0.29979217
0.36175418 -0.37092406 0.02682349 -0.06606335 0.24931298 0.31949997 -0.114903994 0.40592283
-0.33979598 -0.10799585 0.16409735 0.41986004 -0.0971047 0.30286217 0.34860393 0.13508958
-0.14407383 0.23954424 -0.11400431 0.40430605 0.21590255 0.30731094 -0.19917662 0.42832658
-0.2748245 0.028013147 0.083719864 -0.26000106 -0.16357458 0.31879094 0.3917412 0.27236974
-0.029161504 0.1762135 0.26780567 0.15373266 0.036290698 0.18184438 -0.376929 -0.22584024
-0.13780136 -0.08305116 -0.29856592 0.042596485 0.21564315 -0.33760697 -0.071936324 -0.14390875
-0.13890643 -0.22130032 0.365363 0.22725095 -0.3276172 -0.09027749 0.30443352 -0.008330679
0.32694477 0.4818669 -0.37745902 0.42926806 0.39541274 0.27270508 -0.2770412 0.17338482
-0.25310528 -0.10453216 0.27415162 0.24973297 -0.01784262 0.47500062 0.41076654 -0.01486967
-0.17536362 -0.27918848 -0.25013825 0.18138538 0.029461307 0.14118844 0.28101054 0.2623228
0.10052579 0.40504178 0.26413766 -0.35455385 0.32067543 0.29624155 -0.18330765 0.37302184
0.2935166 -0.26251552 0.3052348 0.490678 -0.19380724 0.25977495 0.0018286161 0.15938452
0.3890063 -0.24711223 0.34759146 -0.22756167 0.14692436 0.1779348 0.34309232 -0.16689181
00000000: 13d9 213e 070d bcbe b1e4 9d3e 7441 803e
00000010: a51d aabe 72e7 643e 073d 4bbd 1349 f3bd
00000020: 4024 793e 6910 923d 2e33 09bc 5c96 f7bd
00000030: 96f0 84be 9deb 413e 4541 f13e 3c33 ddbd
00000040: 4e20 b7be 1fb6 54be ec45 a93e 1a94 95be
00000050: 54bf e0bd 9d3e 00bd b742 bb3e 5c7e 993e
00000060: d837 b93e c2e9 bdbe f0bc db3c 394c 87bd
00000070: e74b 7f3e 8095 a33e c952 ebbd 1ed5 cf3e
00000080: bdf9 adbe ee2c ddbd 2309 283e e5f7 d63e
00000090: d4de c6bd c010 9b3e 377c b23e ec54 0a3e
000000a0: 1788 13be 164b 753e 177b e9bd 3401 cf3e
000000b0: 8f15 5d3e dc57 9d3e f5f4 4bbe 9f4d db3e
000000c0: ccb5 8cbe d47b e53c 5275 ab3d dc1e 85be
000000d0: 1880 27be 9138 a33e 4d92 c83e 0c74 8b3e
000000e0: 1be4 eebc 5071 343e d31d 893e 186c 1d3e
000000f0: 8ea5 143d 6a35 3a3e d6fc c0be aa42 67be
00000100: cd1b 0dbe ba16 aabd a2dd 98be a779 2e3d
00000110: 8fd1 5c3e d2da acbe 5a53 93bd d15c 13be
00000120: 7d3d 0ebe 8d9c 62be dc10 bb3e 79b4 683e
00000130: 71bd a7be 68e3 b8bd b6de 9b3e 667d 08bc
00000140: 4e65 a73e 42b7 f63e 4f42 c1be 06c9 db3e
00000150: 8a73 ca3e 00a0 8b3e 58d8 8dbe ca8b 313e
00000160: 0497 81be f514 d6bd 9a5d 8c3e 00ba 7f3e
00000170: b02a 92bc 4833 f33e fe4f d23e eb9f 73bc
00000180: 8592 33be cbf1 8ebe 1f12 80be 17bd 393e
00000190: d758 f13c b493 103e 9de0 8f3e 2d4f 863e
000001a0: 77e0 cd3d a361 cf3e 0d3d 873e 1588 b5be
000001b0: 922f a43e f9ac 973e 00b5 3bbe b8fc be3e
000001c0: cf47 963e 6f68 86be bc47 9c3e 263a fb3e
000001d0: 6875 46be 3901 853e 2dae ef3a b235 233e
000001e0: d52b c73e fd0a 7dbe 82f7 b13e ed05 69be
000001f0: 5773 163e 8a34 363e cca9 af3e b0e5 2abe

weight f4 [64, 128]
0.076615274 0.012154045 -0.05031871 0.046055306 -0.07733876 -0.033207837 -0.05750359 -0.0770296
-0.013530624 0.013322134 -0.0051865913 0.043725573 -0.056656446 0.038309187 0.019758126 -0.040260438
-0.06498225 0.05542517 -0.016424479 0.063923575 0.019646047 0.059972476 -0.056022823 0.019342138
-0.08529617 -0.087358855 0.07595658 -0.02144243 -0.059188716 -0.041601047 0.021274053 -0.034120023
-0.07959292 -0.009635559 0.06952405 0.04478544 0.039860908 0.043852456 -0.06868346 0.08272714
0.016490934 0.06405167 -0.016415512 0.007916779 -0.05780573 0.033449456 -0.00744994 0.061848275
-0.083405964 0.01829267 0.055794533 0.0012549751 -0.05608676 -0.07882831 -0.063244045 -0.072915964
0.061070096 0.077547416 -0.038273003 0.02692779 0.058046147 0.06641198 0.030237097 0.020347476
0.071173854 -0.06927402 0.058443 -0.0785165 0.072922915 0.027639018 0.04136553 0.083490744
-0.017098196 -0.0076454696 -0.04007587 0.007241271 -0.033788644 -0.015695887 -0.07989774 -0.07318428
0.032085437 -0.08347219 0.0070022983 0.01521321 -0.038216677 0.04327141 -0.047405235 -0.050318554
0.0837957 -0.00828213 0.08298641 0.07957998 0.055192973 -0.00011718931 -0.042378288 -0.054066997
-0.078040466 -0.030584428 -0.03300756 0.027114986 -0.03995461 0.035338845 -0.022839209 -0.06517425
0.076818496 -0.07042087 -0.0852486 0.042294066 -0.007957915 -0.06207669 0.047291543 0.027471589
0.019796006 -0.0015535855 -0.016726123 -0.06529691 -0.014383044 0.05682909 -0.0089121405 -0.0019379964
0.05599725 0.086060904 -0.038004264 -0.08661919 0.01738526 0.0067265104 -0.011291256 0.031925857
0.0047466876 -0.04793779 -0.053214245 -0.0028897289 -0.08200058 -0.029823637 0.05396182 -0.07213292
-0.06430989 -0.025676297 -0.006139179 -0.06387345 0.07205985 -0.03608937 0.02298669 -0.020406393
-0.006410683 -0.03630266 -0.091782674 -0.0006067671 0.017306756 0.011981544 -0.0664934 -0.0070039104
-0.07094152 -0.08110104 -0.0043723662 0.015585029 0.048548535 -0.079440184 -0.050856624 -0.06833339
-0.047258105 0.052301046 -0.013325211 -0.054005336 -0.075880334 -0.05236455 -0.024687003 0.034298137
-0.053823434 0.017682388 0.06490084 0.024022829 0.024435773 -0.08115087 0.0064510494 0.047349427
0.07235488 -0.0698979 0.079634786 0.0041125524 0.04972345 -0.048255526 0.054536484 0.062172987
-0.022708694 0.021530982 -0.0082151145 -0.08040273 0.012560479 0.058531947 -0.07380218 -0.078798994
0.07974625 0.08704986 0.008019734 -0.017404092 -0.0014799186 -0.07522558 -1.4856764e-05 0.08417307
0.04003959 0.006141628 0.07560719 0.06336606 0.060514666 0.05842528 0.046944004 0.006843305
-0.06648066 -0.04217817 0.018580722 0.061376635 0.005745172 -0.033745136 0.071306996 -0.030910885
-0.05768608 0.0028961627 0.041169625 -0.05197863 0.037081506 -0.09658917 0.049809616 0.0763866
0.0722095 -0.054520555 0.058931883 0.030708192 -0.08128449 -0.008419149 0.06576884 -0.054164957
-0.092094965 -0.02390745 0.07105175 0.024654347 -0.013142668 -0.081843294 0.05947147 -0.043460965
0.069472685 -0.0051085036 0.008875442 -0.02623382 -0.005181892 0.082 0.010014118 0.03595226
0.071049474 0.054371394 0.056530923 0.038494382 0.058088806 0.04795337 -0.098554984 -0.015101449
00000000: 78e8 9c3d c221 473c fe1a 4ebd 7da4 3c3d
00000010: c963 9ebd f104 08bd e288 6bbd b2c1 9dbd
00000020: 8daf 5dbc 1445 5a3c 48f4 a9bb 9619 333d
00000030: 9710 68bd 18ea 1c3d cbdb a13c 21e8 24bd
00000040: 6a15 85bd 8105 633d a18c 86bc 5dea 823d
00000050: bff0 a03c b3a5 753d 3078 65bd 6773 9e3c
00000060: c2af aebd 33e9 b2bd 208f 9b3d 09a8 afbc
00000070: de6f 72bd dc65 2abd ec46 ae3c 70c1 0bbd
00000080: 9d01 a3bd 77de 1dbc a062 8e3d f070 373d
00000090: 3145 233d a29e 333d eaa9 8cbd d96c a93d
000000a0: ff17 873c 862d 833d d379 86bc 61b5 013c
000000b0: b3c5 6cbd 4c02 093d a01e f4bb 9e54 7d3d
000000c0: bfd0 aabd 82da 953c cf88 643d fa7d a43a
000000d0: 3bbb 65bd bd70 a1bd 1886 81bd f754 95bd
000000e0: a324 7a3d 2ed1 9e3d 27c4 1cbd ab97 dc3c
000000f0: ccc1 6d3d 0103 883d cab3 f73c c0af a63c
00000100: 99c3 913d 8adf 8dbd ed61 6f3d 42cd a0bd
00000110: 9c58 953d 396b e23c e76e 293d 32fd aa3d
00000120: 8411 8cbc d986 fabb 9826 24bd 2f48 ed3b
00000130: f665 0abd a994 80bc 6da1 a3bd a4e1 95bd
00000140: 056c 033d 78f3 aabd 8973 e53b d440 793c
00000150: 1789 1cbd 5d3d 313d fe2b 42bd d41a 4ebd
00000160: 149d ab3d c5b1 07bc c7f4 a93d d4fa a23d
00000170: 0712 623d 88c3 f5b8 db94 2dbd 5b75 5dbd
00000180: aed3 9fbd 328c fabc ef32 07bd 3f20 de3c
00000190: 72a7 23bd 77bf 103d 4b19 bbbc 147a 85bd
000001a0: 0453 9d3d d138 90bd d196 aebd 8b3c 2d3d
000001b0: ea61 02bc 2144 7ebd c7b4 413d 190c e13c
000001c0: 3c2b a23c aea1 cbba 3905 89bc 63ba 85bd
000001d0: dca6 6bbc 9fc5 683d 3a04 12bc 5e04 feba
000001e0: 5f5d 653d b340 b03d 5caa 1bbd 6765 b1bd
000001f0: 886b 8e3c 0f6a dc3b f6fe 38bc b0c4 023d
00000200: 1a8a 9b3b 6b5a 44bd 2ef7 59bd 9b61 3dbb
00000210: ecef a7bd b350 f4bc 1207 5d3d 6dba 93bd
00000220: e7b4 83bd 1957 d2bc 2b2b c9bb 15d0 82bd
00000230: 1d94 933d 72d2 13bd 954e bc3c 4f2b a7bc
00000240: b510 d2bb 19b2 14bd 8ef8 bbbd 730f 1fba
00000250: e6c6 8d3c 3d4e 443c b12d 88bd 0f81 e5bb
00000260: ca49 91bd 4d18 a6bd 1146 8fbb 5958 7f3c
00000270: d4da 463d 89b1 a2bd 094f 50bd 60f2 8bbd
00000280: b791 41bd 9f39 563d fc51 5abc b334 5dbd
00000290: 2667 9bbd 367c 56bd 663c cabc 347c 0c3d
000002a0: f675 5cbd a8da 903c bbea 843d 86cb c43c
000002b0: 882d c83c 6d32 a6bd 5363 d33b 79f1 413d
000002c0: cc2e 943d a126 8fbd 9017 a33d 97c2 863b
000002d0: d1aa 4b3d 96a7 45bd a661 5f3d 1aa9 7e3d
000002e0: 9507 babc be61 b03c b098 06bc 30aa a4bd
000002f0: 78ca 4d3c 32bf 6f3d 9925 97bd 5e61 a1bd
00000300: 0052 a33d 3247 b23d 3465 033c 0793 8ebc
00000310: d4f9 c1ba de0f 9abd 5141 79b7 ee62 ac3d
00000320: 8e00 243d b63f c93b f1d7 9a3d 11c6 813d
00000330: 3ade 773d 594f 6f3d 5b48 403d ce3d e03b
00000340: 0327 88bd 04c3 2cbd 9936 983c 1166 7b3d
00000350: ff41 bc3b 5738 0abd 6709 923d d338 fdbc
00000360: 3d48 6cbd 8ccd 3d3b 7ba1 283d 8be7 54bd
00000370: c7e2 173d 8bd0 c5bd 2b05 4c3d 9470 9c3d
00000380: 93e2 933d f250 5fbd 8f62 713d bf8f fb3c
00000390: 7c78 a6bd 78f0 09bc d0b1 863d 13dc 5dbd
000003a0: 499c bcbd 8ed9 c3bc 9483 913d eaf7 c93c
000003b0: 5854 57bc 759d a7bd 5b98 733d 2004 32bd
000003c0: b247 8e3d 3c65 a7bb 4d6a 113c 4fe8 d6bc
000003d0: dccc a9bb 9eef a73d 4112 243c ad42 133d
000003e0: 6382 913d 8ab4 5e3d f88c 673d 49ac 1d3d
000003f0: 87ee 6d3d c16a 443d 32d7 c9bd 116c 77bc

bias f4 [64]
0.003037323 0.075376086 -0.0019185666 0.02061452 0.023431847 0.014207697 0.07264335 0.033189956
0.020369641 0.02368672 0.05643341 0.025728112 0.00033490334 -0.02902507 -0.009174189 -0.0757275
0.018542277 0.15269184 -0.010632402 0.08938778 0.09851685 -0.0733428 0.092054404 -0.0789086
0.08364579 -0.025462428 0.090439446 0.07052647 0.03873551 0.056813132 -0.05281835 0.07206493
0.051540222 0.09019473 0.11733995 0.028713312 -0.041527048 0.06740572 0.11512872 -0.061151978
0.009380723 -0.0043602386 0.06442366 0.06803004 0.013888712 0.098926574 -0.027220773 0.023095155
-0.0181779 0.044379424 0.042261843 0.04104633 0.072987676 0.1420401 -0.027517207 0.11721718
0.10703197 -0.051026337 -0.029505335 -0.082921416 0.08433268 0.05684458 -0.03493836 0.15284687
00000000: d30d 473b c75e 9a3d 6a78 fbba c8df a83c
00000010: 25f4 bf3c 66c7 683c 09c6 943d 31f2 073d
00000020: 3cde a63c a70a c23c b826 673d c3c3 d23c
00000030: f795 af39 fcc5 edbc 564f 16bc 0517 9bbd
00000040: f9e5 973c 405b 1c3e 8733 2ebc f110 b73d
00000050: 34c3 c93d c034 96bd 0587 bc3d d59a a1bd
00000060: 7c4e ab3d 9596 d0bc 5138 b93d 2f70 903d
00000070: 20a9 1e3d e3b4 683d 0e58 58bd c796 933d
00000080: d71b 533d 04b8 b83d ed4f f03d 2e38 eb3c
00000090: 4418 2abd 030c 8a3d 9bc8 eb3d 7f7a 7abd
000000a0: 9bb1 193c 55e0 8ebb 8df0 833d 5553 8b3d
000000b0: 7b8d 633c 049a ca3d 19fe debc 0d32 bd3c
000000c0: d2e9 94bc 33c7 353d c11a 2d3d 3220 283d
000000d0: 907a 953d f672 113e c46b e1bc 900f f03d
000000e0: 9433 db3d fe00 51bd 2cb5 f1bc b4d2 a9bd
000000f0: 9db6 ac3d ddd5 683d 871b 0fbd e483 1c3e

weight f4 [32, 64]
-0.124291375 -0.005730137 0.0341781 -0.08423408 0.003586267 0.012648397 -0.06727856 -0.023546495
-0.037420392 0.11383025 -0.0016328964 0.11312532 -0.031392574 -0.0744828 0.080491304 -0.034346104
0.09149095 0.059216358 -0.015687376 0.046534155 -0.01899378 0.0739283 0.032207437 -0.03493999
-0.058298927 0.061937645 -0.099597245 0.121668756 0.096701205 0.05086784 -0.08278388 0.0067480505
0.06619815 0.04441762 0.041097205 0.040442556 0.013617352 -0.012291103 -0.08597618 0.060742006
-0.12498236 0.034054186 -0.11533243 -0.12362402 -0.05211617 -0.015606415 0.04867649 0.04631053
-0.12205808 0.107964344 -0.009117633 -0.05335796 0.022115096 -0.0063430513 0.07196716 -0.0066549373
-0.06732458 -0.08763139 0.09805195 -0.015668735 -0.02270848 -0.109933004 -0.08605565 -0.008692157
0.05935523 -0.077544354 0.20428011 -0.13201192 0.12121857 -0.10488707 -0.030182753 0.024741407
0.011448482 0.0013772851 0.0148627665 0.01724392 -0.10068359 0.26486933 0.008085027 0.07774529
0.033830836 0.093204744 0.119213775 0.1882648 0.021069182 -0.18028414 0.057276998 -0.0062372684
0.08633782 0.12384488 0.022199068 0.027705371 -0.04820404 0.28158408 0.057562307 -0.116127715
-0.08287617 -0.06906192 0.25417718 0.048426505 -0.07070243 0.08866427 0.04627263 -0.08632615
0.17312153 0.020342048 -0.030064037 -0.08720045 0.05937271 0.08156246 -0.041191712 0.07186497
-0.124868415 -0.14919282 -0.12065236 0.08414212 0.11831767 0.015352217 0.24592525 0.17542544
-0.09016013 0.074335515 -0.1391463 0.099314384 0.24126299 0.15956955 0.051039357 0.1269352
-0.05391021 0.008456715 0.019024504 -0.1155505 0.08979538 -0.077859595 -0.030505616 0.12415588
0.02101087 -0.038350012 -0.13862962 0.13886742 0.10281138 0.15916117 0.03088054 0.115431964
0.17486204 0.122072384 -0.0834932 0.11081822 0.098417215 -0.20399442 0.21383259 -0.114038825
0.05345695 -0.06320253 0.07778757 0.022113487 0.008418086 0.11535895 0.13540347 -0.106605835
0.110845886 0.02103802 0.12265689 -0.088751756 0.06257594 0.04382553 -0.0854081 0.105732486
0.09659357 0.035004165 -0.05343215 0.0066095362 -0.07986507 -0.11523085 0.06492084 -0.07120531
-0.053310797 -0.12608343 -0.19162934 -0.096781164 0.017709246 0.03604364 0.16019048 0.06470454
-0.095955476 -0.050903946 -0.11285974 -0.0924048 0.20747201 0.035740457 0.17493725 0.10608678
0.1146428 -0.11800639 -0.072485425 0.0530379 0.0071625886 0.045641825 -0.120028555 -0.043207597
-0.0006572902 0.03815882 -0.1046668 0.08544 -0.08637886 -0.09787538 0.05530055 0.044802994
0.032457683 -0.027719961 0.11176363 0.06992427 -0.030784562 -0.035375103 -0.057186436 -0.08004382
-0.11444456 -0.005036831 -0.0574885 -0.074972 0.081019 0.025218802 0.05210628 -0.11037235
-0.042956334 -0.027240962 0.11991139 -0.10345897 0.0941761 0.048491497 0.09046362 -0.01738973
-0.06940331 0.074082166 0.09052045 0.028807249 -0.039734915 0.116543956 0.11434671 -0.09304394
0.03465928 0.03292954 -0.09216337 0.041232407 0.102171764 0.120915815 0.008428109 -0.12365836
-0.004600346 -0.09825431 0.06600897 -0.013385057 -0.065406956 -0.08124788 0.11777953 -0.12040863
00000000: 7a8c febd e0c3 bbbb 56fe 0b3d eb82 acbd
00000010: 9307 6b3b 393b 4f3c 57c9 89bd 94e4 c0bc
00000020: 2046 19bd d61f e93d e906 d6ba 3fae e73d
00000030: 8095 00bd 708a 98bd a0d8 a43d 80ae 0cbd
00000040: 9b5f bb3d da8c 723d d082 80bc 999a 3e3d
00000050: d898 9bbc b867 973d f2eb 033d 3c1d 0fbd
00000060: dbca 6ebd 54b2 7d3d a4f9 cbbd 782d f93d
00000070: 480b c63d cc5a 503d 988a a9bd c01e dd3b
00000080: e592 873d 40ef 353d 8b55 283d 18a7 253d
00000090: 501b 5f3c 9f60 49bc 4814 b0bd 9ccc 783d
000000a0: c0f6 ffbd 677c 0b3d 6933 ecbd 972e fdbd
000000b0: c477 55bd 0db2 7fbc 0061 473d 1cb0 3d3d
000000c0: 96f9 f9bd 691c dd3d 2062 15bc e08d 5abd
000000d0: b82a b53c 5fd9 cfbb 8563 933d a911 dabb
000000e0: 78e1 89bd 1678 b3bd 76cf c83d b85b 80bc
000000f0: 2207 babc 8e24 e1bd f23d b0bd 8d69 0ebc
00000100: 781e 733d 93cf 9ebd ce2e 513e 222e 07be
00000110: 7141 f83d 08cf d6bd d241 f7bc 7eae ca3c
00000120: 6a92 3b3c 0586 b43a f682 733c 1f43 8d3c
00000130: 3333 cebd f49c 873e 1077 043c ec38 9f3d
00000140: 3492 0a3d 21e2 be3d 5a26 f43d 7dc8 403e
00000150: 4799 ac3c 689c 38be 499b 6a3d 0062 ccbb
00000160: e2d1 b03d 62a2 fd3d d2da b53c 60f6 e23c
00000170: 9971 45bd ca2b 903e 74c6 6b3d 5ed4 edbd
00000180: fbba a9bd 5670 8dbd 8323 823e df5a 463d
00000190: 70cc 90bd 9d95 b53d 5f88 3d3d c4cb b0bd
000001a0: c546 313e 5ea4 a63c db48 f6bc 2696 b2bd
000001b0: cc30 733d 380a a73d a4b8 28bd f12d 933d
000001c0: 03bb ffbd 01c6 18be 9618 f7bd b452 ac3d
000001d0: 8950 f23d dd87 7b3c d4d3 7b3e baa2 333e
000001e0: e0a5 b8bd 383d 983d 5e7c 0ebe 5765 cb3d
000001f0: a50d 773e 3366 233e a50e 513d 4dfb 013e
00000200: f4d0 5cbd 098e 0a3c 47d9 9b3c bea5 ecbd
00000210: a4e6 b73d da74 9fbd eae6 f9bc 7045 fe3d
00000220: fd1e ac3c e714 1dbd ecf4 0dbe 4333 0e3e
00000230: c68e d23d 25fb 223e 30f9 fc3c 9867 ec3d
00000240: 090f 333e 1601 fa3d 7cfe aabd aaf4 e23d
00000250: f78e c93d eae3 50be eef6 5a3e 308d e9bd
00000260: adf5 5a3d 5470 81bd 174f 9f3d 5827 b53c
00000270: 03ec 093c 5041 ec3d 35a7 0a3e 2954 dabd
00000280: 2b03 e33d ed57 ac3c 8933 fb3d 7bc3 b5bd
00000290: d027 803d 6682 333d 71ea aebd 468a d83d
000002a0: dad2 c53d 8760 0f3d acdb 5abd cf94 d83b
000002b0: 4c90 a3bd 27fe ebbd 38f5 843d 17d4 91bd
000002c0: 6c5c 5abd 041c 01be 7b3a 44be 3435 c6bd
000002d0: fb12 913c 7fa2 133d f908 243e d083 843d
000002e0: 4e84 c4bd a880 50bd 0223 e7bd ba3e bdbd
000002f0: 8b73 543e 9664 123d c022 333e 0744 d93d
00000300: d8c9 ea3d 56ad f1bd 3d73 94bd 453e 593d
00000310: 26b4 ea3b ecf2 3a3d 88d1 f5bd 73fa 30bd
00000320: 004e 2cba 6c4c 1c3d 8c5b d6bd 2bfb ae3d
00000330: 66e7 b0bd e372 c8bd d482 623d 5883 373d
00000340: 59f2 043d f914 e3bc 54e4 e43d 7534 8f3d
00000350: e82f fcbc 7ce5 10bd 533c 6abd 04ee a3bd
00000360: e961 eabd 000c a5bb 1079 6bbd ec8a 99bd
00000370: 4aed a53d a997 ce3c 656d 553d e60a e2bd
00000380: fbf2 2fbd 7028 dfbc 1a94 f53d 4ce2 d3bd
00000390: 66df c03d 059f 463d fe44 b93d e874 8ebc
000003a0: 5323 8ebd 64b8 973d c962 b93d 2efd eb3c
000003b0: 14c1 22bd 99ae ee3d 9c2e ea3d d28d bebd
000003c0: e4f6 0d3d 20e1 063d 26c0 bcbd 50e3 283d
000003d0: 6e3f d13d b6a2 f73d 0d16 0a3c 9840 fdbd
000003e0: 80be 96bb 8e39 c9bd b62f 873d 004d 5bbc
000003f0: 15f4 85bd 4a65 a6bd 6536 f13d cd98 f6bd

bias f4 [32]
-0.06526103 -0.023039704 0.074437045 -0.027238522 -0.03156604 0.06694323 -0.005364376 0.08581567
-0.028594539 -0.081244506 0.04502523 0.11427358 -0.09121339 -0.11495702 0.1037642 -0.09422386
0.049309798 0.08767224 0.103536315 -0.061582096 0.011703102 0.06297966 0.012090832 0.05024847
0.03577488 0.12765123 0.043394934 0.035106882 0.1611379 0.057067342 0.1518856 -0.096540816
00000000: 93a7 85bd c3bd bcbc 7372 983d 5223 dfbc
00000010: 644b 01bd 8819 893d a6c7 afbb 20c0 af3d
00000020: 183f eabc 8563 a6bd 606c 383d 4408 ea3d
00000030: 16ce babd 966e ebbd 5382 d43d 70f8 c0bd
00000040: 12f9 493d 818d b33d d90a d43d 823d 7cbd
00000050: 5ebe 3f3c 7bfb 803d a018 463c 57d1 4d3d
00000060: ae88 123d 01b7 023e e3be 313d 3ccc 0f3d
00000070: 5501 253e 72bf 693d e687 1b3e 31b7 c5bd

weight f4 [2, 32]
-0.03248684 0.11550734 -0.16133815 0.21100323 0.0018692549 -0.06357235 0.1798913 -0.14584029
0.22811672 0.10566123 -0.09762632 0.020204175 -0.13100153 -0.06187022 -0.109741546 -0.11865907
0.12842534 0.182525 -0.084594354 -0.03299886 0.23560688 0.16060922 0.24139772 -0.019501412
-0.018821595 0.1977862 -0.040328518 0.020302784 -0.079590306 0.067113325 0.12396264 0.13359013
0.20485659 0.1304261 -0.008731444 -0.22898605 0.03955981 0.029558722 -0.13431142 0.057508625
0.010572038 0.11284864 -0.05340731 0.17998011 -0.026461592 -0.074500866 -0.09180867 -0.10160561
0.13840649 -0.16451304 -0.11468413 -0.046898007 -0.11256409 -0.08032107 0.079666175 -0.22429246
-0.08798669 -0.21285708 0.05854893 -0.3307186 0.11868303 -0.16318217 0.0780371 -0.10060004
00000000: ec10 05bd 1d8f ec3d d435 25be 3b11 583e
00000010: c901 f53a 3832 82bd 6d35 383e 2857 15be
00000020: 6e97 693e ea64 d83d 4ff0 c7bd 3a83 a53c
00000030: 4425 06be a16b 7dbd 2dc0 e0bd 8703 f3bd
00000040: ef81 033e d5e7 3a3e ce3f adbd d029 07bd
00000050: ee42 713e be76 243e f730 773e 6dc1 9fbc
00000060: bf2f 9abc 7788 4a3e 842f 25bd 0652 a63c
00000070: 3e00 a3bd b672 893d 20e0 fd3d dacb 083e
00000080: edc5 513e 6b8e 053e 550e 0fbc 527b 6abe
00000090: 7809 223d 2225 f23c ef88 09be 2a8e 6b3d
000000a0: 5736 2d3c 301d e73d a0c1 5abd b54c 383e
000000b0: fbc5 d8bc e993 98bd 2f06 bcbd 9a16 d0bd
000000c0: 6eba 0d3e 1b76 28be 83df eabd 2018 40bd
000000d0: 0088 e6bd 607f a4bd 0528 a33d ecac 65be
000000e0: 5e32 b4bd 35f7 59be 01d1 6f3d f353 a9be
000000f0: 1710 f33d 3a19 27be ead1 9f3d 6507 cebd

bias f4 [2]
-0.05724979 0.010562642
00000000: c17e 6abd ee0e 2d3c
