2023/baseline0806/model/WLTP_trained_0822/PPO_actorcritic_84episode.pt (torch, 101527 bytes, 17 tensors)

weight f4 [128, 7]
-0.24298546 -0.36714995 0.26539004 -0.45323247 -0.22881198 0.39576024 0.36408302 -0.04047977
-0.18133801 0.08495145 -0.27926734 -0.13682394 -0.36225837 -0.30152673 0.09639201 -0.1621673
-0.16645017 0.026523132 0.31043229 0.3879481 0.07023474 -0.30559832 -0.26293188 -0.23673579
-0.11957288 -0.18820873 0.2755266 0.4011097 0.09918591 -0.18350011 -0.38441032 0.08233621
0.06005302 0.18062714 -0.02018738 -0.04620958 -0.101333186 -0.21780261 -0.09425601 0.21765123
0.14889948 0.331834 -0.33917677 -0.25368536 -0.33796388 0.011872757 -0.27600446 -0.1458769
-0.0047227717 0.10839218 -0.36005405 0.35309088 0.270514 0.27243948 -0.3559357 -0.015255833
0.4607266 -0.032882992 -0.24699095 -0.008358705 0.54586387 -0.2440948 0.036586404 0.3302018
-0.24904501 -0.3558332 -0.42320284 -0.16741444 0.3598464 0.31031582 0.29146728 0.23334531
0.06027687 0.11717376 -0.3416633 0.03154636 0.049420565 0.015710851 0.4095122 0.17510039
-0.12412838 0.22819556 -0.026463402 -0.072439246 -0.2821875 -0.3359419 0.2595473 -0.40395683
0.23101862 -0.14451817 0.21109413 0.26139963 0.16281562 0.30444935 0.0025127404 -0.15693651
-0.13271825 -0.28063285 -0.009557068 0.025981054 0.11960504 0.0077226358 -0.06700068 0.20050184
-0.19880173 0.20277932 -0.25891596 -0.008542604 0.17668563 -0.040962648 0.29816926 -0.24716057
-0.19666818 -0.35057142 -0.22344191 0.27653983 0.10044489 -0.12633146 0.037019134 -0.14239115
0.5260568 -0.08711097 0.4787735 -0.29152995 -0.12932263 -0.19028437 0.36804166 -0.15173717
0.0743994 -0.38794747 -0.2988463 -0.25699756 -0.2503876 -0.14807679 -0.28962433 -0.03975186
-0.2448469 0.10417549 -0.077785894 -0.062322345 0.33671677 -0.20278576 0.11425578 -0.021048004
0.01200787 0.34865144 0.3264721 -0.092744894 0.012863153 -0.07907031 -0.11870279 0.012077045
-0.20682047 0.07127561 -0.35636714 0.00227239 0.22151309 -0.15557984 -0.009711513 -0.15501122
0.25300854 0.28217667 -0.16065599 0.19638121 0.19385132 0.03617571 0.34806237 0.4035137
0.37741625 -0.3331227 0.06363436 -0.38952944 0.3176858 -0.098987296 0.2921618 0.05586602
0.043767978 -0.34985447 -0.10564954 -0.039340556 0.15841813 -0.18675223 0.23396498 -0.43122822
0.2793039 -0.30454266 -0.16945717 0.25010654 0.16571413 0.3151206 0.01845216 0.15042056
0.16113356 0.2618114 -0.14222775 0.27820104 0.022343045 0.38494608 -0.03072767 0.30743006
-0.24609348 -0.05829096 0.22117251 0.28777945 -0.026560279 0.14165175 -0.25575158 0.14290248
0.3721456 0.1746025 -0.11210904 -0.29086754 -0.0913171 0.037782524 -0.26483008 0.23501445
0.28905982 0.17343478 -0.23619266 0.123876035 -0.17218314 0.24196352 0.35804227 0.24169049
0.080688536 -0.30323854 -0.12113968 0.26740634 0.2954541 -0.17724906 -0.027608912 0.213795
0.03417979 0.06672798 0.29845577 0.17204764 -0.24189202 0.31940755 0.13765198 -0.30245817
-0.14622968 -0.19114007 0.3119011 -0.19283693 0.04966964 0.13460383 0.10577114 0.2575311
-0.08252229 0.08266712 -0.22975709 0.31193972 -0.21056668 0.28155795 0.051643066 0.28283858
00000000: 2ed1 78be 14fb bbbe 34e1 873e 160e e8be
00000010: b04d 6abe 16a1 ca3e 1769 ba3e 1ece 25bd
00000020: acb0 39be 07fb ad3d 21fc 8ebe 931b 0cbe
00000030: ee79 b9be b661 9abe 2d69 c53d 2f0f 26be
00000040: ea71 2abe 0a47 d93c fbf0 9e3e 22a1 c63e
00000050: 3bd7 8f3d 6277 9cbe 029f 86be de6a 72be
00000060: a0e2 f4bd cab9 40be d311 8d3e 405e cd3e
00000070: fb21 cb3d 74e7 3bbe 6ed1 c4be e39f a83d
00000080: 28fa 753d 52f6 383e 0160 a5bc 4246 3dbd
00000090: c687 cfbd a607 5fbe 4c09 c1bd f7df 5e3e
000000a0: 1b79 183e 25e6 a93e 94a8 adbe 0ce3 81be
000000b0: 9a09 adbe f485 423c 7550 8dbe c160 15be
000000c0: 7bc1 9abb b8fc dd3d 0159 b8be 54c8 b43e
000000d0: d080 8a3e 307d 8b3e 343d b6be 9af3 79bc
000000e0: 5be4 eb3e 51b0 06bd 32eb 7cbe f3f2 08bc
000000f0: bcbd 0b3f fdf3 79be a0db 153d 3610 a93e
00000100: a805 7fbe c52f b6be 0bae d8be b16e 2bbe
00000110: ca3d b83e b7e1 9e3e 333b 953e 13f2 6e3e
00000120: e1e4 763d ccf8 ef3d 7eee aebe c236 013d
00000130: 386d 4a3d 0bb4 803c 95ab d13e 844d 333e
00000140: 0537 febd 19ac 693e c7c9 d8bc 075b 94bd
00000150: e17a 90be 9400 acbe 62e3 843e 6ed3 cebe
00000160: 2590 6c3e 92fc 13be 0f29 583e 2cd6 853e
00000170: 23b9 263e c9e0 9b3e caac 243b f7b3 20be
00000180: 4be7 07be 1caf 8fbe 4095 1cbc 38d6 d43c
00000190: 7df3 f43d 2a0e fd3b a737 89bd 5b50 4d3e
000001a0: ae92 4bbe 62a5 4f3e a290 84be 47f6 0bbc
000001b0: 14ed 343e 73c8 27bd a4a9 983e a917 7dbe
000001c0: 6263 49be 197e b3be f5cd 64be a196 8d3e
000001d0: 0db6 cd3d 095d 01be 60a1 173d fcce 11be
000001e0: a9ab 063f 3c67 b2bd cd21 f53e 6a43 95be
000001f0: 276d 04be e8d9 42be f56f bc3e fd60 1bbe
00000200: b65e 983d 0da1 c6be 6202 99be 2f95 83be
00000210: ce32 80be 71a1 17be a449 94be d9d2 22bd
00000220: 25b9 7abe f659 d53d 364e 9fbd b745 7fbd
00000230: 2466 ac3e 12a7 4fbe effe e93d dd6c acbc
00000240: a8bc 443c 7182 b23e 5a27 a73e 09f1 bdbd
00000250: f9bf 523c 9def a1bd 731a f3bd ccde 453c
00000260: bfc8 53be f2f8 913d c175 b6be 61ec 143b
00000270: 54d4 623e 5250 1fbe 0a1d 1fbc 43bb 1ebe
00000280: 568a 813e 7679 903e 0183 24be 2818 493e
00000290: f680 463e fb2c 143d 3b35 b23e 5999 ce3e
000002a0: b43c c13e 0f8f aabe bb52 823d 6770 c7be
000002b0: b7a7 a23e dab9 cabd 3b96 953e c5d3 643d
000002c0: 0d46 333d 2020 b3be c95e d8bd 9023 21bd
000002d0: 5d38 223e fa3b 3fbe 8494 6f3e f2c9 dcbe
000002e0: ec00 8f3e 04ed 9bbe 2e86 2dbe f70d 803e
000002f0: f7b0 293e 7d57 a13e fc28 973c d907 1a3e
00000300: 3200 253e 250c 863e 27a4 11be 5e70 8e3e
00000310: c308 b73c a717 c53e 98b8 fbbc 7967 9d3e
00000320: eeff 7bbe 80c2 6ebd 0c7b 623e d457 933e
00000330: f194 d9bc 280d 113e dff1 82be 0755 123e
00000340: de89 be3e ffca 323e 6d99 e5bd 97ec 94be
00000350: 7604 bbbd d9c1 1a3d cf97 87be a1a7 703e
00000360: a6ff 933e e398 313e 7ddc 71be b8b2 fd3d
00000370: c750 30be 49c5 773e 5151 b73e b67d 773e
00000380: 0840 a53d 1542 9bbe 1518 f8bd 7ce9 883e
00000390: c345 973e c780 35be 162c e2bc 14ed 5a3e
000003a0: 1c00 0c3d aea8 883d 32cf 983e 422d 303e
000003b0: 8bb2 77be 6389 a33e a4f4 0c3e ccdb 9abe
000003c0: 3cbd 15be 39ba 43be 80b1 9f3e 0b77 45be
000003d0: 6472 4b3d 96d5 093e 8a9e d83d 1edb 833e
000003e0: 7201 a9bd 614d a93d 7145 6bbe 90b6 9f3e
000003f0: cb9e 57be 5d28 903e ae87 533d 38d0 903e

bias f4 [128]
-0.17865005 -0.23855948 0.18408702 0.40100506 0.047494225 -0.14365928 -0.10246875 0.10379595
0.0196807 0.38004217 0.2817003 0.08316524 0.0762259 0.21602462 0.09450919 -0.14760399
-0.19962066 0.19583742 0.34909976 0.20023446 -0.078012265 -0.30263132 0.1967356 -0.20055474
-0.07798897 -0.28329474 -0.09730678 0.057219904 -0.2871988 -0.3510173 0.27305695 -0.01062197
0.2877213 0.05060768 0.28711984 -0.23872647 -0.2895217 -0.101546034 -0.20849307 -0.06504151
-0.095626056 -0.40076742 -0.0120559065 -0.07139771 -0.28569514 -0.028563224 -0.28961605 0.22265248
-0.25399947 -0.07886213 0.20504604 0.367963 0.010948765 -0.3201108 -0.14496033 0.19850853
0.282676 0.22603574 -0.068753324 -0.35060346 -0.332542 0.18080114 -0.007843055 0.26717374
0.28321055 -0.19416589 -0.35537192 -0.22287267 0.36331117 0.082142696 0.11109503 -0.036001526
-0.24338077 0.29947603 0.07471439 -0.06272344 0.13762866 0.27764195 -0.099824615 0.28315783
0.28370574 0.2782464 0.15926053 -0.25819716 -0.14661677 -0.12779774 -0.30423152 -0.20711118
-0.33719918 -0.15246229 0.35889238 0.25898877 0.33427054 0.39731243 0.08240905 -0.2988338
0.13416508 0.2533851 0.13977647 -0.32702276 0.38189715 0.2651465 0.17685267 0.3420204
-0.2086159 0.0081237955 0.07233858 -0.1488086 -0.15797538 0.097613364 0.04605266 -0.25089827
-0.3377334 0.04352348 0.29346842 0.0076688994 -0.15766416 0.20870407 0.24794935 -0.15190093
0.24475554 0.01934507 -0.15182148 0.2484121 0.17744234 -0.22847272 0.3040563 -0.027391499
00000000: 0af0 36be f048 74be 4f81 3c3e 8950 cd3e
00000010: 4e89 423d 6b1b 13be 23db d1bd f992 d43d
00000020: 6b39 a13c e394 c23e 063b 903e 8a52 aa3d
00000030: 531c 9c3d 8f35 5d3e 098e c13d 8025 17be
00000040: 5c69 4cbe 9b89 483e 34bd b23e 430a 4d3e
00000050: e5c4 9fbd 7ef2 9abe 0f75 493e 395e 4dbe
00000060: aeb8 9fbd 020c 91be c748 c7bd 6b5f 6a3d
00000070: b90b 93be 8ab8 b3be 1fce 8b3e c507 2ebc
00000080: 3550 933e 004a 4f3d 5f01 933e b674 74be
00000090: 303c 94be 5ef7 cfbd 357f 55be 7c34 85bd
000000a0: 98d7 c3bd 6331 cdbe 2386 45bc f638 92bd
000000b0: a246 92be 6cfd e9bc 8e48 94be 03ff 633e
000000c0: 380c 82be 7882 a1bd 97f7 513e a565 bc3e
000000d0: 7362 333c 90e5 a3be 7b70 14be d245 4b3e
000000e0: e9ba 903e ea75 673e 8bce 8cbd 4c82 b3be
000000f0: f242 aabe ef23 393e 2880 00bc ffca 883e
00000100: f900 913e 6cd3 46be 4ff3 b5be bc38 64be
00000110: ec03 ba3e 6e3a a83d cb85 e33d 5676 13bd
00000120: cf38 79be ec54 993e dc03 993d 2675 80bd
00000130: 87ee 0c3e 1627 8e3e d970 ccbd 10fa 903e
00000140: e141 913e 5076 8e3e 3115 233e 6b32 84be
00000150: b522 16be 69dd 02be 3cc4 9bbe f414 54be
00000160: 5fa5 acbe 131f 1cbe bec0 b73e 2d9a 843e
00000170: 8225 ab3e 896c cb3e 13c6 a83d be00 99be
00000180: 9262 093e b1bb 813e 9021 0f3e 876f a7be
00000190: 0688 c33e 48c1 873e de18 353e 4c1d af3e
000001a0: 689f 55be ab19 053c 4026 943d 4861 18be
000001b0: 4cc4 21be 84e9 c73d b7a1 3c3d bd75 80be
000001c0: 64eb acbe ad45 323d 7e41 963e 644b fb3b
000001d0: b772 21be 85b6 553e 6fe6 7d3e eb8b 1bbe
000001e0: 32a1 7a3e 8d79 9e3c 1777 1bbe be5f 7e3e
000001f0: 72b3 353e c1f4 69be 44ad 9b3e 2364 e0bc

weight f4 [64, 128]
-0.027703281 0.08445547 0.0021649362 0.04672471 0.06078997 -0.05942106 0.08507825 -0.023983832
-0.079545654 -0.057986487 0.012335802 0.08808212 -0.021906056 0.02188569 -0.08064738 0.016579168
0.0135820955 -0.07182429 -0.028398862 -0.033941783 -0.03673674 0.06711046 -0.008023296 -0.05483088
0.022976175 0.04112429 0.03367017 0.007650085 -0.010363467 -0.0667817 -0.05795728 0.05804877
0.07736955 -0.029084329 -0.0026709826 -0.06385309 -0.0028960258 -0.07827878 0.08646786 0.024444023
-0.024674483 0.019193212 0.06066195 0.021296402 0.08289234 -0.03596458 -0.01304858 -0.07610229
0.07553955 -0.07755403 -0.00075040356 -0.05779418 -0.03783927 0.05904231 -0.026597612 0.07779386
0.0376942 -0.061468408 -0.028970426 -0.05797122 -0.070453346 -0.0051684994 -0.058511343 -0.06557851
-0.044891186 0.08343529 0.0750244 0.052788462 0.041695066 0.039255332 -0.0022783321 0.06872614
0.05589847 0.05188591 0.014844962 -0.08489039 -0.06378671 0.018853782 -0.07154178 -0.06569278
0.03539688 -0.043168887 -0.06701163 -0.028747343 -0.0046053333 -0.025042571 -0.03969757 0.061060477
0.029603483 0.083229944 -0.03509116 0.021074794 -0.034870744 0.077670686 0.044192173 -0.020753477
0.029261028 0.02195226 -0.0022944428 -0.051406637 0.0055413097 0.027152801 -0.005757228 0.031471074
0.0472494 0.058117773 -0.017530907 -0.01700562 0.05060865 -0.07069959 0.08190491 0.024167044
0.024085827 0.032102633 -0.055117287 -0.07333441 -0.044874497 0.01926227 0.0011387762 -0.05130032
-0.032025967 0.06976376 0.010952322 -0.014667609 -0.035963893 -0.054312788 -0.07212371 0.057605606
0.052929286 0.08364505 -0.0607058 -0.022128232 -0.036169976 0.0020953047 -0.048791036 0.022198882
0.0027861279 0.04020738 -0.018154496 -0.040801574 -0.011528332 -0.038606238 -0.0065422864 -0.017112242
0.04167903 0.037538394 -0.06369406 0.027126174 0.07376174 0.08677953 -0.018781131 0.030664757
-0.05513521 0.060351945 0.0051644584 0.049144745 0.062058344 -0.045772377 0.064923115 0.031268667
-0.04152115 -0.07208918 0.032477804 0.053880405 0.077645 0.0811722 0.05974071 -0.026937768
-0.028915005 -0.04341434 -0.02185719 0.061899044 0.08386028 -0.014365089 -0.0015601803 -0.023141917
-0.07310376 -0.053455133 0.07619092 -0.039043136 0.027537419 0.026305197 -0.07053581 -0.03982881
-0.059789646 -0.0016900635 0.028900389 0.057543427 0.053520247 -0.06639774 0.031384926 0.054243837
0.031162186 0.079595774 -0.044067733 -0.08477634 -0.06675888 0.01699168 0.08025298 0.042538244
-0.01851236 -0.04527443 0.04650051 0.040636357 0.06505203 -0.077474 -0.04615539 0.026226593
-0.00747451 0.040593505 -0.028209168 -0.07238634 0.0777486 0.004175471 -0.023741035 -0.0863523
0.06663096 0.0005249495 -0.0056786635 -0.073823005 -0.03765239 -0.07625438 -0.010724338 0.003075287
0.021431472 0.056939486 0.013530023 -0.08161974 -0.04043227 -0.014347669 -0.07485057 0.07842639
-0.026197575 -0.047628798 -0.0089202225 -0.04787005 0.0124896625 0.053027432 -0.077411525 0.061070614
0.086698964 0.012240119 0.036840316 -0.073442176 -0.03142736 0.087315984 0.0022675383 0.043949477
-0.0617263 -0.055403244 0.040924683 -0.0053939745 0.037751105 0.084207386 0.06130473 0.04175484
00000000: fef1 e2bc fdf6 ac3d 9ae1 0d3b 6962 3f3d
00000010: e7fe 783d 7f63 73bd 813d ae3d be79 c4bc
00000020: d5e8 a2bd 3d83 6dbd 1b1c 4a3c 6664 b43d
00000030: 5474 b3bc 9e49 b33c 742a a5bd 09d1 873c
00000040: 7087 5e3c 9d18 93bd bba4 e8bc 8a06 0bbd
00000050: 4479 16bd 3571 893d 2474 03bc 5896 60bd
00000060: 8838 bc3c f271 283d bbe9 093d 90ad fa3b
00000070: 88cb 29bc d8c4 88bd 9d64 6dbd 8cc4 6d3d
00000080: ed73 9e3d 4242 eebc a70b 2fbb 69c5 82bd
00000090: 40cb 3dbb a050 a0bd 1016 b13d d53e c83c
000000a0: 2422 cabc 153b 9d3c aa78 783d cb75 ae3c
000000b0: 76c3 a93d 984f 13bd b6c9 55bc 84db 9bbd
000000c0: 7bb4 9a3d a6d4 9ebd bbb6 44ba 97b9 6cbd
000000d0: 5afd 1abd 59d6 713d 3ce3 d9bc 6352 9f3d
000000e0: 3c65 1a3d 4cc6 7bbd 6353 edbc 3b73 6dbd
000000f0: d849 90bd 845c a9bb 97a9 6fbd 074e 86bd
00000100: d2df 37bd 1fe0 aa3d 65a6 993d b738 583d
00000110: 72c8 2a3d 33ca 203d 1250 15bb 4ac0 8c3d
00000120: cbf5 643d 5286 543d 4938 733c 03db adbd
00000130: 9ba2 82bd 3f73 9a3c 7f84 92bd f089 86bd
00000140: 52fc 103d dcd1 30bd 653d 89bd 8c7f ebbc
00000150: 56e8 96bb 1426 cdbc eb99 22bd 8d1a 7a3d
00000160: 0183 f23c 7674 aa3d c0bb 0fbd 0ca5 ac3c
00000170: a0d4 0ebd cf11 9f3d da02 353d 3203 aabc
00000180: d3b4 ef3c 3ad5 b33c 5d5e 16bb c48f 52bd
00000190: e093 b53b 8d6f de3c 21a7 bcbb d0e7 003d
000001a0: 9688 413d e70c 6e3d fa9c 8fbc 5f4f 8bbc
000001b0: 044b 4f3d f2ca 90bd c3bd a73d f7f9 c53c
000001c0: a44f c53c 0d7e 033d aac2 61bd 5a30 96bd
000001d0: 52ce 37bd e8cb 9d3c fd42 953a 4920 52bd
000001e0: a92d 03bd 4de0 8e3d 5e71 333c 6950 70bc
000001f0: e04e 13bd 1677 5ebd 98b5 93bd dbf3 6b3d
00000200: 61cc 583d 194e ab3d a5a6 78bd 4446 b5bc
00000210: f826 14bd 6151 093b 1cd9 47bd 6eda b53c
00000220: 7897 363b 7eb0 243d bdb8 94bc 8d1f 27bd
00000230: 54e1 3cbc 9321 1ebd ad60 d6bb f92e 8cbc
00000240: a1b7 2a3d dcc1 193d 0872 82bd b637 de3c
00000250: 6510 973d 77b9 b13d e3da 99bc a834 fb3c
00000260: 75d5 61bd 9a33 773d 9e3a a93b 004c 493d
00000270: e430 7e3d d17b 3bbd 69f6 843d 9313 003d
00000280: 1512 2abd 7ea3 93bd 7207 053d b3b1 5c3d
00000290: 5704 9f3d 9c3d a63d adb2 743d 98ac dcbc
000002a0: 29df ecbc 3cd3 31bd da0d b3bc da89 7d3d
000002b0: f0be ab3d 8d5b 6bbc f77e ccba 1e94 bdbc
000002c0: 6db7 95bd c5f3 5abd fc09 9c3d b2eb 1fbd
000002d0: 2796 e13c ff7d d73c 1475 90bd 8923 23bd
000002e0: fde5 74bd 1f85 ddba 82c0 ec3c a8b2 6b3d
000002f0: 0c38 5b3d 8afb 87bd 7b8d 003d c92e 5e3d
00000300: d747 ff3c 1c03 a33d 5e80 34bd 389f adbd
00000310: e1b8 88bd 2332 8b3c ad5b a43d 953c 2e3d
00000320: 3ca7 97bc ae71 39bd 5277 3e3d 4f72 263d
00000330: 003a 853d b0aa 9ebd 6f0d 3dbd 27d9 d63c
00000340: bcec f4bb 6045 263d ea16 e7bc 4a3f 94bd
00000350: a83a 9f3d 64d2 883b 8f7c c2bc 7ad9 b0bd
00000360: d075 883d c49c 093a 1514 babb 8430 97bd
00000370: 6439 1abd 422b 9cbd 22b5 2fbc c18a 493b
00000380: 0e91 af3c 6139 693d 08ad 5d3c 4028 a7bd
00000390: 4f9c 25bd 7c12 6bbc 414b 99bd 049e a03d
000003a0: 4c9c d6bc 6a16 43bd 2026 12bc 6313 44bd
000003b0: 71a1 4c3c 4b33 593d ef89 9ebd 2e25 7a3d
000003c0: 3a8f b13d c88a 483c dfe5 163d da68 96bd
000003d0: fab9 00bd b9d2 b23d fb9a 143b 5e04 343d
000003e0: b7d4 7cbd 83ee 62bd a4a0 273d f0bf b0bb
000003f0: e7a0 1a3d ec74 ac3d ab1a 7b3d 2007 2b3d

bias f4 [64]
-0.07241778 -0.025185695 0.07155615 0.070708595 0.02988743 0.049751204 0.042199783 0.10290079
-0.0075166244 -0.033763822 0.031260192 -0.005719969 0.06685685 0.038342077 0.074583806 0.004608446
0.02406989 0.020559551 0.04237844 0.005308352 0.09474146 -0.00052034034 -0.0042864014 -0.007451773
-0.013307223 -0.03748593 -0.0402929 -0.03920903 0.039671905 -0.041160088 0.050216157 -0.0281315
0.05153204 0.054591574 0.028639395 -0.018251047 0.061437335 -0.08628982 0.05223631 -0.087730475
-0.023542535 0.050961934 0.05269148 -0.085056044 0.053445645 0.028271474 0.03345296 0.088619806
-0.037927702 0.061696056 -0.030657236 0.06802114 0.021118028 -0.06957321 -0.012584022 0.10779525
0.06326444 0.13633311 0.04243757 -0.06487752 0.018631283 -0.042056568 0.020259403 0.12545577
00000000: c64f 94bd 3b52 cebc 088c 923d abcf 903d
00000010: 7cd6 f43c ebc7 4b3d aed9 2c3d a6bd d23d
00000020: 044e f6bb ef4b 0abd b00a 003d 946e bbbb
00000030: 3fec 883d 950c 1d3d 65bf 983d 7202 973b
00000040: 382e c53c 816c a83c 0495 2d3d aff1 ad3b
00000050: d007 c23d 7367 08ba f174 8cbb 012e f4bb
00000060: 8a06 5abc d98a 19bd 2b0a 25bd a699 20bd
00000070: 027f 223d 7b97 28bd 75af 4d3d 0874 e6bc
00000080: 4313 533d 6a9b 5f3d 2a9d ea3c 3883 95bc
00000090: b7a5 7b3d b8b8 b0bd bef5 553d 09ac b3bd
000000a0: 46dc c0bc 76bd 503d 05d3 573d dd31 aebd
000000b0: d2e9 5a3d 9499 e73c f905 093d 4d7e b53d
000000c0: 145a 1bbd 01b5 7c3d e224 fbbc ab4e 8b3d
000000d0: b7ff ac3c 667c 8ebd 372d 4ebc c2c3 dc3d
000000e0: c990 813d e89a 0b3e 04d3 2d3d 81de 84bd
000000f0: a2a0 983c 8243 2cbd 0cf7 a53c 7a77 003e

weight f4 [32, 64]
0.046685755 -0.089497775 0.14016975 -0.007740991 -0.048769683 0.09083725 0.121134795 -0.03112824
0.115271114 0.0299772 0.12551449 0.11896945 0.08906484 0.13088392 -0.06396722 0.09178427
-0.06292342 -0.06927044 0.058437794 -0.12373705 -0.09682522 -0.11665992 -0.09494371 0.068142526
-0.12858623 0.03664989 0.098298244 0.12597464 -0.21631093 0.10625016 0.07635769 0.075555466
0.0084865475 0.13320303 -0.09941371 -0.050037485 -0.0831819 -0.0025060624 0.031341534 -0.043379024
-0.008132477 0.066906914 -0.03471187 -0.062317178 -0.067048125 -0.0218538 0.06721259 0.09196038
0.0019376781 -0.040250912 -0.09438313 -0.09436493 -0.09613918 -0.008871511 0.05304188 0.02209173
0.0769395 -0.04658091 -0.0810283 -0.010578013 -0.067683205 0.083839655 0.12346911 0.07696448
-0.014421403 -0.018285679 0.094605744 0.15272224 -0.0010563022 -0.08603392 0.042682018 -0.17974296
0.030287148 0.08481408 -0.054859918 -0.027577465 0.06850394 0.05488053 -0.10715283 0.032515656
-0.1746533 -0.10834268 -0.027595967 0.12161958 0.1586875 -0.046779804 0.06787454 0.022659112
-0.13236788 -0.04681804 -0.02174497 0.038649816 0.13982527 0.06653277 -0.0031143555 0.10549153
0.09003557 0.058078583 -0.08944543 0.050788194 0.09465588 -0.03984447 0.08293854 -0.058559902
0.02547425 0.092682794 -0.075923994 0.020272061 -0.101252645 0.11077589 -0.016277255 0.04030867
0.1419235 0.010345354 -0.05730204 0.05523964 -0.08435056 0.050404496 -0.0039138985 -0.0095959455
-0.29862082 -0.30505234 0.1297251 0.05997394 0.037468683 0.029197156 -0.06949562 0.12764218
0.099234715 0.024038032 -0.07202591 -0.10482655 0.09490596 -0.07595096 0.02079938 -0.095096245
-0.10818188 -0.04525165 -0.11399531 -0.11624673 -0.07761128 0.069326684 -0.041865215 0.052267537
-0.0116532445 -0.10569401 0.08529489 0.08807197 0.0076127704 -0.12161937 -0.045629352 -0.05298352
0.10119833 0.055437807 0.04960791 0.08406156 0.10859401 -0.032916173 0.069814205 0.0925245
0.030939013 0.031391885 -0.09603753 0.056366324 0.029805899 0.117985666 -0.02741836 0.036973633
-0.079405494 -0.10965977 -0.04383631 0.0889211 0.09477186 0.082603976 0.067083076 0.0214124
-0.082061365 -0.014049247 0.038256496 -0.0076931254 -0.049840964 0.060927004 0.010603875 0.062495954
-0.017706499 -0.089845344 0.09529131 -0.03705725 -0.10613495 -0.10458955 -0.09571536 -0.08305269
-0.09543282 -0.1108413 0.029683828 0.18522185 0.13887684 0.17513585 -0.11419647 0.0051874393
0.14726152 0.03419415 0.17290105 0.007191053 0.021698756 -0.013629223 0.04636588 -0.06343463
0.05698635 -0.10946732 0.0584761 0.054697435 0.10920928 -0.05062255 -0.033185408 0.17589158
0.003920075 0.12709463 -0.015364065 0.17208597 0.10507163 -0.09075417 0.028280975 0.11138233
-0.04331211 0.14432645 -0.00883256 0.041731354 0.04913145 -0.040523767 0.037366375 -0.092227384
0.028168986 0.10860361 0.13718264 0.029469848 0.078619145 0.04947798 -0.06381741 0.09221765
0.17711869 -0.06665036 0.011627011 -0.023904108 -0.0054815444 0.072911926 0.07315796 -0.047917116
0.19846603 0.27095333 0.14307436 -0.11974867 0.10650849 -0.09176028 0.054903604 0.13866062
00000000: 9039 3f3d 9c4a b7bd a988 0f3e 24a8 fdbb
00000010: b8c2 47bd e108 ba3d 8515 f83d a700 ffbc
00000020: 4313 ec3d bf92 f53c df86 003e 41a6 f33d
00000030: a067 b63d 6f06 063e 3f01 83bd 64f9 bb3d
00000040: fedd 80bd a9dd 8dbd 785c 6f3d da69 fdbd
00000050: 4d4c c6bd 65eb eebd d971 c2bd 4f8e 8b3d
00000060: 1cac 03be 321e 163d 9750 c93d 7fff 003e
00000070: 9d80 5dbe af99 d93d 6c61 9c3d d3bc 9a3d
00000080: 290b 0b3c 6066 083e 6a99 cbbd 1bf4 4cbd
00000090: 465b aabd c03c 24bb fb5f 003d 34ae 31bd
000000a0: 153e 05bc 7e06 893d 092e 0ebd 4c40 7fbd
000000b0: 8750 89bd be06 b3bc c1a6 893d b955 bc3d
000000c0: b0f9 fd3a 24de 24bd f14b c1bd 6742 c1bd
000000d0: 9ee4 c4bd d059 11bc 7142 593d b7f9 b43c
000000e0: 7592 9d3d a0cb 3ebd 2af2 a5bd 674f 2dbc
000000f0: 7e9d 8abd 20b4 ab3d 5fdd fc3d 8e9f 9d3d
00000100: c047 6cbc d9cb 95bc a8c0 c13d 3863 1c3e
00000110: 9f73 8aba 8d32 b0bd 57d3 2e3d 8a0e 38be
00000120: c11c f83c 01b3 ad3d cbb4 60bd 23ea e1bc
00000130: cb4b 8c3d 68ca 603d f172 dbbd 232f 053d
00000140: 51d8 32be c4e2 ddbd f010 e2bc b013 f93d
00000150: fa7e 223e 2e9c 3fbd cf01 8b3d 9a9f b93c
00000160: 728b 07be 46c4 3fbd 8222 b2bc 454f 1e3d
00000170: 5b2e 0f3e 5542 883d 371a 4cbb f10b d83d
00000180: 9264 b83d cfe3 6d3d 2a2f b7bd 4807 503d
00000190: f1da c13d f433 23bd aedb a93d 82dc 6fbd
000001a0: 60af d03c 7ad0 bd3d 0a7e 9bbd 9811 a63c
000001b0: 8c5d cfbd 78de e23d e157 85bc b41a 253d
000001c0: 6554 113e 8f7f 293c 8bb5 6abd f642 623d
000001d0: fdbf acbd f274 4e3d 2940 80bb 5038 1dbc
000001e0: d4e4 98be d22f 9cbe a8d6 043e 3ca7 753d
000001f0: c378 193d e02e ef3c b853 8ebd a2b4 023e
00000200: 923b cb3d 68eb c43c 5282 93bd 4daf d6bd
00000210: 0e5e c23d 2d8c 9bbd 7663 aa3c d2c1 c2bd
00000220: 768e ddbd cb59 39bd 6076 e9bd c412 eebd
00000230: aaf2 9ebd 26fb 8d3d dc7a 2bbd 7c16 563d
00000240: 40ed 3ebc 1a76 d8bd 16af ae3d 145f b43d
00000250: 8c74 f93b 9413 f9bd d8e5 3abd 3f05 59bd
00000260: 1241 cf3d c112 633d aa31 4b3d 7828 ac3d
00000270: 8966 de3d 1cd3 06bd c0fa 8e3d 7c7d bd3d
00000280: d073 fd3c c794 003d 53af c4bd 60e0 663d
00000290: 802b f43c 78a2 f13d 789c e0bc aa71 173d
000002a0: 599f a2bd 4d95 e0bd b48d 33bd 441c b63d
000002b0: c017 c23d 462c a93d da62 893d 0f69 af3c
000002c0: ca0f a8bd d02e 66bc d8b2 1c3d 9d16 fcbb
000002d0: 0a26 4cbd 988e 793d e0bb 2d3c c2fb 7f3d
000002e0: 380d 91bc d600 b8bd 1728 c33d 58c9 17bd
000002f0: 485d d9bd 0c33 d6bd 6a06 c4bd 8717 aabd
00000300: 4872 c3bd c300 e3bd 802b f33c ccaa 3d3e
00000310: bb35 0e3e d056 333e d7df e9bd 65fb a93b
00000320: b9cb 163e 2a0f 0c3d f90c 313e eda2 eb3b
00000330: 97c1 b13c 1b4d 5fbc 26ea 3d3d 04ea 81bd
00000340: 856a 693d 6730 e0bd a384 6f3d 6b0a 603d
00000350: 1da9 df3d 9759 4fbd 6ced 07bd ec1c 343e
00000360: f973 803b 1825 023e 8fb9 7bbc 4e37 303e
00000370: cb2f d73d 53dd b9bd 81ad e73c 6b1c e43d
00000380: 0a68 31bd 50ca 133e 71b6 10bc 7fee 2a3d
00000390: 0f3e 493d 40fc 25bd 7c0d 193d b6e1 bcbd
000003a0: a5c2 e63c 926b de3d 9b79 0c3e c06a f13c
000003b0: 1303 a13d 6ca9 4a3d b4b2 82bd 9bdc bc3d
000003c0: 9a5e 353e fc7f 88bd 387f 3e3c 8cd2 c3bc
000003d0: 879e b3bb d952 953d d7d3 953d bd44 44bd
000003e0: ae3a 4b3e 65ba 8a3e 1682 123e ca3e f5bd
000003f0: 2021 da3d d0ec bbbd 9ae2 603d 0dfd 0d3e

bias f4 [32]
-0.07115879 0.10745673 -0.04669804 0.10301986 -0.087830484 -0.021182463 0.16811346 0.119371675
0.14033695 -0.0030043235 -0.008101844 0.06580011 0.012463557 -0.033767458 -0.07837918 0.021864159
-0.13771226 -0.040896956 0.08320018 0.007957799 0.14792663 -0.11043654 0.017232222 -0.03363137
0.12021832 0.0907051 0.05986216 -0.0016594717 -0.084724195 0.039949283 -0.07797754 0.091836125
00000000: b3bb 91bd 4612 dc3d 7246 3fbd 14fc d23d
00000010: 78e0 b3bd d886 adbc ef25 2c3e 2379 f43d
00000020: 7db4 0f3e 2fe4 44bb 99bd 04bc 35c2 863d
00000030: f233 4c3c bf4f 0abd 4385 a0bd 771c b33c
00000040: 7104 0dbe 9183 27bd db64 aa3d 6e61 023c
00000050: 147a 173e 8d2c e2bd 972a 8d3c 0cc1 09bd
00000060: 0635 f63d 98c3 b93d 0632 753d a182 d9ba
00000070: e183 adbd dca1 233d b0b2 9fbd 9414 bc3d

weight f4 [128, 7]
-0.24991758 0.20210066 -0.07450782 0.281738 -0.17848574 0.016411176 0.15750131 0.045902774
-0.3318379 -0.020727424 0.29927593 0.029822426 -0.0035272776 -0.061771624 0.23760939 0.21504754
-0.1993064 -0.25789538 -0.35443273 -0.31766617 0.23145513 -0.38584498 -0.07417939 0.076255195
0.37743405 0.25285447 0.0356919 0.120026365 -0.22784212 -0.090309344 0.30165952 -0.2513843
0.2625146 -0.08338248 -0.28271347 0.126486 0.24850674 0.23237097 0.28484407 0.34851477
-0.23698656 0.34075013 0.25997186 0.19514987 0.38787565 -0.13104413 0.23272106 -0.21952806
0.18577679 -0.19831567 0.25993428 -0.13546418 0.32983285 -0.21174881 -0.25173151 0.29778323
-0.37395826 -0.1864138 -0.32630906 0.2979318 0.28453696 0.2002266 -0.05614465 0.24466026
0.28968638 0.17373109 0.31250498 -0.30836397 -0.021520924 -0.32015464 -0.071540155 -0.30420545
-0.3005464 -0.3289093 0.31945547 -0.18482028 0.009044376 0.3735139 0.26178193 0.016621461
-0.010147035 0.0038170482 -0.16838288 0.060870156 -0.13113528 0.12777029 0.24391279 -0.2401232
-0.20537727 -0.30848897 0.3270491 0.40734106 -0.1271372 -0.08893633 -0.28067163 -0.29396015
-0.35387176 0.050785482 -0.0031369212 0.31806996 0.006127671 0.3349401 -0.26724756 0.13999952
-0.318398 0.3364567 0.08274253 0.26532787 -0.077306405 0.2775734 0.37148938 -0.18108556
-0.24272981 -0.29830706 0.15106529 -0.15135933 0.003919768 0.072771855 -0.15307501 -0.3576522
-0.24215557 -0.068222284 -0.11921608 -0.014225492 -0.3249797 -0.3482922 0.42171636 0.23534147
0.0074593415 -0.23793766 0.11685592 0.104827896 0.08338478 0.122279406 -0.16446936 0.037677597
0.16494264 -0.21488579 0.31483114 -0.17793518 -0.047048163 0.028512213 0.04875379 -0.11910188
-0.37018114 -0.026748158 -0.23199101 0.42234436 -0.35347655 -0.17260322 -0.3662819 0.15088151
-0.21180987 0.100810446 -0.44113857 0.250911 -0.19861525 0.09894603 -0.16900554 0.04984143
0.3864606 -0.45800763 0.31295097 0.269554 -0.06882553 0.3210723 -0.00952712 0.056494594
0.4776267 -0.35588244 0.024425393 -0.2598847 -0.004570602 0.18254253 0.12767477 -0.35676366
-0.20270507 0.12726706 -0.116983056 -0.31351754 0.045325413 -0.048511792 -0.106937595 -0.40112758
-0.06400913 -0.34666592 -0.33539996 0.23512511 0.239023 0.5210336 -0.31209213 0.36940098
-0.0882429 0.030628424 -0.2278468 0.3050079 0.5097594 -0.22587481 -0.3269881 0.014006384
0.2276837 0.066754706 -0.21116911 -0.29613617 0.026235426 -0.24317688 -0.38264784 -0.062257152
0.0014785423 0.2296065 0.40421298 -0.13319913 0.20772661 0.056722667 -0.32503754 0.104225546
-0.15676963 0.22309516 -0.19573426 -0.006117488 0.21028408 -0.18034796 0.095523976 0.060967952
0.0035197325 0.09242315 0.3500375 0.36281368 -0.018484412 -0.095659666 0.10268429 0.45511788
-0.149209 -0.04176657 -0.36947492 -0.29850838 -0.34498256 0.046983752 0.2920562 -0.18968211
0.2976125 0.37529546 0.19178689 -0.19261253 -0.117027946 -0.3120881 -0.26738667 -0.33016855
0.32873285 0.16006392 -0.022392815 -0.31365767 -0.22331887 -0.2690281 0.39769974 0.17437641
00000000: 65ea 7fbe 7af3 4e3e 8e97 98bd f73f 903e
00000010: f7c4 36be bb70 863c 0648 213e 8c04 3c3d
00000020: a8e6 a9be 8fcc a9bc b23a 993e 294e f43c
00000030: e629 67bb 3e04 7dbd e04f 733e 6c35 5c3e
00000040: fa16 4cbe dd0a 84be 3578 b5be 24a5 a2be
00000050: 9302 6d3e 798d c5be 5deb 97bd af2b 9c3d
00000060: 093f c13e 2476 813e ab31 123d 62d0 f53d
00000070: 724f 69be 1bf4 b8bd 1e73 9a3e 71b5 80be
00000080: 5068 863e 6fc4 aabd d2bf 90be 8c85 013e
00000090: 8d78 7e3e a8f2 6d3e 15d7 913e 8770 b23e
000000a0: 9bac 72be cd76 ae3e 081b 853e 5ed5 473e
000000b0: a397 c63e 6f30 06be 6e4e 6e3e f7cb 60be
000000c0: 453c 3e3e 4313 4bbe 1b16 853e 1fb7 0abe
000000d0: dadf a83e aed4 58be f4e2 80be 0b77 983e
000000e0: 7577 bfbe 42e3 3ebe fb11 a7be 848a 983e
000000f0: d4ae 913e 3408 4d3e eff7 65bd 3888 7a3e
00000100: c651 943e 90e6 313e a700 a03e e2e1 9dbe
00000110: a64c b0bc 4feb a3be a583 92bd d1c0 9bbe
00000120: 38e1 99be cd66 a8be ab8f a33e 8741 3dbe
00000130: dd2e 143c 373d bf3e 4808 863e bb29 883c
00000140: c03f 26bc 7127 7a3b 906c 2cbe fc52 793d
00000150: 5448 06be 37d6 023e 46c4 793e dbe2 75be
00000160: 6b4e 52be 44f2 9dbe fb72 a73e 028f d03e
00000170: 4130 02be 4024 b6bd 31b4 8fbe f281 96be
00000180: ae2e b5be 7004 503d ce94 4dbb 11da a23e
00000190: a1ca c83b 457d ab3e acd4 88be 095c 0f3e
000001a0: 1005 a3be 0d44 ac3e ea74 a93d 0ed9 873e
000001b0: d252 9ebd 1a1e 8e3e db33 be3e 7e6e 39be
000001c0: 2a8e 78be b4bb 98be dcb0 1a3e f1fd 1abe
000001d0: 6671 803b 6909 953d b2bf 1cbe 301e b7be
000001e0: a1f7 77be 20b8 8bbd 8f27 f4bd 0a12 69bc
000001f0: bd63 a6be 5b53 b2be 35eb d73e 5bfd 703e
00000200: 7e6d f43b eea5 73be 2852 ef3d 02b0 d63d
00000210: a4c5 aa3d a06d fa3d a86a 28be d353 1a3d
00000220: b9e6 283e 050b 5cbe 8c31 a13e a434 36be
00000230: 93b5 40bd 7292 e93c 0eb2 473d b0eb f3bd
00000240: 6288 bdbe f41e dbbc 0d8f 6dbe 853d d83e
00000250: e1fa b4be e6be 30be 4d89 bbbe af80 1a3e
00000260: b0e4 58be b575 ce3d eadc e1be 6877 803e
00000270: cc61 4bbe 37a4 ca3d ca0f 2dbe 8726 4c3d
00000280: 2ade c53e fa7f eabe 1c3b a03e fb02 8a3e
00000290: 66f4 8cbd 9763 a43e a317 1cbc e066 673d
000002a0: 7d8b f43e 3936 b6be c317 c83c 9b0f 85be
000002b0: fdc4 95bb 6eec 3a3e 2dbd 023e baa9 b6be
000002c0: eb91 4fbe 4c52 023e d094 efbd 5f85 a0be
000002d0: 24a7 393d 4db4 46bd 1902 dbbd 9860 cdbe
000002e0: 3817 83bd 327e b1be 8bb9 abbe a3c4 703e
000002f0: 72c2 743e 7562 053f 8aca 9fbe 2022 bd3e
00000300: b2b8 b4bd 76e8 fa3c ac50 69be ff29 9c3e
00000310: 987f 023f ba4b 67be fc6a a7be 087b 653c
00000320: ea25 693e b1b6 883d b73c 58be 299f 97be
00000330: adeb d63c 5c03 79be 6bea c3be 5b01 7fbd
00000340: a6cb c13a f71d 6b3e 01f5 ce3e 5a65 08be
00000350: 49b6 543e 0756 683d 526b a6be 3474 d53d
00000360: 3888 20be 0f73 643e 906e 48be 3575 c8bb
00000370: b654 573e 23ad 38be 13a2 c33d 88b9 793d
00000380: 50ab 663b 5948 bd3d 1d38 b33e b7c2 b93e
00000390: 9f6c 97bc 37e9 c3bd 244c d23d 3605 e93e
000003a0: 3eca 18be 6c13 2bbd d12b bdbe 17d6 98be
000003b0: 8ea1 b0be 0972 403d 6488 953e 073c 42be
000003c0: aa60 983e ba26 c03e c863 443e 383c 45be
000003d0: 59ac efbd 03ca 9fbe e8e6 88be da0b a9be
000003e0: ac4f a83e cce7 233e 2371 b7bc bd97 a0be
000003f0: b4ad 64be 0dbe 89be 4d9f cb3e bb8f 323e

bias f4 [128]
0.16764744 -0.3672869 0.30982152 0.25853166 -0.33225742 0.22857416 -0.061760295 -0.11693889
0.2506011 0.05630837 -0.005094358 -0.12938209 -0.2627989 0.19144568 0.49800614 -0.11610055
-0.35766834 -0.20772599 0.33075386 -0.29214555 -0.10973993 -0.03661093 0.3700165 0.30687413
0.36285022 -0.37092406 0.034040026 -0.07054039 0.24781564 0.32560635 -0.127429 0.40816286
-0.3406998 -0.1350329 0.1637235 0.4255851 -0.09741537 0.3077567 0.36768463 0.14843611
-0.13898906 0.24655662 -0.11400431 0.40349767 0.2173625 0.31153244 -0.19917662 0.44741437
-0.2748245 0.027333051 0.091839634 -0.26586333 -0.15458034 0.3204983 0.39161843 0.28542
-0.043906506 0.17567825 0.26978457 0.16670473 0.018487303 0.1885327 -0.3736124 -0.23544273
-0.13997109 -0.08245293 -0.29856592 0.04289426 0.21500745 -0.33760697 -0.071936324 -0.14388421
-0.13890643 -0.22130032 0.37104538 0.24026445 -0.3276172 -0.105132766 0.30946496 -0.01695066
0.3308696 0.5022752 -0.37745902 0.45768124 0.3985962 0.29048148 -0.2770412 0.17329738
-0.25310528 -0.11706046 0.2843695 0.25446746 -0.0420353 0.4918502 0.41534922 -0.01486967
-0.18075494 -0.27918848 -0.25013825 0.18328872 0.039749004 0.14856106 0.28019738 0.26477912
0.108882315 0.43736365 0.27249706 -0.357384 0.33016786 0.29844564 -0.18773896 0.382962
0.29309407 -0.26251552 0.30858877 0.52177125 -0.19380724 0.27000356 0.021660898 0.1666838
0.4122362 -0.24899387 0.35492954 -0.22950839 0.14898023 0.1791493 0.34420982 -0.16089068
00000000: c5ab 2b3e 070d bcbe eda0 9e3e 435e 843e
00000010: a51d aabe 580f 6a3e 5df8 7cbd a87d efbd
00000020: ca4e 803e 9ba3 663d 93ee a6bb bd7c 04be
00000030: 948d 86be 560a 443e a9fa fe3e 20c6 edbd
00000040: 4e20 b7be 1fb6 54be 9258 a93e 1a94 95be
00000050: 54bf e0bd 58f5 15bd cd72 bd3e 9b1e 9d3e
00000060: 81c7 b93e c2e9 bdbe 8e6d 0b3d 7b77 90bd
00000070: 62c3 7d3e e0b5 a63e bf7c 02be b9fa d03e
00000080: 3470 aebe 1146 0abe 22a7 273e 4ae6 d93e
00000090: b681 c7bd 4992 9d3e 2941 bc3e a3ff 173e
000000a0: 2653 0ebe 5779 7c3e 177b e9bd 3f97 ce3e
000000b0: 4694 5e3e 2e81 9f3e f5f4 4bbe 7f13 e53e
000000c0: ccb5 8cbe 90e9 df3c 6b16 bc3d 3d1f 88be
000000d0: 4f4a 1ebe 5a18 a43e 3682 c83e 9222 923e
000000e0: 4fd7 33bd 00e5 333e 3421 8a3e a5b4 2a3e
000000f0: af72 973c b70e 413e 204a bfbe e617 71be
00000100: 9554 0fbe 15dd a8bd a2dd 98be e4b1 2f3d
00000110: ea2a 5c3e d2da acbe 5a53 93bd 6256 13be
00000120: 7d3d 0ebe 8d9c 62be a9f9 bd3e e207 763e
00000130: 71bd a7be d94f d7bd 3172 9e3e 1cdc 8abc
00000140: bd67 a93e 1c95 003f 4f42 c1be 3255 ea3e
00000150: cd14 cc3e fdb9 943e 58d8 8dbe de74 313e
00000160: 0497 81be 65bd efbd e198 913e 8f49 823e
00000170: 352d 2cbd cad3 fb3e a7a8 d43e eb9f 73bc
00000180: d317 39be cbf1 8ebe 1f12 80be 0ab0 3b3e
00000190: dacf 223d 6420 183e 0876 8f3e 2191 873e
000001a0: b1fd de3d 21ee df3e bc84 8b3e 09fb b6be
000001b0: c30b a93e decd 983e a43e 40be 9813 c43e
000001c0: 6d10 963e 6f68 86be 59ff 9d3e cd92 053f
000001d0: 6875 46be e83d 8a3e 3272 b13c 28af 2a3e
000001e0: a010 d33e 40f8 7ebe 53b9 b53e 3f04 6bbe
000001f0: 468e 183e ea72 373e 453c b03e 87c0 24be

weight f4 [64, 128]
0.076615274 0.012154045 -0.05031871 0.046055306 -0.07733876 -0.033207837 -0.05750359 -0.0770296
-0.013530624 0.013322134 -0.0051865913 0.043725573 -0.056656446 0.038309187 0.019758126 -0.040260438
-0.06498225 0.05542517 -0.016424479 0.063923575 0.019646047 0.059972476 -0.056022823 0.019342138
-0.08529617 -0.087358855 0.07595658 -0.02144243 -0.059188716 -0.041601047 0.021274053 -0.034120023
-0.07959292 -0.009635559 0.06952405 0.04478544 0.039860908 0.043852456 -0.06868346 0.08272714
0.016490934 0.06405167 -0.016415512 0.007916779 -0.05780573 0.033449456 -0.00744994 0.061848275
-0.083405964 0.01829267 0.055794533 0.0012549751 -0.05608676 -0.07882831 -0.063244045 -0.072915964
0.061070096 0.077547416 -0.038273003 0.02692779 0.058046147 0.06641198 0.030237097 0.020347476
0.071173854 -0.06927402 0.058443 -0.0785165 0.072922915 0.027639018 0.04136553 0.083490744
-0.017098196 -0.0076454696 -0.04007587 0.007241271 -0.033788644 -0.015695887 -0.07989774 -0.07318428
0.032085437 -0.08347219 0.0070022983 0.01521321 -0.038216677 0.04327141 -0.047405235 -0.050318554
0.0837957 -0.00828213 0.08298641 0.07957998 0.055192973 -0.00011718931 -0.042378288 -0.054066997
-0.078040466 -0.030584428 -0.03300756 0.027114986 -0.03995461 0.035338845 -0.022839209 -0.06517425
0.076818496 -0.07042087 -0.0852486 0.042294066 -0.007957915 -0.06207669 0.047291543 0.027471589
0.019796006 -0.0015535855 -0.016726123 -0.06529691 -0.014383044 0.05682909 -0.0089121405 -0.0019379964
0.05599725 0.086060904 -0.038004264 -0.08661919 0.01738526 0.0067265104 -0.011291256 0.031925857
0.0047466876 -0.04793779 -0.053214245 -0.0028897289 -0.08200058 -0.029823637 0.05396182 -0.07213292
-0.06430989 -0.025676297 -0.006139179 -0.06387345 0.07205985 -0.03608937 0.02298669 -0.020406393
-0.006410683 -0.03630266 -0.091782674 -0.0006067671 0.017306756 0.011981544 -0.0664934 -0.0070039104
-0.07094152 -0.08110104 -0.0043723662 0.015585029 0.048548535 -0.079440184 -0.050856624 -0.06833339
-0.047258105 0.052301046 -0.013325211 -0.054005336 -0.075880334 -0.05236455 -0.024687003 0.034298137
-0.053823434 0.017682388 0.06490084 0.024022829 0.024435773 -0.08115087 0.0064510494 0.047349427
0.07235488 -0.0698979 0.079634786 0.0041125524 0.04972345 -0.048255526 0.054536484 0.062172987
-0.022708694 0.021530982 -0.0082151145 -0.08040273 0.012560479 0.058531947 -0.07380218 -0.078798994
0.07974625 0.08704986 0.008019734 -0.017404092 -0.0014799186 -0.07522558 -1.4856764e-05 0.08417307
0.04003959 0.006141628 0.07560719 0.06336606 0.060514666 0.05842528 0.046944004 0.006843305
-0.06648066 -0.04217817 0.018580722 0.061376635 0.005745172 -0.033745136 0.071306996 -0.030910885
-0.05768608 0.0028961627 0.041169625 -0.05197863 0.037081506 -0.09658917 0.049809616 0.0763866
0.0722095 -0.054520555 0.058931883 0.030708192 -0.08128449 -0.008419149 0.06576884 -0.054164957
-0.092094965 -0.02390745 0.07105175 0.024654347 -0.013142668 -0.081843294 0.05947147 -0.043460965
0.069472685 -0.0051085036 0.008875442 -0.02623382 -0.005181892 0.082 0.010014118 0.03595226
0.071049474 0.054371394 0.056530923 0.038494382 0.058088806 0.04795337 -0.098554984 -0.015101449
00000000: 78e8 9c3d c221 473c fe1a 4ebd 7da4 3c3d
00000010: c963 9ebd f104 08bd e288 6bbd b2c1 9dbd
00000020: 8daf 5dbc 1445 5a3c 48f4 a9bb 9619 333d
00000030: 9710 68bd 18ea 1c3d cbdb a13c 21e8 24bd
00000040: 6a15 85bd 8105 633d a18c 86bc 5dea 823d
00000050: bff0 a03c b3a5 753d 3078 65bd 6773 9e3c
00000060: c2af aebd 33e9 b2bd 208f 9b3d 09a8 afbc
00000070: de6f 72bd dc65 2abd ec46 ae3c 70c1 0bbd
00000080: 9d01 a3bd 77de 1dbc a062 8e3d f070 373d
00000090: 3145 233d a29e 333d eaa9 8cbd d96c a93d
000000a0: ff17 873c 862d 833d d379 86bc 61b5 013c
000000b0: b3c5 6cbd 4c02 093d a01e f4bb 9e54 7d3d
000000c0: bfd0 aabd 82da 953c cf88 643d fa7d a43a
000000d0: 3bbb 65bd bd70 a1bd 1886 81bd f754 95bd
000000e0: a324 7a3d 2ed1 9e3d 27c4 1cbd ab97 dc3c
000000f0: ccc1 6d3d 0103 883d cab3 f73c c0af a63c
00000100: 99c3 913d 8adf 8dbd ed61 6f3d 42cd a0bd
00000110: 9c58 953d 396b e23c e76e 293d 32fd aa3d
00000120: 8411 8cbc d986 fabb 9826 24bd 2f48 ed3b
00000130: f665 0abd a994 80bc 6da1 a3bd a4e1 95bd
00000140: 056c 033d 78f3 aabd 8973 e53b d440 793c
00000150: 1789 1cbd 5d3d 313d fe2b 42bd d41a 4ebd
00000160: 149d ab3d c5b1 07bc c7f4 a93d d4fa a23d
00000170: 0712 623d 88c3 f5b8 db94 2dbd 5b75 5dbd
00000180: aed3 9fbd 328c fabc ef32 07bd 3f20 de3c
00000190: 72a7 23bd 77bf 103d 4b19 bbbc 147a 85bd
000001a0: 0453 9d3d d138 90bd d196 aebd 8b3c 2d3d
000001b0: ea61 02bc 2144 7ebd c7b4 413d 190c e13c
000001c0: 3c2b a23c aea1 cbba 3905 89bc 63ba 85bd
000001d0: dca6 6bbc 9fc5 683d 3a04 12bc 5e04 feba
000001e0: 5f5d 653d b340 b03d 5caa 1bbd 6765 b1bd
000001f0: 886b 8e3c 0f6a dc3b f6fe 38bc b0c4 023d
00000200: 1a8a 9b3b 6b5a 44bd 2ef7 59bd 9b61 3dbb
00000210: ecef a7bd b350 f4bc 1207 5d3d 6dba 93bd
00000220: e7b4 83bd 1957 d2bc 2b2b c9bb 15d0 82bd
00000230: 1d94 933d 72d2 13bd 954e bc3c 4f2b a7bc
00000240: b510 d2bb 19b2 14bd 8ef8 bbbd 730f 1fba
00000250: e6c6 8d3c 3d4e 443c b12d 88bd 0f81 e5bb
00000260: ca49 91bd 4d18 a6bd 1146 8fbb 5958 7f3c
00000270: d4da 463d 89b1 a2bd 094f 50bd 60f2 8bbd
00000280: b791 41bd 9f39 563d fc51 5abc b334 5dbd
00000290: 2667 9bbd 367c 56bd 663c cabc 347c 0c3d
000002a0: f675 5cbd a8da 903c bbea 843d 86cb c43c
000002b0: 882d c83c 6d32 a6bd 5363 d33b 79f1 413d
000002c0: cc2e 943d a126 8fbd 9017 a33d 97c2 863b
000002d0: d1aa 4b3d 96a7 45bd a661 5f3d 1aa9 7e3d
000002e0: 9507 babc be61 b03c b098 06bc 30aa a4bd
000002f0: 78ca 4d3c 32bf 6f3d 9925 97bd 5e61 a1bd
00000300: 0052 a33d 3247 b23d 3465 033c 0793 8ebc
00000310: d4f9 c1ba de0f 9abd 5141 79b7 ee62 ac3d
00000320: 8e00 243d b63f c93b f1d7 9a3d 11c6 813d
00000330: 3ade 773d 594f 6f3d 5b48 403d ce3d e03b
00000340: 0327 88bd 04c3 2cbd 9936 983c 1166 7b3d
00000350: ff41 bc3b 5738 0abd 6709 923d d338 fdbc
00000360: 3d48 6cbd 8ccd 3d3b 7ba1 283d 8be7 54bd
00000370: c7e2 173d 8bd0 c5bd 2b05 4c3d 9470 9c3d
00000380: 93e2 933d f250 5fbd 8f62 713d bf8f fb3c
00000390: 7c78 a6bd 78f0 09bc d0b1 863d 13dc 5dbd
000003a0: 499c bcbd 8ed9 c3bc 9483 913d eaf7 c93c
000003b0: 5854 57bc 759d a7bd 5b98 733d 2004 32bd
000003c0: b247 8e3d 3c65 a7bb 4d6a 113c 4fe8 d6bc
000003d0: dccc a9bb 9eef a73d 4112 243c ad42 133d
000003e0: 6382 913d 8ab4 5e3d f88c 673d 49ac 1d3d
000003f0: 87ee 6d3d c16a 443d 32d7 c9bd 116c 77bc

bias f4 [64]
0.003037323 0.075376086 0.0035611081 0.02253743 0.029338915 0.011986196 0.072372615 0.04135917
0.020369641 0.02368672 0.056730296 0.031515256 0.00033490334 -0.024178522 -0.009174189 -0.0757275
0.02389515 0.1593697 -0.010632402 0.09543801 0.104409076 -0.07744367 0.098430455 -0.0789086
0.086348094 -0.025462428 0.096006505 0.07223182 0.039235454 0.062283825 -0.047876623 0.07209577
0.05748069 0.08975315 0.123169295 0.028890558 -0.041527048 0.068640135 0.11667824 -0.061151978
0.01425533 -0.0014255836 0.06550819 0.06829018 0.013888712 0.09688099 -0.027220773 0.023095155
-0.0181779 0.042863622 0.039991975 0.04104633 0.0801433 0.14661188 -0.022216465 0.12423206
0.107273385 -0.051026337 -0.03833756 -0.082166255 0.090726435 0.062499307 -0.029563364 0.15983641
00000000: d30d 473b c75e 9a3d 7b61 693b 6ba0 b83c
00000010: 2a58 f03c c061 443c 1838 943d 3c68 293d
00000020: 3cde a63c a70a c23c 075e 683d 2416 013d
00000030: f795 af39 0912 c6bc 564f 16bc 0517 9bbd
00000040: c3bf c33c d031 233e 8733 2ebc 0175 c33d
00000050: 6dd4 d53d c99a 9ebd e895 c93d d59a a1bd
00000060: 45d7 b03d 9596 d0bc 0f9f c43d 47ee 933d
00000070: 5bb5 203d 531d 7f3d 471a 44bd f2a6 933d
00000080: df70 6b3d 80d0 b73d 2f40 fc3d e4ab ec3c
00000090: 4418 2abd 3393 8c3d 00f5 ee3d 7f7a 7abd
000000a0: 308f 693c a6da baba 2829 863d b9db 8b3d
000000b0: 7b8d 633c 8a69 c63d 19fe debc 0d32 bd3c
000000c0: d2e9 94bc c491 2f3d a0ce 233d 3220 283d
000000d0: 2c22 a43d 6d21 163e 4eff b5bc 616d fe3d
000000e0: 26b2 db3d fe00 51bd d807 1dbd c846 a8bd
000000f0: c8ce b93d 46ff 7f3d de2e f2bc 28ac 233e

weight f4 [32, 64]
-0.124291375 -0.005730137 0.0341781 -0.08423408 0.003586267 0.012648397 -0.06727856 -0.023546495
-0.037420392 0.11383025 -0.0016328964 0.11312532 -0.031392574 -0.0744828 0.080491304 -0.034346104
0.09149095 0.059216358 -0.015687376 0.046534155 -0.01899378 0.0739283 0.032207437 -0.03493999
-0.058298927 0.061937645 -0.099597245 0.121668756 0.096701205 0.05086784 -0.08278388 0.0067480505
0.06619815 0.04441762 0.041097205 0.040442556 0.013617352 -0.012291103 -0.08597618 0.060742006
-0.12498236 0.034054186 -0.11533243 -0.12362402 -0.05211617 -0.015606415 0.04867649 0.04631053
-0.12205808 0.107964344 -0.009117633 -0.05335796 0.022115096 -0.0063430513 0.07196716 -0.0066549373
-0.06732458 -0.08763139 0.09805195 -0.015668735 -0.02270848 -0.109933004 -0.08605565 -0.008692157
0.05935523 -0.077544354 0.21944414 -0.1300196 0.13860168 -0.10450757 -0.028632117 0.027944945
0.011448482 0.0013772851 0.010246474 0.033376902 -0.10068359 0.27897918 0.008085027 0.07774529
0.046416737 0.09671704 0.119213775 0.20746106 0.02420783 -0.24127416 0.07409419 -0.0062372684
0.088992015 0.12384488 0.038265422 0.027751423 -0.049405314 0.29670686 0.07438534 -0.11462327
-0.079355925 -0.06620532 0.27188143 0.046108123 -0.07070243 0.09053474 0.047684174 -0.08632615
0.19220874 0.022983026 -0.028983641 -0.088063985 0.05937271 0.08060404 -0.041191712 0.07186497
-0.124868415 -0.15197189 -0.18207134 0.08414212 0.12106054 0.019442577 0.2588016 0.17948383
-0.08917468 0.074335515 -0.18871786 0.063716054 0.2578454 0.1772894 0.064651 0.131112
-0.05391021 0.008456715 0.03399681 -0.11314032 0.10696537 -0.077013984 -0.028511552 0.12773083
0.02101087 -0.038350012 -0.14269426 0.15480381 0.10281138 0.17308961 0.03088054 0.115431964
0.18729044 0.12594564 -0.0834932 0.12980251 0.10194553 -0.26430437 0.23044969 -0.114038825
0.05650425 -0.06320253 0.09366137 0.022617674 0.00769499 0.13029014 0.15201181 -0.10466112
0.1147409 0.024309905 0.14014496 -0.09056832 0.06257594 0.0461064 -0.08354661 0.105732486
0.115447104 0.038040794 -0.05192905 0.0062188013 -0.07986507 -0.1157139 0.06492084 -0.07120531
-0.053310797 -0.12832907 -0.25222483 -0.096781164 0.020878125 0.040512078 0.17290187 0.06911723
-0.09450819 -0.050903946 -0.16169336 -0.12742373 0.22385699 0.05324449 0.18837418 0.11063813
0.1146428 -0.11800639 -0.072485425 0.0530379 0.0071625886 0.045641825 -0.120028555 -0.043207597
-0.0006572902 0.03815882 -0.1046668 0.08544 -0.08637886 -0.09787538 0.05530055 0.044802994
0.032457683 -0.027719961 0.11176363 0.06992427 -0.030784562 -0.035375103 -0.057186436 -0.08004382
-0.11444456 -0.005036831 -0.0574885 -0.074972 0.081019 0.025218802 0.05210628 -0.11037235
-0.042956334 -0.027240962 0.11991139 -0.10345897 0.0941761 0.048491497 0.09046362 -0.01738973
-0.06940331 0.074082166 0.09052045 0.028807249 -0.039734915 0.116543956 0.11434671 -0.09304394
0.03465928 0.03292954 -0.09216337 0.041232407 0.102171764 0.120915815 0.008428109 -0.12365836
-0.004600346 -0.09825431 0.06600897 -0.013385057 -0.065406956 -0.08124788 0.11777953 -0.12040863
00000000: 7a8c febd e0c3 bbbb 56fe 0b3d eb82 acbd
00000010: 9307 6b3b 393b 4f3c 57c9 89bd 94e4 c0bc
00000020: 2046 19bd d61f e93d e906 d6ba 3fae e73d
00000030: 8095 00bd 708a 98bd a0d8 a43d 80ae 0cbd
00000040: 9b5f bb3d da8c 723d d082 80bc 999a 3e3d
00000050: d898 9bbc b867 973d f2eb 033d 3c1d 0fbd
00000060: dbca 6ebd 54b2 7d3d a4f9 cbbd 782d f93d
00000070: 480b c63d cc5a 503d 988a a9bd c01e dd3b
00000080: e592 873d 40ef 353d 8b55 283d 18a7 253d
00000090: 501b 5f3c 9f60 49bc 4814 b0bd 9ccc 783d
000000a0: c0f6 ffbd 677c 0b3d 6933 ecbd 972e fdbd
000000b0: c477 55bd 0db2 7fbc 0061 473d 1cb0 3d3d
000000c0: 96f9 f9bd 691c dd3d 2062 15bc e08d 5abd
000000d0: b82a b53c 5fd9 cfbb 8563 933d a911 dabb
000000e0: 78e1 89bd 1678 b3bd 76cf c83d b85b 80bc
000000f0: 2207 babc 8e24 e1bd f23d b0bd 8d69 0ebc
00000100: 781e 733d 93cf 9ebd f7b5 603e dc23 05be
00000110: 99ed 0d3e 1108 d6bd e78d eabc ccec e43c
00000120: 6a92 3b3c 0586 b43a d4e0 273c 38b6 083d
00000130: 3333 cebd 5cd6 8e3e 1077 043c ec38 9f3d
00000140: 7a1f 3e3d 9513 c63d 5a26 f43d ac70 543e
00000150: 804f c63c 9310 77be b2be 973d 0062 ccbb
00000160: 7241 b63d 62a2 fd3d 34bc 1c3d f456 e33c
00000170: 3a5d 4abd f6e9 973e 5757 983d 9bbf eabd
00000180: 5c85 a2bd a896 87bd 0b34 8b3e dfdb 3c3d
00000190: 70cc 90bd 476a b93d 7b50 433d c4cb b0bd
000001a0: 5ed2 443e e646 bc3c 1a6f edbc e45a b4bd
000001b0: cc30 733d bb13 a53d a4b8 28bd f12d 933d
000001c0: 03bb ffbd 859e 1bbe e970 3abe b452 ac3d
000001d0: 97ee f73d 0a46 9f3c a581 843e 9cca 373e
000001e0: 37a1 b6bd 383d 983d 413f 41be 907d 823d
000001f0: 5004 843e 5a8b 353e be67 843d 3942 063e
00000200: f4d0 5cbd 098e 0a3c 3d40 0b3d 1db6 e7bd
00000210: a910 db3d 82b9 9dbd 0f91 e9bc dfcb 023e
00000220: fd1e ac3c e714 1dbd 721e 12be e484 1e3e
00000230: c68e d23d 673e 313e 30f9 fc3c 9867 ec3d
00000240: 11c9 3f3e e5f7 003e 7cfe aabd f3ea 043e
00000250: d1c8 d03d e752 87be 01fb 6b3e 308d e9bd
00000260: 0071 673d 5470 81bd 88d1 bf3d b348 b93c
00000270: 4126 fc3b c76a 053e fca8 1b3e 9258 d6bd
00000280: 47fd ea3d 9125 c73c 2982 0f3e e27b b9bd
00000290: d027 803d 11da 3c3d 7c1a abbd 468a d83d
000002a0: 886f ec3d aad0 1b3d 8eb3 54bd 16c7 cb3b
000002b0: 4c90 a3bd 69fb ecbd 38f5 843d 17d4 91bd
000002c0: 6c5c 5abd b268 03be 9d23 81be 3435 c6bd
000002d0: 9a08 ab3c feef 253d 300d 313e 568d 8d3d
000002e0: 838d c1bd a880 50bd f292 25be 5e7b 02be
000002f0: c43a 653e e516 5a3d 29e5 403e 3e96 e23d
00000300: d8c9 ea3d 56ad f1bd 3d73 94bd 453e 593d
00000310: 26b4 ea3b ecf2 3a3d 88d1 f5bd 73fa 30bd
00000320: 004e 2cba 6c4c 1c3d 8c5b d6bd 2bfb ae3d
00000330: 66e7 b0bd e372 c8bd d482 623d 5883 373d
00000340: 59f2 043d f914 e3bc 54e4 e43d 7534 8f3d
00000350: e82f fcbc 7ce5 10bd 533c 6abd 04ee a3bd
00000360: e961 eabd 000c a5bb 1079 6bbd ec8a 99bd
00000370: 4aed a53d a997 ce3c 656d 553d e60a e2bd
00000380: fbf2 2fbd 7028 dfbc 1a94 f53d 4ce2 d3bd
00000390: 66df c03d 059f 463d fe44 b93d e874 8ebc
000003a0: 5323 8ebd 64b8 973d c962 b93d 2efd eb3c
000003b0: 14c1 22bd 99ae ee3d 9c2e ea3d d28d bebd
000003c0: e4f6 0d3d 20e1 063d 26c0 bcbd 50e3 283d
000003d0: 6e3f d13d b6a2 f73d 0d16 0a3c 9840 fdbd
000003e0: 80be 96bb 8e39 c9bd b62f 873d 004d 5bbc
000003f0: 15f4 85bd 4a65 a6bd 6536 f13d cd98 f6bd

bias f4 [32]
-0.06526103 -0.014772858 0.082851484 -0.027238522 -0.02816356 0.07498869 0.0035968071 0.08832609
-0.028594539 -0.08151218 0.01745424 0.11774561 -0.09121339 -0.11504159 0.11219501 -0.09422386
0.056182567 0.09101926 0.111772835 -0.058004454 0.014393441 0.06297966 0.012090832 0.058821753
0.03577488 0.13066824 0.046777185 0.04356963 0.16658589 0.060247306 0.1545264 -0.096540816
00000000: 93a7 85bd db09 72bc 0aae a93d 5223 dfbc
00000010: 44b7 e6bc ac93 993d 69b8 6b3b 4fe4 b43d
00000020: 183f eabc dcef a6bd 32fc 8e3c 9c24 f13d
00000030: 16ce babd ed9a ebbd 7fc6 e53d 70f8 c0bd
00000040: b11f 663d 4e68 ba3d 28e9 e43d 1496 6dbd
00000050: 78d2 6b3c 7bfb 803d a018 463c 14ef 703d
00000060: ae88 123d e5cd 053e 6f99 3f3d 1176 323d
00000070: 7e95 2a3e e1c5 763d 2b3c 1e3e 31b7 c5bd

weight f4 [2, 32]
-0.03248684 0.115506984 -0.16133815 0.2361683 0.0018692549 -0.06357235 0.1982923 -0.14579876
0.23865975 0.107247904 -0.09762632 0.02516439 -0.12873966 -0.06187022 -0.109741546 -0.12833944
0.12842534 0.20627593 -0.084594354 -0.043530744 0.25579762 0.17783713 0.2437127 0.029534735
-0.0019708963 0.21847525 -0.040158417 0.037604224 -0.079590306 0.07891114 0.12396264 0.15956852
0.20485659 0.13042647 -0.008731444 -0.2435486 0.03955981 0.029558722 -0.14449476 0.057457447
0.0054986305 0.111133546 -0.05340731 0.17778723 -0.026856188 -0.074500866 -0.09180867 -0.1093995
0.13840649 -0.17663004 -0.11468413 -0.049516357 -0.123605266 -0.09171384 0.07746172 -0.25124562
-0.099129885 -0.22429006 0.05640102 -0.33961406 0.11868303 -0.17193407 0.0780371 -0.11375248
00000000: ec10 05bd ed8e ec3d d435 25be 1ad6 713e
00000010: c901 f53a 3832 82bd 230d 4b3e 454c 15be
00000020: 3963 743e caa4 db3d 4ff0 c7bd 8d25 ce3c
00000030: 54d4 03be a16b 7dbd 2dc0 e0bd 6a6b 03be
00000040: ef81 033e ff39 533e ce3f adbd 4b4d 32bd
00000050: e8f7 823e f01a 363e d28f 793e d4f2 f13c
00000060: 272a 01bb fab7 5f3e 277d 24bd e306 1a3d
00000070: 3e00 a3bd 2a9c a13d 20e0 fd3d ee65 233e
00000080: edc5 513e 848e 053e 550e 0fbc ce64 79be
00000090: 7809 223d 2225 f23c 6ff6 13be 8058 6b3d
000000a0: db2d b43b fc99 e33d a0c1 5abd db0d 363e
000000b0: 8201 dcbc e993 98bd 2f06 bcbd d80c e0bd
000000c0: 6eba 0d3e 81de 34be 83df eabd aad1 4abd
000000d0: c224 fdbd 77d4 bbbd 40a4 9e3d 44a3 80be
000000e0: 9c04 cbbd 4bac 65be c204 673d e5e1 adbe
000000f0: 1710 f33d 7c0f 30be ead1 9f3d 0ff7 e8bd

bias f4 [2]
-0.044494748 0.0029055318
00000000: 2040 36bd bc6a 3e3b
