2023/baseline0806/model/WLTP_trained_0822/PPO_actorcritic_41episode.pt (torch, 101527 bytes, 17 tensors)

weight f4 [128, 7]
0	0xbe703a0e	-0.23459646
1	0xbe97febd	-0.29686537
2	0x3e862a82	0.26204306
3	0xbec4a829	-0.38409546
4	0xbe7dbdbb	-0.24779408
5	0x3ec79d3f	0.38987157
6	0x3eba44a2	0.36380488
7	0xbd25ce1e	-0.04047977
8	0xbe39b0ac	-0.18133801
9	0x3dadfb07	0.08495145
10	0xbe8efc21	-0.27926734
11	0xbe0c1b93	-0.13682394
12	0xbeb979ee	-0.36225837
13	0xbe9a61b6	-0.30152673
14	0x3dcb8eee	0.09939371
15	0xbdf4a6a3	-0.11945846
16	0xbe2d378b	-0.16915719
17	0x3d8f0476	0.06983273
18	0x3ea54d17	0.32285377
19	0x3ec682c1	0.38771632
20	0x3d9470a1	0.07248045
21	0xbe9bb069	-0.30408028
22	0xbe770909	-0.2412454
23	0xbe787096	-0.24261698
24	0xbdc4941a	-0.09598561
25	0xbe355e17	-0.17711674
26	0x3e8e0689	0.2773936
27	0x3ece2726	0.40264243
28	0x3dd997ab	0.106246315
29	0xbe3be774	-0.18350011
30	0xbec47ece	-0.38377994
31	0x3da74d7c	0.08169076
32	0x3d6afa0e	0.057367377
33	0x3e464e47	0.19365798
34	0xbbe9980e	-0.007128722
35	0xbd401d3f	-0.04690289
36	0xbd95f016	-0.073211834
37	0xbe7c9714	-0.24667007
38	0xbd75ea01	-0.060037617
39	0x3e718123	0.23584418
40	0x3e19d547	0.15022765
41	0x3eaafef5	0.33397642
42	0xbeada894	-0.33917677
43	0xbe81e30c	-0.25368536
44	0xbead099a	-0.33796388
45	0x3c4285f4	0.011872757
46	0xbe8d5075	-0.27600446
47	0xbe1560c1	-0.1458769
48	0xbb9ac17b	-0.0047227717
49	0x3db6aa63	0.089192174
50	0xbeab0b07	-0.3340685
51	0x3eb4dded	0.35325566
52	0x3e9de173	0.30836067
53	0x3e8b3680	0.27190018
54	0xbebeb88c	-0.37250173
55	0xbcdbc32f	-0.02682647
56	0x3ee30dd1	0.4434648
57	0xbd2f0606	-0.042730354
58	0xbe8e6546	-0.2781164
59	0xbc3819fa	-0.011236662
60	0x3ee0e8bf	0.4392757
61	0xbe739faa	-0.23791376
62	0x3d2642af	0.04059094
63	0x3ea9aa28	0.3313763
64	0xbe5c3581	-0.21504785
65	0xbeb86fc3	-0.36022767
66	0xbec60896	-0.38678426
67	0xbe1fe289	-0.1561376
68	0x3eb8b78c	0.36077535
69	0x3ea015be	0.31266588
70	0x3e96e9cb	0.29475245
71	0x3e84f111	0.2596517
72	0x3d7bee1f	0.061506387
73	0x3e1cab69	0.15299763
74	0xbea2d325	-0.31801715
75	0x3cec40af	0.028839437
76	0x3d2e7dd9	0.042600486
77	0xbd40ef7f	-0.0471034
78	0x3ed6f30e	0.4198231
79	0x3e49f706	0.19723138
80	0xbdcad14c	-0.099032015
81	0x3e539196	0.20661005
82	0xbd3038b2	-0.04302282
83	0xbdb43eae	-0.08801018
84	0xbe848fbe	-0.25890917
85	0xbe98e1c5	-0.29859748
86	0x3e87a126	0.26490134
87	0xbeb90507	-0.36136648
88	0x3e7b92b3	0.2456768
89	0xbe130c76	-0.14360222
90	0x3e5a99c9	0.21347727
91	0x3e7e59c9	0.24838938
92	0x3e410dda	0.1885294
93	0x3e9eadbc	0.30991924
94	0x3d0f9e6c	0.035063192
95	0xbe2b81ef	-0.16748784
96	0xbe0ad83c	-0.1355905
97	0xbe8e2f77	-0.27770588
98	0xbd710ba1	-0.05884898
99	0x3ce055ad	0.027384603
100	0x3dd7e69c	0.10542032
101	0x3cfd3c26	0.03091247
102	0xbd2ed245	-0.042680997
103	0x3e228259	0.15870036
104	0xbe7550cb	-0.23956601
105	0x3e4fa562	0.20277932
106	0xbe8490a2	-0.25891596
107	0xbc0bf647	-0.008542604
108	0x3e34ed14	0.17668563
109	0xbd27c873	-0.040962648
110	0x3e98a9a4	0.29816926
111	0xbe7d17a9	-0.24716057
112	0xbe496362	-0.19666818
113	0xbeb37e19	-0.35057142
114	0xbe64cdf5	-0.22344191
115	0x3e8d96a1	0.27653983
116	0x3dcdb60d	0.10044489
117	0xbe015d09	-0.12633146
118	0x3d17a160	0.037019134
119	0xbe06a36c	-0.13148278
120	0x3f032209	0.5122381
121	0xbd75f517	-0.06004819
122	0x3ef43678	0.47697806
123	0xbe8a561f	-0.2701883
124	0xbde3c011	-0.11120618
125	0xbe309055	-0.17242558
126	0x3ebbb247	0.36659452
127	0xbe1c016b	-0.15234916
128	0x3d4e6547	0.050389554
129	0xbec3b81e	-0.38226408
130	0xbe9b89ac	-0.30378473
131	0xbe810cad	-0.25204983
132	0xbe7c3e24	-0.2463308
133	0xbe142a7e	-0.14469334
134	0xbe9449a4	-0.28962433
135	0xbc0896ca	-0.008336732
136	0xbe8d507d	-0.2760047
137	0x3db22412	0.08698286
138	0xbd8924dd	-0.06696484
139	0xbd54a094	-0.05191095
140	0x3eab7350	0.33486414
141	0xbe2b209e	-0.16711661
142	0x3ddd6512	0.10810293
143	0x3cb02196	0.02150039
144	0x3cdeddea	0.027205426
145	0x3eb07d42	0.34470564
146	0x3ea51722	0.3224421
147	0xbdbdf109	-0.092744894
148	0x3c52bff9	0.012863153
149	0xbda1ef9d	-0.07907031
150	0xbdf31a73	-0.11870279
151	0x3c45decc	0.012077045
152	0xbe53c8bf	-0.20682047
153	0x3d91f8f2	0.07127561
154	0xbeb489ac	-0.35261285
155	0x3d19c2aa	0.03753916
156	0x3e7106db	0.23537771
157	0xbdf08b52	-0.11745323
158	0x3b9ccfd9	0.0047855196
159	0xbe1907c3	-0.14944367
160	0x3e83aa84	0.2571603
161	0x3e89359a	0.26798707
162	0xbe08b1ee	-0.13349125
163	0x3e427043	0.18988137
164	0x3e6616e3	0.22469668
165	0x3d63ebf3	0.05564494
166	0x3eaeb6b3	0.34123763
167	0x3ecaba7c	0.395954
168	0x3ec10622	0.3769999
169	0xbe885091	-0.26623967
170	0x3d76c1b1	0.060243312
171	0xbea9ce17	-0.33165047
172	0x3eaae309	0.3337634
173	0xbdc9e193	-0.09857478
174	0x3e97458d	0.2954525
175	0x3d64d3c5	0.05586602
176	0x3d33460d	0.043767978
177	0xbeb32020	-0.34985447
178	0xbdd85ec9	-0.10564954
179	0xbd212390	-0.039340556
180	0x3e22385d	0.15841813
181	0xbe3f3bfa	-0.18675223
182	0x3e676ef7	0.22600923
183	0xbebb1c59	-0.36545065
184	0x3e878faa	0.26476794
185	0xbe7e1ab0	-0.24814868
186	0xbe2772d5	-0.16352399
187	0x3e7be8a7	0.24600469
188	0x3e27479e	0.16335914
189	0x3ea21440	0.31656075
190	0x3d50ea8d	0.051004935
191	0x3e159043	0.14605813
192	0x3e4c73dc	0.19966072
193	0x3e8eb4c4	0.27872288
194	0xbe150eae	-0.14556381
195	0x3e8c9c22	0.2746287
196	0x3c83ad91	0.016073974
197	0x3ec0026f	0.37501857
198	0xbd27fa93	-0.04101045
199	0x3ea22dff	0.31675717
200	0xbe685fd5	-0.22692807
201	0xbdde13f1	-0.10843647
202	0x3e57af57	0.2106298
203	0x3e9940eb	0.2993234
204	0xbbb0b72a	-0.0053929286
205	0x3e19b926	0.15012035
206	0xbe7dac51	-0.24772765
207	0x3e123e75	0.14281638
208	0x3ec32021	0.3811045
209	0x3e3ea448	0.18617356
210	0xbde449e9	-0.1114691
211	0xbe857a34	-0.26069796
212	0xbdc12025	-0.09429959
213	0x3d90698c	0.070513815
214	0xbe819291	-0.25307134
215	0x3e70c302	0.2351189
216	0x3e943d9d	0.28953257
217	0x3e339109	0.17535795
218	0xbe46027d	-0.19336887
219	0x3e0077c3	0.12545685
220	0xbe04b42e	-0.12959358
221	0x3e8220b2	0.2541557
222	0x3eb9961f	0.36247346
223	0x3e7dc1aa	0.24780908
224	0x3db84fcd	0.08999596
225	0xbe8a33ac	-0.26992548
226	0xbde742f8	-0.1129207
227	0x3e9beec5	0.30455604
228	0x3e9e5df8	0.30931067
229	0xbe28c3af	-0.16480897
230	0xbc58b6f3	-0.013227212
231	0x3e5c20a0	0.2149682
232	0x3d84ffb4	0.06494084
233	0x3d874647	0.06605201
234	0x3eac1561	0.3361006
235	0x3e441e70	0.19152236
236	0xbe7836a1	-0.2423959
237	0x3ea1cb65	0.3160049
238	0x3e0eb938	0.13937843
239	0xbe951437	-0.29116985
240	0xbe2e5f7f	-0.17028616
241	0xbe2d6076	-0.16931328
242	0x3ea5ce2b	0.32383856
243	0xbe42a269	-0.19007267
244	0x3d58602a	0.052826084
245	0x3e046cde	0.12932155
246	0x3db884fa	0.09009738
247	0x3e8266d6	0.25469083
248	0xbdb40233	-0.08789482
249	0x3db4a04b	0.08819636
250	0xbe674ade	-0.22587153
251	0x3ea0f957	0.3144023
252	0xbe579ecb	-0.21056668
253	0x3e90285d	0.28155795
254	0x3d5387ae	0.051643066
255	0x3e90d038	0.28283858

bias f4 [128]
0	0xbe3ac2e0	-0.18238401
1	0xbe7448f0	-0.23855948
2	0x3e44c939	0.19217385
3	0x3ed0e1b4	0.40797198
4	0x3d839971	0.06425751
5	0xbe11d779	-0.14242353
6	0xbdd1db23	-0.10246875
7	0x3dbcc03d	0.09216354
8	0x3be6cca3	0.0070434376
9	0x3ec66009	0.38745144
10	0x3e91ca37	0.2847459
11	0x3d2339ff	0.03985023
12	0x3db825a4	0.089915544
13	0x3e5d7bd7	0.21629272
14	0x3d1e9084	0.03871204
15	0xbe172580	-0.14760399
16	0xbe4c695c	-0.19962066
17	0x3e5185b6	0.20461163
18	0x3eb6e344	0.35720265
19	0x3e4f8172	0.20264223
20	0xbd9a0600	-0.07520676
21	0xbe9af27e	-0.30263132
22	0x3e531e1e	0.20616958
23	0xbe56a613	-0.2096179
24	0xbd916503	-0.070993446
25	0xbe910c02	-0.28329474
26	0xbdcba5b8	-0.09943718
27	0x3d7ae6a6	0.06125512
28	0xbe97359b	-0.29533085
29	0xbeaf58f4	-0.34247553
30	0x3e8f16a3	0.27946958
31	0x39cd62c0	0.00039174221
32	0x3e9cd205	0.30628982
33	0x3d600d8b	0.054700416
34	0x3e979ef1	0.2961345
35	0xbe6d928c	-0.23200434
36	0xbe943c30	-0.2895217
37	0xbdcff75e	-0.101546034
38	0xbe779f27	-0.24181806
39	0xbd1a7735	-0.03771134
40	0xbe4d1259	-0.2002653
41	0xbecd1a23	-0.40059003
42	0xbacd7321	-0.001567457
43	0xbd7aabb6	-0.061198913
44	0xbe9246a2	-0.28569514
45	0xbd1ce0f2	-0.038300462
46	0xbe8fa6fe	-0.28057092
47	0x3be97cc3	0.0071254685
48	0xbe820c38	-0.25399947
49	0xbdc3c957	-0.09559887
50	0x3e59359d	0.21211858
51	0x3ec541e5	0.38526836
52	0x3c9debd7	0.019277496
53	0xbea3e590	-0.3201108
54	0xbe14707b	-0.14496033
55	0x3e50cf4f	0.20391582
56	0x3e983191	0.29725316
57	0x3e7da082	0.2476826
58	0xbd8cce8b	-0.068753324
59	0xbeb3824c	-0.35060346
60	0xbeaa42f2	-0.332542
61	0x3e116b01	0.14200975
62	0x3c2954cc	0.010335159
63	0x3e8df637	0.2772691
64	0x3e958a6e	0.29207176
65	0xbe46d36c	-0.19416589
66	0xbeb5f34f	-0.35537192
67	0xbe5b4d8c	-0.214163
68	0x3ebcdc9d	0.36887065
69	0x3db56e45	0.08858923
70	0x3dd19dac	0.10235152
71	0xbd224282	-0.039614208
72	0xbe79568d	-0.24349423
73	0x3ea8c4ed	0.32962742
74	0x3d7c2e7a	0.06156776
75	0xbd80a622	-0.06281687
76	0x3e184218	0.14868963
77	0x3e9363f9	0.2878721
78	0xbdc0fa5f	-0.094227545
79	0x3e95185e	0.29120153
80	0x3e94e4ff	0.2908096
81	0x3e9087f7	0.28228733
82	0x3e2cb1fb	0.16864769
83	0xbe84326b	-0.25819716
84	0xbe09a7e2	-0.13442948
85	0xbe0fb1c6	-0.14032659
86	0xbe9bc43c	-0.30423152
87	0xbe597b3b	-0.21238415
88	0xbeaca55f	-0.33719918
89	0xbe1ccc98	-0.15312421
90	0x3ebbbc05	0.36666885
91	0x3e8c9e0d	0.27464333
92	0x3eb84eea	0.35997707
93	0x3ecf79a3	0.4052249
94	0x3db9ff16	0.09081857
95	0xbe9900be	-0.2988338
96	0x3e07449b	0.13209765
97	0x3e854c5b	0.26034817
98	0x3e01e356	0.12684378
99	0xbea76f87	-0.32702276
100	0x3ec9e8a7	0.39435312
101	0x3e8c2dcb	0.27378687
102	0x3e3fe5b8	0.18739974
103	0x3eb64f08	0.3560717
104	0xbe559f68	-0.2086159
105	0x3c9ff47e	0.019525763
106	0x3da1f966	0.07908897
107	0xbe366a9b	-0.17814104
108	0xbe2abbaf	-0.16673158
109	0x3dd7405f	0.10510325
110	0x3d5d1c3b	0.053982
111	0xbe8075bd	-0.25089827
112	0xbeaceb64	-0.3377334
113	0xbd337458	-0.043812126
114	0x3ea0b96e	0.31391472
115	0x3c1f5767	0.009725428
116	0xbe23cb03	-0.15995412
117	0x3e4e15f4	0.20125562
118	0x3e83cb6d	0.2574114
119	0xbe24128d	-0.16022702
120	0x3e87b387	0.26504156
121	0xbdc10c15	-0.094261326
122	0xbe1b7717	-0.15182148
123	0x3e6bdb06	0.2303277
124	0x3e3ae10f	0.18249916
125	0xbe826ca6	-0.25473517
126	0x3e9f257b	0.31083283
127	0xbe8b182a	-0.27166873

weight f4 [64, 128]
0	0xbce2f1fe	-0.027703281
1	0x3dacf6fd	0.08445547
2	0x3b0de19a	0.0021649362
3	0x3d3f6269	0.04672471
4	0x3d78fee7	0.06078997
5	0xbd73637f	-0.05942106
6	0x3dae3d81	0.08507825
7	0xbcc479be	-0.023983832
8	0xbda2e8d5	-0.079545654
9	0xbd6d833d	-0.057986487
10	0x3c4a1c1b	0.012335802
11	0x3db46466	0.08808212
12	0xbcb37454	-0.021906056
13	0x3cb3499e	0.02188569
14	0xbda52a74	-0.08064738
15	0x3c87d109	0.016579168
16	0x3c5e8770	0.0135820955
17	0xbd93189d	-0.07182429
18	0xbce8a4bb	-0.028398862
19	0xbd0b068a	-0.033941783
20	0xbd167944	-0.03673674
21	0x3d897135	0.06711046
22	0xbc037424	-0.008023296
23	0xbd609658	-0.05483088
24	0x3cbc3888	0.022976175
25	0x3d2871f2	0.04112429
26	0x3d09e9bb	0.03367017
27	0x3bfaad90	0.007650085
28	0xbc29cb88	-0.010363467
29	0xbd88c4d8	-0.0667817
30	0xbd6d649d	-0.05795728
31	0x3d6dc48c	0.05804877
32	0x3d9e73ed	0.07736955
33	0xbcee4242	-0.029084329
34	0xbb2f0ba7	-0.0026709826
35	0xbd82c569	-0.06385309
36	0xbb3dcb40	-0.0028960258
37	0xbda050a0	-0.07827878
38	0x3db11610	0.08646786
39	0x3cc83ed5	0.024444023
40	0xbcca2224	-0.024674483
41	0x3c9d3b15	0.019193212
42	0x3d7878aa	0.06066195
43	0x3cae75cb	0.021296402
44	0x3da9c376	0.08289234
45	0xbd134f98	-0.03596458
46	0xbc55c9b6	-0.01304858
47	0xbd9bdb84	-0.07610229
48	0x3d9ab47b	0.07553955
49	0xbd9ed4a6	-0.07755403
50	0xba44b6bb	-0.00075040356
51	0xbd6cb997	-0.05779418
52	0xbd1afd5a	-0.03783927
53	0x3d71d659	0.05904231
54	0xbcd9e33c	-0.026597612
55	0x3d9f5263	0.07779386
56	0x3d1a653c	0.0376942
57	0xbd7bc64c	-0.061468408
58	0xbced5363	-0.028970426
59	0xbd6d733b	-0.05797122
60	0xbd9049d8	-0.070453346
61	0xbba95c84	-0.0051684994
62	0xbd6fa997	-0.058511343
63	0xbd864e07	-0.06557851
64	0xbd37dfd2	-0.044891186
65	0x3daae01f	0.08343529
66	0x3d99a665	0.0750244
67	0x3d5838b7	0.052788462
68	0x3d2ac872	0.041695066
69	0x3d20ca33	0.039255332
70	0xbb155012	-0.0022783321
71	0x3d8cc04a	0.06872614
72	0x3d64f5cb	0.05589847
73	0x3d548652	0.05188591
74	0x3c733849	0.014844962
75	0xbdaddb03	-0.08489039
76	0xbd82a29b	-0.06378671
77	0x3c9a733f	0.018853782
78	0xbd92847f	-0.07154178
79	0xbd8689f0	-0.06569278
80	0x3d10fc52	0.03539688
81	0xbd30d1dc	-0.043168887
82	0xbd893d65	-0.06701163
83	0xbceb7f8c	-0.028747343
84	0xbb96e856	-0.0046053333
85	0xbccd2614	-0.025042571
86	0xbd2299eb	-0.03969757
87	0x3d7a1a8d	0.061060477
88	0x3cf28301	0.029603483
89	0x3daa7476	0.083229944
90	0xbd0fbbc0	-0.03509116
91	0x3caca50c	0.021074794
92	0xbd0ed4a0	-0.034870744
93	0x3d9f11cf	0.077670686
94	0x3d3502da	0.044192173
95	0xbcaa0332	-0.020753477
96	0x3cefb4d3	0.029261028
97	0x3cb3d53a	0.02195226
98	0xbb165e5d	-0.0022944428
99	0xbd528fc4	-0.051406637
100	0x3bb593e0	0.0055413097
101	0x3cde6f8d	0.027152801
102	0xbbbca721	-0.005757228
103	0x3d00e7d0	0.031471074
104	0x3d418896	0.0472494
105	0x3d6e0ce7	0.058117773
106	0xbc8f9cfa	-0.017530907
107	0xbc8b4f5f	-0.01700562
108	0x3d4f4b04	0.05060865
109	0xbd90caf2	-0.07069959
110	0x3da7bdc3	0.08190491
111	0x3cc5f9f7	0.024167044
112	0x3cc54fa4	0.024085827
113	0x3d037e0d	0.032102633
114	0xbd61c2aa	-0.055117287
115	0xbd96305a	-0.07333441
116	0xbd37ce52	-0.044874497
117	0x3c9dcbe8	0.01926227
118	0x3a9542fd	0.0011387762
119	0xbd522049	-0.05130032
120	0xbd032da9	-0.032025967
121	0x3d8ee04d	0.06976376
122	0x3c33715e	0.010952322
123	0xbc705069	-0.014667609
124	0xbd134ee0	-0.035963893
125	0xbd5e7716	-0.054312788
126	0xbd93b598	-0.07212371
127	0x3d6bf3db	0.057605606
128	0x3d58cc61	0.052929286
129	0x3dab4e19	0.08364505
130	0xbd78a6a5	-0.0607058
131	0xbcb54644	-0.022128232
132	0xbd1426f8	-0.036169976
133	0x3b095161	0.0020953047
134	0xbd47d91c	-0.048791036
135	0x3cb5da6e	0.022198882
136	0x3b369778	0.0027861279
137	0x3d24b07e	0.04020738
138	0xbc94b8bd	-0.018154496
139	0xbd271f8d	-0.040801574
140	0xbc3ce154	-0.011528332
141	0xbd1e2193	-0.038606238
142	0xbbd660ad	-0.0065422864
143	0xbc8c2ef9	-0.017112242
144	0x3d2ab7a1	0.04167903
145	0x3d19c1dc	0.037538394
146	0xbd827208	-0.06369406
147	0x3cde37b6	0.027126174
148	0x3d971065	0.07376174
149	0x3db1b977	0.08677953
150	0xbc99dae3	-0.018781131
151	0x3cfb34a8	0.030664757
152	0xbd61d575	-0.05513521
153	0x3d77339a	0.060351945
154	0x3ba93a9e	0.0051644584
155	0x3d494c00	0.049144745
156	0x3d7e30e4	0.062058344
157	0xbd3b7bd1	-0.045772377
158	0x3d84f669	0.064923115
159	0x3d001393	0.031268667
160	0xbd2a1215	-0.04152115
161	0xbd93a37e	-0.07208918
162	0x3d050772	0.032477804
163	0x3d5cb1b3	0.053880405
164	0x3d9f0457	0.077645
165	0x3da63d9c	0.0811722
166	0x3d74b2ad	0.05974071
167	0xbcdcac98	-0.026937768
168	0xbcecdf29	-0.028915005
169	0xbd31d33c	-0.04341434
170	0xbcb30dda	-0.02185719
171	0x3d7d89da	0.061899044
172	0x3dabbef0	0.08386028
173	0xbc6b5b8d	-0.014365089
174	0xbacc7ef7	-0.0015601803
175	0xbcbd941e	-0.023141917
176	0xbd95b76d	-0.07310376
177	0xbd5af3c5	-0.053455133
178	0x3d9c09fc	0.07619092
179	0xbd1febb2	-0.039043136
180	0x3ce19627	0.027537419
181	0x3cd77dff	0.026305197
182	0xbd907514	-0.07053581
183	0xbd232389	-0.03982881
184	0xbd74e5fd	-0.059789646
185	0xbadd851f	-0.0016900635
186	0x3cecc082	0.028900389
187	0x3d6bb2a8	0.057543427
188	0x3d5b380c	0.053520247
189	0xbd87fb8a	-0.06639774
190	0x3d008d7b	0.031384926
191	0x3d5e2ec9	0.054243837
192	0x3cff47d7	0.031162186
193	0x3da3031c	0.079595774
194	0xbd34805e	-0.044067733
195	0xbdad9f38	-0.08477634
196	0xbd88b8e1	-0.06675888
197	0x3c8b3223	0.01699168
198	0x3da45bad	0.08025298
199	0x3d2e3c95	0.042538244
200	0xbc97a73c	-0.01851236
201	0xbd3971ae	-0.04527443
202	0x3d3e7752	0.04650051
203	0x3d26724f	0.040636357
204	0x3d853a00	0.06505203
205	0xbd9eaab0	-0.077474
206	0xbd3d0d6f	-0.04615539
207	0x3cd6d927	0.026226593
208	0xbbf4ecbc	-0.00747451
209	0x3d264560	0.040593505
210	0xbce716ea	-0.028209168
211	0xbd943f4a	-0.07238634
212	0x3d9f3aa8	0.0777486
213	0x3b88d264	0.004175471
214	0xbcc27c8f	-0.023741035
215	0xbdb0d97a	-0.0863523
216	0x3d8875d0	0.06663096
217	0x3a099cc4	0.0005249495
218	0xbbba1415	-0.0056786635
219	0xbd973084	-0.073823005
220	0xbd1a3964	-0.03765239
221	0xbd9c2b42	-0.07625438
222	0xbc2fb522	-0.010724338
223	0x3b498ac1	0.003075287
224	0x3caf910e	0.021431472
225	0x3d693961	0.056939486
226	0x3c5dad08	0.013530023
227	0xbda72840	-0.08161974
228	0xbd259c4f	-0.04043227
229	0xbc6b127c	-0.014347669
230	0xbd994b41	-0.07485057
231	0x3da09e04	0.07842639
232	0xbcd69c4c	-0.026197575
233	0xbd43166a	-0.047628798
234	0xbc122620	-0.0089202225
235	0xbd441363	-0.04787005
236	0x3c4ca171	0.0124896625
237	0x3d59334b	0.053027432
238	0xbd9e89ef	-0.077411525
239	0x3d7a252e	0.061070614
240	0x3db18f3a	0.086698964
241	0x3c488ac8	0.012240119
242	0x3d16e5df	0.036840316
243	0xbd9668da	-0.073442176
244	0xbd00b9fa	-0.03142736
245	0x3db2d2b9	0.087315984
246	0x3b149afb	0.0022675383
247	0x3d34045e	0.043949477
248	0xbd7cd4b7	-0.0617263
249	0xbd62ee83	-0.055403244
250	0x3d27a0a4	0.040924683
251	0xbbb0bff0	-0.0053939745
252	0x3d1aa0e7	0.037751105
253	0x3dac74ec	0.084207386
254	0x3d7b1aab	0.06130473
255	0x3d2b0720	0.04175484

bias f4 [64]
0	0xbd944fc6	-0.07241778
1	0xbcce523b	-0.025185695
2	0x3db4fc68	0.08837205
3	0x3d925edf	0.071470015
4	0x3d0dc9e6	0.034616373
5	0x3d68b495	0.05681284
6	0x3d2cd9ae	0.042199783
7	0x3dca5ed7	0.098813705
8	0xbb9ff7da	-0.004881841
9	0xbca232a5	-0.01979954
10	0x3caa2507	0.02076961
11	0xbbbb6e94	-0.005719969
12	0x3d8892b6	0.06668608
13	0x3d85021f	0.06494545
14	0x3c4a67ec	0.0123538785
15	0x3b970272	0.004608446
16	0x3cc74fcd	0.024330044
17	0x3cd75770	0.02628681
18	0x3d2d9504	0.04237844
19	0x3badf1af	0.005308352
20	0x3dc44643	0.09583714
21	0x3adabfe2	0.0016689266
22	0xbb8c74f1	-0.0042864014
23	0xbae14cbc	-0.0017189006
24	0xbc445c26	-0.0119848605
25	0xbc946b5c	-0.0181176
26	0xbd0d5071	-0.034500543
27	0xbd095abd	-0.0335338
28	0x3d21c5e4	0.039495364
29	0xbd28977b	-0.041160088
30	0x3c34fe95	0.011047025
31	0xbce574e4	-0.02800984
32	0x3d66d99a	0.056359865
33	0x3d669dc8	0.056302816
34	0x3d236c09	0.039897952
35	0xbc531ba8	-0.012885012
36	0x3d7ba5b7	0.061437335
37	0xbdb0b8b8	-0.08628982
38	0x3d6c1d96	0.057645403
39	0xbdb3ac09	-0.087730475
40	0xbc87f5e4	-0.016596742
41	0x3d77f8e8	0.06054011
42	0x3d5f54cf	0.05452424
43	0xbdae31dd	-0.085056044
44	0x3d5b8cc9	0.05360106
45	0x3ce8c81d	0.028415734
46	0x3d0905f9	0.03345296
47	0x3dc801dc	0.0976598
48	0xbcf96b82	-0.030446772
49	0x3d7cb501	0.061696056
50	0xbcfb24e2	-0.030657236
51	0x3d95af4d	0.073088266
52	0x3cb44824	0.022007056
53	0xbd83e526	-0.06440191
54	0xbc4e2d37	-0.012584022
55	0x3de1dcfc	0.110284775
56	0x3d6d3a1e	0.057916753
57	0x3dfd1688	0.12357813
58	0x3d3dd284	0.04634334
59	0xbd8365de	-0.06415914
60	0x3c98a0a2	0.018631283
61	0xbd2c4382	-0.042056568
62	0x3cc63baa	0.024198372
63	0x3e04e2bb	0.12977116

weight f4 [32, 64]
0	0x3d3f3990	0.046685755
1	0xbdb74a9c	-0.089497775
2	0x3e10131c	0.1406979
3	0xbbea4690	-0.007149525
4	0xbd468eb8	-0.04847595
5	0x3dbb8be7	0.09157544
6	0x3df81585	0.121134795
7	0xbcfa4dba	-0.030554641
8	0x3ded7b8b	0.115958296
9	0x3cf6f43e	0.03014576
10	0x3dfadfdc	0.12249729
11	0x3df3a641	0.11896945
12	0x3db65913	0.08903708
13	0x3e06601c	0.131226
14	0xbd83013f	-0.06396722
15	0x3dbbf964	0.09178427
16	0xbd7e80b5	-0.062134463
17	0xbd68c091	-0.05682427
18	0x3d6f5c78	0.058437794
19	0xbdfd69da	-0.12373705
20	0xbdc556d2	-0.096357
21	0xbded71be	-0.1159396
22	0xbdc271d9	-0.09494371
23	0x3d8c717f	0.06857585
24	0xbe02f604	-0.1278916
25	0x3d1a129c	0.037615404
26	0x3dca3d1a	0.098749354
27	0x3e01dafb	0.1268119
28	0xbe5cc83e	-0.21560761
29	0x3dd999af	0.10625016
30	0x3d9c616c	0.07635769
31	0x3d9c1b0f	0.076223485
32	0x3c14197b	0.009039278
33	0x3e090906	0.13382348
34	0xbdca792d	-0.09886394
35	0xbd4bfb4b	-0.0498002
36	0xbdaa5b46	-0.0831819
37	0xbb243cc0	-0.0025060624
38	0x3d029449	0.031879697
39	0xbd31ae34	-0.043379024
40	0xbc00faf4	-0.007872332
41	0x3d88fef4	0.066892534
42	0xbd0b04f3	-0.033940267
43	0xbd7f404c	-0.062317178
44	0xbd895087	-0.067048125
45	0xbcad29ec	-0.021138154
46	0x3d89a6c1	0.06721259
47	0x3dbd6271	0.09247292
48	0x3b310310	0.0027009882
49	0xbd24de24	-0.040250912
50	0xbdc14bf1	-0.09438313
51	0xbdc0487a	-0.09388824
52	0xbdc4e49e	-0.09613918
53	0xbc1159d0	-0.008871511
54	0x3d594271	0.05304188
55	0x3cb9ba2a	0.022671778
56	0x3dceb90f	0.10093891
57	0xbc5de7ca	-0.013544032
58	0xbda463d1	-0.08026851
59	0xbc2d4f67	-0.010578013
60	0xbd8a9d7e	-0.067683205
61	0x3dabb420	0.083839655
62	0x3dfe0dfe	0.124050125
63	0x3d9e8a91	0.07741273
64	0xbc6c47c0	-0.014421403
65	0xbc95cbd9	-0.018285679
66	0x3dc43396	0.09580152
67	0x3e1df9de	0.15427348
68	0x395c1696	0.00020989249
69	0xbdaccceb	-0.084375225
70	0x3d2ed357	0.042682018
71	0xbe36e620	-0.17861223
72	0x3d02c004	0.0319214
73	0x3dae00ff	0.08496284
74	0xbd5254fd	-0.051350582
75	0xbce1ea23	-0.027577465
76	0x3d8c87a4	0.06861809
77	0x3d62694a	0.055276193
78	0xbddb72f1	-0.10715283
79	0x3d052f23	0.032515656
80	0xbe3193bf	-0.17341517
81	0xbdd452f8	-0.103673875
82	0xbce210f0	-0.027595967
83	0x3df913b0	0.12161958
84	0x3e241a28	0.16025603
85	0xbd37d496	-0.044880472
86	0x3d8b01cf	0.06787454
87	0x3cc831d4	0.024437822
88	0xbe05a8ef	-0.13052724
89	0xbd3bbab5	-0.045832355
90	0xbcad3d2f	-0.021147339
91	0x3d244e01	0.040113453
92	0x3e10b5a9	0.14131798
93	0x3d884255	0.06653277
94	0xbb4c1a37	-0.0031143555
95	0x3ddc00a2	0.10742308
96	0x3dbb379b	0.09141465
97	0x3d749086	0.05970814
98	0xbdb3aab5	-0.08772794
99	0x3d567700	0.05235958
100	0x3dc1daf1	0.09465588
101	0xbd2333f4	-0.03984447
102	0x3dad50ea	0.08462699
103	0xbd6fdc82	-0.058559902
104	0x3cd756e3	0.026286548
105	0x3dbdd1a3	0.09268501
106	0xbd963612	-0.07334532
107	0x3ca61198	0.020272061
108	0xbdcf5d8c	-0.101252645
109	0x3de65097	0.1124584
110	0xbc8557e1	-0.016277255
111	0x3d2bd585	0.041951675
112	0x3e12cd73	0.14336185
113	0x3c297f8f	0.010345354
114	0xbd6ab58b	-0.05730204
115	0x3d67d7e7	0.056602385
116	0xbdacbffd	-0.08435056
117	0x3d4e74f2	0.050404496
118	0xbb804029	-0.0039138985
119	0xbc069a67	-0.008215523
120	0xbe94c2b1	-0.29054788
121	0xbe97ec70	-0.29672575
122	0x3e069f58	0.13146722
123	0x3d75a73c	0.05997394
124	0x3d1978c3	0.037468683
125	0x3cef2ee0	0.029197156
126	0xbd8b20da	-0.06793375
127	0x3e043928	0.12912428
128	0x3dcb3b92	0.099234715
129	0x3cc4eb68	0.024038032
130	0xbd938252	-0.07202591
131	0xbdd6af4d	-0.10482655
132	0x3dc25e0e	0.09490596
133	0xbd9b8c2d	-0.07595096
134	0x3caa6376	0.02079938
135	0xbdc2c1d2	-0.095096245
136	0xbddd8e76	-0.10818188
137	0xbd3959cb	-0.04525165
138	0xbde97660	-0.11399531
139	0xbdee12c4	-0.11624673
140	0xbd9ef2aa	-0.07761128
141	0x3d8dfb26	0.069326684
142	0xbd2b7adc	-0.041865215
143	0x3d56167c	0.052267537
144	0xbc3eed40	-0.0116532445
145	0xbdd8761a	-0.10569401
146	0x3daeaf16	0.08529489
147	0x3db45f14	0.08807197
148	0x3bf9748c	0.0076127704
149	0xbdf91394	-0.12161937
150	0xbd3ae5d8	-0.045629352
151	0xbd59053f	-0.05298352
152	0x3dcf4112	0.10119833
153	0x3d6312c1	0.055437807
154	0x3d4b31aa	0.04960791
155	0x3dac2878	0.08406156
156	0x3dde6689	0.10859401
157	0xbd06d31c	-0.032916173
158	0x3d8efac0	0.069814205
159	0x3dbd7d7c	0.0925245
160	0x3cfd73d0	0.030939013
161	0x3d0094c7	0.031391885
162	0xbdc4af53	-0.09603753
163	0x3d66e060	0.056366324
164	0x3cf42b80	0.029805899
165	0x3df1a278	0.117985666
166	0xbce09c78	-0.02741836
167	0x3d1771aa	0.036973633
168	0xbda29f59	-0.079405494
169	0xbde0954d	-0.10965977
170	0xbd338db4	-0.04383631
171	0x3db61c44	0.0889211
172	0x3dc217c0	0.09477186
173	0x3da92c46	0.082603976
174	0x3d8962da	0.067083076
175	0x3caf690f	0.0214124
176	0xbda80fca	-0.082061365
177	0xbc662ed0	-0.014049247
178	0x3d1cb2d8	0.038256496
179	0xbbfc169d	-0.0076931254
180	0xbd4c260a	-0.049840964
181	0x3d798e98	0.060927004
182	0x3c2dbbe0	0.010603875
183	0x3d7ffbc2	0.062495954
184	0xbc910d38	-0.017706499
185	0xbdb800d6	-0.089845344
186	0x3dc32817	0.09529131
187	0xbd17c958	-0.03705725
188	0xbdd95d48	-0.10613495
189	0xbdd6330c	-0.10458955
190	0xbdc4066a	-0.09571536
191	0xbdaa1787	-0.08305269
192	0xbdc37248	-0.09543282
193	0xbde300c3	-0.1108413
194	0x3cac94e5	0.021067092
195	0x3e36372e	0.17794487
196	0x3e138eb4	0.14409906
197	0x3e2aefbf	0.16693018
198	0xbde9dfd7	-0.11419647
199	0x3b4de410	0.0031416453
200	0x3e10d946	0.14145383
201	0x3d0e1d97	0.034696188
202	0x3dd740e3	0.10510423
203	0x3beba2ed	0.007191053
204	0x3ba6ffac	0.0050963964
205	0xbcbe1d6b	-0.023207387
206	0x3b99df0b	0.0046957782
207	0xbd81ea04	-0.06343463
208	0x3d245cb3	0.040127467
209	0xbe060b31	-0.13090207
210	0x3d6f84a3	0.0584761
211	0x3d600a6b	0.054697435
212	0x3dced83b	0.100998364
213	0xbd6d472a	-0.057929195
214	0xbd07ed6c	-0.033185408
215	0x3e2e0eed	0.16997881
216	0xbae90592	-0.0017778149
217	0x3de55060	0.11196971
218	0xbc5607f3	-0.013063419
219	0x3e2889de	0.16458842
220	0x3dbfd66e	0.09367071
221	0xbdb9dd53	-0.09075417
222	0xbc3532a0	-0.011059433
223	0x3dd4e9dc	0.10396168
224	0xbd40d726	-0.04708018
225	0x3e0cecd1	0.13762213
226	0xbc8dc7b7	-0.017307146
227	0x3d2d62eb	0.042330664
228	0x3d493e0f	0.04913145
229	0xbd25fc40	-0.040523767
230	0x3ce79617	0.02826981
231	0xbdbce1b6	-0.092227384
232	0x3cbb29ad	0.022847021
233	0x3dcfe181	0.10150433
234	0x3e093696	0.13399729
235	0x3cf16ac0	0.029469848
236	0x3da12778	0.07868856
237	0x3d4b2982	0.04960013
238	0xbd82b2b4	-0.06381741
239	0x3db13514	0.08652702
240	0x3e2a8ca4	0.16655213
241	0xbd887ffc	-0.06665036
242	0x3c3e7f38	0.011627011
243	0xbcf61787	-0.030040516
244	0xbba722c0	-0.005100578
245	0x3d955f35	0.0729355
246	0x3d95d3d7	0.07315796
247	0xbd6b48a3	-0.05744232
248	0x3e3e4c26	0.18583736
249	0x3e827568	0.254802
250	0x3e0750a6	0.13214359
251	0xbdf53cd2	-0.11974491
252	0x3dda2120	0.10650849
253	0xbdbbecd0	-0.09176028
254	0x3d440882	0.047859676
255	0x3e0552e2	0.13019899

bias f4 [32]
0	0xbd90973b	-0.07060095
1	0x3dde6aa1	0.108601816
2	0xbd3f4672	-0.04669804
3	0x3db35dd8	0.08758134
4	0xbdb3e078	-0.087830484
5	0xbcad86d8	-0.021182463
6	0x3e2a8ab2	0.1665447
7	0x3df70e96	0.12063329
8	0x3e0e769a	0.1391243
9	0x3a89aa96	0.0010503109
10	0xbc04bd99	-0.008101844
11	0x3d8bf6af	0.068341605
12	0x3c8c8ad3	0.01715604
13	0xbd0a4fbf	-0.033767458
14	0xbda08543	-0.07837918
15	0x3c4eed8c	0.012629878
16	0xbe0d0471	-0.13771226
17	0xbd34b356	-0.04411634
18	0x3daa64db	0.08320018
19	0x3c0fe7d4	0.0087832995
20	0x3e122fe8	0.14276087
21	0xbde21c85	-0.11040596
22	0x3c9d356c	0.019190513
23	0xbd9d2fd5	-0.07675139
24	0x3df62cf4	0.12020293
25	0x3dac9b72	0.08428086
26	0x3d89c295	0.06726567
27	0xbbdc4ef7	-0.0067232805
28	0xbdad83e1	-0.084724195
29	0x3d1cacdd	0.038250793
30	0xbd9fb2b0	-0.07797754
31	0x3db57bf6	0.08861534

weight f4 [128, 7]
0	0xbe757ee8	-0.23974192
1	0x3e554926	0.20828685
2	0xbd97db4c	-0.074148744
3	0x3e92b151	0.28650907
4	0xbe4710e9	-0.19440044
5	0x3c9a88ca	0.018864054
6	0x3e295fed	0.16540499
7	0x3d3c048c	0.045902774
8	0xbea9e6a8	-0.3318379
9	0xbca9cc8f	-0.020727424
10	0x3e993ab2	0.29927593
11	0x3cf44e29	0.029822426
12	0xbb6729e6	-0.0035272776
13	0xbd7d043e	-0.061771624
14	0x3e45028b	0.19239251
15	0x3e565e24	0.2093435
16	0xbe4b4202	-0.19849399
17	0xbe85d130	-0.2613616
18	0xbebc1497	-0.3673446
19	0xbea42080	-0.32056046
20	0x3e645010	0.22296166
21	0xbebf1892	-0.37323433
22	0xbd8c2895	-0.06843678
23	0x3d9b174a	0.075728014
24	0x3ec3400d	0.38134804
25	0x3e8a9189	0.2706416
26	0x3d25027c	0.040285572
27	0x3e04372d	0.12911673
28	0xbe694f72	-0.22784212
29	0xbdb8f41b	-0.090309344
30	0x3e9a731e	0.30165952
31	0xbe80b571	-0.2513843
32	0x3e866850	0.2625146
33	0xbdaac46f	-0.08338248
34	0xbe90bfd2	-0.28271347
35	0x3d961b58	0.07329434
36	0x3e7aebf2	0.24504068
37	0x3e710285	0.23536117
38	0x3e930d75	0.28721204
39	0x3eaf4fe1	0.3424063
40	0xbe80e927	-0.2517788
41	0x3ea80503	0.32816324
42	0x3e657e19	0.22411384
43	0x3e41bb63	0.18919139
44	0x3ec6ae28	0.38804746
45	0xbe09ecc4	-0.13469225
46	0x3e64824f	0.22315334
47	0xbe5bfc3d	-0.2148294
48	0x3e36a8ca	0.17837825
49	0xbe4516f7	-0.19247042
50	0x3e85aa0c	0.26106298
51	0xbe0ddc54	-0.1385358
52	0x3ea72067	0.3264191
53	0xbe5ddcba	-0.21666232
54	0xbe821f42	-0.25414473
55	0x3e96abfa	0.29428083
56	0xbeb5f740	-0.355402
57	0xbe341fe1	-0.17590286
58	0xbe9979d8	-0.29975772
59	0x3e8bfee6	0.2734291
60	0x3e962725	0.2932674
61	0x3e58cffd	0.21173091
62	0xbd225c3e	-0.03963875
63	0x3e5037f6	0.20333847
64	0x3e90c414	0.28274596
65	0x3e345102	0.17609027
66	0x3e9d1990	0.30683565
67	0xbeb409dd	-0.35163775
68	0x3d2e5598	0.042562097
69	0xbe945210	-0.2896886
70	0xbdc380c3	-0.09546044
71	0xbe9bc0d1	-0.30420545
72	0xbe99e138	-0.3005464
73	0xbea866cd	-0.3289093
74	0x3ea44331	0.32082513
75	0xbe2bcb24	-0.16776711
76	0x3ca8c27c	0.02060055
77	0x3e86d04d	0.26330796
78	0x3e7f5d77	0.24937998
79	0x3c6a6dc5	0.014308398
80	0xbcc01398	-0.023446843
81	0xbd170401	-0.036869053
82	0xbdf48f62	-0.119414106
83	0x3d85285b	0.06501838
84	0xbdf68245	-0.12036566
85	0x3e079080	0.13238716
86	0x3e7b12b4	0.24518853
87	0xbe73ac8f	-0.23796295
88	0xbe49fb09	-0.19724669
89	0xbe9fe51c	-0.31229484
90	0x3ea837b7	0.32855007
91	0x3ebc5973	0.36786994
92	0xbe124f56	-0.14288077
93	0xbdc8cce0	-0.09804702
94	0xbe94726e	-0.28993553
95	0xbea17ab2	-0.31538922
96	0xbeba5ced	-0.36399022
97	0x3d05f0dc	0.032700405
98	0xbd06a8ac	-0.0328757
99	0x3eaa6457	0.33279678
100	0x3c7a2e6a	0.015269855
101	0x3eb43753	0.3519846
102	0xbe712bef	-0.23551916
103	0x3de70d27	0.112818055
104	0xbea0c5c5	-0.31400886
105	0x3e6089e8	0.21927607
106	0x3dae8035	0.08520547
107	0x3e8e8587	0.27836248
108	0xbd351ce4	-0.044217005
109	0x3e8ec20e	0.27882427
110	0x3ec90fd0	0.39269876
111	0xbe3101cb	-0.1728584
112	0xbe788e2a	-0.24272981
113	0xbe98bbb4	-0.29830706
114	0x3e1ab0dc	0.15106529
115	0xbe1afdf1	-0.15135933
116	0x3b807166	0.003919768
117	0x3d950969	0.072771855
118	0xbe1cbfb2	-0.15307501
119	0xbeb71e30	-0.3576522
120	0xbe77f7a1	-0.24215557
121	0xbd8bb820	-0.068222284
122	0xbdf4278f	-0.11921608
123	0xbc69120a	-0.014225492
124	0xbea663bd	-0.3249797
125	0xbeb2535b	-0.3482922
126	0x3ec22eb5	0.3792626
127	0x3e6bef3f	0.23040484
128	0x3c0f6177	0.008751265
129	0xbe7631b2	-0.24042395
130	0x3dd5b440	0.104347706
131	0x3dcca05e	0.09991525
132	0x3d98bd35	0.074579634
133	0x3dfa6da0	0.122279406
134	0xbe286aa8	-0.16446936
135	0x3d1a53d3	0.037677597
136	0x3e28e6b9	0.16494264
137	0xbe5c0b05	-0.21488579
138	0x3ea1318c	0.31483114
139	0xbe3634a4	-0.17793518
140	0xbd40b593	-0.047048163
141	0x3ce99272	0.028512213
142	0x3d47b20e	0.04875379
143	0xbdf3ebb0	-0.11910188
144	0xbebd8862	-0.37018114
145	0xbcdb1ef4	-0.026748158
146	0xbe6d8f0d	-0.23199101
147	0x3ec5cf5f	0.38634774
148	0xbeb4fae1	-0.35347655
149	0xbe23d39e	-0.15998694
150	0xbec1bda3	-0.37839994
151	0x3e184c74	0.14872915
152	0xbe5d685b	-0.2162184
153	0x3dbadcfd	0.091241814
154	0xbed14618	-0.4087379
155	0x3e83b73a	0.25725728
156	0xbe4b006e	-0.19824383
157	0x3dd59d7e	0.1043043
158	0xbe1ea27e	-0.15491673
159	0x3d53e55e	0.051732413
160	0x3eca535c	0.39516723
161	0xbee0b58f	-0.43888518
162	0x3ea38be2	0.3194266
163	0x3e8a3cb9	0.26999453
164	0xbd82513d	-0.06363151
165	0x3ead0137	0.3378999
166	0xbbd289f8	-0.0064251386
167	0x3d86f785	0.06590179
168	0x3edf9eee	0.4367594
169	0xbeb81c56	-0.3595912
170	0x3cdb4920	0.026768267
171	0xbe846d3d	-0.25864592
172	0xbc6a7b9b	-0.014311696
173	0x3e326826	0.17422542
174	0x3df2f696	0.11863439
175	0xbeb6a9ba	-0.35676366
176	0xbe4f91eb	-0.20270507
177	0x3e02524c	0.12726706
178	0xbdef94d0	-0.116983056
179	0xbea0855f	-0.31351754
180	0x3d39a724	0.045325413
181	0xbd46b44d	-0.048511792
182	0xbdf692b3	-0.120396994
183	0xbebb7ab1	-0.36617044
184	0xbd8af317	-0.06784647
185	0xbeac7b54	-0.33687842
186	0xbeb2126f	-0.3477969
187	0x3e729f0f	0.23693489
188	0x3e7b4cf8	0.2454108
189	0x3ef600f0	0.4804759
190	0xbea29f50	-0.3176217
191	0x3ebd2c20	0.36947727
192	0xbdbd3b86	-0.09239869
193	0x3c891829	0.016735153
194	0xbe6a6bf3	-0.22892742
195	0x3e9773d4	0.29580557
196	0x3ef1d18c	0.47230184
197	0xbe6942b5	-0.22779353
198	0xbea5b46d	-0.32364216
199	0x3bfc06b6	0.0076912297
200	0x3e615514	0.22005111
201	0x3d6ad836	0.0573351
202	0xbe64e08c	-0.22351283
203	0xbe882c65	-0.2659637
204	0x3d09fc3f	0.033687826
205	0xbe77f5f7	-0.24214922
206	0xbec03a65	-0.37544551
207	0xbd37c9fb	-0.044870358
208	0xba20abc7	-0.00061291124
209	0x3e733983	0.23752408
210	0x3eb16659	0.34648398
211	0xbe1aac3f	-0.15104769
212	0x3e5f941b	0.21833842
213	0x3d0745bd	0.033025492
214	0xbeb72a3e	-0.35774416
215	0x3e290f03	0.16509633
216	0xbe1300b2	-0.14355734
217	0x3e38ae46	0.1803523
218	0xbe4bfda0	-0.19920969
219	0xbb6c864b	-0.0036090787
220	0x3e57d56e	0.2107751
221	0xbe418988	-0.1890012
222	0x3db238ad	0.08702216
223	0x3d55b813	0.0521775
224	0x3c33091d	0.010927466
225	0x3dc17adb	0.09447261
226	0x3eb25d3f	0.34836766
227	0x3eb900dc	0.36133468
228	0xbba6d215	-0.0050909617
229	0xbdca2565	-0.09870414
230	0x3dce7a91	0.100819714
231	0x3ed8c222	0.42335612
232	0xbe18ca3e	-0.149209
233	0xbcc2b3c1	-0.023767354
234	0xbec692ec	-0.38783967
235	0xbeaf5e6d	-0.3425173
236	0xbe8065a1	-0.25077537
237	0x3de5b893	0.11216845
238	0x3e806432	0.25076443
239	0xbe4801a0	-0.1953187
240	0x3e98432c	0.29738748
241	0x3ebdd7e8	0.37078786
242	0x3e37a952	0.17935684
243	0xbe492873	-0.19644336
244	0xbe01c368	-0.12672198
245	0xbe9085d1	-0.28227094
246	0xbe85a5f6	-0.2610318
247	0xbea972d3	-0.33095416
248	0x3eac41c1	0.33643916
249	0x3e2ee648	0.17080033
250	0xbc801675	-0.015635708
251	0xbe99a560	-0.30008984
252	0xbe65a3b5	-0.2242573
253	0xbe8f96ea	-0.28044826
254	0x3ec64013	0.3872076
255	0x3e2d5f23	0.16930823

bias f4 [128]
0	0x3e133ccc	0.14378661
1	0xbebc0d07	-0.3672869
2	0x3e9c859a	0.3057068
3	0x3e723cbf	0.23655985
4	0xbeaa1da5	-0.33225742
5	0x3e5980cf	0.21240543
6	0xbd3ab6aa	-0.04558436
7	0xbdf09d16	-0.11748712
8	0x3e6c301a	0.23065224
9	0x3da9ae2d	0.082851745
10	0xbbfa0afa	-0.007630703
11	0xbe3a5800	-0.18197632
12	0xbe844427	-0.25833246
13	0x3e4130fd	0.18866344
14	0x3ee36ea5	0.44420353
15	0xbe286e5c	-0.16448349
16	0xbeb7204e	-0.35766834
17	0xbe54b61f	-0.20772599
18	0x3ea8a34a	0.3293708
19	0xbe95941a	-0.29214555
20	0xbde0bf54	-0.10973993
21	0xbcf3056b	-0.02966567
22	0x3eb8d5af	0.36100528
23	0x3e939b4a	0.28829414
24	0x3eb8810c	0.36035955
25	0xbebde9c2	-0.37092406
26	0x3c657d52	0.0140069295
27	0xbd85c448	-0.06531578
28	0x3e7facfa	0.24968329
29	0x3e9f8dfb	0.3116301
30	0xbde6f8aa	-0.11277898
31	0x3ece0518	0.4023826
32	0xbeadd2f3	-0.33950004
33	0xbdb77def	-0.08959567
34	0x3e27776a	0.16354147
35	0x3ed29516	0.4112937
36	0xbddb4698	-0.10706824
37	0x3e979246	0.29603785
38	0x3ea61475	0.32437482
39	0x3df1ba93	0.11803164
40	0xbe12c23e	-0.1433191
41	0x3e6cb191	0.23114611
42	0xbde97b17	-0.11400431
43	0x3eceb3d8	0.40371585
44	0x3e5a68ed	0.21329089
45	0x3e9a2750	0.30108118
46	0xbe4bf4f5	-0.19917662
47	0x3ed2425f	0.41066262
48	0xbe8cb5cc	-0.2748245
49	0x3d025ac7	0.031824853
50	0x3d96749a	0.07346459
51	0xbe848dfb	-0.25889573
52	0xbe6d11ab	-0.23151271
53	0x3ea193cb	0.3155807
54	0x3ec8414c	0.39112318
55	0x3e835077	0.25647327
56	0xbcc8c542	-0.024508122
57	0x3e333902	0.17502216
58	0x3e875dde	0.26438802
59	0x3e0b5b9b	0.13609163
60	0x3d43c948	0.04779938
61	0x3e2c3694	0.16817695
62	0xbec0a247	-0.37623808
63	0xbe5e74ee	-0.21724293
64	0xbe0c56b1	-0.13704945
65	0xbda9326f	-0.082615726
66	0xbe98dda2	-0.29856592
67	0x3d2d77a7	0.042350437
68	0x3e5dcdaf	0.21660493
69	0xbeacdad2	-0.33760697
70	0xbd93535a	-0.071936324
71	0xbe13989a	-0.14413682
72	0xbe0e3d7d	-0.13890643
73	0xbe629c8d	-0.22130032
74	0x3eb6c482	0.356968
75	0x3e59c90e	0.21268103
76	0xbea7bd71	-0.3276172
77	0xbdae5c14	-0.08513656
78	0x3e98be79	0.2983282
79	0xbba76b4f	-0.0051092277
80	0x3ea56924	0.32306778
81	0x3eec510d	0.46155587
82	0xbec1424f	-0.37745902
83	0x3ed1c89b	0.40973362
84	0x3ec7be75	0.39012495
85	0x3e8339e9	0.2563012
86	0xbe8dd858	-0.2770412
87	0x3e308d10	0.17241311
88	0xbe819704	-0.25310528
89	0xbdcc7975	-0.099841036
90	0x3e846885	0.25860992
91	0x3e790cf5	0.24321349
92	0xbaaec419	-0.0013333588
93	0x3ee84d0c	0.45371282
94	0x3eceb50b	0.403725
95	0xbc739feb	-0.01486967
96	0xbe44ab7c	-0.19206041
97	0xbe8ef1cb	-0.27918848
98	0xbe80121f	-0.25013825
99	0x3e35f210	0.17768121
100	0x3c9739e0	0.018460214
101	0x3e0350d1	0.12823798
102	0x3e8eced3	0.2789217
103	0x3e8448bb	0.2583674
104	0x3db3da84	0.08781913
105	0x3ec395c7	0.3820021
106	0x3e7f50f1	0.2493322
107	0xbeb4473e	-0.35210603
108	0x3e9f35d3	0.31095752
109	0x3e95db09	0.29268673
110	0xbe3bb500	-0.18330765
111	0x3eb8a1a4	0.36060822
112	0x3e9566e6	0.29180068
113	0xbe86686f	-0.26251552
114	0x3e9972a1	0.29970267
115	0x3eee5d25	0.4655544
116	0xbe467568	-0.19380724
117	0x3e7b5d97	0.2454742
118	0xbc44c092	-0.012008803
119	0x3e14b016	0.14520296
120	0x3ebefd10	0.37302446
121	0xbe7cb9a0	-0.24680185
122	0x3ead7181	0.3387566
123	0xbe684de2	-0.2268596
124	0x3e13ef6e	0.14446804
125	0x3e33156d	0.17488642
126	0x3eae986d	0.34100667
127	0xbe2f746a	-0.17134252

weight f4 [64, 128]
0	0x3d9ce878	0.076615274
1	0x3c4721c2	0.012154045
2	0xbd4e1afe	-0.05031871
3	0x3d3ca47d	0.046055306
4	0xbd9e63c9	-0.07733876
5	0xbd0804f1	-0.033207837
6	0xbd6b88e2	-0.05750359
7	0xbd9dc1b2	-0.0770296
8	0xbc5daf8d	-0.013530624
9	0x3c5a4514	0.013322134
10	0xbba9f448	-0.0051865913
11	0x3d331996	0.043725573
12	0xbd681097	-0.056656446
13	0x3d1cea18	0.038309187
14	0x3ca1dbcb	0.019758126
15	0xbd24e821	-0.040260438
16	0xbd85156a	-0.06498225
17	0x3d630581	0.05542517
18	0xbc868ca1	-0.016424479
19	0x3d82ea5d	0.063923575
20	0x3ca0f0bf	0.019646047
21	0x3d75a5b3	0.059972476
22	0xbd657830	-0.056022823
23	0x3c9e7367	0.019342138
24	0xbdaeafc2	-0.08529617
25	0xbdb2e933	-0.087358855
26	0x3d9b8f20	0.07595658
27	0xbcafa809	-0.02144243
28	0xbd726fde	-0.059188716
29	0xbd2a65dc	-0.041601047
30	0x3cae46ec	0.021274053
31	0xbd0bc170	-0.034120023
32	0xbda3019d	-0.07959292
33	0xbc1dde77	-0.009635559
34	0x3d8e62a0	0.06952405
35	0x3d3770f0	0.04478544
36	0x3d234531	0.039860908
37	0x3d339ea2	0.043852456
38	0xbd8ca9ea	-0.06868346
39	0x3da96cd9	0.08272714
40	0x3c8717ff	0.016490934
41	0x3d832d86	0.06405167
42	0xbc8679d3	-0.016415512
43	0x3c01b561	0.007916779
44	0xbd6cc5b3	-0.05780573
45	0x3d09024c	0.033449456
46	0xbbf41ea0	-0.00744994
47	0x3d7d549e	0.061848275
48	0xbdaad0bf	-0.083405964
49	0x3c95da82	0.01829267
50	0x3d6488cf	0.055794533
51	0x3aa47dfa	0.0012549751
52	0xbd65bb3b	-0.05608676
53	0xbda170bd	-0.07882831
54	0xbd818618	-0.063244045
55	0xbd9554f7	-0.072915964
56	0x3d7a24a3	0.061070096
57	0x3d9ed12e	0.077547416
58	0xbd1cc427	-0.038273003
59	0x3cdc97ab	0.02692779
60	0x3d6dc1cc	0.058046147
61	0x3d880301	0.06641198
62	0x3cf7b3ca	0.030237097
63	0x3ca6afc0	0.020347476
64	0x3d91c399	0.071173854
65	0xbd8ddf8a	-0.06927402
66	0x3d6f61ed	0.058443
67	0xbda0cd42	-0.0785165
68	0x3d95589c	0.072922915
69	0x3ce26b39	0.027639018
70	0x3d296ee7	0.04136553
71	0x3daafd32	0.083490744
72	0xbc8c1184	-0.017098196
73	0xbbfa86d9	-0.0076454696
74	0xbd242698	-0.04007587
75	0x3bed482f	0.007241271
76	0xbd0a65f6	-0.033788644
77	0xbc8094a9	-0.015695887
78	0xbda3a16d	-0.07989774
79	0xbd95e1a4	-0.07318428
80	0x3d036c05	0.032085437
81	0xbdaaf378	-0.08347219
82	0x3be57389	0.0070022983
83	0x3c7940d4	0.01521321
84	0xbd1c8917	-0.038216677
85	0x3d313d5d	0.04327141
86	0xbd422bfe	-0.047405235
87	0xbd4e1ad4	-0.050318554
88	0x3dab9d14	0.0837957
89	0xbc07b1c5	-0.00828213
90	0x3da9f4c7	0.08298641
91	0x3da2fad4	0.07957998
92	0x3d621207	0.055192973
93	0xb8f5c388	-0.00011718931
94	0xbd2d94db	-0.042378288
95	0xbd5d755b	-0.054066997
96	0xbd9fd3ae	-0.078040466
97	0xbcfa8c32	-0.030584428
98	0xbd0732ef	-0.03300756
99	0x3cde203f	0.027114986
100	0xbd23a772	-0.03995461
101	0x3d10bf77	0.035338845
102	0xbcbb194b	-0.022839209
103	0xbd857a14	-0.06517425
104	0x3d9d5304	0.076818496
105	0xbd9038d1	-0.07042087
106	0xbdae96d1	-0.0852486
107	0x3d2d3c8b	0.042294066
108	0xbc0261ea	-0.007957915
109	0xbd7e4421	-0.06207669
110	0x3d41b4c7	0.047291543
111	0x3ce10c19	0.027471589
112	0x3ca22b3c	0.019796006
113	0xbacba1ae	-0.0015535855
114	0xbc890539	-0.016726123
115	0xbd85ba63	-0.06529691
116	0xbc6ba6dc	-0.014383044
117	0x3d68c59f	0.05682909
118	0xbc12043a	-0.0089121405
119	0xbafe045e	-0.0019379964
120	0x3d655d5f	0.05599725
121	0x3db040b3	0.086060904
122	0xbd1baa5c	-0.038004264
123	0xbdb16567	-0.08661919
124	0x3c8e6b88	0.01738526
125	0x3bdc6a0f	0.0067265104
126	0xbc38fef6	-0.011291256
127	0x3d02c4b0	0.031925857
128	0x3b9b8a1a	0.0047466876
129	0xbd445a6b	-0.04793779
130	0xbd59f72e	-0.053214245
131	0xbb3d619b	-0.0028897289
132	0xbda7efec	-0.08200058
133	0xbcf450b3	-0.029823637
134	0x3d5d0712	0.05396182
135	0xbd93ba6d	-0.07213292
136	0xbd83b4e7	-0.06430989
137	0xbcd25719	-0.025676297
138	0xbbc92b2b	-0.006139179
139	0xbd82d015	-0.06387345
140	0x3d93941d	0.07205985
141	0xbd13d272	-0.03608937
142	0x3cbc4e95	0.02298669
143	0xbca72b4f	-0.020406393
144	0xbbd210b5	-0.006410683
145	0xbd14b219	-0.03630266
146	0xbdbbf88e	-0.091782674
147	0xba1f0f73	-0.0006067671
148	0x3c8dc6e6	0.017306756
149	0x3c444e3d	0.011981544
150	0xbd882db1	-0.0664934
151	0xbbe5810f	-0.0070039104
152	0xbd9149ca	-0.07094152
153	0xbda6184d	-0.08110104
154	0xbb8f4611	-0.0043723662
155	0x3c7f5859	0.015585029
156	0x3d46dad4	0.048548535
157	0xbda2b189	-0.079440184
158	0xbd504f09	-0.050856624
159	0xbd8bf260	-0.06833339
160	0xbd4191b7	-0.047258105
161	0x3d56399f	0.052301046
162	0xbc5a51fc	-0.013325211
163	0xbd5d34b3	-0.054005336
164	0xbd9b6726	-0.075880334
165	0xbd567c36	-0.05236455
166	0xbcca3c66	-0.024687003
167	0x3d0c7c34	0.034298137
168	0xbd5c75f6	-0.053823434
169	0x3c90daa8	0.017682388
170	0x3d84eabb	0.06490084
171	0x3cc4cb86	0.024022829
172	0x3cc82d88	0.024435773
173	0xbda6326d	-0.08115087
174	0x3bd36353	0.0064510494
175	0x3d41f179	0.047349427
176	0x3d942ecc	0.07235488
177	0xbd8f26a1	-0.0698979
178	0x3da31790	0.079634786
179	0x3b86c297	0.0041125524
180	0x3d4baad1	0.04972345
181	0xbd45a796	-0.048255526
182	0x3d5f61a6	0.054536484
183	0x3d7ea91a	0.062172987
184	0xbcba0795	-0.022708694
185	0x3cb061be	0.021530982
186	0xbc0698b0	-0.0082151145
187	0xbda4aa30	-0.08040273
188	0x3c4dca78	0.012560479
189	0x3d6fbf32	0.058531947
190	0xbd972599	-0.07380218
191	0xbda1615e	-0.078798994
192	0x3da35200	0.07974625
193	0x3db24732	0.08704986
194	0x3c036534	0.008019734
195	0xbc8e9307	-0.017404092
196	0xbac1f9d4	-0.0014799186
197	0xbd9a0fde	-0.07522558
198	0xb7794151	-1.4856764e-05
199	0x3dac62ee	0.08417307
200	0x3d24008e	0.04003959
201	0x3bc93fb6	0.006141628
202	0x3d9ad7f1	0.07560719
203	0x3d81c611	0.06336606
204	0x3d77de3a	0.060514666
205	0x3d6f4f59	0.05842528
206	0x3d40485b	0.046944004
207	0x3be03dce	0.006843305
208	0xbd882703	-0.06648066
209	0xbd2cc304	-0.04217817
210	0x3c983699	0.018580722
211	0x3d7b6611	0.061376635
212	0x3bbc41ff	0.005745172
213	0xbd0a3857	-0.033745136
214	0x3d920967	0.071306996
215	0xbcfd38d3	-0.030910885
216	0xbd6c483d	-0.05768608
217	0x3b3dcd8c	0.0028961627
218	0x3d28a17b	0.041169625
219	0xbd54e78b	-0.05197863
220	0x3d17e2c7	0.037081506
221	0xbdc5d08b	-0.09658917
222	0x3d4c052b	0.049809616
223	0x3d9c7094	0.0763866
224	0x3d93e293	0.0722095
225	0xbd5f50f2	-0.054520555
226	0x3d71628f	0.058931883
227	0x3cfb8fbf	0.030708192
228	0xbda6787c	-0.08128449
229	0xbc09f078	-0.008419149
230	0x3d86b1d0	0.06576884
231	0xbd5ddc13	-0.054164957
232	0xbdbc9c49	-0.092094965
233	0xbcc3d98e	-0.02390745
234	0x3d918394	0.07105175
235	0x3cc9f7ea	0.024654347
236	0xbc575458	-0.013142668
237	0xbda79d75	-0.081843294
238	0x3d73985b	0.05947147
239	0xbd320420	-0.043460965
240	0x3d8e47b2	0.069472685
241	0xbba7653c	-0.0051085036
242	0x3c116a4d	0.008875442
243	0xbcd6e84f	-0.02623382
244	0xbba9ccdc	-0.005181892
245	0x3da7ef9e	0.082
246	0x3c241241	0.010014118
247	0x3d1342ad	0.03595226
248	0x3d918263	0.071049474
249	0x3d5eb48a	0.054371394
250	0x3d678cf8	0.056530923
251	0x3d1dac49	0.038494382
252	0x3d6dee87	0.058088806
253	0x3d446ac1	0.04795337
254	0xbdc9d732	-0.098554984
255	0xbc776c11	-0.015101449

bias f4 [64]
0	0x3b470dd3	0.003037323
1	0x3d9a5ec7	0.075376086
2	0xbbf1be17	-0.007377397
3	0x3c915f53	0.01774565
4	0x3c8dbc5f	0.017301736
5	0x3c77147b	0.0150805665
6	0x3d90ef4f	0.070768945
7	0x3cc0c0bd	0.023529405
8	0x3ca6de3c	0.020369641
9	0x3cc29f6d	0.02375766
10	0x3d638b71	0.055552904
11	0x3c9d5fe7	0.019210769
12	0x3a0d4df2	0.0005390338
13	0xbd0c2949	-0.03421906
14	0xbc164f56	-0.009174189
15	0xbd9b1705	-0.0757275
16	0x3c573084	0.013134126
17	0x3e135121	0.14386417
18	0xbc22daf9	-0.009939902
19	0x3da8cb7c	0.082419366
20	0x3db9168a	0.09037502
21	0xbd8ae9e1	-0.0678289
22	0x3daf0ab0	0.0854696
23	0xbda19ad5	-0.0789086
24	0x3da258b6	0.079270765
25	0xbcd09695	-0.025462428
26	0x3dab9195	0.08377377
27	0x3d8b1a4e	0.067921266
28	0x3d15b392	0.036548205
29	0x3d5212c2	0.05128742
30	0xbd6d5f87	-0.05795243
31	0x3d9141c0	0.07092619
32	0x3d32f5a1	0.04369128
33	0x3db5ae9c	0.08871195
34	0x3de338b9	0.11094803
35	0x3ce11bb0	0.027479023
36	0xbd2a1844	-0.041527048
37	0x3d834de2	0.06411339
38	0x3de76bf8	0.1129989
39	0xbd7a7a7f	-0.061151978
40	0x3b7fc92b	0.0039029818
41	0xbc0b4ba2	-0.008501919
42	0x3d7da2ed	0.061922956
43	0x3d87e8a5	0.0663617
44	0x3c638d7b	0.013888712
45	0x3dcbf63f	0.09959077
46	0xbcdefe19	-0.027220773
47	0x3cbd320d	0.023095155
48	0xbc94e9d2	-0.0181779
49	0x3d37bd07	0.044858005
50	0x3d52f0fa	0.051499344
51	0x3d282032	0.04104633
52	0x3d856e4b	0.06515177
53	0x3e0b367e	0.13595006
54	0xbd062b6b	-0.03275625
55	0x3ddcfe31	0.10790671
56	0x3dd8b112	0.105806485
57	0xbd5100fe	-0.051026337
58	0xbcbe9a28	-0.023266867
59	0xbdaafbf4	-0.083488375
60	0x3d9e83cf	0.07739984
61	0x3d4e8044	0.050415292
62	0xbd2705a0	-0.04077685
63	0x3e1410bf	0.14459513
