2023/baseline0806/model/WLTP_trained_0822/PPO_actorcritic_25episode.pt (torch, 101527 bytes, 17 tensors)

weight f4 [128, 7]
0	0xbe58840a	-0.21144119
1	0xbe774e56	-0.24150977
2	0x3e86a14e	0.2629494
3	0xbeac1442	-0.33609205
4	0xbe78edfb	-0.24309532
5	0x3ec86687	0.39140722
6	0x3ec1dd1a	0.37864
7	0xbd25ce1e	-0.04047977
8	0xbe39b0ac	-0.18133801
9	0x3dadfb07	0.08495145
10	0xbe8efc21	-0.27926734
11	0xbe0c1b93	-0.13682394
12	0xbeb979ee	-0.36225837
13	0xbe9a61b6	-0.30152673
14	0x3daa7a09	0.083240576
15	0xbd8a0d8b	-0.06740864
16	0xbe2cd593	-0.16878347
17	0x3de6e314	0.112737805
18	0x3ead2759	0.33819082
19	0x3ec43ac3	0.38326082
20	0x3d9a11cf	0.07522928
21	0xbea34ea7	-0.31895944
22	0xbe4e6e0e	-0.2015917
23	0xbe7b4c50	-0.2454083
24	0xbd855580	-0.065104485
25	0xbe22a619	-0.15883674
26	0x3e8b8528	0.27250028
27	0x3ecf752a	0.40519077
28	0x3db19337	0.08670657
29	0xbe3be774	-0.18350011
30	0xbec45648	-0.38347077
31	0x3db192e3	0.086705945
32	0x3da74cce	0.08168946
33	0x3e433cd0	0.19066167
34	0xbc6dfaf7	-0.014525167
35	0xbd47a1a9	-0.048738156
36	0xbd8d88e3	-0.06910875
37	0xbe9b7345	-0.3036138
38	0x3b5ea5b6	0.0033973283
39	0x3e8b2758	0.27178454
40	0x3e141a63	0.1446319
41	0x3ea83aea	0.32857448
42	0xbeada894	-0.33917677
43	0xbe81e30c	-0.25368536
44	0xbead099a	-0.33796388
45	0x3c4285f4	0.011872757
46	0xbe8d5075	-0.27600446
47	0xbe1560c1	-0.1458769
48	0xbb9ac17b	-0.0047227717
49	0x3dc533aa	0.09628995
50	0xbe9eb660	-0.30998516
51	0x3eb4920a	0.3526767
52	0x3ea77a2c	0.32710397
53	0x3ea0a258	0.31373858
54	0xbebf6856	-0.3738429
55	0xbca0c8c1	-0.019626977
56	0x3eeb90f9	0.46009043
57	0xbd074f13	-0.033034395
58	0xbe898792	-0.26861244
59	0xbaf0c1de	-0.0018368324
60	0x3eb85d6a	0.3600877
61	0xbe785451	-0.24250914
62	0x3d50910d	0.05091958
63	0x3ea2bc99	0.31784514
64	0xbe2e925b	-0.17048018
65	0xbeb8b4cd	-0.3607544
66	0xbeb2dd7b	-0.349346
67	0xbe0c0a05	-0.13675697
68	0x3eb85989	0.3600581
69	0x3ea209a3	0.31647977
70	0x3e9b1b41	0.3029423
71	0x3e937f1e	0.2880792
72	0x3d83dd3e	0.06438683
73	0x3e34c77b	0.17654221
74	0xbe96efb6	-0.2947976
75	0x3d1e32f4	0.03862281
76	0x3d735623	0.05940832
77	0xbd6fdff3	-0.058563184
78	0x3ed73b69	0.42037514
79	0x3e4495d7	0.19197784
80	0xbdcaef0b	-0.09908875
81	0x3e4ecf49	0.2019626
82	0xbd6607ed	-0.056159902
83	0xbdc5442c	-0.096321434
84	0xbe8acdee	-0.27110237
85	0xbe87a350	-0.26491785
86	0x3e8567df	0.2605581
87	0xbead13c8	-0.33804154
88	0x3e857a49	0.2606986
89	0xbe0f76ec	-0.14010209
90	0x3e60e1a0	0.21961069
91	0x3e769dab	0.24083583
92	0x3e666b4e	0.22501871
93	0x3e9fb6e2	0.31194216
94	0x3d8dbc72	0.06920709
95	0xbe1881ac	-0.14893216
96	0xbe12cc55	-0.14335759
97	0xbe8c40d1	-0.273932
98	0xbd483ba6	-0.04888501
99	0x3cab86b6	0.020938259
100	0x3dd65424	0.10465267
101	0x3ce742d4	0.028230108
102	0xbd1d5536	-0.03841134
103	0x3e284024	0.16430718
104	0xbe7256a9	-0.2366587
105	0x3e4fa562	0.20277932
106	0xbe8490a2	-0.25891596
107	0xbc0bf647	-0.008542604
108	0x3e34ed14	0.17668563
109	0xbd27c873	-0.040962648
110	0x3e98a9a4	0.29816926
111	0xbe7d17a9	-0.24716057
112	0xbe496362	-0.19666818
113	0xbeb37e19	-0.35057142
114	0xbe64cdf5	-0.22344191
115	0x3e8d96a1	0.27653983
116	0x3dcdb60d	0.10044489
117	0xbe015d09	-0.12633146
118	0x3d17a160	0.037019134
119	0xbdec6851	-0.11543334
120	0x3ee6352d	0.44962445
121	0xbdf51f1e	-0.11968826
122	0x3eddaac4	0.43294346
123	0xbe642ef7	-0.2228354
124	0xbdf1ecfe	-0.11812781
125	0xbe33bdbd	-0.17552848
126	0x3eb377ce	0.3505234
127	0xbe090f13	-0.13384657
128	0x3cd45140	0.02591765
129	0xbeb6bdeb	-0.3569177
130	0xbe92edb2	-0.28696972
131	0xbe82e285	-0.25563446
132	0xbe801661	-0.25017074
133	0xbe0473f2	-0.12934855
134	0xbe9449a4	-0.28962433
135	0xbd9af3b9	-0.07566018
136	0xbe55d6b6	-0.20882687
137	0x3d63aa5d	0.055582393
138	0xbd849ec1	-0.064755924
139	0xbd2c975d	-0.04213654
140	0x3ea5ed8b	0.32407793
141	0xbe0a2313	-0.13489942
142	0x3dce7143	0.10080197
143	0x3d428e70	0.04749912
144	0x3d36c4dc	0.044621333
145	0x3eb07865	0.34466854
146	0x3ea76711	0.3269582
147	0xbdbdf109	-0.092744894
148	0x3c52bff9	0.012863153
149	0xbda1ef9d	-0.07907031
150	0xbdf31a73	-0.11870279
151	0x3c45decc	0.012077045
152	0xbe53c8bf	-0.20682047
153	0x3d91f8f2	0.07127561
154	0xbeb0d982	-0.34540945
155	0x3d97154b	0.07377108
156	0x3e7cc654	0.24685031
157	0xbdaffda4	-0.085933
158	0x3cca6f40	0.024711251
159	0xbe1219a1	-0.14267589
160	0x3e8e0501	0.27738193
161	0x3e81b559	0.2533367
162	0xbdd8ebdf	-0.10591864
163	0x3e3dfece	0.18554232
164	0x3e7a36e6	0.24435005
165	0x3d9768e1	0.07393051
166	0x3ea9a5af	0.3313422
167	0x3ecc496c	0.39899766
168	0x3eb7a933	0.35871276
169	0xbe5fd45d	-0.21858354
170	0x3d61b975	0.055108506
171	0xbe9778ae	-0.2958426
172	0x3eb55a22	0.35420328
173	0xbdc56a57	-0.09639423
174	0x3e97c314	0.2964102
175	0x3d64d3c5	0.05586602
176	0x3d33460d	0.043767978
177	0xbeb32020	-0.34985447
178	0xbdd85ec9	-0.10564954
179	0xbd212390	-0.039340556
180	0x3e22385d	0.15841813
181	0xbe3f3bfa	-0.18675223
182	0x3e57431b	0.21021692
183	0xbe9abb46	-0.30221003
184	0x3e82dda2	0.25559717
185	0xbe46a4a0	-0.19398737
186	0xbe19ce7c	-0.15020174
187	0x3e7815e6	0.24227104
188	0x3e25754f	0.16158031
189	0x3e9e6865	0.30939022
190	0x3db52ba7	0.08846217
191	0x3e146946	0.14493284
192	0x3e69dcdc	0.22838157
193	0x3e9948e6	0.2993843
194	0xbe148af0	-0.14506125
195	0x3e910ec3	0.28331575
196	0xbcf0d9b2	-0.02940068
197	0x3ea1408d	0.3149456
198	0xbdc8493a	-0.09779592
199	0x3e8d0e42	0.2754994
200	0xbe74122e	-0.2383506
201	0xbdd7ba3b	-0.105335675
202	0x3e1d0837	0.15335165
203	0x3ea57e8d	0.32323113
204	0x3d0d3dc9	0.03448275
205	0x3e2ae379	0.16688336
206	0xbe668f42	-0.22515586
207	0x3e1221f9	0.14270772
208	0x3ecae2f8	0.39626288
209	0x3e5716ad	0.21004744
210	0xbdfecc25	-0.12441281
211	0xbe52ed6d	-0.20598383
212	0xbdb4e347	-0.08832412
213	0x3df1392d	0.117784835
214	0xbe721513	-0.23640852
215	0x3e692ec9	0.22771753
216	0x3e974119	0.29541853
217	0x3e2a2dd5	0.16619046
218	0xbe186905	-0.14883812
219	0x3e049573	0.12947635
220	0xbdc53a85	-0.09630302
221	0x3e89614a	0.26832038
222	0x3ebc7b17	0.3681266
223	0x3e83c191	0.25733617
224	0x3db5a2a5	0.088689126
225	0xbe678457	-0.22609077
226	0xbdcc92fb	-0.09988972
227	0x3eaf59bb	0.34248146
228	0x3ea78887	0.3272135
229	0xbe26ec95	-0.16301186
230	0x3abd133d	0.0014425289
231	0x3e60cb6a	0.21952596
232	0x3dc44923	0.09584262
233	0x3d8eab49	0.06966264
234	0x3eb89434	0.3605057
235	0x3e57aaec	0.21061295
236	0xbe6c25ec	-0.23061341
237	0x3eab269d	0.33427897
238	0x3e004b49	0.12528719
239	0xbe898ef9	-0.26866892
240	0xbe45a9e7	-0.19303094
241	0xbe0c3bdb	-0.13694708
242	0x3eae1c28	0.34005857
243	0xbe46e0df	-0.19421719
244	0x3d4d12f1	0.050066892
245	0x3de11c1e	0.10991691
246	0x3ceb938a	0.028756876
247	0x3e5681d2	0.2094796
248	0xbe0a91cc	-0.1353218
249	0x3d40590f	0.046959933
250	0xbe37a12d	-0.17932577
251	0x3e95da4b	0.29268107
252	0xbe579ecb	-0.21056668
253	0x3e90285d	0.28155795
254	0x3d5387ae	0.051643066
255	0x3e90d038	0.28283858

bias f4 [128]
0	0xbe2c60d6	-0.16833815
1	0xbe7448f0	-0.23855948
2	0x3e4480f5	0.19189818
3	0x3ed13e90	0.40868044
4	0x3d72090d	0.059090663
5	0xbe14d1d0	-0.14533162
6	0xbdd1db23	-0.10246875
7	0x3dd7e671	0.10542
8	0x3c9ab324	0.018884249
9	0x3ec75989	0.38935497
10	0x3e9b6501	0.30350497
11	0x3cef4da2	0.029211823
12	0x3dc1787e	0.0944681
13	0x3e6228ea	0.2208592
14	0x3d41c583	0.047307502
15	0xbe172580	-0.14760399
16	0xbe4c695c	-0.19962066
17	0x3e58bae4	0.21165043
18	0x3eb5a08a	0.35474044
19	0x3e5ac742	0.21365073
20	0xbd8f9a9e	-0.07011913
21	0xbe9af27e	-0.30263132
22	0x3e674455	0.2258466
23	0xbe593db7	-0.21214949
24	0xbd939d43	-0.0720773
25	0xbe910c02	-0.28329474
26	0xbdd47014	-0.1037294
27	0x3d8edbc8	0.06975514
28	0xbeb4dbb1	-0.3532386
29	0xbea5c0b3	-0.3237358
30	0x3e904f89	0.2818568
31	0x3bea5925	0.00715174
32	0x3ea329ca	0.3186782
33	0x3d946c87	0.072472624
34	0x3e96e40e	0.29470867
35	0xbe7d1e62	-0.24718621
36	0xbe943c30	-0.2895217
37	0xbdcff75e	-0.101546034
38	0xbea75eb3	-0.32689437
39	0xbdb7bf14	-0.08971992
40	0xbe528d98	-0.20561826
41	0xbecc9cef	-0.3996348
42	0xbbeb5ca5	-0.007182675
43	0xbd7b4e4c	-0.061353967
44	0xbe9246a2	-0.28569514
45	0xbcd0c8bc	-0.025486343
46	0xbe8cf2ec	-0.27529085
47	0xb9cdf885	-0.00039285808
48	0xbe820c38	-0.25399947
49	0xbded0d73	-0.11574831
50	0x3e63e893	0.22256689
51	0x3ec9d746	0.39422053
52	0x3ce62b16	0.028096717
53	0xbea3e590	-0.3201108
54	0xbe14707b	-0.14496033
55	0x3e5ac05f	0.21362446
56	0x3e9bc6b9	0.3042505
57	0x3e900aaa	0.28133136
58	0xbd8cce8b	-0.068753324
59	0xbeb3824c	-0.35060346
60	0xbeaa42f2	-0.332542
61	0x3e18d1ff	0.14923857
62	0x3cb4d872	0.022075865
63	0x3e9aaf69	0.30211952
64	0x3e93b714	0.28850615
65	0xbe46d36c	-0.19416589
66	0xbeb5f34f	-0.35537192
67	0xbeb3f523	-0.35147962
68	0x3ecf299f	0.40461442
69	0x3dbaf3cd	0.091285326
70	0x3de7b474	0.113137156
71	0xbd0ee23b	-0.03488372
72	0xbe833137	-0.25623485
73	0x3eb50d2a	0.35361606
74	0x3da524d4	0.08063665
75	0xbd80a555	-0.062815346
76	0x3e1a04f7	0.15040956
77	0x3e96b5c6	0.29435557
78	0xbdb703aa	-0.08936246
79	0x3e9d5dda	0.30735666
80	0x3e97e0ae	0.29663604
81	0x3e9170c9	0.2840636
82	0x3e2e20d0	0.17004704
83	0xbe84326b	-0.25819716
84	0xbe0e15b2	-0.13875464
85	0xbde39825	-0.11113004
86	0xbe9bc43c	-0.30423152
87	0xbe6144a2	-0.21998838
88	0xbeaca55f	-0.33719918
89	0xbe07133e	-0.13190934
90	0x3ebf434c	0.3735603
91	0x3e9365c8	0.2878859
92	0x3ec22fbe	0.3792705
93	0x3ed0c4e7	0.40775225
94	0x3dc778ef	0.09739863
95	0xbe9900be	-0.2988338
96	0x3d47cb06	0.048777603
97	0x3e8bf5a5	0.2733585
98	0x3e04f7c8	0.12985146
99	0xbea76f87	-0.32702276
100	0x3ece602e	0.40307754
101	0x3e8b4b0d	0.27205697
102	0x3e462d62	0.1935325
103	0x3eb950e7	0.36194536
104	0xbe559f68	-0.2086159
105	0x3cb511b0	0.02210316
106	0x3dbb1f21	0.09136797
107	0xbe29f734	-0.16598207
108	0xbe268278	-0.16260707
109	0x3ddb5c29	0.107109375
110	0x3d8d848e	0.069100484
111	0xbe8075bd	-0.25089827
112	0xbeaceb64	-0.3377334
113	0xbd985935	-0.0743889
114	0x3ea37d05	0.3193132
115	0x3d3bbd41	0.045834783
116	0xbe296140	-0.16541004
117	0x3e608a4a	0.21927753
118	0x3e87180d	0.26385537
119	0xbe1fdba0	-0.15611124
120	0x3e8a5edd	0.270255
121	0xbde4ea9f	-0.11177563
122	0xbe1b7717	-0.15182148
123	0x3e51aa09	0.2047502
124	0x3e409bf5	0.18809493
125	0xbe904f0e	-0.28185314
126	0x3ea2ccb6	0.31796807
127	0xbe8b182a	-0.27166873

weight f4 [64, 128]
0	0xbce2f1fe	-0.027703281
1	0x3dacf6fd	0.08445547
2	0x3b0de19a	0.0021649362
3	0x3d3f6269	0.04672471
4	0x3d78fee7	0.06078997
5	0xbd73637f	-0.05942106
6	0x3dae3d81	0.08507825
7	0xbcc479be	-0.023983832
8	0xbda2e8d5	-0.079545654
9	0xbd6d833d	-0.057986487
10	0x3c4a1c1b	0.012335802
11	0x3db46466	0.08808212
12	0xbcb37454	-0.021906056
13	0x3cb3499e	0.02188569
14	0xbda52a74	-0.08064738
15	0x3c87d109	0.016579168
16	0x3c5e8770	0.0135820955
17	0xbd93189d	-0.07182429
18	0xbce8a4bb	-0.028398862
19	0xbd0b068a	-0.033941783
20	0xbd167944	-0.03673674
21	0x3d897135	0.06711046
22	0xbc037424	-0.008023296
23	0xbd609658	-0.05483088
24	0x3cbc3888	0.022976175
25	0x3d2871f2	0.04112429
26	0x3d09e9bb	0.03367017
27	0x3bfaad90	0.007650085
28	0xbc29cb88	-0.010363467
29	0xbd88c4d8	-0.0667817
30	0xbd6d649d	-0.05795728
31	0x3d6dc48c	0.05804877
32	0x3d9e73ed	0.07736955
33	0xbcee4242	-0.029084329
34	0xbb2f0ba7	-0.0026709826
35	0xbd82c569	-0.06385309
36	0xbb3dcb40	-0.0028960258
37	0xbda050a0	-0.07827878
38	0x3db11610	0.08646786
39	0x3cc83ed5	0.024444023
40	0xbcca2224	-0.024674483
41	0x3c9d3b15	0.019193212
42	0x3d7878aa	0.06066195
43	0x3cae75cb	0.021296402
44	0x3da9c376	0.08289234
45	0xbd134f98	-0.03596458
46	0xbc55c9b6	-0.01304858
47	0xbd9bdb84	-0.07610229
48	0x3d9ab47b	0.07553955
49	0xbd9ed4a6	-0.07755403
50	0xba44b6bb	-0.00075040356
51	0xbd6cb997	-0.05779418
52	0xbd1afd5a	-0.03783927
53	0x3d71d659	0.05904231
54	0xbcd9e33c	-0.026597612
55	0x3d9f5263	0.07779386
56	0x3d1a653c	0.0376942
57	0xbd7bc64c	-0.061468408
58	0xbced5363	-0.028970426
59	0xbd6d733b	-0.05797122
60	0xbd9049d8	-0.070453346
61	0xbba95c84	-0.0051684994
62	0xbd6fa997	-0.058511343
63	0xbd864e07	-0.06557851
64	0xbd37dfd2	-0.044891186
65	0x3daae01f	0.08343529
66	0x3d99a665	0.0750244
67	0x3d5838b7	0.052788462
68	0x3d2ac872	0.041695066
69	0x3d20ca33	0.039255332
70	0xbb155012	-0.0022783321
71	0x3d8cc04a	0.06872614
72	0x3d64f5cb	0.05589847
73	0x3d548652	0.05188591
74	0x3c733849	0.014844962
75	0xbdaddb03	-0.08489039
76	0xbd82a29b	-0.06378671
77	0x3c9a733f	0.018853782
78	0xbd92847f	-0.07154178
79	0xbd8689f0	-0.06569278
80	0x3d10fc52	0.03539688
81	0xbd30d1dc	-0.043168887
82	0xbd893d65	-0.06701163
83	0xbceb7f8c	-0.028747343
84	0xbb96e856	-0.0046053333
85	0xbccd2614	-0.025042571
86	0xbd2299eb	-0.03969757
87	0x3d7a1a8d	0.061060477
88	0x3cf28301	0.029603483
89	0x3daa7476	0.083229944
90	0xbd0fbbc0	-0.03509116
91	0x3caca50c	0.021074794
92	0xbd0ed4a0	-0.034870744
93	0x3d9f11cf	0.077670686
94	0x3d3502da	0.044192173
95	0xbcaa0332	-0.020753477
96	0x3cefb4d3	0.029261028
97	0x3cb3d53a	0.02195226
98	0xbb165e5d	-0.0022944428
99	0xbd528fc4	-0.051406637
100	0x3bb593e0	0.0055413097
101	0x3cde6f8d	0.027152801
102	0xbbbca721	-0.005757228
103	0x3d00e7d0	0.031471074
104	0x3d418896	0.0472494
105	0x3d6e0ce7	0.058117773
106	0xbc8f9cfa	-0.017530907
107	0xbc8b4f5f	-0.01700562
108	0x3d4f4b04	0.05060865
109	0xbd90caf2	-0.07069959
110	0x3da7bdc3	0.08190491
111	0x3cc5f9f7	0.024167044
112	0x3cc54fa4	0.024085827
113	0x3d037e0d	0.032102633
114	0xbd61c2aa	-0.055117287
115	0xbd96305a	-0.07333441
116	0xbd37ce52	-0.044874497
117	0x3c9dcbe8	0.01926227
118	0x3a9542fd	0.0011387762
119	0xbd522049	-0.05130032
120	0xbd032da9	-0.032025967
121	0x3d8ee04d	0.06976376
122	0x3c33715e	0.010952322
123	0xbc705069	-0.014667609
124	0xbd134ee0	-0.035963893
125	0xbd5e7716	-0.054312788
126	0xbd93b598	-0.07212371
127	0x3d6bf3db	0.057605606
128	0x3d58cc61	0.052929286
129	0x3dab4e19	0.08364505
130	0xbd78a6a5	-0.0607058
131	0xbcb54644	-0.022128232
132	0xbd1426f8	-0.036169976
133	0x3b095161	0.0020953047
134	0xbd47d91c	-0.048791036
135	0x3cb5da6e	0.022198882
136	0x3b369778	0.0027861279
137	0x3d24b07e	0.04020738
138	0xbc94b8bd	-0.018154496
139	0xbd271f8d	-0.040801574
140	0xbc3ce154	-0.011528332
141	0xbd1e2193	-0.038606238
142	0xbbd660ad	-0.0065422864
143	0xbc8c2ef9	-0.017112242
144	0x3d2ab7a1	0.04167903
145	0x3d19c1dc	0.037538394
146	0xbd827208	-0.06369406
147	0x3cde37b6	0.027126174
148	0x3d971065	0.07376174
149	0x3db1b977	0.08677953
150	0xbc99dae3	-0.018781131
151	0x3cfb34a8	0.030664757
152	0xbd61d575	-0.05513521
153	0x3d77339a	0.060351945
154	0x3ba93a9e	0.0051644584
155	0x3d494c00	0.049144745
156	0x3d7e30e4	0.062058344
157	0xbd3b7bd1	-0.045772377
158	0x3d84f669	0.064923115
159	0x3d001393	0.031268667
160	0xbd2a1215	-0.04152115
161	0xbd93a37e	-0.07208918
162	0x3d050772	0.032477804
163	0x3d5cb1b3	0.053880405
164	0x3d9f0457	0.077645
165	0x3da63d9c	0.0811722
166	0x3d74b2ad	0.05974071
167	0xbcdcac98	-0.026937768
168	0xbcecdf29	-0.028915005
169	0xbd31d33c	-0.04341434
170	0xbcb30dda	-0.02185719
171	0x3d7d89da	0.061899044
172	0x3dabbef0	0.08386028
173	0xbc6b5b8d	-0.014365089
174	0xbacc7ef7	-0.0015601803
175	0xbcbd941e	-0.023141917
176	0xbd95b76d	-0.07310376
177	0xbd5af3c5	-0.053455133
178	0x3d9c09fc	0.07619092
179	0xbd1febb2	-0.039043136
180	0x3ce19627	0.027537419
181	0x3cd77dff	0.026305197
182	0xbd907514	-0.07053581
183	0xbd232389	-0.03982881
184	0xbd74e5fd	-0.059789646
185	0xbadd851f	-0.0016900635
186	0x3cecc082	0.028900389
187	0x3d6bb2a8	0.057543427
188	0x3d5b380c	0.053520247
189	0xbd87fb8a	-0.06639774
190	0x3d008d7b	0.031384926
191	0x3d5e2ec9	0.054243837
192	0x3cff47d7	0.031162186
193	0x3da3031c	0.079595774
194	0xbd34805e	-0.044067733
195	0xbdad9f38	-0.08477634
196	0xbd88b8e1	-0.06675888
197	0x3c8b3223	0.01699168
198	0x3da45bad	0.08025298
199	0x3d2e3c95	0.042538244
200	0xbc97a73c	-0.01851236
201	0xbd3971ae	-0.04527443
202	0x3d3e7752	0.04650051
203	0x3d26724f	0.040636357
204	0x3d853a00	0.06505203
205	0xbd9eaab0	-0.077474
206	0xbd3d0d6f	-0.04615539
207	0x3cd6d927	0.026226593
208	0xbbf4ecbc	-0.00747451
209	0x3d264560	0.040593505
210	0xbce716ea	-0.028209168
211	0xbd943f4a	-0.07238634
212	0x3d9f3aa8	0.0777486
213	0x3b88d264	0.004175471
214	0xbcc27c8f	-0.023741035
215	0xbdb0d97a	-0.0863523
216	0x3d8875d0	0.06663096
217	0x3a099cc4	0.0005249495
218	0xbbba1415	-0.0056786635
219	0xbd973084	-0.073823005
220	0xbd1a3964	-0.03765239
221	0xbd9c2b42	-0.07625438
222	0xbc2fb522	-0.010724338
223	0x3b498ac1	0.003075287
224	0x3caf910e	0.021431472
225	0x3d693961	0.056939486
226	0x3c5dad08	0.013530023
227	0xbda72840	-0.08161974
228	0xbd259c4f	-0.04043227
229	0xbc6b127c	-0.014347669
230	0xbd994b41	-0.07485057
231	0x3da09e04	0.07842639
232	0xbcd69c4c	-0.026197575
233	0xbd43166a	-0.047628798
234	0xbc122620	-0.0089202225
235	0xbd441363	-0.04787005
236	0x3c4ca171	0.0124896625
237	0x3d59334b	0.053027432
238	0xbd9e89ef	-0.077411525
239	0x3d7a252e	0.061070614
240	0x3db18f3a	0.086698964
241	0x3c488ac8	0.012240119
242	0x3d16e5df	0.036840316
243	0xbd9668da	-0.073442176
244	0xbd00b9fa	-0.03142736
245	0x3db2d2b9	0.087315984
246	0x3b149afb	0.0022675383
247	0x3d34045e	0.043949477
248	0xbd7cd4b7	-0.0617263
249	0xbd62ee83	-0.055403244
250	0x3d27a0a4	0.040924683
251	0xbbb0bff0	-0.0053939745
252	0x3d1aa0e7	0.037751105
253	0x3dac74ec	0.084207386
254	0x3d7b1aab	0.06130473
255	0x3d2b0720	0.04175484

bias f4 [64]
0	0xbd944fc6	-0.07241778
1	0xbcce523b	-0.025185695
2	0x3db98b23	0.09059741
3	0x3d93ed5f	0.07223009
4	0x3d3d0f94	0.046157435
5	0x3d73eddf	0.059553023
6	0x3d2cd9ae	0.042199783
7	0x3e00f151	0.12592055
8	0x397e7818	0.00024268066
9	0xbaebd1cf	-0.0017991605
10	0x3caa2507	0.02076961
11	0xbbbb6e94	-0.005719969
12	0x3dae8c53	0.085228585
13	0x3d931fe8	0.0718382
14	0x3c584294	0.013199467
15	0x3b970272	0.004608446
16	0x3d14edaa	0.036359467
17	0xbc603ca7	-0.013686336
18	0x3d2fdacb	0.042933267
19	0x3badf1af	0.005308352
20	0x3dc0e734	0.094190985
21	0xbb1a78dc	-0.0023570573
22	0xbb44ed3e	-0.0030048634
23	0xbc31c1a3	-0.010849389
24	0xbc0a6fda	-0.008449519
25	0xbc52d38e	-0.012867821
26	0xbc59c915	-0.013292571
27	0xbcbfc4ce	-0.023409273
28	0x3d15dfe0	0.036590457
29	0xbd28977b	-0.041160088
30	0x3c34fe95	0.011047025
31	0xbd0604c8	-0.032719404
32	0x3d6e1f20	0.058135152
33	0x3d753e7c	0.059874043
34	0x3d30fc7d	0.04320954
35	0xbc094284	-0.008377675
36	0x3d7ba5b7	0.061437335
37	0xbdb0b8b8	-0.08628982
38	0x3d4e3d61	0.050351504
39	0xbdb3902e	-0.087677345
40	0x3c1326de	0.008981435
41	0x3d8a6964	0.06758383
42	0x3d429a9a	0.04751072
43	0xbdae31dd	-0.085056044
44	0x3d604cc7	0.05476072
45	0x3cf07f5d	0.029357607
46	0x3d0905f9	0.03345296
47	0x3dbcd06e	0.09219442
48	0xbcf503b4	-0.029908992
49	0x3d80a672	0.06281747
50	0xbcfb24e2	-0.030657236
51	0x3d90c3e3	0.070686124
52	0x3d1f90bc	0.03895639
53	0xbd83e526	-0.06440191
54	0xbc4e2d37	-0.012584022
55	0x3de6b7ca	0.11265524
56	0xbcf72590	-0.030169278
57	0x3c5e7252	0.013577061
58	0x3d29a38a	0.04141573
59	0xbd8365de	-0.06415914
60	0x3c98a0a2	0.018631283
61	0xbd2c4382	-0.042056568
62	0x3c9f49a8	0.019444302
63	0x3e0069d1	0.12540366

weight f4 [32, 64]
0	0x3d3f3990	0.046685755
1	0xbdb74a9c	-0.089497775
2	0x3e101de1	0.14073898
3	0xbbe7e246	-0.0070765344
4	0xbd465b49	-0.0484269
5	0x3dbbbca9	0.091668434
6	0x3df81585	0.121134795
7	0xbcf924cf	-0.03041306
8	0x3ded9bda	0.11601992
9	0x3cf75b19	0.030194806
10	0x3dfadfdc	0.12249729
11	0x3df3a641	0.11896945
12	0x3db65913	0.08903708
13	0x3e0668b9	0.13125886
14	0xbd83013f	-0.06396722
15	0x3dbbf964	0.09178427
16	0xbd7de130	-0.061982334
17	0xbd3b64f1	-0.045750562
18	0x3d6f5c78	0.058437794
19	0xbdfd69da	-0.12373705
20	0xbdc536aa	-0.09629567
21	0xbded4b35	-0.1158661
22	0xbdc271d9	-0.09494371
23	0x3d8c918c	0.06863698
24	0xbe02df86	-0.1278058
25	0x3d1a673c	0.03769611
26	0x3dca6702	0.098829284
27	0x3e01f185	0.12689789
28	0xbe5cb29b	-0.21552508
29	0x3dd999af	0.10625016
30	0x3d9c616c	0.07635769
31	0x3d9c421b	0.07629796
32	0x3c15272e	0.009103579
33	0x3e091afb	0.13389198
34	0xbdca6e75	-0.09884349
35	0xbd4bd3e6	-0.04976263
36	0xbdaa5b46	-0.0831819
37	0xbb243cc0	-0.0025060624
38	0x3d02c2cf	0.031924065
39	0xbd31ae34	-0.043379024
40	0xbc0026b5	-0.0078217285
41	0x3d8918ce	0.06694184
42	0xbd0aed56	-0.033917747
43	0xbd7f404c	-0.062317178
44	0xbd895087	-0.067048125
45	0xbcac564c	-0.021037243
46	0x3d89a6c1	0.06721259
47	0x3dbd7ee1	0.09252716
48	0x3b353ae4	0.002765351
49	0xbd24de24	-0.040250912
50	0xbdc14bf1	-0.09438313
51	0xbdc027de	-0.09382604
52	0xbdc4e49e	-0.09613918
53	0xbc1159d0	-0.008871511
54	0x3d594271	0.05304188
55	0x3cba47ff	0.022739409
56	0x3dfaa6b9	0.12238831
57	0x3d387071	0.045029107
58	0xbda445e9	-0.08021147
59	0xbc2d4f67	-0.010578013
60	0xbd8a9d7e	-0.067683205
61	0x3dabb420	0.083839655
62	0x3dfe3004	0.12411502
63	0x3d9e9e21	0.077450044
64	0xbc6c47c0	-0.014421403
65	0xbc95cbd9	-0.018285679
66	0x3dc2c42c	0.09510073
67	0x3e1d090e	0.15335485
68	0xbab89613	-0.0014082812
69	0xbdb2eb71	-0.08736313
70	0x3d2ed357	0.042682018
71	0xbe394f94	-0.18096763
72	0x3cfb45e4	0.030672975
73	0x3dac656c	0.08417782
74	0xbd5254fd	-0.051350582
75	0xbce1ea23	-0.027577465
76	0x3d8144f8	0.06311983
77	0x3d5a555e	0.05330407
78	0xbddcbe59	-0.107784934
79	0x3d052f23	0.032515656
80	0xbe34cad5	-0.176555
81	0xbd17273d	-0.036902655
82	0xbce28ce1	-0.027655067
83	0x3df913b0	0.12161958
84	0x3e22c884	0.15896803
85	0xbd38bd4d	-0.045102406
86	0x3d8a31ce	0.06747781
87	0x3ccda1fc	0.025101654
88	0xbe071b65	-0.13194044
89	0xbd4189c6	-0.04725053
90	0xbccb62f0	-0.02482745
91	0x3d1b9d9c	0.037992105
92	0x3e1082cd	0.14112397
93	0x3d884255	0.06653277
94	0xbb4c1a37	-0.0031143555
95	0x3ddb621a	0.10712071
96	0x3dbe3aa1	0.09288526
97	0x3d6e7b18	0.05822286
98	0xbdb48ae9	-0.088155575
99	0x3d51a2cf	0.051180657
100	0x3dc1daf1	0.09465588
101	0xbd2333f4	-0.03984447
102	0x3dac85a4	0.084239274
103	0xbd6fdc64	-0.05855979
104	0x3cc7e213	0.024399793
105	0x3dbb4ac9	0.091451235
106	0xbd8e4180	-0.06946087
107	0x3ca61198	0.020272061
108	0xbdcf967f	-0.10136127
109	0x3debe655	0.11518542
110	0xbc8557e1	-0.016277255
111	0x3d2f98c1	0.042870287
112	0x3e12d0fa	0.1433753
113	0x3c29ac00	0.010355949
114	0xbd6ab58b	-0.05730204
115	0x3d69d944	0.057091966
116	0xbdaeaffb	-0.08529659
117	0x3d4e74f2	0.050404496
118	0xbb804029	-0.0039138985
119	0xbc19e044	-0.009391848
120	0xbdd2121f	-0.102573626
121	0xbdd3c0b3	-0.10339489
122	0x3e05ed38	0.13078773
123	0x3d75a73c	0.05997394
124	0x3d1978c3	0.037468683
125	0x3cef2ee0	0.029197156
126	0xbd8d1d9d	-0.06890414
127	0x3e04766e	0.12935802
128	0x3dcb3b92	0.099234715
129	0x3cc4eb68	0.024038032
130	0xbd938252	-0.07202591
131	0xbdd6af4d	-0.10482655
132	0x3dc25e0e	0.09490596
133	0xbd9b8c2d	-0.07595096
134	0x3caa6376	0.02079938
135	0xbdc2c1d2	-0.095096245
136	0xbddd8e76	-0.10818188
137	0xbd3959cb	-0.04525165
138	0xbde97660	-0.11399531
139	0xbdee12c4	-0.11624673
140	0xbd9ef2aa	-0.07761128
141	0x3d8dfb26	0.069326684
142	0xbd2b7adc	-0.041865215
143	0x3d56167c	0.052267537
144	0xbc3eed40	-0.0116532445
145	0xbdd8761a	-0.10569401
146	0x3daeaf16	0.08529489
147	0x3db45f14	0.08807197
148	0x3bf9748c	0.0076127704
149	0xbdf91394	-0.12161937
150	0xbd3ae5d8	-0.045629352
151	0xbd59053f	-0.05298352
152	0x3dcf4112	0.10119833
153	0x3d6312c1	0.055437807
154	0x3d4b31aa	0.04960791
155	0x3dac2878	0.08406156
156	0x3dde6689	0.10859401
157	0xbd06d31c	-0.032916173
158	0x3d8efac0	0.069814205
159	0x3dbd7d7c	0.0925245
160	0x3cfd73d0	0.030939013
161	0x3d0094c7	0.031391885
162	0xbdc4af53	-0.09603753
163	0x3d66e060	0.056366324
164	0x3cf42b80	0.029805899
165	0x3df1a278	0.117985666
166	0xbce09c78	-0.02741836
167	0x3d1771aa	0.036973633
168	0xbda29f59	-0.079405494
169	0xbde0954d	-0.10965977
170	0xbd338db4	-0.04383631
171	0x3db61c44	0.0889211
172	0x3dc217c0	0.09477186
173	0x3da92c46	0.082603976
174	0x3d8962da	0.067083076
175	0x3caf690f	0.0214124
176	0xbda80fca	-0.082061365
177	0xbc662ed0	-0.014049247
178	0x3d1cb2d8	0.038256496
179	0xbbfc169d	-0.0076931254
180	0xbd4c260a	-0.049840964
181	0x3d798e98	0.060927004
182	0x3c2dbbe0	0.010603875
183	0x3d7ffbc2	0.062495954
184	0xbc910d38	-0.017706499
185	0xbdb800d6	-0.089845344
186	0x3dc32817	0.09529131
187	0xbd17c958	-0.03705725
188	0xbdd95d48	-0.10613495
189	0xbdd6330c	-0.10458955
190	0xbdc4066a	-0.09571536
191	0xbdaa1787	-0.08305269
192	0xbdc37248	-0.09543282
193	0xbde300c3	-0.1108413
194	0x3cab5f37	0.020919425
195	0x3e330d86	0.17485628
196	0x3e12867e	0.14309117
197	0x3e2ce875	0.1688555
198	0xbde9dfd7	-0.11419647
199	0x3b33677b	0.0027374912
200	0x3e0f93eb	0.1402127
201	0x3d09f8b8	0.033684462
202	0x3dd740e3	0.10510423
203	0x3beba2ed	0.007191053
204	0x3bc7b209	0.0060942215
205	0xbccb3130	-0.024803728
206	0x3b7709bb	0.0037695009
207	0xbd81ea04	-0.06343463
208	0x3d1a675e	0.037696235
209	0xbde4a8e2	-0.11165024
210	0x3d6eefbf	0.05833411
211	0x3d600a6b	0.054697435
212	0x3dcd09c1	0.10011626
213	0xbd76ba79	-0.060236428
214	0xbd0cfe26	-0.034422062
215	0x3e2ca693	0.16860418
216	0x3b012ee2	0.0019711782
217	0x3dd8cc61	0.10585857
218	0xbc4c2d2d	-0.012461943
219	0x3e263418	0.1623081
220	0x3dbdab73	0.09261217
221	0xbdb9dd53	-0.09075417
222	0xbc3532a0	-0.011059433
223	0x3dd3b796	0.103377506
224	0xbd52829f	-0.0513941
225	0x3e1072cb	0.1410629
226	0xbc624d1c	-0.01381233
227	0x3d356e66	0.044294737
228	0x3d493e0f	0.04913145
229	0xbd25fc40	-0.040523767
230	0x3ce7ecf6	0.028311234
231	0xbdbce1eb	-0.09222778
232	0x3cc2b26b	0.023766717
233	0x3dc2a2d9	0.09503717
234	0x3e078495	0.1323417
235	0x3cf16ac0	0.029469848
236	0x3da11268	0.07864839
237	0x3d5496f5	0.051901776
238	0xbd82b2b4	-0.06381741
239	0x3db3a351	0.087713845
240	0x3e27b480	0.16377449
241	0xbd887deb	-0.06664642
242	0x3c3e7f38	0.011627011
243	0xbd03bcbd	-0.032162417
244	0x3aa7e2d2	0.0012808687
245	0x3d955f35	0.0729355
246	0x3d95d3d7	0.07315796
247	0xbd68f8af	-0.05687779
248	0x3d87ea34	0.066364676
249	0x3dca6789	0.09883029
250	0x3e067ad1	0.13132788
251	0xbdf53cd2	-0.11974491
252	0x3dda2120	0.10650849
253	0xbdbbecd0	-0.09176028
254	0x3d4d7d49	0.05016831
255	0x3e0108fe	0.12601086

bias f4 [32]
0	0xbd906719	-0.07050914
1	0x3ddc9697	0.1077091
2	0xbd3f4672	-0.04669804
3	0x3dac960a	0.08427055
4	0xbdb3e078	-0.087830484
5	0xbcad86d8	-0.021182463
6	0x3e24c588	0.16090977
7	0x3dd90b46	0.10597853
8	0x3e1b6c65	0.15178068
9	0xbb780973	-0.003784743
10	0xbc04bd99	-0.008101844
11	0x3d84428c	0.06458005
12	0x3d0acbc6	0.03388574
13	0xbd0a4fbf	-0.033767458
14	0xbd978212	-0.07397856
15	0x3cba873d	0.022769565
16	0xbe0d0471	-0.13771226
17	0xbd51b11d	-0.0511943
18	0x3daa64db	0.08320018
19	0x3d1e24e8	0.038609415
20	0x3e1a1715	0.15047868
21	0xbdd376ab	-0.103253685
22	0x3ce742a1	0.028230013
23	0xbd96726e	-0.073460445
24	0x3debe3a7	0.115180306
25	0x3da9a53f	0.08283471
26	0x3cb13048	0.021629468
27	0x3c48e9f7	0.012262813
28	0xbda4381c	-0.080185145
29	0x3d67dfc6	0.05660989
30	0xbd95469a	-0.07288857
31	0x3db18508	0.08667952

weight f4 [128, 7]
0	0xbe5de32f	-0.21668695
1	0x3e5f9ba0	0.2183671
2	0xbd80716e	-0.06271635
3	0x3e952b5c	0.29134643
4	0xbe3e2288	-0.1856786
5	0x3c6cbecd	0.014449787
6	0x3e31445f	0.17311238
7	0x3d3c048c	0.045902774
8	0xbea9e6a8	-0.3318379
9	0xbca9cc8f	-0.020727424
10	0x3e993ab2	0.29927593
11	0x3cf44e29	0.029822426
12	0xbb6729e6	-0.0035272776
13	0xbd7d043e	-0.061771624
14	0x3e1e9435	0.15486224
15	0x3e4aacf3	0.19792537
16	0xbe585a84	-0.21128279
17	0xbe899662	-0.26872545
18	0xbec15cdd	-0.37766162
19	0xbea22ac6	-0.3167326
20	0x3e5b2858	0.21402109
21	0xbeb3232f	-0.3498778
22	0xbd6f32de	-0.05839812
23	0x3dadaba3	0.08480003
24	0x3ec620a0	0.38696766
25	0x3e95a654	0.2922846
26	0x3d135252	0.03596718
27	0x3e0bf6a1	0.136683
28	0xbe694f72	-0.22784212
29	0xbdb8f41b	-0.090309344
30	0x3e9a731e	0.30165952
31	0xbe80b571	-0.2513843
32	0x3e866850	0.2625146
33	0xbdaac46f	-0.08338248
34	0xbe90bfd2	-0.28271347
35	0x3cd209fa	0.025639523
36	0x3e752c1c	0.23942608
37	0x3e68091f	0.2265973
38	0x3e927359	0.28603628
39	0x3eae9051	0.3409448
40	0xbe8314af	-0.25601718
41	0x3ea1190d	0.31464425
42	0x3e3a571c	0.18197292
43	0x3e36fb48	0.17869294
44	0x3ebf829b	0.37404332
45	0xbe0e0a30	-0.13871074
46	0x3e5f4bd0	0.21806264
47	0xbe5efaba	-0.21775332
48	0x3e283fea	0.16430631
49	0xbe3c6b7d	-0.18400379
50	0x3e897e43	0.26854143
51	0xbe082cc1	-0.13298322
52	0x3ea90f98	0.3301971
53	0xbe506f8f	-0.20355056
54	0xbe81b61c	-0.2533425
55	0x3e9815e1	0.29704192
56	0xbeae1941	-0.34003642
57	0xbe349ec7	-0.17638694
58	0xbe9918cb	-0.29901728
59	0x3e8ba884	0.27277005
60	0x3ea18f4d	0.31554642
61	0x3e5042fc	0.20338053
62	0xbd1f6f61	-0.03892458
63	0x3e279e44	0.16368967
64	0x3e8ac6af	0.2710471
65	0x3e24b9e9	0.16086544
66	0x3e993cd0	0.2992921
67	0xbeb38f2e	-0.35070175
68	0x3d906def	0.07052218
69	0xbe951e20	-0.29124546
70	0xbdd0d9dc	-0.101978034
71	0xbe9bc0d1	-0.30420545
72	0xbe99e138	-0.3005464
73	0xbea866cd	-0.3289093
74	0x3e9d1862	0.30682665
75	0xbe28a82f	-0.16470407
76	0x3cb7702f	0.02239236
77	0x3e86364c	0.262133
78	0x3e804fda	0.25060922
79	0x3c6272f4	0.013821352
80	0xbcc363dd	-0.02385133
81	0xbd00bf32	-0.031432338
82	0xbdee26c2	-0.11628486
83	0x3d860e3c	0.06545684
84	0xbdde498e	-0.10853873
85	0x3e0fdf58	0.14050043
86	0x3e812a83	0.25227746
87	0xbe6eb19b	-0.23309939
88	0xbe4625fc	-0.19350427
89	0xbe9dabd8	-0.3079517
90	0x3eab9cbe	0.33518022
91	0x3eab3027	0.33435175
92	0xbe16f8ad	-0.147433
93	0xbddc0fb0	-0.1074518
94	0xbe9595ee	-0.2921595
95	0xbea67e6e	-0.32518333
96	0xbeb6fdba	-0.35740453
97	0x3cdb894c	0.026798867
98	0xbd888aae	-0.06667076
99	0x3ea9c992	0.33161598
100	0x3c3c914c	0.011509251
101	0x3eb53fe7	0.35400316
102	0xbe664f03	-0.22491078
103	0x3dd786e3	0.105237745
104	0xbea4573e	-0.3209781
105	0x3e521013	0.20513944
106	0x3d9af8f7	0.075670175
107	0x3e883be1	0.26608184
108	0xbd54340f	-0.05180746
109	0x3e8a84a0	0.2705431
110	0x3ec33cf8	0.38132453
111	0xbe3d7d1e	-0.1850476
112	0xbe788e2a	-0.24272981
113	0xbe98bbb4	-0.29830706
114	0x3e1ab0dc	0.15106529
115	0xbe1afdf1	-0.15135933
116	0x3b807166	0.003919768
117	0x3d950969	0.072771855
118	0xbe1cbfb2	-0.15307501
119	0xbeb71e30	-0.3576522
120	0xbe77f7a1	-0.24215557
121	0xbd8bb820	-0.068222284
122	0xbdf4278f	-0.11921608
123	0xbc69120a	-0.014225492
124	0xbea663bd	-0.3249797
125	0xbeb2535b	-0.3482922
126	0x3eaeb229	0.341203
127	0x3e60c261	0.2194915
128	0xbb652c1c	-0.0034968918
129	0xbe7c9133	-0.24664764
130	0x3dbc67ad	0.09199462
131	0x3dd40bef	0.10353839
132	0x3d86dc4c	0.06584987
133	0x3dfa6da0	0.122279406
134	0xbe286aa8	-0.16446936
135	0x3d1a53d3	0.037677597
136	0x3e28e6b9	0.16494264
137	0xbe5c0b05	-0.21488579
138	0x3ea1318c	0.31483114
139	0xbe3634a4	-0.17793518
140	0xbd5489b9	-0.051889155
141	0x3cbc2f76	0.02297185
142	0x3d30fe56	0.043211304
143	0xbdff3b98	-0.124625385
144	0xbebabc43	-0.36471757
145	0xbd04bf55	-0.03240903
146	0xbe739a8d	-0.23789425
147	0x3eb4ac6a	0.35287791
148	0xbeb4fae1	-0.35347655
149	0xbe41add1	-0.18913962
150	0xbeb2e688	-0.34941506
151	0x3e1a241f	0.15052842
152	0xbe5bfeae	-0.21483871
153	0x3da4af09	0.08041198
154	0xbec28122	-0.37989146
155	0x3e889619	0.26677015
156	0xbe40274d	-0.18764992
157	0x3ddeb452	0.10874237
158	0xbe1010bf	-0.14068888
159	0x3d406c03	0.046978008
160	0x3ece13b4	0.40249407
161	0xbed48c46	-0.4151327
162	0x3ea89771	0.3292804
163	0x3e8ff870	0.2811923
164	0xbd71e01d	-0.05905162
165	0x3eb4cac5	0.3531095
166	0xbc35bd86	-0.011092549
167	0x3d96756e	0.07346617
168	0x3ecdfc4f	0.4023156
169	0xbebd1c56	-0.3693568
170	0x3c7bf4ee	0.01537822
171	0xbe863ade	-0.26216787
172	0xbcc5eab2	-0.024159763
173	0x3e34b7d5	0.17648251
174	0x3de237fb	0.11045834
175	0xbeb6a9ba	-0.35676366
176	0xbe4f91eb	-0.20270507
177	0x3e02524c	0.12726706
178	0xbdef94d0	-0.116983056
179	0xbea0855f	-0.31351754
180	0x3d39a724	0.045325413
181	0xbd46b44d	-0.048511792
182	0xbdf7da00	-0.12102127
183	0xbebd3822	-0.36956888
184	0xbd6af47e	-0.057362072
185	0xbeb2534f	-0.34829184
186	0xbeb2389d	-0.34808818
187	0x3e656a11	0.22403742
188	0x3e77b214	0.24189025
189	0x3ee1403c	0.4399432
190	0xbea8b9a0	-0.3295412
191	0x3eb60726	0.3555233
192	0xbdca8f63	-0.0989063
193	0x3b4e503d	0.0031480931
194	0xbe66cacf	-0.22538303
195	0x3e928861	0.28619674
196	0x3ee0e586	0.43925112
197	0xbe6f028b	-0.23340814
198	0xbeadeefd	-0.33971396
199	0x3c059a9a	0.008154536
200	0x3e55fa09	0.20896162
201	0x3d81cad3	0.06337514
202	0xbe6b3696	-0.22970042
203	0xbe79e8da	-0.24405232
204	0x3d3001c1	0.042970423
205	0xbe6d8a82	-0.23197368
206	0xbebe1fec	-0.3713373
207	0xbcda0607	-0.026614202
208	0xbbdf02ca	-0.0068057524
209	0x3e7a54bf	0.2444639
210	0x3e840a6d	0.25789204
211	0xbe207e1d	-0.15673108
212	0x3e3efccc	0.18651122
213	0x3d45b1e4	0.048265353
214	0xbeab6902	-0.33478552
215	0x3dc81a42	0.09770633
216	0xbe5d3978	-0.21603954
217	0x3e147146	0.14496335
218	0xbe56555b	-0.20930998
219	0xbc75c271	-0.014999972
220	0x3e52ab84	0.2057324
221	0xbe4ba68d	-0.19887753
222	0x3db75021	0.0895083
223	0x3d331bfa	0.043727852
224	0x3ca70225	0.020386765
225	0x3dcf83b4	0.10132542
226	0x3eb51aed	0.35372105
227	0x3ebb5bfb	0.36593613
228	0x3bac370a	0.0052555846
229	0xbdc6fe7b	-0.09716507
230	0x3dd884af	0.105721824
231	0x3ec8185a	0.3908108
232	0xbe1e91d8	-0.15485322
233	0xbd282f81	-0.04106093
234	0xbec383a1	-0.38186362
235	0xbeb02cd7	-0.3440921
236	0xbe5ea7f0	-0.2174375
237	0x3dfd6d65	0.12374381
238	0x3e5a5241	0.2132044
239	0xbe52b896	-0.20578226
240	0x3e91c120	0.28467655
241	0x3ebad3ce	0.3648972
242	0x3e2e61e6	0.17029533
243	0xbe46670b	-0.19375245
244	0xbe0c3c77	-0.1369494
245	0xbe89fa05	-0.26948562
246	0xbe8616ca	-0.26189262
247	0xbeaffc60	-0.34372234
248	0x3eaf75a8	0.34269452
249	0x3e4599d6	0.19296965
250	0xbccd73c2	-0.025079612
251	0xbe97f6c6	-0.2968046
252	0xbe5a43c8	-0.21314919
253	0xbe956141	-0.2917576
254	0x3ec450de	0.38342947
255	0x3e26e7e5	0.16299398

bias f4 [128]
0	0x3e06fda3	0.13182692
1	0xbebc0d07	-0.3672869
2	0x3e984329	0.2973874
3	0x3e663f07	0.2248498
4	0xbeaa1da5	-0.33225742
5	0x3e396c43	0.18107705
6	0xbd6167aa	-0.055030502
7	0xbde7bfc1	-0.11315871
8	0x3e55c51f	0.20875977
9	0x3da9d291	0.082921155
10	0xbba23bb6	-0.0049509658
11	0xbe3b229f	-0.18274926
12	0xbe80133a	-0.2501467
13	0x3e3fc3e5	0.18727072
14	0x3ed190b3	0.4093071
15	0xbe380abb	-0.17972843
16	0xbeb7204e	-0.35766834
17	0xbe54b61f	-0.20772599
18	0x3ea5bb64	0.3236953
19	0xbe95941a	-0.29214555
20	0xbdec17fb	-0.115280114
21	0xbd017370	-0.03160423
22	0x3eb50e18	0.35362315
23	0x3e8dc891	0.27692083
24	0x3eb5a103	0.35474405
25	0xbebde9c2	-0.37092406
26	0xbc17196a	-0.009222368
27	0xbd99c147	-0.07507568
28	0x3e7fdcc4	0.24986559
29	0x3e9784bb	0.29593453
30	0xbe47f2b2	-0.19526175
31	0x3ec9ca20	0.39412022
32	0xbeaa9c3a	-0.33322316
33	0xbdb21786	-0.08695893
34	0x3e227ac9	0.15867151
35	0x3ec65ac4	0.38741124
36	0xbddfde29	-0.109310456
37	0x3e8f8aab	0.28035483
38	0x3e94f70c	0.29094732
39	0x3dab0ad3	0.08351674
40	0xbe08b351	-0.13349654
41	0x3e656059	0.22400035
42	0xbdf09210	-0.11746609
43	0x3ecceadc	0.40022933
44	0x3e5528e3	0.20816378
45	0x3e928db9	0.2862375
46	0xbe4bf4f5	-0.19917662
47	0x3ec3a12b	0.382089
48	0xbe8cb5cc	-0.2748245
49	0x3cc3bb94	0.023893155
50	0x3d6a6cef	0.057232793
51	0xbe83c6c2	-0.25737578
52	0xbe6f4921	-0.2336774
53	0x3e9cd6fd	0.30632773
54	0x3ec65ed1	0.38744214
55	0x3e68c3e7	0.22730981
56	0xbd879e13	-0.06621947
57	0x3e2f074c	0.17092627
58	0x3e8253fc	0.254547
59	0x3dcbc165	0.099489965
60	0x3d3d3d92	0.046201296
61	0x3e0ca909	0.13736357
62	0xbebda6f2	-0.37041432
63	0xbe5df9e3	-0.21677355
64	0xbe03d4a3	-0.12874083
65	0xbdaf811f	-0.0856955
66	0xbe98dda2	-0.29856592
67	0x3d23bc8b	0.03997473
68	0x3e5c8875	0.21536429
69	0xbeacdad2	-0.33760697
70	0xbd93535a	-0.071936324
71	0xbe12cbdd	-0.1433558
72	0xbe0e3d7d	-0.13890643
73	0xbe629c8d	-0.22130032
74	0x3eaf0939	0.34186724
75	0x3e41d3c4	0.18928438
76	0xbea7bd71	-0.3276172
77	0xbdbcc6ed	-0.092176296
78	0x3e93b5c1	0.28849605
79	0xbc941572	-0.018076632
80	0x3ea2ce73	0.31798133
81	0x3edcd917	0.43134376
82	0xbec1424f	-0.37745902
83	0x3ec9cf5d	0.39416018
84	0x3ec00c61	0.37509444
85	0x3e6d1682	0.23153117
86	0xbe8dd858	-0.2770412
87	0x3e2c5c47	0.16832076
88	0xbe819704	-0.25310528
89	0xbe2b01cf	-0.16699909
90	0x3e7c16c9	0.24618067
91	0x3e6b3f2a	0.22973314
92	0x3bbf6c0e	0.0058417385
93	0x3ed6c489	0.4194682
94	0x3ec5a2c5	0.38600746
95	0xbc739feb	-0.01486967
96	0xbe4663d8	-0.19374025
97	0xbe8ef1cb	-0.27918848
98	0xbe80121f	-0.25013825
99	0x3e2b8abd	0.16752143
100	0x3ba50914	0.0050364826
101	0x3de0c398	0.109748065
102	0x3e8c2add	0.27376452
103	0x3e7dc0a6	0.24780521
104	0x3d831b84	0.064017326
105	0x3eb9498e	0.3618893
106	0x3e6214f7	0.2207831
107	0xbeb0be2b	-0.34520087
108	0x3e985404	0.297516
109	0x3e918475	0.2842137
110	0xbe419978	-0.189062
111	0x3eac0c28	0.33603024
112	0x3e936075	0.28784528
113	0xbe86686f	-0.26251552
114	0x3e92a0cc	0.28638303
115	0x3ee0bec3	0.4389554
116	0xbe467568	-0.19380724
117	0x3e609118	0.21930349
118	0xbd08f115	-0.03343304
119	0x3e03a0bc	0.12854284
120	0x3eb38b2d	0.3506712
121	0xbe741f92	-0.23840168
122	0x3ea4d343	0.3219243
123	0xbe60803e	-0.2192392
124	0x3e115536	0.14192662
125	0x3e2a71bc	0.16644949
126	0x3eab5296	0.33461446
127	0xbe37db33	-0.17954712

weight f4 [64, 128]
0	0x3d9ce878	0.076615274
1	0x3c4721c2	0.012154045
2	0xbd4e1afe	-0.05031871
3	0x3d3ca47d	0.046055306
4	0xbd9e63c9	-0.07733876
5	0xbd0804f1	-0.033207837
6	0xbd6b88e2	-0.05750359
7	0xbd9dc1b2	-0.0770296
8	0xbc5daf8d	-0.013530624
9	0x3c5a4514	0.013322134
10	0xbba9f448	-0.0051865913
11	0x3d331996	0.043725573
12	0xbd681097	-0.056656446
13	0x3d1cea18	0.038309187
14	0x3ca1dbcb	0.019758126
15	0xbd24e821	-0.040260438
16	0xbd85156a	-0.06498225
17	0x3d630581	0.05542517
18	0xbc868ca1	-0.016424479
19	0x3d82ea5d	0.063923575
20	0x3ca0f0bf	0.019646047
21	0x3d75a5b3	0.059972476
22	0xbd657830	-0.056022823
23	0x3c9e7367	0.019342138
24	0xbdaeafc2	-0.08529617
25	0xbdb2e933	-0.087358855
26	0x3d9b8f20	0.07595658
27	0xbcafa809	-0.02144243
28	0xbd726fde	-0.059188716
29	0xbd2a65dc	-0.041601047
30	0x3cae46ec	0.021274053
31	0xbd0bc170	-0.034120023
32	0xbda3019d	-0.07959292
33	0xbc1dde77	-0.009635559
34	0x3d8e62a0	0.06952405
35	0x3d3770f0	0.04478544
36	0x3d234531	0.039860908
37	0x3d339ea2	0.043852456
38	0xbd8ca9ea	-0.06868346
39	0x3da96cd9	0.08272714
40	0x3c8717ff	0.016490934
41	0x3d832d86	0.06405167
42	0xbc8679d3	-0.016415512
43	0x3c01b561	0.007916779
44	0xbd6cc5b3	-0.05780573
45	0x3d09024c	0.033449456
46	0xbbf41ea0	-0.00744994
47	0x3d7d549e	0.061848275
48	0xbdaad0bf	-0.083405964
49	0x3c95da82	0.01829267
50	0x3d6488cf	0.055794533
51	0x3aa47dfa	0.0012549751
52	0xbd65bb3b	-0.05608676
53	0xbda170bd	-0.07882831
54	0xbd818618	-0.063244045
55	0xbd9554f7	-0.072915964
56	0x3d7a24a3	0.061070096
57	0x3d9ed12e	0.077547416
58	0xbd1cc427	-0.038273003
59	0x3cdc97ab	0.02692779
60	0x3d6dc1cc	0.058046147
61	0x3d880301	0.06641198
62	0x3cf7b3ca	0.030237097
63	0x3ca6afc0	0.020347476
64	0x3d91c399	0.071173854
65	0xbd8ddf8a	-0.06927402
66	0x3d6f61ed	0.058443
67	0xbda0cd42	-0.0785165
68	0x3d95589c	0.072922915
69	0x3ce26b39	0.027639018
70	0x3d296ee7	0.04136553
71	0x3daafd32	0.083490744
72	0xbc8c1184	-0.017098196
73	0xbbfa86d9	-0.0076454696
74	0xbd242698	-0.04007587
75	0x3bed482f	0.007241271
76	0xbd0a65f6	-0.033788644
77	0xbc8094a9	-0.015695887
78	0xbda3a16d	-0.07989774
79	0xbd95e1a4	-0.07318428
80	0x3d036c05	0.032085437
81	0xbdaaf378	-0.08347219
82	0x3be57389	0.0070022983
83	0x3c7940d4	0.01521321
84	0xbd1c8917	-0.038216677
85	0x3d313d5d	0.04327141
86	0xbd422bfe	-0.047405235
87	0xbd4e1ad4	-0.050318554
88	0x3dab9d14	0.0837957
89	0xbc07b1c5	-0.00828213
90	0x3da9f4c7	0.08298641
91	0x3da2fad4	0.07957998
92	0x3d621207	0.055192973
93	0xb8f5c388	-0.00011718931
94	0xbd2d94db	-0.042378288
95	0xbd5d755b	-0.054066997
96	0xbd9fd3ae	-0.078040466
97	0xbcfa8c32	-0.030584428
98	0xbd0732ef	-0.03300756
99	0x3cde203f	0.027114986
100	0xbd23a772	-0.03995461
101	0x3d10bf77	0.035338845
102	0xbcbb194b	-0.022839209
103	0xbd857a14	-0.06517425
104	0x3d9d5304	0.076818496
105	0xbd9038d1	-0.07042087
106	0xbdae96d1	-0.0852486
107	0x3d2d3c8b	0.042294066
108	0xbc0261ea	-0.007957915
109	0xbd7e4421	-0.06207669
110	0x3d41b4c7	0.047291543
111	0x3ce10c19	0.027471589
112	0x3ca22b3c	0.019796006
113	0xbacba1ae	-0.0015535855
114	0xbc890539	-0.016726123
115	0xbd85ba63	-0.06529691
116	0xbc6ba6dc	-0.014383044
117	0x3d68c59f	0.05682909
118	0xbc12043a	-0.0089121405
119	0xbafe045e	-0.0019379964
120	0x3d655d5f	0.05599725
121	0x3db040b3	0.086060904
122	0xbd1baa5c	-0.038004264
123	0xbdb16567	-0.08661919
124	0x3c8e6b88	0.01738526
125	0x3bdc6a0f	0.0067265104
126	0xbc38fef6	-0.011291256
127	0x3d02c4b0	0.031925857
128	0x3b9b8a1a	0.0047466876
129	0xbd445a6b	-0.04793779
130	0xbd59be08	-0.053159744
131	0xbb3d619b	-0.0028897289
132	0xbda7efec	-0.08200058
133	0xbcf417d6	-0.029796522
134	0x3d5d1b96	0.053981386
135	0xbd93ba6d	-0.07213292
136	0xbd83b4e7	-0.06430989
137	0xbcd1fd28	-0.02563341
138	0xbbc92b2b	-0.006139179
139	0xbd82d015	-0.06387345
140	0x3d93941d	0.07205985
141	0xbd13840a	-0.036014594
142	0x3cbcba5e	0.023038086
143	0xbca72b4f	-0.020406393
144	0xbbd210b5	-0.006410683
145	0xbd14b219	-0.03630266
146	0xbdbbe012	-0.091735974
147	0xba1f0f73	-0.0006067671
148	0x3c8dc6e6	0.017306756
149	0x3c4af0c0	0.012386501
150	0xbd882546	-0.06647734
151	0xbbe5810f	-0.0070039104
152	0xbd912800	-0.070877075
153	0xbda6184d	-0.08110104
154	0xbb8f4611	-0.0043723662
155	0x3c806507	0.015673174
156	0x3d472f77	0.04862925
157	0xbda273cb	-0.07932242
158	0xbd504f09	-0.050856624
159	0xbd8bd26f	-0.068272464
160	0xbd4191b7	-0.047258105
161	0x3d595a6a	0.05306474
162	0xbc5944a5	-0.013260995
163	0xbd5c2c67	-0.053753283
164	0xbd9b6726	-0.075880334
165	0xbd562900	-0.052285194
166	0xbcc90748	-0.024539605
167	0x3d0cb861	0.034355525
168	0xbd5c75f6	-0.053823434
169	0x3c910ddd	0.017706806
170	0x3d84eabb	0.06490084
171	0x3cc54131	0.024078937
172	0x3cc8ad58	0.02449672
173	0xbda616f6	-0.08109848
174	0x3bd36353	0.0064510494
175	0x3d4234cd	0.047413636
176	0x3d942ecc	0.07235488
177	0xbd8f26a1	-0.0698979
178	0x3da31790	0.079634786
179	0x3b86c297	0.0041125524
180	0x3d4baad1	0.04972345
181	0xbd457272	-0.048204847
182	0x3d5f96b0	0.054587066
183	0x3d7ed751	0.06221706
184	0xbcb9ce09	-0.022681253
185	0x3cb135f2	0.021632168
186	0xbc05ab6f	-0.008158549
187	0xbda4aa30	-0.08040273
188	0x3c4eb972	0.012617456
189	0x3d711b7c	0.0588641
190	0xbd972599	-0.07380218
191	0xbda1615e	-0.078798994
192	0x3da35200	0.07974625
193	0x3db24732	0.08704986
194	0x3c036534	0.008019734
195	0xbc8c7fb8	-0.017150745
196	0xbab83345	-0.0014053365
197	0xbd9a0fde	-0.07522558
198	0xb7794151	-1.4856764e-05
199	0x3dac62ee	0.08417307
200	0x3d24008e	0.04003959
201	0x3bc93fb6	0.006141628
202	0x3d9af23b	0.07565733
203	0x3d81e417	0.06342333
204	0x3d77de3a	0.060514666
205	0x3d727c16	0.05920037
206	0x3d406c3d	0.046978224
207	0x3be04c48	0.006845031
208	0xbd88208c	-0.06646833
209	0xbd2c8c19	-0.042125795
210	0x3c983699	0.018580722
211	0x3d7bda5c	0.06148754
212	0x3bbe34a6	0.005804616
213	0xbd0a3857	-0.033745136
214	0x3d920967	0.071306996
215	0xbcfca249	-0.030839102
216	0xbd6c483d	-0.05768608
217	0x3c3fc487	0.011704571
218	0x3d28a17b	0.041169625
219	0xbd52d69b	-0.051474195
220	0x3d1900fd	0.037354458
221	0xbdc5a32a	-0.09650262
222	0x3d4c30d4	0.049851254
223	0x3d9c7094	0.0763866
224	0x3d93e293	0.0722095
225	0xbd5f50f2	-0.054520555
226	0x3d71628f	0.058931883
227	0x3cfc30ea	0.030785043
228	0xbda6787c	-0.08128449
229	0xbc09f078	-0.008419149
230	0x3d86d728	0.065840065
231	0xbd5dac6b	-0.05411951
232	0xbdbc9c49	-0.092094965
233	0xbcc3688f	-0.023853568
234	0x3d91cc3b	0.07119032
235	0x3cc9f7ea	0.024654347
236	0xbc57042b	-0.013123552
237	0xbda766d7	-0.08173912
238	0x3d73985b	0.05947147
239	0xbd31d913	-0.04341991
240	0x3d8e74e6	0.0695589
241	0xbba7653c	-0.0051085036
242	0x3c1258a1	0.008932264
243	0xbcd60110	-0.026123554
244	0xbba9ccdc	-0.005181892
245	0x3da804d9	0.082040496
246	0x3c241241	0.010014118
247	0x3d1342ad	0.03595226
248	0x3d91b77f	0.07115077
249	0x3d5eb48a	0.054371394
250	0x3d67e9af	0.056619342
251	0x3d1dac49	0.038494382
252	0x3d6ee0de	0.05831992
253	0x3d449d3a	0.048001505
254	0xbdc9baec	-0.09850106
255	0xbc776c11	-0.015101449

bias f4 [64]
0	0x3b470dd3	0.003037323
1	0x3d9a75bf	0.075419895
2	0xbc907fdc	-0.017639093
3	0x3c37db46	0.011221712
4	0x3bef5019	0.0073032496
5	0x3c5571b2	0.013027595
6	0x3d821bc9	0.06352956
7	0x3bea5651	0.007151403
8	0x3ca6de3c	0.020369641
9	0x3cc29f6d	0.02375766
10	0x3d55a6cb	0.05216102
11	0x3c0cb936	0.00858908
12	0x3a5c07a8	0.0008393475
13	0xbd31bc24	-0.043392316
14	0xbc164f56	-0.009174189
15	0xbd9b1705	-0.0757275
16	0x3b8c7d18	0.0042873733
17	0x3e03c75b	0.12869017
18	0xbc201896	-0.009771487
19	0x3d95e8f8	0.07319826
20	0x3d98bb07	0.07457548
21	0xbd8e42e8	-0.06946355
22	0x3d9c5a02	0.07634355
23	0xbda19ad5	-0.0789086
24	0x3d8e555f	0.06949877
25	0xbcd09695	-0.025462428
26	0x3d954e43	0.07290318
27	0x3d7c36c8	0.06157568
28	0x3cf0896b	0.029362401
29	0x3d28f924	0.041253224
30	0xbd88b47d	-0.066750504
31	0x3d886aa2	0.066609636
32	0x3cedca61	0.029027166
33	0x3da80321	0.08203722
34	0x3dcf49f2	0.10121526
35	0x3cb9f70f	0.022700815
36	0xbd2a1844	-0.041527048
37	0x3d638fb6	0.055556975
38	0x3ddc8896	0.10768239
39	0xbd7a7a7f	-0.061151978
40	0xbbb809b3	-0.0056163906
41	0xbc90b283	-0.017663246
42	0x3d62a896	0.055336557
43	0x3d78f50a	0.060780562
44	0x3c638d7b	0.013888712
45	0x3dc6530f	0.09683811
46	0xbcdefe19	-0.027220773
47	0x3cbd320d	0.023095155
48	0xbc93984f	-0.018016962
49	0x3d2e1015	0.042495806
50	0x3d61b95b	0.05510841
51	0x3d282032	0.04104633
52	0x3d4fda42	0.050745256
53	0x3dfe2e5e	0.124111876
54	0xbd2e6473	-0.042576265
55	0x3dbdfb09	0.09276397
56	0x3dd04651	0.10169662
57	0xbd5100fe	-0.051026337
58	0xbcd87bbb	-0.026426187
59	0xbdae95a2	-0.08524634
60	0x3d89ca15	0.06727997
61	0x3d230ed5	0.039809067
62	0xbd5159ec	-0.051111147
63	0x3e05d95c	0.13071197
