2023/baseline0806/model/WLTP_trained_0822/PPO_actorcritic_14episode.pt (torch, 101527 bytes, 17 tensors)

weight f4 [128, 7]
-0.23923598 -0.2127042 0.24956113 -0.32249132 -0.2580696 0.3609592 0.34704596 -0.04047977
-0.18133801 0.08495145 -0.27926734 -0.13682394 -0.36225837 -0.30152673 0.08739405 -0.04246725
-0.17538525 0.1290618 0.32367143 0.37444225 0.07238051 -0.314749 -0.18266298 -0.25395396
-0.053830586 -0.17213625 0.26347968 0.40097624 0.090074554 -0.18350011 -0.36419868 0.070869766
0.08339874 0.18899155 -0.016088044 -0.04994877 -0.06910875 -0.29988688 0.0016618922 0.27140734
0.14243801 0.3269795 -0.33917677 -0.25368536 -0.33796388 0.011872757 -0.27600446 -0.1458769
-0.0047227717 0.0990294 -0.3138066 0.34827605 0.31842202 0.32077265 -0.3742925 -0.021912524
0.39494836 -0.030317398 -0.2662102 0.000653424 0.32846597 -0.27318573 0.023933189 0.3218113
-0.15325566 -0.36981654 -0.33971608 -0.15034385 0.35199088 0.3124316 0.30519655 0.28968665
0.062170774 0.17292191 -0.29522985 0.03688828 0.05744914 -0.056889836 0.4022614 0.18242946
-0.12007436 0.2098128 -0.0411117 -0.10665077 -0.2658324 -0.23533325 0.25406495 -0.31928405
0.24582402 -0.14849639 0.21726665 0.24327585 0.24100761 0.3066036 0.07877623 -0.1611957
-0.15198891 -0.27764052 -0.032501157 0.021035783 0.113703914 0.021285579 -0.030216374 0.17289291
-0.2283524 0.20277932 -0.25891596 -0.008542604 0.17668563 -0.040962648 0.29816926 -0.24716057
-0.19666818 -0.35057142 -0.22344191 0.27653983 0.10044489 -0.12633146 0.037019134 -0.22238816
0.33824036 -0.23638345 0.34468982 -0.21616866 -0.109524444 -0.2692167 0.35102203 -0.11030084
0.018048113 -0.3405758 -0.2995345 -0.26160845 -0.2547213 -0.26459706 -0.28962433 -0.15897192
-0.12573725 -0.007137054 -0.24767046 -0.2988624 0.32412037 -0.10857289 0.09343098 0.064712085
0.0310697 0.33534855 0.3236383 -0.092744894 0.012863153 -0.07907031 -0.11870279 0.012077045
-0.20682047 0.07127561 -0.3428983 0.07760711 0.24674582 -0.08728531 0.022138966 -0.14461596
0.2755301 0.24832241 -0.097769275 0.1735554 0.24658526 0.059614282 0.32051495 0.39083317
0.3611943 -0.19299114 0.05294687 -0.27908808 0.3402999 -0.10426845 0.29651082 0.05586602
0.043767978 -0.34985447 -0.10564954 -0.039340556 0.15841813 -0.18675223 0.21204117 -0.2563259
0.24934335 -0.16398843 -0.16428325 0.23390365 0.1593507 0.3134641 0.099078305 0.13395648
0.23206477 0.2855758 -0.15335605 0.2778701 -0.04923124 0.2903628 -0.1207558 0.25198677
-0.23747867 -0.08346694 0.13052341 0.32058555 0.06382964 0.15780813 -0.20738138 0.12665156
0.39159527 0.20445456 -0.12107859 -0.18153708 -0.0939379 0.13407524 -0.24962892 0.21976799
0.29299778 0.17066123 -0.12158912 0.1262167 -0.07757848 0.25594342 0.36149207 0.25697553
0.09154724 -0.2145545 -0.09994267 0.347322 0.31163648 -0.16563797 0.0008319737 0.22221255
0.10467029 0.061839655 0.36283195 0.1986472 -0.23601815 0.33078063 0.1274935 -0.25149804
-0.19682314 -0.11464715 0.32707745 -0.20226899 0.04503491 0.08630055 0.0023968662 0.18741857
-0.15064366 0.049735487 -0.17773877 0.27062583 -0.21056668 0.28155795 0.051643066 0.28283858
00000000: 47fa 74be 21cf 59be f48c 7f3e 951d a5be
00000010: b321 84be a5cf b83e 02b0 b13e 1ece 25bd
00000020: acb0 39be 07fb ad3d 21fc 8ebe 931b 0cbe
00000030: ee79 b9be b661 9abe a7fb b23d 24f2 2dbd
00000040: 3198 33be c728 043e 43b8 a53e e5b6 bf3e
00000050: 3c3c 943d c826 a1be 010c 3bbe 4106 82be
00000060: 767d 5cbd 7c44 30be cfe6 863e c24c cd3e
00000070: 0279 b83d 74e7 3bbe 4078 babe 2b24 913d
00000080: f5cc aa3d 0087 413e 13cb 83bc 1597 4cbd
00000090: e388 8dbd c68a 99be d9d3 d93a e7f5 8a3e
000000a0: 45db 113e db69 a73e 94a8 adbe 0ce3 81be
000000b0: 9a09 adbe f485 423c 7550 8dbe c160 15be
000000c0: 7bc1 9abb edcf ca3d 42ab a0be 3d51 b23e
000000d0: 3608 a33e 503c a43e 44a3 bfbe e581 b3bc
000000e0: ac36 ca3e 315c f8bc b44c 88be 8b4a 2b3a
000000f0: b12c a83e 00df 8bbe 890f c43c 73c4 a43e
00000100: 0def 1cbe 9858 bdbe 44ef adbe bdf3 19be
00000110: 2638 b43e 09f7 9f3e b942 9c3e cf51 943e
00000120: c8a6 7e3d 7112 313e 5e28 97be 2a18 173d
00000130: ca4f 6b3d 5105 69bd 35f5 cd3e cace 3a3e
00000140: 8ce9 f5bd 2bd9 563e be64 28bd b86b dabd
00000150: 2f1b 88be 33fb 70be cd14 823e 3379 a3be
00000160: 4bb9 7b3e 700f 18be 267b 5e3e 4e1d 793e
00000170: b3ca 763e 26fb 9c3e 6f55 a13d 7c10 25be
00000180: fba2 1bbe e626 8ebe ef1f 05bd 3c53 ac3c
00000190: 99dd e83d 185f ae3c 5488 f7bc d70a 313e
000001a0: 36d5 69be 62a5 4f3e a290 84be 47f6 0bbc
000001b0: 14ed 343e 73c8 27bd a4a9 983e a917 7dbe
000001c0: 6263 49be 197e b3be f5cd 64be a196 8d3e
000001d0: 0db6 cd3d 095d 01be 60a1 173d b9b9 63be
000001e0: d72d ad3e 810e 72be 2f7b b03e 515b 5dbe
000001f0: 5a4e e0bd c5d6 89be 29b9 b33e 68e5 e1bd
00000200: a3d9 933c f45f aebe 965c 99be 8bf1 85be
00000210: d56a 82be 4479 87be a449 94be 89c9 22be
00000220: 44c1 00be f3dd e9bb 539d 7dbe 7e04 99be
00000230: 1bf3 a53e 775b debd be58 bf3d c587 843d
00000240: e285 fe3c ceb2 ab3e ebb3 a53e 09f1 bdbd
00000250: f9bf 523c 9def a1bd 731a f3bd ccde 453c
00000260: bfc8 53be f2f8 913d 5e90 afbe 7af0 9e3d
00000270: f0aa 7c3e a4c2 b2bd c75c b53c 3516 14be
00000280: 4812 8d3e 3b48 7e3e 423b c8bd 82b8 313e
00000290: d980 7c3e 1b2e 743d 891a a43e 491b c83e
000002a0: 76ee b83e 789f 45be d1de 583d a2e4 8ebe
000002b0: ca3b ae3e b28a d5bd 44d0 973e c5d3 643d
000002c0: 0d46 333d 2020 b3be c95e d8bd 9023 21bd
000002d0: 5d38 223e fa3b 3fbe 5221 593e 263d 83be
000002e0: dd53 7f3e 95ec 27be de39 28be 7084 6f3e
000002f0: d42c 233e 5e7e a03e 91e9 ca3d e32b 093e
00000300: 63a2 6d3e fe36 923e 5e09 1dbe fd44 8e3e
00000310: b2a6 49bd 6faa 943e d14e f7bd 6904 813e
00000320: 9c2d 73be b7f0 aabd eea7 053e ca23 a43e
00000330: 1db9 823d 7498 213e c95b 54be f2b0 013e
00000340: 2d7f c83e 895c 513e 0df8 f7bd dbe4 39be
00000350: 8462 c0bd 054b 093e b99e 7fbe dc0a 613e
00000360: ce03 963e d1c1 2e3e b703 f9bd f33e 013e
00000370: 77e1 9ebd 040b 833e 7d15 b93e 4c92 833e
00000380: 1f7d bb3d 2db4 5bbe beae ccbd 30d4 b13e
00000390: d18e 9f3e 009d 29be cf18 5a3a b08b 633e
000003a0: 615d d63d 944b 7d3d 1cc5 b93e 2c6a 4b3e
000003b0: beae 71be 145c a93e a88d 023e 5ac4 80be
000003c0: 018c 49be 20cc eabd b276 a73e 9a1f 4fbe
000003d0: 8776 383d 58be b03d be14 1d3b a7ea 3f3e
000003e0: 5542 1abe 70b7 4b3d 2701 36be 788f 8a3e
000003f0: cb9e 57be 5d28 903e ae87 533d 38d0 903e

bias f4 [128]
-0.20315656 -0.23855948 0.19276051 0.40982693 0.061269674 -0.14757113 -0.10246875 0.10829304
-0.039813597 0.39063555 0.30550134 0.024992526 0.096643224 0.22116692 0.06431859 -0.14760399
-0.19962066 0.10791306 0.35272655 0.06603844 -0.07307381 -0.30263132 0.22777994 -0.21989477
-0.073040895 -0.28329474 -0.10626379 0.07151856 -0.37920842 -0.33267286 0.2824719 0.00915075
0.32061213 0.0739446 0.29456073 -0.2735288 -0.2895217 -0.101546034 -0.33425578 -0.1264991
-0.20926097 -0.39957142 -0.004530339 -0.060948934 -0.28569514 -0.022988558 -0.25757328 -0.0056615514
-0.25399947 -0.15845177 0.22532551 0.39537236 0.029183516 -0.3201108 -0.14496033 0.21477266
0.30618668 0.28569615 -0.068753324 -0.35060346 -0.332542 0.1489701 0.022517573 0.3044604
0.28775945 -0.19416589 -0.35537192 -0.35160574 0.407955 0.09252271 0.08362099 -0.03744146
-0.27420914 0.3571479 0.083285645 -0.048561882 0.15078539 0.29535434 -0.109003045 0.3103019
0.29762128 0.28570408 0.17055067 -0.25819716 -0.13875464 -0.11064253 -0.30423152 -0.21777746
-0.33719918 -0.13702714 0.37453756 0.28969526 0.38215184 0.40845627 0.09957743 -0.2988338
-0.036068138 0.27745953 0.13363147 -0.32702276 0.40475821 0.27123934 0.19605711 0.36296958
-0.2086159 0.02433423 0.091749676 -0.1774508 -0.16424936 0.107865304 0.07130508 -0.25089827
-0.3377334 -0.12804148 0.3191548 0.051682025 -0.16774133 0.095414184 0.2647759 -0.15641855
0.26915282 -0.11496033 -0.15182148 0.19403392 0.18951511 -0.28894964 0.31908336 -0.27166873
00000000: 4608 50be f048 74be 0363 453e d6d4 d13e
00000010: e9f5 7a3d e31c 17be 23db d1bd bec8 dd3d
00000020: 9513 23bd 6201 c83e ac6a 9c3e 20bd cc3c
00000030: e2ec c53d 9579 623e 77b9 833d 8025 17be
00000040: 5c69 4cbe 8601 dd3d 9398 b43e 293f 873d
00000050: b9a7 95bd 7ef2 9abe 253f 693e 182c 61be
00000060: 7796 95bd 020c 91be d4a0 d9bd 5378 923d
00000070: 9b27 c2be 1954 aabe 28a0 903e 07ed 153c
00000080: 4627 a43e 4470 973d aad0 963e f80b 8cbe
00000090: 303c 94be 5ef7 cfbd 9323 abbe fb88 01be
000000a0: 8248 56be a094 ccbe 3d73 94bb 97a5 79bd
000000b0: a246 92be 8052 bcbc a5e0 83be 8984 b9bb
000000c0: 380c 82be 2e41 22be bbbb 663e 3f6e ca3e
000000d0: 4512 ef3c 90e5 a3be 7b70 14be 5ded 5b3e
000000e0: 80c4 9c3e c446 923e 8bce 8cbd 4c82 b3be
000000f0: f242 aabe 9e8b 183e c676 b83c 3ce2 9b3e
00000100: 3555 933e 6cd3 46be 4ff3 b5be ab05 b4be
00000110: 7adf d03e 8c7c bd3d 7b41 ab3d 375c 19bd
00000120: 2465 8cbe 17dc b63e aa91 aa3d d3e8 46bd
00000130: 7c67 1a3e af38 973e fd3c dfbd e4df 9e3e
00000140: d161 983e ce47 923e d6a4 2e3e 6b32 84be
00000150: b215 0ebe 8d98 e2bd 3cc4 9bbe 0e01 5fbe
00000160: 5fa5 acbe d850 0cbe 63c3 bf3e f052 943e
00000170: 68a9 c33e 2e21 d13e 40ef cb3d be00 99be
00000180: 2fbc 13bd 2d0f 8e3e b0d6 083e 876f a7be
00000190: 783c cf3e e2df 8a3e 32c3 483e 26d7 b93e
000001a0: 689f 55be 9458 c73c 41e7 bb3d aab5 35be
000001b0: fc30 28be 7ce8 dc3d 6608 923d bd75 80be
000001c0: 64eb acbe 4e1d 03be 4268 a33e 88b0 533d
000001d0: 62c4 2bbe 8368 c33d b590 873e 2f2c 20be
000001e0: 66ce 893e 5270 ebbd 1777 1bbe d4b0 463e
000001f0: 4010 423e 35f1 93be e55e a33e 2a18 8bbe

weight f4 [64, 128]
-0.027703281 0.08445547 0.0021649362 0.04672471 0.06078997 -0.05942106 0.08507825 -0.023983832
-0.079545654 -0.057986487 0.012335802 0.08808212 -0.021906056 0.02188569 -0.08064738 0.016579168
0.0135820955 -0.07182429 -0.028398862 -0.033941783 -0.03673674 0.06711046 -0.008023296 -0.05483088
0.022976175 0.04112429 0.03367017 0.007650085 -0.010363467 -0.0667817 -0.05795728 0.05804877
0.07736955 -0.029084329 -0.0026709826 -0.06385309 -0.0028960258 -0.07827878 0.08646786 0.024444023
-0.024674483 0.019193212 0.06066195 0.021296402 0.08289234 -0.03596458 -0.01304858 -0.07610229
0.07553955 -0.07755403 -0.00075040356 -0.05779418 -0.03783927 0.05904231 -0.026597612 0.07779386
0.0376942 -0.061468408 -0.028970426 -0.05797122 -0.070453346 -0.0051684994 -0.058511343 -0.06557851
-0.044891186 0.08343529 0.0750244 0.052788462 0.041695066 0.039255332 -0.0022783321 0.06872614
0.05589847 0.05188591 0.014844962 -0.08489039 -0.06378671 0.018853782 -0.07154178 -0.06569278
0.03539688 -0.043168887 -0.06701163 -0.028747343 -0.0046053333 -0.025042571 -0.03969757 0.061060477
0.029603483 0.083229944 -0.03509116 0.021074794 -0.034870744 0.077670686 0.044192173 -0.020753477
0.029261028 0.02195226 -0.0022944428 -0.051406637 0.0055413097 0.027152801 -0.005757228 0.031471074
0.0472494 0.058117773 -0.017530907 -0.01700562 0.05060865 -0.07069959 0.08190491 0.024167044
0.024085827 0.032102633 -0.055117287 -0.07333441 -0.044874497 0.01926227 0.0011387762 -0.05130032
-0.032025967 0.06976376 0.010952322 -0.014667609 -0.035963893 -0.054312788 -0.07212371 0.057605606
0.052929286 0.08364505 -0.0607058 -0.022128232 -0.036169976 0.0020953047 -0.048791036 0.022198882
0.0027861279 0.04020738 -0.018154496 -0.040801574 -0.011528332 -0.038606238 -0.0065422864 -0.017112242
0.04167903 0.037538394 -0.06369406 0.027126174 0.07376174 0.08677953 -0.018781131 0.030664757
-0.05513521 0.060351945 0.0051644584 0.049144745 0.062058344 -0.045772377 0.064923115 0.031268667
-0.04152115 -0.07208918 0.032477804 0.053880405 0.077645 0.0811722 0.05974071 -0.026937768
-0.028915005 -0.04341434 -0.02185719 0.061899044 0.08386028 -0.014365089 -0.0015601803 -0.023141917
-0.07310376 -0.053455133 0.07619092 -0.039043136 0.027537419 0.026305197 -0.07053581 -0.03982881
-0.059789646 -0.0016900635 0.028900389 0.057543427 0.053520247 -0.06639774 0.031384926 0.054243837
0.031162186 0.079595774 -0.044067733 -0.08477634 -0.06675888 0.01699168 0.08025298 0.042538244
-0.01851236 -0.04527443 0.04650051 0.040636357 0.06505203 -0.077474 -0.04615539 0.026226593
-0.00747451 0.040593505 -0.028209168 -0.07238634 0.0777486 0.004175471 -0.023741035 -0.0863523
0.06663096 0.0005249495 -0.0056786635 -0.073823005 -0.03765239 -0.07625438 -0.010724338 0.003075287
0.021431472 0.056939486 0.013530023 -0.08161974 -0.04043227 -0.014347669 -0.07485057 0.07842639
-0.026197575 -0.047628798 -0.0089202225 -0.04787005 0.0124896625 0.053027432 -0.077411525 0.061070614
0.086698964 0.012240119 0.036840316 -0.073442176 -0.03142736 0.087315984 0.0022675383 0.043949477
-0.0617263 -0.055403244 0.040924683 -0.0053939745 0.037751105 0.084207386 0.06130473 0.04175484
00000000: fef1 e2bc fdf6 ac3d 9ae1 0d3b 6962 3f3d
00000010: e7fe 783d 7f63 73bd 813d ae3d be79 c4bc
00000020: d5e8 a2bd 3d83 6dbd 1b1c 4a3c 6664 b43d
00000030: 5474 b3bc 9e49 b33c 742a a5bd 09d1 873c
00000040: 7087 5e3c 9d18 93bd bba4 e8bc 8a06 0bbd
00000050: 4479 16bd 3571 893d 2474 03bc 5896 60bd
00000060: 8838 bc3c f271 283d bbe9 093d 90ad fa3b
00000070: 88cb 29bc d8c4 88bd 9d64 6dbd 8cc4 6d3d
00000080: ed73 9e3d 4242 eebc a70b 2fbb 69c5 82bd
00000090: 40cb 3dbb a050 a0bd 1016 b13d d53e c83c
000000a0: 2422 cabc 153b 9d3c aa78 783d cb75 ae3c
000000b0: 76c3 a93d 984f 13bd b6c9 55bc 84db 9bbd
000000c0: 7bb4 9a3d a6d4 9ebd bbb6 44ba 97b9 6cbd
000000d0: 5afd 1abd 59d6 713d 3ce3 d9bc 6352 9f3d
000000e0: 3c65 1a3d 4cc6 7bbd 6353 edbc 3b73 6dbd
000000f0: d849 90bd 845c a9bb 97a9 6fbd 074e 86bd
00000100: d2df 37bd 1fe0 aa3d 65a6 993d b738 583d
00000110: 72c8 2a3d 33ca 203d 1250 15bb 4ac0 8c3d
00000120: cbf5 643d 5286 543d 4938 733c 03db adbd
00000130: 9ba2 82bd 3f73 9a3c 7f84 92bd f089 86bd
00000140: 52fc 103d dcd1 30bd 653d 89bd 8c7f ebbc
00000150: 56e8 96bb 1426 cdbc eb99 22bd 8d1a 7a3d
00000160: 0183 f23c 7674 aa3d c0bb 0fbd 0ca5 ac3c
00000170: a0d4 0ebd cf11 9f3d da02 353d 3203 aabc
00000180: d3b4 ef3c 3ad5 b33c 5d5e 16bb c48f 52bd
00000190: e093 b53b 8d6f de3c 21a7 bcbb d0e7 003d
000001a0: 9688 413d e70c 6e3d fa9c 8fbc 5f4f 8bbc
000001b0: 044b 4f3d f2ca 90bd c3bd a73d f7f9 c53c
000001c0: a44f c53c 0d7e 033d aac2 61bd 5a30 96bd
000001d0: 52ce 37bd e8cb 9d3c fd42 953a 4920 52bd
000001e0: a92d 03bd 4de0 8e3d 5e71 333c 6950 70bc
000001f0: e04e 13bd 1677 5ebd 98b5 93bd dbf3 6b3d
00000200: 61cc 583d 194e ab3d a5a6 78bd 4446 b5bc
00000210: f826 14bd 6151 093b 1cd9 47bd 6eda b53c
00000220: 7897 363b 7eb0 243d bdb8 94bc 8d1f 27bd
00000230: 54e1 3cbc 9321 1ebd ad60 d6bb f92e 8cbc
00000240: a1b7 2a3d dcc1 193d 0872 82bd b637 de3c
00000250: 6510 973d 77b9 b13d e3da 99bc a834 fb3c
00000260: 75d5 61bd 9a33 773d 9e3a a93b 004c 493d
00000270: e430 7e3d d17b 3bbd 69f6 843d 9313 003d
00000280: 1512 2abd 7ea3 93bd 7207 053d b3b1 5c3d
00000290: 5704 9f3d 9c3d a63d adb2 743d 98ac dcbc
000002a0: 29df ecbc 3cd3 31bd da0d b3bc da89 7d3d
000002b0: f0be ab3d 8d5b 6bbc f77e ccba 1e94 bdbc
000002c0: 6db7 95bd c5f3 5abd fc09 9c3d b2eb 1fbd
000002d0: 2796 e13c ff7d d73c 1475 90bd 8923 23bd
000002e0: fde5 74bd 1f85 ddba 82c0 ec3c a8b2 6b3d
000002f0: 0c38 5b3d 8afb 87bd 7b8d 003d c92e 5e3d
00000300: d747 ff3c 1c03 a33d 5e80 34bd 389f adbd
00000310: e1b8 88bd 2332 8b3c ad5b a43d 953c 2e3d
00000320: 3ca7 97bc ae71 39bd 5277 3e3d 4f72 263d
00000330: 003a 853d b0aa 9ebd 6f0d 3dbd 27d9 d63c
00000340: bcec f4bb 6045 263d ea16 e7bc 4a3f 94bd
00000350: a83a 9f3d 64d2 883b 8f7c c2bc 7ad9 b0bd
00000360: d075 883d c49c 093a 1514 babb 8430 97bd
00000370: 6439 1abd 422b 9cbd 22b5 2fbc c18a 493b
00000380: 0e91 af3c 6139 693d 08ad 5d3c 4028 a7bd
00000390: 4f9c 25bd 7c12 6bbc 414b 99bd 049e a03d
000003a0: 4c9c d6bc 6a16 43bd 2026 12bc 6313 44bd
000003b0: 71a1 4c3c 4b33 593d ef89 9ebd 2e25 7a3d
000003c0: 3a8f b13d c88a 483c dfe5 163d da68 96bd
000003d0: fab9 00bd b9d2 b23d fb9a 143b 5e04 343d
000003e0: b7d4 7cbd 83ee 62bd a4a0 273d f0bf b0bb
000003f0: e7a0 1a3d ec74 ac3d ab1a 7b3d 2007 2b3d

bias f4 [64]
-0.07241778 -0.025185695 0.0903101 0.07217041 0.04743415 0.06158378 0.042199783 0.10447592
0.001283996 0.0020658465 0.02076961 -0.005719969 0.088252425 0.075490914 0.013199467 0.004608446
0.03769853 -0.013663336 0.042933267 0.005308352 0.094257735 -0.0031108232 -0.0030048634 -0.010958756
-0.008266923 -0.01287083 -0.013449405 -0.020210695 0.03559103 -0.041160088 0.011047025 -0.032905243
0.057861675 0.059536543 0.03899276 -0.007916448 0.061437335 -0.08628982 0.050347593 -0.087677345
0.010002852 0.070271455 0.046881765 -0.085056044 0.05476072 0.029868796 0.034059692 0.09316368
-0.027598148 0.062912926 -0.030657236 0.07008427 0.041283675 -0.06440191 -0.012584022 0.1112764
-0.030140987 0.013577061 0.039686467 -0.06415914 0.018631283 -0.042056568 0.020760555 0.12523605
00000000: c64f 94bd 3b52 cebc 80f4 b83d 14ce 933d
00000010: 504a 423d 463f 7c3d aed9 2c3d 79f7 d53d
00000020: c24b a83a 2763 073b 0725 aa3c 946e bbbb
00000030: b0bd b43d fb9a 9a3d 9442 583c 7202 973b
00000040: c669 1a3d 2fdc 5fbc cbda 2f3d aff1 ad3b
00000050: 330a c13d f4de 4bbb 3eed 44bb 5b8c 33bc
00000060: fd71 07bc 2ce0 52bc e55a 5cbc e690 a5bc
00000070: e6c7 113d 7b97 28bd 95fe 343c a6c7 06bd
00000080: 5d00 6d3d 97dc 733d dfb6 1f3d fdb3 01bc
00000090: b7a5 7b3d b8b8 b0bd 4739 4e3d 2e90 b3bd
000000a0: 01e3 233c 7bea 8f3d 1807 403d dd31 aebd
000000b0: c74c 603d 68af f43c 2d82 0b3d 99cc be3d
000000c0: 8315 e2bc 7ed8 803d e224 fbbc 5788 8f3d
000000d0: 1219 293d 26e5 83bd 372d 4ebc e2e4 e33d
000000e0: 3bea f6bc 5272 5e3c 478e 223d de65 83bd
000000f0: a2a0 983c 8243 2cbd 0a12 aa3c e13d 003e

weight f4 [32, 64]
0.046685755 -0.089497775 0.15060443 0.0040255706 -0.03254599 0.10412298 0.121134795 -0.013669266
0.12874158 0.03720777 0.12249729 0.11896945 0.09476821 0.13757688 -0.06396722 0.09178427
-0.05052483 -0.045750562 0.058437794 -0.12373705 -0.08594347 -0.102193534 -0.09494371 0.07802099
-0.11251134 0.051403284 0.10875123 0.13948177 -0.20343089 0.10625016 0.07635769 0.0850198
0.02079436 0.14332412 -0.08572124 -0.037440777 -0.0831819 -0.0025060624 0.041723195 -0.043379024
0.001576531 0.07372606 -0.015877485 -0.062317178 -0.067048125 -0.0121272355 0.067350306 0.10043053
0.015348904 -0.040250912 -0.09438313 -0.08344895 -0.08010957 -0.008871511 0.05304188 0.03310065
0.12238831 0.045029107 -0.06727541 -0.010578013 -0.067683205 0.083839655 0.13205332 0.090649135
-0.014421403 -0.018285679 0.09432862 0.1530453 -0.003046108 -0.08804911 0.042682018 -0.18069094
0.029855946 0.08349093 -0.051350582 -0.027577465 0.0624009 0.053281557 -0.107784934 0.032515656
-0.17442493 -0.036902856 -0.027655067 0.12161958 0.15871413 -0.046123598 0.06747781 0.024456564
-0.13090621 -0.049009908 -0.024684213 0.03833146 0.14058368 0.06653277 -0.0031143555 0.10734427
0.090707496 0.059160292 -0.089027114 0.05032776 0.09465588 -0.03984447 0.083799675 -0.05855979
0.023561547 0.090419106 -0.070913784 0.020272061 -0.10136127 0.11475982 -0.017460281 0.04144369
0.14169721 0.010356029 -0.05730204 0.055822626 -0.084705025 0.050404496 -0.0039138985 -0.010236741
-0.10257459 -0.10339489 0.12991011 0.05997394 0.037468683 0.029197156 -0.06924447 0.12766793
0.099234715 0.024038032 -0.07202591 -0.10482655 0.09490596 -0.07595096 0.02079938 -0.095096245
-0.10818188 -0.04525165 -0.11399531 -0.11624673 -0.07761128 0.069326684 -0.041865215 0.052267537
-0.0116532445 -0.10569401 0.08529489 0.08807197 0.0076127704 -0.12161937 -0.045629352 -0.05298352
0.10119833 0.055437807 0.04960791 0.08406156 0.10859401 -0.032916173 0.069814205 0.0925245
0.030939013 0.031391885 -0.09603753 0.056366324 0.029805899 0.117985666 -0.02741836 0.036973633
-0.079405494 -0.10965977 -0.04383631 0.0889211 0.09477186 0.082603976 0.067083076 0.0214124
-0.082061365 -0.014049247 0.038256496 -0.0076931254 -0.049840964 0.060927004 0.010603875 0.062495954
-0.017706499 -0.089845344 0.09529131 -0.03705725 -0.10613495 -0.10458955 -0.09571536 -0.08305269
-0.09543282 -0.1108413 0.018018547 0.17103182 0.13996501 0.16364329 -0.11419647 -0.035644356
0.13662337 0.028336804 0.10510423 0.007191053 0.006065041 -0.026237808 0.0037695009 -0.06343463
0.026411602 -0.11165024 0.05833411 0.054697435 0.09720007 -0.06414605 -0.034422062 0.16124226
-0.010047858 0.10406079 -0.017092781 0.15695848 0.0875791 -0.09075417 -0.011059433 0.095722936
-0.057787426 0.1353492 -0.020165956 0.039868478 0.04913145 -0.040523767 0.024889046 -0.09222778
0.019280199 0.095129766 0.12889913 0.029469848 0.07864839 0.04109953 -0.06383666 0.08018979
0.15624237 -0.06664642 0.011627011 -0.037748303 -0.002682246 0.0729355 0.07315796 -0.061560225
0.0663629 0.09883029 0.12839773 -0.11974491 0.10650849 -0.09176028 0.043635562 0.12294072
00000000: 9039 3f3d 9c4a b7bd 0c38 1a3e efe8 833b
00000010: f24e 05bd 6e3e d53d 8515 f83d 0ff5 5fbc
00000020: d5d4 033e 2d67 183d dcdf fa3d 41a6 f33d
00000030: d615 c23d f4e0 0c3e 3f01 83bd 64f9 bb3d
00000040: 20f3 4ebd f164 3bbd 785c 6f3d da69 fdbd
00000050: 2103 b0bd d84a d1bd d971 c2bd 78c9 9f3d
00000060: 586c e6bd 408c 523d f7b8 de3d 4fd4 0e3e
00000070: 3050 50be af99 d93d 6c61 9c3d dc1e ae3d
00000080: ef58 aa3c 8fc3 123e 9e8e afbd 805b 19bd
00000090: 465b aabd c03c 24bb f1e5 2a3d 34ae 31bd
000000a0: 9aa3 ce3a b0fd 963d 8011 82bc 4c40 7fbd
000000b0: 8750 89bd 50b1 46bc f5ee 893d 86ae cd3d
000000c0: f879 7b3c 24de 24bd f14b c1bd 48e7 aabd
000000d0: 7c10 a4bd d059 11bc 7142 593d 8c94 073d
000000e0: b9a6 fa3d 7170 383d b1c7 89bd 674f 2dbc
000000f0: 7e9d 8abd 20b4 ab3d fc38 073e 41a6 b93d
00000100: c047 6cbc d9cb 95bc 5d2f c13d e8b7 1c3e
00000110: 36a1 47bb 1753 b4bd 57d3 2e3d 0c07 39be
00000120: 7594 f43c 4bfd aa3d fd54 52bd 23ea e1bc
00000130: 1698 7f3d c33d 5a3d 59be dcbd 232f 053d
00000140: 739c 32be 7327 17bd e18c e2bc b013 f93d
00000150: f585 223e 19ec 3cbd ce31 8a3d 2259 c83c
00000160: 470c 06be 9dbe 48bd 8c36 cabc 7301 1d3d
00000170: 2bf5 0f3e 5542 883d 371a 4cbb 50d7 db3d
00000180: dac4 b93d 1052 723d d953 b6bd 7b24 4e3d
00000190: f1da c13d f433 23bd 2a9f ab3d 64dc 6fbd
000001a0: 2504 c13c a72d b93d 3f3b 91bd 9811 a63c
000001b0: 7f96 cfbd 3207 eb3d dd08 8fbc dcc0 293d
000001c0: 1319 113e 55ac 293c 8bb5 6abd 44a6 643d
000001d0: d479 adbd f274 4e3d 2940 80bb 01b8 27bc
000001e0: a012 d2bd b3c0 d3bd 2807 053e 3ca7 753d
000001f0: c378 193d e02e ef3c 0bd0 8dbd 62bb 023e
00000200: 923b cb3d 68eb c43c 5282 93bd 4daf d6bd
00000210: 0e5e c23d 2d8c 9bbd 7663 aa3c d2c1 c2bd
00000220: 768e ddbd cb59 39bd 6076 e9bd c412 eebd
00000230: aaf2 9ebd 26fb 8d3d dc7a 2bbd 7c16 563d
00000240: 40ed 3ebc 1a76 d8bd 16af ae3d 145f b43d
00000250: 8c74 f93b 9413 f9bd d8e5 3abd 3f05 59bd
00000260: 1241 cf3d c112 633d aa31 4b3d 7828 ac3d
00000270: 8966 de3d 1cd3 06bd c0fa 8e3d 7c7d bd3d
00000280: d073 fd3c c794 003d 53af c4bd 60e0 663d
00000290: 802b f43c 78a2 f13d 789c e0bc aa71 173d
000002a0: 599f a2bd 4d95 e0bd b48d 33bd 441c b63d
000002b0: c017 c23d 462c a93d da62 893d 0f69 af3c
000002c0: ca0f a8bd d02e 66bc d8b2 1c3d 9d16 fcbb
000002d0: 0a26 4cbd 988e 793d e0bb 2d3c c2fb 7f3d
000002e0: 380d 91bc d600 b8bd 1728 c33d 58c9 17bd
000002f0: 485d d9bd 0c33 d6bd 6a06 c4bd 8717 aabd
00000300: 4872 c3bd c300 e3bd a29b 933c f722 2f3e
00000310: fd52 0f3e 1b92 273e d7df e9bd d1ff 11bd
00000320: ffe6 0b3e 9622 e83c e340 d73d eda2 eb3b
00000330: 40bd c63b acf0 d6bc bb09 773b 04ea 81bd
00000340: 255d d83c e2a8 e4bd bfef 6e3d 6b0a 603d
00000350: d510 c73d 015f 83bd 26fe 0cbd b11c 253e
00000360: c59f 24bc d31d d53d 2906 8cbc b9b9 203e
00000370: ac5c b33d 53dd b9bd a032 35bc 630a c43d
00000380: 82b2 6cbd fb98 0a3e 1333 a5bc 214d 233d
00000390: 0f3e 493d 40fc 25bd 1de4 cb3c ebe1 bcbd
000003a0: 82f1 9d3c 65d3 c23d 22fe 033e c06a f13c
000003b0: 6812 a13d fb57 283d cbbc 82bd 8b3a a43d
000003c0: 00fe 1f3e eb7d 88bd 387f 3e3c f79d 1abd
000003d0: 9fc8 2fbb 355f 953d d7d3 953d 9326 7cbd
000003e0: 46e9 873d 8967 ca3d b27a 033e d23c f5bd
000003f0: 2021 da3d d0ec bbbd 34bb 323d 58c8 fb3d

bias f4 [32]
-0.059743304 0.10764546 -0.04669804 0.08468809 -0.087830484 -0.021182463 0.16052267 0.105035
0.14684148 -0.008751231 -0.008101844 0.06605421 0.03388574 -0.033767458 -0.07397856 0.03575182
-0.13769923 -0.053651273 0.08320018 0.023808055 0.1395297 -0.10241208 0.028587807 -0.07345818
0.11497663 0.08288047 0.021629468 0.0062759127 -0.080185145 0.053411216 -0.072893076 0.087599285
00000000: 65b5 74bd 3975 dc3d 7246 3fbd f370 ad3d
00000010: 78e0 b3bd d886 adbc 0e60 243e 971c d73d
00000020: 9d5d 163e 5361 0fbc 99bd 04bc 6e47 873d
00000030: c6cb 0a3d bf4f 0abd 1282 97bd 8070 123d
00000040: 0701 0dbe 70c1 5bbd db64 aa3d 1c09 c33c
00000050: e0e0 0e3e 6dbd d1bd fa30 ea3c 3e71 96bd
00000060: de78 eb3d 3cbd a93d 4830 b13c 2ca6 cd3b
00000070: 1c38 a4bd b8c5 5a3d f748 95bd 4167 b33d

weight f4 [128, 7]
-0.17576839 0.21788414 -0.05997691 0.28367996 -0.19331361 -0.007850754 0.1688202 0.045902774
-0.3318379 -0.020727424 0.29927593 0.029822426 -0.0035272776 -0.061771624 0.10971013 0.1969403
-0.21668464 -0.26269183 -0.37074202 -0.29952273 0.21226178 -0.30946514 -0.058352616 0.08590399
0.38189432 0.2972199 0.013153262 0.13233295 -0.22784212 -0.090309344 0.30165952 -0.2513843
0.2625146 -0.08338248 -0.28271347 0.012394266 0.2384437 0.22546686 0.28444836 0.3439005
-0.2663479 0.30975136 0.14829008 0.17795117 0.3700616 -0.13595186 0.22389735 -0.23938723
0.1449507 -0.18680239 0.26758108 -0.13635725 0.32685214 -0.19332142 -0.26315278 0.28680956
-0.3020377 -0.16725901 -0.2802463 0.2548818 0.33058718 0.16832487 -0.06279211 0.11473116
0.26822907 0.15455909 0.29870206 -0.3391089 0.060402106 -0.31677255 -0.11311464 -0.30420545
-0.3005464 -0.3289093 0.29477656 -0.16038859 0.024592867 0.2653696 0.2506521 0.0134207
-0.025021192 -0.034163244 -0.111495055 0.06742222 -0.10809344 0.13844554 0.24884817 -0.23841497
-0.19126315 -0.300469 0.33301687 0.2939983 -0.1491749 -0.11517307 -0.28984165 -0.31885996
-0.33802414 0.026379285 -0.102743894 0.32821226 0.00374019 0.35064593 -0.21451065 0.10685099
-0.33383945 0.20647693 0.07530008 0.26663497 -0.05302208 0.271971 0.3823496 -0.18478991
-0.24272981 -0.29830706 0.15106529 -0.15135933 0.003919768 0.072771855 -0.15307501 -0.3576522
-0.24215557 -0.068222284 -0.11921608 -0.014225492 -0.3249797 -0.3482922 0.29292974 0.21910773
-0.006336305 -0.239216 0.09510794 0.1232637 0.06769442 0.122279406 -0.16446936 0.037677597
0.16494264 -0.21488579 0.31483114 -0.17793518 -0.051889155 0.02297185 0.043211304 -0.124625385
-0.36471757 -0.03240903 -0.23789425 0.30822754 -0.35347655 -0.21575601 -0.32279384 0.17342237
-0.2247159 0.054999404 -0.3405175 0.2648822 -0.18713787 0.10247267 -0.14166924 0.02486068
0.3960562 -0.37085378 0.3275531 0.28172913 -0.06713513 0.35393733 -0.03396333 0.067103714
0.3627831 -0.3709218 0.009306513 -0.2576775 -0.018242167 0.19336021 0.10946943 -0.35676366
-0.20270507 0.12726706 -0.116983056 -0.31351754 0.045325413 -0.048511792 -0.11385045 -0.36956888
-0.038725648 -0.36764944 -0.36551258 0.18705222 0.21326287 0.38651472 -0.33027855 0.34803116
-0.095111884 0.007365508 -0.20996575 0.2807007 0.39467067 -0.23340814 -0.35719505 0.017550623
0.21757683 0.08705305 -0.22820888 -0.25097632 0.042004474 -0.23404606 -0.37735304 -0.01894381
-0.032819066 0.23172747 0.2327797 -0.15673108 0.16087155 0.06546533 -0.31442273 0.078598194
-0.24180326 0.103141926 -0.2097245 -0.019644292 0.21159115 -0.19265145 0.10555011 0.042645916
0.020159729 0.098604836 0.3498485 0.3609952 0.0072083655 -0.09361561 0.101809666 0.34155583
-0.15485322 -0.066962354 -0.35593322 -0.33113164 -0.23878706 0.09089775 0.17013 -0.20628852
0.28007293 0.367747 0.17663506 -0.17988357 -0.14309235 -0.29371607 -0.2593121 -0.33772784
0.3453506 0.21186213 -0.051952463 -0.3120448 -0.20368084 -0.30686933 0.37361258 0.15135843
00000000: a1fc 33be 051d 5f3e 59aa 75bd 803e 913e
00000010: 01f4 45be 73a0 00bc 34df 2c3e 8c04 3c3d
00000020: a8e6 a9be 8fcc a9bc b23a 993e 294e f43c
00000030: e629 67bb 3e04 7dbd b4af e03d b8aa 493e
00000040: 94e2 5dbe 8b7f 86be e6d1 bdbe 0b5b 99be
00000050: 275b 593e 3772 9ebe 2703 6fbd 6eee af3d
00000060: a787 c33e 352d 983e c880 573c 4a82 073e
00000070: 724f 69be 1bf4 b8bd 1e73 9a3e 71b5 80be
00000080: 5068 863e 6fc4 aabd d2bf 90be 5211 4b3c
00000090: 962a 743e c9e0 663e 37a3 913e ba13 b03e
000000a0: c05e 88be bb97 9e3e 5bd9 173e d538 363e
000000b0: b778 bd3e f736 0bbe 5945 653e ed21 75be
000000c0: f56d 143e 2049 3fbe 6300 893e 3ca1 0bbe
000000d0: 2a59 a73e 0df6 45be f6bb 86be b4d8 923e
000000e0: afa4 9abe f245 2bbe 717c 8fbe de7f 823e
000000f0: b942 a93e 5b5d 2c3e 2699 80bd 2cf8 ea3d
00000100: 5255 893e bd44 1e3e 7aef 983e af9f adbe
00000110: 3368 773d 0330 a2be a6a8 e7bd d1c0 9bbe
00000120: 38e1 99be cd66 a8be f4ec 963e e83c 24be
00000130: fb76 c93c 86de 873e 7955 803e 7fe2 5b3c
00000140: 3ef9 ccbc c2ee 0bbd 8557 e4bd a914 8a3d
00000150: 1860 ddbd abc4 0d3e 0ed2 7e3e 0e23 74be
00000160: 7dda 43be 13d7 99be 3081 aa3e f286 963e
00000170: 4ec1 18be dcdf ebbd 2066 94be 9d41 a3be
00000180: 8011 adbe 5f19 d83c 646b d2bd 700b a83e
00000190: fa1d 753b dd87 b33e aea8 5bbe b1d4 da3d
000001a0: 01ed aabe b06e 533e ee36 9a3d 6184 883e
000001b0: ae2d 59bd c83f 8b3e 54c3 c33e 9139 3dbe
000001c0: 2a8e 78be b4bb 98be dcb0 1a3e f1fd 1abe
000001d0: 6671 803b 6909 953d b2bf 1cbe 301e b7be
000001e0: a1f7 77be 20b8 8bbd 8f27 f4bd 0a12 69bc
000001f0: bd63 a6be 5b53 b2be e3fa 953e c75d 603e
00000200: c7a0 cfbb 0af5 74be f4c7 c23d ae71 fc3d
00000210: 5fa3 8a3d a06d fa3d a86a 28be d353 1a3d
00000220: b9e6 283e 050b 5cbe 8c31 a13e a434 36be
00000230: b989 54bd 762f bc3c 56fe 303d 983b ffbd
00000240: 43bc babe 55bf 04bd 8d9a 73be 00d0 9d3e
00000250: e1fa b4be 25ef 5cbe 3c45 a5be a295 313e
00000260: ed1b 66be 0e47 613d 4f58 aebe a49e 873e
00000270: 12a1 3fbe 31dd d13d be11 11be a0a8 cb3c
00000280: e1c7 ca3e 8ce0 bdbe 0ab5 a73e cd3e 903e
00000290: 257e 89bd 4637 b53e 221d 0bbd ac6d 893d
000002a0: b5be b93e 76e9 bdbe 587a 183c 4eee 83be
000002b0: 9970 95bc 3800 463e 8231 e03d baa9 b6be
000002c0: eb91 4fbe 4c52 023e d094 efbd 5f85 a0be
000002d0: 24a7 393d 4db4 46bd 6d2a e9bd 2238 bdbe
000002e0: c99e 1ebd 8c3c bcbe 7724 bbbe 9e8a 3f3e
000002f0: 9561 5a3e 42e5 c53e 451a a9be 2431 b23e
00000300: 05ca c2bd 5c5a f13b 4301 57be 01b8 8f3e
00000310: 4612 ca3e 8b02 6fbe 45e2 b6be 53c6 8f3c
00000320: 76cc 5e3e df48 b23d 97af 69be f87f 80be
00000330: e20c 2c3d c5a9 6fbe 6b34 c1be 0d30 9bbc
00000340: 496d 06bd f749 6d3e cd5d 6e3e 1d7e 20be
00000350: 83bb 243e b012 863d 04fc a0be 17f8 a03d
00000360: 469b 77be 133c d33d 05c2 56be 11ed a0bc
00000370: 5aab 583e 6c46 45be a82a d83d 7cad 2e3d
00000380: 0426 a53c 55f1 c93d 581f b33e 5dd4 b83e
00000390: 2734 ec3b 8ab9 bfbd 9681 d03d 68e0 ae3e
000003a0: d891 1ebe 8f23 89bd e13c b6be 168a a9be
000003b0: 9884 74be 9928 ba3d 8f36 2e3e 4c3d 53be
000003c0: b865 8f3e 5649 bc3e d2df 343e 6633 38be
000003d0: cd86 12be f461 96be 8ec4 84be aaea acbe
000003e0: cbd1 b03e 63f2 583e 1bcc 54bd 56c4 9fbe
000003f0: b691 50be fa1d 9dbe 264a bf3e b4fd 1a3e

bias f4 [128]
0.12920772 -0.3672869 0.2742879 0.22344555 -0.33225742 0.15941964 -0.08140561 -0.123047225
0.18543679 0.0510647 -0.0044226083 -0.17945437 -0.25125945 0.17241026 0.37824437 -0.17863442
-0.35766834 -0.20772599 0.30301234 -0.29214555 -0.115280114 -0.058902197 0.34586057 0.27552205
0.33706614 -0.37092406 -0.049035687 -0.11008537 0.23688933 0.26628107 -0.22061186 0.37369627
-0.33620727 -0.12439721 0.14068003 0.35147533 -0.11677023 0.2522355 0.26056254 0.05433198
-0.12429381 0.21415153 -0.11746609 0.38660866 0.19455226 0.25699064 -0.19917662 0.35415983
-0.2748245 0.022755932 0.019378219 -0.26105422 -0.23215078 0.283149 0.3710921 0.19572933
-0.0712877 0.14895682 0.23320797 0.04208351 0.0039697196 0.090205915 -0.36783218 -0.24837337
-0.13027278 -0.09466709 -0.29856592 0.021832505 0.20234545 -0.33760697 -0.071936324 -0.14998397
-0.13890643 -0.22130032 0.3104086 0.16650921 -0.3276172 -0.1367041 0.27903816 -0.016173767
0.31741792 0.40141428 -0.37745902 0.37428516 0.34481475 0.2147475 -0.2770412 0.1521414
-0.25310528 -0.2052273 0.24321178 0.20372029 -0.020505162 0.38801578 0.36435887 -0.01486967
-0.19015674 -0.27918848 -0.25013825 0.13991901 -0.007863006 0.039084535 0.2542374 0.22809665
0.043567684 0.33636868 0.17018247 -0.3466004 0.2876658 0.2621006 -0.189062 0.3088561
0.26947552 -0.26251552 0.25877896 0.41056573 -0.19380724 0.16129795 -0.08063429 0.10449406
0.32197988 -0.23678644 0.29460222 -0.22027643 0.12487461 0.14271052 0.3160419 -0.17980891
00000000: 074f 043e 070d bcbe 776f 8c3e e9ce 643e
00000010: a51d aabe e73e 233e fcb7 a6bd 2f00 fcbd
00000020: 24e3 3d3e 3829 513d 87eb 90bb e3c2 37be
00000030: 14a5 80be 518c 303e 3fa9 c13e f1eb 36be
00000040: 4e20 b7be 1fb6 54be 6f24 9b3e 1a94 95be
00000050: fb17 ecbd 6e43 71bd a314 b13e 3a11 8d3e
00000060: ef93 ac3e c2e9 bdbe a5d9 48bd 7074 e1bd
00000070: 1e93 723e fe55 883e 13e8 61be 1e55 bf3e
00000080: 5c23 acbe f7c3 febd 6d0e 103e 93f4 b33e
00000090: 3b25 efbd 0325 813e 7468 853e 368b 5e3d
000000a0: c18d febd 8a4a 5b3e 1092 f0bd 92f1 c53e
000000b0: b538 473e 4794 833e f5f4 4bbe 7054 b53e
000000c0: ccb5 8cbe a66a ba3c 12bf 9e3c e6a8 85be
000000d0: efb8 6dbe e8f8 903e c9ff bd3e 456d 483e
000000e0: 49ff 91bd 2388 183e 12ce 6e3e c25f 2c3d
000000f0: 6c14 823b e1bd b83d 8054 bcbe 9755 7ebe
00000100: 3a66 05be d2e0 c1bd a2dd 98be 15da b23c
00000110: a533 4f3e d2da acbe 5a53 93bd 6695 19be
00000120: 7d3d 0ebe 8d9c 62be e0ed 9e3e 6481 2a3e
00000130: 71bd a7be 29fc 0bbe 17de 8e3e d97e 84bc
00000140: 9a84 a23e 2c86 cd3e 4f42 c1be 4ea2 bf3e
00000150: 8f8b b03e c5e6 5b3e 58d8 8dbe f5ca 1b3e
00000160: 0497 81be 1b27 52be 820c 793e 0d9c 503e
00000170: 71fa a7bc 01aa c63e 3f8d ba3e eb9f 73bc
00000180: 73b8 42be cbf1 8ebe 1f12 80be ee46 0f3e
00000190: d6d3 00bc 1b17 203d 682b 823e 2b92 693e
000001a0: 0774 323d 8438 ac3e 5044 2e3e 9c75 b1be
000001b0: ef48 933e 0d32 863e 7899 41be 6322 9e3e
000001c0: b2f8 893e 6f68 86be ad7e 843e ac35 d23e
000001d0: 6875 46be 4a2b 253e 9723 a5bd fb00 d63d
000001e0: 8cda a43e 2578 72be 1ad6 963e 2590 61be
000001f0: 42be ff3d b522 123e 3ed0 a13e d41f 38be

weight f4 [64, 128]
0.076615274 0.012154045 -0.05031871 0.046055306 -0.07733876 -0.033207837 -0.05750359 -0.0770296
-0.013530624 0.013322134 -0.0051865913 0.043725573 -0.056656446 0.038309187 0.019758126 -0.040260438
-0.06498225 0.05542517 -0.016424479 0.063923575 0.019646047 0.059972476 -0.056022823 0.019342138
-0.08529617 -0.087358855 0.07595658 -0.02144243 -0.059188716 -0.041601047 0.021274053 -0.034120023
-0.07959292 -0.009635559 0.06952405 0.04478544 0.039860908 0.043852456 -0.06868346 0.08272714
0.016490934 0.06405167 -0.016415512 0.007916779 -0.05780573 0.033449456 -0.00744994 0.061848275
-0.083405964 0.01829267 0.055794533 0.0012549751 -0.05608676 -0.07882831 -0.063244045 -0.072915964
0.061070096 0.077547416 -0.038273003 0.02692779 0.058046147 0.06641198 0.030237097 0.020347476
0.071173854 -0.06927402 0.058443 -0.0785165 0.072922915 0.027639018 0.04136553 0.083490744
-0.017098196 -0.0076454696 -0.04007587 0.007241271 -0.033788644 -0.015695887 -0.07989774 -0.07318428
0.032085437 -0.08347219 0.0070022983 0.01521321 -0.038216677 0.04327141 -0.047405235 -0.050318554
0.0837957 -0.00828213 0.08298641 0.07957998 0.055192973 -0.00011718931 -0.042378288 -0.054066997
-0.078040466 -0.030584428 -0.03300756 0.027114986 -0.03995461 0.035338845 -0.022839209 -0.06517425
0.076818496 -0.07042087 -0.0852486 0.042294066 -0.007957915 -0.06207669 0.047291543 0.027471589
0.019796006 -0.0015535855 -0.016726123 -0.06529691 -0.014383044 0.05682909 -0.0089121405 -0.0019379964
0.05599725 0.086060904 -0.038004264 -0.08661919 0.01738526 0.0067265104 -0.011291256 0.031925857
0.004757477 -0.04793779 -0.052563123 -0.0028449404 -0.08200058 -0.029519485 0.054074924 -0.07213292
-0.06430989 -0.025234032 -0.006139179 -0.06387345 0.07205985 -0.03517661 0.023588084 -0.020406393
-0.006410683 -0.03630266 -0.0912089 -0.0006067671 0.017306756 0.016487619 -0.066255234 -0.0069604665
-0.07013882 -0.08110104 -0.0043723662 0.016507315 0.04955089 -0.07809159 -0.050856624 -0.06758791
-0.047258105 0.060373396 -0.012573306 -0.05117882 -0.075880334 -0.051440176 -0.023082562 0.034828734
-0.053823434 0.018451355 0.06490084 0.024724333 0.0251638 -0.08052961 0.0064510494 0.04810356
0.07235488 -0.0698979 0.079634786 0.0041125524 0.04972345 -0.04763673 0.05516622 0.062622085
-0.022430662 0.022749463 -0.007550216 -0.08040273 0.013148586 0.06141871 -0.07380218 -0.078798994
0.07974625 0.08704986 0.008019734 -0.014684876 -0.00056362886 -0.07522558 -1.4856764e-05 0.08417307
0.04003959 0.006141628 0.07616745 0.064031966 0.060514666 0.0649203 0.04735421 0.006845031
-0.06626207 -0.041550014 0.018580722 0.06269786 0.0064701973 -0.033745136 0.071306996 -0.030045329
-0.05768608 0.02056116 0.041201357 -0.046136882 0.040136352 -0.09560138 0.050318554 0.0763866
0.0722095 -0.054520555 0.058931883 0.031576224 -0.08128449 -0.008419149 0.066638276 -0.053625565
-0.092094965 -0.023282293 0.07165195 0.024654347 -0.012867472 -0.08060285 0.05947147 -0.042976707
0.07052993 -0.0051085036 0.009554421 -0.02494105 -0.005181892 0.08209895 0.010014118 0.03595226
0.07221117 0.054371394 0.0575774 0.038494382 0.060715273 0.048513282 -0.09789612 -0.015101449
00000000: 78e8 9c3d c221 473c fe1a 4ebd 7da4 3c3d
00000010: c963 9ebd f104 08bd e288 6bbd b2c1 9dbd
00000020: 8daf 5dbc 1445 5a3c 48f4 a9bb 9619 333d
00000030: 9710 68bd 18ea 1c3d cbdb a13c 21e8 24bd
00000040: 6a15 85bd 8105 633d a18c 86bc 5dea 823d
00000050: bff0 a03c b3a5 753d 3078 65bd 6773 9e3c
00000060: c2af aebd 33e9 b2bd 208f 9b3d 09a8 afbc
00000070: de6f 72bd dc65 2abd ec46 ae3c 70c1 0bbd
00000080: 9d01 a3bd 77de 1dbc a062 8e3d f070 373d
00000090: 3145 233d a29e 333d eaa9 8cbd d96c a93d
000000a0: ff17 873c 862d 833d d379 86bc 61b5 013c
000000b0: b3c5 6cbd 4c02 093d a01e f4bb 9e54 7d3d
000000c0: bfd0 aabd 82da 953c cf88 643d fa7d a43a
000000d0: 3bbb 65bd bd70 a1bd 1886 81bd f754 95bd
000000e0: a324 7a3d 2ed1 9e3d 27c4 1cbd ab97 dc3c
000000f0: ccc1 6d3d 0103 883d cab3 f73c c0af a63c
00000100: 99c3 913d 8adf 8dbd ed61 6f3d 42cd a0bd
00000110: 9c58 953d 396b e23c e76e 293d 32fd aa3d
00000120: 8411 8cbc d986 fabb 9826 24bd 2f48 ed3b
00000130: f665 0abd a994 80bc 6da1 a3bd a4e1 95bd
00000140: 056c 033d 78f3 aabd 8973 e53b d440 793c
00000150: 1789 1cbd 5d3d 313d fe2b 42bd d41a 4ebd
00000160: 149d ab3d c5b1 07bc c7f4 a93d d4fa a23d
00000170: 0712 623d 88c3 f5b8 db94 2dbd 5b75 5dbd
00000180: aed3 9fbd 328c fabc ef32 07bd 3f20 de3c
00000190: 72a7 23bd 77bf 103d 4b19 bbbc 147a 85bd
000001a0: 0453 9d3d d138 90bd d196 aebd 8b3c 2d3d
000001b0: ea61 02bc 2144 7ebd c7b4 413d 190c e13c
000001c0: 3c2b a23c aea1 cbba 3905 89bc 63ba 85bd
000001d0: dca6 6bbc 9fc5 683d 3a04 12bc 5e04 feba
000001e0: 5f5d 653d b340 b03d 5caa 1bbd 6765 b1bd
000001f0: 886b 8e3c 0f6a dc3b f6fe 38bc b0c4 023d
00000200: 9ce4 9b3b 6b5a 44bd 6e4c 57bd 2e72 3abb
00000210: ecef a7bd d9d2 f1bc ab7d 5d3d 6dba 93bd
00000220: e7b4 83bd 9ab7 cebc 2b2b c9bb 15d0 82bd
00000230: 1d94 933d 5915 10bd cc3b c13c 4f2b a7bc
00000240: b510 d2bb 19b2 14bd bbcb babd 730f 1fba
00000250: e6c6 8d3c 0b11 873c d3b0 87bd a014 e4bb
00000260: f1a4 8fbd 4d18 a6bd 1146 8fbb 593a 873c
00000270: e0f5 4a3d 7cee 9fbd 094f 50bd 886b 8abd
00000280: b791 41bd 184a 773d 4500 4ebc e2a0 51bd
00000290: 2667 9bbd efb2 52bd a417 bdbc 93a8 0e3d
000002a0: f675 5cbd 4c27 973c bbea 843d af8a ca3c
000002b0: 5024 ce3c b5ec a4bd 5363 d33b 3d08 453d
000002c0: cc2e 943d a126 8fbd 9017 a33d 97c2 863b
000002d0: d1aa 4b3d bb1e 43bd f9f5 613d 0240 803d
000002e0: 82c0 b7bc 155d ba3c cd67 f7bb 30aa a4bd
000002f0: 2b6d 573c 2f92 7b3d 9925 97bd 5e61 a1bd
00000300: 0052 a33d 3247 b23d 3465 033c d698 70bc
00000310: 7ec0 13ba de0f 9abd 5141 79b7 ee62 ac3d
00000320: 8e00 243d b63f c93b aefd 9b3d 3123 833d
00000330: 3ade 773d eff4 843d 7df6 413d 484c e03b
00000340: 68b4 87bd 5930 2abd 9936 983c bc67 803d
00000350: f303 d43b 5738 0abd 6709 923d 9f21 f6bc
00000360: 3d48 6cbd e16f a83c c1c2 283d 07fa 3cbd
00000370: 0466 243d a8ca c3bd d41a 4e3d 9470 9c3d
00000380: 93e2 933d f250 5fbd 8f62 713d 1256 013d
00000390: 7c78 a6bd 78f0 09bc a679 883d 7ba6 5bbd
000003a0: 499c bcbd 82ba bebc 42be 923d eaf7 c93c
000003b0: 17d2 52bc 1b13 a5bd 5b98 733d 5808 30bd
000003c0: ff71 903d 3c65 a7bb 258a 1c3c 2c51 ccbc
000003d0: dccc a9bb 7f23 a83d 4112 243c ad42 133d
000003e0: 73e3 933d 8ab4 5e3d 48d6 6b3d 49ac 1d3d
000003f0: 94b0 783d ddb5 463d c37d c8bd 116c 77bc

bias f4 [64]
0.003037323 0.07594778 -0.027460622 -0.0042093974 -0.003059615 0.0017518711 0.045886748 -0.015133528
0.020369641 0.02375766 0.047133017 -0.001312383 0.0012502997 -0.052262615 -0.009174189 -0.0757275
-0.005079327 0.109426424 -0.009647661 0.067610115 0.0511083 -0.076294534 0.075376324 -0.0789086
0.04926108 -0.025462428 0.058329973 0.048524994 0.013856751 0.030769555 -0.07702214 0.054181047
0.0071250745 0.06528465 0.090975426 0.012739031 -0.041527048 0.04268477 0.095182806 -0.061151978
-0.013289293 -0.036004815 0.043003485 0.04972653 0.013888712 0.08659077 -0.027220773 0.023095155
-0.018017903 0.031282082 0.054150805 0.04104633 0.026559206 0.10346111 -0.05297981 0.07677101
0.092435956 -0.051026337 -0.028200002 -0.086622 0.05995825 0.029628597 -0.06310097 0.112117015
00000000: d30d 473b 828a 9b3d 19f5 e0bc fcee 89bb
00000010: d283 48bb 0a9f e53a bef3 3b3d 9ef2 77bc
00000020: 3cde a63c 6d9f c23c 8d0e 413d 4404 acba
00000030: 19e1 a33a 5311 56bd 564f 16bc 0517 9bbd
00000040: 7c70 a6bb f61a e03d 3911 1ebc 2c77 8a3d
00000050: f056 513d 4f40 9cbd e75e 9a3d d59a a1bd
00000060: fcc5 493d 9596 d0bc 69eb 6e3d 25c2 463d
00000070: 6d07 633c 6f10 fc3c c9bd 9dbd f2ec 5d3d
00000080: 7579 e93b f5b3 853d 5351 ba3d 5eb7 503c
00000090: 4418 2abd 3ad6 2e3d 34ef c23d 7f7a 7abd
000000a0: 56bb 59bc c979 13bd 6c24 303d 0cae 4b3d
000000b0: 7b8d 633c 8056 b13d 19fe debc 0d32 bd3c
000000c0: 489a 93bc a421 003d 3ccd 5d3d 3220 283d
000000d0: b192 d93c 6be3 d33d 5b01 59bd 1f3a 9d3d
000000e0: 104f bd3d fe00 51bd b103 e7bc e066 b1bd
000000f0: c896 753d acb7 f23c 153b 81bd 9b9d e53d

weight f4 [32, 64]
-0.124291375 -0.005730137 0.0341781 -0.08423408 0.003586267 0.012648397 -0.06727856 -0.023546495
-0.037420392 0.11383025 -0.0016328964 0.11312532 -0.031392574 -0.0744828 0.080491304 -0.034346104
0.09149095 0.059216358 -0.015687376 0.046534155 -0.01899378 0.0739283 0.032207437 -0.03493999
-0.058298927 0.061937645 -0.099597245 0.121668756 0.096701205 0.05086784 -0.08278388 0.0067480505
0.06619815 0.04441762 0.041097205 0.040442556 0.013617352 -0.012291103 -0.08597618 0.060742006
-0.12498236 0.034054186 -0.11533243 -0.12362402 -0.05211617 -0.015606415 0.04867649 0.04631053
-0.12205808 0.107964344 -0.009117633 -0.05335796 0.022115096 -0.0063430513 0.07196716 -0.0066549373
-0.06732458 -0.08763139 0.09805195 -0.015668735 -0.02270848 -0.109933004 -0.08605565 -0.008692157
0.05935523 -0.077544354 0.11922055 -0.122798994 0.022086322 -0.08372536 -0.018751716 0.021500383
0.011448482 0.0015336933 0.057423238 -0.06198352 -0.099947244 0.18476218 0.008085027 0.07774529
-0.036263097 0.08234905 0.119213775 0.10998843 0.014211331 -0.09301411 -0.02341098 -0.0062372684
0.09196216 0.12384488 -0.06835583 0.04211648 -0.029186847 0.19593357 -0.041281022 -0.10620393
-0.09186431 -0.063430674 0.16576572 0.079396226 -0.07070243 0.0891892 0.05685615 -0.08632615
0.07965297 0.02299744 -0.024498217 -0.06318482 0.05937271 0.10373498 -0.041191712 0.07186497
-0.1233566 -0.114151776 -0.03922295 0.08414212 0.117863454 0.010495664 0.17424035 0.16013855
-0.0776676 0.074335515 -0.06682938 0.119784504 0.1688718 0.062023245 -0.023980606 0.118542865
-0.05391021 0.008456715 -0.06311444 -0.11233481 -0.0066030305 -0.06282466 -0.025686262 0.11543129
0.02101087 -0.03833959 -0.106559016 0.063047364 0.10336352 0.0817218 0.03088054 0.115431964
0.10709088 0.106422566 -0.0834932 0.03693625 0.08550604 -0.122903556 0.13797814 -0.114038825
0.053219233 -0.06320253 -0.010926572 0.030181888 0.020254547 0.0321771 0.038974006 -0.102622114
0.09635805 0.020589199 0.036833476 -0.06405796 0.06257594 0.038701266 -0.081338555 0.105732486
0.008597491 0.03204471 -0.05367554 0.023553798 -0.07986507 -0.09949604 0.06492084 -0.07120531
-0.053028587 -0.09834337 -0.11626379 -0.096781164 0.009388801 0.02541369 0.09155335 0.044917606
-0.08956807 -0.050903946 -0.055115923 -0.07334398 0.14188336 -0.059103325 0.103033 0.09238409
0.1146428 -0.11800639 -0.072485425 0.0530379 0.007162602 0.045641825 -0.120028555 -0.043207597
-0.0006572902 0.03815882 -0.1046668 0.08544 -0.08637886 -0.09787538 0.05530055 0.044802994
0.032457687 -0.027719948 0.11176363 0.06992427 -0.030784559 -0.035375103 -0.057186436 -0.08004382
-0.11444456 -0.005036831 -0.0574885 -0.074972 0.081019 0.025218815 0.05210628 -0.11037235
-0.042956334 -0.027240962 0.11991139 -0.10345897 0.0941761 0.048491497 0.09046362 -0.01738973
-0.06940331 0.074082166 0.09052045 0.028807258 -0.039734915 0.116543956 0.11434671 -0.09304394
0.03465928 0.03292954 -0.09216337 0.041232407 0.102171764 0.120915815 0.008428126 -0.12365836
-0.004600346 -0.09825431 0.06600897 -0.013385057 -0.065406956 -0.08124788 0.11777953 -0.12040863
00000000: 7a8c febd e0c3 bbbb 56fe 0b3d eb82 acbd
00000010: 9307 6b3b 393b 4f3c 57c9 89bd 94e4 c0bc
00000020: 2046 19bd d61f e93d e906 d6ba 3fae e73d
00000030: 8095 00bd 708a 98bd a0d8 a43d 80ae 0cbd
00000040: 9b5f bb3d da8c 723d d082 80bc 999a 3e3d
00000050: d898 9bbc b867 973d f2eb 033d 3c1d 0fbd
00000060: dbca 6ebd 54b2 7d3d a4f9 cbbd 782d f93d
00000070: 480b c63d cc5a 503d 988a a9bd c01e dd3b
00000080: e592 873d 40ef 353d 8b55 283d 18a7 253d
00000090: 501b 5f3c 9f60 49bc 4814 b0bd 9ccc 783d
000000a0: c0f6 ffbd 677c 0b3d 6933 ecbd 972e fdbd
000000b0: c477 55bd 0db2 7fbc 0061 473d 1cb0 3d3d
000000c0: 96f9 f9bd 691c dd3d 2062 15bc e08d 5abd
000000d0: b82a b53c 5fd9 cfbb 8563 933d a911 dabb
000000e0: 78e1 89bd 1678 b3bd 76cf c83d b85b 80bc
000000f0: 2207 babc 8e24 e1bd f23d b0bd 8d69 0ebc
00000100: 781e 733d 93cf 9ebd e729 f43d 0a7e fbbd
00000110: 60ee b43c 3478 abbd 339d 99bc 9221 b03c
00000120: 6a92 3b3c 3506 c93a a134 6b3d 6ee2 7dbd
00000130: 24b1 ccbd 4c32 3d3e 1077 043c ec38 9f3d
00000140: 9d88 14bd 9ea6 a83d 5a26 f43d 9d41 e13d
00000150: a4d6 683c 2f7e bebd 62c8 bfbc 0062 ccbb
00000160: a856 bc3d 62a2 fd3d 24fe 8bbd 5582 2c3d
00000170: 4119 efbc cfa2 483e 4a16 29bd 7281 d9bd
00000180: 5b23 bcbd f1e7 81bd 7dbe 293e 7d9a a23d
00000190: 70cc 90bd d4a8 b63d ffe1 683d c4cb b0bd
000001a0: 1921 a33d 2165 bc3c 7cb0 c8bc 0b67 81bd
000001b0: cc30 733d 0173 d43d a4b8 28bd f12d 933d
000001c0: 63a2 fcbd 68c8 e9bd 3ea8 20bd b452 ac3d
000001d0: 6562 f13d 01f6 2b3c 106c 323e 5cfb 233e
000001e0: 3110 9fbd 383d 983d d8dd 88bd 9451 f53d
000001f0: bbec 2c3e 160c 7e3d fa72 c4bc 9ac6 f23d
00000200: f4d0 5cbd 098e 0a3c 2542 81bd cb0f e6bd
00000210: 3c5e d8bb 37aa 80bd ff6b d2bc 3d67 ec3d
00000220: fd1e ac3c f909 1dbd 9d3b dabd fa1e 813d
00000230: 41b0 d33d c25d a73d 30f9 fc3c 9867 ec3d
00000240: 7752 db3d 13f4 d93d 7cfe aabd 774a 173d
00000250: ca1d af3d dcb4 fbbd 244a 0d3e 308d e9bd
00000260: 69fc 593d 5470 81bd 5d05 33bc 0240 f73c
00000270: ddec a53c 23cc 033d 35a3 1f3d 8b2b d2bd
00000280: 5f57 c53d aeaa a83c b3de 163d d230 83bd
00000290: d027 803d 3885 1e3d d494 a6bd 468a d83d
000002a0: 7edc 0c3c 5041 033d e2da 5bbd e5f3 c03c
000002b0: 4c90 a3bd 94c4 cbbd 38f5 843d 17d4 91bd
000002c0: 8134 59bd 4068 c9bd b61b eebd 3435 c6bd
000002d0: 7cd3 193c 5f30 d03c 5380 bb3d 86fb 373d
000002e0: 776f b7bd a880 50bd 3cc1 61bd 5e35 96bd
000002f0: df49 113e 5416 72bd f702 d33d df33 bd3d
00000300: d8c9 ea3d 56ad f1bd 3d73 94bd 453e 593d
00000310: 43b4 ea3b ecf2 3a3d 88d1 f5bd 73fa 30bd
00000320: 004e 2cba 6c4c 1c3d 8c5b d6bd 2bfb ae3d
00000330: 66e7 b0bd e372 c8bd d482 623d 5883 373d
00000340: 5af2 043d f214 e3bc 54e4 e43d 7534 8f3d
00000350: e62f fcbc 7ce5 10bd 533c 6abd 04ee a3bd
00000360: e961 eabd 000c a5bb 1079 6bbd ec8a 99bd
00000370: 4aed a53d b097 ce3c 656d 553d e60a e2bd
00000380: fbf2 2fbd 7028 dfbc 1a94 f53d 4ce2 d3bd
00000390: 66df c03d 059f 463d fe44 b93d e874 8ebc
000003a0: 5323 8ebd 64b8 973d c962 b93d 33fd eb3c
000003b0: 14c1 22bd 99ae ee3d 9c2e ea3d d28d bebd
000003c0: e4f6 0d3d 20e1 063d 26c0 bcbd 50e3 283d
000003d0: 6e3f d13d b6a2 f73d 1f16 0a3c 9840 fdbd
000003e0: 80be 96bb 8e39 c9bd b62f 873d 004d 5bbc
000003f0: 15f4 85bd 4a65 a6bd 6536 f13d cd98 f6bd

bias f4 [32]
-0.06526103 -0.051220704 0.045246895 -0.027238507 -0.055430003 0.049967673 -0.009799081 0.07248703
-0.028594539 -0.07788403 0.043495312 0.10056166 -0.09121339 -0.111536436 0.08913023 -0.09422386
0.033204474 0.06461832 0.08922815 -0.09374978 -0.012435468 0.06297966 0.012090832 0.022999546
0.03615173 0.115270056 0.026797606 0.00018899069 0.13498048 0.030521624 0.13445354 -0.09531233
00000000: 93a7 85bd cdcc 51bd cf54 393d 4a23 dfbc
00000010: 920a 63bd e7aa 4c3d 538c 20bc 1474 943d
00000020: 183f eabc aa81 9fbd 2428 323d 46f3 cd3d
00000030: 16ce babd 376d e4bd e989 b63d 70f8 c0bd
00000040: 6a01 083d 9c56 843d 40bd b63d e2ff bfbd
00000050: 22be 4bbc 7bfb 803d a018 463c 8b69 bc3c
00000060: d613 143d b512 ec3d a786 db3c cd2b 4639
00000070: 5338 0a3e 7c08 fa3c 30ae 093e 1c33 c3bd

weight f4 [2, 32]
-0.032608014 0.11072781 -0.16133815 0.16770247 0.0018692549 -0.06357235 0.15782267 -0.10411681
0.21689479 0.09591967 -0.09762632 0.013081082 -0.15477659 -0.06187022 -0.10955445 -0.08661161
0.12842454 0.14457953 -0.084594354 -0.06309257 0.20374273 0.1370196 0.23228607 -0.031979106
-0.03986592 0.16654627 0.028589156 -0.137307 -0.021201529 0.025355449 0.123710155 0.086579084
0.2055655 0.1322395 -0.008731444 -0.20498957 0.03955981 0.029558722 -0.13041589 0.03873759
0.010778398 0.11884575 -0.05340731 0.18358165 0.049788248 -0.074500866 -0.09526318 -0.08788262
0.13841237 -0.15059255 -0.11468413 -0.016766751 -0.10239358 -0.06226232 0.08401279 -0.10293395
-0.08475152 -0.20281264 0.025310067 -0.22795849 0.13199295 -0.13558204 0.07402419 -0.082460426
00000000: fb8f 05bd 43c5 e23d d435 25be 32ba 2b3e
00000010: c901 f53a 3832 82bd 449c 213e 323b d5bd
00000020: ab19 5e3e 8871 c43d 4ff0 c7bd 0952 563c
00000030: c17d 1ebe a16b 7dbd 155e e0bd 6e61 b1bd
00000040: b981 033e a80c 143e ce3f adbd ad36 81bd
00000050: efa1 503e de4e 0c3e 66dc 6d3e 86fc 02bd
00000060: 724a 23bd 1b8b 2a3e ce33 ea3c 359a 0cbe
00000070: d4ae adbc 3bb6 cf3c c05b fd3d 6050 b13d
00000080: c37f 523e cb69 073e 550e 0fbc c9e8 51be
00000090: 7809 223d 2225 f23c be8b 05be 4fab 1e3d
000000a0: e197 303c 6765 f33d a0c1 5abd d4fc 3b3e
000000b0: c3ee 4b3d e993 98bd 5819 c3bd cefb b3bd
000000c0: f9bb 0d3e ef34 1abe 83df eabd 6d5a 89bc
000000d0: bab3 d1bd c606 7fbd e60e ac3d 09cf d2bd
000000e0: 3492 adbd 1eae 4fbe 0f57 cf3c f36d 69be
000000f0: 2929 073e 05d6 0abe ff99 973d 03e1 a8bd

bias f4 [2]
-0.06794262 0.019827584
00000000: 8025 8bbd 756d a23c
