2023/baseline0806/model/WLTP_trained_0822/PPO_actorcritic_68episode.pt (torch, 101527 bytes, 17 tensors)

weight f4 [128, 7]
-0.24074833 -0.35635075 0.26599917 -0.43808764 -0.22882877 0.39149624 0.36156857 -0.04047977
-0.18133801 0.08495145 -0.27926734 -0.13682394 -0.36225837 -0.30152673 0.109687194 -0.14779806
-0.16206348 0.043742854 0.3194346 0.38881564 0.073790215 -0.29313132 -0.2447146 -0.2286979
-0.09424894 -0.1793095 0.27594197 0.4053916 0.10794772 -0.18350011 -0.38764042 0.085613035
0.07028625 0.18307498 -0.016649498 -0.038264442 -0.10044595 -0.22425236 -0.08799947 0.2291767
0.1484999 0.33285233 -0.33917677 -0.25368536 -0.33796388 0.011872757 -0.27600446 -0.1458769
-0.0047227717 0.0957568 -0.34938553 0.35867465 0.2947014 0.26071796 -0.3695789 -0.022199621
0.42532268 -0.042471036 -0.26630613 -0.012607657 0.51943046 -0.2560774 0.021320855 0.34126157
-0.22978699 -0.34875306 -0.39801592 -0.1597056 0.36069086 0.31441474 0.30514997 0.25287792
0.075584926 0.15037659 -0.32983476 0.030671457 0.054411683 -0.010554872 0.4219678 0.18692654
-0.10024047 0.21045448 -0.051930845 -0.09228344 -0.26086706 -0.31614092 0.26963428 -0.3735602
0.24359055 -0.14546107 0.21480736 0.24950135 0.17553034 0.31127268 0.027683634 -0.1549623
-0.13860309 -0.2803361 -0.02875464 0.02433922 0.11282387 0.015042339 -0.05913397 0.17327079
-0.22596943 0.20277932 -0.25891596 -0.008542604 0.17668563 -0.040962648 0.29816926 -0.24716057
-0.19666818 -0.35057142 -0.22344191 0.27653983 0.10044489 -0.12633146 0.037019134 -0.15506636
0.51438355 -0.093530655 0.4734728 -0.28761262 -0.13095099 -0.19382194 0.37060106 -0.14548011
0.07200052 -0.38369158 -0.29820913 -0.25451156 -0.24733265 -0.16063973 -0.28962433 -0.038564105
-0.24569634 0.09830265 -0.07701528 -0.06297751 0.347275 -0.18264337 0.121917225 0.009913095
0.019693395 0.34886557 0.3303684 -0.092744894 0.012863153 -0.07907031 -0.11870279 0.012077045
-0.20682047 0.07127561 -0.34393445 0.02830406 0.24009785 -0.12252923 0.0014505733 -0.15352972
0.26020944 0.2962692 -0.13433705 0.20845729 0.22829553 0.04503897 0.34671205 0.40715322
0.38648242 -0.32481214 0.061802 -0.38238764 0.32450932 -0.0974696 0.2951425 0.05586602
0.043767978 -0.34985447 -0.10564954 -0.039340556 0.15841813 -0.18675223 0.24334857 -0.42564362
0.27705076 -0.29976735 -0.16397968 0.25110865 0.16820227 0.32770452 0.03759889 0.1592295
0.18940774 0.27001318 -0.1426441 0.28162923 0.011548083 0.3731803 -0.041325305 0.30281684
-0.24174212 -0.073484406 0.21031463 0.2882337 -0.025108816 0.14213124 -0.25504243 0.14268123
0.37222806 0.17501266 -0.100440234 -0.2696592 -0.08157563 0.06567603 -0.2568325 0.23574768
0.2937334 0.18366262 -0.21972603 0.13012975 -0.15095167 0.2501273 0.36030582 0.24677946
0.092300326 -0.28256407 -0.1083313 0.29490453 0.30591556 -0.17527705 -0.02093411 0.22631845
0.0568587 0.080305666 0.33168197 0.18062104 -0.242581 0.32365423 0.14765082 -0.30096695
-0.15090202 -0.18785888 0.32088178 -0.19082135 0.052925102 0.12111837 0.08905127 0.2470218
-0.098335974 0.09247072 -0.22298215 0.30691567 -0.21056668 0.28155795 0.051643066 0.28283858
00000000: bb86 76be 9b73 b6be 0b31 883e 064d e0be
00000010: 1752 6abe 3272 c83e 841f b93e 1ece 25bd
00000020: acb0 39be 07fb ad3d 21fc 8ebe 931b 0cbe
00000030: ee79 b9be b661 9abe aea3 e03d 6058 17be
00000040: f8f3 25be b52b 333d ef8c a33e d812 c73e
00000050: 531f 973d 4f15 96be 7796 7abe c82f 6abe
00000060: 9705 c1bd e99c 37be 4448 8d3e 7d8f cf3e
00000070: b213 dd3d 74e7 3bbe ce78 c6be e355 af3d
00000080: 3df2 8f3d 0278 3b3e 8764 88bc 2dbb 1cbd
00000090: 9bb6 cdbd 69a2 65be 1139 b4bd 4cad 6a3e
000000a0: 5c10 183e 9f6b aa3e 94a8 adbe 0ce3 81be
000000b0: 9a09 adbe f485 423c 7550 8dbe c160 15be
000000c0: 7bc1 9abb 241c c43d a9e2 b2be 34a4 b73e
000000d0: 1ae3 963e d37c 853e 7239 bdbe fbdb b5bc
000000e0: e5c3 d93e 1cf6 2dbd 4759 88be 5990 4ebc
000000f0: 65f9 043f 941c 83be 13a9 ae3c d6b9 ae3e
00000100: 484d 6bbe c38f b2be bec8 cbbe dd89 23be
00000110: 79ac b83e f8fa a03e 9e3c 9c3e 3779 813e
00000120: 45cc 9a3d 52fc 193e 1ae0 a8be b542 fb3c
00000130: c9de 5e3d 58ee 2cbc 2a0c d83e ac69 3f3e
00000140: e04a cdbd 6181 573e 70b5 54bd 1aff bcbd
00000150: 5e90 85be 39dd a1be 810d 8a3e 4843 bfbe
00000160: cd6f 793e bff3 14be 76f6 5b3e 487d 7f3e
00000170: 3abe 333e 225f 9f3e cac8 e23c 70ae 1ebe
00000180: f8ed 0dbe 3788 8fbe da8e ebbc 0b63 c73c
00000190: 3310 e73d 2574 763c 7636 72bd e66d 313e
000001a0: 8864 67be 62a5 4f3e a290 84be 47f6 0bbc
000001b0: 14ed 343e 73c8 27bd a4a9 983e a917 7dbe
000001c0: 6263 49be 197e b3be f5cd 64be a196 8d3e
000001d0: 0db6 cd3d 095d 01be 60a1 173d b7c9 1ebe
000001e0: a4ae 033f 008d bfbd 076b f23e f641 93be
000001f0: 0418 06be 4279 46be 6cbf bd3e bdf8 14be
00000200: 0275 933d 3973 c4be deae 98be 574f 82be
00000210: c544 7dbe be7e 24be a449 94be 65f5 1dbd
00000220: d297 7bbe e652 c93d 30ba 9dbd 5afa 80bd
00000230: 07ce b13e dd06 3bbe bdaf f93d 896a 223c
00000240: 0b54 a13c 829e b23e 0c26 a93e 09f1 bdbd
00000250: f9bf 523c 9def a1bd 731a f3bd ccde 453c
00000260: bfc8 53be f2f8 913d 2d18 b0be ebdd e73c
00000270: 36dc 753e 9bf0 fabd 2a21 be3a e536 1dbe
00000280: 2c3a 853e 99b0 973e a78f 09be d475 553e
00000290: 4ec6 693e c87a 383d 3e84 b13e 6376 d03e
000002a0: 06e1 c53e c74d a6be 1824 7d3d 50c8 c3be
000002b0: 1626 a63e 249e c7bd eb1c 973e c5d3 643d
000002c0: 0d46 333d 2020 b3be c95e d8bd 9023 21bd
000002d0: 5d38 223e fa3b 3fbe 5e30 793e f6ed d9be
000002e0: 99d9 8d3e 1b7b 99be 4aea 27be 5091 803e
000002f0: 373d 2c3e e3c8 a73e 4b01 1a3d 0f0d 233e
00000300: 1af4 413e 2b3f 8a3e 4c11 12be b531 903e
00000310: 2c34 3d3c 7d11 bf3e b944 29bd cf0a 9b3e
00000320: 3f8b 77be fe7e 96bd b85c 573e 5e93 933e
00000330: 01b1 cdbc da8a 113e ec94 82be 071b 123e
00000340: ad94 be3e 8536 333e 9cb3 cdbd c510 8abe
00000350: 2011 a7bd 2881 863d 8d7f 83be d767 713e
00000360: 3964 963e 0e12 3c3e dcff 60be bc40 053e
00000370: 1393 1abe af10 803e 017a b83e c1b3 7c3e
00000380: f407 bd3d 3dac 90be cddc ddbd bafd 963e
00000390: f7a0 9c3e d47b 33be 037e abbc 06c0 673e
000003a0: abe4 683d 4c77 a43d 38d2 a93e b9f4 383e
000003b0: 2767 78be 02b6 a53e c731 173e 5718 9abe
000003c0: 0f86 1abe 145e 40be 9e4a a43e ac66 43be
000003d0: fec7 583d e80c f83d 8360 b63d 48f3 7c3e
000003e0: 5f64 c9bd 4a61 bd3d 6f55 64be 0d24 9d3e
000003f0: cb9e 57be 5d28 903e ae87 533d 38d0 903e

bias f4 [128]
-0.18175042 -0.23855948 0.19085786 0.40769288 0.052956667 -0.14157146 -0.10246875 0.09173037
-0.0063465857 0.38618022 0.28884253 0.05606023 0.084508955 0.20995352 0.07007177 -0.14760399
-0.19962066 0.18860197 0.3519781 0.19534259 -0.072539285 -0.30263132 0.204992 -0.19453989
-0.073414624 -0.28329474 -0.09359855 0.0632927 -0.29867032 -0.35081157 0.27981716 -0.00381502
0.2957877 0.05683776 0.29295564 -0.24202879 -0.2895217 -0.101546034 -0.20992073 -0.06269622
-0.16246307 -0.4005879 -0.006183002 -0.07018415 -0.28569514 -0.03392223 -0.28820676 0.21732211
-0.25399947 -0.09463869 0.21298179 0.37297556 0.016922995 -0.3201108 -0.14496033 0.20556843
0.28945816 0.23315634 -0.068753324 -0.35060346 -0.332542 0.1300946 -0.00075474085 0.27329198
0.2893047 -0.19416589 -0.35537192 -0.21891315 0.37102208 0.08841936 0.10866606 -0.02946225
-0.248464 0.30211234 0.07064538 -0.06281687 0.1438924 0.2858443 -0.10068274 0.28611535
0.2902795 0.284992 0.16626976 -0.25819716 -0.13686557 -0.12506883 -0.30423152 -0.21179251
-0.33719918 -0.15243311 0.36665395 0.26643366 0.3432435 0.40430155 0.08969635 -0.2988338
0.12801419 0.2613213 0.13739283 -0.32702276 0.38810694 0.2713071 0.1838828 0.3497966
-0.2086159 0.014203962 0.07529808 -0.15968691 -0.16364561 0.10471014 0.051864028 -0.25089827
-0.3377334 0.03405787 0.29978445 0.01467155 -0.15188313 0.20215367 0.2551856 -0.15727594
0.2490464 -0.022314673 -0.15182148 0.24528176 0.18391067 -0.23376466 0.3107275 -0.27166873
00000000: c81c 3abe f048 74be 3e70 433e 1fbd d03e
00000010: 17e9 583d 1cf8 10be 23db d1bd 22dd bb3d
00000020: 05f7 cfbb 6ab9 c53e 2be3 933e 699f 653d
00000030: 0813 ad3d 0efe 563e ca81 8f3d 8025 17be
00000040: 5c69 4cbe e020 413e 7936 b43e e307 483e
00000050: 7a8f 94bd 7ef2 9abe 6ce9 513e 7735 47be
00000060: 685a 96bd 020c 91be 99b0 bfbd 9a9f 813d
00000070: 51eb 98be 939d b3be 3244 8f3e 6a05 7abb
00000080: 7c71 973e b6ce 683d 48fe 953e 65d6 77be
00000090: 303c 94be 5ef7 cfbd 76f5 56be e066 80bd
000000a0: b85c 26be db19 cdbe c89a cabb b5bc 8fbd
000000b0: a246 92be 09f2 0abd d68f 93be b089 5e3e
000000c0: 380c 82be eed1 c1bd e617 5a3e a7f6 be3e
000000d0: 18a2 8a3c 90e5 a3be 7b70 14be 8880 523e
000000e0: dc33 943e 89c0 6e3e 8bce 8cbd 4c82 b3be
000000f0: f242 aabe 8537 053e cdd9 45ba edec 8b3e
00000100: bf1f 943e 6cd3 46be 4ff3 b5be c52a 60be
00000110: 9bf6 bd3e 3615 b53d 508c de3d d15a f1bc
00000120: 596d 7ebe 78ae 9a3e 86ae 903d 22a6 80bd
00000130: 8858 133e 2f5a 923e c132 cebd b67d 923e
00000140: 849f 943e 79ea 913e 9f42 2a3e 6b32 84be
00000150: 7d26 0cbe 0b12 00be 3cc4 9bbe 23e0 58be
00000160: 5fa5 acbe 6d17 1cbe 11ba bb3e fe69 883e
00000170: 9dbd af3e 9d00 cf3e b8b2 b73d be00 99be
00000180: 2716 033e e8cb 853e b5b0 0c3e 876f a7be
00000190: f4b5 c63e c4e8 8a3e c64b 3c3e 8a18 b33e
000001a0: 689f 55be bcb7 683c e135 9a3d f784 23be
000001b0: b792 27be 4572 d63d 606f 543d bd75 80be
000001c0: 64eb acbe 4480 0b3d 597d 993e f160 703c
000001d0: 4087 1bbe 5f01 4f3e b0a7 823e f20c 21be
000001e0: 0506 7f3e 43cd b6bc 1777 1bbe 242b 7b3e
000001f0: 1453 3c3e 0160 6fbe ad17 9f3e 2a18 8bbe

weight f4 [64, 128]
-0.027703281 0.08445547 0.0021649362 0.04672471 0.06078997 -0.05942106 0.08507825 -0.023983832
-0.079545654 -0.057986487 0.012335802 0.08808212 -0.021906056 0.02188569 -0.08064738 0.016579168
0.0135820955 -0.07182429 -0.028398862 -0.033941783 -0.03673674 0.06711046 -0.008023296 -0.05483088
0.022976175 0.04112429 0.03367017 0.007650085 -0.010363467 -0.0667817 -0.05795728 0.05804877
0.07736955 -0.029084329 -0.0026709826 -0.06385309 -0.0028960258 -0.07827878 0.08646786 0.024444023
-0.024674483 0.019193212 0.06066195 0.021296402 0.08289234 -0.03596458 -0.01304858 -0.07610229
0.07553955 -0.07755403 -0.00075040356 -0.05779418 -0.03783927 0.05904231 -0.026597612 0.07779386
0.0376942 -0.061468408 -0.028970426 -0.05797122 -0.070453346 -0.0051684994 -0.058511343 -0.06557851
-0.044891186 0.08343529 0.0750244 0.052788462 0.041695066 0.039255332 -0.0022783321 0.06872614
0.05589847 0.05188591 0.014844962 -0.08489039 -0.06378671 0.018853782 -0.07154178 -0.06569278
0.03539688 -0.043168887 -0.06701163 -0.028747343 -0.0046053333 -0.025042571 -0.03969757 0.061060477
0.029603483 0.083229944 -0.03509116 0.021074794 -0.034870744 0.077670686 0.044192173 -0.020753477
0.029261028 0.02195226 -0.0022944428 -0.051406637 0.0055413097 0.027152801 -0.005757228 0.031471074
0.0472494 0.058117773 -0.017530907 -0.01700562 0.05060865 -0.07069959 0.08190491 0.024167044
0.024085827 0.032102633 -0.055117287 -0.07333441 -0.044874497 0.01926227 0.0011387762 -0.05130032
-0.032025967 0.06976376 0.010952322 -0.014667609 -0.035963893 -0.054312788 -0.07212371 0.057605606
0.052929286 0.08364505 -0.0607058 -0.022128232 -0.036169976 0.0020953047 -0.048791036 0.022198882
0.0027861279 0.04020738 -0.018154496 -0.040801574 -0.011528332 -0.038606238 -0.0065422864 -0.017112242
0.04167903 0.037538394 -0.06369406 0.027126174 0.07376174 0.08677953 -0.018781131 0.030664757
-0.05513521 0.060351945 0.0051644584 0.049144745 0.062058344 -0.045772377 0.064923115 0.031268667
-0.04152115 -0.07208918 0.032477804 0.053880405 0.077645 0.0811722 0.05974071 -0.026937768
-0.028915005 -0.04341434 -0.02185719 0.061899044 0.08386028 -0.014365089 -0.0015601803 -0.023141917
-0.07310376 -0.053455133 0.07619092 -0.039043136 0.027537419 0.026305197 -0.07053581 -0.03982881
-0.059789646 -0.0016900635 0.028900389 0.057543427 0.053520247 -0.06639774 0.031384926 0.054243837
0.031162186 0.079595774 -0.044067733 -0.08477634 -0.06675888 0.01699168 0.08025298 0.042538244
-0.01851236 -0.04527443 0.04650051 0.040636357 0.06505203 -0.077474 -0.04615539 0.026226593
-0.00747451 0.040593505 -0.028209168 -0.07238634 0.0777486 0.004175471 -0.023741035 -0.0863523
0.06663096 0.0005249495 -0.0056786635 -0.073823005 -0.03765239 -0.07625438 -0.010724338 0.003075287
0.021431472 0.056939486 0.013530023 -0.08161974 -0.04043227 -0.014347669 -0.07485057 0.07842639
-0.026197575 -0.047628798 -0.0089202225 -0.04787005 0.0124896625 0.053027432 -0.077411525 0.061070614
0.086698964 0.012240119 0.036840316 -0.073442176 -0.03142736 0.087315984 0.0022675383 0.043949477
-0.0617263 -0.055403244 0.040924683 -0.0053939745 0.037751105 0.084207386 0.06130473 0.04175484
00000000: fef1 e2bc fdf6 ac3d 9ae1 0d3b 6962 3f3d
00000010: e7fe 783d 7f63 73bd 813d ae3d be79 c4bc
00000020: d5e8 a2bd 3d83 6dbd 1b1c 4a3c 6664 b43d
00000030: 5474 b3bc 9e49 b33c 742a a5bd 09d1 873c
00000040: 7087 5e3c 9d18 93bd bba4 e8bc 8a06 0bbd
00000050: 4479 16bd 3571 893d 2474 03bc 5896 60bd
00000060: 8838 bc3c f271 283d bbe9 093d 90ad fa3b
00000070: 88cb 29bc d8c4 88bd 9d64 6dbd 8cc4 6d3d
00000080: ed73 9e3d 4242 eebc a70b 2fbb 69c5 82bd
00000090: 40cb 3dbb a050 a0bd 1016 b13d d53e c83c
000000a0: 2422 cabc 153b 9d3c aa78 783d cb75 ae3c
000000b0: 76c3 a93d 984f 13bd b6c9 55bc 84db 9bbd
000000c0: 7bb4 9a3d a6d4 9ebd bbb6 44ba 97b9 6cbd
000000d0: 5afd 1abd 59d6 713d 3ce3 d9bc 6352 9f3d
000000e0: 3c65 1a3d 4cc6 7bbd 6353 edbc 3b73 6dbd
000000f0: d849 90bd 845c a9bb 97a9 6fbd 074e 86bd
00000100: d2df 37bd 1fe0 aa3d 65a6 993d b738 583d
00000110: 72c8 2a3d 33ca 203d 1250 15bb 4ac0 8c3d
00000120: cbf5 643d 5286 543d 4938 733c 03db adbd
00000130: 9ba2 82bd 3f73 9a3c 7f84 92bd f089 86bd
00000140: 52fc 103d dcd1 30bd 653d 89bd 8c7f ebbc
00000150: 56e8 96bb 1426 cdbc eb99 22bd 8d1a 7a3d
00000160: 0183 f23c 7674 aa3d c0bb 0fbd 0ca5 ac3c
00000170: a0d4 0ebd cf11 9f3d da02 353d 3203 aabc
00000180: d3b4 ef3c 3ad5 b33c 5d5e 16bb c48f 52bd
00000190: e093 b53b 8d6f de3c 21a7 bcbb d0e7 003d
000001a0: 9688 413d e70c 6e3d fa9c 8fbc 5f4f 8bbc
000001b0: 044b 4f3d f2ca 90bd c3bd a73d f7f9 c53c
000001c0: a44f c53c 0d7e 033d aac2 61bd 5a30 96bd
000001d0: 52ce 37bd e8cb 9d3c fd42 953a 4920 52bd
000001e0: a92d 03bd 4de0 8e3d 5e71 333c 6950 70bc
000001f0: e04e 13bd 1677 5ebd 98b5 93bd dbf3 6b3d
00000200: 61cc 583d 194e ab3d a5a6 78bd 4446 b5bc
00000210: f826 14bd 6151 093b 1cd9 47bd 6eda b53c
00000220: 7897 363b 7eb0 243d bdb8 94bc 8d1f 27bd
00000230: 54e1 3cbc 9321 1ebd ad60 d6bb f92e 8cbc
00000240: a1b7 2a3d dcc1 193d 0872 82bd b637 de3c
00000250: 6510 973d 77b9 b13d e3da 99bc a834 fb3c
00000260: 75d5 61bd 9a33 773d 9e3a a93b 004c 493d
00000270: e430 7e3d d17b 3bbd 69f6 843d 9313 003d
00000280: 1512 2abd 7ea3 93bd 7207 053d b3b1 5c3d
00000290: 5704 9f3d 9c3d a63d adb2 743d 98ac dcbc
000002a0: 29df ecbc 3cd3 31bd da0d b3bc da89 7d3d
000002b0: f0be ab3d 8d5b 6bbc f77e ccba 1e94 bdbc
000002c0: 6db7 95bd c5f3 5abd fc09 9c3d b2eb 1fbd
000002d0: 2796 e13c ff7d d73c 1475 90bd 8923 23bd
000002e0: fde5 74bd 1f85 ddba 82c0 ec3c a8b2 6b3d
000002f0: 0c38 5b3d 8afb 87bd 7b8d 003d c92e 5e3d
00000300: d747 ff3c 1c03 a33d 5e80 34bd 389f adbd
00000310: e1b8 88bd 2332 8b3c ad5b a43d 953c 2e3d
00000320: 3ca7 97bc ae71 39bd 5277 3e3d 4f72 263d
00000330: 003a 853d b0aa 9ebd 6f0d 3dbd 27d9 d63c
00000340: bcec f4bb 6045 263d ea16 e7bc 4a3f 94bd
00000350: a83a 9f3d 64d2 883b 8f7c c2bc 7ad9 b0bd
00000360: d075 883d c49c 093a 1514 babb 8430 97bd
00000370: 6439 1abd 422b 9cbd 22b5 2fbc c18a 493b
00000380: 0e91 af3c 6139 693d 08ad 5d3c 4028 a7bd
00000390: 4f9c 25bd 7c12 6bbc 414b 99bd 049e a03d
000003a0: 4c9c d6bc 6a16 43bd 2026 12bc 6313 44bd
000003b0: 71a1 4c3c 4b33 593d ef89 9ebd 2e25 7a3d
000003c0: 3a8f b13d c88a 483c dfe5 163d da68 96bd
000003d0: fab9 00bd b9d2 b23d fb9a 143b 5e04 343d
000003e0: b7d4 7cbd 83ee 62bd a4a0 273d f0bf b0bb
000003f0: e7a0 1a3d ec74 ac3d ab1a 7b3d 2007 2b3d

bias f4 [64]
-0.07241778 -0.025185695 0.078408234 0.07622609 0.034744468 0.05856088 0.042199783 0.105683066
-0.0013981118 -0.033826977 0.027738094 -0.005719969 0.06909973 0.038728323 0.0123538785 0.004608446
0.018235235 0.016382646 0.04237844 0.005308352 0.1004548 0.005414277 -0.0042864014 -0.0010616365
-0.0071785836 -0.025590526 -0.036155332 -0.030983947 0.04535665 -0.041160088 0.011047025 -0.022860955
0.05653423 0.06159764 0.036632326 -0.011612301 0.061437335 -0.08628982 0.057660043 -0.087730475
-0.017749943 0.050054416 0.058136284 -0.085056044 0.053814344 0.034026634 0.03345296 0.09595328
-0.031323288 0.061696056 -0.030657236 0.07375313 0.021388799 -0.06957321 -0.012584022 0.11240774
0.067054674 0.13473159 0.048663512 -0.06487752 0.018631283 -0.042056568 0.026264386 0.13078083
00000000: c64f 94bd 3b52 cebc 7f94 a03d 6d1c 9c3d
00000010: 3750 0e3d 89dd 6f3d aed9 2c3d 5d70 d83d
00000020: d940 b7ba 288e 0abd 003b e33c 946e bbbb
00000030: 2984 8d3d 97a1 1e3d ec67 4a3c 7202 973b
00000040: 0f62 953c e634 863c 0495 2d3d aff1 ad3b
00000050: 3fbb cd3d 3f6a b13b f174 8cbb 9c26 8bba
00000060: 533a ebbb 39a3 d1bc 9d17 14bd 0cd2 fdbc
00000070: e5c7 393d 7b97 28bd 95fe 343c e646 bbbc
00000080: 7090 673d cf4d 7c3d c70b 163d 8541 3ebc
00000090: b7a5 7b3d b8b8 b0bd f02c 6c3d 09ac b3bd
000000a0: 5468 91bc dc05 4d3d 5020 6e3d dd31 aebd
000000b0: 6e6c 5c3d 835f 0b3d f905 093d 2783 c43d
000000c0: d94c 00bd 01b5 7c3d e224 fbbc e20b 973d
000000d0: 9037 af3c 667c 8ebd 372d 4ebc 0736 e63d
000000e0: f653 893d 14f7 093e 6453 473d 81de 84bd
000000f0: a2a0 983c 8243 2cbd 6928 d73c 69eb 053e

weight f4 [32, 64]
0.046685755 -0.089497775 0.14016975 -0.007740991 -0.048769683 0.09083725 0.121134795 -0.03112824
0.115271114 0.0299772 0.12551449 0.11896945 0.08906484 0.13088392 -0.06396722 0.09178427
-0.06292342 -0.06927044 0.058437794 -0.12373705 -0.09682522 -0.11665992 -0.09494371 0.068142526
-0.12858623 0.03664989 0.098298244 0.12597464 -0.21631093 0.10625016 0.07635769 0.075555466
0.0084865475 0.13320303 -0.09941371 -0.050037485 -0.0831819 -0.0025060624 0.031341534 -0.043379024
-0.008132477 0.066906914 -0.03471187 -0.062317178 -0.067048125 -0.0218538 0.06721259 0.09196038
0.0019376781 -0.040250912 -0.09438313 -0.09436493 -0.09613918 -0.008871511 0.05304188 0.02209173
0.0769395 -0.04658091 -0.0810283 -0.010578013 -0.067683205 0.083839655 0.12346911 0.07696448
-0.014421403 -0.018285679 0.094605744 0.15272224 -0.0010563022 -0.08603392 0.042682018 -0.17974296
0.030287148 0.08481408 -0.054859918 -0.027577465 0.06850394 0.05488053 -0.10715283 0.032515656
-0.1746533 -0.10834268 -0.027595967 0.12161958 0.1586875 -0.046779804 0.06787454 0.022659112
-0.13236788 -0.04681804 -0.02174497 0.038649816 0.13982527 0.06653277 -0.0031143555 0.10549153
0.09003557 0.058078583 -0.08944543 0.050788194 0.09465588 -0.03984447 0.08293854 -0.058559902
0.02547425 0.092682794 -0.075923994 0.020272061 -0.101252645 0.11077589 -0.016277255 0.04030867
0.1419235 0.010345354 -0.05730204 0.05523964 -0.08435056 0.050404496 -0.0039138985 -0.0095959455
-0.29862082 -0.30505234 0.1297251 0.05997394 0.037468683 0.029197156 -0.06949562 0.12764218
0.099234715 0.024038032 -0.07202591 -0.10482655 0.09490596 -0.07595096 0.02079938 -0.095096245
-0.10818188 -0.04525165 -0.11399531 -0.11624673 -0.07761128 0.069326684 -0.041865215 0.052267537
-0.0116532445 -0.10569401 0.08529489 0.08807197 0.0076127704 -0.12161937 -0.045629352 -0.05298352
0.10119833 0.055437807 0.04960791 0.08406156 0.10859401 -0.032916173 0.069814205 0.0925245
0.030939013 0.031391885 -0.09603753 0.056366324 0.029805899 0.117985666 -0.02741836 0.036973633
-0.079405494 -0.10965977 -0.04383631 0.0889211 0.09477186 0.082603976 0.067083076 0.0214124
-0.082061365 -0.014049247 0.038256496 -0.0076931254 -0.049840964 0.060927004 0.010603875 0.062495954
-0.017706499 -0.089845344 0.09529131 -0.03705725 -0.10613495 -0.10458955 -0.09571536 -0.08305269
-0.09543282 -0.1108413 0.031169271 0.18740931 0.14180122 0.17698075 -0.11419647 0.0127618415
0.14832781 0.03498484 0.17480183 0.007191053 0.021118203 -0.011633437 0.0046957782 -0.06343463
0.063519105 -0.10559784 0.0584761 0.054697435 0.11107951 -0.04865243 -0.033185408 0.17766523
0.008495216 0.1283655 -0.0073634568 0.17579369 0.10755372 -0.09075417 -0.011059433 0.113883875
-0.043199763 0.1471973 -0.006419786 0.04451555 0.04913145 -0.040523767 0.039170388 -0.092227384
0.027526412 0.11154369 0.13827461 0.029469848 0.07869392 0.050832406 -0.06381741 0.09268071
0.17711274 -0.06665036 0.011627011 -0.023339394 -0.0054551624 0.072911926 0.07315796 -0.04647873
0.20456941 0.27510387 0.14571717 -0.11974867 0.10650849 -0.09176028 0.05685384 0.13961002
00000000: 9039 3f3d 9c4a b7bd a988 0f3e 24a8 fdbb
00000010: b8c2 47bd e108 ba3d 8515 f83d a700 ffbc
00000020: 4313 ec3d bf92 f53c df86 003e 41a6 f33d
00000030: a067 b63d 6f06 063e 3f01 83bd 64f9 bb3d
00000040: fedd 80bd a9dd 8dbd 785c 6f3d da69 fdbd
00000050: 4d4c c6bd 65eb eebd d971 c2bd 4f8e 8b3d
00000060: 1cac 03be 321e 163d 9750 c93d 7fff 003e
00000070: 9d80 5dbe af99 d93d 6c61 9c3d d3bc 9a3d
00000080: 290b 0b3c 6066 083e 6a99 cbbd 1bf4 4cbd
00000090: 465b aabd c03c 24bb fb5f 003d 34ae 31bd
000000a0: 153e 05bc 7e06 893d 092e 0ebd 4c40 7fbd
000000b0: 8750 89bd be06 b3bc c1a6 893d b955 bc3d
000000c0: b0f9 fd3a 24de 24bd f14b c1bd 6742 c1bd
000000d0: 9ee4 c4bd d059 11bc 7142 593d b7f9 b43c
000000e0: 7592 9d3d a0cb 3ebd 2af2 a5bd 674f 2dbc
000000f0: 7e9d 8abd 20b4 ab3d 5fdd fc3d 8e9f 9d3d
00000100: c047 6cbc d9cb 95bc a8c0 c13d 3863 1c3e
00000110: 9f73 8aba 8d32 b0bd 57d3 2e3d 8a0e 38be
00000120: c11c f83c 01b3 ad3d cbb4 60bd 23ea e1bc
00000130: cb4b 8c3d 68ca 603d f172 dbbd 232f 053d
00000140: 51d8 32be c4e2 ddbd f010 e2bc b013 f93d
00000150: fa7e 223e 2e9c 3fbd cf01 8b3d 9a9f b93c
00000160: 728b 07be 46c4 3fbd 8222 b2bc 454f 1e3d
00000170: 5b2e 0f3e 5542 883d 371a 4cbb f10b d83d
00000180: 9264 b83d cfe3 6d3d 2a2f b7bd 4807 503d
00000190: f1da c13d f433 23bd aedb a93d 82dc 6fbd
000001a0: 60af d03c 7ad0 bd3d 0a7e 9bbd 9811 a63c
000001b0: 8c5d cfbd 78de e23d e157 85bc b41a 253d
000001c0: 6554 113e 8f7f 293c 8bb5 6abd f642 623d
000001d0: fdbf acbd f274 4e3d 2940 80bb 5038 1dbc
000001e0: d4e4 98be d22f 9cbe a8d6 043e 3ca7 753d
000001f0: c378 193d e02e ef3c b853 8ebd a2b4 023e
00000200: 923b cb3d 68eb c43c 5282 93bd 4daf d6bd
00000210: 0e5e c23d 2d8c 9bbd 7663 aa3c d2c1 c2bd
00000220: 768e ddbd cb59 39bd 6076 e9bd c412 eebd
00000230: aaf2 9ebd 26fb 8d3d dc7a 2bbd 7c16 563d
00000240: 40ed 3ebc 1a76 d8bd 16af ae3d 145f b43d
00000250: 8c74 f93b 9413 f9bd d8e5 3abd 3f05 59bd
00000260: 1241 cf3d c112 633d aa31 4b3d 7828 ac3d
00000270: 8966 de3d 1cd3 06bd c0fa 8e3d 7c7d bd3d
00000280: d073 fd3c c794 003d 53af c4bd 60e0 663d
00000290: 802b f43c 78a2 f13d 789c e0bc aa71 173d
000002a0: 599f a2bd 4d95 e0bd b48d 33bd 441c b63d
000002b0: c017 c23d 462c a93d da62 893d 0f69 af3c
000002c0: ca0f a8bd d02e 66bc d8b2 1c3d 9d16 fcbb
000002d0: 0a26 4cbd 988e 793d e0bb 2d3c c2fb 7f3d
000002e0: 380d 91bc d600 b8bd 1728 c33d 58c9 17bd
000002f0: 485d d9bd 0c33 d6bd 6a06 c4bd 8717 aabd
00000300: 4872 c3bd c300 e3bd b356 ff3c 3ae8 3f3e
00000310: 5734 113e 713a 353e d7df e9bd 0b17 513c
00000320: 3fe3 173e 434c 0f3d 40ff 323e eda2 eb3b
00000330: 1500 ad3c 2c9a 3ebc 0bdf 993b 04ea 81bd
00000340: 4e16 823d ae43 d8bd a384 6f3d 6b0a 603d
00000350: a77d e33d c547 47bd 6ced 07bd e0ed 353e
00000360: 852f 0b3c 3f72 033e 2749 f1bb 4303 343e
00000370: 2045 dc3d 53dd b9bd a032 35bc f33b e93d
00000380: 3cf2 30bd e4ba 163e 115d d2bb f055 363d
00000390: 0f3e 493d 40fc 25bd 2171 203d b6e1 bcbd
000003a0: 127f e13c 0571 e43d dc97 0d3e c06a f13c
000003b0: 472a a13d a435 503d b4b2 82bd 62cf bd3d
000003c0: 0b5d 353e fc7f 88bd 387f 3e3c 4232 bfbc
000003d0: 38c1 b2bb d952 953d d7d3 953d 7b60 3ebd
000003e0: a57a 513e 6ada 8c3e e236 153e ca3e f5bd
000003f0: 2021 da3d d0ec bbbd 92df 683d eef5 0e3e

bias f4 [32]
-0.07115879 0.10745673 -0.04669804 0.10606973 -0.087830484 -0.021182463 0.17379904 0.12072614
0.13519666 -0.012627373 -0.008101844 0.070718646 0.012472802 -0.033767458 -0.07837918 0.0128296595
-0.13771226 -0.036668804 0.08320018 0.00727843 0.13968861 -0.11550759 0.013834196 -0.0407892
0.12601145 0.09617458 0.06484541 -0.007915016 -0.084724195 0.034834277 -0.07797754 0.09761417
00000000: b3bb 91bd 4612 dc3d 7246 3fbd 163b d93d
00000010: 78e0 b3bd d886 adbc 60f8 313e 443f f73d
00000020: fe70 0a3e 0be3 4ebc 99bd 04bc f0d4 903d
00000030: b95a 4c3c bf4f 0abd 4385 a0bd 7e33 523c
00000040: 7104 0dbe 0732 16bd db64 aa3d e57f ee3b
00000050: 880a 0f3e 3e8f ecbd d3a8 623c 9412 27bd
00000060: 2509 013e 2ef7 c43d accd 843d fcad 01bc
00000070: e183 adbd 63ae 0e3d b0b2 9fbd f0e9 c73d

weight f4 [128, 7]
-0.24452825 0.2044665 -0.07506911 0.28343043 -0.18327728 0.018008519 0.1586239 0.045902774
-0.3318379 -0.020727424 0.29927593 0.029822426 -0.0035272776 -0.061771624 0.22598733 0.21264423
-0.19843368 -0.2596045 -0.35721174 -0.31949937 0.22989589 -0.38054794 -0.071908504 0.07606297
0.3788091 0.25561318 0.038092487 0.12167277 -0.22784212 -0.090309344 0.30165952 -0.2513843
0.2625146 -0.08338248 -0.28271347 0.11480378 0.2464698 0.23320612 0.28412813 0.34715876
-0.24198155 0.33813593 0.25283676 0.1927969 0.38856632 -0.13256964 0.23009126 -0.2165444
0.18585366 -0.19739546 0.26055315 -0.13615233 0.3283856 -0.22039853 -0.25373378 0.29561087
-0.36851263 -0.19266966 -0.31060195 0.28144974 0.28459606 0.20510827 -0.051787328 0.2331687
0.28699377 0.17559296 0.31021732 -0.32607487 -0.0042914287 -0.31251246 -0.07517785 -0.30420545
-0.3005464 -0.3289093 0.3225357 -0.18174379 0.011712662 0.35601372 0.25870657 0.018619685
-0.012870235 -0.007097679 -0.14535703 0.07000623 -0.12722647 0.12968023 0.2450013 -0.23970719
-0.20349321 -0.30739835 0.3283711 0.39781258 -0.13427545 -0.091884986 -0.2841935 -0.29893756
-0.35893232 0.04580536 -0.00743364 0.32114974 0.0064598876 0.33833393 -0.26235554 0.13425994
-0.3190921 0.31744578 0.08233402 0.26996222 -0.07143828 0.2811224 0.38900328 -0.17290637
-0.24272981 -0.29830706 0.15106529 -0.15135933 0.003919768 0.072771855 -0.15307501 -0.3576522
-0.24215557 -0.068222284 -0.11921608 -0.014225492 -0.3249797 -0.3482922 0.4113437 0.23324494
0.008386288 -0.23918383 0.11440426 0.10237175 0.08180939 0.122279406 -0.16446936 0.037677597
0.16494264 -0.21488579 0.31483114 -0.17793518 -0.047048163 0.028512213 0.04875379 -0.11910188
-0.37018114 -0.026748158 -0.23199101 0.41419587 -0.35347655 -0.16217637 -0.37671992 0.14998029
-0.21197648 0.10132164 -0.4331459 0.25328445 -0.19923979 0.100703314 -0.1664917 0.05128917
0.38785586 -0.452454 0.31539375 0.26894575 -0.06703456 0.32453272 -0.007582019 0.058178335
0.46770722 -0.3595367 0.024291223 -0.26355937 -0.0065859407 0.18094856 0.12516984 -0.35676366
-0.20270507 0.12726706 -0.116983056 -0.31351754 0.045325413 -0.048511792 -0.112469435 -0.38946426
-0.0700094 -0.3392726 -0.33546078 0.23689063 0.23975404 0.5118069 -0.31432047 0.3700709
-0.08990155 0.027987083 -0.22890083 0.3034644 0.5010396 -0.22587481 -0.3207203 0.0074954005
0.22616109 0.06355893 -0.21275225 -0.28814003 0.028813502 -0.2437838 -0.38052067 -0.059295543
0.0017533909 0.23064354 0.3884896 -0.13772589 0.21912004 0.044787213 -0.3400488 0.1218825
-0.15026993 0.21265414 -0.1974914 -0.0050108396 0.20976904 -0.1820639 0.0919473 0.059278414
0.0060778875 0.09345771 0.35002849 0.36229795 -0.015040794 -0.095293015 0.10267513 0.44649118
-0.149209 -0.030753989 -0.38050422 -0.3167058 -0.3168935 0.06576659 0.28201705 -0.19193895
0.29817113 0.37347937 0.18913876 -0.1947393 -0.118843086 -0.30329865 -0.26727912 -0.3308424
0.32929087 0.15992667 -0.019248512 -0.31096354 -0.22253913 -0.26884693 0.3976337 0.17376256
00000000: 9d65 7abe ab5f 513e d5bd 99bd cb1d 913e
00000010: 0aad 3bbe 9a86 933c 4e6e 223e 8c04 3c3d
00000020: a8e6 a9be 8fcc a9bc b23a 993e 294e f43c
00000030: e629 67bb 3e04 7dbd 3969 673e 69bf 593e
00000040: 3332 4bbe e2ea 84be 75e4 b6be 6c95 a3be
00000050: d469 6b3e 2ed7 c2be c444 93bd e7c6 9b3d
00000060: 44f3 c13e bbdf 823e de06 1c3d 932f f93d
00000070: 724f 69be 1bf4 b8bd 1e73 9a3e 71b5 80be
00000080: 5068 863e 6fc4 aabd d2bf 90be 3f1e eb3d
00000090: 9462 7c3e 96cd 6e3e 3e79 913e cbbe b13e
000000a0: 03ca 77be 2720 ad3e d273 813e 8d6c 453e
000000b0: 2af2 c63e 56c0 07be 0b9d 6b3e d1bd 5dbe
000000c0: 6c50 3e3e 0922 4abe 3967 853e 846b 0bbe
000000d0: 2822 a83e 27b0 61be 65e9 81be 4f5a 973e
000000e0: b0ad bcbe 324b 45be 3807 9fbe 2e1a 903e
000000f0: 93b6 913e e707 523e f31e 54bd c7c3 6e3e
00000100: d9f0 923e a4ce 333e ced4 9e3e 49f3 a6be
00000110: 1d9f 8cbb a201 a0be d8f6 99bd d1c0 9bbe
00000120: 38e1 99be cd66 a8be 6623 a53e 0b1b 3abe
00000130: 77e6 3f3c 6e47 b63e 3075 843e 4f88 983c
00000140: aedd 52bc a693 e8bb 79d8 14be 6d5f 8f3d
00000150: a847 02be e5ca 043e 9fe1 7a3e cd75 75be
00000160: 8660 50be 5163 9dbe 4220 a83e 17ae cb3e
00000170: 817f 09be 322e bcbd cf81 91be 580e 99be
00000180: fac5 b7be 679e 3b3d e495 f3bb bd6d a43e
00000190: 77ad d33b 1b3a ad3e 7753 86be 707b 093e
000001a0: 0a60 a3be 4188 a23e bd9e a83d 7d38 8a3e
000001b0: 3c4e 92bd 46ef 8f3e 702b c73e 5e0e 31be
000001c0: 2a8e 78be b4bb 98be dcb0 1a3e f1fd 1abe
000001d0: 6671 803b 6909 953d b2bf 1cbe 301e b7be
000001e0: a1f7 77be 20b8 8bbd 8f27 f4bd 0a12 69bc
000001f0: bd63 a6be 5b53 b2be a49b d23e c3d7 6e3e
00000200: a466 093c 9bec 74be c84c ea3d 48a8 d13d
00000210: ae8b a73d a06d fa3d a86a 28be d353 1a3d
00000220: b9e6 283e 050b 5cbe 8c31 a13e a434 36be
00000230: 93b5 40bd 7292 e93c 0eb2 473d b0eb f3bd
00000240: 6288 bdbe f41e dbbc 0d8f 6dbe 7b11 d43e
00000250: e1fa b4be 9011 26be 6fe1 c0be 6f94 193e
00000260: 5d10 59be b881 cf3d 4dc5 ddbe 80ae 813e
00000270: 8405 4cbe 8a3d ce3d cd7c 2abe 9814 523d
00000280: 0b95 c63e 0da8 e7be 4a7b a13e 42b3 893e
00000290: 6a49 89bd 2729 a63e 9672 f8bb 684c 6e3d
000002a0: 5277 ef3e 3215 b8be 63fe c63c 41f1 86be
000002b0: e0ce d7bb 944a 393e 862c 003e baa9 b6be
000002c0: eb91 4fbe 4c52 023e d094 efbd 5f85 a0be
000002d0: 24a7 393d 4db4 46bd 6056 e6bd dc67 c7be
000002e0: 1761 8fbd 23b5 adbe 84c1 abbe 7593 723e
000002f0: 1582 753e c705 033f 9dee a0be ef79 bd3e
00000300: 4e1e b8bd 2b45 e53c fb64 6abe b05f 9b3e
00000310: 2244 003f ba4b 67be 7335 a4be fa9b f53b
00000320: c696 673e 2f2b 823d badb 59be 1787 93be
00000330: 4b0a ec3c 76a2 79be 9bd3 c2be e2df 72bd
00000340: 09d2 e53a d22d 6c3e 1ce8 c63e 0408 0dbe
00000350: 0161 603e cc72 373d e01a aebe 889d f93d
00000360: 5ce0 19be 02c2 593e 303b 4abe f831 a4bb
00000370: b2cd 563e f66e 3abe de4e bc3d eccd 723d
00000380: 0429 c73b c266 bf3d ef36 b33e 1e7f b93e
00000390: aa6d 76bc fc28 c3bd 5747 d23d 7e9a e43e
000003a0: 3eca 18be caef fbbc 73d1 c2be 4327 a2be
000003b0: dd3f a2be a2b0 863d 8a64 903e a58b 44be
000003c0: e3a9 983e b038 bf3e 97ad 413e bd69 47be
000003d0: 0164 f3bd f649 9bbe cfd8 88be 2d64 a9be
000003e0: d098 a83e d1c3 233e 0eaf 9dbc 9d36 9fbe
000003f0: 4ce1 63be 4ea6 89be a596 cb3e d0ee 313e

bias f4 [128]
0.16390406 -0.3672869 0.30888554 0.25503984 -0.33225742 0.22589001 -0.054116774 -0.1181648
0.2464247 0.064120054 -0.005753806 -0.12400884 -0.26033208 0.19039394 0.4839758 -0.111502506
-0.35766834 -0.20772599 0.33055624 -0.29214555 -0.10973993 -0.03330939 0.36780903 0.30319175
0.36200285 -0.37092406 0.029949075 -0.067923084 0.24889828 0.3225427 -0.12090286 0.40692198
-0.33963338 -0.12020095 0.16386741 0.42315045 -0.096708655 0.30501306 0.35770142 0.14109138
-0.14318137 0.24288686 -0.11400431 0.404002 0.21618572 0.30938768 -0.19917662 0.43618208
-0.2748245 0.028134784 0.087720536 -0.2620117 -0.15796545 0.31953478 0.391655 0.27815175
-0.035909105 0.17620912 0.26881352 0.1612174 0.0273387 0.18577039 -0.37402096 -0.2301732
-0.13814622 -0.08288261 -0.29856592 0.04272809 0.21502854 -0.33760697 -0.071936324 -0.14379455
-0.13890643 -0.22130032 0.36831954 0.23349176 -0.3276172 -0.09564242 0.3063165 -0.011869874
0.32886735 0.4907986 -0.37745902 0.4425152 0.3969626 0.2800779 -0.2770412 0.1733214
-0.25310528 -0.11068722 0.28065482 0.252117 -0.028242797 0.4833256 0.4128011 -0.01486967
-0.17597194 -0.27918848 -0.25013825 0.18226773 0.034464076 0.14430165 0.28059947 0.26347557
0.1051947 0.4196417 0.2684841 -0.3553855 0.32522246 0.29704395 -0.18330765 0.3778766
0.2935825 -0.26251552 0.30686727 0.5049073 -0.19380724 0.26499727 0.009625255 0.16284765
0.39757735 -0.24726284 0.35091752 -0.22782362 0.14813368 0.17856209 0.3434937 -0.1634389
00000000: 77d6 273e 070d bcbe 3f26 9e3e 9594 823e
00000010: a51d aabe b64f 673e 8da9 5dbd 6300 f2bd
00000020: c256 7c3e 6051 833d 6c8a bcbb 59f8 fdbd
00000030: 3f4a 85be a1f6 423e adcb f73e 6d5b e4bd
00000040: 4e20 b7be 1fb6 54be ab3e a93e 1a94 95be
00000050: 54bf e0bd 6d6f 08bd 7751 bc3e f33b 9b3e
00000060: 7058 b93e c2e9 bdbe c357 f53c 421b 8bbd
00000070: 31df 7e3e 5124 a53e eb9b f7bd 1458 d03e
00000080: 6de4 adbe ea2b f6bd dccc 273e 2da7 d83e
00000090: 300f c6bd ac2a 9c3e a424 b73e 427a 103e
000000a0: 239e 12be 55b7 783e 177b e9bd 5ad9 ce3e
000000b0: ca5f 5d3e 1068 9e3e f5f4 4bbe 4253 df3e
000000c0: ccb5 8cbe eb7a e63c d3a6 b33d 6626 86be
000000d0: b2c1 21be 109a a33e 0187 c83e e869 8e3e
000000e0: 6d15 13bd 2a70 343e eda1 893e 2d16 253e
000000f0: 69f5 df3c 983a 3e3e ad7f bfbe 86b2 6bbe
00000100: 3476 0dbe 5cbe a9bd a2dd 98be a603 2f3d
00000110: 7130 5c3e d2da acbe 5a53 93bd e13e 13be
00000120: 7d3d 0ebe 8d9c 62be 6194 bc3e 7718 6f3e
00000130: 71bd a7be 2ce0 c3bd 84d5 9c3e dc79 42bc
00000140: 4d61 a83e f449 fb3e 4f42 c1be 5a91 e23e
00000150: af3e cb3e 5f66 8f3e 58d8 8dbe 2a7b 313e
00000160: 0497 81be fbaf e2bd fdb1 8f3e 7b15 813e
00000170: 705d e7bc 7476 f73e aa5a d33e eb9f 73bc
00000180: fd31 34be cbf1 8ebe 1f12 80be 64a4 3a3e
00000190: 342a 0d3d d0c3 133e bcaa 8f3e 45e6 863e
000001a0: 5270 d73d 47db d63e bf76 893e 17f5 b5be
000001b0: 8f83 a63e 2516 983e 00b5 3bbe 0b79 c13e
000001c0: 7250 963e 6f68 86be b51d 9d3e 9b41 013f
000001d0: 6875 46be b9ad 873e 3fb3 1d3c 89c1 263e
000001e0: 428f cb3e 7832 7dbe 76ab b33e 984a 69be
000001f0: 5bb0 173e fbd8 363e 68de af3e 875c 27be

weight f4 [64, 128]
0.076615274 0.012154045 -0.05031871 0.046055306 -0.07733876 -0.033207837 -0.05750359 -0.0770296
-0.013530624 0.013322134 -0.0051865913 0.043725573 -0.056656446 0.038309187 0.019758126 -0.040260438
-0.06498225 0.05542517 -0.016424479 0.063923575 0.019646047 0.059972476 -0.056022823 0.019342138
-0.08529617 -0.087358855 0.07595658 -0.02144243 -0.059188716 -0.041601047 0.021274053 -0.034120023
-0.07959292 -0.009635559 0.06952405 0.04478544 0.039860908 0.043852456 -0.06868346 0.08272714
0.016490934 0.06405167 -0.016415512 0.007916779 -0.05780573 0.033449456 -0.00744994 0.061848275
-0.083405964 0.01829267 0.055794533 0.0012549751 -0.05608676 -0.07882831 -0.063244045 -0.072915964
0.061070096 0.077547416 -0.038273003 0.02692779 0.058046147 0.06641198 0.030237097 0.020347476
0.071173854 -0.06927402 0.058443 -0.0785165 0.072922915 0.027639018 0.04136553 0.083490744
-0.017098196 -0.0076454696 -0.04007587 0.007241271 -0.033788644 -0.015695887 -0.07989774 -0.07318428
0.032085437 -0.08347219 0.0070022983 0.01521321 -0.038216677 0.04327141 -0.047405235 -0.050318554
0.0837957 -0.00828213 0.08298641 0.07957998 0.055192973 -0.00011718931 -0.042378288 -0.054066997
-0.078040466 -0.030584428 -0.03300756 0.027114986 -0.03995461 0.035338845 -0.022839209 -0.06517425
0.076818496 -0.07042087 -0.0852486 0.042294066 -0.007957915 -0.06207669 0.047291543 0.027471589
0.019796006 -0.0015535855 -0.016726123 -0.06529691 -0.014383044 0.05682909 -0.0089121405 -0.0019379964
0.05599725 0.086060904 -0.038004264 -0.08661919 0.01738526 0.0067265104 -0.011291256 0.031925857
0.0047466876 -0.04793779 -0.053214245 -0.0028897289 -0.08200058 -0.029823637 0.05396182 -0.07213292
-0.06430989 -0.025676297 -0.006139179 -0.06387345 0.07205985 -0.03608937 0.02298669 -0.020406393
-0.006410683 -0.03630266 -0.091782674 -0.0006067671 0.017306756 0.011981544 -0.0664934 -0.0070039104
-0.07094152 -0.08110104 -0.0043723662 0.015585029 0.048548535 -0.079440184 -0.050856624 -0.06833339
-0.047258105 0.052301046 -0.013325211 -0.054005336 -0.075880334 -0.05236455 -0.024687003 0.034298137
-0.053823434 0.017682388 0.06490084 0.024022829 0.024435773 -0.08115087 0.0064510494 0.047349427
0.07235488 -0.0698979 0.079634786 0.0041125524 0.04972345 -0.048255526 0.054536484 0.062172987
-0.022708694 0.021530982 -0.0082151145 -0.08040273 0.012560479 0.058531947 -0.07380218 -0.078798994
0.07974625 0.08704986 0.008019734 -0.017404092 -0.0014799186 -0.07522558 -1.4856764e-05 0.08417307
0.04003959 0.006141628 0.07560719 0.06336606 0.060514666 0.05842528 0.046944004 0.006843305
-0.06648066 -0.04217817 0.018580722 0.061376635 0.005745172 -0.033745136 0.071306996 -0.030910885
-0.05768608 0.0028961627 0.041169625 -0.05197863 0.037081506 -0.09658917 0.049809616 0.0763866
0.0722095 -0.054520555 0.058931883 0.030708192 -0.08128449 -0.008419149 0.06576884 -0.054164957
-0.092094965 -0.02390745 0.07105175 0.024654347 -0.013142668 -0.081843294 0.05947147 -0.043460965
0.069472685 -0.0051085036 0.008875442 -0.02623382 -0.005181892 0.082 0.010014118 0.03595226
0.071049474 0.054371394 0.056530923 0.038494382 0.058088806 0.04795337 -0.098554984 -0.015101449
00000000: 78e8 9c3d c221 473c fe1a 4ebd 7da4 3c3d
00000010: c963 9ebd f104 08bd e288 6bbd b2c1 9dbd
00000020: 8daf 5dbc 1445 5a3c 48f4 a9bb 9619 333d
00000030: 9710 68bd 18ea 1c3d cbdb a13c 21e8 24bd
00000040: 6a15 85bd 8105 633d a18c 86bc 5dea 823d
00000050: bff0 a03c b3a5 753d 3078 65bd 6773 9e3c
00000060: c2af aebd 33e9 b2bd 208f 9b3d 09a8 afbc
00000070: de6f 72bd dc65 2abd ec46 ae3c 70c1 0bbd
00000080: 9d01 a3bd 77de 1dbc a062 8e3d f070 373d
00000090: 3145 233d a29e 333d eaa9 8cbd d96c a93d
000000a0: ff17 873c 862d 833d d379 86bc 61b5 013c
000000b0: b3c5 6cbd 4c02 093d a01e f4bb 9e54 7d3d
000000c0: bfd0 aabd 82da 953c cf88 643d fa7d a43a
000000d0: 3bbb 65bd bd70 a1bd 1886 81bd f754 95bd
000000e0: a324 7a3d 2ed1 9e3d 27c4 1cbd ab97 dc3c
000000f0: ccc1 6d3d 0103 883d cab3 f73c c0af a63c
00000100: 99c3 913d 8adf 8dbd ed61 6f3d 42cd a0bd
00000110: 9c58 953d 396b e23c e76e 293d 32fd aa3d
00000120: 8411 8cbc d986 fabb 9826 24bd 2f48 ed3b
00000130: f665 0abd a994 80bc 6da1 a3bd a4e1 95bd
00000140: 056c 033d 78f3 aabd 8973 e53b d440 793c
00000150: 1789 1cbd 5d3d 313d fe2b 42bd d41a 4ebd
00000160: 149d ab3d c5b1 07bc c7f4 a93d d4fa a23d
00000170: 0712 623d 88c3 f5b8 db94 2dbd 5b75 5dbd
00000180: aed3 9fbd 328c fabc ef32 07bd 3f20 de3c
00000190: 72a7 23bd 77bf 103d 4b19 bbbc 147a 85bd
000001a0: 0453 9d3d d138 90bd d196 aebd 8b3c 2d3d
000001b0: ea61 02bc 2144 7ebd c7b4 413d 190c e13c
000001c0: 3c2b a23c aea1 cbba 3905 89bc 63ba 85bd
000001d0: dca6 6bbc 9fc5 683d 3a04 12bc 5e04 feba
000001e0: 5f5d 653d b340 b03d 5caa 1bbd 6765 b1bd
000001f0: 886b 8e3c 0f6a dc3b f6fe 38bc b0c4 023d
00000200: 1a8a 9b3b 6b5a 44bd 2ef7 59bd 9b61 3dbb
00000210: ecef a7bd b350 f4bc 1207 5d3d 6dba 93bd
00000220: e7b4 83bd 1957 d2bc 2b2b c9bb 15d0 82bd
00000230: 1d94 933d 72d2 13bd 954e bc3c 4f2b a7bc
00000240: b510 d2bb 19b2 14bd 8ef8 bbbd 730f 1fba
00000250: e6c6 8d3c 3d4e 443c b12d 88bd 0f81 e5bb
00000260: ca49 91bd 4d18 a6bd 1146 8fbb 5958 7f3c
00000270: d4da 463d 89b1 a2bd 094f 50bd 60f2 8bbd
00000280: b791 41bd 9f39 563d fc51 5abc b334 5dbd
00000290: 2667 9bbd 367c 56bd 663c cabc 347c 0c3d
000002a0: f675 5cbd a8da 903c bbea 843d 86cb c43c
000002b0: 882d c83c 6d32 a6bd 5363 d33b 79f1 413d
000002c0: cc2e 943d a126 8fbd 9017 a33d 97c2 863b
000002d0: d1aa 4b3d 96a7 45bd a661 5f3d 1aa9 7e3d
000002e0: 9507 babc be61 b03c b098 06bc 30aa a4bd
000002f0: 78ca 4d3c 32bf 6f3d 9925 97bd 5e61 a1bd
00000300: 0052 a33d 3247 b23d 3465 033c 0793 8ebc
00000310: d4f9 c1ba de0f 9abd 5141 79b7 ee62 ac3d
00000320: 8e00 243d b63f c93b f1d7 9a3d 11c6 813d
00000330: 3ade 773d 594f 6f3d 5b48 403d ce3d e03b
00000340: 0327 88bd 04c3 2cbd 9936 983c 1166 7b3d
00000350: ff41 bc3b 5738 0abd 6709 923d d338 fdbc
00000360: 3d48 6cbd 8ccd 3d3b 7ba1 283d 8be7 54bd
00000370: c7e2 173d 8bd0 c5bd 2b05 4c3d 9470 9c3d
00000380: 93e2 933d f250 5fbd 8f62 713d bf8f fb3c
00000390: 7c78 a6bd 78f0 09bc d0b1 863d 13dc 5dbd
000003a0: 499c bcbd 8ed9 c3bc 9483 913d eaf7 c93c
000003b0: 5854 57bc 759d a7bd 5b98 733d 2004 32bd
000003c0: b247 8e3d 3c65 a7bb 4d6a 113c 4fe8 d6bc
000003d0: dccc a9bb 9eef a73d 4112 243c ad42 133d
000003e0: 6382 913d 8ab4 5e3d f88c 673d 49ac 1d3d
000003f0: 87ee 6d3d c16a 443d 32d7 c9bd 116c 77bc

bias f4 [64]
0.003037323 0.075376086 0.00059337256 0.021539992 0.026162313 0.01328536 0.07259813 0.03685492
0.020369641 0.02368672 0.056631 0.028453607 0.00033490334 -0.026774889 -0.009174189 -0.0757275
0.021007972 0.15564343 -0.010632402 0.092211835 0.10117492 -0.0759988 0.0949652 -0.0789086
0.08491579 -0.025462428 0.09298811 0.07132197 0.039053474 0.05933961 -0.050534774 0.07212937
0.054215126 0.09003218 0.120027885 0.028848112 -0.041527048 0.06798526 0.11588794 -0.061151978
0.01163955 -0.00305309 0.06495647 0.06821315 0.013888712 0.09803198 -0.027220773 0.023095155
-0.0181779 0.043784965 0.040858366 0.04104633 0.07624282 0.14407103 -0.025070356 0.120243326
0.1072105 -0.051026337 -0.03647952 -0.082615584 0.087288015 0.059435412 -0.03243616 0.15604106
00000000: d30d 473b c75e 9a3d 8f8c 1b3a a374 b03c
00000010: 5952 d63c d7aa 593c 54ae 943d 2ff5 163d
00000020: 3cde a63c a70a c23c e8f5 673d 8a17 e93c
00000030: f795 af39 0357 dbbc 564f 16bc 0517 9bbd
00000040: e918 ac3c fe60 1f3e 8733 2ebc 8fd9 bc3d
00000050: cc34 cf3d 42a5 9bbd 1d7d c23d d59a a1bd
00000060: 54e8 ad3d 9596 d0bc 8d70 be3d 4111 923d
00000070: 89f6 1f3d 170e 733d 8dfd 4ebd 90b8 933d
00000080: ae10 5e3d cb62 b83d 2ed1 f53d e052 ec3c
00000090: 4418 2abd db3b 8b3d a856 ed3d 7f7a 7abd
000000a0: d0b3 3e3c 5a16 48bb e607 853d 56b3 8b3d
000000b0: 7b8d 633c fec4 c83d 19fe debc 0d32 bd3c
000000c0: d2e9 94bc dd57 333d 1a5b 273d 3220 283d
000000d0: 3225 9c3d 5b87 133e 5960 cdbc 2242 f63d
000000e0: 2e91 db3d fe00 51bd 8d6b 15bd 5c32 a9bd
000000f0: 0fc4 b23d 8c72 733d c7db 04bd 3ac9 1f3e

weight f4 [32, 64]
-0.124291375 -0.005730137 0.0341781 -0.08423408 0.003586267 0.012648397 -0.06727856 -0.023546495
-0.037420392 0.11383025 -0.0016328964 0.11312532 -0.031392574 -0.0744828 0.080491304 -0.034346104
0.09149095 0.059216358 -0.015687376 0.046534155 -0.01899378 0.0739283 0.032207437 -0.03493999
-0.058298927 0.061937645 -0.099597245 0.121668756 0.096701205 0.05086784 -0.08278388 0.0067480505
0.06619815 0.04441762 0.041097205 0.040442556 0.013617352 -0.012291103 -0.08597618 0.060742006
-0.12498236 0.034054186 -0.11533243 -0.12362402 -0.05211617 -0.015606415 0.04867649 0.04631053
-0.12205808 0.107964344 -0.009117633 -0.05335796 0.022115096 -0.0063430513 0.07196716 -0.0066549373
-0.06732458 -0.08763139 0.09805195 -0.015668735 -0.02270848 -0.109933004 -0.08605565 -0.008692157
0.05935523 -0.077544354 0.21096681 -0.1318101 0.12897867 -0.105393216 -0.030092118 0.025534758
0.011448482 0.0013772851 0.012086206 0.024383036 -0.10068359 0.2711048 0.008085027 0.07774529
0.0393714 0.09422224 0.119213775 0.19669588 0.021868354 -0.20513667 0.06471432 -0.0062372684
0.08686739 0.12384488 0.029220462 0.027035756 -0.049401984 0.2882905 0.065081075 -0.11611343
-0.08186868 -0.06839047 0.26209578 0.046663776 -0.07070243 0.08890354 0.04624106 -0.08632615
0.18154572 0.020898305 -0.030190844 -0.0882776 0.05937271 0.080406494 -0.041191712 0.07186497
-0.124868415 -0.15112035 -0.14546455 0.08414212 0.118907124 0.016598973 0.25166374 0.1766976
-0.0903563 0.074335515 -0.15707587 0.08830884 0.24859932 0.16740707 0.057082757 0.12822942
-0.05391021 0.008456715 0.025609352 -0.11510587 0.09744181 -0.07809909 -0.030159775 0.12516855
0.02101087 -0.038350012 -0.1410936 0.14590244 0.10281138 0.1652995 0.03088054 0.115431964
0.18031798 0.12330128 -0.0834932 0.11913973 0.09944427 -0.22852226 0.22116442 -0.114038825
0.054215893 -0.06320253 0.08470899 0.021708405 0.0074946126 0.12196251 0.14280708 -0.10633837
0.11207247 0.021949241 0.13046025 -0.090228066 0.06257594 0.04430283 -0.085179694 0.105732486
0.10489453 0.035790335 -0.05331412 0.005804404 -0.07986507 -0.116114706 0.06492084 -0.07120531
-0.053310797 -0.12770928 -0.21602131 -0.096781164 0.018548274 0.037511107 0.16583951 0.06618437
-0.09588655 -0.050903946 -0.13045366 -0.10315879 0.21470264 0.04346497 0.18088621 0.107600495
0.1146428 -0.11800639 -0.072485425 0.0530379 0.0071625886 0.045641825 -0.120028555 -0.043207597
-0.0006572902 0.03815882 -0.1046668 0.08544 -0.08637886 -0.09787538 0.05530055 0.044802994
0.032457683 -0.027719961 0.11176363 0.06992427 -0.030784562 -0.035375103 -0.057186436 -0.08004382
-0.11444456 -0.005036831 -0.0574885 -0.074972 0.081019 0.025218802 0.05210628 -0.11037235
-0.042956334 -0.027240962 0.11991139 -0.10345897 0.0941761 0.048491497 0.09046362 -0.01738973
-0.06940331 0.074082166 0.09052045 0.028807249 -0.039734915 0.116543956 0.11434671 -0.09304394
0.03465928 0.03292954 -0.09216337 0.041232407 0.102171764 0.120915815 0.008428109 -0.12365836
-0.004600346 -0.09825431 0.06600897 -0.013385057 -0.065406956 -0.08124788 0.11777953 -0.12040863
00000000: 7a8c febd e0c3 bbbb 56fe 0b3d eb82 acbd
00000010: 9307 6b3b 393b 4f3c 57c9 89bd 94e4 c0bc
00000020: 2046 19bd d61f e93d e906 d6ba 3fae e73d
00000030: 8095 00bd 708a 98bd a0d8 a43d 80ae 0cbd
00000040: 9b5f bb3d da8c 723d d082 80bc 999a 3e3d
00000050: d898 9bbc b867 973d f2eb 033d 3c1d 0fbd
00000060: dbca 6ebd 54b2 7d3d a4f9 cbbd 782d f93d
00000070: 480b c63d cc5a 503d 988a a9bd c01e dd3b
00000080: e592 873d 40ef 353d 8b55 283d 18a7 253d
00000090: 501b 5f3c 9f60 49bc 4814 b0bd 9ccc 783d
000000a0: c0f6 ffbd 677c 0b3d 6933 ecbd 972e fdbd
000000b0: c477 55bd 0db2 7fbc 0061 473d 1cb0 3d3d
000000c0: 96f9 f9bd 691c dd3d 2062 15bc e08d 5abd
000000d0: b82a b53c 5fd9 cfbb 8563 933d a911 dabb
000000e0: 78e1 89bd 1678 b3bd 76cf c83d b85b 80bc
000000f0: 2207 babc 8e24 e1bd f23d b0bd 8d69 0ebc
00000100: 781e 733d 93cf 9ebd af07 583e 3af9 06be
00000110: fc12 043e 66d8 d7bd bf83 f6bc 452e d13c
00000120: 6a92 3b3c 0586 b43a 3905 463c efbe c73c
00000130: 3333 cebd 40ce 8a3e 1077 043c ec38 9f3d
00000140: e843 213d 97f7 c03d 5a26 f43d a56a 493e
00000150: 4325 b33c 590f 52be f188 843d 0062 ccbb
00000160: 88e7 b13d 62a2 fd3d c05f ef3c 177a dd3c
00000170: bc59 4abd d09a 933e 3a49 853d e1cc edbd
00000180: c4aa a7bd 4e10 8cbd 6b31 863e 8422 3f3d
00000190: 70cc 90bd 0f13 b63d 4467 3d3d c4cb b0bd
000001a0: 1fe7 393e ec32 ab3c ca52 f7bc e3ca b4bd
000001b0: cc30 733d 29ac a43d a4b8 28bd f12d 933d
000001c0: 03bb ffbd 4bbf 1abe a9f4 14be b452 ac3d
000001d0: 9485 f33d 92fa 873c 12da 803e 37f0 343e
000001e0: b90c b9bd 383d 983d 7fd8 20be 44db b43d
000001f0: d290 7e3e c26c 2b3e 9ccf 693d 934e 033e
00000200: f4d0 5cbd 098e 0a3c b4ca d13c a0bc ebbd
00000210: 928f c73d 6af2 9fbd a211 f7bc 2f2c 003e
00000220: fd1e ac3c e714 1dbd d77a 10be 7367 153e
00000230: c68e d23d 4644 293e 30f9 fc3c 9867 ec3d
00000240: 47a5 383e 6285 fc3d 7cfe aabd 88ff f33d
00000250: 70a9 cb3d bd01 6abe ed78 623e 308d e9bd
00000260: 7c11 5e3d 5470 81bd e87b ad3d d3d5 b13c
00000270: 5e95 f53b 7bc7 f93d 053c 123e eec7 d9bd
00000280: 4086 e53d e5ce b33c 5f97 053e 7ec9 b8bd
00000290: d027 803d e276 353d b172 aebd 468a d83d
000002a0: f1d2 d63d e398 123d e85f 5abd df32 be3b
000002b0: 4c90 a3bd 8ccd edbd 38f5 843d 17d4 91bd
000002c0: 6c5c 5abd 39c6 02be b134 5dbe 3435 c6bd
000002d0: 8df2 973c 3fa5 193d d5d1 293e ac8b 873d
000002e0: 2b60 c4bd a880 50bd a595 05be ea44 d3bd
000002f0: 02db 5b3e 5308 323d 3c3a 393e a65d dc3d
00000300: d8c9 ea3d 56ad f1bd 3d73 94bd 453e 593d
00000310: 26b4 ea3b ecf2 3a3d 88d1 f5bd 73fa 30bd
00000320: 004e 2cba 6c4c 1c3d 8c5b d6bd 2bfb ae3d
00000330: 66e7 b0bd e372 c8bd d482 623d 5883 373d
00000340: 59f2 043d f914 e3bc 54e4 e43d 7534 8f3d
00000350: e82f fcbc 7ce5 10bd 533c 6abd 04ee a3bd
00000360: e961 eabd 000c a5bb 1079 6bbd ec8a 99bd
00000370: 4aed a53d a997 ce3c 656d 553d e60a e2bd
00000380: fbf2 2fbd 7028 dfbc 1a94 f53d 4ce2 d3bd
00000390: 66df c03d 059f 463d fe44 b93d e874 8ebc
000003a0: 5323 8ebd 64b8 973d c962 b93d 2efd eb3c
000003b0: 14c1 22bd 99ae ee3d 9c2e ea3d d28d bebd
000003c0: e4f6 0d3d 20e1 063d 26c0 bcbd 50e3 283d
000003d0: 6e3f d13d b6a2 f73d 0d16 0a3c 9840 fdbd
000003e0: 80be 96bb 8e39 c9bd b62f 873d 004d 5bbc
000003f0: 15f4 85bd 4a65 a6bd 6536 f13d cd98 f6bd

bias f4 [32]
-0.06526103 -0.01973724 0.07782842 -0.027238522 -0.029937593 0.07030481 -0.001874744 0.086800754
-0.028594539 -0.08130955 0.033459507 0.11597469 -0.09121339 -0.11504159 0.10711329 -0.09422386
0.05225572 0.08920399 0.10689815 -0.059802312 0.012790834 0.06297966 0.012090832 0.05381619
0.03577488 0.12894955 0.045111563 0.038709965 0.16360489 0.05857204 0.15300667 -0.096540816
00000000: 93a7 85bd feaf a1bc 8264 9f3d 5223 dfbc
00000010: af3f f5bc f8fb 8f3d f8b9 f5ba 98c4 b13d
00000020: 183f eabc 9f85 a6bd d60c 093d 2384 ed3d
00000030: 16ce babd ed9a ebbd 365e db3d 70f8 c0bd
00000040: 180a 563d 95b0 b63d 6bed da3d 45f3 74bd
00000050: a590 513c 7bfb 803d a018 463c 5e6e 5c3d
00000060: ae88 123d 5a0b 043e e7c6 383d 578e 1e3d
00000070: 0a88 273e 3ce9 6f3d c8ad 1c3e 31b7 c5bd

weight f4 [2, 32]
-0.03248684 0.115506984 -0.16133815 0.22792459 0.0018692549 -0.06357235 0.19112556 -0.14584029
0.23424393 0.1069641 -0.09762632 0.023234084 -0.1287407 -0.06187022 -0.109741546 -0.11918955
0.12842534 0.19836402 -0.084594354 -0.03415874 0.24861279 0.17225854 0.24267067 0.01775411
-0.008445862 0.21127927 -0.040024236 0.03419023 -0.079590306 0.077728 0.12396264 0.15136419
0.20485659 0.13042647 -0.008731444 -0.23447324 0.03955981 0.029558722 -0.13783215 0.057508625
0.009313264 0.11196091 -0.05340731 0.17857389 -0.026856024 -0.074500866 -0.09180867 -0.10415704
0.13840649 -0.16967067 -0.11468413 -0.050076984 -0.11631181 -0.083617575 0.07903597 -0.23920114
-0.0913603 -0.21717814 0.058716267 -0.3372475 0.11868303 -0.16763917 0.0780371 -0.10634645
00000000: ec10 05bd ed8e ec3d d435 25be 1065 693e
00000010: c901 f53a 3832 82bd 6bb6 433e 2857 15be
00000020: a4dd 6f3e fe0f db3d 4ff0 c7bd 6855 be3c
00000030: 9ad4 03be a16b 7dbd 2dc0 e0bd a719 f4bd
00000040: ef81 033e f01f 4b3e ce3f adbd 09ea 0bbd
00000050: 5a94 7e3e 8b64 303e a97e 783e 1171 913c
00000060: 8360 0abc 9859 583e 74f0 23bd 0e0b 0c3d
00000070: 3e00 a3bd dc2f 9f3d 20e0 fd3d 37ff 1a3e
00000080: edc5 513e 848e 053e 550e 0fbc c119 70be
00000090: 7809 223d 2225 f23c df23 0dbe 2a8e 6b3d
000000a0: a996 183c c34b e53d a0c1 5abd 13dc 363e
000000b0: 2a01 dcbc e993 98bd 2f06 bcbd 4950 d5bd
000000c0: 6eba 0d3e 26be 2dbe 83df eabd 861d 4dbd
000000d0: e334 eebd b13f abbd 9cdd a13d 25f1 74be
000000e0: 1c1b bbbd f263 5ebe 7880 703d b4ab acbe
000000f0: 1710 f33d 9aa9 2bbe ead1 9f3d 2bcc d9bd

bias f4 [2]
-0.04871567 0.008134322
00000000: 158a 47bd d245 053c
