2023/baseline0806/model/WLTP_trained_0822/PPO_actorcritic_97episode.pt (torch, 101527 bytes, 17 tensors)

weight f4 [128, 7]
00000000: 3e70 77be 75a4 cdbe 84db 913e c7b8 f8be
00000010: 3efe 54be 26e7 cc3e 40f8 bb3e 1ece 25bd
00000020: acb0 39be 07fb ad3d 21fc 8ebe 931b 0cbe
00000030: ee79 b9be b661 9abe 8fd5 b83d 8f98 3abe
00000040: 966d 18be 0085 313b 50cd a93e 8d16 c73e
00000050: e1d7 8f3d 9014 a0be e0a0 98be 3700 61be
00000060: 4c38 22be eae6 2dbe 82ca 8d3e 78cc cb3e
00000070: dd4b bf3d 74e7 3bbe 38d9 c4be 70c3 a83d
00000080: 22e6 743d 8f16 333e 0808 d5bc 0fe2 30bd
00000090: ccf7 d0bd e42d 46be dce8 f1bd a17b 723e
000000a0: f42c 1c3e c4b1 ab3e 94a8 adbe 0ce3 81be
000000b0: 9a09 adbe f485 423c 7550 8dbe c160 15be
000000c0: 7bc1 9abb 01a9 b63d ee20 ccbe 2134 a43e
000000d0: a5cb 693e fa45 7f3e 398a c3be 80b5 57bd
000000e0: 09c3 ec3e ddb3 54bd cf7b 71be 7b00 05bd
000000f0: 4510 0b3f c356 76be c4b7 233d ac65 a53e
00000100: 41f3 88be 9b0d adbe 6c5e e2be a5ec 18be
00000110: 987f b73e 10a1 9d3e 53b0 913e 3407 483e
00000120: 4355 9b3d c05c 983d af4d a4be b20d 093d
00000130: 3bff 3a3d 783c 9bbc 7c07 b23e 3c93 0a3e
00000140: 7dde 2bbe 3f80 4f3e 7f29 79bd 22fb f2bd
00000150: eb7e 91be bde2 b9be 99b4 8f3e 252d dcbe
00000160: 8641 813e f572 13be d5d9 563e 8480 813e
00000170: bd3b 0d3e d842 8d3e 9ed0 15bc 2c2c 38be
00000180: 8425 28be e857 a1be c529 71bb 702b 073d
00000190: 0f77 cd3d 55c4 d73c 9ae0 d9bd 0a95 2a3e
000001a0: 20a0 6bbe 62a5 4f3e a290 84be 47f6 0bbc
000001b0: 14ed 343e 73c8 27bd a4a9 983e a917 7dbe
000001c0: 6263 49be 197e b3be f5cd 64be a196 8d3e
000001d0: 0db6 cd3d 095d 01be 60a1 173d eb77 0bbe
000001e0: f122 083f 3a6f a2bd e1a4 f33e a1ac 97be
000001f0: 98c2 03be 2c52 41be 0156 b93e 2bfc 11be
00000200: ec64 903d 5fb0 c0be c35d 9bbe 46a6 86be
00000210: 910e 83be 436b 14be a449 94be c69b 80bd
00000220: 286d 63be 38bf a73d a772 aabd 9a44 8abd
00000230: 04a6 a83e f7af 64be 4a2a 093e 4544 40bd
00000240: 24e2 013d 2a31 b23e 4ad1 a53e 09f1 bdbd
00000250: f9bf 523c 9def a1bd 731a f3bd ccde 453c
00000260: bfc8 53be f2f8 913d 5037 babe 85fd 3abd
00000270: 811e 6b3e 21f6 52be 9675 f93b 365f 1fbe
00000280: bc1c 7a3e da99 8e3e 7e82 4fbe 04e9 5a3e
00000290: 1595 163e 736b 653d bbb6 b33e a3fa cc3e
000002a0: 46b5 bd3e 8847 abbe d21e ae3d 76af d1be
000002b0: b201 ac3e 95bc cbbd fafb 943e c5d3 643d
000002c0: 0d46 333d 2020 b3be c95e d8bd 9023 21bd
000002d0: 5d38 223e fa3b 3fbe e0a6 6a3e 2ecc edbe
000002e0: d2e5 983e 34e7 abbe 001e 17be af4e 803e
000002f0: f626 293e 341e 9d3e e046 88bc acd7 2a3e
00000300: 3a07 f83d 5353 8f3e 49e4 11be 6a09 8c3e
00000310: 9f5b 163d ae23 cd3e 304d 79bc 479d a33e
00000320: ba2b 58be c811 57bd 0b8e 733e cfc1 9d3e
00000330: 4176 86bd a3e4 273e 1018 94be 81a5 2d3e
00000340: ab06 ca3e 548a 473e 21a1 f4bd 724b a5be
00000350: cb54 95bd 3410 613b 9f16 7bbe 7232 713e
00000360: 2c50 923e ac8e 293e acdd 82be 113d 133e
00000370: b92a 4abe 470e 873e dbca b63e d9a4 743e
00000380: 9989 963d 5735 a8be cde8 cebd 89c3 713e
00000390: 29f2 a23e 923f 35be c911 fbbc fc24 523e
000003a0: e56b 89bb ee73 a73d c348 823e 90d8 423e
000003b0: fc1d 78be fd70 a03e 80f5 053e 6a56 91be
000003c0: ec7f fdbd c3b4 4fbe 2ebb a93e b8aa 46be
000003d0: 9c9a 463d 6606 f93d c34c f53d b32a 703e
000003e0: 70fd 8cbd 8f20 483d 0024 7bbe fa9c 943e
000003f0: cb9e 57be 5d28 903e ae87 533d 38d0 903e
-0.24163911 -0.40164533 0.2848779 -0.48578474 -0.2080011 0.40020102 0.36712837 -0.04047977
-0.18133801 0.08495145 -0.27926734 -0.13682394 -0.36225837 -0.30152673 0.09025108 -0.18222259
-0.14885554 0.002708733 0.33164454 0.38884392 0.070235975 -0.31265688 -0.29810238 -0.21972738
-0.15841788 -0.16982618 0.27693564 0.39804435 0.09340642 -0.18350011 -0.38446975 0.08240402
0.059789784 0.17489074 -0.026004806 -0.043184336 -0.102035135 -0.19353443 -0.118119925 0.23679973
0.15251523 0.33534062 -0.33917677 -0.25368536 -0.33796388 0.011872757 -0.27600446 -0.1458769
-0.0047227717 0.08918954 -0.39868873 0.3207102 0.2283159 0.24929038 -0.38191393 -0.052663326
0.4624255 -0.051929343 -0.23582385 -0.03247116 0.543217 -0.24056534 0.039970174 0.32304132
-0.26748088 -0.33799443 -0.44212663 -0.14934023 0.35839534 0.30786943 0.28454837 0.19533998
0.07584622 0.07439566 -0.32090518 0.033460326 0.045653563 -0.018949732 0.34771335 0.13532728
-0.16784091 0.20263766 -0.06083059 -0.11864306 -0.28417143 -0.363058 0.28067473 -0.43003193
0.25245303 -0.14399321 0.20981534 0.25293362 0.1379232 0.2759006 -0.0091439765 -0.179856
-0.16420561 -0.3151238 -0.0036798578 0.03300041 0.10032474 0.026338736 -0.106385425 0.16658416
-0.23010302 0.20277932 -0.25891596 -0.008542604 0.17668563 -0.040962648 0.29816926 -0.24716057
-0.19666818 -0.35057142 -0.22344191 0.27653983 0.10044489 -0.12633146 0.037019134 -0.13619964
0.53178316 -0.07931371 0.4758673 -0.29623893 -0.128672 -0.18879002 0.36198428 -0.1425635
0.07050499 -0.3763456 -0.30344972 -0.26298732 -0.2559705 -0.14494042 -0.28962433 -0.062797114
-0.22209609 0.08190769 -0.083226494 -0.06751366 0.3293916 -0.2233275 0.13395038 -0.046940107
0.031709805 0.34803134 0.32386237 -0.092744894 0.012863153 -0.07907031 -0.11870279 0.012077045
-0.20682047 0.07127561 -0.36370325 -0.04565193 0.22960855 -0.20601703 0.0076128943 -0.15563664
0.24425024 0.27851754 -0.20264623 0.21377951 0.14705308 0.056010675 0.3510035 0.4003497
0.37052363 -0.33453012 0.08501972 -0.4095418 0.33595043 -0.099480785 0.29098493 0.05586602
0.043767978 -0.34985447 -0.10564954 -0.039340556 0.15841813 -0.18675223 0.2291522 -0.4644484
0.2986284 -0.3357483 -0.14757538 0.2506003 0.16518769 0.30687106 -0.016635358 0.16683835
0.12110753 0.2799326 -0.1424724 0.27350932 0.03670847 0.40066284 -0.015216157 0.3195593
-0.2111043 -0.052507192 0.23784654 0.30811927 -0.06565524 0.16395812 -0.28924608 0.16957666
0.39458212 0.19486362 -0.119447954 -0.32284123 -0.072915636 0.0034341933 -0.24520348 0.235544
0.2857679 0.16558331 -0.25559747 0.14378764 -0.1974286 0.2637808 0.3570164 0.2389101
0.073504634 -0.32853195 -0.10102997 0.23609747 0.3182538 -0.17700031 -0.030648129 0.20521921
-0.0041937702 0.08176409 0.25446138 0.19027925 -0.24230188 0.31336203 0.13081932 -0.2838624
-0.12377915 -0.20283799 0.3315062 -0.19401062 0.04848729 0.121594235 0.11977532 0.23453788
-0.06884277 0.048859175 -0.24525452 0.29026014 -0.21056668 0.28155795 0.051643066 0.28283858

bias f4 [128]
00000000: 310c 32be f048 74be 45a9 393e 85b7 ca3e
00000010: 38ac 223d c689 0ebe 23db d1bd 1203 963d
00000020: a21c b93c a6ea bf3e 0a6c 8d3e de7c 283d
00000030: 519e 983d 6d18 433e 3b64 a53d 8025 17be
00000040: 5c69 4cbe a24b 4d3e 6cfe ae3e a53a 4a3e
00000050: 01b3 a9bd 7ef2 9abe 987a 403e aa94 4fbe
00000060: 1920 a8bd 020c 91be 21c7 cabd de48 4f3d
00000070: 81fd 8bbe bc9c a8be 3a25 893e fdb2 81bc
00000080: 3095 903e efb9 303d b4d1 903e ade6 84be
00000090: 303c 94be 5ef7 cfbd a585 5cbe e97e 8cbd
000000a0: 7f26 f0bd 2765 cdbe 8aeb bfbc 9caa 8fbd
000000b0: a246 92be e1a3 3fbd e561 88be 1e4f 643e
000000c0: 380c 82be df3c b5bd 33fa 4b3e ab6d b73e
000000d0: cede 583b 90e5 a3be 7b70 14be 1b47 463e
000000e0: 51d7 8c3e 18e0 533e 8bce 8cbd 4c82 b3be
000000f0: f242 aabe 1c0c 3a3e 4d79 37bc f261 813e
00000100: ae87 8f3e 6cd3 46be 4ff3 b5be cafb 6bbe
00000110: fcf4 b63e 34dc 9e3d 5c89 cc3d 24d0 16bd
00000120: acdb 83be a78c 903e 0892 7f3d 0cc8 7ebd
00000130: bfae 083e cef0 8b3e 14a8 c6bd 5f76 883e
00000140: e6ef 8c3e af88 8c3e 5cf1 203e 6b32 84be
00000150: 66fd 2ebe 176d 0cbe 3cc4 9bbe 1949 65be
00000160: 5fa5 acbe 195f 21be c119 b53e 42a2 813e
00000170: e9c1 a63e 3778 c93e cd0f a03d be00 99be
00000180: d832 083e 5e7b 7e3e 4728 213e 876f a7be
00000190: 34dc be3e 8ccb 853e 66c7 2e3e 351f ac3e
000001a0: 689f 55be a0fc e83b acf0 883d 77dc 12be
000001b0: 2a61 1cbe 106e bd3d 6730 143d bd75 80be
000001c0: 64eb acbe 0701 cf3c 752c 923e ceb7 8d3b
000001d0: 0e27 2bbe 890d 4e3e 19bf 793e 699c 1bbe
000001e0: 0993 6f3e 5cf2 aa3c 1777 1bbe a379 7c3e
000001f0: 07cf 303e e6b1 64be 45b5 973e f4a9 ffbc
-0.17387463 -0.23855948 0.18130977 0.3959314 0.03971502 -0.13919744 -0.10246875 0.07324804
0.022596661 0.3748371 0.2762149 0.041134708 0.074520715 0.19052286 0.08075758 -0.14760399
-0.19962066 0.20048383 0.34178483 0.19748934 -0.082860954 -0.30263132 0.18796766 -0.20271555
-0.08209247 -0.28329474 -0.09901262 0.0506066 -0.27341846 -0.3293208 0.26786214 -0.015832419
0.2823882 0.04314607 0.2828499 -0.25957242 -0.2895217 -0.101546034 -0.21535356 -0.06860144
-0.117260925 -0.40116236 -0.023427743 -0.07014963 -0.28569514 -0.046787146 -0.26637188 0.22295806
-0.25399947 -0.08849501 0.19919662 0.35825858 0.0033091786 -0.3201108 -0.14496033 0.19363062
0.27508023 0.20690954 -0.068753324 -0.35060346 -0.332542 0.18168682 -0.011198354 0.2527004
0.28033203 -0.19416589 -0.35537192 -0.23045269 0.35733783 0.07756844 0.09987137 -0.036819592
-0.25753534 0.2823231 0.062395126 -0.0622025 0.1334791 0.27332157 -0.09700027 0.2665281
0.27526778 0.2744803 0.15717071 -0.25819716 -0.17088851 -0.1371349 -0.30423152 -0.22391166
-0.33719918 -0.15758933 0.3537121 0.25319105 0.32569817 0.3934953 0.07815514 -0.2988338
0.13300645 0.24851748 0.15738021 -0.32702276 0.37277377 0.26131856 0.17068252 0.3361756
-0.2086159 0.0071101934 0.066865295 -0.14341913 -0.1527144 0.092495084 0.036178973 -0.25089827
-0.3377334 0.025269045 0.28549543 0.0043248897 -0.16714117 0.20122351 0.24389304 -0.15196384
0.23395933 0.02086752 -0.15182148 0.24655776 0.17266475 -0.22333488 0.29630485 -0.03120897

weight f4 [64, 128]
00000000: fef1 e2bc fdf6 ac3d 9ae1 0d3b 6962 3f3d
00000010: e7fe 783d 7f63 73bd 813d ae3d be79 c4bc
00000020: d5e8 a2bd 3d83 6dbd 1b1c 4a3c 6664 b43d
00000030: 5474 b3bc 9e49 b33c 742a a5bd 09d1 873c
00000040: 7087 5e3c 9d18 93bd bba4 e8bc 8a06 0bbd
00000050: 4479 16bd 3571 893d 2474 03bc 5896 60bd
00000060: 8838 bc3c f271 283d bbe9 093d 90ad fa3b
00000070: 88cb 29bc d8c4 88bd 9d64 6dbd 8cc4 6d3d
00000080: ed73 9e3d 4242 eebc a70b 2fbb 69c5 82bd
00000090: 40cb 3dbb a050 a0bd 1016 b13d d53e c83c
000000a0: 2422 cabc 153b 9d3c aa78 783d cb75 ae3c
000000b0: 76c3 a93d 984f 13bd b6c9 55bc 84db 9bbd
000000c0: 7bb4 9a3d a6d4 9ebd bbb6 44ba 97b9 6cbd
000000d0: 5afd 1abd 59d6 713d 3ce3 d9bc 6352 9f3d
000000e0: 3c65 1a3d 4cc6 7bbd 6353 edbc 3b73 6dbd
000000f0: d849 90bd 845c a9bb 97a9 6fbd 074e 86bd
00000100: d2df 37bd 1fe0 aa3d 65a6 993d b738 583d
00000110: 72c8 2a3d 33ca 203d 1250 15bb 4ac0 8c3d
00000120: cbf5 643d 5286 543d 4938 733c 03db adbd
00000130: 9ba2 82bd 3f73 9a3c 7f84 92bd f089 86bd
00000140: 52fc 103d dcd1 30bd 653d 89bd 8c7f ebbc
00000150: 56e8 96bb 1426 cdbc eb99 22bd 8d1a 7a3d
00000160: 0183 f23c 7674 aa3d c0bb 0fbd 0ca5 ac3c
00000170: a0d4 0ebd cf11 9f3d da02 353d 3203 aabc
00000180: d3b4 ef3c 3ad5 b33c 5d5e 16bb c48f 52bd
00000190: e093 b53b 8d6f de3c 21a7 bcbb d0e7 003d
000001a0: 9688 413d e70c 6e3d fa9c 8fbc 5f4f 8bbc
000001b0: 044b 4f3d f2ca 90bd c3bd a73d f7f9 c53c
000001c0: a44f c53c 0d7e 033d aac2 61bd 5a30 96bd
000001d0: 52ce 37bd e8cb 9d3c fd42 953a 4920 52bd
000001e0: a92d 03bd 4de0 8e3d 5e71 333c 6950 70bc
000001f0: e04e 13bd 1677 5ebd 98b5 93bd dbf3 6b3d
00000200: 61cc 583d 194e ab3d a5a6 78bd 4446 b5bc
00000210: f826 14bd 6151 093b 1cd9 47bd 6eda b53c
00000220: 7897 363b 7eb0 243d bdb8 94bc 8d1f 27bd
00000230: 54e1 3cbc 9321 1ebd ad60 d6bb f92e 8cbc
00000240: a1b7 2a3d dcc1 193d 0872 82bd b637 de3c
00000250: 6510 973d 77b9 b13d e3da 99bc a834 fb3c
00000260: 75d5 61bd 9a33 773d 9e3a a93b 004c 493d
00000270: e430 7e3d d17b 3bbd 69f6 843d 9313 003d
00000280: 1512 2abd 7ea3 93bd 7207 053d b3b1 5c3d
00000290: 5704 9f3d 9c3d a63d adb2 743d 98ac dcbc
000002a0: 29df ecbc 3cd3 31bd da0d b3bc da89 7d3d
000002b0: f0be ab3d 8d5b 6bbc f77e ccba 1e94 bdbc
000002c0: 6db7 95bd c5f3 5abd fc09 9c3d b2eb 1fbd
000002d0: 2796 e13c ff7d d73c 1475 90bd 8923 23bd
000002e0: fde5 74bd 1f85 ddba 82c0 ec3c a8b2 6b3d
000002f0: 0c38 5b3d 8afb 87bd 7b8d 003d c92e 5e3d
00000300: d747 ff3c 1c03 a33d 5e80 34bd 389f adbd
00000310: e1b8 88bd 2332 8b3c ad5b a43d 953c 2e3d
00000320: 3ca7 97bc ae71 39bd 5277 3e3d 4f72 263d
00000330: 003a 853d b0aa 9ebd 6f0d 3dbd 27d9 d63c
00000340: bcec f4bb 6045 263d ea16 e7bc 4a3f 94bd
00000350: a83a 9f3d 64d2 883b 8f7c c2bc 7ad9 b0bd
00000360: d075 883d c49c 093a 1514 babb 8430 97bd
00000370: 6439 1abd 422b 9cbd 22b5 2fbc c18a 493b
00000380: 0e91 af3c 6139 693d 08ad 5d3c 4028 a7bd
00000390: 4f9c 25bd 7c12 6bbc 414b 99bd 049e a03d
000003a0: 4c9c d6bc 6a16 43bd 2026 12bc 6313 44bd
000003b0: 71a1 4c3c 4b33 593d ef89 9ebd 2e25 7a3d
000003c0: 3a8f b13d c88a 483c dfe5 163d da68 96bd
000003d0: fab9 00bd b9d2 b23d fb9a 143b 5e04 343d
000003e0: b7d4 7cbd 83ee 62bd a4a0 273d f0bf b0bb
000003f0: e7a0 1a3d ec74 ac3d ab1a 7b3d 2007 2b3d
-0.027703281 0.08445547 0.0021649362 0.04672471 0.06078997 -0.05942106 0.08507825 -0.023983832
-0.079545654 -0.057986487 0.012335802 0.08808212 -0.021906056 0.02188569 -0.08064738 0.016579168
0.0135820955 -0.07182429 -0.028398862 -0.033941783 -0.03673674 0.06711046 -0.008023296 -0.05483088
0.022976175 0.04112429 0.03367017 0.007650085 -0.010363467 -0.0667817 -0.05795728 0.05804877
0.07736955 -0.029084329 -0.0026709826 -0.06385309 -0.0028960258 -0.07827878 0.08646786 0.024444023
-0.024674483 0.019193212 0.06066195 0.021296402 0.08289234 -0.03596458 -0.01304858 -0.07610229
0.07553955 -0.07755403 -0.00075040356 -0.05779418 -0.03783927 0.05904231 -0.026597612 0.07779386
0.0376942 -0.061468408 -0.028970426 -0.05797122 -0.070453346 -0.0051684994 -0.058511343 -0.06557851
-0.044891186 0.08343529 0.0750244 0.052788462 0.041695066 0.039255332 -0.0022783321 0.06872614
0.05589847 0.05188591 0.014844962 -0.08489039 -0.06378671 0.018853782 -0.07154178 -0.06569278
0.03539688 -0.043168887 -0.06701163 -0.028747343 -0.0046053333 -0.025042571 -0.03969757 0.061060477
0.029603483 0.083229944 -0.03509116 0.021074794 -0.034870744 0.077670686 0.044192173 -0.020753477
0.029261028 0.02195226 -0.0022944428 -0.051406637 0.0055413097 0.027152801 -0.005757228 0.031471074
0.0472494 0.058117773 -0.017530907 -0.01700562 0.05060865 -0.07069959 0.08190491 0.024167044
0.024085827 0.032102633 -0.055117287 -0.07333441 -0.044874497 0.01926227 0.0011387762 -0.05130032
-0.032025967 0.06976376 0.010952322 -0.014667609 -0.035963893 -0.054312788 -0.07212371 0.057605606
0.052929286 0.08364505 -0.0607058 -0.022128232 -0.036169976 0.0020953047 -0.048791036 0.022198882
0.0027861279 0.04020738 -0.018154496 -0.040801574 -0.011528332 -0.038606238 -0.0065422864 -0.017112242
0.04167903 0.037538394 -0.06369406 0.027126174 0.07376174 0.08677953 -0.018781131 0.030664757
-0.05513521 0.060351945 0.0051644584 0.049144745 0.062058344 -0.045772377 0.064923115 0.031268667
-0.04152115 -0.07208918 0.032477804 0.053880405 0.077645 0.0811722 0.05974071 -0.026937768
-0.028915005 -0.04341434 -0.02185719 0.061899044 0.08386028 -0.014365089 -0.0015601803 -0.023141917
-0.07310376 -0.053455133 0.07619092 -0.039043136 0.027537419 0.026305197 -0.07053581 -0.03982881
-0.059789646 -0.0016900635 0.028900389 0.057543427 0.053520247 -0.06639774 0.031384926 0.054243837
0.031162186 0.079595774 -0.044067733 -0.08477634 -0.06675888 0.01699168 0.08025298 0.042538244
-0.01851236 -0.04527443 0.04650051 0.040636357 0.06505203 -0.077474 -0.04615539 0.026226593
-0.00747451 0.040593505 -0.028209168 -0.07238634 0.0777486 0.004175471 -0.023741035 -0.0863523
0.06663096 0.0005249495 -0.0056786635 -0.073823005 -0.03765239 -0.07625438 -0.010724338 0.003075287
0.021431472 0.056939486 0.013530023 -0.08161974 -0.04043227 -0.014347669 -0.07485057 0.07842639
-0.026197575 -0.047628798 -0.0089202225 -0.04787005 0.0124896625 0.053027432 -0.077411525 0.061070614
0.086698964 0.012240119 0.036840316 -0.073442176 -0.03142736 0.087315984 0.0022675383 0.043949477
-0.0617263 -0.055403244 0.040924683 -0.0053939745 0.037751105 0.084207386 0.06130473 0.04175484

bias f4 [64]
00000000: c64f 94bd 3b52 cebc 516b 883d 426e 913d
00000010: 1cdd e33c 04ae 523d aed9 2c3d 874e b63d
00000020: b031 53bc b760 15bd 6c52 013d 946e bbbb
00000030: 63d7 843d cc81 fd3c 4f71 9a3d 7202 973b
00000040: 2b53 b83c 646c ae3c 0495 2d3d aff1 ad3b
00000050: b8c5 bf3d 56fd 95ba f174 8cbb 9cfe e8bb
00000060: 4ed9 8abc a40b 34bd e73e 55bd 5807 0fbd
00000070: f00b 173d 7b97 28bd 4fcc 1a3d 072a e6bc
00000080: 1cc1 523d 622f 463d dc29 043d 32c6 a0bc
00000090: b7a5 7b3d b8b8 b0bd 710b 413d 09ac b3bd
000000a0: ecb8 f1bc 588d 4b3d c84e 5d3d dd31 aebd
000000b0: 2b51 e33d 5551 bd3c f905 093d 739d c13d
000000c0: 783c 26bd 01b5 7c3d e224 fbbc 0ec5 863d
000000d0: 4d2e 333d 667c 8ebd 372d 4ebc 5f6e d13d
000000e0: 3e11 6f3d 14ca fd3d 1e85 163d 81de 84bd
000000f0: a2a0 983c 8243 2cbd 61a7 5f3c 8271 fe3d
-0.07241778 -0.025185695 0.06661094 0.07101108 0.027815394 0.051435485 0.042199783 0.08901697
-0.012890264 -0.036469188 0.031572744 -0.005719969 0.06486394 0.030945681 0.07541143 0.004608446
0.022500595 0.021291919 0.04237844 0.005308352 0.09363884 -0.0011443298 -0.0042864014 -0.00711043
-0.016949322 -0.043956414 -0.05206194 -0.034919113 0.03687662 -0.041160088 0.0377925 -0.028096212
0.051453695 0.04838503 0.032266483 -0.019625757 0.061437335 -0.08628982 0.047130052 -0.087730475
-0.029507123 0.049695343 0.05403021 -0.085056044 0.11099466 0.023110071 0.03345296 0.09453859
-0.04058501 0.061696056 -0.030657236 0.06580554 0.043745328 -0.06957321 -0.012584022 0.1022613
0.058366053 0.12392059 0.036748044 -0.06487752 0.018631283 -0.042056568 0.013650746 0.12423994

weight f4 [32, 64]
00000000: 9039 3f3d 9c4a b7bd a988 0f3e 24a8 fdbb
00000010: b8c2 47bd e108 ba3d 8515 f83d a700 ffbc
00000020: 4313 ec3d bf92 f53c df86 003e 41a6 f33d
00000030: a067 b63d 6f06 063e 3f01 83bd 64f9 bb3d
00000040: fedd 80bd a9dd 8dbd 785c 6f3d da69 fdbd
00000050: 4d4c c6bd 65eb eebd d971 c2bd 4f8e 8b3d
00000060: 1cac 03be 321e 163d 9750 c93d 7fff 003e
00000070: 9d80 5dbe af99 d93d 6c61 9c3d d3bc 9a3d
00000080: 290b 0b3c 6066 083e 6a99 cbbd 1bf4 4cbd
00000090: 465b aabd c03c 24bb fb5f 003d 34ae 31bd
000000a0: 153e 05bc 7e06 893d 092e 0ebd 4c40 7fbd
000000b0: 8750 89bd be06 b3bc c1a6 893d b955 bc3d
000000c0: b0f9 fd3a 24de 24bd f14b c1bd 6742 c1bd
000000d0: 9ee4 c4bd d059 11bc 7142 593d b7f9 b43c
000000e0: 7592 9d3d a0cb 3ebd 2af2 a5bd 674f 2dbc
000000f0: 7e9d 8abd 20b4 ab3d 5fdd fc3d 8e9f 9d3d
00000100: c047 6cbc d9cb 95bc a8c0 c13d 3863 1c3e
00000110: 9f73 8aba 8d32 b0bd 57d3 2e3d 8a0e 38be
00000120: c11c f83c 01b3 ad3d cbb4 60bd 23ea e1bc
00000130: cb4b 8c3d 68ca 603d f172 dbbd 232f 053d
00000140: 51d8 32be c4e2 ddbd f010 e2bc b013 f93d
00000150: fa7e 223e 2e9c 3fbd cf01 8b3d 9a9f b93c
00000160: 728b 07be 46c4 3fbd 8222 b2bc 454f 1e3d
00000170: 5b2e 0f3e 5542 883d 371a 4cbb f10b d83d
00000180: 9264 b83d cfe3 6d3d 2a2f b7bd 4807 503d
00000190: f1da c13d f433 23bd aedb a93d 82dc 6fbd
000001a0: 60af d03c 7ad0 bd3d 0a7e 9bbd 9811 a63c
000001b0: 8c5d cfbd 78de e23d e157 85bc b41a 253d
000001c0: 6554 113e 8f7f 293c 8bb5 6abd f642 623d
000001d0: fdbf acbd f274 4e3d 2940 80bb 5038 1dbc
000001e0: d4e4 98be d22f 9cbe a8d6 043e 3ca7 753d
000001f0: c378 193d e02e ef3c b853 8ebd a2b4 023e
00000200: 923b cb3d 68eb c43c 5282 93bd 4daf d6bd
00000210: 0e5e c23d 2d8c 9bbd 7663 aa3c d2c1 c2bd
00000220: 768e ddbd cb59 39bd 6076 e9bd c412 eebd
00000230: aaf2 9ebd 26fb 8d3d dc7a 2bbd 7c16 563d
00000240: 40ed 3ebc 1a76 d8bd 16af ae3d 145f b43d
00000250: 8c74 f93b 9413 f9bd d8e5 3abd 3f05 59bd
00000260: 1241 cf3d c112 633d aa31 4b3d 7828 ac3d
00000270: 8966 de3d 1cd3 06bd c0fa 8e3d 7c7d bd3d
00000280: d073 fd3c c794 003d 53af c4bd 60e0 663d
00000290: 802b f43c 78a2 f13d 789c e0bc aa71 173d
000002a0: 599f a2bd 4d95 e0bd b48d 33bd 441c b63d
000002b0: c017 c23d 462c a93d da62 893d 0f69 af3c
000002c0: ca0f a8bd d02e 66bc d8b2 1c3d 9d16 fcbb
000002d0: 0a26 4cbd 988e 793d e0bb 2d3c c2fb 7f3d
000002e0: 380d 91bc d600 b8bd 1728 c33d 58c9 17bd
000002f0: 485d d9bd 0c33 d6bd 6a06 c4bd 8717 aabd
00000300: 4872 c3bd c300 e3bd 29c1 f23c 28c1 3c3e
00000310: aed3 093e 0fee 303e d7df e9bd c23f 03bb
00000320: b0f2 143e fc04 123d 2c5e 323e eda2 eb3b
00000330: 289a ac3c 2bc7 88bc 88cc 2c3d 04ea 81bd
00000340: fb32 4d3d 84ea e8bd a384 6f3d 6b0a 603d
00000350: 1cac dd3d 9aaa 52bd 6ced 07bd 641d 333e
00000360: e3e8 0eba 9ebd 003e f033 94bc c9c3 293e
00000370: 783e d63d 53dd b9bd 1c80 123d dec6 e03d
00000380: 69db 2dbd 422f 133e a3cd 3fbc ccdf 173d
00000390: 0f3e 493d 40fc 25bd 1f92 173d b6e1 bcbd
000003a0: a73e f13c 7d83 d03d 1e35 0a3e c06a f13c
000003b0: 374d 8b3d 315f 4c3d b4b2 82bd fe35 bd3d
000003c0: 4312 363e fc7f 88bd 387f 3e3c 961a bdbc
000003d0: 1144 703c d952 953d d7d3 953d 37c7 3ebd
000003e0: 8f5c 443e bab5 893e 4342 123e ca3e f5bd
000003f0: 2021 da3d d0ec bbbd 155e 683d 8270 0e3e
0.046685755 -0.089497775 0.14016975 -0.007740991 -0.048769683 0.09083725 0.121134795 -0.03112824
0.115271114 0.0299772 0.12551449 0.11896945 0.08906484 0.13088392 -0.06396722 0.09178427
-0.06292342 -0.06927044 0.058437794 -0.12373705 -0.09682522 -0.11665992 -0.09494371 0.068142526
-0.12858623 0.03664989 0.098298244 0.12597464 -0.21631093 0.10625016 0.07635769 0.075555466
0.0084865475 0.13320303 -0.09941371 -0.050037485 -0.0831819 -0.0025060624 0.031341534 -0.043379024
-0.008132477 0.066906914 -0.03471187 -0.062317178 -0.067048125 -0.0218538 0.06721259 0.09196038
0.0019376781 -0.040250912 -0.09438313 -0.09436493 -0.09613918 -0.008871511 0.05304188 0.02209173
0.0769395 -0.04658091 -0.0810283 -0.010578013 -0.067683205 0.083839655 0.12346911 0.07696448
-0.014421403 -0.018285679 0.094605744 0.15272224 -0.0010563022 -0.08603392 0.042682018 -0.17974296
0.030287148 0.08481408 -0.054859918 -0.027577465 0.06850394 0.05488053 -0.10715283 0.032515656
-0.1746533 -0.10834268 -0.027595967 0.12161958 0.1586875 -0.046779804 0.06787454 0.022659112
-0.13236788 -0.04681804 -0.02174497 0.038649816 0.13982527 0.06653277 -0.0031143555 0.10549153
0.09003557 0.058078583 -0.08944543 0.050788194 0.09465588 -0.03984447 0.08293854 -0.058559902
0.02547425 0.092682794 -0.075923994 0.020272061 -0.101252645 0.11077589 -0.016277255 0.04030867
0.1419235 0.010345354 -0.05730204 0.05523964 -0.08435056 0.050404496 -0.0039138985 -0.0095959455
-0.29862082 -0.30505234 0.1297251 0.05997394 0.037468683 0.029197156 -0.06949562 0.12764218
0.099234715 0.024038032 -0.07202591 -0.10482655 0.09490596 -0.07595096 0.02079938 -0.095096245
-0.10818188 -0.04525165 -0.11399531 -0.11624673 -0.07761128 0.069326684 -0.041865215 0.052267537
-0.0116532445 -0.10569401 0.08529489 0.08807197 0.0076127704 -0.12161937 -0.045629352 -0.05298352
0.10119833 0.055437807 0.04960791 0.08406156 0.10859401 -0.032916173 0.069814205 0.0925245
0.030939013 0.031391885 -0.09603753 0.056366324 0.029805899 0.117985666 -0.02741836 0.036973633
-0.079405494 -0.10965977 -0.04383631 0.0889211 0.09477186 0.082603976 0.067083076 0.0214124
-0.082061365 -0.014049247 0.038256496 -0.0076931254 -0.049840964 0.060927004 0.010603875 0.062495954
-0.017706499 -0.089845344 0.09529131 -0.03705725 -0.10613495 -0.10458955 -0.09571536 -0.08305269
-0.09543282 -0.1108413 0.029633122 0.18433058 0.13459656 0.17278312 -0.11419647 -0.0020027016
0.14545703 0.035649285 0.17418736 0.007191053 0.021069601 -0.016696533 0.042187244 -0.06343463
0.050097447 -0.11372855 0.0584761 0.054697435 0.10823843 -0.05143223 -0.033185408 0.1749168
-0.0005451573 0.12572333 -0.018091172 0.16578592 0.10461134 -0.09075417 0.035766706 0.10975431
-0.042445574 0.14373496 -0.011706742 0.037078664 0.04913145 -0.040523767 0.037004586 -0.092227384
0.02944882 0.101813294 0.13496825 0.029469848 0.06801837 0.04989547 -0.06381741 0.09238814
0.17780404 -0.06665036 0.011627011 -0.023083966 0.014664666 0.072911926 0.07315796 -0.046576705
0.19175933 0.2689646 0.1428309 -0.11974867 0.10650849 -0.09176028 0.05673035 0.13910106

bias f4 [32]
00000000: b3bb 91bd 4612 dc3d 7246 3fbd d3fb ca3d
00000010: 274b c6bd d886 adbc d2e0 2a3e 9710 ec3d
00000020: 899b 113e b561 7ebc 99bd 04bc 8ea8 6e3d
00000030: f233 4c3c bf4f 0abd 4385 a0bd 9bd2 8d3c
00000040: 7104 0dbe 9297 32bd db64 aa3d d72e a2b9
00000050: dbf5 143e b87d e0bd e278 dc3c 4e63 09bd
00000060: 3f6b f33d 0415 b63d 962c 843d f576 58bb
00000070: 3810 70bd 1e31 1a3d b0b2 9fbd 42f0 b63d
-0.07115879 0.10745673 -0.04669804 0.09911313 -0.09682303 -0.021182463 0.16687325 0.11526602
0.14219488 -0.015526225 -0.008101844 0.058266215 0.012463557 -0.033767458 -0.07837918 0.017312339
-0.13771226 -0.04360158 0.08320018 -0.00030933946 0.14546911 -0.10961479 0.02691311 -0.03354197
0.1188569 0.08890727 0.064538166 -0.0033029888 -0.058609217 0.037644498 -0.07797754 0.08932544

weight f4 [128, 7]
00000000: ebb6 81be e5cd 4d3e e561 98bd f3ab 8f3e
00000010: ecab 35be 18b0 6b3c 6808 213e 8c04 3c3d
00000020: a8e6 a9be 8fcc a9bc b23a 993e 294e f43c
00000030: e629 67bb 3e04 7dbd af64 7a3e f751 5d3e
00000040: 8c59 4cbe 3a7c 83be 988c b4be 467e a1be
00000050: 6985 6d3e 051b c7be 7e2b 9abd 9003 9b3d
00000060: 1ec3 c03e 2fb7 803e ff37 083d 398a f43d
00000070: 724f 69be 1bf4 b8bd 1e73 9a3e 71b5 80be
00000080: 5068 863e 6fc4 aabd d2bf 90be d9d3 073e
00000090: 6282 7f3e 0ae6 6d3e 174b 923e b95a b33e
000000a0: 69be 6ebe 721a af3e 9be0 863e 7dfd 483e
000000b0: 4e88 c63e 0b07 05be 1728 703e d3ed 62be
000000c0: b405 3d3e 3242 4cbe 1faa 843e e0a5 0bbe
000000d0: f6a7 a83e c07c 54be 7a5d 80be d2b1 983e
000000e0: 753b c1be 33da 33be 292d a7be 1468 993e
000000f0: 3478 913e 95be 4a3e df00 69bd de94 813e
00000100: 2aed 943e 11a8 313e 40a2 a03e 9ad9 93be
00000110: 9c31 ecbc 84df a5be 6db9 92bd d1c0 9bbe
00000120: 38e1 99be cd66 a8be a5ad a23e 3b7c 3fbe
00000130: 35e1 e83b e03f c43e 5aae 863e 6f62 873c
00000140: 58d5 10bc 7ca6 d33b 8a90 39be 997b 5e3d
00000150: 5a14 09be b091 013e ac80 783e 1e9c 76be
00000160: 0647 51be d40f 9fbe 07ba a63e 8616 d33e
00000170: 72d2 01be 3acc b9bd e72e 90be 8d77 95be
00000180: 2b8a b3be b450 503d a655 baba c12b a23e
00000190: d67f bb3b a7ca aa3e cecf 89be 50c0 103e
000001a0: 265c a2be 0d11 b23e 7c02 ac3d 133f 873e
000001b0: ff32 9dbd 3335 8d3e 245a b93e e5e4 3cbe
000001c0: 2a8e 78be b4bb 98be dcb0 1a3e f1fd 1abe
000001d0: 6671 803b 6909 953d b2bf 1cbe 301e b7be
000001e0: a1f7 77be 20b8 8bbd 8f27 f4bd 0a12 69bc
000001f0: bd63 a6be 5b53 b2be 6afd da3e ca0b 723e
00000200: 348e ee3b 81a3 72be 37d3 f23d cddd db3d
00000210: 70fd ab3d a06d fa3d a86a 28be d353 1a3d
00000220: b9e6 283e 050b 5cbe 8c31 a13e a434 36be
00000230: dfd3 4fbd a1c5 ce3c 69fa 3c3d 3979 f7bd
00000240: bb3b bcbe 94cd e9bc 4774 6ebe 147e da3e
00000250: e1fa b4be bfa1 37be f4fa b7be 2d03 1c3e
00000260: 6c1a 58be 4946 cd3d 064d e4be efca 7f3e
00000270: 354e 4bbe 1159 c83d 2db0 2ebe 0749 443d
00000280: e6b0 c53e ea2d ecbe b2a6 9f3e b60e 8a3e
00000290: 3d4c 8fbd e16f a33e 8589 41bc d7e5 643d
000002a0: b468 f73e 16cf b4be 8f74 d13c 20d7 82be
000002b0: 13a5 40bb 7a06 3c3e 9177 043e baa9 b6be
000002c0: eb91 4fbe 4c52 023e d094 efbd 5f85 a0be
000002d0: 24a7 393d 4db4 46bd dcc9 d2bd 55a3 d0be
000002e0: 297f 70bd 7326 b5be 7ac9 afbe 1784 6f3e
000002f0: a8e8 743e ecaf 063f faff 9ebe 1124 bd3e
00000300: 0a40 b2bd 9ff9 023d ee92 67be 0c78 9c3e
00000310: 4cb9 033f e15e 65be 060c aabe 32db a53c
00000320: 0b9c 6a3e e157 8c3d 2e94 58be b524 9abe
00000330: 4483 cd3c 0ce5 78be 2484 c4be 9ef6 82bd
00000340: 798d e538 8911 6b3e f095 d43e b2ec 06be
00000350: 1393 4c3e e1d2 873d 1693 9cbe dcd6 bf3d
00000360: 76de 24be 5d70 6a3e 436b 47be 3d10 cebb
00000370: 5641 583e 9a18 37be f6ce c93d 7727 7d3d
00000380: 9ae9 263a 9724 ba3d 1784 b23e 225e b93e
00000390: 11a7 6fbc 876a c8bd 6066 cf3d e39c ec3e
000003a0: 3eca 18be a549 4cbd fee4 b8be b742 8ebe
000003b0: 11b6 b9be 4cfd 0a3d c089 983e e0e4 40be
000003c0: fd52 983e 33c0 c03e 2a0c 463e ab92 42be
000003d0: be23 eebd 6a25 a2be 9177 88be 7dc6 a7be
000003e0: 153f a73e e82e 233e 3742 c1bc 2a7d a0be
000003f0: 9011 64be 0df2 89be a69d cb3e 6756 323e
-0.25334868 0.20098074 -0.07440547 0.28060874 -0.17741364 0.014385246 0.15725863 0.045902774
-0.3318379 -0.020727424 0.29927593 0.029822426 -0.0035272776 -0.061771624 0.2445247 0.21613298
-0.19956034 -0.25680715 -0.35263515 -0.3154165 0.23195423 -0.38887802 -0.07527827 0.07569039
0.37648863 0.25139758 0.033256527 0.119404264 -0.22784212 -0.090309344 0.30165952 -0.2513843
0.2625146 -0.08338248 -0.28271347 0.13264407 0.24952081 0.23232284 0.28572914 0.35030153
-0.23314823 0.34199864 0.26343235 0.19627948 0.38775867 -0.12990968 0.23452793 -0.22161035
0.18459207 -0.19947127 0.25911042 -0.13637495 0.32940644 -0.20750713 -0.25071317 0.29823166
-0.37740675 -0.17563705 -0.32651642 0.29962218 0.2841202 0.19799264 -0.056885596 0.2530889
0.29087192 0.17349268 0.31373787 -0.28876954 -0.02883225 -0.3239709 -0.071642734 -0.30420545
-0.3005464 -0.3289093 0.31773105 -0.18699734 0.007106925 0.38329983 0.26304895 0.016526429
-0.008839928 0.0064590555 -0.18121544 0.05431709 -0.1338667 0.12653232 0.24267834 -0.24082991
-0.2043725 -0.31066763 0.32563803 0.41228122 -0.12677935 -0.09072156 -0.28160784 -0.29192773
-0.3506635 0.050858214 -0.0014216199 0.31674007 0.0057220263 0.33357736 -0.26916355 0.14135861
-0.3171093 0.34778634 0.08398911 0.2641531 -0.07675742 0.2757965 0.36201584 -0.18446691
-0.24272981 -0.29830706 0.15106529 -0.15135933 0.003919768 0.072771855 -0.15307501 -0.3576522
-0.24215557 -0.068222284 -0.11921608 -0.014225492 -0.3249797 -0.3482922 0.42771465 0.2363731
0.0072801355 -0.23695184 0.11856692 0.107356645 0.08397949 0.122279406 -0.16446936 0.037677597
0.16494264 -0.21488579 0.31483114 -0.17793518 -0.050739165 0.025240721 0.046137247 -0.12083668
-0.3676432 -0.02854041 -0.23286544 0.42674315 -0.35347655 -0.17932795 -0.3593365 0.15235586
-0.21103829 0.100231715 -0.44590014 0.24979757 -0.19854052 0.09782613 -0.17059393 0.047921207
0.38611525 -0.4612878 0.31181866 0.2696435 -0.06996963 0.31921294 -0.011812572 0.055883255
0.4832207 -0.35314244 0.025568275 -0.25554752 -0.0029395267 0.18361846 0.12936236 -0.35676366
-0.20270507 0.12726706 -0.116983056 -0.31351754 0.045325413 -0.048511792 -0.10292408 -0.40749612
-0.05871502 -0.35380897 -0.34333402 0.23390232 0.23916876 0.52612185 -0.3105467 0.3694158
-0.08703621 0.03197634 -0.22614643 0.30560338 0.51454616 -0.22399475 -0.33212298 0.020246122
0.22911088 0.06852699 -0.21150276 -0.3010613 0.025087006 -0.24306124 -0.38382065 -0.06394695
0.00010945922 0.22955908 0.41520643 -0.1317623 0.1997798 0.06632019 -0.30580968 0.09367153
-0.16100487 0.22894426 -0.19474511 -0.006288557 0.21118674 -0.17880479 0.09853928 0.061805215
0.0006367207 0.0908901 0.34866402 0.3620463 -0.014627234 -0.097859435 0.10126948 0.46213445
-0.149209 -0.04987492 -0.36112207 -0.27785274 -0.36271718 0.03393297 0.29792595 -0.18837309
0.29750815 0.37646636 0.19340578 -0.19001262 -0.11627911 -0.3166917 -0.26653722 -0.32768622
0.32665315 0.15935862 -0.023591144 -0.31345493 -0.22272325 -0.26942483 0.39768714 0.17415772

bias f4 [128]
00000000: ffd9 2d3e 070d bcbe cceb 9e3e c369 853e
00000010: a51d aabe d999 6b3e e2d1 8bbd 1acc eebd
00000020: e875 813e 9eee 553d bc9d babb 3fcf 09be
00000030: 8652 87be e4ae 433e e6a1 013f ffba f4bd
00000040: 4e20 b7be 1fb6 54be f866 a93e 1a94 95be
00000050: 4741 e7bd 78a3 1ebd d128 be3e c23d 9e3e
00000060: ea1f ba3e c2e9 bdbe 868b 123d 12e3 94bd
00000070: b8fe 7c3e c4a8 a73e 03e3 06be 2060 d13e
00000080: 935b afbe cd2e 13be 83a6 273e 24d1 da3e
00000090: 34c7 c6bd b269 9e3e 1ffa be3e fc2b 1c3e
000000a0: 9c3a 08be 02b3 7e3e a421 ebbd c172 ce3e
000000b0: 1ab8 5e3e 6f24 a03e f5f4 4bbe 0ec2 e83e
000000c0: ccb5 8cbe 9450 fd3c ca56 c03d 3b51 89be
000000d0: 7de4 1dbe 485f a43e 727a c83e da7b 943e
000000e0: cc61 4dbd a774 333e 2968 8a3e b4fe 2c3e
000000f0: 17be 5b3c af2e 423e 9ba8 bfbe 14b4 71be
00000100: c297 10be 1400 a9bd a2dd 98be 0e01 2f3d
00000110: be7e 5c3e d2da acbe 5a53 93bd 51bf 12be
00000120: 7d3d 0ebe 8d9c 62be 1e79 be3e 6349 7a3e
00000130: 71bd a7be 0520 e6bd 8c83 9f3e 737f adbc
00000140: 82ee a93e 9970 023f 4f42 c1be 6481 ee3e
00000150: 5290 cc3e 7c79 963e 58d8 8dbe f865 313e
00000160: 0497 81be 2803 f8bd 13b7 923e 01f7 823e
00000170: 24d8 4abd 8766 fe3e 3273 d53e eb9f 73bc
00000180: 1d52 3cbe cbf1 8ebe 1f12 80be 5b2d 3c3e
00000190: fa2e 2b3d b26c 1a3e 3574 8f3e 11f5 873e
000001a0: 7f86 e33d 56d3 e43e 6365 8c3e 29cb b7be
000001b0: 36bb aa3e b840 993e f041 43be 1da5 c53e
000001c0: 1bd6 953e 6f68 86be 5880 9e3e cd19 083f
000001d0: 6875 46be 7d7d 8b3e 6033 e93c 8ffd 2c3e
000001e0: be38 d93e c24c 80be f305 b73e 3fbb 6cbe
000001f0: 51a2 183e 38c3 373e ce76 b03e b65a 25be
0.1697769 -0.3672869 0.31039274 0.26057252 -0.33225742 0.23007907 -0.06827141 -0.11660023
0.25285268 0.052229516 -0.005695073 -0.13457964 -0.26430148 0.19109684 0.5063766 -0.11949729
-0.35766834 -0.20772599 0.3308637 -0.29214555 -0.112917475 -0.038730115 0.37140515 0.30906492
0.36352473 -0.37092406 0.03577759 -0.07269873 0.24706542 0.32745945 -0.13172536 0.4089365
-0.34249553 -0.14373322 0.16372113 0.42737687 -0.09705964 0.30940014 0.37300202 0.15251154
-0.13303608 0.24872974 -0.11481026 0.40321925 0.21749917 0.31277797 -0.19917662 0.45460552
-0.2748245 0.030922212 0.09391554 -0.26819786 -0.15419193 0.32103944 0.39155918 0.2900074
-0.050142094 0.17524968 0.27032593 0.16894037 0.01341202 0.18963121 -0.37433323 -0.2360385
-0.14120391 -0.08251968 -0.29856592 0.042725615 0.21532723 -0.33760697 -0.071936324 -0.14330794
-0.13890643 -0.22130032 0.3720178 0.24442057 -0.3276172 -0.11236576 0.3115505 -0.021178937
0.3318978 0.5095306 -0.37745902 0.46583092 0.39953858 0.2938956 -0.2770412 0.17324054
-0.25310528 -0.12109977 0.286553 0.25579074 -0.049522534 0.49687597 0.4168945 -0.01486967
-0.18390699 -0.27918848 -0.25013825 0.18376677 0.041792847 0.15080526 0.28018346 0.26554158
0.111096375 0.44692487 0.27421102 -0.35897186 0.33345956 0.2993219 -0.19068122 0.38602534
0.29264912 -0.26251552 0.30957294 0.5316437 -0.19380724 0.27244177 0.02846688 0.168936
0.42426103 -0.25058562 0.35746726 -0.23118304 0.14905669 0.17945564 0.3446564 -0.16147885

weight f4 [64, 128]
00000000: 78e8 9c3d c221 473c fe1a 4ebd 7da4 3c3d
00000010: c963 9ebd f104 08bd e288 6bbd b2c1 9dbd
00000020: 8daf 5dbc 1445 5a3c 48f4 a9bb 9619 333d
00000030: 9710 68bd 18ea 1c3d cbdb a13c 21e8 24bd
00000040: 6a15 85bd 8105 633d a18c 86bc 5dea 823d
00000050: bff0 a03c b3a5 753d 3078 65bd 6773 9e3c
00000060: c2af aebd 33e9 b2bd 208f 9b3d 09a8 afbc
00000070: de6f 72bd dc65 2abd ec46 ae3c 70c1 0bbd
00000080: 9d01 a3bd 77de 1dbc a062 8e3d f070 373d
00000090: 3145 233d a29e 333d eaa9 8cbd d96c a93d
000000a0: ff17 873c 862d 833d d379 86bc 61b5 013c
000000b0: b3c5 6cbd 4c02 093d a01e f4bb 9e54 7d3d
000000c0: bfd0 aabd 82da 953c cf88 643d fa7d a43a
000000d0: 3bbb 65bd bd70 a1bd 1886 81bd f754 95bd
000000e0: a324 7a3d 2ed1 9e3d 27c4 1cbd ab97 dc3c
000000f0: ccc1 6d3d 0103 883d cab3 f73c c0af a63c
00000100: 99c3 913d 8adf 8dbd ed61 6f3d 42cd a0bd
00000110: 9c58 953d 396b e23c e76e 293d 32fd aa3d
00000120: 8411 8cbc d986 fabb 9826 24bd 2f48 ed3b
00000130: f665 0abd a994 80bc 6da1 a3bd a4e1 95bd
00000140: 056c 033d 78f3 aabd 8973 e53b d440 793c
00000150: 1789 1cbd 5d3d 313d fe2b 42bd d41a 4ebd
00000160: 149d ab3d c5b1 07bc c7f4 a93d d4fa a23d
00000170: 0712 623d 88c3 f5b8 db94 2dbd 5b75 5dbd
00000180: aed3 9fbd 328c fabc ef32 07bd 3f20 de3c
00000190: 72a7 23bd 77bf 103d 4b19 bbbc 147a 85bd
000001a0: 0453 9d3d d138 90bd d196 aebd 8b3c 2d3d
000001b0: ea61 02bc 2144 7ebd c7b4 413d 190c e13c
000001c0: 3c2b a23c aea1 cbba 3905 89bc 63ba 85bd
000001d0: dca6 6bbc 9fc5 683d 3a04 12bc 5e04 feba
000001e0: 5f5d 653d b340 b03d 5caa 1bbd 6765 b1bd
000001f0: 886b 8e3c 0f6a dc3b f6fe 38bc b0c4 023d
00000200: 1a8a 9b3b 6b5a 44bd 2ef7 59bd 9b61 3dbb
00000210: ecef a7bd b350 f4bc 1207 5d3d 6dba 93bd
00000220: e7b4 83bd 1957 d2bc 2b2b c9bb 15d0 82bd
00000230: 1d94 933d 72d2 13bd 954e bc3c 4f2b a7bc
00000240: b510 d2bb 19b2 14bd 8ef8 bbbd 730f 1fba
00000250: e6c6 8d3c 3d4e 443c b12d 88bd 0f81 e5bb
00000260: ca49 91bd 4d18 a6bd 1146 8fbb 5958 7f3c
00000270: d4da 463d 89b1 a2bd 094f 50bd 60f2 8bbd
00000280: b791 41bd 9f39 563d fc51 5abc b334 5dbd
00000290: 2667 9bbd 367c 56bd 663c cabc 347c 0c3d
000002a0: f675 5cbd a8da 903c bbea 843d 86cb c43c
000002b0: 882d c83c 6d32 a6bd 5363 d33b 79f1 413d
000002c0: cc2e 943d a126 8fbd 9017 a33d 97c2 863b
000002d0: d1aa 4b3d 96a7 45bd a661 5f3d 1aa9 7e3d
000002e0: 9507 babc be61 b03c b098 06bc 30aa a4bd
000002f0: 78ca 4d3c 32bf 6f3d 9925 97bd 5e61 a1bd
00000300: 0052 a33d 3247 b23d 3465 033c 0793 8ebc
00000310: d4f9 c1ba de0f 9abd 5141 79b7 ee62 ac3d
00000320: 8e00 243d b63f c93b f1d7 9a3d 11c6 813d
00000330: 3ade 773d 594f 6f3d 5b48 403d ce3d e03b
00000340: 0327 88bd 04c3 2cbd 9936 983c 1166 7b3d
00000350: ff41 bc3b 5738 0abd 6709 923d d338 fdbc
00000360: 3d48 6cbd 8ccd 3d3b 7ba1 283d 8be7 54bd
00000370: c7e2 173d 8bd0 c5bd 2b05 4c3d 9470 9c3d
00000380: 93e2 933d f250 5fbd 8f62 713d bf8f fb3c
00000390: 7c78 a6bd 78f0 09bc d0b1 863d 13dc 5dbd
000003a0: 499c bcbd 8ed9 c3bc 9483 913d eaf7 c93c
000003b0: 5854 57bc 759d a7bd 5b98 733d 2004 32bd
000003c0: b247 8e3d 3c65 a7bb 4d6a 113c 4fe8 d6bc
000003d0: dccc a9bb 9eef a73d 4112 243c ad42 133d
000003e0: 6382 913d 8ab4 5e3d f88c 673d 49ac 1d3d
000003f0: 87ee 6d3d c16a 443d 32d7 c9bd 116c 77bc
0.076615274 0.012154045 -0.05031871 0.046055306 -0.07733876 -0.033207837 -0.05750359 -0.0770296
-0.013530624 0.013322134 -0.0051865913 0.043725573 -0.056656446 0.038309187 0.019758126 -0.040260438
-0.06498225 0.05542517 -0.016424479 0.063923575 0.019646047 0.059972476 -0.056022823 0.019342138
-0.08529617 -0.087358855 0.07595658 -0.02144243 -0.059188716 -0.041601047 0.021274053 -0.034120023
-0.07959292 -0.009635559 0.06952405 0.04478544 0.039860908 0.043852456 -0.06868346 0.08272714
0.016490934 0.06405167 -0.016415512 0.007916779 -0.05780573 0.033449456 -0.00744994 0.061848275
-0.083405964 0.01829267 0.055794533 0.0012549751 -0.05608676 -0.07882831 -0.063244045 -0.072915964
0.061070096 0.077547416 -0.038273003 0.02692779 0.058046147 0.06641198 0.030237097 0.020347476
0.071173854 -0.06927402 0.058443 -0.0785165 0.072922915 0.027639018 0.04136553 0.083490744
-0.017098196 -0.0076454696 -0.04007587 0.007241271 -0.033788644 -0.015695887 -0.07989774 -0.07318428
0.032085437 -0.08347219 0.0070022983 0.01521321 -0.038216677 0.04327141 -0.047405235 -0.050318554
0.0837957 -0.00828213 0.08298641 0.07957998 0.055192973 -0.00011718931 -0.042378288 -0.054066997
-0.078040466 -0.030584428 -0.03300756 0.027114986 -0.03995461 0.035338845 -0.022839209 -0.06517425
0.076818496 -0.07042087 -0.0852486 0.042294066 -0.007957915 -0.06207669 0.047291543 0.027471589
0.019796006 -0.0015535855 -0.016726123 -0.06529691 -0.014383044 0.05682909 -0.0089121405 -0.0019379964
0.05599725 0.086060904 -0.038004264 -0.08661919 0.01738526 0.0067265104 -0.011291256 0.031925857
0.0047466876 -0.04793779 -0.053214245 -0.0028897289 -0.08200058 -0.029823637 0.05396182 -0.07213292
-0.06430989 -0.025676297 -0.006139179 -0.06387345 0.07205985 -0.03608937 0.02298669 -0.020406393
-0.006410683 -0.03630266 -0.091782674 -0.0006067671 0.017306756 0.011981544 -0.0664934 -0.0070039104
-0.07094152 -0.08110104 -0.0043723662 0.015585029 0.048548535 -0.079440184 -0.050856624 -0.06833339
-0.047258105 0.052301046 -0.013325211 -0.054005336 -0.075880334 -0.05236455 -0.024687003 0.034298137
-0.053823434 0.017682388 0.06490084 0.024022829 0.024435773 -0.08115087 0.0064510494 0.047349427
0.07235488 -0.0698979 0.079634786 0.0041125524 0.04972345 -0.048255526 0.054536484 0.062172987
-0.022708694 0.021530982 -0.0082151145 -0.08040273 0.012560479 0.058531947 -0.07380218 -0.078798994
0.07974625 0.08704986 0.008019734 -0.017404092 -0.0014799186 -0.07522558 -1.4856764e-05 0.08417307
0.04003959 0.006141628 0.07560719 0.06336606 0.060514666 0.05842528 0.046944004 0.006843305
-0.06648066 -0.04217817 0.018580722 0.061376635 0.005745172 -0.033745136 0.071306996 -0.030910885
-0.05768608 0.0028961627 0.041169625 -0.05197863 0.037081506 -0.09658917 0.049809616 0.0763866
0.0722095 -0.054520555 0.058931883 0.030708192 -0.08128449 -0.008419149 0.06576884 -0.054164957
-0.092094965 -0.02390745 0.07105175 0.024654347 -0.013142668 -0.081843294 0.05947147 -0.043460965
0.069472685 -0.0051085036 0.008875442 -0.02623382 -0.005181892 0.082 0.010014118 0.03595226
0.071049474 0.054371394 0.056530923 0.038494382 0.058088806 0.04795337 -0.098554984 -0.015101449

bias f4 [64]
00000000: d30d 473b c75e 9a3d 06ba b33b da1e bd3c
00000010: f782 003d 866f 373c 92d3 933d fdb2 343d
00000020: 3cde a63c a70a c23c 7a79 683d 7cff 083d
00000030: f795 af39 bf3c b8bc 564f 16bc 0517 9bbd
00000040: a91c d33c 4c65 253e 8733 2ebc 08c6 c73d
00000050: 97c6 d93d 3d5c a0bd 3c2f ce3d d59a a1bd
00000060: 2d7a b23d 9596 d0bc 7d89 c83d 56f9 943d
00000070: 1bc0 203d 406a 833d 3717 3dbd 7996 933d
00000080: 1163 733d 5885 b73d c02f 003e c1c9 ec3c
00000090: 4418 2abd 1041 8d3d 24c2 ef3d 7f7a 7abd
000000a0: 3297 823c eb45 ceb9 bac5 863d d0d7 8b3d
000000b0: 7b8d 633c 7eeb c43d 19fe debc 0d32 bd3c
000000c0: d2e9 94bc b6fe 2c3d c964 223d 3220 283d
000000d0: 04ac a83d 16af 173e 41d9 a6bc 4688 013e
000000e0: 5fb8 db3d fe00 51bd e31e 20bd 5ffc a8bd
000000f0: df59 be3d fcf2 833d adef e2bc 5ef0 253e
0.003037323 0.075376086 0.005484822 0.023086 0.031374898 0.011196023 0.07218088 0.04411601
0.020369641 0.02368672 0.056756474 0.033446774 0.00033490334 -0.022489903 -0.009174189 -0.0757275
0.025770502 0.16151923 -0.010632402 0.09754568 0.10633581 -0.07830093 0.10067603 -0.0789086
0.087147094 -0.025462428 0.09791849 0.072741196 0.039245706 0.0641675 -0.046164718 0.07206435
0.05942065 0.0896098 0.12518215 0.028904798 -0.041527048 0.06897175 0.11706951 -0.061151978
0.015941236 -0.00039343475 0.06580682 0.06828272 0.013888712 0.09615229 -0.027220773 0.023095155
-0.0181779 0.0422351 0.039646897 0.04104633 0.082359344 0.14812884 -0.020367267 0.1264964
0.10728525 -0.051026337 -0.039091956 -0.08251261 0.09294485 0.0644283 -0.027702177 0.16204974

weight f4 [32, 64]
00000000: 7a8c febd e0c3 bbbb 56fe 0b3d eb82 acbd
00000010: 9307 6b3b 393b 4f3c 57c9 89bd 94e4 c0bc
00000020: 2046 19bd d61f e93d e906 d6ba 3fae e73d
00000030: 8095 00bd 708a 98bd a0d8 a43d 80ae 0cbd
00000040: 9b5f bb3d da8c 723d d082 80bc 999a 3e3d
00000050: d898 9bbc b867 973d f2eb 033d 3c1d 0fbd
00000060: dbca 6ebd 54b2 7d3d a4f9 cbbd 782d f93d
00000070: 480b c63d cc5a 503d 988a a9bd c01e dd3b
00000080: e592 873d 40ef 353d 8b55 283d 18a7 253d
00000090: 501b 5f3c 9f60 49bc 4814 b0bd 9ccc 783d
000000a0: c0f6 ffbd 677c 0b3d 6933 ecbd 972e fdbd
000000b0: c477 55bd 0db2 7fbc 0061 473d 1cb0 3d3d
000000c0: 96f9 f9bd 691c dd3d 2062 15bc e08d 5abd
000000d0: b82a b53c 5fd9 cfbb 8563 933d a911 dabb
000000e0: 78e1 89bd 1678 b3bd 76cf c83d b85b 80bc
000000f0: 2207 babc 8e24 e1bd f23d b0bd 8d69 0ebc
00000100: 781e 733d 93cf 9ebd 50da 653e 1594 03be
00000110: 91a8 133e b8fd d3bd 18ea dfbc 7402 f43c
00000120: 6a92 3b3c 0586 b43a 12fd 1c3c 88ca 1e3d
00000130: 3333 cebd b836 913e 1077 043c ec38 9f3d
00000140: da60 4f3d a9cf c93d 5a26 f43d 5d22 5b3e
00000150: bb11 d53c 860b 89be c6fb a23d 0062 ccbb
00000160: 4dd6 b93d 62a2 fd3d 9dfb 323d d5c8 ea3c
00000170: 88d2 48bd e675 9a3e 9b63 a33d e9ff e7bd
00000180: 8bad 9ebd 8eff 83bd 0629 8e3e f06a 3d3d
00000190: 70cc 90bd 1824 bc3d 77be 483d c4cb b0bd
000001a0: f658 4b3e 51fa c93c e7a6 e4bc 702f b3bd
000001b0: cc30 733d d658 a63d a4b8 28bd f12d 933d
000001c0: 03bb ffbd d3b3 1bbe 0f01 56be b452 ac3d
000001d0: 9a5b fb3d 745a b03c 1ea8 863e f4d3 393e
000001e0: cd4a b4bd 383d 983d cccd 5bbe a021 713d
000001f0: d1de 863e dd7d 3b3e 2b79 8d3d 9770 083e
00000200: f4d0 5cbd 098e 0a3c 16a7 1f3d 4666 e4bd
00000210: bb6f e63d d676 9bbd 5e1a debc 26c3 043e
00000220: fd1e ac3c e714 1dbd 3caa 12be c7fe 233e
00000230: c68e d23d 6cf5 353e 30f9 fc3c 9867 ec3d
00000240: 9b10 443e 81ea 023e 7cfe aabd b98f 0b3e
00000250: 97a5 d43d bbb2 94be 878e 713e 308d e9bd
00000260: acf4 6e3d 5470 81bd e8da ca3d 3091 c13c
00000270: 7c09 063c 1f78 0a3e c523 213e a664 d3bd
00000280: 74ff ee3d 5645 d63c 4760 153e 6af7 b8bd
00000290: d027 803d 0bae 423d 142f a8bd 468a d83d
000002a0: 1962 f93d 6205 233d f0eb 4fbd de0b e23b
000002b0: 4c90 a3bd 687c ebbd 38f5 843d 17d4 91bd
000002c0: 6c5c 5abd ab5c 03be 4ac7 8ebe 3435 c6bd
000002d0: 797b b93c 2bd0 2e3d 3951 353e 67c8 913d
000002e0: 2000 bfbd a880 50bd 59d5 3fbe d76a 07be
000002f0: 8be4 6a3e 10b1 713d 6064 453e e41c e73d
00000300: d8c9 ea3d 56ad f1bd 3d73 94bd 453e 593d
00000310: 26b4 ea3b ecf2 3a3d 88d1 f5bd 73fa 30bd
00000320: 004e 2cba 6c4c 1c3d 8c5b d6bd 2bfb ae3d
00000330: 66e7 b0bd e372 c8bd d482 623d 5883 373d
00000340: 59f2 043d f914 e3bc 54e4 e43d 7534 8f3d
00000350: e82f fcbc 7ce5 10bd 533c 6abd 04ee a3bd
00000360: e961 eabd 000c a5bb 1079 6bbd ec8a 99bd
00000370: 4aed a53d a997 ce3c 656d 553d e60a e2bd
00000380: fbf2 2fbd 7028 dfbc 1a94 f53d 4ce2 d3bd
00000390: 66df c03d 059f 463d fe44 b93d e874 8ebc
000003a0: 5323 8ebd 64b8 973d c962 b93d 2efd eb3c
000003b0: 14c1 22bd 99ae ee3d 9c2e ea3d d28d bebd
000003c0: e4f6 0d3d 20e1 063d 26c0 bcbd 50e3 283d
000003d0: 6e3f d13d b6a2 f73d 0d16 0a3c 9840 fdbd
000003e0: 80be 96bb 8e39 c9bd b62f 873d 004d 5bbc
000003f0: 15f4 85bd 4a65 a6bd 6536 f13d cd98 f6bd
-0.124291375 -0.005730137 0.0341781 -0.08423408 0.003586267 0.012648397 -0.06727856 -0.023546495
-0.037420392 0.11383025 -0.0016328964 0.11312532 -0.031392574 -0.0744828 0.080491304 -0.034346104
0.09149095 0.059216358 -0.015687376 0.046534155 -0.01899378 0.0739283 0.032207437 -0.03493999
-0.058298927 0.061937645 -0.099597245 0.121668756 0.096701205 0.05086784 -0.08278388 0.0067480505
0.06619815 0.04441762 0.041097205 0.040442556 0.013617352 -0.012291103 -0.08597618 0.060742006
-0.12498236 0.034054186 -0.11533243 -0.12362402 -0.05211617 -0.015606415 0.04867649 0.04631053
-0.12205808 0.107964344 -0.009117633 -0.05335796 0.022115096 -0.0063430513 0.07196716 -0.0066549373
-0.06732458 -0.08763139 0.09805195 -0.015668735 -0.02270848 -0.109933004 -0.08605565 -0.008692157
0.05935523 -0.077544354 0.22446561 -0.12849458 0.14419772 -0.103511274 -0.027333304 0.029786326
0.011448482 0.0013772851 0.009581821 0.038767368 -0.10068359 0.2836206 0.008085027 0.07774529
0.050629474 0.09854061 0.119213775 0.21399827 0.026009431 -0.26766604 0.07958178 -0.0062372684
0.09074078 0.12384488 0.04369699 0.028660217 -0.049028903 0.30168074 0.079779826 -0.11328108
-0.077479444 -0.064452276 0.27765673 0.04624456 -0.07070243 0.09186572 0.049009766 -0.08632615
0.19858155 0.024655493 -0.027911616 -0.08749282 0.05937271 0.08122413 -0.041191712 0.07186497
-0.124868415 -0.15205316 -0.20898841 0.08414212 0.12273331 0.021527506 0.26300138 0.1814726
-0.088033296 0.074335515 -0.21465224 0.058869958 0.2634187 0.18309732 0.069078766 0.133242
-0.05391021 0.008456715 0.038977705 -0.111523196 0.1125178 -0.075910255 -0.027112182 0.12965068
0.02101087 -0.038350012 -0.14322752 0.16015159 0.10281138 0.17769402 0.03088054 0.115431964
0.1914696 0.12784769 -0.0834932 0.13629045 0.10383146 -0.2904261 0.23589526 -0.114038825
0.058338806 -0.06320253 0.09905034 0.023628801 0.008180972 0.13522385 0.15736301 -0.103219315
0.116698176 0.026156109 0.14587508 -0.090315655 0.06257594 0.04752926 -0.082121044 0.105732486
0.12176914 0.039800055 -0.050762117 0.0068983873 -0.07986507 -0.11498338 0.06492084 -0.07120531
-0.053310797 -0.12828319 -0.2788642 -0.096781164 0.022641884 0.042678993 0.17706765 0.07118302
-0.09326196 -0.050903946 -0.1873373 -0.1322435 0.22938745 0.05900675 0.19276571 0.11284807
0.1146428 -0.11800639 -0.072485425 0.0530379 0.0071625886 0.045641825 -0.120028555 -0.043207597
-0.0006572902 0.03815882 -0.1046668 0.08544 -0.08637886 -0.09787538 0.05530055 0.044802994
0.032457683 -0.027719961 0.11176363 0.06992427 -0.030784562 -0.035375103 -0.057186436 -0.08004382
-0.11444456 -0.005036831 -0.0574885 -0.074972 0.081019 0.025218802 0.05210628 -0.11037235
-0.042956334 -0.027240962 0.11991139 -0.10345897 0.0941761 0.048491497 0.09046362 -0.01738973
-0.06940331 0.074082166 0.09052045 0.028807249 -0.039734915 0.116543956 0.11434671 -0.09304394
0.03465928 0.03292954 -0.09216337 0.041232407 0.102171764 0.120915815 0.008428109 -0.12365836
-0.004600346 -0.09825431 0.06600897 -0.013385057 -0.065406956 -0.08124788 0.11777953 -0.12040863

bias f4 [32]
00000000: 93a7 85bd 1e8b 3dbc fa4f b03d 5223 dfbc
00000010: 88e5 ddbc b2de 9f3d 0597 fd3b 0522 b73d
00000020: 183f eabc dcef a6bd 5d23 e03b 145b f33d
00000030: 16ce babd ed9a ebbd f085 ec3d 70f8 c0bd
00000040: 3bcc 6d3d eda6 bc3d de6f eb3d 4a23 69bd
00000050: b354 7d3c 7bfb 803d a018 463c 701b 7e3d
00000060: ae88 123d 35e7 063e 3ae0 413d cf37 3f3d
00000070: 8281 2c3e a6cd 7a3d 5953 1f3e 5bf2 c7bd
-0.06526103 -0.011568813 0.08609004 -0.027238522 -0.027086988 0.07806148 0.00773895 0.089420356
-0.028594539 -0.08151218 0.006840153 0.11882606 -0.09121339 -0.11504159 0.11548984 -0.09422386
0.058056097 0.09211526 0.11495946 -0.05691842 0.015462088 0.06297966 0.012090832 0.062037885
0.03577488 0.13174136 0.04733298 0.046684083 0.16846278 0.061231278 0.15559138 -0.097630225

weight f4 [2, 32]
00000000: ec10 05bd ed8e ec3d d435 25be d694 713e
00000010: aaf6 983b 3832 82bd 6c32 543e ea01 1abe
00000020: aebb 7a3e 0bb9 df3d 4ff0 c7bd f161 cf3c
00000030: 54d4 03be a16b 7dbd 2dc0 e0bd a2b1 23be
00000040: ef81 033e ef2d 523e ce3f adbd dac1 9cbd
00000050: fef5 853e 2e5a 363e 5397 7b3e ed74 263d
00000060: 317d 0e3b 9c48 633e 82d5 15bd 5c51 b23c
00000070: 8ab2 44be c7d9 693d 20e0 fd3d 6ebd 203e
00000080: edc5 513e 848e 053e 550e 0fbc 4d86 7cbe
00000090: 82fc 143d 2225 f23c 8e4b 17be a633 6c3d
000000a0: 2847 dd3b 7b21 e43d a0c1 5abd 7036 363e
000000b0: 8201 dcbc e993 98bd 2f06 bcbd 078c d2bd
000000c0: 6eba 0d3e a2b1 39be 83df eabd 3f04 66bd
000000d0: 9e40 00be 22bf bcbd 2402 9f3d a4d6 80be
000000e0: c490 d0bd 5c19 69be 6e95 703d 2874 b0be
000000f0: 05d6 f63d 5543 33be ead1 9f3d 84cb f2bd
-0.03248684 0.115506984 -0.16133815 0.23591933 0.0046680765 -0.06357235 0.2072236 -0.15039793
0.24485657 0.10923966 -0.09762632 0.025315257 -0.12873966 -0.06187022 -0.109741546 -0.1598573
0.12842534 0.20525335 -0.084594354 -0.07654162 0.2616424 0.17807838 0.24569444 0.040638853
0.00217421 0.22195667 -0.03658057 0.02176731 -0.19208732 0.057092454 0.12396264 0.15697262
0.20485659 0.13042647 -0.008731444 -0.24660607 0.036373623 0.029558722 -0.14774916 0.057666443
0.0067528673 0.111391984 -0.05340731 0.17794204 -0.026856188 -0.074500866 -0.09180867 -0.10280614
0.13840649 -0.18134168 -0.11468413 -0.056156393 -0.1252465 -0.09216143 0.0776408 -0.25163758
-0.10183862 -0.2276358 0.058736257 -0.3446362 0.1205254 -0.17506154 0.0780371 -0.11855224

bias f4 [2]
00000000: 231d 49bd 5cd1 3d3b
-0.049100053 0.00289639
