2023/baseline0806/model/WLTP_trained_0822/PPO_actorcritic_64episode.pt (torch, 101527 bytes, 17 tensors)

weight f4 [128, 7]
00000000: 0977 74be 3d2b abbe 5357 853e 4856 d4be
00000010: cf17 63be ccf0 c83e 1f0c ba3e 1ece 25bd
00000020: acb0 39be 07fb ad3d 21fc 8ebe 931b 0cbe
00000030: ee79 b9be b661 9abe 0c0b d33d 1f3d 14be
00000040: 5454 2ebe c898 523d ae6d a83e 3dc8 c73e
00000050: 60b0 9b3d 8a81 99be 1ed5 75be cbad 70be
00000060: 16eb b0bd 8a9e 2ebe 6511 8e3e 2bd8 d03e
00000070: 7acb d33d 74e7 3bbe 4064 c5be 9bf0 aa3d
00000080: 9109 943d ded9 403e 1838 31bc 2580 0bbd
00000090: 9bb6 cdbd af66 74be 4907 97bd 2d5e 743e
000000a0: c785 1a3e 10d4 ab3e 94a8 adbe 0ce3 81be
000000b0: 9a09 adbe f485 423c 7550 8dbe c160 15be
000000c0: 7bc1 9abb 164a b63d ed2c aebe d0b7 b63e
000000d0: eced 9c3e a16d 8b3e ee25 bebe dbd2 a2bc
000000e0: 1e23 dc3e 3439 2ebd edc4 8dbe 37dc 37bc
000000f0: b293 043f a56a 81be 6941 c43c 2a53 ab3e
00000100: 4159 69be 33a5 b6be f7ea c8be 7214 1abe
00000110: 1597 b93e 783e a23e 1810 9a3e 249e 853e
00000120: 0c69 993d 0c26 243e 25a5 a4be 1bd1 0a3d
00000130: 1ce0 703d abc3 a9bb ad4d db3e 9f51 493e
00000140: 25bb c2bd 9879 533e 0f61 43bd 09ed b2bd
00000150: a382 81be db13 9fbe dfed 873e 4f24 bbbe
00000160: 57be 803e 5363 11be 4e23 603e 2d10 7b3e
00000170: d063 3c3e d053 9f3e 75b7 193d 759c 16be
00000180: f759 0fbe 789f 8ebe 0acb 00bc 233f a33c
00000190: 5754 e23d 12fb 573c ff8d 71bd 884d 3c3e
000001a0: 01c8 5ebe 62a5 4f3e a290 84be 47f6 0bbc
000001b0: 14ed 343e 73c8 27bd a4a9 983e a917 7dbe
000001c0: 6263 49be 197e b3be f5cd 64be a196 8d3e
000001d0: 0db6 cd3d 095d 01be 60a1 173d 48f9 14be
000001e0: 4282 043f dae3 9cbd 8ed7 f03e 9818 96be
000001f0: 2498 01be 0edb 42be 8408 bb3e c29f 24be
00000200: 9b86 6d3d 2b51 c7be 4db9 94be 2507 81be
00000210: efac 7abe 611d 1ebe a449 94be 84fb b0bc
00000220: a88f 86be f0e7 b13d 6cc1 9bbd da8a 80bd
00000230: ddd0 ae3e 55a1 34be f8aa eb3d a06c a43c
00000240: b29a ec3c 7767 b33e c06d aa3e 09f1 bdbd
00000250: f9bf 523c 9def a1bd 731a f3bd ccde 453c
00000260: bfc8 53be f2f8 913d 421a b3be 00fd 073d
00000270: a412 763e 7d04 eebd 7e87 e73b 4901 1abe
00000280: d04e 873e db0e 933e 08d2 03be 47cd 4e3e
00000290: 6099 733e 779c 5d3d 61eb b13e 8c8e d13e
000002a0: 7b5e c23e e2a8 9dbe f4c8 613d 5b1d babe
000002b0: 1227 ab3e 1bd1 c4bd 0b88 983e c5d3 643d
000002c0: 0d46 333d 2020 b3be c95e d8bd 9023 21bd
000002d0: 5d38 223e fa3b 3fbe 1efc 713e 9775 d3be
000002e0: 14ab 883e e8ec 90be 936d 1ebe 7223 813e
000002f0: 2b54 2e3e 54c2 a43e 5a82 343d 9ea5 1c3e
00000300: 7acf 4c3e 862b 8f3e 883a 10be d6a7 913e
00000310: ec88 893c 55ec c03e 93ef 20bd b6b0 9c3e
00000320: afe4 75be 9a95 a6bd 0572 593e 159a 943e
00000330: d6f0 a4bc 6dbd 133e c6ac 81be 922e 123e
00000340: bb39 bf3e 7d37 353e 0afb d9bd 3902 88be
00000350: d6dc b3bd 8d7c 953d 8405 7ebe d21b 733e
00000360: 72b5 973e 2115 353e 80c5 5ebe b03b fc3d
00000370: b643 14be 8191 843e 5882 b93e 6792 7f3e
00000380: 7480 b03d 2a40 90be e2aa e8bd 0283 993e
00000390: 74e7 a03e 2632 30be 2b4e 8abc b428 613e
000003a0: 6f2f 823d 793f 9a3d 2305 af3e cea6 423e
000003b0: 3c14 76be a47a a73e 1df8 103e da90 98be
000003c0: 993c 26be 3796 36be ace1 a83e 447c 41be
000003d0: d2e1 633d c7d8 f63d bae3 b83d 4f8b 7b3e
000003e0: a032 c8bd 2ba0 bf3d 33ee 66be 165a 9c3e
000003f0: cb9e 57be 5d28 903e ae87 533d 38d0 903e
-0.23873533 -0.33431426 0.26043186 -0.41472077 -0.22177051 0.39246213 0.36337373 -0.04047977
-0.18133801 0.08495145 -0.27926734 -0.13682394 -0.36225837 -0.30152673 0.103048414 -0.14476441
-0.17024356 0.051415235 0.3289618 0.39019957 0.07602 -0.29981643 -0.24007079 -0.23503797
-0.08638589 -0.17052665 0.27747646 0.40789923 0.103415444 -0.18350011 -0.38553047 0.08346673
0.07228387 0.1883311 -0.010816596 -0.034057755 -0.10044595 -0.23867296 -0.073744364 0.2386405
0.15090095 0.33560228 -0.33917677 -0.25368536 -0.33796388 0.011872757 -0.27600446 -0.1458769
-0.0047227717 0.089008495 -0.3401865 0.35687113 0.3065027 0.27232078 -0.37138313 -0.019875934
0.42995542 -0.042535022 -0.27689305 -0.011221937 0.51787865 -0.25276676 0.023956971 0.33461887
-0.22787954 -0.35672912 -0.39241764 -0.15046862 0.3624808 0.31688285 0.30090404 0.26097214
0.07490739 0.16030139 -0.32157245 0.033890825 0.058807477 -0.005180796 0.428327 0.19660042
-0.09508351 0.20651853 -0.047699984 -0.08736617 -0.2529498 -0.31069836 0.2654867 -0.3655114
0.25145218 -0.14198045 0.21888468 0.2451789 0.1839745 0.3111863 0.037528474 -0.14708121
-0.13999163 -0.2785604 -0.007860908 0.019927567 0.11051243 0.013182418 -0.05897331 0.18388951
-0.21755983 0.20277932 -0.25891596 -0.008542604 0.17668563 -0.040962648 0.29816926 -0.24716057
-0.19666818 -0.35057142 -0.22344191 0.27653983 0.10044489 -0.12633146 0.037019134 -0.14548218
0.5176126 -0.07660647 0.47039455 -0.2931564 -0.12655693 -0.19028875 0.36529934 -0.16076568
0.057989698 -0.38929114 -0.29047623 -0.25200763 -0.24480031 -0.15440895 -0.28962433 -0.021604307
-0.26281476 0.08686817 -0.07605252 -0.06276484 0.34143725 -0.17639668 0.11507219 0.020071328
0.028882358 0.35039875 0.33286858 -0.092744894 0.012863153 -0.07907031 -0.11870279 0.012077045
-0.20682047 0.07127561 -0.3498097 0.033200264 0.24030548 -0.1162195 0.0070657125 -0.15039553
0.26427317 0.2872227 -0.1287309 0.20195495 0.23788977 0.054104295 0.34749892 0.40929067
0.37962708 -0.3079291 0.055123284 -0.3635052 0.33428246 -0.09610196 0.29791293 0.05586602
0.043767978 -0.34985447 -0.10564954 -0.039340556 0.15841813 -0.18675223 0.23631331 -0.4130065
0.26693022 -0.28305745 -0.15471487 0.25222355 0.17024295 0.3217951 0.044069625 0.15297553
0.20001021 0.27962893 -0.14084828 0.2844836 0.016788922 0.37680307 -0.039290976 0.3060357
-0.24013017 -0.08134003 0.21234901 0.29023805 -0.02013437 0.14427729 -0.25327128 0.14275578
0.37348732 0.17696948 -0.10643585 -0.26564196 -0.087823555 0.07299147 -0.24806792 0.23741081
0.2963062 0.17683841 -0.21755028 0.12316072 -0.14478955 0.2589226 0.36232257 0.24958192
0.086182505 -0.28173953 -0.11360718 0.29982764 0.31426585 -0.1720663 -0.016882977 0.21988183
0.063567035 0.07531638 0.34183607 0.19008943 -0.24031156 0.32710755 0.14157148 -0.29798013
-0.16234054 -0.1783074 0.32984674 -0.1889506 0.05563528 0.12053066 0.090278104 0.24564861
-0.09775281 0.093567215 -0.22551803 0.3053748 -0.21056668 0.28155795 0.051643066 0.28283858

bias f4 [128]
00000000: f007 39be f048 74be 5067 423e af54 d03e
00000010: 62c2 643d cef8 0dbe 23db d1bd c81b b83d
00000020: 7e06 2fbb 604f c53e b6a8 943e a312 7d3d
00000030: 1d63 b83d 8099 563e 96d0 ac3d 8025 17be
00000040: 5c69 4cbe 9100 473e bd54 b43e 83b2 4a3e
00000050: 4557 95bd 7ef2 9abe 41b8 523e 4f1c 4abe
00000060: eda2 97bd 020c 91be 959a c2bd f3ee 803d
00000070: 8dcc 96be 5de3 b2be 9803 8f3e a2f4 90bb
00000080: 0acc 973e bf63 683d 80d8 953e 06a7 78be
00000090: 303c 94be 5ef7 cfbd 1fa5 52be ee05 11bd
000000a0: 97b5 3bbe db19 cdbe cd0c dabb 7939 8dbd
000000b0: a246 92be f21b 08bd d68f 93be 55a4 613e
000000c0: 380c 82be 6e2d cdbd c729 5b3e cd43 bf3e
000000d0: 4034 873c 90e5 a3be 7b70 14be d55d 523e
000000e0: 0a09 943e cd74 733e 8bce 8cbd 4c82 b3be
000000f0: f242 aabe a519 0a3e c04f 16b9 9134 8d3e
00000100: 56a4 933e 6cd3 46be 4ff3 b5be a486 5cbe
00000110: b858 be3e 8cd9 b23d feee e33d 7ee3 febc
00000120: 686a 74be ec53 9f3e af5f 963d 22a6 80bd
00000130: 5a67 123e 4200 923e 9745 c9bd 51da 933e
00000140: 839f 943e 8c51 913e be52 293e 6b32 84be
00000150: 4d86 0bbe a750 f7bd 3cc4 9bbe d586 58be
00000160: 5fa5 acbe 9d60 19be 3e98 bb3e 07a3 883e
00000170: e891 b03e c9b0 ce3e 5242 b63d be00 99be
00000180: de39 053e 5379 853e ab10 073e 876f a7be
00000190: a51f c73e 4381 8a3e 6473 3c3e 1223 b33e
000001a0: 689f 55be cdad 9d3c 30a6 a13d 5931 1cbe
000001b0: d399 23be 8b97 d53d 6945 553d bd75 80be
000001c0: 64eb acbe 0d77 563d 78ac 9a3e b300 a93c
000001d0: 69a1 17be c6ff 563e cda7 823e c3bd 1bbe
000001e0: 605a 803e 0fe5 22bc 1777 1bbe e8dc 7a3e
000001f0: 666a 3b3e 8fdc 6cbe 10ab 9e3e 2a18 8bbe
-0.18069434 -0.23855948 0.18984723 0.40689608 0.05584944 -0.13864443 -0.10246875 0.08989674
-0.002670675 0.3853712 0.29034966 0.06178535 0.09003279 0.20956993 0.08438222 -0.14760399
-0.19962066 0.1943381 0.352209 0.1979466 -0.07292036 -0.30263132 0.205781 -0.19737361
-0.074041225 -0.28329474 -0.095021404 0.06295576 -0.29452935 -0.3493909 0.2793243 -0.0044236938
0.29647857 0.05673575 0.2926674 -0.24282464 -0.2895217 -0.101546034 -0.20570801 -0.035406046
-0.1833099 -0.4005879 -0.006654358 -0.06895728 -0.28569514 -0.033229776 -0.28820676 0.22035344
-0.25399947 -0.10018431 0.21402656 0.37356415 0.016504407 -0.3201108 -0.14496033 0.20543607
0.28913146 0.23775025 -0.068753324 -0.35060346 -0.332542 0.13486345 -0.00014334824 0.27579167
0.28836316 -0.19416589 -0.35537192 -0.21535736 0.37177062 0.087329 0.111295685 -0.031114336
-0.23868716 0.31118715 0.07342469 -0.06281687 0.14297238 0.28515822 -0.09827726 0.288775
0.29027948 0.28382528 0.1653547 -0.25819716 -0.1362545 -0.1207593 -0.30423152 -0.21145184
-0.33719918 -0.14978261 0.3663959 0.2668688 0.34486318 0.4036925 0.08899368 -0.2988338
0.13010356 0.26069126 0.13189952 -0.32702276 0.3889133 0.27051744 0.18403393 0.34987694
-0.2086159 0.019247914 0.07893026 -0.152532 -0.15976648 0.10429295 0.052068148 -0.25089827
-0.3377334 0.05235963 0.30209708 0.020630216 -0.14807667 0.20996007 0.25518647 -0.15209107
0.2506895 -0.009942307 -0.15182148 0.24498332 0.18302307 -0.23131011 0.30989885 -0.27166873

weight f4 [64, 128]
00000000: fef1 e2bc fdf6 ac3d 9ae1 0d3b 6962 3f3d
00000010: e7fe 783d 7f63 73bd 813d ae3d be79 c4bc
00000020: d5e8 a2bd 3d83 6dbd 1b1c 4a3c 6664 b43d
00000030: 5474 b3bc 9e49 b33c 742a a5bd 09d1 873c
00000040: 7087 5e3c 9d18 93bd bba4 e8bc 8a06 0bbd
00000050: 4479 16bd 3571 893d 2474 03bc 5896 60bd
00000060: 8838 bc3c f271 283d bbe9 093d 90ad fa3b
00000070: 88cb 29bc d8c4 88bd 9d64 6dbd 8cc4 6d3d
00000080: ed73 9e3d 4242 eebc a70b 2fbb 69c5 82bd
00000090: 40cb 3dbb a050 a0bd 1016 b13d d53e c83c
000000a0: 2422 cabc 153b 9d3c aa78 783d cb75 ae3c
000000b0: 76c3 a93d 984f 13bd b6c9 55bc 84db 9bbd
000000c0: 7bb4 9a3d a6d4 9ebd bbb6 44ba 97b9 6cbd
000000d0: 5afd 1abd 59d6 713d 3ce3 d9bc 6352 9f3d
000000e0: 3c65 1a3d 4cc6 7bbd 6353 edbc 3b73 6dbd
000000f0: d849 90bd 845c a9bb 97a9 6fbd 074e 86bd
00000100: d2df 37bd 1fe0 aa3d 65a6 993d b738 583d
00000110: 72c8 2a3d 33ca 203d 1250 15bb 4ac0 8c3d
00000120: cbf5 643d 5286 543d 4938 733c 03db adbd
00000130: 9ba2 82bd 3f73 9a3c 7f84 92bd f089 86bd
00000140: 52fc 103d dcd1 30bd 653d 89bd 8c7f ebbc
00000150: 56e8 96bb 1426 cdbc eb99 22bd 8d1a 7a3d
00000160: 0183 f23c 7674 aa3d c0bb 0fbd 0ca5 ac3c
00000170: a0d4 0ebd cf11 9f3d da02 353d 3203 aabc
00000180: d3b4 ef3c 3ad5 b33c 5d5e 16bb c48f 52bd
00000190: e093 b53b 8d6f de3c 21a7 bcbb d0e7 003d
000001a0: 9688 413d e70c 6e3d fa9c 8fbc 5f4f 8bbc
000001b0: 044b 4f3d f2ca 90bd c3bd a73d f7f9 c53c
000001c0: a44f c53c 0d7e 033d aac2 61bd 5a30 96bd
000001d0: 52ce 37bd e8cb 9d3c fd42 953a 4920 52bd
000001e0: a92d 03bd 4de0 8e3d 5e71 333c 6950 70bc
000001f0: e04e 13bd 1677 5ebd 98b5 93bd dbf3 6b3d
00000200: 61cc 583d 194e ab3d a5a6 78bd 4446 b5bc
00000210: f826 14bd 6151 093b 1cd9 47bd 6eda b53c
00000220: 7897 363b 7eb0 243d bdb8 94bc 8d1f 27bd
00000230: 54e1 3cbc 9321 1ebd ad60 d6bb f92e 8cbc
00000240: a1b7 2a3d dcc1 193d 0872 82bd b637 de3c
00000250: 6510 973d 77b9 b13d e3da 99bc a834 fb3c
00000260: 75d5 61bd 9a33 773d 9e3a a93b 004c 493d
00000270: e430 7e3d d17b 3bbd 69f6 843d 9313 003d
00000280: 1512 2abd 7ea3 93bd 7207 053d b3b1 5c3d
00000290: 5704 9f3d 9c3d a63d adb2 743d 98ac dcbc
000002a0: 29df ecbc 3cd3 31bd da0d b3bc da89 7d3d
000002b0: f0be ab3d 8d5b 6bbc f77e ccba 1e94 bdbc
000002c0: 6db7 95bd c5f3 5abd fc09 9c3d b2eb 1fbd
000002d0: 2796 e13c ff7d d73c 1475 90bd 8923 23bd
000002e0: fde5 74bd 1f85 ddba 82c0 ec3c a8b2 6b3d
000002f0: 0c38 5b3d 8afb 87bd 7b8d 003d c92e 5e3d
00000300: d747 ff3c 1c03 a33d 5e80 34bd 389f adbd
00000310: e1b8 88bd 2332 8b3c ad5b a43d 953c 2e3d
00000320: 3ca7 97bc ae71 39bd 5277 3e3d 4f72 263d
00000330: 003a 853d b0aa 9ebd 6f0d 3dbd 27d9 d63c
00000340: bcec f4bb 6045 263d ea16 e7bc 4a3f 94bd
00000350: a83a 9f3d 64d2 883b 8f7c c2bc 7ad9 b0bd
00000360: d075 883d c49c 093a 1514 babb 8430 97bd
00000370: 6439 1abd 422b 9cbd 22b5 2fbc c18a 493b
00000380: 0e91 af3c 6139 693d 08ad 5d3c 4028 a7bd
00000390: 4f9c 25bd 7c12 6bbc 414b 99bd 049e a03d
000003a0: 4c9c d6bc 6a16 43bd 2026 12bc 6313 44bd
000003b0: 71a1 4c3c 4b33 593d ef89 9ebd 2e25 7a3d
000003c0: 3a8f b13d c88a 483c dfe5 163d da68 96bd
000003d0: fab9 00bd b9d2 b23d fb9a 143b 5e04 343d
000003e0: b7d4 7cbd 83ee 62bd a4a0 273d f0bf b0bb
000003f0: e7a0 1a3d ec74 ac3d ab1a 7b3d 2007 2b3d
-0.027703281 0.08445547 0.0021649362 0.04672471 0.06078997 -0.05942106 0.08507825 -0.023983832
-0.079545654 -0.057986487 0.012335802 0.08808212 -0.021906056 0.02188569 -0.08064738 0.016579168
0.0135820955 -0.07182429 -0.028398862 -0.033941783 -0.03673674 0.06711046 -0.008023296 -0.05483088
0.022976175 0.04112429 0.03367017 0.007650085 -0.010363467 -0.0667817 -0.05795728 0.05804877
0.07736955 -0.029084329 -0.0026709826 -0.06385309 -0.0028960258 -0.07827878 0.08646786 0.024444023
-0.024674483 0.019193212 0.06066195 0.021296402 0.08289234 -0.03596458 -0.01304858 -0.07610229
0.07553955 -0.07755403 -0.00075040356 -0.05779418 -0.03783927 0.05904231 -0.026597612 0.07779386
0.0376942 -0.061468408 -0.028970426 -0.05797122 -0.070453346 -0.0051684994 -0.058511343 -0.06557851
-0.044891186 0.08343529 0.0750244 0.052788462 0.041695066 0.039255332 -0.0022783321 0.06872614
0.05589847 0.05188591 0.014844962 -0.08489039 -0.06378671 0.018853782 -0.07154178 -0.06569278
0.03539688 -0.043168887 -0.06701163 -0.028747343 -0.0046053333 -0.025042571 -0.03969757 0.061060477
0.029603483 0.083229944 -0.03509116 0.021074794 -0.034870744 0.077670686 0.044192173 -0.020753477
0.029261028 0.02195226 -0.0022944428 -0.051406637 0.0055413097 0.027152801 -0.005757228 0.031471074
0.0472494 0.058117773 -0.017530907 -0.01700562 0.05060865 -0.07069959 0.08190491 0.024167044
0.024085827 0.032102633 -0.055117287 -0.07333441 -0.044874497 0.01926227 0.0011387762 -0.05130032
-0.032025967 0.06976376 0.010952322 -0.014667609 -0.035963893 -0.054312788 -0.07212371 0.057605606
0.052929286 0.08364505 -0.0607058 -0.022128232 -0.036169976 0.0020953047 -0.048791036 0.022198882
0.0027861279 0.04020738 -0.018154496 -0.040801574 -0.011528332 -0.038606238 -0.0065422864 -0.017112242
0.04167903 0.037538394 -0.06369406 0.027126174 0.07376174 0.08677953 -0.018781131 0.030664757
-0.05513521 0.060351945 0.0051644584 0.049144745 0.062058344 -0.045772377 0.064923115 0.031268667
-0.04152115 -0.07208918 0.032477804 0.053880405 0.077645 0.0811722 0.05974071 -0.026937768
-0.028915005 -0.04341434 -0.02185719 0.061899044 0.08386028 -0.014365089 -0.0015601803 -0.023141917
-0.07310376 -0.053455133 0.07619092 -0.039043136 0.027537419 0.026305197 -0.07053581 -0.03982881
-0.059789646 -0.0016900635 0.028900389 0.057543427 0.053520247 -0.06639774 0.031384926 0.054243837
0.031162186 0.079595774 -0.044067733 -0.08477634 -0.06675888 0.01699168 0.08025298 0.042538244
-0.01851236 -0.04527443 0.04650051 0.040636357 0.06505203 -0.077474 -0.04615539 0.026226593
-0.00747451 0.040593505 -0.028209168 -0.07238634 0.0777486 0.004175471 -0.023741035 -0.0863523
0.06663096 0.0005249495 -0.0056786635 -0.073823005 -0.03765239 -0.07625438 -0.010724338 0.003075287
0.021431472 0.056939486 0.013530023 -0.08161974 -0.04043227 -0.014347669 -0.07485057 0.07842639
-0.026197575 -0.047628798 -0.0089202225 -0.04787005 0.0124896625 0.053027432 -0.077411525 0.061070614
0.086698964 0.012240119 0.036840316 -0.073442176 -0.03142736 0.087315984 0.0022675383 0.043949477
-0.0617263 -0.055403244 0.040924683 -0.0053939745 0.037751105 0.084207386 0.06130473 0.04175484

bias f4 [64]
00000000: c64f 94bd 3b52 cebc e0e9 9a3d fcf3 9a3d
00000010: 36ff 013d 3958 713d aed9 2c3d 442f d73d
00000020: 39e7 a5ba 24fc ffbc 4211 f53c 946e bbbb
00000030: 27ac 8d3d f720 2f3d ec67 4a3c 7202 973b
00000040: e3c4 ae3c 970b 9d3c 0495 2d3d aff1 ad3b
00000050: d1e5 c93d 583e 6e3b f174 8cbb 3ec1 44bb
00000060: df02 19bc 3cc3 ddbc d93e 1bbd c9a8 03bd
00000070: fbc0 343d 7b97 28bd 95fe 343c e65a bebc
00000080: aefd 603d 6adb 743d 4416 0a3d 1dfd 66bc
00000090: b7a5 7b3d b8b8 b0bd 6ad1 693d 09ac b3bd
000000a0: e0e9 5bbc b002 553d 0576 673d dd31 aebd
000000b0: a661 5e3d 7d3f 033d f905 093d 9d5c c43d
000000c0: 2d97 e6bc 01b5 7c3d e224 fbbc b4a8 953d
000000d0: 4922 b73c 667c 8ebd 372d 4ebc 27d0 ea3d
000000e0: f17c 823d 8dcd 0b3e f62e 3b3d 81de 84bd
000000f0: a2a0 983c 8243 2cbd cd37 d83c 1353 043e
-0.07241778 -0.025185695 0.07564139 0.075660676 0.03173753 0.058922026 0.042199783 0.10507062
-0.0012657411 -0.03124816 0.029915456 -0.005719969 0.06917601 0.042756047 0.0123538785 0.004608446
0.021334117 0.019170566 0.04237844 0.005308352 0.09858287 0.0036353078 -0.0042864014 -0.0030022408
-0.009339063 -0.027070634 -0.037901733 -0.032143388 0.044129353 -0.041160088 0.011047025 -0.023236703
0.054929428 0.059779562 0.03371264 -0.014098433 0.061437335 -0.08628982 0.05708448 -0.087730475
-0.013422459 0.052004516 0.056509037 -0.085056044 0.054292344 0.03204297 0.03345296 0.09587977
-0.028148258 0.061696056 -0.030657236 0.07307568 0.022355216 -0.06957321 -0.012584022 0.11465483
0.06371487 0.1365263 0.045699082 -0.06487752 0.018631283 -0.042056568 0.026393795 0.12922315

weight f4 [32, 64]
00000000: 9039 3f3d 9c4a b7bd a988 0f3e 24a8 fdbb
00000010: b8c2 47bd e108 ba3d 8515 f83d a700 ffbc
00000020: 4313 ec3d bf92 f53c df86 003e 41a6 f33d
00000030: a067 b63d 6f06 063e 3f01 83bd 64f9 bb3d
00000040: fedd 80bd a9dd 8dbd 785c 6f3d da69 fdbd
00000050: 4d4c c6bd 65eb eebd d971 c2bd 4f8e 8b3d
00000060: 1cac 03be 321e 163d 9750 c93d 7fff 003e
00000070: 9d80 5dbe af99 d93d 6c61 9c3d d3bc 9a3d
00000080: 290b 0b3c 6066 083e 6a99 cbbd 1bf4 4cbd
00000090: 465b aabd c03c 24bb fb5f 003d 34ae 31bd
000000a0: 153e 05bc 7e06 893d 092e 0ebd 4c40 7fbd
000000b0: 8750 89bd be06 b3bc c1a6 893d b955 bc3d
000000c0: b0f9 fd3a 24de 24bd f14b c1bd 6742 c1bd
000000d0: 9ee4 c4bd d059 11bc 7142 593d b7f9 b43c
000000e0: 7592 9d3d a0cb 3ebd 2af2 a5bd 674f 2dbc
000000f0: 7e9d 8abd 20b4 ab3d 5fdd fc3d 8e9f 9d3d
00000100: c047 6cbc d9cb 95bc a240 c43d 2d03 1e3e
00000110: 7ee8 7a39 e7b4 acbd 57d3 2e3d 43e3 36be
00000120: dde6 023d 590b ae3d 81f0 47bd 23ea e1bc
00000130: b695 8c3d c683 623d f172 dbbd 232f 053d
00000140: 6d8c 31be 0d2a d4bd f010 e2bc b013 f93d
00000150: 5f24 243e 75ad 37bd cf01 8b3d f081 c83c
00000160: dda0 05be b0b5 3bbd 4b2c adbc 2e6c 243d
00000170: e2bb 103e 5542 883d 371a 4cbb ba17 dc3d
00000180: 443e bb3d 37b8 743d c597 b3bd 679b 563d
00000190: f1da c13d f433 23bd d566 ad3d 82dc 6fbd
000001a0: 2f88 d73c 6dd7 bd3d d129 96bd 9811 a63c
000001b0: 8c5d cfbd cd55 e63d e157 85bc c2f8 2b3d
000001c0: 91d5 123e 8f7f 293c 8bb5 6abd cbf2 673d
000001d0: fdbf acbd f274 4e3d 2940 80bb 3e2c 06bc
000001e0: b059 94be 9e8d 97be bda7 063e 3ca7 753d
000001f0: c378 193d e02e ef3c 520e 8bbd 1440 043e
00000200: 923b cb3d 68eb c43c 5282 93bd 4daf d6bd
00000210: 0e5e c23d 2d8c 9bbd 7663 aa3c d2c1 c2bd
00000220: 768e ddbd cb59 39bd 6076 e9bd c412 eebd
00000230: aaf2 9ebd 26fb 8d3d dc7a 2bbd 7c16 563d
00000240: 40ed 3ebc 1a76 d8bd 16af ae3d 145f b43d
00000250: 8c74 f93b 9413 f9bd d8e5 3abd 3f05 59bd
00000260: 1241 cf3d c112 633d aa31 4b3d 7828 ac3d
00000270: 8966 de3d 1cd3 06bd c0fa 8e3d 7c7d bd3d
00000280: d073 fd3c c794 003d 53af c4bd 60e0 663d
00000290: 802b f43c 78a2 f13d 789c e0bc aa71 173d
000002a0: 599f a2bd 4d95 e0bd b48d 33bd 441c b63d
000002b0: c017 c23d 462c a93d da62 893d 0f69 af3c
000002c0: ca0f a8bd d02e 66bc d8b2 1c3d 9d16 fcbb
000002d0: 0a26 4cbd 988e 793d e0bb 2d3c c2fb 7f3d
000002e0: 380d 91bc d600 b8bd 1728 c33d 58c9 17bd
000002f0: 485d d9bd 0c33 d6bd 6a06 c4bd 8717 aabd
00000300: 4872 c3bd c300 e3bd f77d f53c 47e6 3d3e
00000310: 5a44 113e c5d2 333e d7df e9bd 47d1 7a3c
00000320: 2b01 173e eb6f 0e3d f35c 2d3e eda2 eb3b
00000330: b3af 9a3c c412 43bc 0bdf 993b 04ea 81bd
00000340: e14e 803d f3c1 ddbd a384 6f3d 6b0a 603d
00000350: 3eef dd3d bfe8 4dbd 6ced 07bd 5626 333e
00000360: a357 ff3b 1248 043e c7f2 4cbb 8423 353e
00000370: 9ed1 d73d 53dd b9bd a032 35bc 06ae e63d
00000380: f26d 36bd eda8 153e 9d8e 0ebc 3cdc 2f3d
00000390: 0f3e 493d 40fc 25bd a6fa 153d b6e1 bcbd
000003a0: 40f7 cf3c fccb e03d 8af1 0b3e c06a f13c
000003b0: de61 a13d 67a4 523d b4b2 82bd d110 b93d
000003c0: d0ff 323e fc7f 88bd 387f 3e3c 80ef d4bc
000003d0: d4b8 a4bb d952 953d d7d3 953d 9466 43bd
000003e0: db9b 513e eb66 8c3e 7841 133e ca3e f5bd
000003f0: 2021 da3d d0ec bbbd 7abc 633d facd 0b3e
0.046685755 -0.089497775 0.14016975 -0.007740991 -0.048769683 0.09083725 0.121134795 -0.03112824
0.115271114 0.0299772 0.12551449 0.11896945 0.08906484 0.13088392 -0.06396722 0.09178427
-0.06292342 -0.06927044 0.058437794 -0.12373705 -0.09682522 -0.11665992 -0.09494371 0.068142526
-0.12858623 0.03664989 0.098298244 0.12597464 -0.21631093 0.10625016 0.07635769 0.075555466
0.0084865475 0.13320303 -0.09941371 -0.050037485 -0.0831819 -0.0025060624 0.031341534 -0.043379024
-0.008132477 0.066906914 -0.03471187 -0.062317178 -0.067048125 -0.0218538 0.06721259 0.09196038
0.0019376781 -0.040250912 -0.09438313 -0.09436493 -0.09613918 -0.008871511 0.05304188 0.02209173
0.0769395 -0.04658091 -0.0810283 -0.010578013 -0.067683205 0.083839655 0.12346911 0.07696448
-0.014421403 -0.018285679 0.0958264 0.15430899 0.00023928468 -0.08432942 0.042682018 -0.17860131
0.03195845 0.08498258 -0.048813347 -0.027577465 0.068644926 0.05530145 -0.10715283 0.032515656
-0.17338724 -0.10359583 -0.027595967 0.12161958 0.160295 -0.044843156 0.06787454 0.024476022
-0.13049646 -0.045827568 -0.021139285 0.04014223 0.14134172 0.06653277 -0.0031143555 0.10746713
0.091427356 0.059745993 -0.08769182 0.052394297 0.09465588 -0.03984447 0.08466879 -0.058559902
0.026310055 0.09269605 -0.073321946 0.020272061 -0.101252645 0.11246834 -0.016277255 0.04198528
0.14339282 0.010345354 -0.05730204 0.05662803 -0.08435056 0.050404496 -0.0039138985 -0.008189259
-0.28974676 -0.29600233 0.13149925 0.05997394 0.037468683 0.029197156 -0.06789841 0.12915069
0.099234715 0.024038032 -0.07202591 -0.10482655 0.09490596 -0.07595096 0.02079938 -0.095096245
-0.10818188 -0.04525165 -0.11399531 -0.11624673 -0.07761128 0.069326684 -0.041865215 0.052267537
-0.0116532445 -0.10569401 0.08529489 0.08807197 0.0076127704 -0.12161937 -0.045629352 -0.05298352
0.10119833 0.055437807 0.04960791 0.08406156 0.10859401 -0.032916173 0.069814205 0.0925245
0.030939013 0.031391885 -0.09603753 0.056366324 0.029805899 0.117985666 -0.02741836 0.036973633
-0.079405494 -0.10965977 -0.04383631 0.0889211 0.09477186 0.082603976 0.067083076 0.0214124
-0.082061365 -0.014049247 0.038256496 -0.0076931254 -0.049840964 0.060927004 0.010603875 0.062495954
-0.017706499 -0.089845344 0.09529131 -0.03705725 -0.10613495 -0.10458955 -0.09571536 -0.08305269
-0.09543282 -0.1108413 0.029967291 0.18544875 0.1418623 0.17560871 -0.11419647 0.015308685
0.1474654 0.034774702 0.16929989 0.007191053 0.018882608 -0.01190633 0.0046957782 -0.06343463
0.06265045 -0.108280085 0.0584761 0.054697435 0.108366475 -0.050270792 -0.033185408 0.17495093
0.0077924295 0.12918118 -0.0031272636 0.1768933 0.10538028 -0.09075417 -0.011059433 0.11263661
-0.044538446 0.14615221 -0.008700994 0.04293464 0.04913145 -0.040523767 0.03661599 -0.092227384
0.025386453 0.10976407 0.13666359 0.029469848 0.07879995 0.051426318 -0.06381741 0.090364106
0.17480397 -0.06665036 0.011627011 -0.025993109 -0.005026916 0.072911926 0.07315796 -0.047705248
0.2046961 0.2742227 0.14380443 -0.11974867 0.10650849 -0.09176028 0.055599667 0.13652793

bias f4 [32]
00000000: b3bb 91bd 8373 de3d 7246 3fbd e644 d33d
00000010: 78e0 b3bd d886 adbc c444 2f3e 443f f73d
00000020: 8823 0c3e cc6f 0bbc 99bd 04bc 4af0 8d3d
00000030: d38a 8c3c bf4f 0abd 4385 a0bd 0e42 533c
00000040: 7104 0dbe 9e06 23bd db64 aa3d 37b6 093c
00000050: 924f 103e d742 e7bd b39d 843c 179a 0abd
00000060: fcfc fc3d 065d bf3d 0b72 823d ac8f d3bb
00000070: e183 adbd df8f 153d b0b2 9fbd 3bed c23d
-0.07115879 0.10861876 -0.04669804 0.10315876 -0.087830484 -0.021182463 0.17116076 0.12072614
0.13685429 -0.008510541 -0.008101844 0.06930597 0.01715604 -0.033767458 -0.07837918 0.012894167
-0.13771226 -0.039801233 0.08320018 0.00840526 0.14092854 -0.112920456 0.016188478 -0.033838358
0.123529404 0.09343915 0.06369408 -0.006456336 -0.084724195 0.03651416 -0.07797754 0.09517904

weight f4 [128, 7]
00000000: f2a5 78be 64fc 513e 89b4 9abd 4f64 913e
00000010: 633e 3dbe cdd0 983c c014 233e 8c04 3c3d
00000020: a8e6 a9be 8fcc a9bc b23a 993e 294e f43c
00000030: e629 67bb 3e04 7dbd e3ae 633e 0235 593e
00000040: 8e7f 4abe 9026 85be 6d4e b7be 9ee0 a3be
00000050: 6ecf 6a3e e2fd c1be 2517 92bd d2e3 9a3d
00000060: 9631 c23e 695c 833e 3c35 1f3d 0a9f fa3d
00000070: 724f 69be 1bf4 b8bd 1e73 9a3e 71b5 80be
00000080: 5068 863e 6fc4 aabd d2bf 90be e0c4 e23d
00000090: c30e 7c3e 5dac 6f3e 9471 913e 74c7 b13e
000000a0: e556 79be 7dab ac3e 3126 803e 8fd1 443e
000000b0: 903a c73e 8e3d 08be abe1 6a3e 5686 5dbe
000000c0: c8eb 3d3e e153 49be 7391 853e 9c67 0bbe
000000d0: cd20 a83e 13b9 64be a3b8 81be cb73 973e
000000e0: 1aa3 bbbe bdf6 43be 49db 9dbe 7c1a 8f3e
000000f0: e27f 913e a482 533e ac36 4dbd 484d 6b3e
00000100: 159d 923e 70a0 343e 2d86 9e3e 49ac a9be
00000110: cca6 b93a b18c 9ebe e05b 9cbd d1c0 9bbe
00000120: 38e1 99be cd66 a8be 09b3 a53e fcf3 38be
00000130: b60d 4e3c 8b2c b33e e204 843e 4479 9f3c
00000140: 47b2 5fbc 5c93 40bc 85a5 0cbe d3ef 953d
00000150: 0e4c 01be 0850 053e b630 7b3e 5e2e 75be
00000160: 846c 50be 7752 9dbe b24e a83e 5213 ca3e
00000170: 7ff7 0bbe 9cb1 bebd 044a 92be f4f5 99be
00000180: 897e b8be 9475 333d 7592 1cbc e8f2 a43e
00000190: a431 d83b 09d6 ad3e d324 85be 759a 073e
000001a0: f85b a3be 2a67 9f3e b197 ac3d 8687 8c3e
000001b0: 18f6 87bd f795 903e f009 cb3e c4ab 2bbe
000001c0: 2a8e 78be b4bb 98be dcb0 1a3e f1fd 1abe
000001d0: 6671 803b 6909 953d b2bf 1cbe 301e b7be
000001e0: a1f7 77be 20b8 8bbd 8f27 f4bd 0a12 69bc
000001f0: bd63 a6be 5b53 b2be 96e8 d03e 6e58 6e3e
00000200: 9ee9 133c 5f55 75be 75ea e83d 801d d03d
00000210: cd38 a63d a06d fa3d a86a 28be d353 1a3d
00000220: b9e6 283e 050b 5cbe 8c31 a13e a434 36be
00000230: 93b5 40bd 7292 e93c 0eb2 473d b0eb f3bd
00000240: 6288 bdbe f41e dbbc 0d8f 6dbe 97af d23e
00000250: e1fa b4be 7681 1fbe 3720 c4be 9d3a 193e
00000260: ae6b 59be 1ca2 ce3d c183 dcbe 2dfe 813e
00000270: 9382 4cbe 5467 cf3d 19a5 29be e032 543d
00000280: a6e7 c63e 14c5 e6be 00cc a13e 9672 893e
00000290: fc23 88bd d5bc a63e b76d e3bb 5026 713d
000002a0: 3ad4 ed3e 545d b8be 5b29 cc3c 7e23 87be
000002b0: 57e2 e6bb bd55 383e 92d1 fe3d baa9 b6be
000002c0: eb91 4fbe 4c52 023e d094 efbd 5f85 a0be
000002d0: 24a7 393d 4db4 46bd 728b e9bd 24e6 c6be
000002e0: 73ea 96bd c6e8 abbe 563b abbe 0731 733e
000002f0: 4929 763e 443f 023f b730 a1be 1dc5 bd3e
00000300: c120 b9bd 0089 de3c 87d3 6abe dd0b 9b3e
00000310: 7012 ff3e ba4b 67be 7d3a a2be 248a 683b
00000320: bdf4 663e 4522 803d b2bc 5abe 5850 92be
00000330: 5291 f13c bc1a 7abe 1a7b c2be 8978 6ebd
00000340: e0fc fc3a e3b3 6c3e d597 c43e d1bb 0fbe
00000350: dcdc 663e f28f 1b3d 74e6 b0be 7976 033e
00000360: 44dc 16be ea45 563e c8a0 4abe e7df 8cbb
00000370: c896 563e 6ebe 3abe 9726 ba3d f6f6 6f3d
00000380: efff de3b 901f c03d 4544 b33e e78c b93e
00000390: 719b 79bc b327 c3bd ac7c d23d 8e61 e33e
000003a0: 3eca 18be 8a68 c3bc e847 c6be 8908 a5be
000003b0: 97a0 9dbe 8268 943d eabf 8e3e 9114 45be
000003c0: fdef 983e b3f5 be3e 63ec 403e 8421 48be
000003d0: e9d7 f4bd af1d 9abe cfd8 88be 0683 aabe
000003e0: 2ac9 a83e 487a 243e 8e90 97bc 7fce 9ebe
000003f0: 2a62 63be 9982 89be 2bac cb3e 5517 323e
-0.24282053 0.20506436 -0.075539656 0.28396842 -0.1848083 0.018654251 0.15925884 0.045902774
-0.3318379 -0.020727424 0.29927593 0.029822426 -0.0035272776 -0.061771624 0.22234683 0.21211627
-0.19775221 -0.26005983 -0.35802022 -0.32007307 0.2293069 -0.3788901 -0.07133321 0.075629845
0.37928456 0.2565644 0.038869128 0.122373655 -0.22784212 -0.090309344 0.30165952 -0.2513843
0.2625146 -0.08338248 -0.28271347 0.11072707 0.24615006 0.23405595 0.28406966 0.34722483
-0.24349554 0.33724585 0.25029138 0.19220565 0.38911867 -0.13304731 0.22937648 -0.21633276
0.18546975 -0.19660904 0.2608753 -0.13613743 0.32837525 -0.22336225 -0.2533618 0.2958053
-0.36647874 -0.19137092 -0.30831364 0.27949893 0.2841788 0.20655304 -0.050100967 0.22978699
0.2863547 0.17639327 0.30961743 -0.33139256 0.0014164089 -0.30966714 -0.07634711 -0.30420545
-0.3005464 -0.3289093 0.32363155 -0.18061823 0.012576511 0.3499492 0.25784975 0.019467004
-0.0136533445 -0.011753883 -0.13735016 0.073211335 -0.12626669 0.13018811 0.245303 -0.23943469
-0.20353895 -0.30726978 0.3287254 0.39467865 -0.13668631 -0.0931122 -0.28572094 -0.3007046
-0.3603404 0.043813303 -0.009556402 0.32216573 0.0065977145 0.33952358 -0.26004657 0.13242514
-0.31906104 0.31133395 0.0842737 0.27447146 -0.066387355 0.28239414 0.3965602 -0.16764742
-0.24272981 -0.29830706 0.15106529 -0.15135933 0.003919768 0.072771855 -0.15307501 -0.3576522
-0.24215557 -0.068222284 -0.11921608 -0.014225492 -0.3249797 -0.3482922 0.4080245 0.23275921
0.009027867 -0.23958348 0.11372844 0.10161877 0.08116303 0.122279406 -0.16446936 0.037677597
0.16494264 -0.21488579 0.31483114 -0.17793518 -0.047048163 0.028512213 0.04875379 -0.11910188
-0.37018114 -0.026748158 -0.23199101 0.4114959 -0.35347655 -0.15576729 -0.38305828 0.14963765
-0.21232483 0.10089514 -0.4306927 0.25389233 -0.19971685 0.1012713 -0.16566886 0.05180633
0.3884861 -0.45072234 0.31600952 0.26845235 -0.066474885 0.32565942 -0.0069405693 0.05887443
0.4645098 -0.36008704 0.024922064 -0.26394266 -0.007046025 0.18001457 0.12442316 -0.35676366
-0.20270507 0.12726706 -0.116983056 -0.31351754 0.045325413 -0.048511792 -0.1140355 -0.38847458
-0.073689364 -0.3357603 -0.33443707 0.23749171 0.24039187 0.50877786 -0.3148248 0.37064448
-0.090394504 0.027164936 -0.22932254 0.30282488 0.49818754 -0.22587481 -0.31685248 0.003548273
0.22554298 0.062565364 -0.21361044 -0.28576922 0.02948824 -0.24424261 -0.37984544 -0.05822042
0.0019301437 0.23115496 0.3839709 -0.1403649 0.22545189 0.037979074 -0.34550822 0.12838162
-0.14732462 0.20925108 -0.19787896 -0.004299152 0.20955956 -0.18236706 0.09089392 0.05858513
0.006805412 0.0938102 0.35013023 0.36240312 -0.015234814 -0.095290564 0.102776855 0.44410366
-0.149209 -0.023853559 -0.38726735 -0.32233074 -0.30786583 0.07246496 0.27880794 -0.19246127
0.29870597 0.3729683 0.18840174 -0.19544035 -0.11955244 -0.30100772 -0.26727912 -0.33303088
0.32965976 0.16062272 -0.018501546 -0.3101692 -0.22205415 -0.2685745 0.3977979 0.17391713

bias f4 [128]
00000000: 6c8f 263e 070d bcbe 620a 9e3e 59f3 813e
00000010: a51d aabe 5e5a 663e c32c 56bd 4315 f1bd
00000020: ca5d 7b3e 29b2 883d 9d60 c6bb b6cd fabd
00000030: b403 85be 2a8a 423e 9066 f53e 5c5c e0bd
00000040: 4e20 b7be 1fb6 54be 9a3d a93e 1a94 95be
00000050: 54bf e0bd c5f9 04bd 48e9 bb3e 9d96 9a3e
00000060: c146 b93e c2e9 bdbe 7bd7 e93c cc7b 89bd
00000070: 0325 7f3e e090 a43e f315 f3bd 9d24 d03e
00000080: 8ebd adbe db98 ecbd 0ee8 273e f212 d83e
00000090: 9db3 c5bd cabc 9b3e 3871 b53e 6020 0e3e
000000a0: 81fe 13be 4572 773e 177b e9bd 34e4 ce3e
000000b0: a730 5d3e ce0c 9e3e f5f4 4bbe 25a8 dd3e
000000c0: ccb5 8cbe d58b e93c 1bb3 b03d 9fe6 85be
000000d0: 2fa4 22be a676 a33e f98c c83e 7f46 8d3e
000000e0: 9d8f 08bd 8b8b 343e c87a 893e ccde 213e
000000f0: 804e fc3c 4821 3d3e 242b c0be cfce 69be
00000100: ff0d 0dbe 077b a9bd a2dd 98be 4e76 2e3d
00000110: 1663 5c3e d2da acbe 5a53 93bd e89e 12be
00000120: 7d3d 0ebe 8d9c 62be 11d8 bb3e 77c1 6c3e
00000130: 71bd a7be dd52 bfbd 1f5f 9c3e 6a1b 27bc
00000140: ce00 a83e 7775 f93e 4f42 c1be 89fe df3e
00000150: c200 cb3e 46cc 8d3e 58d8 8dbe 6489 313e
00000160: 0497 81be bf27 debd 2d5d 8e3e 29a3 803e
00000170: fd02 c4bc 48f3 f53e 8ffd d23e eb9f 73bc
00000180: 9875 32be cbf1 8ebe 1f12 80be 3057 3a3e
00000190: 4289 043d 51c2 123e f9dc 8f3e c3b3 863e
000001a0: 65de d43d 68e0 d33e 7675 883e 2aae b5be
000001b0: 4eb7 a53e 9fea 973e 00b5 3bbe 5693 c03e
000001c0: 8858 963e 6f68 86be 75d3 9c3e 22eb ff3e
000001d0: 6875 46be b7c5 863e 035c de3b 6b8f 253e
000001e0: ecaf c93e 95d0 7cbe 5809 b33e cde8 68be
000001f0: 2a33 173e 21a2 363e b3ca af3e 974f 28be
0.16265649 -0.3672869 0.30867296 0.25380972 -0.33225742 0.2249541 -0.05228878 -0.117716335
0.24547496 0.06674606 -0.0060539977 -0.122462675 -0.25979388 0.18998018 0.4792981 -0.10955116
-0.35766834 -0.20772599 0.3305481 -0.29214555 -0.10973993 -0.03246476 0.36701417 0.30193034
0.36186793 -0.37092406 0.028545132 -0.067130655 0.24916463 0.3214178 -0.11869421 0.40652934
-0.3393368 -0.11552592 0.16397116 0.42201954 -0.09653399 0.30417472 0.35437942 0.13879538
-0.14452554 0.24164684 -0.11400431 0.4040848 0.2160059 0.30869144 -0.19917662 0.43292347
-0.2748245 0.02850906 0.08627912 -0.26152512 -0.15882944 0.3192646 0.39170054 0.27592847
-0.033340085 0.17631356 0.26851487 0.15807647 0.03079915 0.18469727 -0.37532914 -0.22832797
-0.1377487 -0.08275419 -0.29856592 0.042593293 0.21522173 -0.33760697 -0.071936324 -0.1431843
-0.13890643 -0.22130032 0.36688283 0.23120676 -0.3276172 -0.09341977 0.30541322 -0.010199407
0.32813114 0.4872243 -0.37745902 0.43748882 0.39649016 0.2769491 -0.2770412 0.17337567
-0.25310528 -0.10847425 0.27805462 0.2512448 -0.023927206 0.4803717 0.41209075 -0.01486967
-0.17427671 -0.27918848 -0.25013825 0.18197322 0.03235746 0.14331938 0.28098276 0.26309022
0.10393981 0.41382146 0.26652116 -0.3548444 0.32366413 0.2967119 -0.18330765 0.37612408
0.2936442 -0.26251552 0.3063008 0.4998408 -0.19380724 0.2632272 0.006785871 0.16167991
0.3939203 -0.24688943 0.34968066 -0.22745056 0.14765611 0.17835285 0.34334335 -0.16436611

weight f4 [64, 128]
00000000: 78e8 9c3d c221 473c fe1a 4ebd 7da4 3c3d
00000010: c963 9ebd f104 08bd e288 6bbd b2c1 9dbd
00000020: 8daf 5dbc 1445 5a3c 48f4 a9bb 9619 333d
00000030: 9710 68bd 18ea 1c3d cbdb a13c 21e8 24bd
00000040: 6a15 85bd 8105 633d a18c 86bc 5dea 823d
00000050: bff0 a03c b3a5 753d 3078 65bd 6773 9e3c
00000060: c2af aebd 33e9 b2bd 208f 9b3d 09a8 afbc
00000070: de6f 72bd dc65 2abd ec46 ae3c 70c1 0bbd
00000080: 9d01 a3bd 77de 1dbc a062 8e3d f070 373d
00000090: 3145 233d a29e 333d eaa9 8cbd d96c a93d
000000a0: ff17 873c 862d 833d d379 86bc 61b5 013c
000000b0: b3c5 6cbd 4c02 093d a01e f4bb 9e54 7d3d
000000c0: bfd0 aabd 82da 953c cf88 643d fa7d a43a
000000d0: 3bbb 65bd bd70 a1bd 1886 81bd f754 95bd
000000e0: a324 7a3d 2ed1 9e3d 27c4 1cbd ab97 dc3c
000000f0: ccc1 6d3d 0103 883d cab3 f73c c0af a63c
00000100: 99c3 913d 8adf 8dbd ed61 6f3d 42cd a0bd
00000110: 9c58 953d 396b e23c e76e 293d 32fd aa3d
00000120: 8411 8cbc d986 fabb 9826 24bd 2f48 ed3b
00000130: f665 0abd a994 80bc 6da1 a3bd a4e1 95bd
00000140: 056c 033d 78f3 aabd 8973 e53b d440 793c
00000150: 1789 1cbd 5d3d 313d fe2b 42bd d41a 4ebd
00000160: 149d ab3d c5b1 07bc c7f4 a93d d4fa a23d
00000170: 0712 623d 88c3 f5b8 db94 2dbd 5b75 5dbd
00000180: aed3 9fbd 328c fabc ef32 07bd 3f20 de3c
00000190: 72a7 23bd 77bf 103d 4b19 bbbc 147a 85bd
000001a0: 0453 9d3d d138 90bd d196 aebd 8b3c 2d3d
000001b0: ea61 02bc 2144 7ebd c7b4 413d 190c e13c
000001c0: 3c2b a23c aea1 cbba 3905 89bc 63ba 85bd
000001d0: dca6 6bbc 9fc5 683d 3a04 12bc 5e04 feba
000001e0: 5f5d 653d b340 b03d 5caa 1bbd 6765 b1bd
000001f0: 886b 8e3c 0f6a dc3b f6fe 38bc b0c4 023d
00000200: 1a8a 9b3b 6b5a 44bd 2ef7 59bd 9b61 3dbb
00000210: ecef a7bd b350 f4bc 1207 5d3d 6dba 93bd
00000220: e7b4 83bd 1957 d2bc 2b2b c9bb 15d0 82bd
00000230: 1d94 933d 72d2 13bd 954e bc3c 4f2b a7bc
00000240: b510 d2bb 19b2 14bd 8ef8 bbbd 730f 1fba
00000250: e6c6 8d3c 3d4e 443c b12d 88bd 0f81 e5bb
00000260: ca49 91bd 4d18 a6bd 1146 8fbb 5958 7f3c
00000270: d4da 463d 89b1 a2bd 094f 50bd 60f2 8bbd
00000280: b791 41bd 9f39 563d fc51 5abc b334 5dbd
00000290: 2667 9bbd 367c 56bd 663c cabc 347c 0c3d
000002a0: f675 5cbd a8da 903c bbea 843d 86cb c43c
000002b0: 882d c83c 6d32 a6bd 5363 d33b 79f1 413d
000002c0: cc2e 943d a126 8fbd 9017 a33d 97c2 863b
000002d0: d1aa 4b3d 96a7 45bd a661 5f3d 1aa9 7e3d
000002e0: 9507 babc be61 b03c b098 06bc 30aa a4bd
000002f0: 78ca 4d3c 32bf 6f3d 9925 97bd 5e61 a1bd
00000300: 0052 a33d 3247 b23d 3465 033c 0793 8ebc
00000310: d4f9 c1ba de0f 9abd 5141 79b7 ee62 ac3d
00000320: 8e00 243d b63f c93b f1d7 9a3d 11c6 813d
00000330: 3ade 773d 594f 6f3d 5b48 403d ce3d e03b
00000340: 0327 88bd 04c3 2cbd 9936 983c 1166 7b3d
00000350: ff41 bc3b 5738 0abd 6709 923d d338 fdbc
00000360: 3d48 6cbd 8ccd 3d3b 7ba1 283d 8be7 54bd
00000370: c7e2 173d 8bd0 c5bd 2b05 4c3d 9470 9c3d
00000380: 93e2 933d f250 5fbd 8f62 713d bf8f fb3c
00000390: 7c78 a6bd 78f0 09bc d0b1 863d 13dc 5dbd
000003a0: 499c bcbd 8ed9 c3bc 9483 913d eaf7 c93c
000003b0: 5854 57bc 759d a7bd 5b98 733d 2004 32bd
000003c0: b247 8e3d 3c65 a7bb 4d6a 113c 4fe8 d6bc
000003d0: dccc a9bb 9eef a73d 4112 243c ad42 133d
000003e0: 6382 913d 8ab4 5e3d f88c 673d 49ac 1d3d
000003f0: 87ee 6d3d c16a 443d 32d7 c9bd 116c 77bc
0.076615274 0.012154045 -0.05031871 0.046055306 -0.07733876 -0.033207837 -0.05750359 -0.0770296
-0.013530624 0.013322134 -0.0051865913 0.043725573 -0.056656446 0.038309187 0.019758126 -0.040260438
-0.06498225 0.05542517 -0.016424479 0.063923575 0.019646047 0.059972476 -0.056022823 0.019342138
-0.08529617 -0.087358855 0.07595658 -0.02144243 -0.059188716 -0.041601047 0.021274053 -0.034120023
-0.07959292 -0.009635559 0.06952405 0.04478544 0.039860908 0.043852456 -0.06868346 0.08272714
0.016490934 0.06405167 -0.016415512 0.007916779 -0.05780573 0.033449456 -0.00744994 0.061848275
-0.083405964 0.01829267 0.055794533 0.0012549751 -0.05608676 -0.07882831 -0.063244045 -0.072915964
0.061070096 0.077547416 -0.038273003 0.02692779 0.058046147 0.06641198 0.030237097 0.020347476
0.071173854 -0.06927402 0.058443 -0.0785165 0.072922915 0.027639018 0.04136553 0.083490744
-0.017098196 -0.0076454696 -0.04007587 0.007241271 -0.033788644 -0.015695887 -0.07989774 -0.07318428
0.032085437 -0.08347219 0.0070022983 0.01521321 -0.038216677 0.04327141 -0.047405235 -0.050318554
0.0837957 -0.00828213 0.08298641 0.07957998 0.055192973 -0.00011718931 -0.042378288 -0.054066997
-0.078040466 -0.030584428 -0.03300756 0.027114986 -0.03995461 0.035338845 -0.022839209 -0.06517425
0.076818496 -0.07042087 -0.0852486 0.042294066 -0.007957915 -0.06207669 0.047291543 0.027471589
0.019796006 -0.0015535855 -0.016726123 -0.06529691 -0.014383044 0.05682909 -0.0089121405 -0.0019379964
0.05599725 0.086060904 -0.038004264 -0.08661919 0.01738526 0.0067265104 -0.011291256 0.031925857
0.0047466876 -0.04793779 -0.053214245 -0.0028897289 -0.08200058 -0.029823637 0.05396182 -0.07213292
-0.06430989 -0.025676297 -0.006139179 -0.06387345 0.07205985 -0.03608937 0.02298669 -0.020406393
-0.006410683 -0.03630266 -0.091782674 -0.0006067671 0.017306756 0.011981544 -0.0664934 -0.0070039104
-0.07094152 -0.08110104 -0.0043723662 0.015585029 0.048548535 -0.079440184 -0.050856624 -0.06833339
-0.047258105 0.052301046 -0.013325211 -0.054005336 -0.075880334 -0.05236455 -0.024687003 0.034298137
-0.053823434 0.017682388 0.06490084 0.024022829 0.024435773 -0.08115087 0.0064510494 0.047349427
0.07235488 -0.0698979 0.079634786 0.0041125524 0.04972345 -0.048255526 0.054536484 0.062172987
-0.022708694 0.021530982 -0.0082151145 -0.08040273 0.012560479 0.058531947 -0.07380218 -0.078798994
0.07974625 0.08704986 0.008019734 -0.017404092 -0.0014799186 -0.07522558 -1.4856764e-05 0.08417307
0.04003959 0.006141628 0.07560719 0.06336606 0.060514666 0.05842528 0.046944004 0.006843305
-0.06648066 -0.04217817 0.018580722 0.061376635 0.005745172 -0.033745136 0.071306996 -0.030910885
-0.05768608 0.0028961627 0.041169625 -0.05197863 0.037081506 -0.09658917 0.049809616 0.0763866
0.0722095 -0.054520555 0.058931883 0.030708192 -0.08128449 -0.008419149 0.06576884 -0.054164957
-0.092094965 -0.02390745 0.07105175 0.024654347 -0.013142668 -0.081843294 0.05947147 -0.043460965
0.069472685 -0.0051085036 0.008875442 -0.02623382 -0.005181892 0.082 0.010014118 0.03595226
0.071049474 0.054371394 0.056530923 0.038494382 0.058088806 0.04795337 -0.098554984 -0.015101449

bias f4 [64]
00000000: d30d 473b c75e 9a3d 8733 c2b9 50c1 ad3c
00000010: bd17 ce3c 8bfa 5f3c e4d2 943d 7e58 113d
00000020: 3cde a63c a70a c23c 479c 673d a29c e03c
00000030: f795 af39 480a e2bc 564f 16bc 0517 9bbd
00000040: 0349 a43c 5c41 1e3e 8733 2ebc c4bf ba3d
00000050: ff31 cd3d 2223 99bd ea42 c03d d59a a1bd
00000060: a803 ad3d 9596 d0bc c683 bc3d 7d74 913d
00000070: e5af 1f3d 1014 6f3d d490 52bd 60af 933d
00000080: a204 5a3d 0b8f b83d 5bcf f33d b2db eb3c
00000090: 4418 2abd bbdc 8a3d 1bd3 ec3d 7f7a 7abd
000000a0: bfc5 303c 6886 6abb e5ab 843d 5da1 8b3d
000000b0: 7b8d 633c c77b c93d 19fe debc 0d32 bd3c
000000c0: d2e9 94bc c15d 343d 6c9f 2a3d 3220 283d
000000d0: ea95 993d 3cc2 123e 7a1d d5bc 96f8 f33d
000000e0: e579 db3d fe00 51bd 21ae 10bd df4e a9bd
000000f0: c17b b03d 6e6b 6f3d f0c1 08bd 799a 1e3e
0.003037323 0.075376086 -0.00037040954 0.021210343 0.025157804 0.013670574 0.07266787 0.035484783
0.020369641 0.02368672 0.056545522 0.027418438 0.00033490334 -0.027592793 -0.009174189 -0.0757275
0.020054346 0.1545462 -0.010632402 0.09118608 0.100193016 -0.07477404 0.09387763 -0.0789086
0.08447963 -0.025462428 0.09204821 0.071022965 0.038986105 0.058368742 -0.05140765 0.072111845
0.053227074 0.09011658 0.11904784 0.028791282 -0.041527048 0.06780382 0.11563703 -0.061151978
0.010789334 -0.0035785679 0.06478099 0.06817887 0.013888712 0.09838062 -0.027220773 0.023095155
-0.0181779 0.044034723 0.041655943 0.04104633 0.07499297 0.14331907 -0.026015032 0.119126484
0.10716609 -0.051026337 -0.035322312 -0.082669966 0.08617354 0.058452062 -0.03338808 0.15488614

weight f4 [32, 64]
00000000: 7a8c febd e0c3 bbbb 56fe 0b3d eb82 acbd
00000010: 9307 6b3b 393b 4f3c 57c9 89bd 94e4 c0bc
00000020: 2046 19bd d61f e93d e906 d6ba 3fae e73d
00000030: 8095 00bd 708a 98bd a0d8 a43d 80ae 0cbd
00000040: 9b5f bb3d da8c 723d d082 80bc 999a 3e3d
00000050: d898 9bbc b867 973d f2eb 033d 3c1d 0fbd
00000060: dbca 6ebd 54b2 7d3d a4f9 cbbd 782d f93d
00000070: 480b c63d cc5a 503d 988a a9bd c01e dd3b
00000080: e592 873d 40ef 353d 8b55 283d 18a7 253d
00000090: 501b 5f3c 9f60 49bc 4814 b0bd 9ccc 783d
000000a0: c0f6 ffbd 677c 0b3d 6933 ecbd 972e fdbd
000000b0: c477 55bd 0db2 7fbc 0061 473d 1cb0 3d3d
000000c0: 96f9 f9bd 691c dd3d 2062 15bc e08d 5abd
000000d0: b82a b53c 5fd9 cfbb 8563 933d a911 dabb
000000e0: 78e1 89bd 1678 b3bd 76cf c83d b85b 80bc
000000f0: 2207 babc 8e24 e1bd f23d b0bd 8d69 0ebc
00000100: 781e 733d 93cf 9ebd d99d 553e cc38 07be
00000110: 6d44 013e 85df d7bd 0a31 f8bc 078a cd3c
00000120: 6a92 3b3c 0586 b43a 1ca7 533c 02f7 b23c
00000130: 3333 cebd 9db0 893e 1077 043c ec38 9f3d
00000140: 5667 193d 4eee bf3d 5a26 f43d c152 463e
00000150: 8b9e af3c d502 48be 9a6a 7e3d 0062 ccbb
00000160: e62e b13d 62a2 fd3d 5e0a db3c 3609 de3c
00000170: d137 49bd 0d68 923e 20a8 7f3d 7530 eebd
00000180: a6b4 a8bd c1e7 8cbd ebbe 843e cefe 403d
00000190: 70cc 90bd 2c96 b53d 9dae 3c3d c4cb b0bd
000001a0: 48d6 363e 563f a83c 7b4a f8bc e95f b4bd
000001b0: cc30 733d d923 a53d a4b8 28bd f12d 933d
000001c0: 03bb ffbd 933a 1abe 33dc 0abe b452 ac3d
000001d0: 79c3 f23d 7ffe 823c bea7 7f3e 4055 343e
000001e0: 3e4c b9bd 383d 983d 4ef7 18be e518 bd3d
000001f0: f7e5 7b3e 4893 283e 6420 613d 95ab 023e
00000200: f4d0 5cbd 098e 0a3c c0be be3c 2a59 ecbd
00000210: 4205 c23d 711a a0bd 973b f9bc 5155 ff3d
00000220: fd1e ac3c e714 1dbd 8ab4 0fbe 16d7 123e
00000230: c68e d23d db10 273e 30f9 fc3c 9867 ec3d
00000240: dbb4 363e 1163 fb3d 7cfe aabd 23e2 ed3d
00000250: 83ac ca3d af0b 60be b3d7 5f3e 308d e9bd
00000260: 1c69 5c3d 5470 81bd 0777 a83d 78e2 b13c
00000270: 3c81 fc3b 230d f53d 028b 0f3e 6c4a dabd
00000280: 5162 e43d a8fd af3c 03bc 023e 5fff b7bd
00000290: d027 803d 7343 343d c0ee aebd 468a d83d
000002a0: c1c5 d03d d7e7 103d 8117 5bbd 2cc6 c23b
000002b0: 4c90 a3bd c077 edbd 38f5 843d 17d4 91bd
000002c0: 6c5c 5abd 7c54 02be 5f3b 53be 3435 c6bd
000002d0: e971 943c 0df3 163d 95cc 273e 473d 863d
000002e0: 44c0 c4bd a880 50bd 099e fbbd 492f cbbd
000002f0: d238 593e 10c8 263d 0816 373e dcfd da3d
00000300: d8c9 ea3d 56ad f1bd 3d73 94bd 453e 593d
00000310: 26b4 ea3b ecf2 3a3d 88d1 f5bd 73fa 30bd
00000320: 004e 2cba 6c4c 1c3d 8c5b d6bd 2bfb ae3d
00000330: 66e7 b0bd e372 c8bd d482 623d 5883 373d
00000340: 59f2 043d f914 e3bc 54e4 e43d 7534 8f3d
00000350: e82f fcbc 7ce5 10bd 533c 6abd 04ee a3bd
00000360: e961 eabd 000c a5bb 1079 6bbd ec8a 99bd
00000370: 4aed a53d a997 ce3c 656d 553d e60a e2bd
00000380: fbf2 2fbd 7028 dfbc 1a94 f53d 4ce2 d3bd
00000390: 66df c03d 059f 463d fe44 b93d e874 8ebc
000003a0: 5323 8ebd 64b8 973d c962 b93d 2efd eb3c
000003b0: 14c1 22bd 99ae ee3d 9c2e ea3d d28d bebd
000003c0: e4f6 0d3d 20e1 063d 26c0 bcbd 50e3 283d
000003d0: 6e3f d13d b6a2 f73d 0d16 0a3c 9840 fdbd
000003e0: 80be 96bb 8e39 c9bd b62f 873d 004d 5bbc
000003f0: 15f4 85bd 4a65 a6bd 6536 f13d cd98 f6bd
-0.124291375 -0.005730137 0.0341781 -0.08423408 0.003586267 0.012648397 -0.06727856 -0.023546495
-0.037420392 0.11383025 -0.0016328964 0.11312532 -0.031392574 -0.0744828 0.080491304 -0.034346104
0.09149095 0.059216358 -0.015687376 0.046534155 -0.01899378 0.0739283 0.032207437 -0.03493999
-0.058298927 0.061937645 -0.099597245 0.121668756 0.096701205 0.05086784 -0.08278388 0.0067480505
0.06619815 0.04441762 0.041097205 0.040442556 0.013617352 -0.012291103 -0.08597618 0.060742006
-0.12498236 0.034054186 -0.11533243 -0.12362402 -0.05211617 -0.015606415 0.04867649 0.04631053
-0.12205808 0.107964344 -0.009117633 -0.05335796 0.022115096 -0.0063430513 0.07196716 -0.0066549373
-0.06732458 -0.08763139 0.09805195 -0.015668735 -0.02270848 -0.109933004 -0.08605565 -0.008692157
0.05935523 -0.077544354 0.20860995 -0.1320526 0.12623759 -0.1054068 -0.030296821 0.02509023
0.011448482 0.0013772851 0.01291826 0.021846298 -0.10068359 0.26892558 0.008085027 0.07774529
0.037452064 0.09371625 0.119213775 0.19367506 0.021437904 -0.1953233 0.062113382 -0.0062372684
0.08651523 0.12384488 0.026738342 0.027104001 -0.049125496 0.2859501 0.062416196 -0.11630336
-0.08237581 -0.06880141 0.2592691 0.047118 -0.07070243 0.08866534 0.04606496 -0.08632615
0.1785518 0.020538013 -0.030308953 -0.08807356 0.05937271 0.08063478 -0.041191712 0.07186497
-0.124868415 -0.15061407 -0.13560562 0.08414212 0.1185369 0.015990494 0.24966332 0.17610645
-0.09047745 0.074335515 -0.14938089 0.09233264 0.24599443 0.16462433 0.05496253 0.12760766
-0.05391021 0.008456715 0.023284316 -0.11540444 0.09473659 -0.07817543 -0.030423922 0.12467445
0.02101087 -0.038350012 -0.14033714 0.14339861 0.10281138 0.16315024 0.03088054 0.115431964
0.17842428 0.12274755 -0.0834932 0.11615398 0.09896185 -0.21879457 0.21859626 -0.114038825
0.053811178 -0.06320253 0.08225828 0.021714434 0.0077058356 0.11965396 0.14017871 -0.10658726
0.11151565 0.021483257 0.12767033 -0.08984255 0.06257594 0.044009637 -0.08541632 0.105732486
0.101939686 0.03537735 -0.053489212 0.005944034 -0.07986507 -0.11595106 0.06492084 -0.07120531
-0.053310797 -0.1272754 -0.20628117 -0.096781164 0.018120723 0.036852885 0.16386636 0.065546565
-0.09606984 -0.050903946 -0.12286002 -0.09921128 0.21213081 0.04071814 0.17879498 0.10692951
0.1146428 -0.11800639 -0.072485425 0.0530379 0.0071625886 0.045641825 -0.120028555 -0.043207597
-0.0006572902 0.03815882 -0.1046668 0.08544 -0.08637886 -0.09787538 0.05530055 0.044802994
0.032457683 -0.027719961 0.11176363 0.06992427 -0.030784562 -0.035375103 -0.057186436 -0.08004382
-0.11444456 -0.005036831 -0.0574885 -0.074972 0.081019 0.025218802 0.05210628 -0.11037235
-0.042956334 -0.027240962 0.11991139 -0.10345897 0.0941761 0.048491497 0.09046362 -0.01738973
-0.06940331 0.074082166 0.09052045 0.028807249 -0.039734915 0.116543956 0.11434671 -0.09304394
0.03465928 0.03292954 -0.09216337 0.041232407 0.102171764 0.120915815 0.008428109 -0.12365836
-0.004600346 -0.09825431 0.06600897 -0.013385057 -0.065406956 -0.08124788 0.11777953 -0.12040863

bias f4 [32]
00000000: 93a7 85bd a748 acbc deb6 9c3d 5223 dfbc
00000010: e192 fabc c76b 8d3d 1334 5ebb e5cc b03d
00000020: 183f eabc 2255 a6bd 3a8d 1c3d 7e38 ec3d
00000030: 16ce babd ed9a ebbd e9ab d83d 70f8 c0bd
00000040: db71 513d 9458 b53d 6e48 d83d 4ea1 77bd
00000050: 76fa 483c 7bfb 803d a018 463c 80cf 563d
00000060: ae88 123d 976f 033e 5109 373d 2523 193d
00000070: 6ca3 263e a89f 6e3d 5c21 1c3e 31b7 c5bd
-0.06526103 -0.021030737 0.07652067 -0.027238522 -0.030587615 0.069053225 -0.003390555 0.086328305
-0.028594539 -0.081217065 0.03822062 0.115342125 -0.09121339 -0.11504159 0.10579664 -0.09422386
0.05113397 0.088547856 0.1056069 -0.060456567 0.012266746 0.06297966 0.012090832 0.05244398
0.03577488 0.12835537 0.04468662 0.037387032 0.16273278 0.05825773 0.152471 -0.096540816

weight f4 [2, 32]
00000000: ec10 05bd 1d8f ec3d d435 25be d6a4 603e
00000010: c901 f53a 3832 82bd e5a3 3d3e 2857 15be
00000020: 07a4 6c3e 57fd d83d 4ff0 c7bd 40e3 af3c
00000030: 4425 06be a16b 7dbd 2dc0 e0bd 83e2 f2bd
00000040: ef81 033e 32d0 423e ce3f adbd 3834 0abd
00000050: e6b9 773e f68a 2a3e a196 773e c090 703a
00000060: 1239 62bc 1d4c 513e 3f9f 23bd b0ee df3c
00000070: 3e00 a3bd 827c 953d 20e0 fd3d 28d6 113e
00000080: edc5 513e 6b8e 053e 550e 0fbc d139 69be
00000090: 7809 223d 2225 f23c 131d 08be 2a8e 6b3d
000000a0: c0e8 3c3c bf78 e73d a0c1 5abd 9706 393e
000000b0: fbc5 d8bc e993 98bd 2f06 bcbd 71d5 d4bd
000000c0: 6eba 0d3e 1859 27be 83df eabd 467d 4cbd
000000d0: 3e6a e4bd 187f a3bd dfbf a33d bcf2 63be
000000e0: dd33 b1bd fbf2 58be 120f 703d ecee a9be
000000f0: 1710 f33d 7d5f 28be ead1 9f3d d00b ccbd
-0.03248684 0.11550734 -0.16133815 0.2193788 0.0018692549 -0.06357235 0.18519552 -0.14584029
0.23109446 0.10595196 -0.09762632 0.021470666 -0.13100153 -0.06187022 -0.109741546 -0.1185961
0.12842534 0.19024733 -0.084594354 -0.033741206 0.24192008 0.16654572 0.24178554 0.0009176843
-0.013807552 0.20439191 -0.03994679 0.027335495 -0.079590306 0.072991386 0.12396264 0.1424185
0.20485659 0.1304261 -0.008731444 -0.22775961 0.03955981 0.029558722 -0.13292341 0.057508625
0.011530101 0.11302327 -0.05340731 0.1806892 -0.026461592 -0.074500866 -0.09180867 -0.10392273
0.13840649 -0.1634258 -0.11468413 -0.049924158 -0.111530766 -0.079832256 0.07995581 -0.22260565
-0.0865247 -0.2118644 0.058608122 -0.33190095 0.11868303 -0.16442676 0.0780371 -0.099631906

bias f4 [2]
00000000: 8183 57bd cb09 393c
-0.052615646 0.011293839
