2023/baseline0806/model/WLTP_trained_0822/PPO_actorcritic_70episode.pt (torch, 101527 bytes, 17 tensors)

weight f4 [128, 7]
0	0xbe78777e	-0.24264333
1	0xbeb7b897	-0.35883018
2	0x3e88d969	0.2672837
3	0xbee1a775	-0.44073072
4	0xbe6bf155	-0.2304128
5	0x3ec782d4	0.38967
6	0x3eb82a2a	0.3596967
7	0xbd25ce1e	-0.04047977
8	0xbe39b0ac	-0.18133801
9	0x3dadfb07	0.08495145
10	0xbe8efc21	-0.27926734
11	0xbe0c1b93	-0.13682394
12	0xbeb979ee	-0.36225837
13	0xbe9a61b6	-0.30152673
14	0x3de1da3c	0.11027953
15	0xbe19bf7a	-0.15014449
16	0xbe253bfe	-0.16136166
17	0x3d28afa7	0.04118314
18	0x3ea3be3d	0.31981078
19	0x3ec5b649	0.38615635
20	0x3d918833	0.07106056
21	0xbe95dad6	-0.2926852
22	0xbe7d9d05	-0.2476693
23	0xbe6a0570	-0.22853637
24	0xbdc772e1	-0.09738708
25	0xbe36d1fb	-0.17853539
26	0x3e8c0578	0.27347922
27	0x3ece373f	0.40276524
28	0x3dddcfc2	0.10830642
29	0xbe3be774	-0.18350011
30	0xbec698be	-0.38788408
31	0x3dafd7d6	0.08586089
32	0x3d94de19	0.07268924
33	0x3e38fe9c	0.18065876
34	0xbc9bbe48	-0.019011632
35	0xbd2218f3	-0.039574575
36	0xbdcdb69b	-0.10044595
37	0xbe634eb0	-0.22197986
38	0xbdb8d656	-0.09025256
39	0x3e6aebe1	0.22941543
40	0x3e164dc8	0.14678109
41	0x3ea98ece	0.33116764
42	0xbeada894	-0.33917677
43	0xbe81e30c	-0.25368536
44	0xbead099a	-0.33796388
45	0x3c4285f4	0.011872757
46	0xbe8d5075	-0.27600446
47	0xbe1560c1	-0.1458769
48	0xbb9ac17b	-0.0047227717
49	0x3dc62a1d	0.09676001
50	0xbeb3f84e	-0.3515038
51	0x3eb7dcda	0.35910684
52	0x3e95b86c	0.29242265
53	0x3e86d4ba	0.26334172
54	0xbebe1efc	-0.37133014
55	0xbcc5fa2a	-0.02416714
56	0x3ed9a2b5	0.42506948
57	0xbd2dcedd	-0.04243361
58	0xbe87eed4	-0.265494
59	0xbc4ff754	-0.012693245
60	0x3f052a61	0.5201779
61	0xbe82c108	-0.25537896
62	0x3cb48fa3	0.022041148
63	0x3eaef538	0.34171462
64	0xbe6e09a6	-0.23245868
65	0xbeb257a7	-0.34832498
66	0xbecd562e	-0.40104812
67	0xbe22c7d6	-0.15896544
68	0x3eb75739	0.35808733
69	0x3e9f9864	0.31170952
70	0x3e9c5d92	0.30540138
71	0x3e806b22	0.25081736
72	0x3d9b2439	0.07575268
73	0x3e17dd53	0.14830522
74	0xbea7d62b	-0.32780585
75	0x3ceac321	0.028657498
76	0x3d56427d	0.052309502
77	0xbc52fa79	-0.0128771
78	0x3ed93ccb	0.42429194
79	0x3e402fae	0.18768188
80	0xbdc9b289	-0.09848506
81	0x3e5a6ce7	0.21330605
82	0xbd546f3b	-0.05186389
83	0xbdbbf756	-0.09178035
84	0xbe875461	-0.26431563
85	0xbea2becf	-0.317862
86	0x3e8a6c9b	0.27035984
87	0xbec03f9d	-0.37548533
88	0x3e7a7703	0.24459462
89	0xbe173909	-0.14767851
90	0x3e59a335	0.21253665
91	0x3e805fb1	0.25073007
92	0x3e305879	0.1722125
93	0x3e9ef69b	0.3104752
94	0x3cca3bfc	0.024686806
95	0xbe1bd81c	-0.15219158
96	0xbe0f6047	-0.1400157
97	0xbe90866f	-0.28227565
98	0xbd0214f9	-0.031758282
99	0x3cd2f26d	0.025750363
100	0x3de75c7b	0.11296936
101	0x3c7e33ed	0.01551531
102	0xbd726f34	-0.059188083
103	0x3e34675b	0.17617552
104	0xbe64b7d6	-0.22335753
105	0x3e4fa562	0.20277932
106	0xbe8490a2	-0.25891596
107	0xbc0bf647	-0.008542604
108	0x3e34ed14	0.17668563
109	0xbd27c873	-0.040962648
110	0x3e98a9a4	0.29816926
111	0xbe7d17a9	-0.24716057
112	0xbe496362	-0.19666818
113	0xbeb37e19	-0.35057142
114	0xbe64cdf5	-0.22344191
115	0x3e8d96a1	0.27653983
116	0x3dcdb60d	0.10044489
117	0xbe015d09	-0.12633146
118	0x3d17a160	0.037019134
119	0xbe203579	-0.15645398
120	0x3f04a8c2	0.51820004
121	0xbdbc8300	-0.09204674
122	0x3ef45970	0.47724485
123	0xbe93804d	-0.28808823
124	0xbe04a5a6	-0.12953815
125	0xbe44b9fd	-0.19211574
126	0x3ebe1d73	0.37131843
127	0xbe14d3a2	-0.14533857
128	0x3d970203	0.073734306
129	0xbec4ea4a	-0.38459998
130	0xbe98273a	-0.29717427
131	0xbe83a05b	-0.2570828
132	0xbe7fde3c	-0.2498712
133	0xbe2516de	-0.16122004
134	0xbe9449a4	-0.28962433
135	0xbd26d0a3	-0.040726315
136	0xbe795ce4	-0.24351841
137	0x3dca9c02	0.098930374
138	0xbd982111	-0.07428182
139	0xbd76e4e2	-0.060276873
140	0x3eb218dd	0.34784594
141	0xbe3dd08c	-0.18536586
142	0x3dfb07dc	0.122573584
143	0x3be69585	0.007036867
144	0x3ca638c5	0.020290742
145	0x3eb16022	0.34643656
146	0x3ea7dcc4	0.32785618
147	0xbdbdf109	-0.092744894
148	0x3c52bff9	0.012863153
149	0xbda1ef9d	-0.07907031
150	0xbdf31a73	-0.11870279
151	0x3c45decc	0.012077045
152	0xbe53c8bf	-0.20682047
153	0x3d91f8f2	0.07127561
154	0xbeafc65f	-0.34331033
155	0x3ce31998	0.027722165
156	0x3e76b939	0.24094094
157	0xbdfc91e5	-0.12332515
158	0x3b5e271a	0.0033897818
159	0xbe1f1413	-0.15535001
160	0x3e844d79	0.25840357
161	0x3e962ac4	0.29329503
162	0xbe0d8b94	-0.13822776
163	0x3e5534bd	0.208209
164	0x3e65d627	0.22444974
165	0x3d3bc358	0.04584059
166	0x3eb05ce6	0.34445876
167	0x3ecf28fd	0.4046096
168	0x3ec63f4e	0.38720173
169	0xbea77ac0	-0.32710838
170	0x3d81942a	0.06327088
171	0xbec4d059	-0.38440207
172	0x3ea65c48	0.3249228
173	0xbdcd314c	-0.10019168
174	0x3e95b514	0.29239714
175	0x3d64d3c5	0.05586602
176	0x3d33460d	0.043767978
177	0xbeb32020	-0.34985447
178	0xbdd85ec9	-0.10564954
179	0xbd212390	-0.039340556
180	0x3e22385d	0.15841813
181	0xbe3f3bfa	-0.18675223
182	0x3e7a7132	0.24457243
183	0xbedb5e52	-0.42845398
184	0x3e8ea641	0.27861217
185	0xbe9ac545	-0.3022863
186	0xbe277bc0	-0.163558
187	0x3e7e7752	0.24850205
188	0x3e298f7d	0.16558643
189	0x3ea7dbb6	0.32784814
190	0x3d10a6c7	0.0353153
191	0x3e23d0b5	0.15997584
192	0x3e3f2f4c	0.18670386
193	0x3e8aa87c	0.27081668
194	0xbe149aa5	-0.14512117
195	0x3e8ee1a3	0.27906522
196	0x3c6924c8	0.014229961
197	0x3ec0859c	0.37601936
198	0xbd1c9388	-0.038226634
199	0x3e9c6afc	0.30550373
200	0xbe77b3f9	-0.24189748
201	0xbd95ba39	-0.0731091
202	0x3e5a8906	0.21341333
203	0x3e933da2	0.2875796
204	0xbcd98a65	-0.02655525
205	0x3e10e520	0.14149904
206	0xbe82d90c	-0.2555622
207	0x3e12138f	0.14265274
208	0x3ebe608c	0.37183034
209	0x3e32986d	0.17440958
210	0xbdcc9f26	-0.09991293
211	0xbe8b2432	-0.27176052
212	0xbda5e85c	-0.0810096
213	0x3d81db3e	0.06340645
214	0xbe833717	-0.25627968
215	0x3e6eefcf	0.23333667
216	0x3e951b73	0.29122505
217	0x3e3cd338	0.18439949
218	0xbe62ae41	-0.22136785
219	0x3e062459	0.13099803
220	0xbe1c9196	-0.15289912
221	0x3e805ad2	0.2506929
222	0x3eb72d1b	0.357766
223	0x3e7a0c06	0.24418649
224	0x3dbebb98	0.093131244
225	0xbe90dfa9	-0.2829564
226	0xbddb59fe	-0.10710524
227	0x3e967ee5	0.29393688
228	0x3e9d2d3f	0.30698583
229	0xbe35fcd3	-0.17772226
230	0xbcbf8b3f	-0.023381827
231	0x3e67fb30	0.22654414
232	0x3d5fb9a3	0.054620396
233	0x3da5b673	0.0809144
234	0x3ea87e18	0.32908702
235	0x3e3a2b09	0.18180479
236	0xbe7af417	-0.24507175
237	0x3ea4617d	0.32105628
238	0x3e17ef05	0.14837272
239	0xbe9a4f82	-0.30138785
240	0xbe1895c3	-0.1490088
241	0xbe41f997	-0.18942867
242	0x3ea48eb0	0.32140112
243	0xbe46042f	-0.19337533
244	0x3d4e6664	0.050390616
245	0x3dfcdf53	0.12347283
246	0x3dbc70c9	0.092011996
247	0x3e8005dc	0.2500447
248	0xbdc42127	-0.09576636
249	0x3dbc34f9	0.09189791
250	0xbe63ab91	-0.22233416
251	0x3e9e5b36	0.30928963
252	0xbe579ecb	-0.21056668
253	0x3e90285d	0.28155795
254	0x3d5387ae	0.051643066
255	0x3e90d038	0.28283858

bias f4 [128]
0	0xbe3bdbfe	-0.18345639
1	0xbe7448f0	-0.23855948
2	0x3e42b298	0.1901344
3	0x3ed0583d	0.4069232
4	0x3d556421	0.052097443
5	0xbe1289ea	-0.14310423
6	0xbdd1db23	-0.10246875
7	0x3dbdb8ad	0.0926374
8	0xbbcd3aab	-0.0062630973
9	0x3ec5517b	0.38538727
10	0x3e9384ac	0.28812158
11	0x3d5f7409	0.05455402
12	0x3da6ec3b	0.08150526
13	0x3e57c5d5	0.2107156
14	0x3d8a5115	0.067537464
15	0xbe172580	-0.14760399
16	0xbe4c695c	-0.19962066
17	0x3e40b575	0.1881922
18	0x3eb3e59f	0.35136124
19	0x3e48c634	0.19606858
20	0xbd95d327	-0.07315665
21	0xbe9af27e	-0.30263132
22	0x3e5189ba	0.20462695
23	0xbe4a319d	-0.19745488
24	0xbd97840a	-0.07398231
25	0xbe910c02	-0.28329474
26	0xbdbff76a	-0.09373362
27	0x3d7f3f53	0.06231625
28	0xbe97747d	-0.2958106
29	0xbeb3d811	-0.35125783
30	0x3e8ee850	0.27911615
31	0xbb90637e	-0.0044063916
32	0x3e9732c1	0.2953091
33	0x3d650c0e	0.0559197
34	0x3e95b2a6	0.2923786
35	0xbe75e3eb	-0.24012725
36	0xbe943c30	-0.2895217
37	0xbdcff75e	-0.101546034
38	0xbe53420a	-0.2063066
39	0xbd852441	-0.065010555
40	0xbe24de37	-0.16100393
41	0xbecd19db	-0.4005879
42	0xbbd73ef2	-0.006568783
43	0xbd8f2824	-0.06990078
44	0xbe9246a2	-0.28569514
45	0xbd0e418b	-0.034730475
46	0xbe938fd6	-0.28820676
47	0x3e5fa357	0.21839653
48	0xbe820c38	-0.25399947
49	0xbdc0aa40	-0.094074726
50	0x3e598478	0.21241939
51	0x3ebe8d0a	0.3721698
52	0x3c83be3a	0.016081918
53	0xbea3e590	-0.3201108
54	0xbe14707b	-0.14496033
55	0x3e51ed17	0.20500599
56	0x3e93deb6	0.28880852
57	0x3e6e68ce	0.23282167
58	0xbd8cce8b	-0.068753324
59	0xbeb3824c	-0.35060346
60	0xbeaa42f2	-0.332542
61	0x3e05d2c9	0.1306869
62	0xba7d09ee	-0.0009652664
63	0x3e8b8fdc	0.27258193
64	0x3e93d309	0.28871945
65	0xbe46d36c	-0.19416589
66	0xbeb5f34f	-0.35537192
67	0xbe5ea7d0	-0.21743703
68	0x3ebd76a2	0.37004572
69	0x3db39e7c	0.08770463
70	0x3de0d91a	0.10978909
71	0xbd06e731	-0.032935325
72	0xbe7d794a	-0.247533
73	0x3e99fea2	0.30077082
74	0x3d8e749c	0.06955835
75	0xbd80a8d8	-0.062822044
76	0x3e12af21	0.14324619
77	0x3e9204bd	0.2851924
78	0xbdcfdd07	-0.101495795
79	0x3e91d7fb	0.28485093
80	0x3e941fff	0.2893066
81	0x3e91776f	0.28411433
82	0x3e2990b5	0.16559108
83	0xbe84326b	-0.25819716
84	0xbe0d6f59	-0.13812007
85	0xbe01ec40	-0.12687778
86	0xbe9bc43c	-0.30423152
87	0xbe57cd21	-0.21074344
88	0xbeaca55f	-0.33719918
89	0xbe1c43fe	-0.15260312
90	0x3ebb5b20	0.3659296
91	0x3e882263	0.26588735
92	0x3eaf80db	0.34277996
93	0x3ecea999	0.40363768
94	0x3db6266e	0.08894049
95	0xbe9900be	-0.2988338
96	0x3e03d470	0.12874007
97	0x3e8567e7	0.26055834
98	0x3e0e37e9	0.13888516
99	0xbea76f87	-0.32702276
100	0x3ec65853	0.3873926
101	0x3e8a8624	0.27055466
102	0x3e3b7964	0.18308026
103	0x3eb2ae02	0.34898382
104	0xbe559f68	-0.2086159
105	0x3c323f42	0.01087934
106	0x3d958a5a	0.07301779
107	0xbe233fc2	-0.1594229
108	0xbe2676dc	-0.16256279
109	0x3dd49296	0.103795215
110	0x3d520c26	0.051281117
111	0xbe8075bd	-0.25089827
112	0xbeaceb64	-0.3377334
113	0x3cf32d14	0.02968458
114	0x3e993365	0.29922023
115	0x3c487134	0.012234021
116	0xbe1db681	-0.15401651
117	0x3e4d2eae	0.20037338
118	0x3e825859	0.2545803
119	0xbe206218	-0.1566242
120	0x3e7e8e3f	0.2485895
121	0xbcc201ec	-0.023682557
122	0xbe1b7717	-0.15182148
123	0x3e7c2096	0.24621806
124	0x3e3b73d8	0.1830591
125	0xbe6f2bb3	-0.23356514
126	0x3e9e91ff	0.3097076
127	0xbe70646d	-0.2347581

weight f4 [64, 128]
0	0xbce2f1fe	-0.027703281
1	0x3dacf6fd	0.08445547
2	0x3b0de19a	0.0021649362
3	0x3d3f6269	0.04672471
4	0x3d78fee7	0.06078997
5	0xbd73637f	-0.05942106
6	0x3dae3d81	0.08507825
7	0xbcc479be	-0.023983832
8	0xbda2e8d5	-0.079545654
9	0xbd6d833d	-0.057986487
10	0x3c4a1c1b	0.012335802
11	0x3db46466	0.08808212
12	0xbcb37454	-0.021906056
13	0x3cb3499e	0.02188569
14	0xbda52a74	-0.08064738
15	0x3c87d109	0.016579168
16	0x3c5e8770	0.0135820955
17	0xbd93189d	-0.07182429
18	0xbce8a4bb	-0.028398862
19	0xbd0b068a	-0.033941783
20	0xbd167944	-0.03673674
21	0x3d897135	0.06711046
22	0xbc037424	-0.008023296
23	0xbd609658	-0.05483088
24	0x3cbc3888	0.022976175
25	0x3d2871f2	0.04112429
26	0x3d09e9bb	0.03367017
27	0x3bfaad90	0.007650085
28	0xbc29cb88	-0.010363467
29	0xbd88c4d8	-0.0667817
30	0xbd6d649d	-0.05795728
31	0x3d6dc48c	0.05804877
32	0x3d9e73ed	0.07736955
33	0xbcee4242	-0.029084329
34	0xbb2f0ba7	-0.0026709826
35	0xbd82c569	-0.06385309
36	0xbb3dcb40	-0.0028960258
37	0xbda050a0	-0.07827878
38	0x3db11610	0.08646786
39	0x3cc83ed5	0.024444023
40	0xbcca2224	-0.024674483
41	0x3c9d3b15	0.019193212
42	0x3d7878aa	0.06066195
43	0x3cae75cb	0.021296402
44	0x3da9c376	0.08289234
45	0xbd134f98	-0.03596458
46	0xbc55c9b6	-0.01304858
47	0xbd9bdb84	-0.07610229
48	0x3d9ab47b	0.07553955
49	0xbd9ed4a6	-0.07755403
50	0xba44b6bb	-0.00075040356
51	0xbd6cb997	-0.05779418
52	0xbd1afd5a	-0.03783927
53	0x3d71d659	0.05904231
54	0xbcd9e33c	-0.026597612
55	0x3d9f5263	0.07779386
56	0x3d1a653c	0.0376942
57	0xbd7bc64c	-0.061468408
58	0xbced5363	-0.028970426
59	0xbd6d733b	-0.05797122
60	0xbd9049d8	-0.070453346
61	0xbba95c84	-0.0051684994
62	0xbd6fa997	-0.058511343
63	0xbd864e07	-0.06557851
64	0xbd37dfd2	-0.044891186
65	0x3daae01f	0.08343529
66	0x3d99a665	0.0750244
67	0x3d5838b7	0.052788462
68	0x3d2ac872	0.041695066
69	0x3d20ca33	0.039255332
70	0xbb155012	-0.0022783321
71	0x3d8cc04a	0.06872614
72	0x3d64f5cb	0.05589847
73	0x3d548652	0.05188591
74	0x3c733849	0.014844962
75	0xbdaddb03	-0.08489039
76	0xbd82a29b	-0.06378671
77	0x3c9a733f	0.018853782
78	0xbd92847f	-0.07154178
79	0xbd8689f0	-0.06569278
80	0x3d10fc52	0.03539688
81	0xbd30d1dc	-0.043168887
82	0xbd893d65	-0.06701163
83	0xbceb7f8c	-0.028747343
84	0xbb96e856	-0.0046053333
85	0xbccd2614	-0.025042571
86	0xbd2299eb	-0.03969757
87	0x3d7a1a8d	0.061060477
88	0x3cf28301	0.029603483
89	0x3daa7476	0.083229944
90	0xbd0fbbc0	-0.03509116
91	0x3caca50c	0.021074794
92	0xbd0ed4a0	-0.034870744
93	0x3d9f11cf	0.077670686
94	0x3d3502da	0.044192173
95	0xbcaa0332	-0.020753477
96	0x3cefb4d3	0.029261028
97	0x3cb3d53a	0.02195226
98	0xbb165e5d	-0.0022944428
99	0xbd528fc4	-0.051406637
100	0x3bb593e0	0.0055413097
101	0x3cde6f8d	0.027152801
102	0xbbbca721	-0.005757228
103	0x3d00e7d0	0.031471074
104	0x3d418896	0.0472494
105	0x3d6e0ce7	0.058117773
106	0xbc8f9cfa	-0.017530907
107	0xbc8b4f5f	-0.01700562
108	0x3d4f4b04	0.05060865
109	0xbd90caf2	-0.07069959
110	0x3da7bdc3	0.08190491
111	0x3cc5f9f7	0.024167044
112	0x3cc54fa4	0.024085827
113	0x3d037e0d	0.032102633
114	0xbd61c2aa	-0.055117287
115	0xbd96305a	-0.07333441
116	0xbd37ce52	-0.044874497
117	0x3c9dcbe8	0.01926227
118	0x3a9542fd	0.0011387762
119	0xbd522049	-0.05130032
120	0xbd032da9	-0.032025967
121	0x3d8ee04d	0.06976376
122	0x3c33715e	0.010952322
123	0xbc705069	-0.014667609
124	0xbd134ee0	-0.035963893
125	0xbd5e7716	-0.054312788
126	0xbd93b598	-0.07212371
127	0x3d6bf3db	0.057605606
128	0x3d58cc61	0.052929286
129	0x3dab4e19	0.08364505
130	0xbd78a6a5	-0.0607058
131	0xbcb54644	-0.022128232
132	0xbd1426f8	-0.036169976
133	0x3b095161	0.0020953047
134	0xbd47d91c	-0.048791036
135	0x3cb5da6e	0.022198882
136	0x3b369778	0.0027861279
137	0x3d24b07e	0.04020738
138	0xbc94b8bd	-0.018154496
139	0xbd271f8d	-0.040801574
140	0xbc3ce154	-0.011528332
141	0xbd1e2193	-0.038606238
142	0xbbd660ad	-0.0065422864
143	0xbc8c2ef9	-0.017112242
144	0x3d2ab7a1	0.04167903
145	0x3d19c1dc	0.037538394
146	0xbd827208	-0.06369406
147	0x3cde37b6	0.027126174
148	0x3d971065	0.07376174
149	0x3db1b977	0.08677953
150	0xbc99dae3	-0.018781131
151	0x3cfb34a8	0.030664757
152	0xbd61d575	-0.05513521
153	0x3d77339a	0.060351945
154	0x3ba93a9e	0.0051644584
155	0x3d494c00	0.049144745
156	0x3d7e30e4	0.062058344
157	0xbd3b7bd1	-0.045772377
158	0x3d84f669	0.064923115
159	0x3d001393	0.031268667
160	0xbd2a1215	-0.04152115
161	0xbd93a37e	-0.07208918
162	0x3d050772	0.032477804
163	0x3d5cb1b3	0.053880405
164	0x3d9f0457	0.077645
165	0x3da63d9c	0.0811722
166	0x3d74b2ad	0.05974071
167	0xbcdcac98	-0.026937768
168	0xbcecdf29	-0.028915005
169	0xbd31d33c	-0.04341434
170	0xbcb30dda	-0.02185719
171	0x3d7d89da	0.061899044
172	0x3dabbef0	0.08386028
173	0xbc6b5b8d	-0.014365089
174	0xbacc7ef7	-0.0015601803
175	0xbcbd941e	-0.023141917
176	0xbd95b76d	-0.07310376
177	0xbd5af3c5	-0.053455133
178	0x3d9c09fc	0.07619092
179	0xbd1febb2	-0.039043136
180	0x3ce19627	0.027537419
181	0x3cd77dff	0.026305197
182	0xbd907514	-0.07053581
183	0xbd232389	-0.03982881
184	0xbd74e5fd	-0.059789646
185	0xbadd851f	-0.0016900635
186	0x3cecc082	0.028900389
187	0x3d6bb2a8	0.057543427
188	0x3d5b380c	0.053520247
189	0xbd87fb8a	-0.06639774
190	0x3d008d7b	0.031384926
191	0x3d5e2ec9	0.054243837
192	0x3cff47d7	0.031162186
193	0x3da3031c	0.079595774
194	0xbd34805e	-0.044067733
195	0xbdad9f38	-0.08477634
196	0xbd88b8e1	-0.06675888
197	0x3c8b3223	0.01699168
198	0x3da45bad	0.08025298
199	0x3d2e3c95	0.042538244
200	0xbc97a73c	-0.01851236
201	0xbd3971ae	-0.04527443
202	0x3d3e7752	0.04650051
203	0x3d26724f	0.040636357
204	0x3d853a00	0.06505203
205	0xbd9eaab0	-0.077474
206	0xbd3d0d6f	-0.04615539
207	0x3cd6d927	0.026226593
208	0xbbf4ecbc	-0.00747451
209	0x3d264560	0.040593505
210	0xbce716ea	-0.028209168
211	0xbd943f4a	-0.07238634
212	0x3d9f3aa8	0.0777486
213	0x3b88d264	0.004175471
214	0xbcc27c8f	-0.023741035
215	0xbdb0d97a	-0.0863523
216	0x3d8875d0	0.06663096
217	0x3a099cc4	0.0005249495
218	0xbbba1415	-0.0056786635
219	0xbd973084	-0.073823005
220	0xbd1a3964	-0.03765239
221	0xbd9c2b42	-0.07625438
222	0xbc2fb522	-0.010724338
223	0x3b498ac1	0.003075287
224	0x3caf910e	0.021431472
225	0x3d693961	0.056939486
226	0x3c5dad08	0.013530023
227	0xbda72840	-0.08161974
228	0xbd259c4f	-0.04043227
229	0xbc6b127c	-0.014347669
230	0xbd994b41	-0.07485057
231	0x3da09e04	0.07842639
232	0xbcd69c4c	-0.026197575
233	0xbd43166a	-0.047628798
234	0xbc122620	-0.0089202225
235	0xbd441363	-0.04787005
236	0x3c4ca171	0.0124896625
237	0x3d59334b	0.053027432
238	0xbd9e89ef	-0.077411525
239	0x3d7a252e	0.061070614
240	0x3db18f3a	0.086698964
241	0x3c488ac8	0.012240119
242	0x3d16e5df	0.036840316
243	0xbd9668da	-0.073442176
244	0xbd00b9fa	-0.03142736
245	0x3db2d2b9	0.087315984
246	0x3b149afb	0.0022675383
247	0x3d34045e	0.043949477
248	0xbd7cd4b7	-0.0617263
249	0xbd62ee83	-0.055403244
250	0x3d27a0a4	0.040924683
251	0xbbb0bff0	-0.0053939745
252	0x3d1aa0e7	0.037751105
253	0x3dac74ec	0.084207386
254	0x3d7b1aab	0.06130473
255	0x3d2b0720	0.04175484

bias f4 [64]
0	0xbd944fc6	-0.07241778
1	0xbcce523b	-0.025185695
2	0x3d9fadee	0.07796846
3	0x3d9b1c63	0.07573774
4	0x3d0c425e	0.03424298
5	0x3d6e87bb	0.05823491
6	0x3d2cd9ae	0.042199783
7	0x3dd459e5	0.103687085
8	0xbaa06d41	-0.0012239591
9	0xbd0b58c5	-0.034020204
10	0x3cebcda9	0.02878459
11	0xbbbb6e94	-0.005719969
12	0x3d8f39fd	0.06993482
13	0x3d23c9c8	0.039987355
14	0x3c4a67ec	0.0123538785
15	0x3b970272	0.004608446
16	0x3c9f9bcc	0.01948347
17	0x3c8cf014	0.017204322
18	0x3d2d9504	0.04237844
19	0x3badf1af	0.005308352
20	0x3dcb6bcc	0.0993267
21	0x3ba2065d	0.004944606
22	0xbb8c74f1	-0.0042864014
23	0xbb02fad9	-0.0019985943
24	0xbc0aafbd	-0.008464751
25	0xbcd72722	-0.026263777
26	0xbd1565e4	-0.036474124
27	0xbcfead2a	-0.03108843
28	0x3d362e15	0.04447754
29	0xbd28977b	-0.041160088
30	0x3c34fe95	0.011047025
31	0xbcbd77ea	-0.023128469
32	0x3d65c1e0	0.056093097
33	0x3d7a0a1e	0.061044805
34	0x3d126aa1	0.03574622
35	0xbc4a6e23	-0.01235536
36	0x3d7ba5b7	0.061437335
37	0xbdb0b8b8	-0.08628982
38	0x3d6a80bf	0.057251688
39	0xbdb3ac09	-0.087730475
40	0xbc88cd1d	-0.016699368
41	0x3d4dd92d	0.050255943
42	0x3d6a5887	0.057213333
43	0xbdae31dd	-0.085056044
44	0x3d5c76ef	0.05382436
45	0x3d079975	0.033105332
46	0x3d0905f9	0.03345296
47	0x3dc4b70e	0.096052274
48	0xbcf96561	-0.030443849
49	0x3d7cb501	0.061696056
50	0xbcfb24e2	-0.030657236
51	0x3d95a6e3	0.07307222
52	0x3caf9b24	0.021436282
53	0xbd8e7c66	-0.06957321
54	0xbc4e2d37	-0.012584022
55	0x3de62353	0.11237206
56	0x3d860261	0.065434225
57	0x3e0a258a	0.13490883
58	0x3d45bf12	0.048277922
59	0xbd84de81	-0.06487752
60	0x3c98a0a2	0.018631283
61	0xbd2c4382	-0.042056568
62	0x3cd2fd65	0.025755594
63	0x3e05194d	0.12997933

weight f4 [32, 64]
0	0x3d3f3990	0.046685755
1	0xbdb74a9c	-0.089497775
2	0x3e0f88a9	0.14016975
3	0xbbfda824	-0.007740991
4	0xbd47c2b8	-0.048769683
5	0x3dba08e1	0.09083725
6	0x3df81585	0.121134795
7	0xbcff00a7	-0.03112824
8	0x3dec1343	0.115271114
9	0x3cf592bf	0.0299772
10	0x3e0086df	0.12551449
11	0x3df3a641	0.11896945
12	0x3db667a0	0.08906484
13	0x3e06066f	0.13088392
14	0xbd83013f	-0.06396722
15	0x3dbbf964	0.09178427
16	0xbd80ddfe	-0.06292342
17	0xbd8ddda9	-0.06927044
18	0x3d6f5c78	0.058437794
19	0xbdfd69da	-0.12373705
20	0xbdc64c4d	-0.09682522
21	0xbdeeeb65	-0.11665992
22	0xbdc271d9	-0.09494371
23	0x3d8b8e4f	0.068142526
24	0xbe03ac1c	-0.12858623
25	0x3d161e32	0.03664989
26	0x3dc95097	0.098298244
27	0x3e00ff7f	0.12597464
28	0xbe5d809d	-0.21631093
29	0x3dd999af	0.10625016
30	0x3d9c616c	0.07635769
31	0x3d9abcd3	0.075555466
32	0x3c0b0b29	0.0084865475
33	0x3e086660	0.13320303
34	0xbdcb996a	-0.09941371
35	0xbd4cf41b	-0.050037485
36	0xbdaa5b46	-0.0831819
37	0xbb243cc0	-0.0025060624
38	0x3d005ffb	0.031341534
39	0xbd31ae34	-0.043379024
40	0xbc053e15	-0.008132477
41	0x3d89067e	0.066906914
42	0xbd0e2e09	-0.03471187
43	0xbd7f404c	-0.062317178
44	0xbd895087	-0.067048125
45	0xbcb306be	-0.0218538
46	0x3d89a6c1	0.06721259
47	0x3dbc55b9	0.09196038
48	0x3afdf9b0	0.0019376781
49	0xbd24de24	-0.040250912
50	0xbdc14bf1	-0.09438313
51	0xbdc14267	-0.09436493
52	0xbdc4e49e	-0.09613918
53	0xbc1159d0	-0.008871511
54	0x3d594271	0.05304188
55	0x3cb4f9b7	0.02209173
56	0x3d9d9275	0.0769395
57	0xbd3ecba0	-0.04658091
58	0xbda5f22a	-0.0810283
59	0xbc2d4f67	-0.010578013
60	0xbd8a9d7e	-0.067683205
61	0x3dabb420	0.083839655
62	0x3dfcdd5f	0.12346911
63	0x3d9d9f8e	0.07696448
64	0xbc6c47c0	-0.014421403
65	0xbc95cbd9	-0.018285679
66	0x3dc1c0a8	0.094605744
67	0x3e1c6338	0.15272224
68	0xba8a739f	-0.0010563022
69	0xbdb0328d	-0.08603392
70	0x3d2ed357	0.042682018
71	0xbe380e8a	-0.17974296
72	0x3cf81cc1	0.030287148
73	0x3dadb301	0.08481408
74	0xbd60b4cb	-0.054859918
75	0xbce1ea23	-0.027577465
76	0x3d8c4bcb	0.06850394
77	0x3d60ca68	0.05488053
78	0xbddb72f1	-0.10715283
79	0x3d052f23	0.032515656
80	0xbe32d851	-0.1746533
81	0xbddde2c4	-0.10834268
82	0xbce210f0	-0.027595967
83	0x3df913b0	0.12161958
84	0x3e227efa	0.1586875
85	0xbd3f9c2e	-0.046779804
86	0x3d8b01cf	0.06787454
87	0x3cb99f9a	0.022659112
88	0xbe078b72	-0.13236788
89	0xbd3fc446	-0.04681804
90	0xbcb22282	-0.02174497
91	0x3d1e4f45	0.038649816
92	0x3e0f2e5b	0.13982527
93	0x3d884255	0.06653277
94	0xbb4c1a37	-0.0031143555
95	0x3dd80bf1	0.10549153
96	0x3db86492	0.09003557
97	0x3d6de3cf	0.058078583
98	0xbdb72f2a	-0.08944543
99	0x3d500748	0.050788194
100	0x3dc1daf1	0.09465588
101	0xbd2333f4	-0.03984447
102	0x3da9dbae	0.08293854
103	0xbd6fdc82	-0.058559902
104	0x3cd0af60	0.02547425
105	0x3dbdd07a	0.092682794
106	0xbd9b7e0a	-0.075923994
107	0x3ca61198	0.020272061
108	0xbdcf5d8c	-0.101252645
109	0x3de2de78	0.11077589
110	0xbc8557e1	-0.016277255
111	0x3d251ab4	0.04030867
112	0x3e115465	0.1419235
113	0x3c297f8f	0.010345354
114	0xbd6ab58b	-0.05730204
115	0x3d6242f6	0.05523964
116	0xbdacbffd	-0.08435056
117	0x3d4e74f2	0.050404496
118	0xbb804029	-0.0039138985
119	0xbc1d3850	-0.0095959455
120	0xbe98e4d4	-0.29862082
121	0xbe9c2fd2	-0.30505234
122	0x3e04d6a8	0.1297251
123	0x3d75a73c	0.05997394
124	0x3d1978c3	0.037468683
125	0x3cef2ee0	0.029197156
126	0xbd8e53b8	-0.06949562
127	0x3e02b4a2	0.12764218
128	0x3dcb3b92	0.099234715
129	0x3cc4eb68	0.024038032
130	0xbd938252	-0.07202591
131	0xbdd6af4d	-0.10482655
132	0x3dc25e0e	0.09490596
133	0xbd9b8c2d	-0.07595096
134	0x3caa6376	0.02079938
135	0xbdc2c1d2	-0.095096245
136	0xbddd8e76	-0.10818188
137	0xbd3959cb	-0.04525165
138	0xbde97660	-0.11399531
139	0xbdee12c4	-0.11624673
140	0xbd9ef2aa	-0.07761128
141	0x3d8dfb26	0.069326684
142	0xbd2b7adc	-0.041865215
143	0x3d56167c	0.052267537
144	0xbc3eed40	-0.0116532445
145	0xbdd8761a	-0.10569401
146	0x3daeaf16	0.08529489
147	0x3db45f14	0.08807197
148	0x3bf9748c	0.0076127704
149	0xbdf91394	-0.12161937
150	0xbd3ae5d8	-0.045629352
151	0xbd59053f	-0.05298352
152	0x3dcf4112	0.10119833
153	0x3d6312c1	0.055437807
154	0x3d4b31aa	0.04960791
155	0x3dac2878	0.08406156
156	0x3dde6689	0.10859401
157	0xbd06d31c	-0.032916173
158	0x3d8efac0	0.069814205
159	0x3dbd7d7c	0.0925245
160	0x3cfd73d0	0.030939013
161	0x3d0094c7	0.031391885
162	0xbdc4af53	-0.09603753
163	0x3d66e060	0.056366324
164	0x3cf42b80	0.029805899
165	0x3df1a278	0.117985666
166	0xbce09c78	-0.02741836
167	0x3d1771aa	0.036973633
168	0xbda29f59	-0.079405494
169	0xbde0954d	-0.10965977
170	0xbd338db4	-0.04383631
171	0x3db61c44	0.0889211
172	0x3dc217c0	0.09477186
173	0x3da92c46	0.082603976
174	0x3d8962da	0.067083076
175	0x3caf690f	0.0214124
176	0xbda80fca	-0.082061365
177	0xbc662ed0	-0.014049247
178	0x3d1cb2d8	0.038256496
179	0xbbfc169d	-0.0076931254
180	0xbd4c260a	-0.049840964
181	0x3d798e98	0.060927004
182	0x3c2dbbe0	0.010603875
183	0x3d7ffbc2	0.062495954
184	0xbc910d38	-0.017706499
185	0xbdb800d6	-0.089845344
186	0x3dc32817	0.09529131
187	0xbd17c958	-0.03705725
188	0xbdd95d48	-0.10613495
189	0xbdd6330c	-0.10458955
190	0xbdc4066a	-0.09571536
191	0xbdaa1787	-0.08305269
192	0xbdc37248	-0.09543282
193	0xbde300c3	-0.1108413
194	0x3d00ceca	0.03144721
195	0x3e3fd552	0.18733719
196	0x3e10e424	0.14149529
197	0x3e35349e	0.17695853
198	0xbde9dfd7	-0.11419647
199	0x3c41c3e9	0.011826494
200	0x3e178684	0.14797407
201	0x3d100e80	0.03517008
202	0x3e351465	0.17683561
203	0x3beba2ed	0.007191053
204	0x3cb9249c	0.022600465
205	0xbc2f0ea3	-0.010684642
206	0x3b99df0b	0.0046957782
207	0xbd81ea04	-0.06343463
208	0x3d8244c2	0.06360771
209	0xbdd75eb9	-0.10516114
210	0x3d6f84a3	0.0584761
211	0x3d600a6b	0.054697435
212	0x3de40a2d	0.111347534
213	0xbd479fb4	-0.04873629
214	0xbd07ed6c	-0.033185408
215	0x3e35f9ce	0.17771074
216	0x3c06417d	0.008194325
217	0x3e03e336	0.12879643
218	0xbbf9081d	-0.007599844
219	0x3e33a3fb	0.17543022
220	0x3ddc4d6a	0.10756953
221	0xbdb9dd53	-0.09075417
222	0xbc3532a0	-0.011059433
223	0x3de87059	0.113495536
224	0xbd3295f4	-0.043600038
225	0x3e16a0d7	0.14709793
226	0xbbc3f89e	-0.005980565
227	0x3d36d733	0.044638824
228	0x3d493e0f	0.04913145
229	0xbd25fc40	-0.040523767
230	0x3d211966	0.039330862
231	0xbdbce1b6	-0.092227384
232	0x3ce3065a	0.02771299
233	0x3de7eb3b	0.113241635
234	0x3e0d1322	0.1377683
235	0x3cf16ac0	0.029469848
236	0x3da12603	0.07868578
237	0x3d4b062d	0.049566437
238	0xbd82b2b4	-0.06381741
239	0x3dbddc4c	0.09270534
240	0x3e354ca7	0.17705022
241	0xbd887ffc	-0.06665036
242	0x3c3e7f38	0.011627011
243	0xbcbe9a72	-0.023267005
244	0xbbb2e2c2	-0.0054591605
245	0x3d9552d9	0.072911926
246	0x3d95d3d7	0.07315796
247	0xbd3fbed6	-0.046812855
248	0x3e50d761	0.2039466
249	0x3e8c86a5	0.27446476
250	0x3e156164	0.14587933
251	0xbdf53eca	-0.11974867
252	0x3dda2120	0.10650849
253	0xbdbbecd0	-0.09176028
254	0x3d6742d6	0.056460224
255	0x3e0f1605	0.13973244

bias f4 [32]
0	0xbd91bbb3	-0.07115879
1	0x3ddc1246	0.10745673
2	0xbd3f4672	-0.04669804
3	0x3dda4e97	0.10659521
4	0xbdb3e078	-0.087830484
5	0xbcad86d8	-0.021182463
6	0x3e30bf75	0.17260535
7	0x3df73f44	0.12072614
8	0x3e0cbac1	0.13743116
9	0xbc353933	-0.011061001
10	0xbc04bd99	-0.008101844
11	0x3d8feb10	0.070272565
12	0x3c4c33f2	0.012463557
13	0xbd0a4fbf	-0.033767458
14	0xbda08543	-0.07837918
15	0x3c5b11e9	0.013370969
16	0xbe0d0471	-0.13771226
17	0xbd1ae2a1	-0.037813786
18	0x3daa64db	0.08320018
19	0x3bfb4fd7	0.0076694298
20	0x3e111b1e	0.141705
21	0xbde9688f	-0.11396896
22	0x3c7d8873	0.015474427
23	0xbd1f6b13	-0.038920473
24	0x3dff311f	0.12460541
25	0x3dc3744e	0.09543668
26	0x3d8238f0	0.06358516
27	0xbbf79595	-0.0075556734
28	0xbdad83e1	-0.084724195
29	0x3d12881f	0.035774346
30	0xbd9fb2b0	-0.07797754
31	0x3dc684dc	0.0969331

weight f4 [128, 7]
0	0xbe7b428c	-0.24537104
1	0x3e515cfb	0.20445625
2	0xbd99a7cd	-0.075027086
3	0x3e9105e2	0.283248
4	0xbe3aeedf	-0.18255185
5	0x3c91a9c3	0.017781144
6	0x3e221b62	0.15830758
7	0x3d3c048c	0.045902774
8	0xbea9e6a8	-0.3318379
9	0xbca9cc8f	-0.020727424
10	0x3e993ab2	0.29927593
11	0x3cf44e29	0.029822426
12	0xbb6729e6	-0.0035272776
13	0xbd7d043e	-0.061771624
14	0x3e691f91	0.22765948
15	0x3e59c206	0.2126542
16	0xbe4b46a6	-0.19851169
17	0xbe84d452	-0.25943238
18	0xbeb7361f	-0.3578348
19	0xbea37cf4	-0.3193127
20	0x3e6bb70f	0.2301905
21	0xbec34733	-0.38140258
22	0xbd9341bc	-0.07190272
23	0x3d9bd520	0.0760901
24	0x3ec1dfb8	0.37865996
25	0x3e833223	0.2562419
26	0x3d1afd4f	0.03783923
27	0x3df89333	0.12137451
28	0xbe694f72	-0.22784212
29	0xbdb8f41b	-0.090309344
30	0x3e9a731e	0.30165952
31	0xbe80b571	-0.2513843
32	0x3e866850	0.2625146
33	0xbdaac46f	-0.08338248
34	0xbe90bfd2	-0.28271347
35	0x3dee9dcb	0.1165119
36	0x3e7c5007	0.24639903
37	0x3e6ea391	0.23304583
38	0x3e917b9b	0.28414616
39	0x3eb149b6	0.3462655
40	0xbe77391c	-0.24142879
41	0x3ead5162	0.33851153
42	0x3e820ca5	0.25400272
43	0x3e456c8e	0.19279692
44	0x3ec6ea03	0.38850412
45	0xbe07995b	-0.13242094
46	0x3e6ad58d	0.22933026
47	0xbe5deba4	-0.21671921
48	0x3e3e83e6	0.18605003
49	0xbe4a266e	-0.19741222
50	0x3e858402	0.26077276
51	0xbe0b20cc	-0.1358673
52	0x3ea836c3	0.3285428
53	0xbe61814b	-0.22021978
54	0xbe81bddd	-0.25340167
55	0x3e9781a0	0.29591084
56	0xbebced5d	-0.36899844
57	0xbe4572e6	-0.19282112
58	0xbea01bb2	-0.3127113
59	0x3e912599	0.28348997
60	0x3e925a37	0.28584453
61	0x3e51537e	0.20442006
62	0xbd570465	-0.052494425
63	0x3e709e9a	0.23498002
64	0x3e92f6b7	0.28703853
65	0x3e339e53	0.17540865
66	0x3e9ef4e0	0.310462
67	0xbea597a2	-0.3234225
68	0xbbe23fde	-0.006904586
69	0xbea07a0b	-0.3134311
70	0xbd9b4894	-0.075822026
71	0xbe9bc0d1	-0.30420545
72	0xbe99e138	-0.3005464
73	0xbea866cd	-0.3289093
74	0x3ea44922	0.32087046
75	0xbe3b8c60	-0.18315268
76	0x3c28bda1	0.010299117
77	0x3eb7be5a	0.35887414
78	0x3e847da7	0.25877115
79	0x3c970d80	0.018439054
80	0xbc4dee76	-0.012569061
81	0xbbb71a3a	-0.0055878432
82	0xbe1828a1	-0.14859249
83	0x3d8d56fa	0.06901355
84	0xbe02875c	-0.12746948
85	0x3e04d851	0.12973143
86	0x3e7af436	0.24507222
87	0xbe75892f	-0.23978113
88	0xbe51f422	-0.20503286
89	0xbe9d29a3	-0.3069583
90	0x3ea82909	0.32843807
91	0x3ecc6d18	0.39926982
92	0xbe086959	-0.13321437
93	0xbdba5e0e	-0.09099971
94	0xbe91313d	-0.28357878
95	0xbe994323	-0.29934034
96	0xbeb764ac	-0.35818994
97	0x3d3fc95a	0.046822883
98	0xbbe5d116	-0.0070134504
99	0x3ea45512	0.32096153
100	0x3bcc7de3	0.006240593
101	0x3eacfb67	0.33785555
102	0xbe863189	-0.26209667
103	0x3e0a61de	0.13513896
104	0xbea36ad5	-0.31917444
105	0x3ea3ff82	0.32030874
106	0x3da7dbd3	0.08196225
107	0x3e89e0c1	0.26929286
108	0xbd953f30	-0.07287443
109	0x3e8f0902	0.2793656
110	0x3ec5da2a	0.38643008
111	0xbe325620	-0.17415667
112	0xbe788e2a	-0.24272981
113	0xbe98bbb4	-0.29830706
114	0x3e1ab0dc	0.15106529
115	0xbe1afdf1	-0.15135933
116	0x3b807166	0.003919768
117	0x3d950969	0.072771855
118	0xbe1cbfb2	-0.15307501
119	0xbeb71e30	-0.3576522
120	0xbe77f7a1	-0.24215557
121	0xbd8bb820	-0.068222284
122	0xbdf4278f	-0.11921608
123	0xbc69120a	-0.014225492
124	0xbea663bd	-0.3249797
125	0xbeb2535b	-0.3482922
126	0x3ed36208	0.4128573
127	0x3e6ece36	0.2332085
128	0x3c07b99d	0.008284
129	0xbe74cd15	-0.23906358
130	0x3de8ecd5	0.11373297
131	0x3dd22e72	0.10262765
132	0x3da8215c	0.08209488
133	0x3dfa6da0	0.122279406
134	0xbe286aa8	-0.16446936
135	0x3d1a53d3	0.037677597
136	0x3e28e6b9	0.16494264
137	0xbe5c0b05	-0.21488579
138	0x3ea1318c	0.31483114
139	0xbe3634a4	-0.17793518
140	0xbd40b593	-0.047048163
141	0x3ce99272	0.028512213
142	0x3d47b20e	0.04875379
143	0xbdf3ebb0	-0.11910188
144	0xbebd8862	-0.37018114
145	0xbcdb1ef4	-0.026748158
146	0xbe6d8f0d	-0.23199101
147	0x3ed4b82f	0.4154677
148	0xbeb4fae1	-0.35347655
149	0xbe269fe5	-0.16271932
150	0xbec099bf	-0.376173
151	0x3e186109	0.14880766
152	0xbe58ca00	-0.21170807
153	0x3dd027f9	0.10163874
154	0xbede6511	-0.43436483
155	0x3e81ac9b	0.25327
156	0xbe4bfb8c	-0.19920176
157	0x3dcdd77c	0.10050866
158	0xbe29d3ba	-0.16584674
159	0x3d517f8b	0.051147025
160	0x3ec67042	0.3875752
161	0xbee8199c	-0.45332038
162	0x3ea17878	0.31537223
163	0x3e89b82a	0.2689832
164	0xbd89b07e	-0.06723116
165	0x3ea67396	0.3251006
166	0xbbff2003	-0.0077857985
167	0x3d6cfea6	0.05786004
168	0x3ef03535	0.46915594
169	0xbeb80fe0	-0.35949612
170	0x3cc67d9a	0.024229813
171	0xbe86d75c	-0.2633618
172	0xbbf0200a	-0.007328038
173	0x3e3993e1	0.18122818
174	0x3e0085b7	0.12551008
175	0xbeb6a9ba	-0.35676366
176	0xbe4f91eb	-0.20270507
177	0x3e02524c	0.12726706
178	0xbdef94d0	-0.116983056
179	0xbea0855f	-0.31351754
180	0x3d39a724	0.045325413
181	0xbd46b44d	-0.048511792
182	0xbde58187	-0.11206346
183	0xbec767dc	-0.38946426
184	0xbd8f5600	-0.06998825
185	0xbeadbdac	-0.3393377
186	0xbeab480f	-0.33453414
187	0x3e7224e8	0.23646891
188	0x3e7511be	0.2393255
189	0x3f03607e	0.5131911
190	0xbea0edba	-0.3143137
191	0x3ebd7243	0.37001237
192	0xbdb7c386	-0.0897284
193	0x3cdfc142	0.027313832
194	0xbe6a4b6c	-0.22880334
195	0x3e9b872a	0.3037656
196	0x3f009be2	0.5023786
197	0xbe674bba	-0.22587481
198	0xbea432ce	-0.3207001
199	0x3bf69ca9	0.0075259996
200	0x3e668bab	0.22514217
201	0x3d8380b5	0.06421033
202	0xbe594527	-0.21217786
203	0xbe942659	-0.28935507
204	0x3ceba7d2	0.028766546
205	0xbe79a17c	-0.24378008
206	0xbec2f465	-0.38077083
207	0xbd70810f	-0.05871683
208	0x3ae61622	0.0017554204
209	0x3e6beb09	0.23038878
210	0x3ec819ad	0.3908209
211	0xbe0cc147	-0.13745604
212	0x3e5fcc27	0.21855222
213	0x3d3a23f2	0.045444436
214	0xbead5528	-0.33854032
215	0x3df4f8b8	0.11961502
216	0xbe1a7881	-0.15085031
217	0x3e5b4bca	0.2141563
218	0xbe4a5306	-0.19758233
219	0xbba97fc5	-0.005172702
220	0x3e56d109	0.20978178
221	0xbe3b3a13	-0.18283872
222	0x3dbd1d49	0.09234101
223	0x3d73ee25	0.059553284
224	0x3bc3c730	0.0059746727
225	0x3dbfb320	0.09360337
226	0x3eb3541f	0.35025117
227	0x3eb987d1	0.36236432
228	0xbc85d5dd	-0.01633733
229	0xbdc24491	-0.09485734
230	0x3dd2bc22	0.1028979
231	0x3ee556ae	0.44792694
232	0xbe18ca3e	-0.149209
233	0xbd006a46	-0.03135135
234	0xbec2832a	-0.37990695
235	0xbea10ca0	-0.31454945
236	0xbea414d7	-0.3204715
237	0x3d822645	0.063549556
238	0x3e912519	0.28348616
239	0xbe4483da	-0.19190922
240	0x3e98a497	0.29813072
241	0x3ebf521e	0.37367338
242	0x3e40fab3	0.18845634
243	0xbe4729c5	-0.19449528
244	0xbdf2b18d	-0.118502714
245	0xbe9bdd33	-0.304422
246	0xbe88d8cf	-0.26727912
247	0xbea96774	-0.3308674
248	0x3ea89871	0.32928804
249	0x3e24d237	0.16095816
250	0xbca178a0	-0.019710839
251	0xbe9f730c	-0.3114246
252	0xbe63f877	-0.2226275
253	0xbe8994aa	-0.26871234
254	0x3ecba4f8	0.397743
255	0x3e31f01d	0.17376752

bias f4 [128]
0	0x3e285d72	0.16441897
1	0xbebc0d07	-0.3672869
2	0x3e9e32ef	0.30898234
3	0x3e82d5b1	0.2555366
4	0xbeaa1da5	-0.33225742
5	0x3e67a070	0.22619796
6	0xbd61189e	-0.054955117
7	0xbdf19518	-0.117960155
8	0x3e7d299d	0.24722905
9	0x3d81508e	0.06314193
10	0xbbe04c13	-0.0068450063
11	0xbdfec699	-0.12440223
12	0xbe854bcd	-0.26034394
13	0x3e433335	0.19062503
14	0x3ef8b3d4	0.48574698
15	0xbde592b7	-0.11209624
16	0xbeb7204e	-0.35766834
17	0xbe54b61f	-0.20772599
18	0x3ea93dd5	0.33054987
19	0xbe95941a	-0.29214555
20	0xbde0bf54	-0.10973993
21	0xbd09f79b	-0.0336834
22	0x3ebc78b2	0.36810833
23	0x3e9b8087	0.30371496
24	0x3eb95e62	0.3620482
25	0xbebde9c2	-0.37092406
26	0x3cf8bf27	0.030364586
27	0xbd8be959	-0.06831617
28	0x3e7ecca1	0.24882747
29	0x3ea55a22	0.32295328
30	0xbdf9163c	-0.12162444
31	0x3ed066d4	0.40703452
32	0xbeadd1bb	-0.33949074
33	0xbdf9e2ab	-0.122014366
34	0x3e27c26d	0.16382761
35	0x3ed8e130	0.42359304
36	0xbdc5fa22	-0.0966685
37	0x3e9c54a6	0.30533332
38	0x3eb7d986	0.35908145
39	0x3e118329	0.1421019
40	0xbe124d1b	-0.14287226
41	0x3e793cb7	0.24339567
42	0xbde97b17	-0.11400431
43	0x3ececec9	0.4039214
44	0x3e5d956b	0.2163903
45	0x3e9e8868	0.30963445
46	0xbe4bf4f5	-0.19917662
47	0x3ee007a0	0.43755817
48	0xbe8cb5cc	-0.2748245
49	0x3cdd35a0	0.02700311
50	0x3db4d132	0.08828963
51	0xbe864e96	-0.2623183
52	0xbe218d70	-0.1577661
53	0x3ea3a5c7	0.31962416
54	0x3ec8824f	0.39161918
55	0x3e8ee1f7	0.27906772
56	0xbd16add5	-0.036786873
57	0x3e346f04	0.17620474
58	0x3e89ad65	0.26890102
59	0x3e266002	0.16247562
60	0x3cd72541	0.026262881
61	0x3e3ef360	0.18647528
62	0xbebf631f	-0.3738031
63	0xbe6c98b4	-0.23105127
64	0xbe0d6ad1	-0.13810278
65	0xbda9e5f4	-0.08295813
66	0xbe98dda2	-0.29856592
67	0x3d2edecc	0.042692944
68	0x3e5c1fa4	0.21496445
69	0xbeacdad2	-0.33760697
70	0xbd93535a	-0.071936324
71	0xbe134bc6	-0.14384374
72	0xbe0e3d7d	-0.13890643
73	0xbe629c8d	-0.22130032
74	0x3ebcd5e1	0.36881927
75	0x3e7006b6	0.2344006
76	0xbea7bd71	-0.3276172
77	0xbdc609a4	-0.096698076
78	0x3e9d0006	0.3066408
79	0xbc4d950f	-0.012547745
80	0x3ea886b1	0.3291526
81	0x3efbfd5d	0.49216738
82	0xbec1424f	-0.37745902
83	0x3ee38fe0	0.44445705
84	0x3ecb57ab	0.39715323
85	0x3e9014d7	0.281409
86	0xbe8dd858	-0.2770412
87	0x3e316c19	0.17326392
88	0xbe819704	-0.25310528
89	0xbde4297e	-0.111407265
90	0x3e8ff6e6	0.28118056
91	0x3e814237	0.2524583
92	0xbcf7a0bf	-0.030228017
93	0x3ef80700	0.4844284
94	0x3ed381a5	0.41309848
95	0xbc739feb	-0.01486967
96	0xbe34cfdb	-0.17657416
97	0xbe8ef1cb	-0.27918848
98	0xbe80121f	-0.25013825
99	0x3e3abc49	0.18235888
100	0x3d103132	0.035203166
101	0x3e149934	0.14511567
102	0x3e8fa234	0.2805344
103	0x3e86f85e	0.26361364
104	0x3dd87fd4	0.10571256
105	0x3ed80811	0.42193654
106	0x3e89d01a	0.2691658
107	0xbeb5f063	-0.35534963
108	0x3ea6e180	0.32593918
109	0x3e982e13	0.29722652
110	0xbe3bb500	-0.18330765
111	0x3ec1d1c9	0.37855366
112	0x3e965000	0.2935791
113	0xbe86686f	-0.26251552
114	0x3e9d357b	0.30704865
115	0x3f01d07d	0.5070875
116	0xbe467568	-0.19380724
117	0x3e881757	0.26580307
118	0x3c3a3388	0.011364825
119	0x3e2737bd	0.16329856
120	0x3ecc5ce2	0.39914614
121	0xbe7d1705	-0.24715813
122	0x3eb3e81d	0.35138026
123	0xbe693791	-0.22775103
124	0x3e17fd1a	0.14842644
125	0x3e36e139	0.17859353
126	0x3eafe6fe	0.3435592
127	0xbe272a7c	-0.163248

weight f4 [64, 128]
0	0x3d9ce878	0.076615274
1	0x3c4721c2	0.012154045
2	0xbd4e1afe	-0.05031871
3	0x3d3ca47d	0.046055306
4	0xbd9e63c9	-0.07733876
5	0xbd0804f1	-0.033207837
6	0xbd6b88e2	-0.05750359
7	0xbd9dc1b2	-0.0770296
8	0xbc5daf8d	-0.013530624
9	0x3c5a4514	0.013322134
10	0xbba9f448	-0.0051865913
11	0x3d331996	0.043725573
12	0xbd681097	-0.056656446
13	0x3d1cea18	0.038309187
14	0x3ca1dbcb	0.019758126
15	0xbd24e821	-0.040260438
16	0xbd85156a	-0.06498225
17	0x3d630581	0.05542517
18	0xbc868ca1	-0.016424479
19	0x3d82ea5d	0.063923575
20	0x3ca0f0bf	0.019646047
21	0x3d75a5b3	0.059972476
22	0xbd657830	-0.056022823
23	0x3c9e7367	0.019342138
24	0xbdaeafc2	-0.08529617
25	0xbdb2e933	-0.087358855
26	0x3d9b8f20	0.07595658
27	0xbcafa809	-0.02144243
28	0xbd726fde	-0.059188716
29	0xbd2a65dc	-0.041601047
30	0x3cae46ec	0.021274053
31	0xbd0bc170	-0.034120023
32	0xbda3019d	-0.07959292
33	0xbc1dde77	-0.009635559
34	0x3d8e62a0	0.06952405
35	0x3d3770f0	0.04478544
36	0x3d234531	0.039860908
37	0x3d339ea2	0.043852456
38	0xbd8ca9ea	-0.06868346
39	0x3da96cd9	0.08272714
40	0x3c8717ff	0.016490934
41	0x3d832d86	0.06405167
42	0xbc8679d3	-0.016415512
43	0x3c01b561	0.007916779
44	0xbd6cc5b3	-0.05780573
45	0x3d09024c	0.033449456
46	0xbbf41ea0	-0.00744994
47	0x3d7d549e	0.061848275
48	0xbdaad0bf	-0.083405964
49	0x3c95da82	0.01829267
50	0x3d6488cf	0.055794533
51	0x3aa47dfa	0.0012549751
52	0xbd65bb3b	-0.05608676
53	0xbda170bd	-0.07882831
54	0xbd818618	-0.063244045
55	0xbd9554f7	-0.072915964
56	0x3d7a24a3	0.061070096
57	0x3d9ed12e	0.077547416
58	0xbd1cc427	-0.038273003
59	0x3cdc97ab	0.02692779
60	0x3d6dc1cc	0.058046147
61	0x3d880301	0.06641198
62	0x3cf7b3ca	0.030237097
63	0x3ca6afc0	0.020347476
64	0x3d91c399	0.071173854
65	0xbd8ddf8a	-0.06927402
66	0x3d6f61ed	0.058443
67	0xbda0cd42	-0.0785165
68	0x3d95589c	0.072922915
69	0x3ce26b39	0.027639018
70	0x3d296ee7	0.04136553
71	0x3daafd32	0.083490744
72	0xbc8c1184	-0.017098196
73	0xbbfa86d9	-0.0076454696
74	0xbd242698	-0.04007587
75	0x3bed482f	0.007241271
76	0xbd0a65f6	-0.033788644
77	0xbc8094a9	-0.015695887
78	0xbda3a16d	-0.07989774
79	0xbd95e1a4	-0.07318428
80	0x3d036c05	0.032085437
81	0xbdaaf378	-0.08347219
82	0x3be57389	0.0070022983
83	0x3c7940d4	0.01521321
84	0xbd1c8917	-0.038216677
85	0x3d313d5d	0.04327141
86	0xbd422bfe	-0.047405235
87	0xbd4e1ad4	-0.050318554
88	0x3dab9d14	0.0837957
89	0xbc07b1c5	-0.00828213
90	0x3da9f4c7	0.08298641
91	0x3da2fad4	0.07957998
92	0x3d621207	0.055192973
93	0xb8f5c388	-0.00011718931
94	0xbd2d94db	-0.042378288
95	0xbd5d755b	-0.054066997
96	0xbd9fd3ae	-0.078040466
97	0xbcfa8c32	-0.030584428
98	0xbd0732ef	-0.03300756
99	0x3cde203f	0.027114986
100	0xbd23a772	-0.03995461
101	0x3d10bf77	0.035338845
102	0xbcbb194b	-0.022839209
103	0xbd857a14	-0.06517425
104	0x3d9d5304	0.076818496
105	0xbd9038d1	-0.07042087
106	0xbdae96d1	-0.0852486
107	0x3d2d3c8b	0.042294066
108	0xbc0261ea	-0.007957915
109	0xbd7e4421	-0.06207669
110	0x3d41b4c7	0.047291543
111	0x3ce10c19	0.027471589
112	0x3ca22b3c	0.019796006
113	0xbacba1ae	-0.0015535855
114	0xbc890539	-0.016726123
115	0xbd85ba63	-0.06529691
116	0xbc6ba6dc	-0.014383044
117	0x3d68c59f	0.05682909
118	0xbc12043a	-0.0089121405
119	0xbafe045e	-0.0019379964
120	0x3d655d5f	0.05599725
121	0x3db040b3	0.086060904
122	0xbd1baa5c	-0.038004264
123	0xbdb16567	-0.08661919
124	0x3c8e6b88	0.01738526
125	0x3bdc6a0f	0.0067265104
126	0xbc38fef6	-0.011291256
127	0x3d02c4b0	0.031925857
128	0x3b9b8a1a	0.0047466876
129	0xbd445a6b	-0.04793779
130	0xbd59f72e	-0.053214245
131	0xbb3d619b	-0.0028897289
132	0xbda7efec	-0.08200058
133	0xbcf450b3	-0.029823637
134	0x3d5d0712	0.05396182
135	0xbd93ba6d	-0.07213292
136	0xbd83b4e7	-0.06430989
137	0xbcd25719	-0.025676297
138	0xbbc92b2b	-0.006139179
139	0xbd82d015	-0.06387345
140	0x3d93941d	0.07205985
141	0xbd13d272	-0.03608937
142	0x3cbc4e95	0.02298669
143	0xbca72b4f	-0.020406393
144	0xbbd210b5	-0.006410683
145	0xbd14b219	-0.03630266
146	0xbdbbf88e	-0.091782674
147	0xba1f0f73	-0.0006067671
148	0x3c8dc6e6	0.017306756
149	0x3c444e3d	0.011981544
150	0xbd882db1	-0.0664934
151	0xbbe5810f	-0.0070039104
152	0xbd9149ca	-0.07094152
153	0xbda6184d	-0.08110104
154	0xbb8f4611	-0.0043723662
155	0x3c7f5859	0.015585029
156	0x3d46dad4	0.048548535
157	0xbda2b189	-0.079440184
158	0xbd504f09	-0.050856624
159	0xbd8bf260	-0.06833339
160	0xbd4191b7	-0.047258105
161	0x3d56399f	0.052301046
162	0xbc5a51fc	-0.013325211
163	0xbd5d34b3	-0.054005336
164	0xbd9b6726	-0.075880334
165	0xbd567c36	-0.05236455
166	0xbcca3c66	-0.024687003
167	0x3d0c7c34	0.034298137
168	0xbd5c75f6	-0.053823434
169	0x3c90daa8	0.017682388
170	0x3d84eabb	0.06490084
171	0x3cc4cb86	0.024022829
172	0x3cc82d88	0.024435773
173	0xbda6326d	-0.08115087
174	0x3bd36353	0.0064510494
175	0x3d41f179	0.047349427
176	0x3d942ecc	0.07235488
177	0xbd8f26a1	-0.0698979
178	0x3da31790	0.079634786
179	0x3b86c297	0.0041125524
180	0x3d4baad1	0.04972345
181	0xbd45a796	-0.048255526
182	0x3d5f61a6	0.054536484
183	0x3d7ea91a	0.062172987
184	0xbcba0795	-0.022708694
185	0x3cb061be	0.021530982
186	0xbc0698b0	-0.0082151145
187	0xbda4aa30	-0.08040273
188	0x3c4dca78	0.012560479
189	0x3d6fbf32	0.058531947
190	0xbd972599	-0.07380218
191	0xbda1615e	-0.078798994
192	0x3da35200	0.07974625
193	0x3db24732	0.08704986
194	0x3c036534	0.008019734
195	0xbc8e9307	-0.017404092
196	0xbac1f9d4	-0.0014799186
197	0xbd9a0fde	-0.07522558
198	0xb7794151	-1.4856764e-05
199	0x3dac62ee	0.08417307
200	0x3d24008e	0.04003959
201	0x3bc93fb6	0.006141628
202	0x3d9ad7f1	0.07560719
203	0x3d81c611	0.06336606
204	0x3d77de3a	0.060514666
205	0x3d6f4f59	0.05842528
206	0x3d40485b	0.046944004
207	0x3be03dce	0.006843305
208	0xbd882703	-0.06648066
209	0xbd2cc304	-0.04217817
210	0x3c983699	0.018580722
211	0x3d7b6611	0.061376635
212	0x3bbc41ff	0.005745172
213	0xbd0a3857	-0.033745136
214	0x3d920967	0.071306996
215	0xbcfd38d3	-0.030910885
216	0xbd6c483d	-0.05768608
217	0x3b3dcd8c	0.0028961627
218	0x3d28a17b	0.041169625
219	0xbd54e78b	-0.05197863
220	0x3d17e2c7	0.037081506
221	0xbdc5d08b	-0.09658917
222	0x3d4c052b	0.049809616
223	0x3d9c7094	0.0763866
224	0x3d93e293	0.0722095
225	0xbd5f50f2	-0.054520555
226	0x3d71628f	0.058931883
227	0x3cfb8fbf	0.030708192
228	0xbda6787c	-0.08128449
229	0xbc09f078	-0.008419149
230	0x3d86b1d0	0.06576884
231	0xbd5ddc13	-0.054164957
232	0xbdbc9c49	-0.092094965
233	0xbcc3d98e	-0.02390745
234	0x3d918394	0.07105175
235	0x3cc9f7ea	0.024654347
236	0xbc575458	-0.013142668
237	0xbda79d75	-0.081843294
238	0x3d73985b	0.05947147
239	0xbd320420	-0.043460965
240	0x3d8e47b2	0.069472685
241	0xbba7653c	-0.0051085036
242	0x3c116a4d	0.008875442
243	0xbcd6e84f	-0.02623382
244	0xbba9ccdc	-0.005181892
245	0x3da7ef9e	0.082
246	0x3c241241	0.010014118
247	0x3d1342ad	0.03595226
248	0x3d918263	0.071049474
249	0x3d5eb48a	0.054371394
250	0x3d678cf8	0.056530923
251	0x3d1dac49	0.038494382
252	0x3d6dee87	0.058088806
253	0x3d446ac1	0.04795337
254	0xbdc9d732	-0.098554984
255	0xbc776c11	-0.015101449

bias f4 [64]
0	0x3b470dd3	0.003037323
1	0x3d9a5ec7	0.075376086
2	0x3a806ac6	0.0009797446
3	0x3cb144bc	0.02163922
4	0x3cd9bbee	0.02657887
5	0x3c55e422	0.013054879
6	0x3d948313	0.07251563
7	0x3d194d66	0.03742733
8	0x3ca6de3c	0.020369641
9	0x3cc20aa7	0.02368672
10	0x3d67cba5	0.056590695
11	0x3cec6b07	0.028859628
12	0x39af95f7	0.00033490334
13	0xbcd862b3	-0.026414251
14	0xbc164f56	-0.009174189
15	0xbd9b1705	-0.0757275
16	0x3caf33d0	0.02138701
17	0x3e1fddc5	0.15611942
18	0xbc2e3387	-0.010632402
19	0x3dbdbbf5	0.092643656
20	0x3dd00aac	0.101582855
21	0xbd9bdb13	-0.076101445
22	0x3dc371b2	0.0954317
23	0xbda19ad5	-0.0789086
24	0x3dae3b61	0.085074194
25	0xbcd09695	-0.025462428
26	0x3dbf521c	0.09341833
27	0x3d923bdd	0.07140324
28	0x3d1fedd5	0.039045174
29	0x3d749cfe	0.059720032
30	0xbd4d8d8e	-0.050183825
31	0x3d9399b9	0.07207055
32	0x3d5fb006	0.05461123
33	0x3db82d89	0.0899306
34	0x3df6b47e	0.12046145
35	0x3cebec17	0.0287991
36	0xbd2a1844	-0.041527048
37	0x3d8b52f4	0.068029314
38	0x3ded7cd8	0.11596078
39	0xbd7a7a7f	-0.061151978
40	0x3c448db3	0.011996674
41	0xbb3dfc66	-0.0028989553
42	0x3d851796	0.06498639
43	0x3d8ba2c2	0.06818153
44	0x3c638d7b	0.013888712
45	0x3dc8559e	0.09781955
46	0xbcdefe19	-0.027220773
47	0x3cbd320d	0.023095155
48	0xbc94e9d2	-0.0181779
49	0x3d32a0e9	0.043610487
50	0x3d276a5b	0.040872913
51	0x3d282032	0.04104633
52	0x3d9d2e7c	0.07674882
53	0x3e13d6b4	0.14437371
54	0xbcca5d1b	-0.0247026
55	0x3df75305	0.120763816
56	0x3ddb7f6c	0.10717663
57	0xbd5100fe	-0.051026337
58	0xbd16440b	-0.036685985
59	0xbda90fc4	-0.0825496
60	0x3db3b3a0	0.08774495
61	0x3d75303d	0.059860457
62	0xbd034bd7	-0.03205475
63	0x3e204b0d	0.1565363
