2023/baseline0806/model/WLTP_trained_0822/PPO_actorcritic_86episode.pt (torch, 101527 bytes, 17 tensors)

weight f4 [128, 7]
0	0xbe750773	-0.23928623
1	0xbebb8867	-0.36627504
2	0x3e89296e	0.2678942
3	0xbee83085	-0.45349517
4	0xbe68e446	-0.2274333
5	0x3ecb2c02	0.39682013
6	0x3ebb0b43	0.3653203
7	0xbd25ce1e	-0.04047977
8	0xbe39b0ac	-0.18133801
9	0x3dadfb07	0.08495145
10	0xbe8efc21	-0.27926734
11	0xbe0c1b93	-0.13682394
12	0xbeb979ee	-0.36225837
13	0xbe9a61b6	-0.30152673
14	0x3dc73569	0.09726984
15	0xbe24e6ec	-0.16103715
16	0xbe283d70	-0.16429687
17	0x3cdc42c7	0.02688731
18	0x3e9f846c	0.31155717
19	0x3ec6d8e0	0.38837337
20	0x3d90e69b	0.070752345
21	0xbe9c1600	-0.30485535
22	0xbe84b18f	-0.25916716
23	0xbe703355	-0.23457082
24	0xbdeea69e	-0.116528735
25	0xbe40056a	-0.18752065
26	0x3e8d0aab	0.27547202
27	0x3ecd8b67	0.40145418
28	0x3dcc73c3	0.09983017
29	0xbe3be774	-0.18350011
30	0xbec4d74c	-0.38445508
31	0x3da8b7c9	0.08238179
32	0x3d77074a	0.060309686
33	0x3e38e9a8	0.18057883
34	0xbca5b3a4	-0.02022726
35	0xbd389840	-0.045067072
36	0xbdcf87de	-0.101333365
37	0xbe5d2c43	-0.21598916
38	0xbdc4bd35	-0.09606401
39	0x3e5feb10	0.21867013
40	0x3e18d2de	0.1492419
41	0x3eaa1cbc	0.33225048
42	0xbeada894	-0.33917677
43	0xbe81e30c	-0.25368536
44	0xbead099a	-0.33796388
45	0x3c4285f4	0.011872757
46	0xbe8d5075	-0.27600446
47	0xbe1560c1	-0.1458769
48	0xbb9ac17b	-0.0047227717
49	0x3dd9bbe5	0.10631541
50	0xbebb8a8d	-0.36629143
51	0x3eb0690f	0.34455153
52	0x3e8631f7	0.26209995
53	0x3e8a3ae6	0.2699806
54	0xbebcba75	-0.36861005
55	0xbce9d99e	-0.02854615
56	0x3ee98eee	0.4561686
57	0xbd4324bb	-0.04764245
58	0xbe823f40	-0.2543888
59	0xbcc028f4	-0.023457028
60	0x3f0bc4d9	0.5459724
61	0xbe840750	-0.2578683
62	0x3cbd880e	0.023136165
63	0x3ea9562d	0.3307356
64	0xbe7eff72	-0.24902132
65	0xbeb5bf24	-0.3549739
66	0xbed92fda	-0.4241932
67	0xbe2aab56	-0.16666922
68	0x3eb82f65	0.3597366
69	0x3e9ed106	0.31018847
70	0x3e957caf	0.2919669
71	0x3e6fcbf6	0.23417649
72	0x3d7600ed	0.060059477
73	0x3def005c	0.116699904
74	0xbeae98a4	-0.3410083
75	0x3cff173e	0.031139012
76	0x3d491ecb	0.049101632
77	0x3c151344	0.009098832
78	0x3ecc0a0c	0.39851415
79	0x3e26b08a	0.16278282
80	0xbe0cf808	-0.13766491
81	0x3e67f010	0.2265017
82	0xbd28aa6c	-0.041178152
83	0xbdb746cd	-0.08949051
84	0xbe9019bf	-0.28144643
85	0xbeac1b4a	-0.3361457
86	0x3e85b4b3	0.26114425
87	0xbecf4ac6	-0.40486735
88	0x3e6df5e6	0.23238334
89	0xbe13a2a9	-0.14417519
90	0x3e589104	0.21149069
91	0x3e84d39c	0.25942695
92	0x3e23758b	0.15962808
93	0x3e990387	0.29885504
94	0xbaf69252	-0.0018811917
95	0xbe24a1c2	-0.1607733
96	0xbe135a39	-0.14389886
97	0xbe957333	-0.29189453
98	0xbc4fd502	-0.012685062
99	0x3c910589	0.017702835
100	0x3de1be3f	0.11022615
101	0x3c28cb15	0.010302325
102	0xbd92e54b	-0.071726404
103	0x3e33c49b	0.17555468
104	0xbe64da41	-0.22348882
105	0x3e4fa562	0.20277932
106	0xbe8490a2	-0.25891596
107	0xbc0bf647	-0.008542604
108	0x3e34ed14	0.17668563
109	0xbd27c873	-0.040962648
110	0x3e98a9a4	0.29816926
111	0xbe7d17a9	-0.24716057
112	0xbe496362	-0.19666818
113	0xbeb37e19	-0.35057142
114	0xbe64cdf5	-0.22344191
115	0x3e8d96a1	0.27653983
116	0x3dcdb60d	0.10044489
117	0xbe015d09	-0.12633146
118	0x3d17a160	0.037019134
119	0xbe13b3c3	-0.14424042
120	0x3f041144	0.51588845
121	0xbdbb9ae1	-0.091604
122	0x3eee7555	0.46573892
123	0xbe956fcd	-0.2918686
124	0xbe08481e	-0.1330876
125	0xbe477726	-0.19479045
126	0x3ebcb79a	0.36858827
127	0xbe157cdf	-0.14598416
128	0x3d9a3626	0.07529859
129	0xbec40946	-0.38288325
130	0xbe99260d	-0.29911843
131	0xbe83f5c1	-0.25773433
132	0xbe806d92	-0.25083596
133	0xbe186b49	-0.14884676
134	0xbe9449a4	-0.28962433
135	0xbd2c7109	-0.042099986
136	0xbe784e8c	-0.24248713
137	0x3dd27c81	0.102776535
138	0xbda12806	-0.07868962
139	0xbd818a5f	-0.0632522
140	0x3eaca0a3	0.33716306
141	0xbe4ff8d0	-0.20309758
142	0x3deb5f02	0.11492731
143	0xbcb483a4	-0.022035427
144	0x3c50f817	0.012754462
145	0x3eb277f9	0.34857157
146	0x3ea71af8	0.32637763
147	0xbdbdf109	-0.092744894
148	0x3c52bff9	0.012863153
149	0xbda1ef9d	-0.07907031
150	0xbdf31a73	-0.11870279
151	0x3c45decc	0.012077045
152	0xbe53c8bf	-0.20682047
153	0x3d91f8f2	0.07127561
154	0xbeb60518	-0.3555076
155	0x3b44f8f0	0.0030055605
156	0x3e6242e2	0.22095826
157	0xbe203307	-0.15644465
158	0xbc14f99a	-0.009092713
159	0xbe1eeed3	-0.15520792
160	0x3e81720e	0.2528233
161	0x3e90e4f1	0.28299668
162	0xbe2523df	-0.16126965
163	0x3e49fce3	0.19725375
164	0x3e44da6b	0.19223945
165	0x3d17d19f	0.037065145
166	0x3eb259ad	0.34834042
167	0x3eceaf5a	0.40368158
168	0x3ec1892e	0.37799972
169	0xbeaa5093	-0.33264598
170	0x3d84bf2c	0.06481776
171	0xbec79fbd	-0.38989058
172	0x3ea30316	0.31838292
173	0xbdcab7f2	-0.09898366
174	0x3e959ac8	0.2921965
175	0x3d64d3c5	0.05586602
176	0x3d33460d	0.043767978
177	0xbeb32020	-0.34985447
178	0xbdd85ec9	-0.10564954
179	0xbd212390	-0.039340556
180	0x3e22385d	0.15841813
181	0xbe3f3bfa	-0.18675223
182	0x3e708b43	0.23490624
183	0xbedc626c	-0.4304384
184	0x3e8ff9cc	0.28120267
185	0xbe9c8080	-0.30566788
186	0xbe2c4013	-0.16821317
187	0x3e804348	0.25051332
188	0x3e2a2383	0.16615109
189	0x3ea17f89	0.31542614
190	0x3caafe39	0.020873176
191	0x3e1b39c9	0.15158762
192	0x3e267114	0.16254073
193	0x3e86584b	0.26239237
194	0xbe11f989	-0.14255346
195	0x3e8e6442	0.27810866
196	0x3c84a2c1	0.016190888
197	0x3ec16ebe	0.37779802
198	0xbd181823	-0.037132394
199	0x3e98e8f4	0.2986523
200	0xbe781408	-0.24226391
201	0xbd4fab44	-0.05070044
202	0x3e5bec9a	0.21476975
203	0x3e93d6eb	0.28874907
204	0xbcda81f2	-0.02667329
205	0x3e12418f	0.14282821
206	0xbe8337d8	-0.25628543
207	0x3e140ad7	0.1445726
208	0x3ebf3e92	0.37352425
209	0x3e3404ed	0.17580004
210	0xbde3e03b	-0.11126753
211	0xbe930cca	-0.28720695
212	0xbdb666de	-0.08906339
213	0x3d2662e7	0.040621664
214	0xbe87347b	-0.26407227
215	0x3e70b431	0.23506238
216	0x3e94358b	0.289471
217	0x3e3268d8	0.17422807
218	0xbe71cb73	-0.23612766
219	0x3e001c7f	0.1251087
220	0xbe30db66	-0.17271194
221	0x3e789d60	0.24278784
222	0x3eb75903	0.35810098
223	0x3e778f3f	0.24175738
224	0x3da6d056	0.08145206
225	0xbe9acc28	-0.30233884
226	0xbdf68d2e	-0.12038647
227	0x3e88e998	0.26740718
228	0x3e97b1f3	0.29627952
229	0xbe35fe65	-0.17772825
230	0xbce548ff	-0.027988909
231	0x3e5b1e2b	0.21398227
232	0x3d13635e	0.035983436
233	0x3d89d276	0.06729595
234	0x3e9929c5	0.2991468
235	0x3e30b244	0.17255503
236	0xbe788618	-0.24269903
237	0x3ea33b92	0.31881386
238	0x3e0dd5c1	0.13851072
239	0xbe95afee	-0.29235786
240	0xbe139448	-0.14412034
241	0xbe3db169	-0.18524708
242	0x3ea006ff	0.31255338
243	0xbe456e18	-0.19280279
244	0x3d4ccd11	0.050000254
245	0x3e04988e	0.1294882
246	0x3dca09fb	0.09865185
247	0x3e801067	0.25012514
248	0xbdb7e082	-0.08978368
249	0x3d9ce9b9	0.076617666
250	0xbe6b0fbf	-0.22955225
251	0x3e9ce078	0.30640006
252	0xbe579ecb	-0.21056668
253	0x3e90285d	0.28155795
254	0x3d5387ae	0.051643066
255	0x3e90d038	0.28283858

bias f4 [128]
0	0xbe343b9c	-0.17600864
1	0xbe7448f0	-0.23855948
2	0x3e3dbb7a	0.18528548
3	0x3ecdcf55	0.40197244
4	0x3d43ec8c	0.04783301
5	0xbe11d71a	-0.14242211
6	0xbdd1db23	-0.10246875
7	0x3dc0f9d1	0.09422649
8	0x3bfa452d	0.007637641
9	0x3ec2ccfc	0.38047016
10	0x3e9081e0	0.28224087
11	0x3d8e5c4c	0.06951198
12	0x3d9ef750	0.07762015
13	0x3e544802	0.20730594
14	0x3da65e94	0.08123508
15	0xbe172580	-0.14760399
16	0xbe4c695c	-0.19962066
17	0x3e4438e1	0.19162323
18	0x3eb28ad3	0.3487154
19	0x3e4b59b4	0.19858438
20	0xbd9ece2f	-0.0775417
21	0xbe9af27e	-0.30263132
22	0x3e4a4140	0.19751453
23	0xbe4c4b3d	-0.19950576
24	0xbd9ebb5c	-0.0775058
25	0xbe910c02	-0.28329474
26	0xbdc4d582	-0.09611036
27	0x3d6c5ebb	0.05770753
28	0xbe96b8f7	-0.29437992
29	0xbeb32233	-0.3498703
30	0x3e8c53f2	0.27407795
31	0xbc23a4be	-0.009988008
32	0x3e937fdf	0.28808495
33	0x3d4fa64b	0.0506957
34	0x3e936e77	0.28795215
35	0xbe79d068	-0.24395907
36	0xbe943c30	-0.2895217
37	0xbdcff75e	-0.101546034
38	0xbe578037	-0.21045004
39	0xbd894266	-0.067021176
40	0xbdd6578a	-0.104659155
41	0xbecd3163	-0.40076742
42	0xbc35a9f6	-0.011087885
43	0xbd8e3e6d	-0.069455005
44	0xbe9246a2	-0.28569514
45	0xbd009242	-0.031389482
46	0xbe9409c0	-0.2891369
47	0x3e628353	0.22120409
48	0xbe820c38	-0.25399947
49	0xbdaad02b	-0.08340486
50	0x3e532349	0.20618929
51	0x3ebbd7ad	0.36687985
52	0x3c385709	0.01125122
53	0xbea3e590	-0.3201108
54	0xbe14707b	-0.14496033
55	0x3e4c5b67	0.19956742
56	0x3e910b05	0.2832872
57	0x3e65055a	0.22365323
58	0xbd8cce8b	-0.068753324
59	0xbeb3824c	-0.35060346
60	0xbeaa42f2	-0.332542
61	0x3e2d6407	0.16932689
62	0xbbfaccc6	-0.0076538054
63	0x3e87f069	0.26550606
64	0x3e919ec7	0.2844145
65	0xbe46d36c	-0.19416589
66	0xbeb5f34f	-0.35537192
67	0xbe6365e3	-0.22206835
68	0x3eba4f01	0.363884
69	0x3da99c5c	0.08281776
70	0x3dd87bda	0.10570498
71	0xbd0ddd2d	-0.034634758
72	0xbe7c3439	-0.24629296
73	0x3e93d999	0.2887695
74	0x3d8fd91b	0.070238315
75	0xbd807526	-0.06272344
76	0x3e0da6ba	0.13833132
77	0x3e8edf98	0.27904963
78	0xbdc85d72	-0.09783448
79	0x3e8fb38b	0.28066668
80	0x3e919e9a	0.28441316
81	0x3e8ef4ba	0.27921087
82	0x3e241721	0.16024448
83	0xbe84326b	-0.25819716
84	0xbe158f25	-0.14605387
85	0xbe02f9dc	-0.12790626
86	0xbe9bc43c	-0.30423152
87	0xbe5bc11b	-0.21460383
88	0xbeaca55f	-0.33719918
89	0xbe0f853c	-0.14015669
90	0x3eb870a5	0.3602344
91	0x3e84d167	0.2594101
92	0x3eab6e75	0.3348271
93	0x3ecbfbbb	0.39840493
94	0x3daac092	0.08337511
95	0xbe9900be	-0.2988338
96	0x3e074f60	0.13213873
97	0x3e826e2e	0.25474685
98	0x3e0dc135	0.13843234
99	0xbea76f87	-0.32702276
100	0x3ec3a377	0.3821065
101	0x3e8847da	0.26617318
102	0x3e355867	0.17709504
103	0x3eaf9e95	0.34300676
104	0xbe559f68	-0.2086159
105	0x3c18d75e	0.009328691
106	0x3d9494cb	0.072549425
107	0xbe14f00b	-0.14544694
108	0xbe20979d	-0.15682836
109	0x3dc9f21c	0.09860632
110	0x3d3c0b32	0.045909114
111	0xbe8075bd	-0.25089827
112	0xbeaceb64	-0.3377334
113	0x3d2bf972	0.041985936
114	0x3e9633f7	0.2933652
115	0x3bfef57d	0.0077807293
116	0xbe2124ed	-0.15736742
117	0x3e5029b7	0.20328413
118	0x3e7e972d	0.24862356
119	0xbe1a0245	-0.15039928
120	0x3e793a22	0.24338582
121	0x3c0d4110	0.008621469
122	0xbe1b7717	-0.15182148
123	0x3e7cc1bc	0.24683279
124	0x3e36821c	0.1782307
125	0xbe6d6bae	-0.23185608
126	0x3e9bf3de	0.30459493
127	0xbd0002d3	-0.031252693

weight f4 [64, 128]
0	0xbce2f1fe	-0.027703281
1	0x3dacf6fd	0.08445547
2	0x3b0de19a	0.0021649362
3	0x3d3f6269	0.04672471
4	0x3d78fee7	0.06078997
5	0xbd73637f	-0.05942106
6	0x3dae3d81	0.08507825
7	0xbcc479be	-0.023983832
8	0xbda2e8d5	-0.079545654
9	0xbd6d833d	-0.057986487
10	0x3c4a1c1b	0.012335802
11	0x3db46466	0.08808212
12	0xbcb37454	-0.021906056
13	0x3cb3499e	0.02188569
14	0xbda52a74	-0.08064738
15	0x3c87d109	0.016579168
16	0x3c5e8770	0.0135820955
17	0xbd93189d	-0.07182429
18	0xbce8a4bb	-0.028398862
19	0xbd0b068a	-0.033941783
20	0xbd167944	-0.03673674
21	0x3d897135	0.06711046
22	0xbc037424	-0.008023296
23	0xbd609658	-0.05483088
24	0x3cbc3888	0.022976175
25	0x3d2871f2	0.04112429
26	0x3d09e9bb	0.03367017
27	0x3bfaad90	0.007650085
28	0xbc29cb88	-0.010363467
29	0xbd88c4d8	-0.0667817
30	0xbd6d649d	-0.05795728
31	0x3d6dc48c	0.05804877
32	0x3d9e73ed	0.07736955
33	0xbcee4242	-0.029084329
34	0xbb2f0ba7	-0.0026709826
35	0xbd82c569	-0.06385309
36	0xbb3dcb40	-0.0028960258
37	0xbda050a0	-0.07827878
38	0x3db11610	0.08646786
39	0x3cc83ed5	0.024444023
40	0xbcca2224	-0.024674483
41	0x3c9d3b15	0.019193212
42	0x3d7878aa	0.06066195
43	0x3cae75cb	0.021296402
44	0x3da9c376	0.08289234
45	0xbd134f98	-0.03596458
46	0xbc55c9b6	-0.01304858
47	0xbd9bdb84	-0.07610229
48	0x3d9ab47b	0.07553955
49	0xbd9ed4a6	-0.07755403
50	0xba44b6bb	-0.00075040356
51	0xbd6cb997	-0.05779418
52	0xbd1afd5a	-0.03783927
53	0x3d71d659	0.05904231
54	0xbcd9e33c	-0.026597612
55	0x3d9f5263	0.07779386
56	0x3d1a653c	0.0376942
57	0xbd7bc64c	-0.061468408
58	0xbced5363	-0.028970426
59	0xbd6d733b	-0.05797122
60	0xbd9049d8	-0.070453346
61	0xbba95c84	-0.0051684994
62	0xbd6fa997	-0.058511343
63	0xbd864e07	-0.06557851
64	0xbd37dfd2	-0.044891186
65	0x3daae01f	0.08343529
66	0x3d99a665	0.0750244
67	0x3d5838b7	0.052788462
68	0x3d2ac872	0.041695066
69	0x3d20ca33	0.039255332
70	0xbb155012	-0.0022783321
71	0x3d8cc04a	0.06872614
72	0x3d64f5cb	0.05589847
73	0x3d548652	0.05188591
74	0x3c733849	0.014844962
75	0xbdaddb03	-0.08489039
76	0xbd82a29b	-0.06378671
77	0x3c9a733f	0.018853782
78	0xbd92847f	-0.07154178
79	0xbd8689f0	-0.06569278
80	0x3d10fc52	0.03539688
81	0xbd30d1dc	-0.043168887
82	0xbd893d65	-0.06701163
83	0xbceb7f8c	-0.028747343
84	0xbb96e856	-0.0046053333
85	0xbccd2614	-0.025042571
86	0xbd2299eb	-0.03969757
87	0x3d7a1a8d	0.061060477
88	0x3cf28301	0.029603483
89	0x3daa7476	0.083229944
90	0xbd0fbbc0	-0.03509116
91	0x3caca50c	0.021074794
92	0xbd0ed4a0	-0.034870744
93	0x3d9f11cf	0.077670686
94	0x3d3502da	0.044192173
95	0xbcaa0332	-0.020753477
96	0x3cefb4d3	0.029261028
97	0x3cb3d53a	0.02195226
98	0xbb165e5d	-0.0022944428
99	0xbd528fc4	-0.051406637
100	0x3bb593e0	0.0055413097
101	0x3cde6f8d	0.027152801
102	0xbbbca721	-0.005757228
103	0x3d00e7d0	0.031471074
104	0x3d418896	0.0472494
105	0x3d6e0ce7	0.058117773
106	0xbc8f9cfa	-0.017530907
107	0xbc8b4f5f	-0.01700562
108	0x3d4f4b04	0.05060865
109	0xbd90caf2	-0.07069959
110	0x3da7bdc3	0.08190491
111	0x3cc5f9f7	0.024167044
112	0x3cc54fa4	0.024085827
113	0x3d037e0d	0.032102633
114	0xbd61c2aa	-0.055117287
115	0xbd96305a	-0.07333441
116	0xbd37ce52	-0.044874497
117	0x3c9dcbe8	0.01926227
118	0x3a9542fd	0.0011387762
119	0xbd522049	-0.05130032
120	0xbd032da9	-0.032025967
121	0x3d8ee04d	0.06976376
122	0x3c33715e	0.010952322
123	0xbc705069	-0.014667609
124	0xbd134ee0	-0.035963893
125	0xbd5e7716	-0.054312788
126	0xbd93b598	-0.07212371
127	0x3d6bf3db	0.057605606
128	0x3d58cc61	0.052929286
129	0x3dab4e19	0.08364505
130	0xbd78a6a5	-0.0607058
131	0xbcb54644	-0.022128232
132	0xbd1426f8	-0.036169976
133	0x3b095161	0.0020953047
134	0xbd47d91c	-0.048791036
135	0x3cb5da6e	0.022198882
136	0x3b369778	0.0027861279
137	0x3d24b07e	0.04020738
138	0xbc94b8bd	-0.018154496
139	0xbd271f8d	-0.040801574
140	0xbc3ce154	-0.011528332
141	0xbd1e2193	-0.038606238
142	0xbbd660ad	-0.0065422864
143	0xbc8c2ef9	-0.017112242
144	0x3d2ab7a1	0.04167903
145	0x3d19c1dc	0.037538394
146	0xbd827208	-0.06369406
147	0x3cde37b6	0.027126174
148	0x3d971065	0.07376174
149	0x3db1b977	0.08677953
150	0xbc99dae3	-0.018781131
151	0x3cfb34a8	0.030664757
152	0xbd61d575	-0.05513521
153	0x3d77339a	0.060351945
154	0x3ba93a9e	0.0051644584
155	0x3d494c00	0.049144745
156	0x3d7e30e4	0.062058344
157	0xbd3b7bd1	-0.045772377
158	0x3d84f669	0.064923115
159	0x3d001393	0.031268667
160	0xbd2a1215	-0.04152115
161	0xbd93a37e	-0.07208918
162	0x3d050772	0.032477804
163	0x3d5cb1b3	0.053880405
164	0x3d9f0457	0.077645
165	0x3da63d9c	0.0811722
166	0x3d74b2ad	0.05974071
167	0xbcdcac98	-0.026937768
168	0xbcecdf29	-0.028915005
169	0xbd31d33c	-0.04341434
170	0xbcb30dda	-0.02185719
171	0x3d7d89da	0.061899044
172	0x3dabbef0	0.08386028
173	0xbc6b5b8d	-0.014365089
174	0xbacc7ef7	-0.0015601803
175	0xbcbd941e	-0.023141917
176	0xbd95b76d	-0.07310376
177	0xbd5af3c5	-0.053455133
178	0x3d9c09fc	0.07619092
179	0xbd1febb2	-0.039043136
180	0x3ce19627	0.027537419
181	0x3cd77dff	0.026305197
182	0xbd907514	-0.07053581
183	0xbd232389	-0.03982881
184	0xbd74e5fd	-0.059789646
185	0xbadd851f	-0.0016900635
186	0x3cecc082	0.028900389
187	0x3d6bb2a8	0.057543427
188	0x3d5b380c	0.053520247
189	0xbd87fb8a	-0.06639774
190	0x3d008d7b	0.031384926
191	0x3d5e2ec9	0.054243837
192	0x3cff47d7	0.031162186
193	0x3da3031c	0.079595774
194	0xbd34805e	-0.044067733
195	0xbdad9f38	-0.08477634
196	0xbd88b8e1	-0.06675888
197	0x3c8b3223	0.01699168
198	0x3da45bad	0.08025298
199	0x3d2e3c95	0.042538244
200	0xbc97a73c	-0.01851236
201	0xbd3971ae	-0.04527443
202	0x3d3e7752	0.04650051
203	0x3d26724f	0.040636357
204	0x3d853a00	0.06505203
205	0xbd9eaab0	-0.077474
206	0xbd3d0d6f	-0.04615539
207	0x3cd6d927	0.026226593
208	0xbbf4ecbc	-0.00747451
209	0x3d264560	0.040593505
210	0xbce716ea	-0.028209168
211	0xbd943f4a	-0.07238634
212	0x3d9f3aa8	0.0777486
213	0x3b88d264	0.004175471
214	0xbcc27c8f	-0.023741035
215	0xbdb0d97a	-0.0863523
216	0x3d8875d0	0.06663096
217	0x3a099cc4	0.0005249495
218	0xbbba1415	-0.0056786635
219	0xbd973084	-0.073823005
220	0xbd1a3964	-0.03765239
221	0xbd9c2b42	-0.07625438
222	0xbc2fb522	-0.010724338
223	0x3b498ac1	0.003075287
224	0x3caf910e	0.021431472
225	0x3d693961	0.056939486
226	0x3c5dad08	0.013530023
227	0xbda72840	-0.08161974
228	0xbd259c4f	-0.04043227
229	0xbc6b127c	-0.014347669
230	0xbd994b41	-0.07485057
231	0x3da09e04	0.07842639
232	0xbcd69c4c	-0.026197575
233	0xbd43166a	-0.047628798
234	0xbc122620	-0.0089202225
235	0xbd441363	-0.04787005
236	0x3c4ca171	0.0124896625
237	0x3d59334b	0.053027432
238	0xbd9e89ef	-0.077411525
239	0x3d7a252e	0.061070614
240	0x3db18f3a	0.086698964
241	0x3c488ac8	0.012240119
242	0x3d16e5df	0.036840316
243	0xbd9668da	-0.073442176
244	0xbd00b9fa	-0.03142736
245	0x3db2d2b9	0.087315984
246	0x3b149afb	0.0022675383
247	0x3d34045e	0.043949477
248	0xbd7cd4b7	-0.0617263
249	0xbd62ee83	-0.055403244
250	0x3d27a0a4	0.040924683
251	0xbbb0bff0	-0.0053939745
252	0x3d1aa0e7	0.037751105
253	0x3dac74ec	0.084207386
254	0x3d7b1aab	0.06130473
255	0x3d2b0720	0.04175484

bias f4 [64]
0	0xbd944fc6	-0.07241778
1	0xbcce523b	-0.025185695
2	0x3d972678	0.07380384
3	0x3d92af92	0.07162394
4	0x3cf870f4	0.030327298
5	0x3d573855	0.052543957
6	0x3d2cd9ae	0.042199783
7	0x3dcee489	0.10102183
8	0xbbd9c215	-0.006645451
9	0xbd089414	-0.033344343
10	0x3cf84b18	0.030309245
11	0xbbbb6e94	-0.005719969
12	0x3d88fa3a	0.06688352
13	0x3d1fdb9f	0.039027806
14	0x3d9e1f53	0.07720818
15	0x3b970272	0.004608446
16	0x3cb56a6e	0.022145476
17	0x3c97a093	0.018509185
18	0x3d2d9504	0.04237844
19	0x3badf1af	0.005308352
20	0x3dc3fbf9	0.09569544
21	0x39f0a8e6	0.00045902206
22	0xbb8c74f1	-0.0042864014
23	0xbbc1a4e6	-0.00590955
24	0xbc48c247	-0.012253351
25	0xbd047e36	-0.032346927
26	0xbd238174	-0.039918378
27	0xbd1372c0	-0.035998106
28	0x3d2ad458	0.041706413
29	0xbd28977b	-0.041160088
30	0x3d3567ee	0.04428857
31	0xbcd7b3e3	-0.026330894
32	0x3d53b7b5	0.05168887
33	0x3d6a157e	0.057149403
34	0x3cfa3892	0.030544553
35	0xbc871589	-0.016489761
36	0x3d7ba5b7	0.061437335
37	0xbdb0b8b8	-0.08628982
38	0x3d5aeaa5	0.05344643
39	0xbdb3ac09	-0.087730475
40	0xbcc3f398	-0.023919865
41	0x3d54f861	0.051994685
42	0x3d5b7d1e	0.053586118
43	0xbdae31dd	-0.085056044
44	0x3d723852	0.059135742
45	0x3cf2e9e0	0.029652536
46	0x3d0905f9	0.03345296
47	0x3dbc37cc	0.0919033
48	0xbd12232e	-0.03567808
49	0x3d7cb501	0.061696056
50	0xbcfb24e2	-0.030657236
51	0x3d8ccab2	0.068745986
52	0x3caec059	0.021331953
53	0xbd8e7c66	-0.06957321
54	0xbc4e2d37	-0.012584022
55	0x3de1662e	0.11005817
56	0x3d7e3605	0.062063236
57	0x3e0a85f2	0.13527659
58	0x3d3837fc	0.044975266
59	0xbd84de81	-0.06487752
60	0x3c98a0a2	0.018631283
61	0xbd2c4382	-0.042056568
62	0x3cb9ecaf	0.022695867
63	0x3e01e00d	0.12683125

weight f4 [32, 64]
0	0x3d3f3990	0.046685755
1	0xbdb74a9c	-0.089497775
2	0x3e0f88a9	0.14016975
3	0xbbfda824	-0.007740991
4	0xbd47c2b8	-0.048769683
5	0x3dba08e1	0.09083725
6	0x3df81585	0.121134795
7	0xbcff00a7	-0.03112824
8	0x3dec1343	0.115271114
9	0x3cf592bf	0.0299772
10	0x3e0086df	0.12551449
11	0x3df3a641	0.11896945
12	0x3db667a0	0.08906484
13	0x3e06066f	0.13088392
14	0xbd83013f	-0.06396722
15	0x3dbbf964	0.09178427
16	0xbd80ddfe	-0.06292342
17	0xbd8ddda9	-0.06927044
18	0x3d6f5c78	0.058437794
19	0xbdfd69da	-0.12373705
20	0xbdc64c4d	-0.09682522
21	0xbdeeeb65	-0.11665992
22	0xbdc271d9	-0.09494371
23	0x3d8b8e4f	0.068142526
24	0xbe03ac1c	-0.12858623
25	0x3d161e32	0.03664989
26	0x3dc95097	0.098298244
27	0x3e00ff7f	0.12597464
28	0xbe5d809d	-0.21631093
29	0x3dd999af	0.10625016
30	0x3d9c616c	0.07635769
31	0x3d9abcd3	0.075555466
32	0x3c0b0b29	0.0084865475
33	0x3e086660	0.13320303
34	0xbdcb996a	-0.09941371
35	0xbd4cf41b	-0.050037485
36	0xbdaa5b46	-0.0831819
37	0xbb243cc0	-0.0025060624
38	0x3d005ffb	0.031341534
39	0xbd31ae34	-0.043379024
40	0xbc053e15	-0.008132477
41	0x3d89067e	0.066906914
42	0xbd0e2e09	-0.03471187
43	0xbd7f404c	-0.062317178
44	0xbd895087	-0.067048125
45	0xbcb306be	-0.0218538
46	0x3d89a6c1	0.06721259
47	0x3dbc55b9	0.09196038
48	0x3afdf9b0	0.0019376781
49	0xbd24de24	-0.040250912
50	0xbdc14bf1	-0.09438313
51	0xbdc14267	-0.09436493
52	0xbdc4e49e	-0.09613918
53	0xbc1159d0	-0.008871511
54	0x3d594271	0.05304188
55	0x3cb4f9b7	0.02209173
56	0x3d9d9275	0.0769395
57	0xbd3ecba0	-0.04658091
58	0xbda5f22a	-0.0810283
59	0xbc2d4f67	-0.010578013
60	0xbd8a9d7e	-0.067683205
61	0x3dabb420	0.083839655
62	0x3dfcdd5f	0.12346911
63	0x3d9d9f8e	0.07696448
64	0xbc6c47c0	-0.014421403
65	0xbc95cbd9	-0.018285679
66	0x3dc1c0a8	0.094605744
67	0x3e1c6338	0.15272224
68	0xba8a739f	-0.0010563022
69	0xbdb0328d	-0.08603392
70	0x3d2ed357	0.042682018
71	0xbe380e8a	-0.17974296
72	0x3cf81cc1	0.030287148
73	0x3dadb301	0.08481408
74	0xbd60b4cb	-0.054859918
75	0xbce1ea23	-0.027577465
76	0x3d8c4bcb	0.06850394
77	0x3d60ca68	0.05488053
78	0xbddb72f1	-0.10715283
79	0x3d052f23	0.032515656
80	0xbe32d851	-0.1746533
81	0xbddde2c4	-0.10834268
82	0xbce210f0	-0.027595967
83	0x3df913b0	0.12161958
84	0x3e227efa	0.1586875
85	0xbd3f9c2e	-0.046779804
86	0x3d8b01cf	0.06787454
87	0x3cb99f9a	0.022659112
88	0xbe078b72	-0.13236788
89	0xbd3fc446	-0.04681804
90	0xbcb22282	-0.02174497
91	0x3d1e4f45	0.038649816
92	0x3e0f2e5b	0.13982527
93	0x3d884255	0.06653277
94	0xbb4c1a37	-0.0031143555
95	0x3dd80bf1	0.10549153
96	0x3db86492	0.09003557
97	0x3d6de3cf	0.058078583
98	0xbdb72f2a	-0.08944543
99	0x3d500748	0.050788194
100	0x3dc1daf1	0.09465588
101	0xbd2333f4	-0.03984447
102	0x3da9dbae	0.08293854
103	0xbd6fdc82	-0.058559902
104	0x3cd0af60	0.02547425
105	0x3dbdd07a	0.092682794
106	0xbd9b7e0a	-0.075923994
107	0x3ca61198	0.020272061
108	0xbdcf5d8c	-0.101252645
109	0x3de2de78	0.11077589
110	0xbc8557e1	-0.016277255
111	0x3d251ab4	0.04030867
112	0x3e115465	0.1419235
113	0x3c297f8f	0.010345354
114	0xbd6ab58b	-0.05730204
115	0x3d6242f6	0.05523964
116	0xbdacbffd	-0.08435056
117	0x3d4e74f2	0.050404496
118	0xbb804029	-0.0039138985
119	0xbc1d3850	-0.0095959455
120	0xbe98e4d4	-0.29862082
121	0xbe9c2fd2	-0.30505234
122	0x3e04d6a8	0.1297251
123	0x3d75a73c	0.05997394
124	0x3d1978c3	0.037468683
125	0x3cef2ee0	0.029197156
126	0xbd8e53b8	-0.06949562
127	0x3e02b4a2	0.12764218
128	0x3dcb3b92	0.099234715
129	0x3cc4eb68	0.024038032
130	0xbd938252	-0.07202591
131	0xbdd6af4d	-0.10482655
132	0x3dc25e0e	0.09490596
133	0xbd9b8c2d	-0.07595096
134	0x3caa6376	0.02079938
135	0xbdc2c1d2	-0.095096245
136	0xbddd8e76	-0.10818188
137	0xbd3959cb	-0.04525165
138	0xbde97660	-0.11399531
139	0xbdee12c4	-0.11624673
140	0xbd9ef2aa	-0.07761128
141	0x3d8dfb26	0.069326684
142	0xbd2b7adc	-0.041865215
143	0x3d56167c	0.052267537
144	0xbc3eed40	-0.0116532445
145	0xbdd8761a	-0.10569401
146	0x3daeaf16	0.08529489
147	0x3db45f14	0.08807197
148	0x3bf9748c	0.0076127704
149	0xbdf91394	-0.12161937
150	0xbd3ae5d8	-0.045629352
151	0xbd59053f	-0.05298352
152	0x3dcf4112	0.10119833
153	0x3d6312c1	0.055437807
154	0x3d4b31aa	0.04960791
155	0x3dac2878	0.08406156
156	0x3dde6689	0.10859401
157	0xbd06d31c	-0.032916173
158	0x3d8efac0	0.069814205
159	0x3dbd7d7c	0.0925245
160	0x3cfd73d0	0.030939013
161	0x3d0094c7	0.031391885
162	0xbdc4af53	-0.09603753
163	0x3d66e060	0.056366324
164	0x3cf42b80	0.029805899
165	0x3df1a278	0.117985666
166	0xbce09c78	-0.02741836
167	0x3d1771aa	0.036973633
168	0xbda29f59	-0.079405494
169	0xbde0954d	-0.10965977
170	0xbd338db4	-0.04383631
171	0x3db61c44	0.0889211
172	0x3dc217c0	0.09477186
173	0x3da92c46	0.082603976
174	0x3d8962da	0.067083076
175	0x3caf690f	0.0214124
176	0xbda80fca	-0.082061365
177	0xbc662ed0	-0.014049247
178	0x3d1cb2d8	0.038256496
179	0xbbfc169d	-0.0076931254
180	0xbd4c260a	-0.049840964
181	0x3d798e98	0.060927004
182	0x3c2dbbe0	0.010603875
183	0x3d7ffbc2	0.062495954
184	0xbc910d38	-0.017706499
185	0xbdb800d6	-0.089845344
186	0x3dc32817	0.09529131
187	0xbd17c958	-0.03705725
188	0xbdd95d48	-0.10613495
189	0xbdd6330c	-0.10458955
190	0xbdc4066a	-0.09571536
191	0xbdaa1787	-0.08305269
192	0xbdc37248	-0.09543282
193	0xbde300c3	-0.1108413
194	0x3d06c7ef	0.032905515
195	0x3e415b6c	0.18882531
196	0x3e10a7c5	0.14126499
197	0x3e36436f	0.17799161
198	0xbde9dfd7	-0.11419647
199	0x3bfd0fd5	0.0077228346
200	0x3e19e8e4	0.15030247
201	0x3d0dff6b	0.034667414
202	0x3e368a16	0.17826113
203	0x3beba2ed	0.007191053
204	0x3cb15d29	0.021650868
205	0xbc53dfe9	-0.012931802
206	0x3d534d32	0.05158729
207	0xbd81ea04	-0.06343463
208	0x3d782a64	0.0605873
209	0xbdd7da59	-0.105396934
210	0x3d6f84a3	0.0584761
211	0x3d600a6b	0.054697435
212	0x3de74325	0.11292104
213	0xbd40b4b3	-0.04704733
214	0xbd07ed6c	-0.033185408
215	0x3e37ab27	0.17936383
216	0x3bf1596d	0.0073653967
217	0x3e037a37	0.1283959
218	0xbc731f2d	-0.014838976
219	0x3e329b4f	0.17442058
220	0x3ddf3eb3	0.10900631
221	0xbdb9dd53	-0.09075417
222	0x3d1f4b15	0.038889963
223	0x3deae05a	0.11468573
224	0xbd232fab	-0.03984038
225	0x3e171c0a	0.1475679
226	0xbbb1ba20	-0.005423799
227	0x3d35e50a	0.04440788
228	0x3d493e0f	0.04913145
229	0xbd25fc40	-0.040523767
230	0x3d27f12f	0.041001495
231	0xbdbce1b6	-0.092227384
232	0x3cfe28c5	0.0310253
233	0x3de0ae4d	0.10970745
234	0x3e10027d	0.14063449
235	0x3cf16ac0	0.029469848
236	0x3da3eafc	0.08003804
237	0x3d56ab46	0.052409433
238	0xbd82b2b4	-0.06381741
239	0x3dc35e9a	0.09539528
240	0x3e38c3dc	0.18043464
241	0xbd887ffc	-0.06665036
242	0x3c3e7f38	0.011627011
243	0xbca6b1d8	-0.020348474
244	0xbbb2908c	-0.0054493602
245	0x3d9552d9	0.072911926
246	0x3d95d3d7	0.07315796
247	0xbd36a526	-0.04459109
248	0x3e4ecd76	0.20195565
249	0x3e8ca72a	0.27471286
250	0x3e166042	0.14685157
251	0xbdf53eca	-0.11974867
252	0x3dda2120	0.10650849
253	0xbdbbecd0	-0.09176028
254	0x3d6dd95c	0.05806862
255	0x3e11df0e	0.14245245

bias f4 [32]
0	0xbd91bbb3	-0.07115879
1	0x3ddc1246	0.10745673
2	0xbd3f4672	-0.04669804
3	0x3ddbe8e8	0.10737783
4	0xbdb3e078	-0.087830484
5	0xbcad86d8	-0.021182463
6	0x3e2db45c	0.16963333
7	0x3df47b1f	0.11937546
8	0x3e0e98bf	0.13925456
9	0xbc0a70f8	-0.008449785
10	0xbc04bd99	-0.008101844
11	0x3d8a3655	0.06748644
12	0x3c4c33f2	0.012463557
13	0xbd0a4fbf	-0.033767458
14	0xbda08543	-0.07837918
15	0x3c48bf51	0.012252645
16	0xbe0d0471	-0.13771226
17	0xbd25f24b	-0.04051427
18	0x3daa64db	0.08320018
19	0x3bd57124	0.0065137316
20	0x3e14ebd6	0.1454309
21	0xbde31acc	-0.110890955
22	0x3c8b8d8c	0.017035268
23	0xbd0fb393	-0.035083365
24	0x3df87a01	0.121326454
25	0x3dbf4c3d	0.09340713
26	0x3d78b5ff	0.06072044
27	0xbb8312ef	-0.00400006
28	0xbdad83e1	-0.084724195
29	0x3d1d80af	0.0384528
30	0xbd9fb2b0	-0.07797754
31	0x3dc11660	0.09428096

weight f4 [128, 7]
0	0xbe804576	-0.25052994
1	0x3e4e79dc	0.20163673
2	0xbd9936a0	-0.07481122
3	0x3e90347d	0.28165045
4	0xbe366b5c	-0.17814392
5	0x3c83b5b3	0.016077852
6	0x3e21512a	0.15753618
7	0x3d3c048c	0.045902774
8	0xbea9e6a8	-0.3318379
9	0xbca9cc8f	-0.020727424
10	0x3e993ab2	0.29927593
11	0x3cf44e29	0.029822426
12	0xbb6729e6	-0.0035272776
13	0xbd7d043e	-0.061771624
14	0x3e7489a7	0.23880635
15	0x3e5cb2c9	0.21552576
16	0xbe4bc8af	-0.19900773
17	0xbe83fbd2	-0.2577806
18	0xbeb52b8a	-0.3538478
19	0xbea26d28	-0.31723905
20	0x3e6d1dd8	0.23155916
21	0xbec5d024	-0.3863536
22	0xbd98dc39	-0.07463879
23	0x3d9b622c	0.07587084
24	0x3ec137dd	0.37737933
25	0x3e812f64	0.2523147
26	0x3d103443	0.03520609
27	0x3df5987f	0.11991977
28	0xbe694f72	-0.22784212
29	0xbdb8f41b	-0.090309344
30	0x3e9a731e	0.30165952
31	0xbe80b571	-0.2513843
32	0x3e866850	0.2625146
33	0xbdaac46f	-0.08338248
34	0xbe90bfd2	-0.28271347
35	0x3e02a4df	0.12758206
36	0x3e7ef46a	0.24897924
37	0x3e6e4746	0.23269376
38	0x3e91e115	0.28492036
39	0x3eb2b4b1	0.34903482
40	0xbe71f187	-0.23627292
41	0x3eae91e6	0.34095687
42	0x3e8573e7	0.2606499
43	0x3e4850ac	0.19562024
44	0x3ec6bf75	0.38817945
45	0xbe0619a1	-0.13095714
46	0x3e6eea7f	0.2333164
47	0xbe610cf9	-0.21977605
48	0x3e3e14d4	0.18562633
49	0xbe4b2bcd	-0.19840927
50	0x3e84eb7c	0.2596091
51	0xbe0af751	-0.13570906
52	0x3ea8f3aa	0.329984
53	0xbe56f4cc	-0.2099182
54	0xbe80c4a0	-0.25150013
55	0x3e989a48	0.29805207
56	0xbebfca2f	-0.3745894
57	0xbe3ee33e	-0.18641374
58	0xbea78797	-0.32720634
59	0x3e98e78d	0.2986416
60	0x3e916f4d	0.28405228
61	0x3e4ce4f0	0.20009208
62	0xbd655a45	-0.05599429
63	0x3e7bb191	0.24579455
64	0x3e949329	0.29018524
65	0x3e322a78	0.17399013
66	0x3ea011e5	0.31263652
67	0xbe9ce125	-0.30640522
68	0xbcb80ea8	-0.022467926
69	0xbea43b8a	-0.32076675
70	0xbd91a72d	-0.071119644
71	0xbe9bc0d1	-0.30420545
72	0xbe99e138	-0.3005464
73	0xbea866cd	-0.3289093
74	0x3ea3b2ce	0.31972355
75	0xbe3d28f9	-0.18472661
76	0x3c17859f	0.009248166
77	0x3ec013ff	0.37515256
78	0x3e864d91	0.26231053
79	0x3c8a7c67	0.016905023
80	0xbc240715	-0.010011454
81	0x3b998fa7	0.004686314
82	0xbe2de5be	-0.16982171
83	0x3d7698c9	0.0602043
84	0xbe06ebc7	-0.1317588
85	0x3e026961	0.12735511
86	0x3e79832b	0.24366443
87	0xbe75e816	-0.24014315
88	0xbe50d429	-0.20393433
89	0xbe9e3cad	-0.30905667
90	0x3ea75357	0.3268077
91	0x3ed0fd7e	0.408184
92	0xbe022a47	-0.1271144
93	0xbdb6e894	-0.089310795
94	0xbe8ff708	-0.28118157
95	0xbe9635b0	-0.29337835
96	0xbeb5006e	-0.3535189
97	0x3d4eca83	0.0504861
98	0xbb37f478	-0.0028069299
99	0x3ea2a178	0.31763816
100	0x3bbdd447	0.0057931277
101	0x3eab75c1	0.33488277
102	0xbe892a7f	-0.26790234
103	0x3e0f8193	0.14014272
104	0xbea2e982	-0.31818777
105	0x3ead415a	0.33838922
106	0x3daab576	0.08335392
107	0x3e881308	0.2657702
108	0xbd9cf283	-0.07663443
109	0x3e8e349e	0.2777452
110	0x3ebda501	0.3703995
111	0xbe397888	-0.18112385
112	0xbe788e2a	-0.24272981
113	0xbe98bbb4	-0.29830706
114	0x3e1ab0dc	0.15106529
115	0xbe1afdf1	-0.15135933
116	0x3b807166	0.003919768
117	0x3d950969	0.072771855
118	0xbe1cbfb2	-0.15307501
119	0xbeb71e30	-0.3576522
120	0xbe77f7a1	-0.24215557
121	0xbd8bb820	-0.068222284
122	0xbdf4278f	-0.11921608
123	0xbc69120a	-0.014225492
124	0xbea663bd	-0.3249797
125	0xbeb2535b	-0.3482922
126	0x3ed87693	0.42277965
127	0x3e7174bc	0.23579687
128	0x3bfdfc90	0.007751055
129	0xbe7393be	-0.23786828
130	0x3df07a26	0.11742048
131	0x3dd7b283	0.10532095
132	0x3daafd39	0.0834908
133	0x3dfa6da0	0.122279406
134	0xbe286aa8	-0.16446936
135	0x3d1a53d3	0.037677597
136	0x3e28e6b9	0.16494264
137	0xbe5c0b05	-0.21488579
138	0x3ea1318c	0.31483114
139	0xbe3634a4	-0.17793518
140	0xbd40b593	-0.047048163
141	0x3ce99272	0.028512213
142	0x3d47b20e	0.04875379
143	0xbdf3ebb0	-0.11910188
144	0xbebd8862	-0.37018114
145	0xbcdb1ef4	-0.026748158
146	0xbe6d8f0d	-0.23199101
147	0x3ed89f71	0.42309144
148	0xbeb4fae1	-0.35347655
149	0xbe316a34	-0.1732567
150	0xbebb34fd	-0.36563864
151	0x3e1b116e	0.15143368
152	0xbe5924ae	-0.21205398
153	0x3dcd8af0	0.10036266
154	0xbee24aa6	-0.44197577
155	0x3e803b3f	0.250452
156	0xbe4bb057	-0.19891487
157	0x3dca7ac9	0.09886701
158	0xbe2da40d	-0.16957112
159	0x3d4a8734	0.049445346
160	0x3ec5d537	0.38639233
161	0xbeeac90b	-0.4585651
162	0x3e9ffdfe	0.31248468
163	0x3e89db41	0.2692509
164	0xbd8d2304	-0.06891444
165	0x3ea41578	0.3204763
166	0xbc2370a8	-0.00997559
167	0x3d66f918	0.056389898
168	0x3ef50f56	0.47863263
169	0xbeb5d7f8	-0.35516334
170	0x3ccbf834	0.024898626
171	0xbe84c212	-0.25929314
172	0xbb843c09	-0.004035477
173	0x3e3b279d	0.1827683
174	0x3e030177	0.12793528
175	0xbeb6a9ba	-0.35676366
176	0xbe4f91eb	-0.20270507
177	0x3e02524c	0.12726706
178	0xbdef94d0	-0.116983056
179	0xbea0855f	-0.31351754
180	0x3d39a724	0.045325413
181	0xbd46b44d	-0.048511792
182	0xbdd92bad	-0.106040336
183	0xbecdf69f	-0.4022722
184	0xbd821d70	-0.06353271
185	0xbeb1cfb6	-0.34728783
186	0xbeac154c	-0.33609998
187	0x3e70e3e6	0.23524436
188	0x3e752c7e	0.23942754
189	0x3f059dc0	0.5219383
190	0xbe9f92a6	-0.3116657
191	0x3ebd4a83	0.3697091
192	0xbdb48b5f	-0.088156454
193	0x3cffb7ac	0.031215511
194	0xbe690520	-0.22755861
195	0x3e9c33d1	0.30508283
196	0x3f02b588	0.51058245
197	0xbe674bba	-0.22587481
198	0xbea7a7b1	-0.32745126
199	0x3c6e3a93	0.014540332
200	0x3e69b37e	0.22822377
201	0x3d88ebcb	0.06685599
202	0xbe588132	-0.21143034
203	0xbe980fbe	-0.2969951
204	0x3cd3137e	0.02576613
205	0xbe7952ae	-0.24347946
206	0xbec3f627	-0.38273737
207	0xbd80b8c7	-0.062852435
208	0x3a9aaa2f	0.0011799986
209	0x3e6b16e3	0.2295795
210	0x3ecfd37d	0.4059104
211	0xbe086558	-0.1331991
212	0x3e540629	0.20705475
213	0x3d6b5067	0.057449725
214	0xbea4fc5d	-0.32223788
215	0x3dd259b6	0.10271017
216	0xbe214c16	-0.1575168
217	0x3e6589b0	0.22415805
218	0xbe47fabb	-0.1952924
219	0xbbbf2727	-0.0058335247
220	0x3e5761a4	0.2103334
221	0xbe3826bf	-0.1798353
222	0x3dc4d1ba	0.09610315
223	0x3d7a46d8	0.061102718
224	0x3b3cbbea	0.002879853
225	0x3dbc8944	0.09205869
226	0x3eb309f8	0.34968543
227	0x3eb9c6c3	0.36284456
228	0xbc9a6dda	-0.01885121
229	0xbdc599e7	-0.09648495
230	0x3dd19f6f	0.10235488
231	0x3ee96779	0.45586756
232	0xbe18ca3e	-0.149209
233	0xbd2df1d2	-0.042466946
234	0xbebccc8b	-0.36874804
235	0xbe97c72f	-0.29644153
236	0xbeb2316f	-0.3480334
237	0x3d36e75f	0.044654246
238	0x3e960e2a	0.2930768
239	0xbe41c954	-0.18924457
240	0x3e988a03	0.29792795
241	0x3ec03516	0.375405
242	0x3e44fcf0	0.19237113
243	0xbe44c71f	-0.19216584
244	0xbdef730a	-0.11691864
245	0xbea02989	-0.3128169
246	0xbe87b3b0	-0.26504278
247	0xbea8e2eb	-0.32985625
248	0x3ea9746a	0.3309663
249	0x3e235335	0.1594971
250	0xbcbae50b	-0.022814294
251	0xbea06bab	-0.31332144
252	0xbe6471ca	-0.22309032
253	0xbe899c29	-0.26876953
254	0x3ecbb945	0.39789787
255	0x3e32e7be	0.17471215

bias f4 [128]
0	0x3e2c0d42	0.16801932
1	0xbebc0d07	-0.3672869
2	0x3e9eb162	0.30994707
3	0x3e848d2c	0.25888956
4	0xbeaa1da5	-0.33225742
5	0x3e6a506a	0.22882238
6	0xbd806570	-0.06269348
7	0xbdeef5a6	-0.116679475
8	0x3e808914	0.25104582
9	0x3d63551a	0.05550108
10	0xbb9abf00	-0.004722476
11	0xbe0528cc	-0.13003844
12	0xbe86b33e	-0.26308626
13	0x3e43e072	0.19128588
14	0x3effb70f	0.4994435
15	0xbdee4cfd	-0.11635778
16	0xbeb7204e	-0.35766834
17	0xbe54b61f	-0.20772599
18	0x3ea95f38	0.3308046
19	0xbe95941a	-0.29214555
20	0xbde0bf54	-0.10973993
21	0xbd17eed0	-0.037092984
22	0x3ebd8dd2	0.37022263
23	0x3e9d4f0c	0.3072437
24	0x3eb9da6e	0.3629946
25	0xbebde9c2	-0.37092406
26	0x3d0d99a1	0.03457034
27	0xbd912623	-0.07087352
28	0x3e7d9004	0.24761969
29	0x3ea6da72	0.32588536
30	0xbe033b4c	-0.12815589
31	0x3ed1109b	0.4083298
32	0xbeaea42e	-0.34109634
33	0xbe0c2482	-0.13685802
34	0x3e27a594	0.16371757
35	0x3eda21fd	0.42604056
36	0xbdc6e11f	-0.09710907
37	0x3e9dbc95	0.3080794
38	0x3ebcb7f2	0.3685909
39	0x3e18c80c	0.14920062
40	0xbe0e032a	-0.13868394
41	0x3e7ce017	0.24694858
42	0xbde97b17	-0.11400431
43	0x3ece9d51	0.40354398
44	0x3e5e9648	0.21737015
45	0x3e9f9fbe	0.3117656
46	0xbe4bf4f5	-0.19917662
47	0x3ee5b11d	0.4486169
48	0xbe8cb5cc	-0.2748245
49	0x3ce8b40a	0.028406162
50	0x3dbcccaa	0.09218724
51	0xbe88535a	-0.26626092
52	0xbe1d9f8e	-0.15392897
53	0x3ea425d4	0.3206011
54	0x3ec883b0	0.3916297
55	0x3e927a92	0.2860914
56	0xbd36f8be	-0.044670813
57	0x3e33bf4c	0.17553443
58	0x3e8a3085	0.26990142
59	0x3e2b12ed	0.16706438
60	0x3c8f295a	0.017475773
61	0x3e413ea2	0.18871549
62	0xbebf5083	-0.37366113
63	0xbe711776	-0.23544106
64	0xbe0f8ee4	-0.14019352
65	0xbda84beb	-0.08217605
66	0xbe98dda2	-0.29856592
67	0x3d2f7fe2	0.042846568
68	0x3e5c368f	0.21505187
69	0xbeacdad2	-0.33760697
70	0xbd93535a	-0.071936324
71	0xbe13607c	-0.14392275
72	0xbe0e3d7d	-0.13890643
73	0xbe629c8d	-0.22130032
74	0x3ebdf8ae	0.3710379
75	0x3e769d8c	0.24083537
76	0xbea7bd71	-0.3276172
77	0xbdd9cfc3	-0.106353305
78	0x3e9e9f87	0.30981085
79	0xbc8fe806	-0.017566692
80	0x3ea97c73	0.3310276
81	0x3f00ea55	0.5035756
82	0xbec1424f	-0.37745902
83	0x3eeb1032	0.45910794
84	0x3ecc2afb	0.39876541
85	0x3e954167	0.2915146
86	0xbe8dd858	-0.2770412
87	0x3e319a3a	0.17343989
88	0xbe819704	-0.25310528
89	0xbdf14585	-0.11780838
90	0x3e91c93a	0.28473836
91	0x3e826ba4	0.25472748
92	0xbd309f89	-0.043120895
93	0x3efc3ef0	0.49266768
94	0x3ed4cac3	0.41560945
95	0xbc739feb	-0.01486967
96	0xbe38d0c0	-0.18048382
97	0xbe8ef1cb	-0.27918848
98	0xbe80121f	-0.25013825
99	0x3e3bea0a	0.18350998
100	0x3d24c152	0.040223427
101	0x3e188587	0.14894687
102	0x3e8f742d	0.28018323
103	0x3e87a698	0.26494288
104	0x3ddfbfae	0.10925232
105	0x3ee0c446	0.43899745
106	0x3e8b8e80	0.27257156
107	0xbeb730b6	-0.3577935
108	0x3ea962d0	0.330832
109	0x3e98e267	0.2986023
110	0xbe403ea4	-0.18773896
111	0x3ec454ab	0.38345847
112	0x3e9604f6	0.2930066
113	0xbe86686f	-0.26251552
114	0x3e9e171e	0.30877012
115	0x3f05fd0a	0.5233923
116	0xbe467568	-0.19380724
117	0x3e8a7707	0.27043936
118	0x3cbd336e	0.023095813
119	0x3e2b2054	0.16711551
120	0x3ed41385	0.41421142
121	0xbe7f6a08	-0.24942791
122	0x3eb5f40b	0.35537753
123	0xbe6b498b	-0.22977273
124	0x3e189fbf	0.14904688
125	0x3e37842c	0.17921513
126	0x3eb04961	0.34430984
127	0xbe24409f	-0.16040276

weight f4 [64, 128]
0	0x3d9ce878	0.076615274
1	0x3c4721c2	0.012154045
2	0xbd4e1afe	-0.05031871
3	0x3d3ca47d	0.046055306
4	0xbd9e63c9	-0.07733876
5	0xbd0804f1	-0.033207837
6	0xbd6b88e2	-0.05750359
7	0xbd9dc1b2	-0.0770296
8	0xbc5daf8d	-0.013530624
9	0x3c5a4514	0.013322134
10	0xbba9f448	-0.0051865913
11	0x3d331996	0.043725573
12	0xbd681097	-0.056656446
13	0x3d1cea18	0.038309187
14	0x3ca1dbcb	0.019758126
15	0xbd24e821	-0.040260438
16	0xbd85156a	-0.06498225
17	0x3d630581	0.05542517
18	0xbc868ca1	-0.016424479
19	0x3d82ea5d	0.063923575
20	0x3ca0f0bf	0.019646047
21	0x3d75a5b3	0.059972476
22	0xbd657830	-0.056022823
23	0x3c9e7367	0.019342138
24	0xbdaeafc2	-0.08529617
25	0xbdb2e933	-0.087358855
26	0x3d9b8f20	0.07595658
27	0xbcafa809	-0.02144243
28	0xbd726fde	-0.059188716
29	0xbd2a65dc	-0.041601047
30	0x3cae46ec	0.021274053
31	0xbd0bc170	-0.034120023
32	0xbda3019d	-0.07959292
33	0xbc1dde77	-0.009635559
34	0x3d8e62a0	0.06952405
35	0x3d3770f0	0.04478544
36	0x3d234531	0.039860908
37	0x3d339ea2	0.043852456
38	0xbd8ca9ea	-0.06868346
39	0x3da96cd9	0.08272714
40	0x3c8717ff	0.016490934
41	0x3d832d86	0.06405167
42	0xbc8679d3	-0.016415512
43	0x3c01b561	0.007916779
44	0xbd6cc5b3	-0.05780573
45	0x3d09024c	0.033449456
46	0xbbf41ea0	-0.00744994
47	0x3d7d549e	0.061848275
48	0xbdaad0bf	-0.083405964
49	0x3c95da82	0.01829267
50	0x3d6488cf	0.055794533
51	0x3aa47dfa	0.0012549751
52	0xbd65bb3b	-0.05608676
53	0xbda170bd	-0.07882831
54	0xbd818618	-0.063244045
55	0xbd9554f7	-0.072915964
56	0x3d7a24a3	0.061070096
57	0x3d9ed12e	0.077547416
58	0xbd1cc427	-0.038273003
59	0x3cdc97ab	0.02692779
60	0x3d6dc1cc	0.058046147
61	0x3d880301	0.06641198
62	0x3cf7b3ca	0.030237097
63	0x3ca6afc0	0.020347476
64	0x3d91c399	0.071173854
65	0xbd8ddf8a	-0.06927402
66	0x3d6f61ed	0.058443
67	0xbda0cd42	-0.0785165
68	0x3d95589c	0.072922915
69	0x3ce26b39	0.027639018
70	0x3d296ee7	0.04136553
71	0x3daafd32	0.083490744
72	0xbc8c1184	-0.017098196
73	0xbbfa86d9	-0.0076454696
74	0xbd242698	-0.04007587
75	0x3bed482f	0.007241271
76	0xbd0a65f6	-0.033788644
77	0xbc8094a9	-0.015695887
78	0xbda3a16d	-0.07989774
79	0xbd95e1a4	-0.07318428
80	0x3d036c05	0.032085437
81	0xbdaaf378	-0.08347219
82	0x3be57389	0.0070022983
83	0x3c7940d4	0.01521321
84	0xbd1c8917	-0.038216677
85	0x3d313d5d	0.04327141
86	0xbd422bfe	-0.047405235
87	0xbd4e1ad4	-0.050318554
88	0x3dab9d14	0.0837957
89	0xbc07b1c5	-0.00828213
90	0x3da9f4c7	0.08298641
91	0x3da2fad4	0.07957998
92	0x3d621207	0.055192973
93	0xb8f5c388	-0.00011718931
94	0xbd2d94db	-0.042378288
95	0xbd5d755b	-0.054066997
96	0xbd9fd3ae	-0.078040466
97	0xbcfa8c32	-0.030584428
98	0xbd0732ef	-0.03300756
99	0x3cde203f	0.027114986
100	0xbd23a772	-0.03995461
101	0x3d10bf77	0.035338845
102	0xbcbb194b	-0.022839209
103	0xbd857a14	-0.06517425
104	0x3d9d5304	0.076818496
105	0xbd9038d1	-0.07042087
106	0xbdae96d1	-0.0852486
107	0x3d2d3c8b	0.042294066
108	0xbc0261ea	-0.007957915
109	0xbd7e4421	-0.06207669
110	0x3d41b4c7	0.047291543
111	0x3ce10c19	0.027471589
112	0x3ca22b3c	0.019796006
113	0xbacba1ae	-0.0015535855
114	0xbc890539	-0.016726123
115	0xbd85ba63	-0.06529691
116	0xbc6ba6dc	-0.014383044
117	0x3d68c59f	0.05682909
118	0xbc12043a	-0.0089121405
119	0xbafe045e	-0.0019379964
120	0x3d655d5f	0.05599725
121	0x3db040b3	0.086060904
122	0xbd1baa5c	-0.038004264
123	0xbdb16567	-0.08661919
124	0x3c8e6b88	0.01738526
125	0x3bdc6a0f	0.0067265104
126	0xbc38fef6	-0.011291256
127	0x3d02c4b0	0.031925857
128	0x3b9b8a1a	0.0047466876
129	0xbd445a6b	-0.04793779
130	0xbd59f72e	-0.053214245
131	0xbb3d619b	-0.0028897289
132	0xbda7efec	-0.08200058
133	0xbcf450b3	-0.029823637
134	0x3d5d0712	0.05396182
135	0xbd93ba6d	-0.07213292
136	0xbd83b4e7	-0.06430989
137	0xbcd25719	-0.025676297
138	0xbbc92b2b	-0.006139179
139	0xbd82d015	-0.06387345
140	0x3d93941d	0.07205985
141	0xbd13d272	-0.03608937
142	0x3cbc4e95	0.02298669
143	0xbca72b4f	-0.020406393
144	0xbbd210b5	-0.006410683
145	0xbd14b219	-0.03630266
146	0xbdbbf88e	-0.091782674
147	0xba1f0f73	-0.0006067671
148	0x3c8dc6e6	0.017306756
149	0x3c444e3d	0.011981544
150	0xbd882db1	-0.0664934
151	0xbbe5810f	-0.0070039104
152	0xbd9149ca	-0.07094152
153	0xbda6184d	-0.08110104
154	0xbb8f4611	-0.0043723662
155	0x3c7f5859	0.015585029
156	0x3d46dad4	0.048548535
157	0xbda2b189	-0.079440184
158	0xbd504f09	-0.050856624
159	0xbd8bf260	-0.06833339
160	0xbd4191b7	-0.047258105
161	0x3d56399f	0.052301046
162	0xbc5a51fc	-0.013325211
163	0xbd5d34b3	-0.054005336
164	0xbd9b6726	-0.075880334
165	0xbd567c36	-0.05236455
166	0xbcca3c66	-0.024687003
167	0x3d0c7c34	0.034298137
168	0xbd5c75f6	-0.053823434
169	0x3c90daa8	0.017682388
170	0x3d84eabb	0.06490084
171	0x3cc4cb86	0.024022829
172	0x3cc82d88	0.024435773
173	0xbda6326d	-0.08115087
174	0x3bd36353	0.0064510494
175	0x3d41f179	0.047349427
176	0x3d942ecc	0.07235488
177	0xbd8f26a1	-0.0698979
178	0x3da31790	0.079634786
179	0x3b86c297	0.0041125524
180	0x3d4baad1	0.04972345
181	0xbd45a796	-0.048255526
182	0x3d5f61a6	0.054536484
183	0x3d7ea91a	0.062172987
184	0xbcba0795	-0.022708694
185	0x3cb061be	0.021530982
186	0xbc0698b0	-0.0082151145
187	0xbda4aa30	-0.08040273
188	0x3c4dca78	0.012560479
189	0x3d6fbf32	0.058531947
190	0xbd972599	-0.07380218
191	0xbda1615e	-0.078798994
192	0x3da35200	0.07974625
193	0x3db24732	0.08704986
194	0x3c036534	0.008019734
195	0xbc8e9307	-0.017404092
196	0xbac1f9d4	-0.0014799186
197	0xbd9a0fde	-0.07522558
198	0xb7794151	-1.4856764e-05
199	0x3dac62ee	0.08417307
200	0x3d24008e	0.04003959
201	0x3bc93fb6	0.006141628
202	0x3d9ad7f1	0.07560719
203	0x3d81c611	0.06336606
204	0x3d77de3a	0.060514666
205	0x3d6f4f59	0.05842528
206	0x3d40485b	0.046944004
207	0x3be03dce	0.006843305
208	0xbd882703	-0.06648066
209	0xbd2cc304	-0.04217817
210	0x3c983699	0.018580722
211	0x3d7b6611	0.061376635
212	0x3bbc41ff	0.005745172
213	0xbd0a3857	-0.033745136
214	0x3d920967	0.071306996
215	0xbcfd38d3	-0.030910885
216	0xbd6c483d	-0.05768608
217	0x3b3dcd8c	0.0028961627
218	0x3d28a17b	0.041169625
219	0xbd54e78b	-0.05197863
220	0x3d17e2c7	0.037081506
221	0xbdc5d08b	-0.09658917
222	0x3d4c052b	0.049809616
223	0x3d9c7094	0.0763866
224	0x3d93e293	0.0722095
225	0xbd5f50f2	-0.054520555
226	0x3d71628f	0.058931883
227	0x3cfb8fbf	0.030708192
228	0xbda6787c	-0.08128449
229	0xbc09f078	-0.008419149
230	0x3d86b1d0	0.06576884
231	0xbd5ddc13	-0.054164957
232	0xbdbc9c49	-0.092094965
233	0xbcc3d98e	-0.02390745
234	0x3d918394	0.07105175
235	0x3cc9f7ea	0.024654347
236	0xbc575458	-0.013142668
237	0xbda79d75	-0.081843294
238	0x3d73985b	0.05947147
239	0xbd320420	-0.043460965
240	0x3d8e47b2	0.069472685
241	0xbba7653c	-0.0051085036
242	0x3c116a4d	0.008875442
243	0xbcd6e84f	-0.02623382
244	0xbba9ccdc	-0.005181892
245	0x3da7ef9e	0.082
246	0x3c241241	0.010014118
247	0x3d1342ad	0.03595226
248	0x3d918263	0.071049474
249	0x3d5eb48a	0.054371394
250	0x3d678cf8	0.056530923
251	0x3d1dac49	0.038494382
252	0x3d6dee87	0.058088806
253	0x3d446ac1	0.04795337
254	0xbdc9d732	-0.098554984
255	0xbc776c11	-0.015101449

bias f4 [64]
0	0x3b470dd3	0.003037323
1	0x3d9a5ec7	0.075376086
2	0x3b7db363	0.003871166
3	0x3cb98689	0.02264716
4	0x3cf30fd9	0.029670643
5	0x3c429e37	0.011878542
6	0x3d943926	0.07237463
7	0x3d2b4719	0.04181585
8	0x3ca6de3c	0.020369641
9	0x3cc20aa7	0.02368672
10	0x3d687d15	0.056759913
11	0x3d0270d0	0.031845868
12	0x39af95f7	0.00033490334
13	0xbcc3f754	-0.023921646
14	0xbc164f56	-0.009174189
15	0xbd9b1705	-0.0757275
16	0x3cc657d3	0.0242118
17	0x3e239352	0.15974167
18	0xbc2e3387	-0.010632402
19	0x3dc42504	0.09577373
20	0x3dd67cfa	0.10473056
21	0xbd9f245b	-0.07770606
22	0x3dca5342	0.098791614
23	0xbda19ad5	-0.0789086
24	0x3db12936	0.086504385
25	0xbcd09695	-0.025462428
26	0x3dc543b0	0.09632051
27	0x3d941fd3	0.072326325
28	0x3d20d2fc	0.03926371
29	0x3d80281d	0.06257651
30	0xbd42ffcd	-0.047607232
31	0x3d93b3bd	0.07212017
32	0x3d6cd82f	0.057823356
33	0x3db7d270	0.08975685
34	0x3dfcee27	0.123501115
35	0x3cecd147	0.028908385
36	0xbd2a1844	-0.041527048
37	0x3d8cbf95	0.06872479
38	0x3def252c	0.11677012
39	0xbd7a7a7f	-0.061151978
40	0x3c6dff67	0.014526225
41	0xbaa2b86f	-0.0012414585
42	0x3d864ed1	0.06558002
43	0x3d8be66b	0.06831058
44	0x3c638d7b	0.013888712
45	0x3dc63a03	0.096790336
46	0xbcdefe19	-0.027220773
47	0x3cbd320d	0.023095155
48	0xbc94e9d2	-0.0181779
49	0x3d2f473d	0.042792547
50	0x3d24a154	0.040192917
51	0x3d282032	0.04104633
52	0x3da4e8be	0.080522045
53	0x3e1665a5	0.14687212
54	0xbcb38597	-0.021914287
55	0x3dff3fd0	0.12463343
56	0x3ddbbc2a	0.10729249
57	0xbd5100fe	-0.051026337
58	0xbd1cb430	-0.038257778
59	0xbda8b80a	-0.08238228
60	0x3dba8958	0.091082275
61	0x3d809e0c	0.06280145
62	0xbcefa4ef	-0.029253451
63	0x3e240e6e	0.1602113
