2023/baseline0806/model/WLTP_trained_0822/PPO_actorcritic_39episode.pt (torch, 101527 bytes, 17 tensors)

weight f4 [128, 7]
00000000: ad60 71be 0fa1 91be 6aa2 7c3e 3d80 bbbe
00000010: a58e 6dbe c2af c43e 4cfe b73e 1ece 25bd
00000020: acb0 39be 07fb ad3d 21fc 8ebe 931b 0cbe
00000030: ee79 b9be b661 9abe 55c2 d83d ead1 e5bd
00000040: 0e4e 40be 3033 a53d 992b b03e 374c c43e
00000050: c816 8d3d c907 98be b145 75be bb1e 86be
00000060: f232 babd daf2 1fbe c83b 8c3e 4568 cc3e
00000070: 553d e33d 74e7 3bbe 9f11 d9be 739a f93d
00000080: 1a25 b13d 7b1b 413e 4e34 45bc 2ba5 3cbd
00000090: 3a6f 88bd 9cbc 91be 116d b2bc 1754 873e
000000a0: d376 143e f58f a83e 94a8 adbe 0ce3 81be
000000b0: 9a09 adbe f485 423c 7550 8dbe c160 15be
000000c0: 7bc1 9abb f90d c23d 333d aebe 7dd9 ab3e
000000d0: e94e 9d3e 4b77 973e 5989 c4be 70e5 1bbd
000000e0: 5bc8 e03e bad6 2fbd cb7a 8ebe 8f24 3bbc
000000f0: 56f2 d53e db6c 78be 179d 133d 1a67 ad3e
00000100: 264d 58be dfe0 c2be 0074 c1be 2458 09be
00000110: c3b4 b63e 3b4b 9e3e 3e1e 9c3e cafe 813e
00000120: 5d60 253d 9191 1b3e 5ef4 96be 97e9 cd3c
00000130: fe63 183d 918b 84bd eb72 cf3e ea4d 3f3e
00000140: 897e debd 91b4 523e ad19 49bd dbc8 cdbd
00000150: d2b5 80be 14fb 97be d0a9 7d3e 4cf4 b5be
00000160: 5884 873e 1e82 16be fc6d 573e e2df 813e
00000170: 9ab2 3e3e 2a3c 943e dec7 1a3d daeb 16be
00000180: 6e32 12be 12cc 91be cfac 63bd ad55 e03c
00000190: 9ce6 d73d 263c fd3c 45d2 2ebd b4ca 223e
000001a0: ee28 75be 62a5 4f3e a290 84be 47f6 0bbc
000001b0: 14ed 343e 73c8 27bd a4a9 983e a917 7dbe
000001c0: 6263 49be 197e b3be f5cd 64be a196 8d3e
000001d0: 0db6 cd3d 095d 01be 60a1 173d 53aa 0fbe
000001e0: b269 f93e faa3 9ebd 43ce ec3e 579b 89be
000001f0: ea2a eebd 1dc1 36be e884 be3e 05e4 17be
00000200: a67f da3c f3ce bdbe 56cc 90be 0c57 83be
00000210: 5348 80be 9caf 16be a449 94be 3ef4 ee3c
00000220: c986 a0be fc18 653d 9df4 7fbd d9b6 42bd
00000230: a656 af3e 9605 2abe 6da8 b53d c8ac e43c
00000240: 40d3 423d a029 ae3e c2e5 a23e 09f1 bdbd
00000250: f9bf 523c 9def a1bd 731a f3bd ccde 453c
00000260: bfc8 53be f2f8 913d 3254 afbe 8960 103d
00000270: 353d 5f3e 844f efbd 4cf0 e43c 794d 1cbe
00000280: 52a1 813e 9df3 8b3e 4f67 0abe bc3a 2e3e
00000290: f093 693e 53c9 a23d 615c ac3e 1678 c83e
000002a0: 4533 c53e 1e71 83be 1624 113d 4127 a2be
000002b0: ded6 b83e d1b5 d2bd 2c83 953e c5d3 643d
000002c0: 0d46 333d 2020 b3be c95e d8bd 9023 21bd
000002d0: 5d38 223e fa3b 3fbe eec8 6c3e dbcb b0be
000002e0: a211 7d3e 0c78 65be ecdb 13be 2f53 783e
000002f0: d59f 243e 096c a63e 9575 523d 887c 003e
00000300: 1625 513e 08a9 9a3e 990d 19be 6f9e 8a3e
00000310: 221b 1737 0088 b73e 5080 6ebd abfd 9d3e
00000320: babc 66be bdcb eebd 6f05 463e c62d 9c3e
00000330: a4da 173b 2feb 1c3e 310f 7bbe 4375 123e
00000340: 9964 c53e b5dc 433e 9b44 d7bd ac4b 83be
00000350: 5287 e3bd dd8f 9c3d 82fc 6ebe fe23 6d3e
00000360: ada1 923e da26 3b3e e986 3dbe 88f7 df3d
00000370: fc3a f5bd 4a81 8c3e 906d b73e 8c96 7a3e
00000380: 6e38 c63d a253 88be 9419 05be 4732 9e3e
00000390: d6c5 ab3e ca80 2dbe c8b6 8dbc da23 653e
000003a0: c81e 7b3d 1732 413d a83a ac3e bb44 5a3e
000003b0: 2118 7cbe e67c 9f3e 1b85 143e 732a 94be
000003c0: 23bf 46be 2293 21be 90de b03e 0428 47be
000003d0: efb6 473d 3f2a 0a3e 9cbf 9f3d 7a0e 813e
000003e0: d2be c2bd ce7b 993d f2c4 5bbe 7a8a a43e
000003f0: cb9e 57be 5d28 903e ae87 533d 38d0 903e
-0.23572035 -0.2844319 0.24671331 -0.36621276 -0.23198946 0.38415343 0.359362 -0.04047977
-0.18133801 0.08495145 -0.27926734 -0.13682394 -0.36225837 -0.30152673 0.10583941 -0.112216786
-0.18779776 0.08066404 0.34408262 0.38339397 0.06889111 -0.2969344 -0.23952366 -0.2619532
-0.09091748 -0.15619984 0.2738936 0.399233 0.110956825 -0.18350011 -0.42396256 0.12187662
0.08649655 0.18858139 -0.012036396 -0.046055954 -0.0666184 -0.2846421 -0.021780523 0.26431343
0.14498453 0.3292233 -0.33917677 -0.25368536 -0.33796388 0.011872757 -0.27600446 -0.1458769
-0.0047227717 0.09475321 -0.34031066 0.33564368 0.30724266 0.295832 -0.38386038 -0.038060606
0.4390286 -0.04292939 -0.2782806 -0.0114222905 0.4178645 -0.24260275 0.036038484 0.33867723
-0.2112318 -0.38062188 -0.37783813 -0.13412529 0.35684785 0.3091677 0.30491823 0.253897
0.040375102 0.15192248 -0.29483312 0.025135798 0.037204735 -0.06471933 0.40517363 0.18682066
-0.108639784 0.20576693 -0.049096752 -0.10048076 -0.25138718 -0.29683745 0.2477181 -0.35537946
0.26468158 -0.14698073 0.2103805 0.25366122 0.18622819 0.28952152 0.037788264 -0.14738408
-0.1427705 -0.28476006 -0.055584725 0.027384603 0.10542032 0.03091247 -0.042680997 0.15897638
-0.23941395 0.20277932 -0.25891596 -0.008542604 0.17668563 -0.040962648 0.29816926 -0.24716057
-0.19666818 -0.35057142 -0.22344191 0.27653983 0.10044489 -0.12633146 0.037019134 -0.14029817
0.48713452 -0.0774612 0.46251115 -0.26876327 -0.11629279 -0.17847104 0.37210774 -0.14833076
0.026672196 -0.37071952 -0.28280896 -0.2565235 -0.2505518 -0.14715427 -0.28962433 0.029169198
-0.31352833 0.05593203 -0.06248914 -0.04753766 0.34245795 -0.16603693 0.08870015 0.02791442
0.047564745 0.34016132 0.31815916 -0.092744894 0.012863153 -0.07907031 -0.11870279 0.012077045
-0.20682047 0.07127561 -0.34243923 0.035248313 0.21800692 -0.11685088 0.027946614 -0.15263928
0.2531839 0.273343 -0.13515972 0.17014593 0.2281034 0.07948556 0.3366423 0.39154118
0.38515678 -0.2567224 0.035434805 -0.31670573 0.3610143 -0.10288585 0.2920164 0.05586602
0.043767978 -0.34985447 -0.10564954 -0.039340556 0.15841813 -0.18675223 0.23123524 -0.3453053
0.24713758 -0.22409075 -0.14439362 0.24250482 0.16076596 0.325043 0.051381666 0.12547505
0.20424303 0.30207086 -0.14946593 0.27074 9.006619e-06 0.35845947 -0.058227837 0.30857596
-0.22532931 -0.11659954 0.1933801 0.30503672 0.0023171091 0.1532409 -0.24517514 0.14302544
0.38553312 0.19127162 -0.10511132 -0.2564367 -0.11109795 0.07644627 -0.23338512 0.23158261
0.28638974 0.1827654 -0.18508495 0.10935885 -0.11974141 0.2744239 0.35825777 0.24471492
0.09678732 -0.26626307 -0.12998039 0.30897734 0.33549374 -0.1694366 -0.017299071 0.22376958
0.061308652 0.04716691 0.336385 0.21315281 -0.2461858 0.31149977 0.145039 -0.28938636
-0.1940885 -0.15778783 0.34544802 -0.19448858 0.048758443 0.13492678 0.078002185 0.25206357
-0.09509052 0.07494317 -0.21461847 0.321369 -0.21056668 0.28155795 0.051643066 0.28283858

bias f4 [128]
00000000: 5bbd 3dbe f048 74be d3c1 453e 1da3 d13e
00000010: 6c8c 823d 3d33 14be 23db d1bd b039 b93d
00000020: 5106 a63a ae1a c73e 5943 933e 154e ce3c
00000030: 9789 bd3d 5ed8 5c3e d378 263d 8025 17be
00000040: 5c69 4cbe 5af7 493e a715 b73e e176 503e
00000050: 8883 97bd 7ef2 9abe 87c7 563e ba25 57be
00000060: 54e8 8ebd 020c 91be fe68 cabd 9359 813d
00000070: c6a2 9fbe a442 adbe dac8 8f3e 01db 293b
00000080: 0085 9d3e 2b80 6c3d 2ff1 973e f3e6 63be
00000090: 303c 94be 5ef7 cfbd 42f4 a5be 9f78 a0bd
000000a0: 4c5c 53be 231a cdbe a346 a8ba 61dc 76bd
000000b0: a246 92be 2d13 14bd 073d 8fbe d06b eb3a
000000c0: 380c 82be f592 acbd 6115 5d3e f403 c63e
000000d0: 59f1 ab3c 90e5 a3be 7b70 14be b290 523e
000000e0: a402 993e b515 813e 8bce 8cbd 4c82 b3be
000000f0: f242 aabe 7038 123e b068 403c 4766 903e
00000100: 96ed 953e 6cd3 46be 4ff3 b5be 921e 97be
00000110: 0d95 be3e 25c7 b83d de66 ca3d 1c5b 1dbd
00000120: c1d0 77be d566 a93e 2c7e 823d 22a6 80bd
00000130: 9cf6 193e 3e83 943e ebb2 c2bd b460 953e
00000140: 1da0 953e 486e 913e edd4 2d3e 6b32 84be
00000150: e2a7 09be 4c1e 0ebe 3cc4 9bbe d994 5ebe
00000160: 5fa5 acbe 1b4e 1dbe f999 bc3e 6eb2 8d3e
00000170: e0b2 ba3e 0119 d03e e91b bd3d be00 99be
00000180: 0b35 073e e687 863e 8f78 f93d 876f a7be
00000190: 4cae ca3e a39a 8c3e d58d 413e c44f b73e
000001a0: 689f 55be 1eb1 ac3c cf9f a13d f44e 23be
000001b0: 1dcf 26be 7edc da3d 4748 653d bd75 80be
000001c0: 64eb acbe 2731 80bd 77ea a03e 2b3f 753c
000001d0: 8dec 25be c8f2 4f3e 5974 843e 3df6 20be
000001e0: 42c3 883e d51e aebd 1777 1bbe 5c97 633e
000001f0: de7e 3c3e 1dba 89be e617 a03e 2a18 8bbe
-0.18529265 -0.23855948 0.1931222 0.40944758 0.063744396 -0.14472671 -0.10246875 0.09044206
0.0012666677 0.38887542 0.2876232 0.025183717 0.09254759 0.21566913 0.04064257 -0.14760399
-0.19962066 0.19723263 0.35758707 0.20357849 -0.073981345 -0.30263132 0.20974551 -0.21010485
-0.06977907 -0.28329474 -0.09883307 0.06315913 -0.31178874 -0.33839905 0.28082925 0.002591789
0.30765533 0.057739418 0.29676196 -0.22256069 -0.2895217 -0.101546034 -0.32412916 -0.07835507
-0.20640677 -0.40059003 -0.0012838434 -0.060268763 -0.28569514 -0.0361511 -0.27976248 0.0017961208
-0.25399947 -0.08426467 0.21590187 0.3867489 0.020989107 -0.3201108 -0.14496033 0.2056301
0.29884827 0.25211874 -0.068753324 -0.35060346 -0.332542 0.14279342 0.011743709 0.2820303
0.29282826 -0.19416589 -0.35537192 -0.2951551 0.37223092 0.09022359 0.098829016 -0.038416967
-0.24200727 0.33086267 0.063717216 -0.06281687 0.1503548 0.2900638 -0.09506782 0.2917534
0.2922372 0.2840445 0.16975756 -0.25819716 -0.13442948 -0.13878745 -0.30423152 -0.21736468
-0.33719918 -0.15361826 0.36836222 0.27675194 0.36464596 0.40644076 0.09233839 -0.2988338
0.13203828 0.26275557 0.12181198 -0.32702276 0.39586103 0.27461728 0.18901761 0.35803044
-0.2086159 0.02108055 0.07891809 -0.15948087 -0.16289945 0.10686587 0.055977132 -0.25089827
-0.3377334 -0.06259375 0.31428882 0.014968674 -0.16203518 0.20307457 0.25870016 -0.15718932
0.2671147 -0.085019745 -0.15182148 0.22225708 0.18407771 -0.26899806 0.31268233 -0.27166873

weight f4 [64, 128]
00000000: fef1 e2bc fdf6 ac3d 9ae1 0d3b 6962 3f3d
00000010: e7fe 783d 7f63 73bd 813d ae3d be79 c4bc
00000020: d5e8 a2bd 3d83 6dbd 1b1c 4a3c 6664 b43d
00000030: 5474 b3bc 9e49 b33c 742a a5bd 09d1 873c
00000040: 7087 5e3c 9d18 93bd bba4 e8bc 8a06 0bbd
00000050: 4479 16bd 3571 893d 2474 03bc 5896 60bd
00000060: 8838 bc3c f271 283d bbe9 093d 90ad fa3b
00000070: 88cb 29bc d8c4 88bd 9d64 6dbd 8cc4 6d3d
00000080: ed73 9e3d 4242 eebc a70b 2fbb 69c5 82bd
00000090: 40cb 3dbb a050 a0bd 1016 b13d d53e c83c
000000a0: 2422 cabc 153b 9d3c aa78 783d cb75 ae3c
000000b0: 76c3 a93d 984f 13bd b6c9 55bc 84db 9bbd
000000c0: 7bb4 9a3d a6d4 9ebd bbb6 44ba 97b9 6cbd
000000d0: 5afd 1abd 59d6 713d 3ce3 d9bc 6352 9f3d
000000e0: 3c65 1a3d 4cc6 7bbd 6353 edbc 3b73 6dbd
000000f0: d849 90bd 845c a9bb 97a9 6fbd 074e 86bd
00000100: d2df 37bd 1fe0 aa3d 65a6 993d b738 583d
00000110: 72c8 2a3d 33ca 203d 1250 15bb 4ac0 8c3d
00000120: cbf5 643d 5286 543d 4938 733c 03db adbd
00000130: 9ba2 82bd 3f73 9a3c 7f84 92bd f089 86bd
00000140: 52fc 103d dcd1 30bd 653d 89bd 8c7f ebbc
00000150: 56e8 96bb 1426 cdbc eb99 22bd 8d1a 7a3d
00000160: 0183 f23c 7674 aa3d c0bb 0fbd 0ca5 ac3c
00000170: a0d4 0ebd cf11 9f3d da02 353d 3203 aabc
00000180: d3b4 ef3c 3ad5 b33c 5d5e 16bb c48f 52bd
00000190: e093 b53b 8d6f de3c 21a7 bcbb d0e7 003d
000001a0: 9688 413d e70c 6e3d fa9c 8fbc 5f4f 8bbc
000001b0: 044b 4f3d f2ca 90bd c3bd a73d f7f9 c53c
000001c0: a44f c53c 0d7e 033d aac2 61bd 5a30 96bd
000001d0: 52ce 37bd e8cb 9d3c fd42 953a 4920 52bd
000001e0: a92d 03bd 4de0 8e3d 5e71 333c 6950 70bc
000001f0: e04e 13bd 1677 5ebd 98b5 93bd dbf3 6b3d
00000200: 61cc 583d 194e ab3d a5a6 78bd 4446 b5bc
00000210: f826 14bd 6151 093b 1cd9 47bd 6eda b53c
00000220: 7897 363b 7eb0 243d bdb8 94bc 8d1f 27bd
00000230: 54e1 3cbc 9321 1ebd ad60 d6bb f92e 8cbc
00000240: a1b7 2a3d dcc1 193d 0872 82bd b637 de3c
00000250: 6510 973d 77b9 b13d e3da 99bc a834 fb3c
00000260: 75d5 61bd 9a33 773d 9e3a a93b 004c 493d
00000270: e430 7e3d d17b 3bbd 69f6 843d 9313 003d
00000280: 1512 2abd 7ea3 93bd 7207 053d b3b1 5c3d
00000290: 5704 9f3d 9c3d a63d adb2 743d 98ac dcbc
000002a0: 29df ecbc 3cd3 31bd da0d b3bc da89 7d3d
000002b0: f0be ab3d 8d5b 6bbc f77e ccba 1e94 bdbc
000002c0: 6db7 95bd c5f3 5abd fc09 9c3d b2eb 1fbd
000002d0: 2796 e13c ff7d d73c 1475 90bd 8923 23bd
000002e0: fde5 74bd 1f85 ddba 82c0 ec3c a8b2 6b3d
000002f0: 0c38 5b3d 8afb 87bd 7b8d 003d c92e 5e3d
00000300: d747 ff3c 1c03 a33d 5e80 34bd 389f adbd
00000310: e1b8 88bd 2332 8b3c ad5b a43d 953c 2e3d
00000320: 3ca7 97bc ae71 39bd 5277 3e3d 4f72 263d
00000330: 003a 853d b0aa 9ebd 6f0d 3dbd 27d9 d63c
00000340: bcec f4bb 6045 263d ea16 e7bc 4a3f 94bd
00000350: a83a 9f3d 64d2 883b 8f7c c2bc 7ad9 b0bd
00000360: d075 883d c49c 093a 1514 babb 8430 97bd
00000370: 6439 1abd 422b 9cbd 22b5 2fbc c18a 493b
00000380: 0e91 af3c 6139 693d 08ad 5d3c 4028 a7bd
00000390: 4f9c 25bd 7c12 6bbc 414b 99bd 049e a03d
000003a0: 4c9c d6bc 6a16 43bd 2026 12bc 6313 44bd
000003b0: 71a1 4c3c 4b33 593d ef89 9ebd 2e25 7a3d
000003c0: 3a8f b13d c88a 483c dfe5 163d da68 96bd
000003d0: fab9 00bd b9d2 b23d fb9a 143b 5e04 343d
000003e0: b7d4 7cbd 83ee 62bd a4a0 273d f0bf b0bb
000003f0: e7a0 1a3d ec74 ac3d ab1a 7b3d 2007 2b3d
-0.027703281 0.08445547 0.0021649362 0.04672471 0.06078997 -0.05942106 0.08507825 -0.023983832
-0.079545654 -0.057986487 0.012335802 0.08808212 -0.021906056 0.02188569 -0.08064738 0.016579168
0.0135820955 -0.07182429 -0.028398862 -0.033941783 -0.03673674 0.06711046 -0.008023296 -0.05483088
0.022976175 0.04112429 0.03367017 0.007650085 -0.010363467 -0.0667817 -0.05795728 0.05804877
0.07736955 -0.029084329 -0.0026709826 -0.06385309 -0.0028960258 -0.07827878 0.08646786 0.024444023
-0.024674483 0.019193212 0.06066195 0.021296402 0.08289234 -0.03596458 -0.01304858 -0.07610229
0.07553955 -0.07755403 -0.00075040356 -0.05779418 -0.03783927 0.05904231 -0.026597612 0.07779386
0.0376942 -0.061468408 -0.028970426 -0.05797122 -0.070453346 -0.0051684994 -0.058511343 -0.06557851
-0.044891186 0.08343529 0.0750244 0.052788462 0.041695066 0.039255332 -0.0022783321 0.06872614
0.05589847 0.05188591 0.014844962 -0.08489039 -0.06378671 0.018853782 -0.07154178 -0.06569278
0.03539688 -0.043168887 -0.06701163 -0.028747343 -0.0046053333 -0.025042571 -0.03969757 0.061060477
0.029603483 0.083229944 -0.03509116 0.021074794 -0.034870744 0.077670686 0.044192173 -0.020753477
0.029261028 0.02195226 -0.0022944428 -0.051406637 0.0055413097 0.027152801 -0.005757228 0.031471074
0.0472494 0.058117773 -0.017530907 -0.01700562 0.05060865 -0.07069959 0.08190491 0.024167044
0.024085827 0.032102633 -0.055117287 -0.07333441 -0.044874497 0.01926227 0.0011387762 -0.05130032
-0.032025967 0.06976376 0.010952322 -0.014667609 -0.035963893 -0.054312788 -0.07212371 0.057605606
0.052929286 0.08364505 -0.0607058 -0.022128232 -0.036169976 0.0020953047 -0.048791036 0.022198882
0.0027861279 0.04020738 -0.018154496 -0.040801574 -0.011528332 -0.038606238 -0.0065422864 -0.017112242
0.04167903 0.037538394 -0.06369406 0.027126174 0.07376174 0.08677953 -0.018781131 0.030664757
-0.05513521 0.060351945 0.0051644584 0.049144745 0.062058344 -0.045772377 0.064923115 0.031268667
-0.04152115 -0.07208918 0.032477804 0.053880405 0.077645 0.0811722 0.05974071 -0.026937768
-0.028915005 -0.04341434 -0.02185719 0.061899044 0.08386028 -0.014365089 -0.0015601803 -0.023141917
-0.07310376 -0.053455133 0.07619092 -0.039043136 0.027537419 0.026305197 -0.07053581 -0.03982881
-0.059789646 -0.0016900635 0.028900389 0.057543427 0.053520247 -0.06639774 0.031384926 0.054243837
0.031162186 0.079595774 -0.044067733 -0.08477634 -0.06675888 0.01699168 0.08025298 0.042538244
-0.01851236 -0.04527443 0.04650051 0.040636357 0.06505203 -0.077474 -0.04615539 0.026226593
-0.00747451 0.040593505 -0.028209168 -0.07238634 0.0777486 0.004175471 -0.023741035 -0.0863523
0.06663096 0.0005249495 -0.0056786635 -0.073823005 -0.03765239 -0.07625438 -0.010724338 0.003075287
0.021431472 0.056939486 0.013530023 -0.08161974 -0.04043227 -0.014347669 -0.07485057 0.07842639
-0.026197575 -0.047628798 -0.0089202225 -0.04787005 0.0124896625 0.053027432 -0.077411525 0.061070614
0.086698964 0.012240119 0.036840316 -0.073442176 -0.03142736 0.087315984 0.0022675383 0.043949477
-0.0617263 -0.055403244 0.040924683 -0.0053939745 0.037751105 0.084207386 0.06130473 0.04175484

bias f4 [64]
00000000: c64f 94bd 3b52 cebc f973 b63d 9f9b 933d
00000010: 8f0f 063d c52a 723d aed9 2c3d f1de d13d
00000020: 67a9 a7bb f331 97bc 0725 aa3c 946e bbbb
00000030: 59eb 853d f5bb 843d ec67 4a3c 7202 973b
00000040: 0471 ca3c a7ad d73c 0495 2d3d aff1 ad3b
00000050: acff c43d 0d8f d23a f174 8cbb b3a9 85ba
00000060: b888 38bc 967b 6fbc 546f 0abd 2a11 ecbc
00000070: 99c5 233d 7b97 28bd 95fe 343c a6c0 debc
00000080: c4be 663d 0b95 693d 21ce 263d 8426 4bbc
00000090: b7a5 7b3d b8b8 b0bd 3419 6f3d 09ac b3bd
000000a0: 85b7 9bbc 1e04 743d 9854 5f3d dd31 aebd
000000b0: c98c 5b3d cbdb ea3c f905 093d a25e c93d
000000c0: 38b1 e5bc 01b5 7c3d e224 fbbc 239f 963d
000000d0: 7cd5 b43c 26e5 83bd 372d 4ebc 9b4c e53d
000000e0: c113 6a3d 1021 fc3d 0bf2 403d de65 83bd
000000f0: a2a0 983c 8243 2cbd b4a7 c93c 1365 053e
-0.07241778 -0.025185695 0.08908839 0.07207417 0.03272968 0.05912282 0.042199783 0.10247601
-0.00511663 -0.018456435 0.02076961 -0.005719969 0.0653903 0.064811625 0.0123538785 0.004608446
0.024712093 0.026327921 0.04237844 0.005308352 0.09619078 0.0016064361 -0.0042864014 -0.0010197669
-0.011263065 -0.0146168675 -0.033797577 -0.028816778 0.039983366 -0.041160088 0.011047025 -0.027191471
0.056334272 0.057026904 0.040723924 -0.01239932 0.061437335 -0.08628982 0.058373645 -0.087730475
-0.019008407 0.05957424 0.054524034 -0.085056044 0.05360106 0.028669259 0.03345296 0.09832503
-0.028038606 0.061696056 -0.030657236 0.07354572 0.022074454 -0.06440191 -0.012584022 0.11196252
0.057147745 0.12310994 0.04710583 -0.06415914 0.018631283 -0.042056568 0.0246161 0.13026838

weight f4 [32, 64]
00000000: 9039 3f3d 9c4a b7bd 1c13 103e 9046 eabb
00000010: b88e 46bd e78b bb3d 8515 f83d ba4d fabc
00000020: 8b7b ed3d 3ef4 f63c dcdf fa3d 41a6 f33d
00000030: 1359 b63d 1c60 063e 3f01 83bd 64f9 bb3d
00000040: b580 7ebd 91c0 68bd 785c 6f3d da69 fdbd
00000050: d256 c5bd be71 edbd d971 c2bd 7f71 8c3d
00000060: 04f6 02be 9c12 1a3d 1a3d ca3d fbda 013e
00000070: 3ec8 5cbe af99 d93d 6c61 9c3d 0f1b 9c3d
00000080: 7b19 143c 0609 093e 2d79 cabd 4bfb 4bbd
00000090: 465b aabd c03c 24bb 4994 023d 34ae 31bd
000000a0: f4fa 00bc f4fe 883d f304 0bbd 4c40 7fbd
000000b0: 8750 89bd ec29 adbc c1a6 893d 7162 bd3d
000000c0: 1003 313b 24de 24bd f14b c1bd 7a48 c0bd
000000d0: 9ee4 c4bd d059 11bc 7142 593d 2aba b93c
000000e0: 0fb9 ce3d cae7 5dbc d163 a4bd 674f 2dbc
000000f0: 7e9d 8abd 20b4 ab3d fe0d fe3d 918a 9e3d
00000100: c047 6cbc d9cb 95bc 8e4b c43d 3107 1e3e
00000110: 4b7e 8039 ecb0 acbd 57d3 2e3d f4dd 36be
00000120: 81f0 023d 970a ae3d fd54 52bd 23ea e1bc
00000130: a487 8c3d c289 623d f172 dbbd 232f 053d
00000140: 7f85 31be 5598 d3bd f010 e2bc b013 f93d
00000150: 8527 243e 3495 37bd cf01 8b3d 8bb1 c83c
00000160: f799 05be 438d 3bbd ca1d adbc e37b 243d
00000170: 48c3 103e 5542 883d 371a 4cbb 951f dc3d
00000180: 6e4e bb3d 2ec3 743d 6889 b3bd f5a6 563d
00000190: f1da c13d f433 23bd fe6e ad3d 82dc 6fbd
000001a0: 4590 d73c b1d8 bd3d 2d0e 96bd 9811 a63c
000001b0: 8c5d cfbd 8766 e63d e157 85bc 5010 2c3d
000001c0: b9da 123e 8f7f 293c 8bb5 6abd 3b0a 683d
000001d0: fdbf acbd f274 4e3d 2940 80bb 62d1 05bc
000001e0: 0114 94be ba3b 97be adae 063e 3ca7 753d
000001f0: c378 193d e02e ef3c de05 8bbd d546 043e
00000200: 923b cb3d 68eb c43c 5282 93bd 4daf d6bd
00000210: 0e5e c23d 2d8c 9bbd 7663 aa3c d2c1 c2bd
00000220: 768e ddbd cb59 39bd 6076 e9bd c412 eebd
00000230: aaf2 9ebd 26fb 8d3d dc7a 2bbd 7c16 563d
00000240: 40ed 3ebc 1a76 d8bd 16af ae3d 145f b43d
00000250: 8c74 f93b 9413 f9bd d8e5 3abd 3f05 59bd
00000260: 1241 cf3d c112 633d aa31 4b3d 7828 ac3d
00000270: 8966 de3d 1cd3 06bd c0fa 8e3d 7c7d bd3d
00000280: d073 fd3c c794 003d 53af c4bd 60e0 663d
00000290: 802b f43c 78a2 f13d 789c e0bc aa71 173d
000002a0: 599f a2bd 4d95 e0bd b48d 33bd 441c b63d
000002b0: c017 c23d 462c a93d da62 893d 0f69 af3c
000002c0: ca0f a8bd d02e 66bc d8b2 1c3d 9d16 fcbb
000002d0: 0a26 4cbd 988e 793d e0bb 2d3c c2fb 7f3d
000002e0: 380d 91bc d600 b8bd 1728 c33d 58c9 17bd
000002f0: 485d d9bd 0c33 d6bd 6a06 c4bd 8717 aabd
00000300: 4872 c3bd c300 e3bd 4e34 c13c e9ad 383e
00000310: 41a0 173e cf93 2c3e d7df e9bd a9c0 b53a
00000320: 98be 133e e9f1 123d e340 d73d eda2 eb3b
00000330: 6d9c a83b 85df b5bc 0bdf 993b 04ea 81bd
00000340: f959 1f3d 5ed4 06be a384 6f3d 6b0a 603d
00000350: 103c d43d d7a6 60bd 6ced 07bd 311e 313e
00000360: c495 b939 0de3 e63d f311 6bbc 2b19 293e
00000370: 2e3b c43d 53dd b9bd a032 35bc d46c d83d
00000380: 7145 35bd c2a8 0e3e 481b 5cbc 6f98 3c3d
00000390: 0f3e 493d 40fc 25bd 44e4 fd3c b6e1 bcbd
000003a0: 0357 cc3c 518c d13d d892 0e3e c06a f13c
000003b0: 7827 a13d 386a 4d3d b4b2 82bd df02 b73d
000003c0: d444 2d3e fc7f 88bd 387f 3e3c 62bd e1bc
000003d0: f10d a7bb 355f 953d d7d3 953d ea0d 66bd
000003e0: fd6f 3e3e 9e53 823e b009 0a3e d23c f5bd
000003f0: 2021 da3d d0ec bbbd b6b6 493d c20b 093e
0.046685755 -0.089497775 0.1406979 -0.007149525 -0.04847595 0.09157544 0.121134795 -0.030554641
0.115958296 0.03014576 0.12249729 0.11896945 0.08903708 0.131226 -0.06396722 0.09178427
-0.062134463 -0.05682427 0.058437794 -0.12373705 -0.096357 -0.1159396 -0.09494371 0.06857585
-0.1278916 0.037615404 0.098749354 0.1268119 -0.21560761 0.10625016 0.07635769 0.076223485
0.009039278 0.13382348 -0.09886394 -0.0498002 -0.0831819 -0.0025060624 0.031879697 -0.043379024
-0.007872332 0.066892534 -0.033940267 -0.062317178 -0.067048125 -0.021138154 0.06721259 0.09247292
0.0027009882 -0.040250912 -0.09438313 -0.09388824 -0.09613918 -0.008871511 0.05304188 0.022671778
0.10093891 -0.013544032 -0.08026851 -0.010578013 -0.067683205 0.083839655 0.124050125 0.07741273
-0.014421403 -0.018285679 0.095847234 0.15432431 0.00024508158 -0.08432183 0.042682018 -0.17858106
0.031967644 0.084981136 -0.051350582 -0.027577465 0.06861809 0.055307157 -0.10715283 0.032515656
-0.17336081 -0.103317894 -0.027595967 0.12161958 0.160307 -0.044820026 0.06787454 0.024498722
-0.13047014 -0.045789015 -0.021132369 0.04015721 0.14136994 0.06653277 -0.0031143555 0.10748211
0.09145819 0.05975645 -0.087664425 0.052405316 0.09465588 -0.03984447 0.08468436 -0.058559902
0.02631391 0.09269846 -0.073269226 0.020272061 -0.101252645 0.11250024 -0.016277255 0.042007744
0.14341249 0.010345354 -0.05730204 0.05665038 -0.08435056 0.050404496 -0.0039138985 -0.0081675965
-0.28921512 -0.29537755 0.13152571 0.05997394 0.037468683 0.029197156 -0.067882285 0.12917645
0.099234715 0.024038032 -0.07202591 -0.10482655 0.09490596 -0.07595096 0.02079938 -0.095096245
-0.10818188 -0.04525165 -0.11399531 -0.11624673 -0.07761128 0.069326684 -0.041865215 0.052267537
-0.0116532445 -0.10569401 0.08529489 0.08807197 0.0076127704 -0.12161937 -0.045629352 -0.05298352
0.10119833 0.055437807 0.04960791 0.08406156 0.10859401 -0.032916173 0.069814205 0.0925245
0.030939013 0.031391885 -0.09603753 0.056366324 0.029805899 0.117985666 -0.02741836 0.036973633
-0.079405494 -0.10965977 -0.04383631 0.0889211 0.09477186 0.082603976 0.067083076 0.0214124
-0.082061365 -0.014049247 0.038256496 -0.0076931254 -0.049840964 0.060927004 0.010603875 0.062495954
-0.017706499 -0.089845344 0.09529131 -0.03705725 -0.10613495 -0.10458955 -0.09571536 -0.08305269
-0.09543282 -0.1108413 0.023584511 0.18035091 0.14807226 0.1685326 -0.11419647 0.0013866621
0.14428174 0.035875235 0.10510423 0.007191053 0.0051456005 -0.022201309 0.0046957782 -0.06343463
0.038904164 -0.13166949 0.0584761 0.054697435 0.103630185 -0.05484661 -0.033185408 0.17296673
0.00035397534 0.11273775 -0.014347541 0.16513507 0.095816 -0.09075417 -0.011059433 0.10567632
-0.044255678 0.13931563 -0.013434239 0.04604381 0.04913145 -0.040523767 0.030992635 -0.092227384
0.024943834 0.10231841 0.13923204 0.029469848 0.07868856 0.050150126 -0.06381741 0.089360945
0.16920787 -0.06665036 0.011627011 -0.027556125 -0.0050980975 0.0729355 0.07315796 -0.056165613
0.18597408 0.2545442 0.13480258 -0.11974491 0.10650849 -0.09176028 0.049246512 0.13383391

bias f4 [32]
00000000: 3b97 90bd b082 de3d 7246 3fbd d3bb b53d
00000010: 78e0 b3bd d886 adbc cc4f 2a3e bf13 f73d
00000020: aad9 0d3e 16cf 41bb 99bd 04bc d42c 883d
00000030: d38a 8c3c bf4f 0abd 4385 a0bd 8267 403c
00000040: 7104 0dbe 3bfc 34bd db64 aa3d 4a9c 023c
00000050: bb5c 123e 9198 e1bd d5c1 a03c 51d6 a0bd
00000060: 0632 f63d 4441 ad3d b593 893d 202a 8cbb
00000070: e183 adbd 43d4 203d b0b2 9fbd 01af b53d
-0.07060095 0.108647704 -0.04669804 0.08873715 -0.087830484 -0.021182463 0.16632003 0.12064313
0.13852564 -0.0029572896 -0.008101844 0.06649175 0.01715604 -0.033767458 -0.07837918 0.011743428
-0.13771226 -0.04418586 0.08320018 0.0079718325 0.14293186 -0.11015428 0.019623676 -0.078533776
0.1202126 0.08459714 0.06717626 -0.0042774826 -0.084724195 0.03926493 -0.07797754 0.0887127

weight f4 [128, 7]
00000000: e6db 73be abd1 553e e802 97bd 99e3 923e
00000010: 858c 45be 3784 9c3c 508d 2a3e 8c04 3c3d
00000020: a8e6 a9be 8fcc a9bc b23a 993e 294e f43c
00000030: e629 67bb 3e04 7dbd 0d21 413e d9dc 553e
00000040: 0baf 4bbe 22f1 85be fb97 bcbe 0939 a4be
00000050: c330 633e 0f58 bebe 6d1e 8bbd 5e96 9b3d
00000060: c371 c33e 9d9b 8b3e aef4 253d 1757 053e
00000070: 724f 69be 1bf4 b8bd 1e73 9a3e 71b5 80be
00000080: 5068 863e 6fc4 aabd d2bf 90be 79b9 8a3d
00000090: 5b81 7a3e d6a2 703e aa29 933e 91eb ae3e
000000a0: 788e 81be 8128 a73e 7ab1 613e b933 413e
000000b0: d775 c63e 813f 0abe f4b4 633e 3560 5cbe
000000c0: 1240 353e f83f 44be aadf 853e 4487 0dbe
000000d0: 1337 a73e e683 5bbe a5b2 81be 0208 973e
000000e0: 165f b5be 28a0 37be 0635 9abe d7ab 8c3e
000000f0: efd2 963e 95e9 583e 2902 1ebd 4e77 4c3e
00000100: d07d 903e 72b4 333e 8fef 9c3e 06ab b4be
00000110: 4cda 3b3d a6fd 93be f636 c3bd d1c0 9bbe
00000120: 38e1 99be cd66 a8be d223 a43e 0249 2bbe
00000130: ab99 ac3c ff78 863e ce01 7f3e dcb2 5d3c
00000140: 3de7 c5bc 8c2f 10bd b2f1 f2bd 92e9 833d
00000150: f14e f5bd b111 083e a176 7b3e 9b52 73be
00000160: b859 48be 1bd9 9fbe d469 a83e 29a9 ba3e
00000170: 898d 11be c0aa c6bd 0d3b 94be 6647 a2be
00000180: 2651 babe 22f9 023d 4137 15bd 24de aa3e
00000190: b8a4 813c 70ce b43e e099 6ebe 71cd e33d
000001a0: be7a a0be b2ea 5d3e 2c9b ab3d adb1 8d3e
000001b0: 02f4 39bd 5957 8e3e b02a c83e 68a5 32be
000001c0: 2a8e 78be b4bb 98be dcb0 1a3e f1fd 1abe
000001d0: 6671 803b 6909 953d b2bf 1cbe 301e b7be
000001e0: a1f7 77be 20b8 8bbd 8f27 f4bd 0a12 69bc
000001f0: bd63 a6be 5b53 b2be 2d41 c03e 9971 6b3e
00000200: 083c 093c 206e 76be ed37 d33d 4211 cc3d
00000210: 1e76 963d a06d fa3d a86a 28be d353 1a3d
00000220: b9e6 283e 050b 5cbe 8c31 a13e a434 36be
00000230: 93b5 40bd 7292 e93c 0eb2 473d b0eb f3bd
00000240: 6288 bdbe f41e dbbc 0d8f 6dbe 0e1c c43e
00000250: e1fa b4be c3e1 25be aab0 c0be 5f79 193e
00000260: 492d 5ebe e430 b73d eedc cfbe 2ffc 833e
00000270: 5796 4abe 4a81 d63d c331 1dbe 1c4c 543d
00000280: 72df ca3e 12eb dfbe 34d1 a33e 1b74 8a3e
00000290: dc79 81bd 75c6 ad3e 4e65 cdbb b641 893d
000002a0: 8dd0 dd3e 7839 b8be 24b5 d93c 1020 84be
000002b0: bbdb 79bc ecbe 313e e5f4 f03d baa9 b6be
000002c0: eb91 4fbe 4c52 023e d094 efbd 5f85 a0be
000002d0: 24a7 393d 4db4 46bd 7335 f7bd b17a bbbe
000002e0: 839a 8abd 0b98 acbe e979 b2be 8011 723e
000002f0: 72ad 7b3e 8e05 f43e 73e7 a2be a9f2 bc3e
00000300: a1f6 bdbd 0223 7e3c 049f 6abe efd3 963e
00000310: 6127 f03e b542 69be 87dc a5be d202 013c
00000320: ad16 613e 44ee 693d c017 66be 2102 87be
00000330: fa56 0c3d 0a8b 77be d2f0 bfbe 768b 30bd
00000340: 64c6 3aba 1751 743e 17db ad3e 3fac 1abe
00000350: 2343 5c3e 9042 123d 98c1 b6be 14c8 263e
00000360: 7d59 19be d8f3 343e 0d71 4cbe c740 82bb
00000370: 5bb9 573e 5a7a 42be 846d b13d 6353 513d
00000380: 3e68 3c3c 0972 c23d 388c b23e 611e b93e
00000390: 4b20 d5ba 93aa c9bd 9336 cf3d bf52 d73e
000003a0: 3eca 18be 505d cfbc 46fd c5be 7938 afbe
000003b0: e417 7bbe 4ba0 ec3d 8712 7d3e fd8e 48be
000003c0: da09 983e 26a9 bd3e 88b2 363e 6a6c 49be
000003d0: 2cfe 02be 1475 8fbe b885 85be e815 abbe
000003e0: 279a ac3e fe2a 303e 55f0 7dbc f6f8 98be
000003f0: 5ab2 65be d09b 90be 0d70 c53e 2572 2c3e
-0.23814353 0.20880763 -0.07373601 0.28689268 -0.19291885 0.019106014 0.16655469 0.045902774
-0.3318379 -0.020727424 0.29927593 0.029822426 -0.0035272776 -0.061771624 0.18860264 0.20885028
-0.19890992 -0.26160532 -0.36834702 -0.32074764 0.2218657 -0.37176558 -0.06792913 0.0759704
0.3817273 0.2726716 0.040516548 0.13021503 -0.22784212 -0.090309344 0.30165952 -0.2513843
0.2625146 -0.08338248 -0.28271347 0.06773657 0.24463408 0.23499617 0.28742725 0.34164098
-0.25304008 0.3264809 0.22040358 0.18867387 0.3876178 -0.13500787 0.22236997 -0.21521075
0.17700222 -0.19165027 0.26147205 -0.13821131 0.32659206 -0.21437034 -0.25331607 0.29498297
-0.35424107 -0.17932189 -0.3011858 0.27474853 0.29457805 0.21182854 -0.03857628 0.19967386
0.28220987 0.17549303 0.3065152 -0.3528673 0.04586248 -0.28904456 -0.09531967 -0.30420545
-0.3005464 -0.3289093 0.3205858 -0.16727069 0.021069368 0.26264188 0.24903032 0.013531413
-0.024158115 -0.035201594 -0.11862506 0.064410344 -0.119779475 0.13287999 0.24556972 -0.2376198
-0.19565475 -0.31220326 0.3289324 0.36457184 -0.14214148 -0.09700537 -0.28951302 -0.31695098
-0.36390036 0.031975873 -0.036429647 0.33372605 0.015825614 0.3531375 -0.23300886 0.11123169
-0.31343645 0.2167156 0.08379206 0.27674618 -0.04539872 0.27801016 0.39095068 -0.1744591
-0.24272981 -0.29830706 0.15106529 -0.15135933 0.003919768 0.072771855 -0.15307501 -0.3576522
-0.24215557 -0.068222284 -0.11921608 -0.014225492 -0.3249797 -0.3482922 0.37549725 0.22992553
0.008376129 -0.24065447 0.10313401 0.09964229 0.07346748 0.122279406 -0.16446936 0.037677597
0.16494264 -0.21488579 0.31483114 -0.17793518 -0.047048163 0.028512213 0.04875379 -0.11910188
-0.37018114 -0.026748158 -0.23199101 0.38302654 -0.35347655 -0.16199403 -0.37634784 0.14987706
-0.21696962 0.08944872 -0.40598243 0.25778338 -0.19783913 0.10473879 -0.15351014 0.051830396
0.396236 -0.43734032 0.31995547 0.27041706 -0.06322071 0.33940473 -0.00626818 0.067019865
0.43323174 -0.35981345 0.026575632 -0.25805712 -0.015250142 0.17357987 0.1176546 -0.35676366
-0.20270507 0.12726706 -0.116983056 -0.31351754 0.045325413 -0.048511792 -0.120707415 -0.36617044
-0.06767752 -0.3370975 -0.34858635 0.23639488 0.24577883 0.47660488 -0.31817207 0.36903885
-0.09275556 0.015511276 -0.22912222 0.29458568 0.46905044 -0.22779353 -0.32394812 0.007874208
0.21981306 0.057111993 -0.22469997 -0.26368812 0.034262635 -0.24174133 -0.3748842 -0.04310175
-0.00071248994 0.23859058 0.33956215 -0.15104769 0.21509986 0.03570801 -0.35694575 0.16287261
-0.14975543 0.17671144 -0.19965 -0.003975007 0.21066801 -0.18991986 0.086634666 0.051104914
0.011499463 0.09494407 0.34872603 0.3615599 -0.0016260234 -0.098469876 0.10117831 0.42055318
-0.149209 -0.02531305 -0.38669795 -0.34222773 -0.24520832 0.11554011 0.24714099 -0.19585796
0.29695016 0.37043113 0.17841542 -0.19670263 -0.12792271 -0.2801901 -0.26078582 -0.3341515
0.3371136 0.172039 -0.015499194 -0.29877442 -0.22431317 -0.28243876 0.3856205 0.16840418

bias f4 [128]
00000000: 6099 113e 070d bcbe 1936 9c3e 9b76 703e
00000010: a51d aabe 9b9a 563e 6b2f 3abd 0814 efbd
00000020: ffd3 693e 96a2 ab3d 6781 e5bb ee2b 3bbe
00000030: 3e0d 84be f552 413e 6c4c e13e d66b 2abe
00000040: 4e20 b7be 1fb6 54be b274 a83e 1a94 95be
00000050: 54bf e0bd b505 f3bc 836d b83e d8bb 923e
00000060: 5a55 b83e c2e9 bdbe cbf1 453c 9f71 86bd
00000070: 81d0 7f3e 6ecd 9e3e e299 edbd 96ab cd3e
00000080: 549e adbe 4821 b3bd b33c 273e d9a1 d13e
00000090: ac5a debd f8e4 963e a5fc a33e de8c ea3d
000000a0: 0972 12be 1777 6b3e 177b e9bd 3b9e ce3e
000000b0: dfdb 593e 1c87 993e f5f4 4bbe 58a8 d03e
000000c0: ccb5 8cbe d5cc 003d cce6 923d b3b0 84be
000000d0: 1f16 6ebe bf39 a13e 5e27 c83e c9e7 813e
000000e0: 7dc9 cfbc 1705 333e d4fe 863e e833 083e
000000f0: 5e8a 473d 063c 293e 6ab5 c0be ccdd 5dbe
00000100: 63ee 0bbe 4ac3 a9bd a2dd 98be 6369 2d3d
00000110: dde6 5d3e d2da acbe 5a53 93bd 9286 13be
00000120: 7d3d 0ebe 8d9c 62be d1e6 b53e 925e 573e
00000130: 71bd a7be c21f aebd 2b2e 983e 9029 a2bb
00000140: da17 a53e 328b ea3e 4f42 c1be 39ad d03e
00000150: 0522 c73e 13bf 813e 58d8 8dbe a844 303e
00000160: 0497 81be 5f16 cfbd 3977 833e 52d3 773e
00000170: 6db0 c639 3e58 e63e b4ef cd3e eb9f 73bc
00000180: 8d32 46be cbf1 8ebe 1f12 80be 9126 353e
00000190: a70e 8d3c a820 013e 7f99 8e3e f7d7 833e
000001a0: 2b64 ae3d c444 c23e 056e 7c3e 9c03 b4be
000001b0: 5171 9e3e 967b 953e 00b5 3bbe 5c75 b73e
000001c0: fc48 953e 6f68 86be c9df 983e 53ae ec3e
000001d0: 6875 46be d2d2 783e 7de0 63bc d8d4 123e
000001e0: 02c7 bd3e ec57 7cbe 59a3 ac3e cde1 67be
000001f0: ecc5 133e 2764 323e 035a ae3e deb3 2fbe
0.14218664 -0.3672869 0.30510023 0.23482744 -0.33225742 0.20957415 -0.045455378 -0.116737425
0.22834776 0.0838062 -0.0070039514 -0.18278477 -0.25791353 0.18879302 0.44003618 -0.16642699
-0.35766834 -0.20772599 0.3290153 -0.29214555 -0.10973993 -0.029665807 0.3602105 0.28658938
0.36002618 -0.37092406 0.012081574 -0.0656464 0.24981882 0.31016105 -0.116016164 0.40169972
-0.33909857 -0.08746582 0.16331749 0.40943792 -0.10857138 0.29471564 0.3202869 0.114526495
-0.14301313 0.22994648 -0.11400431 0.40355095 0.2127528 0.29985893 -0.19917662 0.40753436
-0.2748245 0.031445343 0.07172927 -0.2591606 -0.23250626 0.3148937 0.39092535 0.2537215
-0.025364632 0.1748241 0.26366293 0.1330105 0.04871594 0.16526803 -0.37638408 -0.2166664
-0.13665156 -0.082892016 -0.29856592 0.042336833 0.21670099 -0.33760697 -0.071936324 -0.14406803
-0.13890643 -0.22130032 0.3552766 0.2103217 -0.3276172 -0.08502151 0.29722723 -0.0049488023
0.3224476 0.45809323 -0.37745902 0.40757158 0.38893142 0.2534109 -0.2770412 0.1721369
-0.25310528 -0.10111689 0.25676897 0.24201706 0.0003789695 0.44989198 0.4022194 -0.01486967
-0.19355221 -0.27918848 -0.25013825 0.17690493 0.0172189 0.12610114 0.27851483 0.25750706
0.08515199 0.3794309 0.24651344 -0.35159004 0.3094583 0.2919585 -0.18330765 0.35831726
0.29157245 -0.26251552 0.29858235 0.4622675 -0.19380724 0.24299172 -0.013908503 0.14339006
0.37065893 -0.24642915 0.33718374 -0.2264473 0.1443097 0.17421018 0.34053048 -0.17158458

weight f4 [64, 128]
00000000: 78e8 9c3d c221 473c fe1a 4ebd 7da4 3c3d
00000010: c963 9ebd f104 08bd e288 6bbd b2c1 9dbd
00000020: 8daf 5dbc 1445 5a3c 48f4 a9bb 9619 333d
00000030: 9710 68bd 18ea 1c3d cbdb a13c 21e8 24bd
00000040: 6a15 85bd 8105 633d a18c 86bc 5dea 823d
00000050: bff0 a03c b3a5 753d 3078 65bd 6773 9e3c
00000060: c2af aebd 33e9 b2bd 208f 9b3d 09a8 afbc
00000070: de6f 72bd dc65 2abd ec46 ae3c 70c1 0bbd
00000080: 9d01 a3bd 77de 1dbc a062 8e3d f070 373d
00000090: 3145 233d a29e 333d eaa9 8cbd d96c a93d
000000a0: ff17 873c 862d 833d d379 86bc 61b5 013c
000000b0: b3c5 6cbd 4c02 093d a01e f4bb 9e54 7d3d
000000c0: bfd0 aabd 82da 953c cf88 643d fa7d a43a
000000d0: 3bbb 65bd bd70 a1bd 1886 81bd f754 95bd
000000e0: a324 7a3d 2ed1 9e3d 27c4 1cbd ab97 dc3c
000000f0: ccc1 6d3d 0103 883d cab3 f73c c0af a63c
00000100: 99c3 913d 8adf 8dbd ed61 6f3d 42cd a0bd
00000110: 9c58 953d 396b e23c e76e 293d 32fd aa3d
00000120: 8411 8cbc d986 fabb 9826 24bd 2f48 ed3b
00000130: f665 0abd a994 80bc 6da1 a3bd a4e1 95bd
00000140: 056c 033d 78f3 aabd 8973 e53b d440 793c
00000150: 1789 1cbd 5d3d 313d fe2b 42bd d41a 4ebd
00000160: 149d ab3d c5b1 07bc c7f4 a93d d4fa a23d
00000170: 0712 623d 88c3 f5b8 db94 2dbd 5b75 5dbd
00000180: aed3 9fbd 328c fabc ef32 07bd 3f20 de3c
00000190: 72a7 23bd 77bf 103d 4b19 bbbc 147a 85bd
000001a0: 0453 9d3d d138 90bd d196 aebd 8b3c 2d3d
000001b0: ea61 02bc 2144 7ebd c7b4 413d 190c e13c
000001c0: 3c2b a23c aea1 cbba 3905 89bc 63ba 85bd
000001d0: dca6 6bbc 9fc5 683d 3a04 12bc 5e04 feba
000001e0: 5f5d 653d b340 b03d 5caa 1bbd 6765 b1bd
000001f0: 886b 8e3c 0f6a dc3b f6fe 38bc b0c4 023d
00000200: 1a8a 9b3b 6b5a 44bd 2ef7 59bd 9b61 3dbb
00000210: ecef a7bd b350 f4bc 1207 5d3d 6dba 93bd
00000220: e7b4 83bd 1957 d2bc 2b2b c9bb 15d0 82bd
00000230: 1d94 933d 72d2 13bd 954e bc3c 4f2b a7bc
00000240: b510 d2bb 19b2 14bd 8ef8 bbbd 730f 1fba
00000250: e6c6 8d3c 3d4e 443c b12d 88bd 0f81 e5bb
00000260: ca49 91bd 4d18 a6bd 1146 8fbb 5958 7f3c
00000270: d4da 463d 89b1 a2bd 094f 50bd 60f2 8bbd
00000280: b791 41bd 9f39 563d fc51 5abc b334 5dbd
00000290: 2667 9bbd 367c 56bd 663c cabc 347c 0c3d
000002a0: f675 5cbd a8da 903c bbea 843d 86cb c43c
000002b0: 882d c83c 6d32 a6bd 5363 d33b 79f1 413d
000002c0: cc2e 943d a126 8fbd 9017 a33d 97c2 863b
000002d0: d1aa 4b3d 96a7 45bd a661 5f3d 1aa9 7e3d
000002e0: 9507 babc be61 b03c b098 06bc 30aa a4bd
000002f0: 78ca 4d3c 32bf 6f3d 9925 97bd 5e61 a1bd
00000300: 0052 a33d 3247 b23d 3465 033c 0793 8ebc
00000310: d4f9 c1ba de0f 9abd 5141 79b7 ee62 ac3d
00000320: 8e00 243d b63f c93b f1d7 9a3d 11c6 813d
00000330: 3ade 773d 594f 6f3d 5b48 403d ce3d e03b
00000340: 0327 88bd 04c3 2cbd 9936 983c 1166 7b3d
00000350: ff41 bc3b 5738 0abd 6709 923d d338 fdbc
00000360: 3d48 6cbd 8ccd 3d3b 7ba1 283d 8be7 54bd
00000370: c7e2 173d 8bd0 c5bd 2b05 4c3d 9470 9c3d
00000380: 93e2 933d f250 5fbd 8f62 713d bf8f fb3c
00000390: 7c78 a6bd 78f0 09bc d0b1 863d 13dc 5dbd
000003a0: 499c bcbd 8ed9 c3bc 9483 913d eaf7 c93c
000003b0: 5854 57bc 759d a7bd 5b98 733d 2004 32bd
000003c0: b247 8e3d 3c65 a7bb 4d6a 113c 4fe8 d6bc
000003d0: dccc a9bb 9eef a73d 4112 243c ad42 133d
000003e0: 6382 913d 8ab4 5e3d f88c 673d 49ac 1d3d
000003f0: 87ee 6d3d c16a 443d 32d7 c9bd 116c 77bc
0.076615274 0.012154045 -0.05031871 0.046055306 -0.07733876 -0.033207837 -0.05750359 -0.0770296
-0.013530624 0.013322134 -0.0051865913 0.043725573 -0.056656446 0.038309187 0.019758126 -0.040260438
-0.06498225 0.05542517 -0.016424479 0.063923575 0.019646047 0.059972476 -0.056022823 0.019342138
-0.08529617 -0.087358855 0.07595658 -0.02144243 -0.059188716 -0.041601047 0.021274053 -0.034120023
-0.07959292 -0.009635559 0.06952405 0.04478544 0.039860908 0.043852456 -0.06868346 0.08272714
0.016490934 0.06405167 -0.016415512 0.007916779 -0.05780573 0.033449456 -0.00744994 0.061848275
-0.083405964 0.01829267 0.055794533 0.0012549751 -0.05608676 -0.07882831 -0.063244045 -0.072915964
0.061070096 0.077547416 -0.038273003 0.02692779 0.058046147 0.06641198 0.030237097 0.020347476
0.071173854 -0.06927402 0.058443 -0.0785165 0.072922915 0.027639018 0.04136553 0.083490744
-0.017098196 -0.0076454696 -0.04007587 0.007241271 -0.033788644 -0.015695887 -0.07989774 -0.07318428
0.032085437 -0.08347219 0.0070022983 0.01521321 -0.038216677 0.04327141 -0.047405235 -0.050318554
0.0837957 -0.00828213 0.08298641 0.07957998 0.055192973 -0.00011718931 -0.042378288 -0.054066997
-0.078040466 -0.030584428 -0.03300756 0.027114986 -0.03995461 0.035338845 -0.022839209 -0.06517425
0.076818496 -0.07042087 -0.0852486 0.042294066 -0.007957915 -0.06207669 0.047291543 0.027471589
0.019796006 -0.0015535855 -0.016726123 -0.06529691 -0.014383044 0.05682909 -0.0089121405 -0.0019379964
0.05599725 0.086060904 -0.038004264 -0.08661919 0.01738526 0.0067265104 -0.011291256 0.031925857
0.0047466876 -0.04793779 -0.053214245 -0.0028897289 -0.08200058 -0.029823637 0.05396182 -0.07213292
-0.06430989 -0.025676297 -0.006139179 -0.06387345 0.07205985 -0.03608937 0.02298669 -0.020406393
-0.006410683 -0.03630266 -0.091782674 -0.0006067671 0.017306756 0.011981544 -0.0664934 -0.0070039104
-0.07094152 -0.08110104 -0.0043723662 0.015585029 0.048548535 -0.079440184 -0.050856624 -0.06833339
-0.047258105 0.052301046 -0.013325211 -0.054005336 -0.075880334 -0.05236455 -0.024687003 0.034298137
-0.053823434 0.017682388 0.06490084 0.024022829 0.024435773 -0.08115087 0.0064510494 0.047349427
0.07235488 -0.0698979 0.079634786 0.0041125524 0.04972345 -0.048255526 0.054536484 0.062172987
-0.022708694 0.021530982 -0.0082151145 -0.08040273 0.012560479 0.058531947 -0.07380218 -0.078798994
0.07974625 0.08704986 0.008019734 -0.017404092 -0.0014799186 -0.07522558 -1.4856764e-05 0.08417307
0.04003959 0.006141628 0.07560719 0.06336606 0.060514666 0.05842528 0.046944004 0.006843305
-0.06648066 -0.04217817 0.018580722 0.061376635 0.005745172 -0.033745136 0.071306996 -0.030910885
-0.05768608 0.0028961627 0.041169625 -0.05197863 0.037081506 -0.09658917 0.049809616 0.0763866
0.0722095 -0.054520555 0.058931883 0.030708192 -0.08128449 -0.008419149 0.06576884 -0.054164957
-0.092094965 -0.02390745 0.07105175 0.024654347 -0.013142668 -0.081843294 0.05947147 -0.043460965
0.069472685 -0.0051085036 0.008875442 -0.02623382 -0.005181892 0.082 0.010014118 0.03595226
0.071049474 0.054371394 0.056530923 0.038494382 0.058088806 0.04795337 -0.098554984 -0.015101449

bias f4 [64]
00000000: d30d 473b c75e 9a3d 718b 08bc cc11 8d3c
00000010: 5ae4 853c eec4 763c cde3 8f3d 8795 b33c
00000020: 3cde a63c 6d9f c23c eca3 623d 25a7 923c
00000030: f24d 0d3a 7b7d 0fbd 564f 16bc 0517 9bbd
00000040: 7fb9 463c a7be 113e f9da 22bc 26b2 a63d
00000050: 980e b63d 601f 8abd 19e8 ac3d d59a a1bd
00000060: 90a1 a03d 9596 d0bc 847a a83d 8515 8a3d
00000070: 0595 133d bf3c 4e3d 8ac4 70bd 89a9 903d
00000080: c543 2d3d d3c6 b43d a63b e13d 2b8b de3c
00000090: 4418 2abd 5fd6 813d 7a99 e63d 7f7a 7abd
000000a0: 8d4b 453b 171b 18bc 4079 7b3d 251a 873d
000000b0: 7b8d 633c b0d1 cb3d 19fe debc 0d32 bd3c
000000c0: d2e9 94bc b782 373d a4dd 593d 3220 283d
000000d0: fccf 823d 3a1a 0a3e 9b19 0abd faae d93d
000000e0: c316 d83d fe00 51bd f287 bebc 9a46 abbd
000000f0: 5b3e 9c3d b239 493d 3366 2bbd 47a7 123e
0.003037323 0.075376086 -0.008334027 0.0172204 0.016344238 0.0150616 0.070258714 0.021921886
0.020369641 0.02375766 0.05533211 0.017901966 0.0005390338 -0.035031777 -0.009174189 -0.0757275
0.012129187 0.14232884 -0.009939902 0.08139448 0.08889502 -0.067442656 0.084427066 -0.0789086
0.078433156 -0.025462428 0.08226493 0.06742386 0.036030788 0.0503509 -0.058781184 0.07063586
0.04230096 0.08826985 0.10997705 0.02716597 -0.041527048 0.06339716 0.11259742 -0.061151978
0.0030104846 -0.0092838025 0.06139493 0.065967835 0.013888712 0.09952104 -0.027220773 0.023095155
-0.0181779 0.044802394 0.05318989 0.04104633 0.06387326 0.13486567 -0.033715826 0.10629077
0.105512165 -0.051026337 -0.023258183 -0.083630756 0.07629081 0.04912729 -0.04184551 0.14321624

weight f4 [32, 64]
00000000: 7a8c febd e0c3 bbbb 56fe 0b3d eb82 acbd
00000010: 9307 6b3b 393b 4f3c 57c9 89bd 94e4 c0bc
00000020: 2046 19bd d61f e93d e906 d6ba 3fae e73d
00000030: 8095 00bd 708a 98bd a0d8 a43d 80ae 0cbd
00000040: 9b5f bb3d da8c 723d d082 80bc 999a 3e3d
00000050: d898 9bbc b867 973d f2eb 033d 3c1d 0fbd
00000060: dbca 6ebd 54b2 7d3d a4f9 cbbd 782d f93d
00000070: 480b c63d cc5a 503d 988a a9bd c01e dd3b
00000080: e592 873d 40ef 353d 8b55 283d 18a7 253d
00000090: 501b 5f3c 9f60 49bc 4814 b0bd 9ccc 783d
000000a0: c0f6 ffbd 677c 0b3d 6933 ecbd 972e fdbd
000000b0: c477 55bd 0db2 7fbc 0061 473d 1cb0 3d3d
000000c0: 96f9 f9bd 691c dd3d 2062 15bc e08d 5abd
000000d0: b82a b53c 5fd9 cfbb 8563 933d a911 dabb
000000e0: 78e1 89bd 1678 b3bd 76cf c83d b85b 80bc
000000f0: 2207 babc 8e24 e1bd f23d b0bd 8d69 0ebc
00000100: 781e 733d 93cf 9ebd ef4b 3d3e 33bf 07be
00000110: 0c13 cb3d d9fc d3bd 552c fdbc 2477 b33c
00000120: 6a92 3b3c 3506 c93a c2bf bb3c 94e5 22bb
00000130: 17cc cdbd 3ed1 7c3e 1077 043c ec38 9f3d
00000140: 5e36 943c 5102 b73d 5a26 f43d 2425 2a3e
00000150: f639 923c 4a30 0dbe 79fc 133d 0062 ccbb
00000160: 7e98 ad3d 62a2 fd3d 5c3d 293b b083 ed3c
00000170: 90e5 3bbd cc55 863e fc8c 133d a138 eebd
00000180: f267 b1bd efb3 91bd 29dd 6d3e f8e0 583d
00000190: 70cc 90bd 563e b23d 470b 3c3d c4cb b0bd
000001a0: 6dee 193e 4e7e 973c 4096 fbbc 0fa3 acbd
000001b0: cc30 733d 817b ad3d a4b8 28bd f12d 933d
000001c0: 03bb ffbd efd3 13be 00fb a9bd b452 ac3d
000001d0: 30fe ed3d 6649 383c 41b8 6a3e 99d1 2e3e
000001e0: 402d b8bd 383d 983d cc1f ecbd 77fc d93d
000001f0: 2516 633e 21b5 0c3e f120 0a3d e525 fb3d
00000200: f4d0 5cbd 098e 0a3c db76 d737 50fd eebd
00000210: 31a9 8b3d 5dfe 9dbd a268 02bd 8373 f73d
00000220: fd1e ac3c f909 1dbd 3d9a 06be 92d9 f43d
00000230: 33d7 d23d 51fc 103e 30f9 fc3c 9867 ec3d
00000240: 084d 233e 3235 f13d 7cfe aabd 9e84 b63d
00000250: e0eb c13d 849e 26be aec9 453e 308d e9bd
00000260: 6047 523d 5470 81bd e6d8 6f3d 3f3a ba3c
00000270: 2fa6 243c 32c1 c53d 8425 ea3d 91f5 dbbd
00000280: a054 da3d 52c0 963c 1450 cf3d 5209 aebd
00000290: d027 803d 548b 2a3d a0ef b0bd 468a d83d
000002a0: d418 983d 079d 053d 12e4 5fbd 4983 103c
000002b0: 4c90 a3bd 8bfa e6bd 38f5 843d 17d4 91bd
000002c0: 6c5c 5abd 12e7 f9bd 7ee9 1ebe 3435 c6bd
000002d0: ced0 753c edd0 003d f951 133e a2eb 733d
000002e0: cf5d c5bd a880 50bd 603b b8bd 7720 afbd
000002f0: 5aed 403e fad6 653c 02d0 213e db79 cf3d
00000300: d8c9 ea3d 56ad f1bd 3d73 94bd 453e 593d
00000310: 26b4 ea3b ecf2 3a3d 88d1 f5bd 73fa 30bd
00000320: 004e 2cba 6c4c 1c3d 8c5b d6bd 2bfb ae3d
00000330: 66e7 b0bd e372 c8bd d482 623d 5883 373d
00000340: 59f2 043d f914 e3bc 54e4 e43d 7534 8f3d
00000350: e82f fcbc 7ce5 10bd 533c 6abd 04ee a3bd
00000360: e961 eabd 000c a5bb 1079 6bbd ec8a 99bd
00000370: 4aed a53d a997 ce3c 656d 553d e60a e2bd
00000380: fbf2 2fbd 7028 dfbc 1a94 f53d 4ce2 d3bd
00000390: 66df c03d 059f 463d fe44 b93d e874 8ebc
000003a0: 5323 8ebd 64b8 973d c962 b93d 2efd eb3c
000003b0: 14c1 22bd 99ae ee3d 9c2e ea3d d28d bebd
000003c0: e4f6 0d3d 20e1 063d 26c0 bcbd 50e3 283d
000003d0: 6e3f d13d b6a2 f73d 0d16 0a3c 9840 fdbd
000003e0: 80be 96bb 8e39 c9bd b62f 873d 004d 5bbc
000003f0: 15f4 85bd 4a65 a6bd 6536 f13d cd98 f6bd
-0.124291375 -0.005730137 0.0341781 -0.08423408 0.003586267 0.012648397 -0.06727856 -0.023546495
-0.037420392 0.11383025 -0.0016328964 0.11312532 -0.031392574 -0.0744828 0.080491304 -0.034346104
0.09149095 0.059216358 -0.015687376 0.046534155 -0.01899378 0.0739283 0.032207437 -0.03493999
-0.058298927 0.061937645 -0.099597245 0.121668756 0.096701205 0.05086784 -0.08278388 0.0067480505
0.06619815 0.04441762 0.041097205 0.040442556 0.013617352 -0.012291103 -0.08597618 0.060742006
-0.12498236 0.034054186 -0.11533243 -0.12362402 -0.05211617 -0.015606415 0.04867649 0.04631053
-0.12205808 0.107964344 -0.009117633 -0.05335796 0.022115096 -0.0063430513 0.07196716 -0.0066549373
-0.06732458 -0.08763139 0.09805195 -0.015668735 -0.02270848 -0.109933004 -0.08605565 -0.008692157
0.05935523 -0.077544354 0.18485998 -0.1325653 0.09915742 -0.10350961 -0.030904928 0.021907397
0.011448482 0.0015336933 0.022918586 -0.0024856078 -0.10048693 0.24689195 0.008085027 0.07774529
0.01809233 0.08935989 0.119213775 0.1661573 0.017849904 -0.13787952 0.03612945 -0.0062372684
0.08476351 0.12384488 0.0025823927 0.028993458 -0.045873225 0.26237333 0.036023125 -0.11631895
-0.08662404 -0.07114398 0.23228897 0.052948922 -0.07070243 0.08703296 0.045909192 -0.08632615
0.15032358 0.018492844 -0.030711293 -0.084295385 0.05937271 0.08470822 -0.041191712 0.07186497
-0.124868415 -0.14436315 -0.082998276 0.08414212 0.11620748 0.011247968 0.2292185 0.17072143
-0.08993006 0.074335515 -0.11529502 0.10643857 0.22176416 0.1374097 0.03372282 0.12263087
-0.05391021 0.008456715 2.5685344e-05 -0.11669409 0.0681938 -0.077145316 -0.031838067 0.12082579
0.02101087 -0.03833959 -0.13144775 0.11955561 0.10294952 0.14158751 0.03088054 0.115431964
0.15947354 0.11777724 -0.0834932 0.089120135 0.09468818 -0.16271406 0.19315216 -0.114038825
0.0513376 -0.06320253 0.05855646 0.022732852 0.010049387 0.0965599 0.11432937 -0.107401974
0.10660672 0.018402252 0.101226956 -0.084978715 0.06257594 0.04163678 -0.08639455 0.105732486
0.074266106 0.032620456 -0.054660864 0.008820363 -0.07986507 -0.11278256 0.06492084 -0.07120531
-0.053310797 -0.12202276 -0.15518758 -0.096781164 0.015003396 0.031449247 0.14386739 0.05955089
-0.09637033 -0.050903946 -0.089957 -0.08551114 0.18840542 0.014028305 0.15802005 0.10130664
0.1146428 -0.11800639 -0.072485425 0.0530379 0.0071625886 0.045641825 -0.120028555 -0.043207597
-0.0006572902 0.03815882 -0.1046668 0.08544 -0.08637886 -0.09787538 0.05530055 0.044802994
0.032457683 -0.027719961 0.11176363 0.06992427 -0.030784562 -0.035375103 -0.057186436 -0.08004382
-0.11444456 -0.005036831 -0.0574885 -0.074972 0.081019 0.025218802 0.05210628 -0.11037235
-0.042956334 -0.027240962 0.11991139 -0.10345897 0.0941761 0.048491497 0.09046362 -0.01738973
-0.06940331 0.074082166 0.09052045 0.028807249 -0.039734915 0.116543956 0.11434671 -0.09304394
0.03465928 0.03292954 -0.09216337 0.041232407 0.102171764 0.120915815 0.008428109 -0.12365836
-0.004600346 -0.09825431 0.06600897 -0.013385057 -0.065406956 -0.08124788 0.11777953 -0.12040863

bias f4 [32]
00000000: 93a7 85bd 516e 05bd 27e2 843d 5223 dfbc
00000010: 0966 11bd 26f8 703d d9cb 17bc 61d4 a83d
00000020: 183f eabc 8563 a6bd a276 683d 8a87 e13d
00000030: 16ce babd f3ec eabd 807a c43d 70f8 c0bd
00000040: bc79 343d 69ee aa3d 471e c53d 81fc 87bd
00000050: 2495 f83b 7bfb 803d a018 463c 8d36 223d
00000060: 178b 123d 7db1 fe3d 9b3e 1d3d 6c06 c83c
00000070: 1de1 1d3e 51f3 523d 3fe7 163e 31b7 c5bd
-0.06526103 -0.03257591 0.06488448 -0.027238522 -0.0354977 0.058830403 -0.00926491 0.08243633
-0.028594539 -0.081244506 0.056753762 0.1101218 -0.09121339 -0.11470976 0.095936775 -0.09422386
0.044061407 0.083462544 0.096249156 -0.06639958 0.0075861383 0.06297966 0.012090832 0.039602805
0.035777178 0.12436197 0.038389783 0.024417125 0.15417905 0.051501576 0.14736651 -0.096540816

weight f4 [2, 32]
00000000: 5112 05bd 1d8f ec3d d435 25be 4d6e 423e
00000010: c901 f53a 3832 82bd 3910 2d3e 1258 15be
00000020: e534 623e c239 d13d 4ff0 c7bd 05ba 8d3c
00000030: 4425 06be a16b 7dbd 2dc0 e0bd fe54 01be
00000040: ef81 033e 2d79 273e ce3f adbd 6959 2ebd
00000050: 47ed 5f3e 6b6e 123e 3629 743e 297b 0cbd
00000060: f8ca e6bc 766e 3a3e d236 3fbd 08c9 06bc
00000070: 3e00 a3bd 4ae4 2c3d 20e0 fd3d 30e9 e23d
00000080: c2c5 513e 6b8e 053e 550e 0fbc 45eb 5cbe
00000090: 7809 223d 2225 f23c e524 06be 7893 6b3d
000000a0: 9ec7 5c3c da1b e93d a0c1 5abd 9b40 373e
000000b0: fbc5 d8bc e993 98bd 2f06 bcbd 2f80 b4bd
000000c0: 6eba 0d3e 41bb 1dbe 83df eabd 290c ffbc
000000d0: a29a d3bd 48c7 87bd 82bd a23d 4707 d7bd
000000e0: 0a3a b0bd 7cf0 50be 8418 723d 9aef 98be
000000f0: 1710 f33d b0d0 0bbe ead1 9f3d 3948 b1bd
-0.03248817 0.11550734 -0.16133815 0.18987389 0.0018692549 -0.06357235 0.1690072 -0.14584377
0.2209049 0.102160946 -0.09762632 0.017300615 -0.13100153 -0.06187022 -0.109741546 -0.12630078
0.12842534 0.16354819 -0.084594354 -0.042565737 0.21867858 0.14299934 0.23843846 -0.034297142
-0.028172955 0.182062 -0.04668314 -0.0082266405 -0.079590306 0.0422099 0.12396264 0.11079633
0.20485595 0.1304261 -0.008731444 -0.21574123 0.03955981 0.029558722 -0.13100012 0.057513684
0.013475327 0.113822654 -0.05340731 0.17895739 -0.026461592 -0.074500866 -0.09180867 -0.088135116
0.13840649 -0.15403463 -0.11468413 -0.031133728 -0.10332228 -0.06629807 0.07946302 -0.10499435
-0.0860482 -0.20404238 0.05910541 -0.298703 0.11868303 -0.13653827 0.0780371 -0.086563535

bias f4 [2]
00000000: 3c3c 88bd 64d6 973c
-0.06652114 0.018534847
