2023/baseline0806/model/WLTP_trained_0822/PPO_actorcritic_59episode.pt (torch, 101527 bytes, 17 tensors)

weight f4 [128, 7]
0	0xbe76d815	-0.24105866
1	0xbeaa78b6	-0.3329522
2	0x3e864e08	0.26231408
3	0xbed2e805	-0.41192642
4	0xbe81bd8f	-0.25339934
5	0x3ec84998	0.39118648
6	0x3eb98a24	0.36238205
7	0xbd25ce1e	-0.04047977
8	0xbe39b0ac	-0.18133801
9	0x3dadfb07	0.08495145
10	0xbe8efc21	-0.27926734
11	0xbe0c1b93	-0.13682394
12	0xbeb979ee	-0.36225837
13	0xbe9a61b6	-0.30152673
14	0x3dd5f02a	0.10446198
15	0xbe116dbd	-0.14202018
16	0xbe2bb904	-0.16769797
17	0x3d62776c	0.05528967
18	0x3e9ab888	0.3021891
19	0x3ec804c8	0.39066148
20	0x3d9db4c4	0.07700494
21	0xbe98ce71	-0.29845002
22	0xbe79e5c7	-0.2440406
23	0xbe713614	-0.23555785
24	0xbdb8509d	-0.08999751
25	0xbe49e46e	-0.19716045
26	0x3e8e704b	0.27820048
27	0x3ed11f28	0.40844083
28	0x3dd826f8	0.10554308
29	0xbe3be774	-0.18350011
30	0xbec5318b	-0.3851436
31	0x3daa22f4	0.08307448
32	0x3d3f0c8c	0.046642825
33	0x3e41a118	0.18909109
34	0xbc22f362	-0.009945722
35	0xbd011628	-0.03151527
36	0xbdcdb69b	-0.10044595
37	0xbe72f6d9	-0.23726977
38	0xbd99d224	-0.07510784
39	0x3e588d4f	0.21147655
40	0x3e1b17e6	0.15145835
41	0x3eac58c4	0.33661473
42	0xbeada894	-0.33917677
43	0xbe81e30c	-0.25368536
44	0xbead099a	-0.33796388
45	0x3c4285f4	0.011872757
46	0xbe8d5075	-0.27600446
47	0xbe1560c1	-0.1458769
48	0xbb9ac17b	-0.0047227717
49	0x3dbb58f0	0.09147823
50	0xbead71df	-0.3387594
51	0x3eb7e237	0.35914776
52	0x3e9dc1e4	0.3081199
53	0x3e7c1324	0.24616677
54	0xbebfee8e	-0.3748669
55	0xbcb5edb0	-0.022208065
56	0x3edd3a66	0.43208617
57	0xbd326225	-0.04355063
58	0xbe8e511d	-0.2779626
59	0xbc45bdeb	-0.012069206
60	0x3f0ad401	0.5422974
61	0xbe7f9744	-0.24960047
62	0x3cd9dfde	0.026596006
63	0x3eac0c28	0.33603024
64	0xbe6d8e3a	-0.23198786
65	0xbeb6ded4	-0.3571688
66	0xbecada69	-0.3961976
67	0xbe356ede	-0.17718074
68	0x3eb9f177	0.36317036
69	0x3ea288b2	0.31744915
70	0x3e9b4107	0.3032305
71	0x3e855603	0.26042184
72	0x3d9ba6b9	0.07600159
73	0x3e240221	0.16016437
74	0xbeb2875b	-0.34868893
75	0x3d0e6370	0.0347628
76	0x3d744d72	0.05964417
77	0x3b159059	0.0022821634
78	0x3edd04f8	0.43167853
79	0x3e4b5dae	0.19859955
80	0xbdb964cd	-0.09052429
81	0x3e68533e	0.22688004
82	0xbd24efd3	-0.040267777
83	0xbda3bf5a	-0.07995482
84	0xbe8090b3	-0.25110397
85	0xbe9efb48	-0.31051087
86	0x3e88a028	0.2668469
87	0xbebaef21	-0.36510566
88	0x3e666749	0.22500338
89	0xbe10697b	-0.14102738
90	0x3e614d3c	0.22002119
91	0x3e7ca86a	0.2467362
92	0x3e3c21d2	0.18372276
93	0x3e9fb697	0.31193992
94	0x3d191097	0.037369337
95	0xbe30f089	-0.17279257
96	0xbe11c80b	-0.14236467
97	0xbe8fc14a	-0.28077155
98	0x3b41a0ee	0.0029545384
99	0x3cdfa0c0	0.027298331
100	0x3ddc0b1a	0.10744305
101	0x3cef4aa9	0.029210405
102	0xbd32b4b8	-0.043629378
103	0x3e443378	0.19160259
104	0xbe56ac4e	-0.20964167
105	0x3e4fa562	0.20277932
106	0xbe8490a2	-0.25891596
107	0xbc0bf647	-0.008542604
108	0x3e34ed14	0.17668563
109	0xbd27c873	-0.040962648
110	0x3e98a9a4	0.29816926
111	0xbe7d17a9	-0.24716057
112	0xbe496362	-0.19666818
113	0xbeb37e19	-0.35057142
114	0xbe64cdf5	-0.22344191
115	0x3e8d96a1	0.27653983
116	0x3dcdb60d	0.10044489
117	0xbe015d09	-0.12633146
118	0x3d17a160	0.037019134
119	0xbe12c7b4	-0.14333993
120	0x3f06a6c3	0.5259821
121	0xbd959e37	-0.07305568
122	0x3ef53f0d	0.47899666
123	0xbe855879	-0.26044062
124	0xbdfc473b	-0.12318274
125	0xbe3f62fb	-0.18690102
126	0x3ebc055a	0.36722833
127	0xbe24a86c	-0.16079873
128	0x3d71f79e	0.059074037
129	0xbec828a2	-0.390935
130	0xbea1eb5f	-0.31624886
131	0xbe80b487	-0.2513773
132	0xbe79e99e	-0.24405524
133	0xbe1da79e	-0.15395972
134	0xbe9449a4	-0.28962433
135	0xbcbd3ca7	-0.02310021
136	0xbe85cb21	-0.26131538
137	0x3de75919	0.11296291
138	0xbd9b2488	-0.07575327
139	0xbd808b07	-0.06276517
140	0x3eaf4c43	0.3423787
141	0xbe366584	-0.17812163
142	0x3dece653	0.11567368
143	0x3c98bfda	0.01864617
144	0x3b084e6f	0.0020798703
145	0x3eb39927	0.35077783
146	0x3eaaa91d	0.33332148
147	0xbdbdf109	-0.092744894
148	0x3c52bff9	0.012863153
149	0xbda1ef9d	-0.07907031
150	0xbdf31a73	-0.11870279
151	0x3c45decc	0.012077045
152	0xbe53c8bf	-0.20682047
153	0x3d91f8f2	0.07127561
154	0xbeb1915a	-0.34681207
155	0x3d07d043	0.0331576
156	0x3e77b126	0.2418867
157	0xbdec586e	-0.11540304
158	0xbca727ab	-0.020404657
159	0xbe18c4a2	-0.1491876
160	0x3e87feeb	0.26561674
161	0x3e91f15e	0.2850446
162	0xbe0965a7	-0.13417684
163	0x3e4d5f9c	0.20056003
164	0x3e6e2c32	0.23259047
165	0x3cd98315	0.026551763
166	0x3eb1cbd0	0.3472581
167	0x3ed17a8c	0.40913808
168	0x3ec30008	0.3808596
169	0xbe9b5422	-0.30337626
170	0x3d704603	0.05866052
171	0xbeb74566	-0.35795134
172	0x3e9cf353	0.30654392
173	0xbdc41581	-0.09574414
174	0x3e9909c9	0.29890278
175	0x3d64d3c5	0.05586602
176	0x3d33460d	0.043767978
177	0xbeb32020	-0.34985447
178	0xbdd85ec9	-0.10564954
179	0xbd212390	-0.039340556
180	0x3e22385d	0.15841813
181	0xbe3f3bfa	-0.18675223
182	0x3e719dfb	0.23595421
183	0xbed3a837	-0.41339275
184	0x3e896b88	0.26839852
185	0xbe8fa9ac	-0.28059137
186	0xbe3a4c30	-0.18193126
187	0x3e810b5d	0.25203982
188	0x3e2e9bde	0.17051646
189	0x3ea590a7	0.32336923
190	0x3d2c3352	0.04204113
191	0x3e1d35ca	0.1535255
192	0x3e4b085f	0.19827412
193	0x3e813849	0.25238255
194	0xbe0f767e	-0.14010045
195	0x3e920a2b	0.28523383
196	0x3caf3792	0.021388803
197	0x3ec39515	0.38199678
198	0xbd0ad40d	-0.033893634
199	0x3e9eef36	0.31041878
200	0xbe7620cc	-0.24035949
201	0xbda956ed	-0.08268533
202	0x3e5ef8e6	0.21774635
203	0x3e94212a	0.28931552
204	0xbcb9721f	-0.022637425
205	0x3e12780c	0.14303607
206	0xbe8247b0	-0.25445318
207	0x3e1219a8	0.142676
208	0x3ebeeb57	0.37288925
209	0x3e341606	0.17586526
210	0xbdd7619b	-0.10516664
211	0xbe891203	-0.26771554
212	0xbdb316d6	-0.0874459
213	0x3d9265d6	0.0714833
214	0xbe8c9f85	-0.27465454
215	0x3e73a654	0.23793918
216	0x3e97fe8f	0.296864
217	0x3e36e57c	0.17860979
218	0xbe5f844a	-0.21827808
219	0x3dfe7bd7	0.12425964
220	0xbe148eb9	-0.1450757
221	0x3e6ce69b	0.23134844
222	0x3eb9e0d3	0.3630434
223	0x3e803f5e	0.25048345
224	0x3db74a4a	0.089497164
225	0xbe8f45f2	-0.27983052
226	0xbde31002	-0.110870376
227	0x3e9a3a60	0.30122662
228	0x3e92a35a	0.28640252
229	0xbe2eaa87	-0.17057239
230	0xbc7659bc	-0.015036043
231	0x3e637ad3	0.22214822
232	0x3d7b58cb	0.061363976
233	0x3d9b4a2c	0.075825065
234	0x3eae16cb	0.34001765
235	0x3e259bba	0.16172686
236	0xbe74f0c1	-0.23919965
237	0x3ea80156	0.3281352
238	0x3e12c455	0.14332707
239	0xbe987ecb	-0.29784235
240	0xbe24c240	-0.16089725
241	0xbe372871	-0.17886521
242	0x3e9b34e9	0.30313805
243	0xbe40a0be	-0.18811318
244	0x3d6832fe	0.056689255
245	0x3df89b14	0.12138954
246	0x3dc36ee8	0.09542638
247	0x3e7e430e	0.24830267
248	0xbdbef180	-0.09323406
249	0x3dc2cad3	0.09511342
250	0xbe6921a9	-0.22766747
251	0x3e9cea9d	0.30647746
252	0xbe579ecb	-0.21056668
253	0x3e90285d	0.28155795
254	0x3d5387ae	0.051643066
255	0x3e90d038	0.28283858

bias f4 [128]
0	0xbe3c9484	-0.18416029
1	0xbe7448f0	-0.23855948
2	0x3e42dbb8	0.19029129
3	0x3ed07495	0.40713945
4	0x3d684398	0.056705087
5	0xbe0e89d8	-0.1391977
6	0xbdd1db23	-0.10246875
7	0x3db6d9b1	0.0892824
8	0x3a482e48	0.0007636291
9	0x3ec5756c	0.38566148
10	0x3e95342a	0.2914136
11	0x3d91cc90	0.07119095
12	0x3dba2158	0.09088391
13	0x3e554783	0.20828061
14	0x3db5d853	0.08879151
15	0xbe172580	-0.14760399
16	0xbe4c695c	-0.19962066
17	0x3e4aba5a	0.1979765
18	0x3eb49fd6	0.35278195
19	0x3e4b9eb9	0.19884767
20	0xbd95793d	-0.07298515
21	0xbe9af27e	-0.30263132
22	0x3e5440f8	0.20727909
23	0xbe4d244e	-0.2003338
24	0xbd979da0	-0.074031115
25	0xbe910c02	-0.28329474
26	0xbdc5767e	-0.09641741
27	0x3d8228ab	0.06355413
28	0xbe942a1d	-0.2893838
29	0xbeb34076	-0.35010117
30	0x3e8f1f74	0.27953684
31	0xbb802524	-0.0039106775
32	0x3e98a880	0.29816055
33	0x3d6c5b34	0.057704166
34	0x3e963381	0.2933617
35	0xbe785ae1	-0.24253418
36	0xbe943c30	-0.2895217
37	0xbdcff75e	-0.101546034
38	0xbe4e5e16	-0.20153078
39	0xbd2407d3	-0.040046524
40	0xbe4237bf	-0.18966578
41	0xbecd1a23	-0.40059003
42	0xbbe38dc3	-0.0069443895
43	0xbd8f2251	-0.06988967
44	0xbe9246a2	-0.28569514
45	0xbcf9a270	-0.030472964
46	0xbe938fd6	-0.28820676
47	0x3e62b689	0.22139944
48	0xbe820c38	-0.25399947
49	0xbdd5678c	-0.104201406
50	0x3e5cb9a4	0.21555191
51	0x3ebfbb84	0.3744775
52	0x3c8a4357	0.016877813
53	0xbea3e590	-0.3201108
54	0xbe14707b	-0.14496033
55	0x3e52f168	0.20599902
56	0x3e945dce	0.28977817
57	0x3e76a7b7	0.24087416
58	0xbd8cce8b	-0.068753324
59	0xbeb3824c	-0.35060346
60	0xbeaa42f2	-0.332542
61	0x3e077216	0.13227114
62	0x39b180f4	0.00033856148
63	0x3e8dfff8	0.2773435
64	0x3e93d05e	0.2886991
65	0xbe46d36c	-0.19416589
66	0xbeb5f34f	-0.35537192
67	0xbe56669c	-0.2093758
68	0x3ebed715	0.3727347
69	0x3db36110	0.087587476
70	0x3de91dbb	0.11382624
71	0xbd06c1b3	-0.03289957
72	0xbe791eee	-0.24328205
73	0x3ea3acc5	0.3196775
74	0x3d9be946	0.07612853
75	0xbd80a622	-0.06281687
76	0x3e12ec13	0.14347868
77	0x3e9254a9	0.28580216
78	0xbdd0d318	-0.10196513
79	0x3e959a37	0.2921922
80	0x3e95103c	0.29113948
81	0x3e915efe	0.28392786
82	0x3e298b1b	0.16556971
83	0xbe84326b	-0.25819716
84	0xbe0aff2a	-0.135739
85	0xbdfb94ae	-0.12284218
86	0xbe9bc43c	-0.30423152
87	0xbe571ff9	-0.2100829
88	0xbeaca55f	-0.33719918
89	0xbe1b45f1	-0.151634
90	0x3ebbcb8f	0.3667874
91	0x3e89253b	0.26786217
92	0x3eb19e94	0.34691298
93	0x3eced4e7	0.40396807
94	0x3db696f2	0.08915509
95	0xbe9900be	-0.2988338
96	0x3e05d2fd	0.13068767
97	0x3e85e0f9	0.26148203
98	0x3e08b5bf	0.1335058
99	0xbea76f87	-0.32702276
100	0x3ec7b63f	0.3900623
101	0x3e8ab100	0.27088165
102	0x3e3cd392	0.18440083
103	0x3eb3bfde	0.3510732
104	0xbe559f68	-0.2086159
105	0x3c943f09	0.018096464
106	0x3da4916b	0.08035549
107	0xbe1c4111	-0.15259196
108	0xbe21f732	-0.15816954
109	0x3dd6089f	0.10450863
110	0x3d59b2e8	0.053149134
111	0xbe8075bd	-0.25089827
112	0xbeaceb64	-0.3377334
113	0x3bf54565	0.007485079
114	0x3e9c70ee	0.3055491
115	0x3ca51fd5	0.02015678
116	0xbe1b0c6f	-0.15141462
117	0x3e5cf805	0.21578987
118	0x3e82d8dd	0.2555608
119	0xbe1c8204	-0.15283972
120	0x3e811f35	0.25219122
121	0xbdad8c30	-0.08474004
122	0xbe1b7717	-0.15182148
123	0x3e7d2cb2	0.24724081
124	0x3e3b7f04	0.18310171
125	0xbe6dbd93	-0.23216848
126	0x3e9efbe6	0.31051558
127	0xbe8b182a	-0.27166873

weight f4 [64, 128]
0	0xbce2f1fe	-0.027703281
1	0x3dacf6fd	0.08445547
2	0x3b0de19a	0.0021649362
3	0x3d3f6269	0.04672471
4	0x3d78fee7	0.06078997
5	0xbd73637f	-0.05942106
6	0x3dae3d81	0.08507825
7	0xbcc479be	-0.023983832
8	0xbda2e8d5	-0.079545654
9	0xbd6d833d	-0.057986487
10	0x3c4a1c1b	0.012335802
11	0x3db46466	0.08808212
12	0xbcb37454	-0.021906056
13	0x3cb3499e	0.02188569
14	0xbda52a74	-0.08064738
15	0x3c87d109	0.016579168
16	0x3c5e8770	0.0135820955
17	0xbd93189d	-0.07182429
18	0xbce8a4bb	-0.028398862
19	0xbd0b068a	-0.033941783
20	0xbd167944	-0.03673674
21	0x3d897135	0.06711046
22	0xbc037424	-0.008023296
23	0xbd609658	-0.05483088
24	0x3cbc3888	0.022976175
25	0x3d2871f2	0.04112429
26	0x3d09e9bb	0.03367017
27	0x3bfaad90	0.007650085
28	0xbc29cb88	-0.010363467
29	0xbd88c4d8	-0.0667817
30	0xbd6d649d	-0.05795728
31	0x3d6dc48c	0.05804877
32	0x3d9e73ed	0.07736955
33	0xbcee4242	-0.029084329
34	0xbb2f0ba7	-0.0026709826
35	0xbd82c569	-0.06385309
36	0xbb3dcb40	-0.0028960258
37	0xbda050a0	-0.07827878
38	0x3db11610	0.08646786
39	0x3cc83ed5	0.024444023
40	0xbcca2224	-0.024674483
41	0x3c9d3b15	0.019193212
42	0x3d7878aa	0.06066195
43	0x3cae75cb	0.021296402
44	0x3da9c376	0.08289234
45	0xbd134f98	-0.03596458
46	0xbc55c9b6	-0.01304858
47	0xbd9bdb84	-0.07610229
48	0x3d9ab47b	0.07553955
49	0xbd9ed4a6	-0.07755403
50	0xba44b6bb	-0.00075040356
51	0xbd6cb997	-0.05779418
52	0xbd1afd5a	-0.03783927
53	0x3d71d659	0.05904231
54	0xbcd9e33c	-0.026597612
55	0x3d9f5263	0.07779386
56	0x3d1a653c	0.0376942
57	0xbd7bc64c	-0.061468408
58	0xbced5363	-0.028970426
59	0xbd6d733b	-0.05797122
60	0xbd9049d8	-0.070453346
61	0xbba95c84	-0.0051684994
62	0xbd6fa997	-0.058511343
63	0xbd864e07	-0.06557851
64	0xbd37dfd2	-0.044891186
65	0x3daae01f	0.08343529
66	0x3d99a665	0.0750244
67	0x3d5838b7	0.052788462
68	0x3d2ac872	0.041695066
69	0x3d20ca33	0.039255332
70	0xbb155012	-0.0022783321
71	0x3d8cc04a	0.06872614
72	0x3d64f5cb	0.05589847
73	0x3d548652	0.05188591
74	0x3c733849	0.014844962
75	0xbdaddb03	-0.08489039
76	0xbd82a29b	-0.06378671
77	0x3c9a733f	0.018853782
78	0xbd92847f	-0.07154178
79	0xbd8689f0	-0.06569278
80	0x3d10fc52	0.03539688
81	0xbd30d1dc	-0.043168887
82	0xbd893d65	-0.06701163
83	0xbceb7f8c	-0.028747343
84	0xbb96e856	-0.0046053333
85	0xbccd2614	-0.025042571
86	0xbd2299eb	-0.03969757
87	0x3d7a1a8d	0.061060477
88	0x3cf28301	0.029603483
89	0x3daa7476	0.083229944
90	0xbd0fbbc0	-0.03509116
91	0x3caca50c	0.021074794
92	0xbd0ed4a0	-0.034870744
93	0x3d9f11cf	0.077670686
94	0x3d3502da	0.044192173
95	0xbcaa0332	-0.020753477
96	0x3cefb4d3	0.029261028
97	0x3cb3d53a	0.02195226
98	0xbb165e5d	-0.0022944428
99	0xbd528fc4	-0.051406637
100	0x3bb593e0	0.0055413097
101	0x3cde6f8d	0.027152801
102	0xbbbca721	-0.005757228
103	0x3d00e7d0	0.031471074
104	0x3d418896	0.0472494
105	0x3d6e0ce7	0.058117773
106	0xbc8f9cfa	-0.017530907
107	0xbc8b4f5f	-0.01700562
108	0x3d4f4b04	0.05060865
109	0xbd90caf2	-0.07069959
110	0x3da7bdc3	0.08190491
111	0x3cc5f9f7	0.024167044
112	0x3cc54fa4	0.024085827
113	0x3d037e0d	0.032102633
114	0xbd61c2aa	-0.055117287
115	0xbd96305a	-0.07333441
116	0xbd37ce52	-0.044874497
117	0x3c9dcbe8	0.01926227
118	0x3a9542fd	0.0011387762
119	0xbd522049	-0.05130032
120	0xbd032da9	-0.032025967
121	0x3d8ee04d	0.06976376
122	0x3c33715e	0.010952322
123	0xbc705069	-0.014667609
124	0xbd134ee0	-0.035963893
125	0xbd5e7716	-0.054312788
126	0xbd93b598	-0.07212371
127	0x3d6bf3db	0.057605606
128	0x3d58cc61	0.052929286
129	0x3dab4e19	0.08364505
130	0xbd78a6a5	-0.0607058
131	0xbcb54644	-0.022128232
132	0xbd1426f8	-0.036169976
133	0x3b095161	0.0020953047
134	0xbd47d91c	-0.048791036
135	0x3cb5da6e	0.022198882
136	0x3b369778	0.0027861279
137	0x3d24b07e	0.04020738
138	0xbc94b8bd	-0.018154496
139	0xbd271f8d	-0.040801574
140	0xbc3ce154	-0.011528332
141	0xbd1e2193	-0.038606238
142	0xbbd660ad	-0.0065422864
143	0xbc8c2ef9	-0.017112242
144	0x3d2ab7a1	0.04167903
145	0x3d19c1dc	0.037538394
146	0xbd827208	-0.06369406
147	0x3cde37b6	0.027126174
148	0x3d971065	0.07376174
149	0x3db1b977	0.08677953
150	0xbc99dae3	-0.018781131
151	0x3cfb34a8	0.030664757
152	0xbd61d575	-0.05513521
153	0x3d77339a	0.060351945
154	0x3ba93a9e	0.0051644584
155	0x3d494c00	0.049144745
156	0x3d7e30e4	0.062058344
157	0xbd3b7bd1	-0.045772377
158	0x3d84f669	0.064923115
159	0x3d001393	0.031268667
160	0xbd2a1215	-0.04152115
161	0xbd93a37e	-0.07208918
162	0x3d050772	0.032477804
163	0x3d5cb1b3	0.053880405
164	0x3d9f0457	0.077645
165	0x3da63d9c	0.0811722
166	0x3d74b2ad	0.05974071
167	0xbcdcac98	-0.026937768
168	0xbcecdf29	-0.028915005
169	0xbd31d33c	-0.04341434
170	0xbcb30dda	-0.02185719
171	0x3d7d89da	0.061899044
172	0x3dabbef0	0.08386028
173	0xbc6b5b8d	-0.014365089
174	0xbacc7ef7	-0.0015601803
175	0xbcbd941e	-0.023141917
176	0xbd95b76d	-0.07310376
177	0xbd5af3c5	-0.053455133
178	0x3d9c09fc	0.07619092
179	0xbd1febb2	-0.039043136
180	0x3ce19627	0.027537419
181	0x3cd77dff	0.026305197
182	0xbd907514	-0.07053581
183	0xbd232389	-0.03982881
184	0xbd74e5fd	-0.059789646
185	0xbadd851f	-0.0016900635
186	0x3cecc082	0.028900389
187	0x3d6bb2a8	0.057543427
188	0x3d5b380c	0.053520247
189	0xbd87fb8a	-0.06639774
190	0x3d008d7b	0.031384926
191	0x3d5e2ec9	0.054243837
192	0x3cff47d7	0.031162186
193	0x3da3031c	0.079595774
194	0xbd34805e	-0.044067733
195	0xbdad9f38	-0.08477634
196	0xbd88b8e1	-0.06675888
197	0x3c8b3223	0.01699168
198	0x3da45bad	0.08025298
199	0x3d2e3c95	0.042538244
200	0xbc97a73c	-0.01851236
201	0xbd3971ae	-0.04527443
202	0x3d3e7752	0.04650051
203	0x3d26724f	0.040636357
204	0x3d853a00	0.06505203
205	0xbd9eaab0	-0.077474
206	0xbd3d0d6f	-0.04615539
207	0x3cd6d927	0.026226593
208	0xbbf4ecbc	-0.00747451
209	0x3d264560	0.040593505
210	0xbce716ea	-0.028209168
211	0xbd943f4a	-0.07238634
212	0x3d9f3aa8	0.0777486
213	0x3b88d264	0.004175471
214	0xbcc27c8f	-0.023741035
215	0xbdb0d97a	-0.0863523
216	0x3d8875d0	0.06663096
217	0x3a099cc4	0.0005249495
218	0xbbba1415	-0.0056786635
219	0xbd973084	-0.073823005
220	0xbd1a3964	-0.03765239
221	0xbd9c2b42	-0.07625438
222	0xbc2fb522	-0.010724338
223	0x3b498ac1	0.003075287
224	0x3caf910e	0.021431472
225	0x3d693961	0.056939486
226	0x3c5dad08	0.013530023
227	0xbda72840	-0.08161974
228	0xbd259c4f	-0.04043227
229	0xbc6b127c	-0.014347669
230	0xbd994b41	-0.07485057
231	0x3da09e04	0.07842639
232	0xbcd69c4c	-0.026197575
233	0xbd43166a	-0.047628798
234	0xbc122620	-0.0089202225
235	0xbd441363	-0.04787005
236	0x3c4ca171	0.0124896625
237	0x3d59334b	0.053027432
238	0xbd9e89ef	-0.077411525
239	0x3d7a252e	0.061070614
240	0x3db18f3a	0.086698964
241	0x3c488ac8	0.012240119
242	0x3d16e5df	0.036840316
243	0xbd9668da	-0.073442176
244	0xbd00b9fa	-0.03142736
245	0x3db2d2b9	0.087315984
246	0x3b149afb	0.0022675383
247	0x3d34045e	0.043949477
248	0xbd7cd4b7	-0.0617263
249	0xbd62ee83	-0.055403244
250	0x3d27a0a4	0.040924683
251	0xbbb0bff0	-0.0053939745
252	0x3d1aa0e7	0.037751105
253	0x3dac74ec	0.084207386
254	0x3d7b1aab	0.06130473
255	0x3d2b0720	0.04175484

bias f4 [64]
0	0xbd944fc6	-0.07241778
1	0xbcce523b	-0.025185695
2	0x3d9aa676	0.07551281
3	0x3d9a5e27	0.075374894
4	0x3cf8e809	0.03038408
5	0x3d6e955f	0.05824792
6	0x3d2cd9ae	0.042199783
7	0x3ddb54cb	0.10709532
8	0xbaa18653	-0.0012323357
9	0xbceb90e0	-0.028755605
10	0x3cf7753d	0.03020727
11	0xbbbb6e94	-0.005719969
12	0x3d8d1df1	0.068904765
13	0x3d2b3ca9	0.041805897
14	0x3c4a67ec	0.0123538785
15	0x3b970272	0.004608446
16	0x3cb79dfd	0.022414202
17	0x3ca4b16f	0.020104138
18	0x3d2d9504	0.04237844
19	0x3badf1af	0.005308352
20	0x3dc8d727	0.09806662
21	0x3b3c3732	0.0028719422
22	0xbb8c74f1	-0.0042864014
23	0xbb57205a	-0.003282568
24	0xbc20088e	-0.009767665
25	0xbcdf3c86	-0.02725054
26	0xbd215456	-0.03938707
27	0xbd01cd8e	-0.031690173
28	0x3d3386cd	0.043829728
29	0xbd28977b	-0.041160088
30	0x3c34fe95	0.011047025
31	0xbcbeba23	-0.023282116
32	0x3d5fa0b8	0.054596633
33	0x3d72de95	0.059294302
34	0x3d077e3f	0.033079382
35	0xbc714b67	-0.01472745
36	0x3d7ba5b7	0.061437335
37	0xbdb0b8b8	-0.08628982
38	0x3d6bac32	0.057537265
39	0xbdb3ac09	-0.087730475
40	0xbc57fd2f	-0.013182922
41	0x3d5ed509	0.054402385
42	0x3d66b482	0.05632449
43	0xbdae31dd	-0.085056044
44	0x3d5b6b5b	0.05356918
45	0x3d00cc1b	0.03144465
46	0x3d0905f9	0.03345296
47	0x3dc41aac	0.095754
48	0xbce51a26	-0.02796657
49	0x3d7cb501	0.061696056
50	0xbcfb24e2	-0.030657236
51	0x3d966e62	0.073452726
52	0x3caf0856	0.02136628
53	0xbd8e7c66	-0.06957321
54	0xbc4e2d37	-0.012584022
55	0x3ded9a22	0.11601664
56	0x3d823e47	0.06359535
57	0x3e0d65ed	0.13808413
58	0x3d38af84	0.04508926
59	0xbd84de81	-0.06487752
60	0x3c98a0a2	0.018631283
61	0xbd2c4382	-0.042056568
62	0x3cd90bbd	0.026494855
63	0x3e0442f0	0.1291616

weight f4 [32, 64]
0	0x3d3f3990	0.046685755
1	0xbdb74a9c	-0.089497775
2	0x3e0f88a9	0.14016975
3	0xbbfda824	-0.007740991
4	0xbd47c2b8	-0.048769683
5	0x3dba08e1	0.09083725
6	0x3df81585	0.121134795
7	0xbcff00a7	-0.03112824
8	0x3dec1343	0.115271114
9	0x3cf592bf	0.0299772
10	0x3e0086df	0.12551449
11	0x3df3a641	0.11896945
12	0x3db667a0	0.08906484
13	0x3e06066f	0.13088392
14	0xbd83013f	-0.06396722
15	0x3dbbf964	0.09178427
16	0xbd80ddfe	-0.06292342
17	0xbd8ddda9	-0.06927044
18	0x3d6f5c78	0.058437794
19	0xbdfd69da	-0.12373705
20	0xbdc64c4d	-0.09682522
21	0xbdeeeb65	-0.11665992
22	0xbdc271d9	-0.09494371
23	0x3d8b8e4f	0.068142526
24	0xbe03ac1c	-0.12858623
25	0x3d161e32	0.03664989
26	0x3dc95097	0.098298244
27	0x3e00ff7f	0.12597464
28	0xbe5d809d	-0.21631093
29	0x3dd999af	0.10625016
30	0x3d9c616c	0.07635769
31	0x3d9abcd3	0.075555466
32	0x3c0b0b29	0.0084865475
33	0x3e086660	0.13320303
34	0xbdcb996a	-0.09941371
35	0xbd4cf41b	-0.050037485
36	0xbdaa5b46	-0.0831819
37	0xbb243cc0	-0.0025060624
38	0x3d005ffb	0.031341534
39	0xbd31ae34	-0.043379024
40	0xbc053e15	-0.008132477
41	0x3d89067e	0.066906914
42	0xbd0e2e09	-0.03471187
43	0xbd7f404c	-0.062317178
44	0xbd895087	-0.067048125
45	0xbcb306be	-0.0218538
46	0x3d89a6c1	0.06721259
47	0x3dbc55b9	0.09196038
48	0x3afdf9b0	0.0019376781
49	0xbd24de24	-0.040250912
50	0xbdc14bf1	-0.09438313
51	0xbdc14267	-0.09436493
52	0xbdc4e49e	-0.09613918
53	0xbc1159d0	-0.008871511
54	0x3d594271	0.05304188
55	0x3cb4f9b7	0.02209173
56	0x3d9d9275	0.0769395
57	0xbd3ecba0	-0.04658091
58	0xbda5f22a	-0.0810283
59	0xbc2d4f67	-0.010578013
60	0xbd8a9d7e	-0.067683205
61	0x3dabb420	0.083839655
62	0x3dfcdd5f	0.12346911
63	0x3d9d9f8e	0.07696448
64	0xbc6c47c0	-0.014421403
65	0xbc95cbd9	-0.018285679
66	0x3dc440a2	0.0958264
67	0x3e1e032d	0.15430899
68	0x397ae87e	0.00023928468
69	0xbdacb4e7	-0.08432942
70	0x3d2ed357	0.042682018
71	0xbe36e343	-0.17860131
72	0x3d02e6dd	0.03195845
73	0x3dae0b59	0.08498258
74	0xbd47f081	-0.048813347
75	0xbce1ea23	-0.027577465
76	0x3d8c95b6	0.068644926
77	0x3d6283c6	0.05530145
78	0xbddb72f1	-0.10715283
79	0x3d052f23	0.032515656
80	0xbe318c6d	-0.17338724
81	0xbdd42a0d	-0.10359583
82	0xbce210f0	-0.027595967
83	0x3df913b0	0.12161958
84	0x3e24245f	0.160295
85	0xbd37ad75	-0.044843156
86	0x3d8b01cf	0.06787454
87	0x3cc881f0	0.024476022
88	0xbe05a0dd	-0.13049646
89	0xbd3bb5b0	-0.045827568
90	0xbcad2c4b	-0.021139285
91	0x3d246c2e	0.04014223
92	0x3e10bbe2	0.14134172
93	0x3d884255	0.06653277
94	0xbb4c1a37	-0.0031143555
95	0x3ddc17ba	0.10746713
96	0x3dbb3e44	0.091427356
97	0x3d74b837	0.059745993
98	0xbdb397c5	-0.08769182
99	0x3d569b67	0.052394297
100	0x3dc1daf1	0.09465588
101	0xbd2333f4	-0.03984447
102	0x3dad66d5	0.08466879
103	0xbd6fdc82	-0.058559902
104	0x3cd7882f	0.026310055
105	0x3dbdd76d	0.09269605
106	0xbd9629d1	-0.073321946
107	0x3ca61198	0.020272061
108	0xbdcf5d8c	-0.101252645
109	0x3de655cd	0.11246834
110	0xbc8557e1	-0.016277255
111	0x3d2bf8c2	0.04198528
112	0x3e12d591	0.14339282
113	0x3c297f8f	0.010345354
114	0xbd6ab58b	-0.05730204
115	0x3d67f2cb	0.05662803
116	0xbdacbffd	-0.08435056
117	0x3d4e74f2	0.050404496
118	0xbb804029	-0.0039138985
119	0xbc062c3e	-0.008189259
120	0xbe9459b0	-0.28974676
121	0xbe978d9e	-0.29600233
122	0x3e06a7bd	0.13149925
123	0x3d75a73c	0.05997394
124	0x3d1978c3	0.037468683
125	0x3cef2ee0	0.029197156
126	0xbd8b0e52	-0.06789841
127	0x3e044014	0.12915069
128	0x3dcb3b92	0.099234715
129	0x3cc4eb68	0.024038032
130	0xbd938252	-0.07202591
131	0xbdd6af4d	-0.10482655
132	0x3dc25e0e	0.09490596
133	0xbd9b8c2d	-0.07595096
134	0x3caa6376	0.02079938
135	0xbdc2c1d2	-0.095096245
136	0xbddd8e76	-0.10818188
137	0xbd3959cb	-0.04525165
138	0xbde97660	-0.11399531
139	0xbdee12c4	-0.11624673
140	0xbd9ef2aa	-0.07761128
141	0x3d8dfb26	0.069326684
142	0xbd2b7adc	-0.041865215
143	0x3d56167c	0.052267537
144	0xbc3eed40	-0.0116532445
145	0xbdd8761a	-0.10569401
146	0x3daeaf16	0.08529489
147	0x3db45f14	0.08807197
148	0x3bf9748c	0.0076127704
149	0xbdf91394	-0.12161937
150	0xbd3ae5d8	-0.045629352
151	0xbd59053f	-0.05298352
152	0x3dcf4112	0.10119833
153	0x3d6312c1	0.055437807
154	0x3d4b31aa	0.04960791
155	0x3dac2878	0.08406156
156	0x3dde6689	0.10859401
157	0xbd06d31c	-0.032916173
158	0x3d8efac0	0.069814205
159	0x3dbd7d7c	0.0925245
160	0x3cfd73d0	0.030939013
161	0x3d0094c7	0.031391885
162	0xbdc4af53	-0.09603753
163	0x3d66e060	0.056366324
164	0x3cf42b80	0.029805899
165	0x3df1a278	0.117985666
166	0xbce09c78	-0.02741836
167	0x3d1771aa	0.036973633
168	0xbda29f59	-0.079405494
169	0xbde0954d	-0.10965977
170	0xbd338db4	-0.04383631
171	0x3db61c44	0.0889211
172	0x3dc217c0	0.09477186
173	0x3da92c46	0.082603976
174	0x3d8962da	0.067083076
175	0x3caf690f	0.0214124
176	0xbda80fca	-0.082061365
177	0xbc662ed0	-0.014049247
178	0x3d1cb2d8	0.038256496
179	0xbbfc169d	-0.0076931254
180	0xbd4c260a	-0.049840964
181	0x3d798e98	0.060927004
182	0x3c2dbbe0	0.010603875
183	0x3d7ffbc2	0.062495954
184	0xbc910d38	-0.017706499
185	0xbdb800d6	-0.089845344
186	0x3dc32817	0.09529131
187	0xbd17c958	-0.03705725
188	0xbdd95d48	-0.10613495
189	0xbdd6330c	-0.10458955
190	0xbdc4066a	-0.09571536
191	0xbdaa1787	-0.08305269
192	0xbdc37248	-0.09543282
193	0xbde300c3	-0.1108413
194	0x3cf2e3fd	0.029649729
195	0x3e3d19a3	0.18466811
196	0x3e129653	0.14315157
197	0x3e32b079	0.17450131
198	0xbde9dfd7	-0.11419647
199	0x3c48bbf4	0.012251843
200	0x3e16920b	0.14704148
201	0x3d09ea0f	0.03367048
202	0x3e28d5e8	0.16487849
203	0x3beba2ed	0.007191053
204	0x3c9b11cd	0.018929387
205	0xbc3e67b9	-0.011621409
206	0x3b99df0b	0.0046957782
207	0xbd81ea04	-0.06343463
208	0x3d6ef878	0.058342427
209	0xbde5418c	-0.11194143
210	0x3d6f84a3	0.0584761
211	0x3d600a6b	0.054697435
212	0x3ddc9557	0.10770672
213	0xbd504efc	-0.050856575
214	0xbd07ed6c	-0.033185408
215	0x3e33290a	0.17496124
216	0x3bd754a5	0.0065713697
217	0x3e02a002	0.1275635
218	0xbb894882	-0.004189552
219	0x3e33be86	0.17553148
220	0x3dd494d9	0.10379953
221	0xbdb9dd53	-0.09075417
222	0xbc3532a0	-0.011059433
223	0x3de47ce8	0.111566365
224	0xbd347c83	-0.044064056
225	0x3e149d52	0.14513138
226	0xbc1656c9	-0.009175965
227	0x3d30e6b6	0.043188773
228	0x3d493e0f	0.04913145
229	0xbd25fc40	-0.040523767
230	0x3d129a0e	0.03579145
231	0xbdbce1b6	-0.092227384
232	0x3ccc3201	0.024926187
233	0x3dde666c	0.10859379
234	0x3e0c1133	0.13678436
235	0x3cf16ac0	0.029469848
236	0x3da1272b	0.07868799
237	0x3d530668	0.05151978
238	0xbd82b2b4	-0.06381741
239	0x3db91ee3	0.09039094
240	0x3e32508e	0.17413542
241	0xbd887ffc	-0.06665036
242	0x3c3e7f38	0.011627011
243	0xbcd3c0d6	-0.025848787
244	0xbba876d4	-0.0051411185
245	0x3d9552d9	0.072911926
246	0x3d95d3d7	0.07315796
247	0xbd4a5e2e	-0.049406223
248	0x3e4f0f5b	0.20220701
249	0x3e8b0ff7	0.27160618
250	0x3e122311	0.1427119
251	0xbdf53eca	-0.11974867
252	0x3dda2120	0.10650849
253	0xbdbbecd0	-0.09176028
254	0x3d5fedac	0.05467002
255	0x3e0bebd7	0.13664185

bias f4 [32]
0	0xbd91bbb3	-0.07115879
1	0x3dde7383	0.10861876
2	0xbd3f4672	-0.04669804
3	0x3dcde39c	0.10053179
4	0xbdb3e078	-0.087830484
5	0xbcad86d8	-0.021182463
6	0x3e2e6964	0.17032391
7	0x3df73f44	0.12072614
8	0x3e0c9f39	0.13732614
9	0xbc128221	-0.008942158
10	0xbc04bd99	-0.008101844
11	0x3d8c45fc	0.06849286
12	0x3c8c8ad3	0.01715604
13	0xbd0a4fbf	-0.033767458
14	0xbda08543	-0.07837918
15	0x3c52232b	0.0128257675
16	0xbe0d0471	-0.13771226
17	0xbd244a6d	-0.04011004
18	0x3daa64db	0.08320018
19	0x3c108b40	0.008822262
20	0x3e117120	0.1420331
21	0xbde6ad07	-0.11263471
22	0x3c84b564	0.016199775
23	0xbcf366a4	-0.029712029
24	0x3dfbda86	0.122975394
25	0x3dbc4994	0.091937214
26	0x3d7d7618	0.0618802
27	0xbba95ceb	-0.0051685474
28	0xbdad83e1	-0.084724195
29	0x3d18db61	0.03731859
30	0xbd9fb2b0	-0.07797754
31	0x3dc04036	0.09387247

weight f4 [128, 7]
0	0xbe797189	-0.24359716
1	0x3e526e4e	0.2054989
2	0xbd9a432b	-0.075323425
3	0x3e917dc3	0.2841626
4	0xbe4090aa	-0.18805185
5	0x3c9bb38f	0.019006519
6	0x3e23f007	0.16009532
7	0x3d3c048c	0.045902774
8	0xbea9e6a8	-0.3318379
9	0xbca9cc8f	-0.020727424
10	0x3e993ab2	0.29927593
11	0x3cf44e29	0.029822426
12	0xbb6729e6	-0.0035272776
13	0xbd7d043e	-0.061771624
14	0x3e5e5f64	0.21716076
15	0x3e58e4db	0.21181051
16	0xbe4a7bef	-0.1977384
17	0xbe851f8d	-0.26000634
18	0xbeb94de2	-0.36192232
19	0xbea41c49	-0.3205283
20	0x3e69d935	0.22836764
21	0xbec16b0b	-0.3777698
22	0xbd91528e	-0.07095824
23	0x3d9b3e94	0.07580295
24	0x3ec2395f	0.37934396
25	0x3e859db6	0.26096886
26	0x3d224653	0.039617848
27	0x3dfcf21e	0.12350868
28	0xbe694f72	-0.22784212
29	0xbdb8f41b	-0.090309344
30	0x3e9a731e	0.30165952
31	0xbe80b571	-0.2513843
32	0x3e866850	0.2625146
33	0xbdaac46f	-0.08338248
34	0xbe90bfd2	-0.28271347
35	0x3dd6b303	0.104833625
36	0x3e7c2a7c	0.24625582
37	0x3e704538	0.23463905
38	0x3e91e260	0.28493023
39	0x3eb052ce	0.34438175
40	0xbe7af18d	-0.24506207
41	0x3eac1b6b	0.33614668
42	0x3e7c421c	0.24634594
43	0x3e447021	0.19183399
44	0x3ec72db4	0.38902056
45	0xbe083f45	-0.13305385
46	0x3e6750e4	0.22589451
47	0xbe5d267a	-0.21596709
48	0x3e3d0ec9	0.18462671
49	0xbe498bfb	-0.19682305
50	0x3e8570f9	0.26062754
51	0xbe0c53c8	-0.13703835
52	0x3ea7ac3b	0.3274859
53	0xbe65da66	-0.22446594
54	0xbe822ef6	-0.25426453
55	0x3e96b98d	0.2943844
56	0xbeba3897	-0.363713
57	0xbe400ab8	-0.18754089
58	0xbe9bc471	-0.3042331
59	0x3e8d541a	0.27603227
60	0x3e93bb75	0.28853956
61	0x3e54af2d	0.2076995
62	0xbd45d22a	-0.04829613
63	0x3e670a4a	0.22562519
64	0x3e925c3d	0.28585997
65	0x3e34f402	0.17671207
66	0x3e9e60ce	0.3093323
67	0xbeab5602	-0.33464056
68	0x3c0c61d1	0.008568243
69	0xbe9c49bf	-0.30525014
70	0xbda72573	-0.0816144
71	0xbe9bc0d1	-0.30420545
72	0xbe99e138	-0.3005464
73	0xbea866cd	-0.3289093
74	0x3ea42ca3	0.32065305
75	0xbe3891c6	-0.18024358
76	0x3c4205e4	0.011842225
77	0x3eae3b6d	0.34029713
78	0x3e839351	0.2569833
79	0x3ca0f9f6	0.01965044
80	0xbc6a6e93	-0.0143085895
81	0xbcc2560c	-0.023722671
82	0xbe02eae6	-0.12784919
83	0x3da02f10	0.078214765
84	0xbe00a225	-0.12561853
85	0x3e05838d	0.13038464
86	0x3e7af4d7	0.24507461
87	0xbe754960	-0.23953772
88	0xbe500c27	-0.20317136
89	0xbe9d7deb	-0.3076013
90	0x3ea83139	0.32850054
91	0x3ec7b67b	0.3900641
92	0xbe0ef11f	-0.13959168
93	0xbdc4c949	-0.096087046
94	0xbe92f748	-0.28704286
95	0xbe9c853b	-0.30570397
96	0xbeb95340	-0.36196327
97	0x3d27e589	0.040990386
98	0xbc5177f3	-0.012784946
99	0x3ea5d3f5	0.32388273
100	0x3c0c013b	0.008545215
101	0x3eaef12d	0.34168378
102	0xbe816b7b	-0.25277314
103	0x3e041bf9	0.12901296
104	0xbea308e4	-0.3184272
105	0x3e9a69e3	0.3015891
106	0x3db0e9be	0.08638333
107	0x3e8e1421	0.27749732
108	0xbd71be5d	-0.059019435
109	0x3e8f9e1d	0.28050318
110	0x3ecf42e8	0.40480733
111	0xbe26e457	-0.16298042
112	0xbe788e2a	-0.24272981
113	0xbe98bbb4	-0.29830706
114	0x3e1ab0dc	0.15106529
115	0xbe1afdf1	-0.15135933
116	0x3b807166	0.003919768
117	0x3d950969	0.072771855
118	0xbe1cbfb2	-0.15307501
119	0xbeb71e30	-0.3576522
120	0xbe77f7a1	-0.24215557
121	0xbd8bb820	-0.068222284
122	0xbdf4278f	-0.11921608
123	0xbc69120a	-0.014225492
124	0xbea663bd	-0.3249797
125	0xbeb2535b	-0.3482922
126	0x3ece71e4	0.40321267
127	0x3e6e224f	0.23255275
128	0x3c158722	0.009126456
129	0xbe752b0f	-0.23942207
130	0x3de12677	0.10993665
131	0x3dceb6d2	0.10093464
132	0x3da439b9	0.08018822
133	0x3dfa6da0	0.122279406
134	0xbe286aa8	-0.16446936
135	0x3d1a53d3	0.037677597
136	0x3e28e6b9	0.16494264
137	0xbe5c0b05	-0.21488579
138	0x3ea1318c	0.31483114
139	0xbe3634a4	-0.17793518
140	0xbd40b593	-0.047048163
141	0x3ce99272	0.028512213
142	0x3d47b20e	0.04875379
143	0xbdf3ebb0	-0.11910188
144	0xbebd8862	-0.37018114
145	0xbcdb1ef4	-0.026748158
146	0xbe6d8f0d	-0.23199101
147	0x3ed09672	0.4073978
148	0xbeb4fae1	-0.35347655
149	0xbe1e1365	-0.15437086
150	0xbec4da47	-0.38447782
151	0x3e15d1e7	0.14630853
152	0xbe59aa52	-0.21256378
153	0x3dcc90db	0.099885665
154	0xbeda9d36	-0.42698067
155	0x3e823baa	0.25436145
156	0xbe4c3d49	-0.19945253
157	0x3dcffacb	0.10155257
158	0xbe256c50	-0.16154599
159	0x3d55ee95	0.052229483
160	0x3ec77901	0.38959506
161	0xbee561ea	-0.44801265
162	0x3ea20a36	0.31648415
163	0x3e89935a	0.26870233
164	0xbd87a216	-0.06622712
165	0x3ea91028	0.3302014
166	0xbbd2646c	-0.0064206626
167	0x3d75d528	0.060017735
168	0x3eeb6f6d	0.4598345
169	0xbeb84966	-0.359935
170	0x3ccfbc88	0.025358453
171	0xbe86a652	-0.26298767
172	0xbc2a744c	-0.010403704
173	0x3e36f641	0.17867376
174	0x3dfce57e	0.1234846
175	0xbeb6a9ba	-0.35676366
176	0xbe4f91eb	-0.20270507
177	0x3e02524c	0.12726706
178	0xbdef94d0	-0.116983056
179	0xbea0855f	-0.31351754
180	0x3d39a724	0.045325413
181	0xbd46b44d	-0.048511792
182	0xbdeb61e6	-0.11493282
183	0xbec4111c	-0.38294303
184	0xbd9271ad	-0.07150588
185	0xbeab209d	-0.3342332
186	0xbeac0045	-0.33593956
187	0x3e73e03f	0.23816012
188	0x3e77785f	0.24167012
189	0x3f011315	0.5041974
190	0xbea15df9	-0.31517008
191	0x3ebdb586	0.37052554
192	0xbdb945ee	-0.09046541
193	0x3cbdca0b	0.02316763
194	0xbe6b27bc	-0.22964376
195	0x3e9a7cfb	0.30173478
196	0x3efcd5f2	0.49381977
197	0xbe6942b5	-0.22779353
198	0xbea2ea16	-0.31819218
199	0x3b90eaf8	0.0044225417
200	0x3e635243	0.22199349
201	0x3d7af75e	0.061271064
202	0xbe5c8dcb	-0.21538465
203	0xbe90845f	-0.2822599
204	0x3cf6c267	0.030121995
205	0xbe799f9f	-0.24377297
206	0xbec23321	-0.37929633
207	0xbd5b5151	-0.053544346
208	0x3af43824	0.0018632454
209	0x3e6dbfa3	0.23217635
210	0x3ec1a13e	0.3781833
211	0xbe14c982	-0.14529994
212	0x3e671fc2	0.22570708
213	0x3d08a740	0.033362627
214	0xbeb2453d	-0.3481845
215	0x3e0c707d	0.13714786
216	0xbe13aca9	-0.14421333
217	0x3e513919	0.20431937
218	0xbe4a98e3	-0.19784884
219	0xbb7ec790	-0.0038876273
220	0x3e573eb5	0.21020015
221	0xbe3de83e	-0.18545625
222	0x3db7cd80	0.08974743
223	0x3d6c1a0d	0.05764203
224	0x3be578e2	0.0070029357
225	0x3dbfb0c7	0.093598895
226	0x3eb2dcea	0.3493417
227	0x3eb92de1	0.36167815
228	0xbc789f1e	-0.015174655
229	0xbdc34d64	-0.095362455
230	0x3dd0dec3	0.101987384
231	0x3ee1dab6	0.44112176
232	0xbe18ca3e	-0.149209
233	0xbcb4dc93	-0.022077834
234	0xbec72edb	-0.38902935
235	0xbea70154	-0.326182
236	0xbe9781a3	-0.29591092
237	0x3da5ca62	0.08095242
238	0x3e8c557d	0.27408972
239	0xbe4578d4	-0.19284374
240	0x3e98db0d	0.29854622
241	0x3ebee72b	0.37285742
242	0x3e3d0e53	0.18462496
243	0xbe48c988	-0.19608128
244	0xbdf737a3	-0.12071159
245	0xbe9876d1	-0.2977815
246	0xbe88b28f	-0.2669873
247	0xbeaa1ed0	-0.33226633
248	0x3ea8d9fa	0.32978803
249	0x3e28bab0	0.16477466
250	0xbc92bd0f	-0.017912416
251	0xbe9e14c5	-0.3087522
252	0xbe630fab	-0.22173946
253	0xbe899fa5	-0.26879612
254	0x3ecb66e9	0.39726952
255	0x3e31a87b	0.17349426

bias f4 [128]
0	0x3e228e92	0.15874699
1	0xbebc0d07	-0.3672869
2	0x3e9de94a	0.30842048
3	0x3e8098c0	0.2511654
4	0xbeaa1da5	-0.33225742
5	0x3e652d00	0.22380447
6	0xbd4d3bb5	-0.05010577
7	0xbdf320c2	-0.118714824
8	0x3e799792	0.24374226
9	0x3d90b0ee	0.07064997
10	0xbc118767	-0.00888238
11	0xbdf7f9d4	-0.12108198
12	0xbe84f430	-0.2596755
13	0x3e420035	0.18945391
14	0x3ef20c55	0.47275034
15	0xbddd5d6f	-0.10808837
16	0xbeb7204e	-0.35766834
17	0xbe54b61f	-0.20772599
18	0x3ea94216	0.33058232
19	0xbe95941a	-0.29214555
20	0xbde0bf54	-0.10973993
21	0xbd00f83c	-0.031486735
22	0x3ebb64ee	0.3660044
23	0x3e99b46b	0.3002046
24	0x3eb93938	0.36176467
25	0xbebde9c2	-0.37092406
26	0x3cdd03d3	0.026979363
27	0xbd87ce23	-0.06631114
28	0x3e7f40f3	0.2492712
29	0x3ea3c863	0.3198882
30	0xbdec7a67	-0.11546784
31	0x3ecfe24b	0.40602335
32	0xbeadeeed	-0.33971348
33	0xbddf98c2	-0.10917808
34	0x3e27ffd4	0.16406184
35	0x3ed7342c	0.4203199
36	0xbdc6346d	-0.09677968
37	0x3e9b2fb3	0.3030983
38	0x3eb31825	0.34979358
39	0x3e0b0ee8	0.13579905
40	0xbe138455	-0.1440595
41	0x3e75b63f	0.23995303
42	0xbde97b17	-0.11400431
43	0x3ecefa5e	0.4042539
44	0x3e5d15be	0.21590325
45	0x3e9d788c	0.30756032
46	0xbe4bf4f5	-0.19917662
47	0x3edbbbc8	0.42916703
48	0xbe8cb5cc	-0.2748245
49	0x3ce3e17c	0.02781748
50	0x3dac6b44	0.08418897
51	0xbe852d77	-0.2601125
52	0xbe260509	-0.16212858
53	0x3ea3429a	0.3188675
54	0x3ec88ef4	0.39171565
55	0x3e8bcee1	0.27306274
56	0xbcf43d7b	-0.029814472
57	0x3e347357	0.17622124
58	0x3e892f33	0.26793823
59	0x3e1e2a79	0.1544589
60	0x3d113a03	0.035455715
61	0x3e3abe5e	0.18236682
62	0xbec0d82a	-0.3766492
63	0xbe677a2a	-0.22605196
64	0xbe0d1a7e	-0.13779637
65	0xbdaa1c45	-0.08306173
66	0xbe98dda2	-0.29856592
67	0x3d2e71be	0.04258894
68	0x3e5cb5d0	0.21553731
69	0xbeacdad2	-0.33760697
70	0xbd93535a	-0.071936324
71	0xbe1337ac	-0.14376706
72	0xbe0e3d7d	-0.13890643
73	0xbe629c8d	-0.22130032
74	0x3ebb3a81	0.36568072
75	0x3e69857d	0.22804828
76	0xbea7bd71	-0.3276172
77	0xbdb9fa00	-0.09080887
78	0x3e9bf325	0.30458942
79	0xbc0b6fb5	-0.00851052
80	0x3ea78493	0.32718334
81	0x3ef73a74	0.48286784
82	0xbec1424f	-0.37745902
83	0x3edc9357	0.4308116
84	0x3eca8d75	0.39561048
85	0x3e8bfd47	0.27341673
86	0xbe8dd858	-0.2770412
87	0x3e31825b	0.17334883
88	0xbe819704	-0.25310528
89	0xbdd75a30	-0.10515249
90	0x3e8cb0f1	0.27478746
91	0x3e8005de	0.25004476
92	0xbc9ac510	-0.018892795
93	0x3ef3bd95	0.47605577
94	0x3ed27068	0.41101384
95	0xbc739feb	-0.01486967
96	0xbe33aff6	-0.17547593
97	0xbe8ef1cb	-0.27918848
98	0xbe80121f	-0.25013825
99	0x3e39d26d	0.18146677
100	0x3cf3d9a4	0.029766865
101	0x3e1107d7	0.14163147
102	0x3e8fe1a4	0.28101838
103	0x3e8660d3	0.26245746
104	0x3dcf2492	0.10114397
105	0x3ed03170	0.40662718
106	0x3e877513	0.26456508
107	0xbeb593fa	-0.3546446
108	0x3ea46a13	0.32112178
109	0x3e97b933	0.29633483
110	0xbe3bb500	-0.18330765
111	0x3ebf4cff	0.3736343
112	0x3e9646a5	0.29350773
113	0xbe86686f	-0.26251552
114	0x3e9c6131	0.305429
115	0x3efc1fad	0.49242917
116	0xbe467568	-0.19380724
117	0x3e8555cc	0.2604202
118	0x3b33529f	0.0027362478
119	0x3e23a098	0.1597923
120	0x3ec7a020	0.38989353
121	0xbe7cfe4c	-0.24706382
122	0x3eb22ad6	0.34798306
123	0xbe690207	-0.2275468
124	0x3e1688a5	0.14700563
125	0x3e364654	0.17800266
126	0x3eafad93	0.34312114
127	0xbe2ac288	-0.1667577

weight f4 [64, 128]
0	0x3d9ce878	0.076615274
1	0x3c4721c2	0.012154045
2	0xbd4e1afe	-0.05031871
3	0x3d3ca47d	0.046055306
4	0xbd9e63c9	-0.07733876
5	0xbd0804f1	-0.033207837
6	0xbd6b88e2	-0.05750359
7	0xbd9dc1b2	-0.0770296
8	0xbc5daf8d	-0.013530624
9	0x3c5a4514	0.013322134
10	0xbba9f448	-0.0051865913
11	0x3d331996	0.043725573
12	0xbd681097	-0.056656446
13	0x3d1cea18	0.038309187
14	0x3ca1dbcb	0.019758126
15	0xbd24e821	-0.040260438
16	0xbd85156a	-0.06498225
17	0x3d630581	0.05542517
18	0xbc868ca1	-0.016424479
19	0x3d82ea5d	0.063923575
20	0x3ca0f0bf	0.019646047
21	0x3d75a5b3	0.059972476
22	0xbd657830	-0.056022823
23	0x3c9e7367	0.019342138
24	0xbdaeafc2	-0.08529617
25	0xbdb2e933	-0.087358855
26	0x3d9b8f20	0.07595658
27	0xbcafa809	-0.02144243
28	0xbd726fde	-0.059188716
29	0xbd2a65dc	-0.041601047
30	0x3cae46ec	0.021274053
31	0xbd0bc170	-0.034120023
32	0xbda3019d	-0.07959292
33	0xbc1dde77	-0.009635559
34	0x3d8e62a0	0.06952405
35	0x3d3770f0	0.04478544
36	0x3d234531	0.039860908
37	0x3d339ea2	0.043852456
38	0xbd8ca9ea	-0.06868346
39	0x3da96cd9	0.08272714
40	0x3c8717ff	0.016490934
41	0x3d832d86	0.06405167
42	0xbc8679d3	-0.016415512
43	0x3c01b561	0.007916779
44	0xbd6cc5b3	-0.05780573
45	0x3d09024c	0.033449456
46	0xbbf41ea0	-0.00744994
47	0x3d7d549e	0.061848275
48	0xbdaad0bf	-0.083405964
49	0x3c95da82	0.01829267
50	0x3d6488cf	0.055794533
51	0x3aa47dfa	0.0012549751
52	0xbd65bb3b	-0.05608676
53	0xbda170bd	-0.07882831
54	0xbd818618	-0.063244045
55	0xbd9554f7	-0.072915964
56	0x3d7a24a3	0.061070096
57	0x3d9ed12e	0.077547416
58	0xbd1cc427	-0.038273003
59	0x3cdc97ab	0.02692779
60	0x3d6dc1cc	0.058046147
61	0x3d880301	0.06641198
62	0x3cf7b3ca	0.030237097
63	0x3ca6afc0	0.020347476
64	0x3d91c399	0.071173854
65	0xbd8ddf8a	-0.06927402
66	0x3d6f61ed	0.058443
67	0xbda0cd42	-0.0785165
68	0x3d95589c	0.072922915
69	0x3ce26b39	0.027639018
70	0x3d296ee7	0.04136553
71	0x3daafd32	0.083490744
72	0xbc8c1184	-0.017098196
73	0xbbfa86d9	-0.0076454696
74	0xbd242698	-0.04007587
75	0x3bed482f	0.007241271
76	0xbd0a65f6	-0.033788644
77	0xbc8094a9	-0.015695887
78	0xbda3a16d	-0.07989774
79	0xbd95e1a4	-0.07318428
80	0x3d036c05	0.032085437
81	0xbdaaf378	-0.08347219
82	0x3be57389	0.0070022983
83	0x3c7940d4	0.01521321
84	0xbd1c8917	-0.038216677
85	0x3d313d5d	0.04327141
86	0xbd422bfe	-0.047405235
87	0xbd4e1ad4	-0.050318554
88	0x3dab9d14	0.0837957
89	0xbc07b1c5	-0.00828213
90	0x3da9f4c7	0.08298641
91	0x3da2fad4	0.07957998
92	0x3d621207	0.055192973
93	0xb8f5c388	-0.00011718931
94	0xbd2d94db	-0.042378288
95	0xbd5d755b	-0.054066997
96	0xbd9fd3ae	-0.078040466
97	0xbcfa8c32	-0.030584428
98	0xbd0732ef	-0.03300756
99	0x3cde203f	0.027114986
100	0xbd23a772	-0.03995461
101	0x3d10bf77	0.035338845
102	0xbcbb194b	-0.022839209
103	0xbd857a14	-0.06517425
104	0x3d9d5304	0.076818496
105	0xbd9038d1	-0.07042087
106	0xbdae96d1	-0.0852486
107	0x3d2d3c8b	0.042294066
108	0xbc0261ea	-0.007957915
109	0xbd7e4421	-0.06207669
110	0x3d41b4c7	0.047291543
111	0x3ce10c19	0.027471589
112	0x3ca22b3c	0.019796006
113	0xbacba1ae	-0.0015535855
114	0xbc890539	-0.016726123
115	0xbd85ba63	-0.06529691
116	0xbc6ba6dc	-0.014383044
117	0x3d68c59f	0.05682909
118	0xbc12043a	-0.0089121405
119	0xbafe045e	-0.0019379964
120	0x3d655d5f	0.05599725
121	0x3db040b3	0.086060904
122	0xbd1baa5c	-0.038004264
123	0xbdb16567	-0.08661919
124	0x3c8e6b88	0.01738526
125	0x3bdc6a0f	0.0067265104
126	0xbc38fef6	-0.011291256
127	0x3d02c4b0	0.031925857
128	0x3b9b8a1a	0.0047466876
129	0xbd445a6b	-0.04793779
130	0xbd59f72e	-0.053214245
131	0xbb3d619b	-0.0028897289
132	0xbda7efec	-0.08200058
133	0xbcf450b3	-0.029823637
134	0x3d5d0712	0.05396182
135	0xbd93ba6d	-0.07213292
136	0xbd83b4e7	-0.06430989
137	0xbcd25719	-0.025676297
138	0xbbc92b2b	-0.006139179
139	0xbd82d015	-0.06387345
140	0x3d93941d	0.07205985
141	0xbd13d272	-0.03608937
142	0x3cbc4e95	0.02298669
143	0xbca72b4f	-0.020406393
144	0xbbd210b5	-0.006410683
145	0xbd14b219	-0.03630266
146	0xbdbbf88e	-0.091782674
147	0xba1f0f73	-0.0006067671
148	0x3c8dc6e6	0.017306756
149	0x3c444e3d	0.011981544
150	0xbd882db1	-0.0664934
151	0xbbe5810f	-0.0070039104
152	0xbd9149ca	-0.07094152
153	0xbda6184d	-0.08110104
154	0xbb8f4611	-0.0043723662
155	0x3c7f5859	0.015585029
156	0x3d46dad4	0.048548535
157	0xbda2b189	-0.079440184
158	0xbd504f09	-0.050856624
159	0xbd8bf260	-0.06833339
160	0xbd4191b7	-0.047258105
161	0x3d56399f	0.052301046
162	0xbc5a51fc	-0.013325211
163	0xbd5d34b3	-0.054005336
164	0xbd9b6726	-0.075880334
165	0xbd567c36	-0.05236455
166	0xbcca3c66	-0.024687003
167	0x3d0c7c34	0.034298137
168	0xbd5c75f6	-0.053823434
169	0x3c90daa8	0.017682388
170	0x3d84eabb	0.06490084
171	0x3cc4cb86	0.024022829
172	0x3cc82d88	0.024435773
173	0xbda6326d	-0.08115087
174	0x3bd36353	0.0064510494
175	0x3d41f179	0.047349427
176	0x3d942ecc	0.07235488
177	0xbd8f26a1	-0.0698979
178	0x3da31790	0.079634786
179	0x3b86c297	0.0041125524
180	0x3d4baad1	0.04972345
181	0xbd45a796	-0.048255526
182	0x3d5f61a6	0.054536484
183	0x3d7ea91a	0.062172987
184	0xbcba0795	-0.022708694
185	0x3cb061be	0.021530982
186	0xbc0698b0	-0.0082151145
187	0xbda4aa30	-0.08040273
188	0x3c4dca78	0.012560479
189	0x3d6fbf32	0.058531947
190	0xbd972599	-0.07380218
191	0xbda1615e	-0.078798994
192	0x3da35200	0.07974625
193	0x3db24732	0.08704986
194	0x3c036534	0.008019734
195	0xbc8e9307	-0.017404092
196	0xbac1f9d4	-0.0014799186
197	0xbd9a0fde	-0.07522558
198	0xb7794151	-1.4856764e-05
199	0x3dac62ee	0.08417307
200	0x3d24008e	0.04003959
201	0x3bc93fb6	0.006141628
202	0x3d9ad7f1	0.07560719
203	0x3d81c611	0.06336606
204	0x3d77de3a	0.060514666
205	0x3d6f4f59	0.05842528
206	0x3d40485b	0.046944004
207	0x3be03dce	0.006843305
208	0xbd882703	-0.06648066
209	0xbd2cc304	-0.04217817
210	0x3c983699	0.018580722
211	0x3d7b6611	0.061376635
212	0x3bbc41ff	0.005745172
213	0xbd0a3857	-0.033745136
214	0x3d920967	0.071306996
215	0xbcfd38d3	-0.030910885
216	0xbd6c483d	-0.05768608
217	0x3b3dcd8c	0.0028961627
218	0x3d28a17b	0.041169625
219	0xbd54e78b	-0.05197863
220	0x3d17e2c7	0.037081506
221	0xbdc5d08b	-0.09658917
222	0x3d4c052b	0.049809616
223	0x3d9c7094	0.0763866
224	0x3d93e293	0.0722095
225	0xbd5f50f2	-0.054520555
226	0x3d71628f	0.058931883
227	0x3cfb8fbf	0.030708192
228	0xbda6787c	-0.08128449
229	0xbc09f078	-0.008419149
230	0x3d86b1d0	0.06576884
231	0xbd5ddc13	-0.054164957
232	0xbdbc9c49	-0.092094965
233	0xbcc3d98e	-0.02390745
234	0x3d918394	0.07105175
235	0x3cc9f7ea	0.024654347
236	0xbc575458	-0.013142668
237	0xbda79d75	-0.081843294
238	0x3d73985b	0.05947147
239	0xbd320420	-0.043460965
240	0x3d8e47b2	0.069472685
241	0xbba7653c	-0.0051085036
242	0x3c116a4d	0.008875442
243	0xbcd6e84f	-0.02623382
244	0xbba9ccdc	-0.005181892
245	0x3da7ef9e	0.082
246	0x3c241241	0.010014118
247	0x3d1342ad	0.03595226
248	0x3d918263	0.071049474
249	0x3d5eb48a	0.054371394
250	0x3d678cf8	0.056530923
251	0x3d1dac49	0.038494382
252	0x3d6dee87	0.058088806
253	0x3d446ac1	0.04795337
254	0xbdc9d732	-0.098554984
255	0xbc776c11	-0.015101449

bias f4 [64]
0	0x3b470dd3	0.003037323
1	0x3d9a5ec7	0.075376086
2	0xbad1e56d	-0.0016013809
3	0x3ca9b61c	0.02071672
4	0x3cc2e7d5	0.023792187
5	0x3c675929	0.0141203785
6	0x3d94cbac	0.0726541
7	0x3d0992bf	0.033587214
8	0x3ca6de3c	0.020369641
9	0x3cc20aa7	0.02368672
10	0x3d67365d	0.05644833
11	0x3cd5a590	0.026079923
12	0x39af95f7	0.00033490334
13	0xbceb3d8c	-0.028715871
14	0xbc164f56	-0.009174189
15	0xbd9b1705	-0.0757275
16	0x3c9a5ce6	0.018843126
17	0x3e1caf68	0.15301287
18	0xbc2e3387	-0.010632402
19	0x3db7cf41	0.089750774
20	0x3dca5af9	0.09880633
21	0xbd96d273	-0.07364359
22	0x3dbd4f37	0.09243625
23	0xbda19ad5	-0.0789086
24	0x3dab9aa6	0.08379106
25	0xbcd09695	-0.025462428
26	0x3db9e3a3	0.090766214
27	0x3d909dd1	0.07061351
28	0x3d1eda9e	0.03878271
29	0x3d6a048f	0.057133254
30	0xbd571d8c	-0.052518412
31	0x3d939ab7	0.07207244
32	0x3d5453d7	0.05183777
33	0x3db8b409	0.09018714
34	0x3df0ff22	0.11767413
35	0x3ceb5a83	0.028729683
36	0xbd2a1844	-0.041527048
37	0x3d8a3368	0.06748086
38	0x3debf6a7	0.115216546
39	0xbd7a7a7f	-0.061151978
40	0x3c1e8c01	0.009676934
41	0xbb8a61f4	-0.0042231027
42	0x3d8411d3	0.06448712
43	0x3d8b6270	0.06805885
44	0x3c638d7b	0.013888712
45	0x3dca67c4	0.09883073
46	0xbcdefe19	-0.027220773
47	0x3cbd320d	0.023095155
48	0xbc94e9d2	-0.0181779
49	0x3d358bbb	0.04432271
50	0x3d2c75cf	0.04210454
51	0x3d282032	0.04104633
52	0x3d962ec7	0.07333141
53	0x3e11adf1	0.1422651
54	0xbcdee2ff	-0.02720785
55	0x3df0ba6e	0.11754309
56	0x3ddb415f	0.10705828
57	0xbd5100fe	-0.051026337
58	0xbcfb8f76	-0.030708056
59	0xbda9a482	-0.082833305
60	0x3dad74af	0.08469521
61	0x3d6a268e	0.057165675
62	0xbd0dd8b2	-0.034630485
63	0x3e1ce138	0.15320289
