2023/baseline0806/model/WLTP_trained_0822/PPO_actorcritic_55episode.pt (torch, 101527 bytes, 17 tensors)

weight f4 [128, 7]
000000 31 7b 65 be e4 89 aa be a4 05 87 3e f5 43 d4 be
       -0.22410275 -0.33308327 0.2637149 -0.41458097
000010 15 36 83 be d2 65 cf 3e 70 a5 c0 3e 1e ce 25 bd
       -0.256272 0.4050737 0.3762622 -0.04047977
000020 ac b0 39 be 07 fb ad 3d 21 fc 8e be 93 1b 0c be
       -0.18133801 0.08495145 -0.27926734 -0.13682394
000030 ee 79 b9 be b6 61 9a be 28 42 de 3d 2e 4a 12 be
       -0.36225837 -0.30152673 0.10852462 -0.1428611
000040 5c 36 2b be 14 8f 53 3d a7 43 9d 3e 1d 20 ce 3e
       -0.16719955 0.05165012 0.30715677 0.40258875
000050 79 bd b2 3d c4 86 96 be c7 0e 7e be b3 04 72 be
       0.08727545 -0.29399693 -0.24810325 -0.23634605
000060 d2 7c c7 bd 7d c1 44 be 65 dc 94 3e 66 73 d6 3e
       -0.097406045 -0.19214435 0.29074398 0.41884917
000070 a9 6f e4 3d 74 e7 3b be ea fd c4 be 53 52 a9 3d
       0.1115411 -0.18350011 -0.3847497 0.08267655
000080 33 a6 54 3d bd 5e 4d 3e 1e 95 c2 39 1d 73 03 bd
       0.051916312 0.20055671 0.00037113664 -0.032092202
000090 4f 9a cb bd f8 de 70 be 82 f3 9c bd 6d db 5e 3e
       -0.099415414 -0.23522556 -0.07663633 0.21763392
0000a0 bb 1c 28 3e a9 43 b2 3e 94 a8 ad be 0c e3 81 be
       0.1641721 0.34817246 -0.33917677 -0.25368536
0000b0 9a 09 ad be f4 85 42 3c 75 50 8d be c1 60 15 be
       -0.33796388 0.011872757 -0.27600446 -0.1458769
0000c0 7b c1 9a bb 6a f9 c0 3d ff 5e ab be 42 4f b9 3e
       -0.0047227717 0.09422572 -0.33470914 0.3619328
0000d0 8f 87 9e 3e 9f a0 80 3e 82 86 bd be 86 7b 96 bc
       0.30962798 0.25122544 -0.37016684 -0.018369447
0000e0 47 41 de 3e 5e 82 2f bd 45 f5 8d be 87 9e 3b bc
       0.43409178 -0.042848937 -0.27726188 -0.01145137
0000f0 73 2f fe 3e 31 06 82 be 49 76 c2 3c a8 75 ae 3e
       0.49645576 -0.2539535 0.023738043 0.3407414
000100 09 c6 6c be 7b 5e b6 be 5e 23 cc be 78 43 30 be
       -0.2312242 -0.35618958 -0.39870733 -0.17213237
000110 d5 30 c0 3e 4d fd a7 3e 08 69 9e 3e ef 88 85 3e
       0.37537256 0.3281044 0.30939507 0.26081035
000120 d3 3d 9d 3d 27 bf 20 3e 07 ca af be e6 20 3d 3d
       0.07677808 0.15697919 -0.34333822 0.046173953
000130 01 b6 8e 3d 38 21 3b bb 16 48 e2 3e ed 88 50 3e
       0.06968308 -0.0028553735 0.44195622 0.20364733
000140 52 77 a2 bd 36 1b 5e 3e eb b0 41 bd 46 b6 a4 bd
       -0.07932915 0.21690068 -0.047287863 -0.080425784
000150 09 d9 7b be a4 41 9e be 99 63 89 3e 49 15 bc be
       -0.24594511 -0.30909455 0.268338 -0.3673499
000160 a3 b3 6b 3e 29 b3 03 be 5c 80 6c 3e a3 46 80 3e
       0.23017745 -0.12861313 0.2309584 0.25053892
000170 4c 4f 3b 3e 6c 86 9f 3e 59 f5 09 3d 52 a6 31 be
       0.18291968 0.31157243 0.033681247 -0.17348602
000180 b2 8f 0c be a0 fc 8d be b0 fa 4b bd ad 55 e0 3c
       -0.1372669 -0.277318 -0.04979962 0.027384603
000190 9c e6 d7 3d 26 3c fd 3c 45 d2 2e bd dd 8d 25 3e
       0.10542032 0.03091247 -0.042680997 0.16167398
0001a0 2c ba 73 be 62 a5 4f 3e a2 90 84 be 47 f6 0b bc
       -0.23801488 0.20277932 -0.25891596 -0.008542604
0001b0 14 ed 34 3e 73 c8 27 bd a4 a9 98 3e a9 17 7d be
       0.17668563 -0.040962648 0.29816926 -0.24716057
0001c0 62 63 49 be 19 7e b3 be f5 cd 64 be a1 96 8d 3e
       -0.19666818 -0.35057142 -0.22344191 0.27653983
0001d0 0d b6 cd 3d 09 5d 01 be 60 a1 17 3d 29 92 0f be
       0.10044489 -0.12633146 0.037019134 -0.140206
0001e0 d5 34 0a 3f b6 a3 89 bd f8 97 fe 3e b4 c3 82 be
       0.53986865 -0.067206785 0.49725318 -0.25539935
0001f0 b7 af 00 be 63 cd 3f be 6f de be 3e 02 01 26 be
       -0.1256703 -0.18730693 0.37279078 -0.16211322
000200 7e 4c 76 3d 5d bd c9 be 7d 19 a1 be dd b9 75 be
       0.060131542 -0.39402285 -0.3146476 -0.23996682
000210 56 90 6f be 7d ff 1d be a4 49 94 be 7f 07 cb bc
       -0.23394904 -0.15429492 -0.28962433 -0.024783848
000220 c8 ed 84 be 91 8f dc 3d 03 42 ab bd 2d f9 8d bd
       -0.25962663 0.107695706 -0.083622 -0.06932292
000230 88 4b b1 3e 8a 61 37 be 26 dd ed 3d d8 9d 60 3c
       0.34627938 -0.17908302 0.11614446 0.013709508
000240 a8 ac fb 3b 17 5a b9 3e 41 91 af 3e 09 f1 bd bd
       0.0076804943 0.36201546 0.34290507 -0.092744894
000250 f9 bf 52 3c 9d ef a1 bd 73 1a f3 bd cc de 45 3c
       0.012863153 -0.07907031 -0.11870279 0.012077045
000260 bf c8 53 be f2 f8 91 3d fd 6f ad be 7e 48 0b 3d
       -0.20682047 0.07127561 -0.33874503 0.03400468
000270 56 55 79 3e b9 6c f0 bd 1e 31 71 bc 10 ff 09 be
       0.2434896 -0.11739487 -0.014721183 -0.13476205
000280 87 8e 8e 3e d2 a1 92 3e 7c a6 10 be 75 bb 4a 3e
       0.27843115 0.28639084 -0.14126009 0.19798072
000290 c8 db 62 3e 81 38 09 3d d5 8e b7 3e 3b 35 d6 3e
       0.22154152 0.033501152 0.3585116 0.41837487
0002a0 f1 42 c5 3e 3d da 9a be 6d bf 76 3d 99 f3 b8 be
       0.38527635 -0.30244628 0.06024115 -0.3612335
0002b0 a8 32 a0 3e e2 ef aa bd 8e 8c 9e 3e c5 d3 64 3d
       0.31288648 -0.08346535 0.3096661 0.05586602
0002c0 0d 46 33 3d 20 20 b3 be c9 5e d8 bd 90 23 21 bd
       0.043767978 -0.34985447 -0.10564954 -0.039340556
0002d0 5d 38 22 3e fa 3b 3f be 1b ac 73 3e 2e b5 d0 be
       0.15841813 -0.18675223 0.23796122 -0.4076323
0002e0 b0 ee 8a 3e 12 86 8e be 31 e1 37 be 92 96 86 3e
       0.2713523 -0.27836663 -0.17956997 0.2628675
0002f0 6e 97 38 3e 11 b5 a7 3e 07 85 2d 3d 83 89 1e 3e
       0.18026516 0.3275533 0.042363193 0.15482144
000300 65 ca 47 3e ff 00 84 3e 23 2d 04 be 31 f1 96 3e
       0.19510801 0.2578201 -0.12907843 0.2948089
000310 df 96 03 3d 01 7a c9 3e 87 b9 b7 bc cc 1a a6 3e
       0.032126304 0.39350894 -0.022427334 0.3244232
000320 f6 ce 75 be 16 98 c1 bd b5 b6 6a 3e 58 81 96 3e
       -0.2400473 -0.09452836 0.2292126 0.29395556
000330 ba 03 aa bc 73 49 13 3e 6c e9 81 be 5b 22 12 3e
       -0.02075373 0.14383487 -0.253734 0.14270918
000340 40 15 c1 3e 75 24 38 3e 36 9f ce bd 8b 97 8a be
       0.37711525 0.17982657 -0.10088961 -0.27068743
000350 bd e0 b3 bd 5e 25 86 3d 26 1f 8a be 6d cb 7f 3e
       -0.087831 0.06550096 -0.2697689 0.24979945
000360 29 15 9d 3e 9a eb 3c 3e ac ec 5d be fe 0c 01 3e
       0.30680206 0.1844925 -0.21672314 0.12602612
000370 44 3a 16 be 71 aa 72 3e a9 e1 c0 3e 1c 70 86 3e
       -0.14670664 0.2369783 0.37672165 0.26257408
000380 5a f6 c8 3d 5d 87 8f be c5 bc e1 bd 70 c0 98 3e
       0.09812613 -0.2803296 -0.11022333 0.29834318
000390 da 5c 95 3e e3 0b 1e be 06 ad 66 ba 91 88 69 3e
       0.29172403 -0.15434222 -0.0008799586 0.22806002
0003a0 2e d1 76 3d e7 5c 9c 3d a0 92 ab 3e dc 08 2c 3e
       0.060258083 0.07634907 0.33510303 0.16800255
0003b0 25 61 67 be b3 da ad 3e ce 15 18 3e b4 f7 99 be
       -0.22595651 0.33955917 0.14852068 -0.30071795
0003c0 d8 91 23 be 01 64 3a be 5e b1 9d 3e 9e e0 33 be
       -0.15973604 -0.18202211 0.30799383 -0.17566153
0003d0 4e 8d 8a 3d 21 01 ff 3d 88 07 d8 3d ec 4a 82 3e
       0.06765233 0.12451387 0.105483115 0.25447786
0003e0 c2 ec a4 bd 03 4b c7 3d 46 67 6e be ee 92 9e 3e
       -0.080529705 0.09731104 -0.23281583 0.30971473
0003f0 cb 9e 57 be 5d 28 90 3e ae 87 53 3d 38 d0 90 3e
       -0.21056668 0.28155795 0.051643066 0.28283858

bias f4 [128]
000000 0c 39 2e be f0 48 74 be f4 84 4e 3e 6b 5f d6 3e
       -0.17013949 -0.23855948 0.20167905 0.41869673
000010 a8 9e 8a 3d 63 37 05 be 23 db d1 bd 99 d7 c2 3d
       0.067685425 -0.1300941 -0.10246875 0.09513778
000020 ae 82 2c bb a4 80 cb 3e d8 0c 9b 3e 54 b1 82 3d
       -0.0026323008 0.39746583 0.30283237 0.06381479
000030 76 ea d2 3d 57 1e 5b 3e f4 18 43 3d 80 25 17 be
       0.10298626 0.21398292 0.04763122 -0.14760399
000040 5c 69 4c be e3 1d 48 3e 36 42 ba 3e 41 6f 44 3e
       -0.19962066 0.19542651 0.3637864 0.19183065
000050 f6 74 7d bd 7e f2 9a be 65 eb 62 3e 04 09 44 be
       -0.06187912 -0.30263132 0.22160108 -0.19144064
000060 b6 96 7d bd 02 0c 91 be a4 04 b2 bd 90 ff 97 3d
       -0.061911307 -0.28329474 -0.086922914 0.074217916
000070 79 0a 8e be 50 91 b1 be 3e cc 94 3e 1d 9c 1d 3c
       -0.27742365 -0.34681177 0.29062074 0.00961974
000080 93 a3 a0 3e 49 7b 90 3d 5b 53 9c 3e 80 89 76 be
       0.31374797 0.07054765 0.30532345 -0.2407589
000090 30 3c 94 be 5e f7 cf bd 5b 10 50 be d3 1e 30 bd
       -0.2895217 -0.101546034 -0.20318739 -0.042998146
0000a0 bd af 3b be 23 1a cd be cd 07 bc 3b 00 50 8e bd
       -0.18328758 -0.40059003 0.0057382346 -0.069488525
0000b0 a2 46 92 be 0e ce a5 bc 2e 8f 93 be a2 45 58 3e
       -0.28569514 -0.020239856 -0.28820175 0.21120313
0000c0 38 0c 82 be 94 a8 d5 bd c3 8d 68 3e c0 a6 c7 3e
       -0.25399947 -0.10432544 0.22710328 0.38994408
0000d0 74 df f1 3c 90 e5 a3 be 7b 70 14 be f8 f9 5e 3e
       0.029525496 -0.3201108 -0.14496033 0.21775043
0000e0 e6 11 9c 3e d0 52 83 3e 8b ce 8c bd 4c 82 b3 be
       0.30482405 0.25649118 -0.068753324 -0.35060346
0000f0 f2 42 aa be 35 d9 0d 3e 18 42 86 3c 4e 0b 96 3e
       -0.332542 0.13852389 0.016388938 0.293055
000100 85 24 9a 3e 6c d3 46 be 4f f3 b5 be 55 aa 61 be
       0.30105987 -0.19416589 -0.35537192 -0.22037633
000110 ec 6a c5 3e 95 ad cc 3d 42 14 da 3d 2b 8e ba bc
       0.38558137 0.09994046 0.10648395 -0.02277287
000120 d4 3a 7b be 78 73 a6 3e 95 d7 95 3d 22 a6 80 bd
       -0.2453416 0.3250997 0.0731651 -0.06281687
000130 51 9f 1f 3e 79 13 99 3e ef 74 ae bd 6d 2a 9b 3e
       0.15588118 0.2989767 -0.08518397 0.30305806
000140 3f a2 9a 3e 30 67 97 3e 2a 3d 36 3e 6b 32 84 be
       0.3020191 0.29570913 0.1779677 -0.25819716
000150 6c f6 0a be 98 23 ea bd 3c c4 9b be bc 14 53 be
       -0.13570565 -0.1143257 -0.30423152 -0.20613378
000160 5f a5 ac be d2 c0 1b be 5b c9 c1 3e 5a 0f 91 3e
       -0.33719918 -0.15210274 0.37848935 0.28332025
000170 53 3a bb 3e 29 00 d5 3e dc 2e d0 3d be 00 99 be
       0.36567935 0.41601685 0.10165188 -0.2988338
000180 59 e1 fa 3d e4 4b 8c 3e 04 d6 01 3e 87 6f a7 be
       0.12250013 0.2740165 0.12679297 -0.32702276
000190 b3 57 ce 3e 58 c9 90 3e dd 7d 4a 3e 82 ad ba 3e
       0.40301284 0.28278613 0.19774576 0.364605
0001a0 68 9f 55 be 53 b8 fd 3c 99 c1 ba 3d 5f 86 13 be
       -0.2086159 0.030971682 0.09118957 -0.14406727
0001b0 c7 41 24 be 62 aa ec 3d 4c 22 89 3d bd 75 80 be
       -0.16040717 0.115559354 0.06695995 -0.25089827
0001c0 64 eb ac be dd d0 5c bc 68 8e a3 3e ee d4 07 3d
       -0.3377334 -0.013477531 0.31944585 0.03316205
0001d0 ba 9a 11 be ce 30 59 3e c6 26 89 3e d1 82 18 be
       -0.1421918 0.21210024 0.26787394 -0.14893652
0001e0 29 c7 89 3e bb c4 c5 bd 17 77 1b be 2e 3b 74 3e
       0.2690976 -0.09656664 -0.15182148 0.238507
0001f0 8a b5 47 3e 34 cf 65 be ed 77 a5 3e 2a 18 8b be
       0.19502845 -0.22442323 0.3231806 -0.27166873

weight f4 [64, 128]
000000 fe f1 e2 bc fd f6 ac 3d 9a e1 0d 3b 69 62 3f 3d
       -0.027703281 0.08445547 0.0021649362 0.04672471
000010 e7 fe 78 3d 7f 63 73 bd 81 3d ae 3d be 79 c4 bc
       0.06078997 -0.05942106 0.08507825 -0.023983832
000020 d5 e8 a2 bd 3d 83 6d bd 1b 1c 4a 3c 66 64 b4 3d
       -0.079545654 -0.057986487 0.012335802 0.08808212
000030 54 74 b3 bc 9e 49 b3 3c 74 2a a5 bd 09 d1 87 3c
       -0.021906056 0.02188569 -0.08064738 0.016579168
000040 70 87 5e 3c 9d 18 93 bd bb a4 e8 bc 8a 06 0b bd
       0.0135820955 -0.07182429 -0.028398862 -0.033941783
000050 44 79 16 bd 35 71 89 3d 24 74 03 bc 58 96 60 bd
       -0.03673674 0.06711046 -0.008023296 -0.05483088
000060 88 38 bc 3c f2 71 28 3d bb e9 09 3d 90 ad fa 3b
       0.022976175 0.04112429 0.03367017 0.007650085
000070 88 cb 29 bc d8 c4 88 bd 9d 64 6d bd 8c c4 6d 3d
       -0.010363467 -0.0667817 -0.05795728 0.05804877
000080 ed 73 9e 3d 42 42 ee bc a7 0b 2f bb 69 c5 82 bd
       0.07736955 -0.029084329 -0.0026709826 -0.06385309
000090 40 cb 3d bb a0 50 a0 bd 10 16 b1 3d d5 3e c8 3c
       -0.0028960258 -0.07827878 0.08646786 0.024444023
0000a0 24 22 ca bc 15 3b 9d 3c aa 78 78 3d cb 75 ae 3c
       -0.024674483 0.019193212 0.06066195 0.021296402
0000b0 76 c3 a9 3d 98 4f 13 bd b6 c9 55 bc 84 db 9b bd
       0.08289234 -0.03596458 -0.01304858 -0.07610229
0000c0 7b b4 9a 3d a6 d4 9e bd bb b6 44 ba 97 b9 6c bd
       0.07553955 -0.07755403 -0.00075040356 -0.05779418
0000d0 5a fd 1a bd 59 d6 71 3d 3c e3 d9 bc 63 52 9f 3d
       -0.03783927 0.05904231 -0.026597612 0.07779386
0000e0 3c 65 1a 3d 4c c6 7b bd 63 53 ed bc 3b 73 6d bd
       0.0376942 -0.061468408 -0.028970426 -0.05797122
0000f0 d8 49 90 bd 84 5c a9 bb 97 a9 6f bd 07 4e 86 bd
       -0.070453346 -0.0051684994 -0.058511343 -0.06557851
000100 d2 df 37 bd 1f e0 aa 3d 65 a6 99 3d b7 38 58 3d
       -0.044891186 0.08343529 0.0750244 0.052788462
000110 72 c8 2a 3d 33 ca 20 3d 12 50 15 bb 4a c0 8c 3d
       0.041695066 0.039255332 -0.0022783321 0.06872614
000120 cb f5 64 3d 52 86 54 3d 49 38 73 3c 03 db ad bd
       0.05589847 0.05188591 0.014844962 -0.08489039
000130 9b a2 82 bd 3f 73 9a 3c 7f 84 92 bd f0 89 86 bd
       -0.06378671 0.018853782 -0.07154178 -0.06569278
000140 52 fc 10 3d dc d1 30 bd 65 3d 89 bd 8c 7f eb bc
       0.03539688 -0.043168887 -0.06701163 -0.028747343
000150 56 e8 96 bb 14 26 cd bc eb 99 22 bd 8d 1a 7a 3d
       -0.0046053333 -0.025042571 -0.03969757 0.061060477
000160 01 83 f2 3c 76 74 aa 3d c0 bb 0f bd 0c a5 ac 3c
       0.029603483 0.083229944 -0.03509116 0.021074794
000170 a0 d4 0e bd cf 11 9f 3d da 02 35 3d 32 03 aa bc
       -0.034870744 0.077670686 0.044192173 -0.020753477
000180 d3 b4 ef 3c 3a d5 b3 3c 5d 5e 16 bb c4 8f 52 bd
       0.029261028 0.02195226 -0.0022944428 -0.051406637
000190 e0 93 b5 3b 8d 6f de 3c 21 a7 bc bb d0 e7 00 3d
       0.0055413097 0.027152801 -0.005757228 0.031471074
0001a0 96 88 41 3d e7 0c 6e 3d fa 9c 8f bc 5f 4f 8b bc
       0.0472494 0.058117773 -0.017530907 -0.01700562
0001b0 04 4b 4f 3d f2 ca 90 bd c3 bd a7 3d f7 f9 c5 3c
       0.05060865 -0.07069959 0.08190491 0.024167044
0001c0 a4 4f c5 3c 0d 7e 03 3d aa c2 61 bd 5a 30 96 bd
       0.024085827 0.032102633 -0.055117287 -0.07333441
0001d0 52 ce 37 bd e8 cb 9d 3c fd 42 95 3a 49 20 52 bd
       -0.044874497 0.01926227 0.0011387762 -0.05130032
0001e0 a9 2d 03 bd 4d e0 8e 3d 5e 71 33 3c 69 50 70 bc
       -0.032025967 0.06976376 0.010952322 -0.014667609
0001f0 e0 4e 13 bd 16 77 5e bd 98 b5 93 bd db f3 6b 3d
       -0.035963893 -0.054312788 -0.07212371 0.057605606
000200 61 cc 58 3d 19 4e ab 3d a5 a6 78 bd 44 46 b5 bc
       0.052929286 0.08364505 -0.0607058 -0.022128232
000210 f8 26 14 bd 61 51 09 3b 1c d9 47 bd 6e da b5 3c
       -0.036169976 0.0020953047 -0.048791036 0.022198882
000220 78 97 36 3b 7e b0 24 3d bd b8 94 bc 8d 1f 27 bd
       0.0027861279 0.04020738 -0.018154496 -0.040801574
000230 54 e1 3c bc 93 21 1e bd ad 60 d6 bb f9 2e 8c bc
       -0.011528332 -0.038606238 -0.0065422864 -0.017112242
000240 a1 b7 2a 3d dc c1 19 3d 08 72 82 bd b6 37 de 3c
       0.04167903 0.037538394 -0.06369406 0.027126174
000250 65 10 97 3d 77 b9 b1 3d e3 da 99 bc a8 34 fb 3c
       0.07376174 0.08677953 -0.018781131 0.030664757
000260 75 d5 61 bd 9a 33 77 3d 9e 3a a9 3b 00 4c 49 3d
       -0.05513521 0.060351945 0.0051644584 0.049144745
000270 e4 30 7e 3d d1 7b 3b bd 69 f6 84 3d 93 13 00 3d
       0.062058344 -0.045772377 0.064923115 0.031268667
000280 15 12 2a bd 7e a3 93 bd 72 07 05 3d b3 b1 5c 3d
       -0.04152115 -0.07208918 0.032477804 0.053880405
000290 57 04 9f 3d 9c 3d a6 3d ad b2 74 3d 98 ac dc bc
       0.077645 0.0811722 0.05974071 -0.026937768
0002a0 29 df ec bc 3c d3 31 bd da 0d b3 bc da 89 7d 3d
       -0.028915005 -0.04341434 -0.02185719 0.061899044
0002b0 f0 be ab 3d 8d 5b 6b bc f7 7e cc ba 1e 94 bd bc
       0.08386028 -0.014365089 -0.0015601803 -0.023141917
0002c0 6d b7 95 bd c5 f3 5a bd fc 09 9c 3d b2 eb 1f bd
       -0.07310376 -0.053455133 0.07619092 -0.039043136
0002d0 27 96 e1 3c ff 7d d7 3c 14 75 90 bd 89 23 23 bd
       0.027537419 0.026305197 -0.07053581 -0.03982881
0002e0 fd e5 74 bd 1f 85 dd ba 82 c0 ec 3c a8 b2 6b 3d
       -0.059789646 -0.0016900635 0.028900389 0.057543427
0002f0 0c 38 5b 3d 8a fb 87 bd 7b 8d 00 3d c9 2e 5e 3d
       0.053520247 -0.06639774 0.031384926 0.054243837
000300 d7 47 ff 3c 1c 03 a3 3d 5e 80 34 bd 38 9f ad bd
       0.031162186 0.079595774 -0.044067733 -0.08477634
000310 e1 b8 88 bd 23 32 8b 3c ad 5b a4 3d 95 3c 2e 3d
       -0.06675888 0.01699168 0.08025298 0.042538244
000320 3c a7 97 bc ae 71 39 bd 52 77 3e 3d 4f 72 26 3d
       -0.01851236 -0.04527443 0.04650051 0.040636357
000330 00 3a 85 3d b0 aa 9e bd 6f 0d 3d bd 27 d9 d6 3c
       0.06505203 -0.077474 -0.04615539 0.026226593
000340 bc ec f4 bb 60 45 26 3d ea 16 e7 bc 4a 3f 94 bd
       -0.00747451 0.040593505 -0.028209168 -0.07238634
000350 a8 3a 9f 3d 64 d2 88 3b 8f 7c c2 bc 7a d9 b0 bd
       0.0777486 0.004175471 -0.023741035 -0.0863523
000360 d0 75 88 3d c4 9c 09 3a 15 14 ba bb 84 30 97 bd
       0.06663096 0.0005249495 -0.0056786635 -0.073823005
000370 64 39 1a bd 42 2b 9c bd 22 b5 2f bc c1 8a 49 3b
       -0.03765239 -0.07625438 -0.010724338 0.003075287
000380 0e 91 af 3c 61 39 69 3d 08 ad 5d 3c 40 28 a7 bd
       0.021431472 0.056939486 0.013530023 -0.08161974
000390 4f 9c 25 bd 7c 12 6b bc 41 4b 99 bd 04 9e a0 3d
       -0.04043227 -0.014347669 -0.07485057 0.07842639
0003a0 4c 9c d6 bc 6a 16 43 bd 20 26 12 bc 63 13 44 bd
       -0.026197575 -0.047628798 -0.0089202225 -0.04787005
0003b0 71 a1 4c 3c 4b 33 59 3d ef 89 9e bd 2e 25 7a 3d
       0.0124896625 0.053027432 -0.077411525 0.061070614
0003c0 3a 8f b1 3d c8 8a 48 3c df e5 16 3d da 68 96 bd
       0.086698964 0.012240119 0.036840316 -0.073442176
0003d0 fa b9 00 bd b9 d2 b2 3d fb 9a 14 3b 5e 04 34 3d
       -0.03142736 0.087315984 0.0022675383 0.043949477
0003e0 b7 d4 7c bd 83 ee 62 bd a4 a0 27 3d f0 bf b0 bb
       -0.0617263 -0.055403244 0.040924683 -0.0053939745
0003f0 e7 a0 1a 3d ec 74 ac 3d ab 1a 7b 3d 20 07 2b 3d
       0.037751105 0.084207386 0.06130473 0.04175484

bias f4 [64]
000000 c6 4f 94 bd 3b 52 ce bc 73 59 be 3d 21 f2 ab 3d
       -0.07241778 -0.025185695 0.09294405 0.08395792
000010 b8 3a 3a 3d cd 6f 8c 3d ae d9 2c 3d db a3 ee 3d
       0.045466155 0.06857262 0.042199783 0.11652347
000020 77 42 19 3c 60 21 b2 bc 16 32 d1 3c 94 6e bb bb
       0.009354225 -0.02174443 0.025536578 -0.005719969
000030 f0 3a 92 3d 21 f6 52 3d ec 67 4a 3c 72 02 97 3b
       0.07140148 0.051504258 0.0123538785 0.004608446
000040 6f cc 83 3c ca c3 6c 3c 04 95 2d 3d af f1 ad 3b
       0.016088692 0.014450977 0.04237844 0.005308352
000050 20 22 da 3d 6e 4d 54 3c f1 74 8c bb ab e6 cf 3b
       0.1065104 0.012957914 -0.0042864014 0.0063446364
000060 5a d7 fd b8 34 c6 a3 bc f1 c1 03 bd d1 f5 91 bc
       -0.000121040925 -0.019991972 -0.03216738 -0.01781741
000070 0d 6f 50 3d 7b 97 28 bd 95 fe 34 3c ed dd 86 bc
       0.050887156 -0.041160088 0.011047025 -0.016463244
000080 bc 8f 87 3d 3e 37 90 3d 9e 58 43 3d 69 c7 30 bb
       0.06619212 0.070417866 0.047691934 -0.0026974326
000090 b7 a5 7b 3d b8 b8 b0 bd cc c1 86 3d 09 ac b3 bd
       0.061437335 -0.08628982 0.065799326 -0.087730475
0000a0 de 26 b3 bb a1 5e 64 3d ed 7d 84 3d dd 31 ae bd
       -0.00546728 0.055754308 0.06469331 -0.085056044
0000b0 c9 8c 5b 3d 51 34 27 3d f9 05 09 3d 8b 28 d8 3d
       0.05360106 0.040821377 0.03345296 0.10554608
0000c0 2f a8 9d bc 01 b5 7c 3d e2 24 fb bc f8 9a a8 3d
       -0.019245235 0.061696056 -0.030657236 0.08232683
0000d0 ac fa b0 3c 66 7c 8e bd 37 2d 4e bc 13 9f f8 3d
       0.021603905 -0.06957321 -0.012584022 0.12139716
0000e0 1f d3 9a 3d 8c 2c 14 3e 5d 13 6b 3d 81 de 84 bd
       0.075597994 0.14470118 0.057391513 -0.06487752
0000f0 a2 a0 98 3c 82 43 2c bd fc c6 0c 3d 73 97 0d 3e
       0.018631283 -0.042056568 0.034369454 0.13827305

weight f4 [32, 64]
000000 90 39 3f 3d 9c 4a b7 bd a9 88 0f 3e 24 a8 fd bb
       0.046685755 -0.089497775 0.14016975 -0.007740991
000010 b8 c2 47 bd e1 08 ba 3d 85 15 f8 3d a7 00 ff bc
       -0.048769683 0.09083725 0.121134795 -0.03112824
000020 43 13 ec 3d bf 92 f5 3c df 86 00 3e 41 a6 f3 3d
       0.115271114 0.0299772 0.12551449 0.11896945
000030 a0 67 b6 3d 6f 06 06 3e 3f 01 83 bd 64 f9 bb 3d
       0.08906484 0.13088392 -0.06396722 0.09178427
000040 fe dd 80 bd a9 dd 8d bd 78 5c 6f 3d da 69 fd bd
       -0.06292342 -0.06927044 0.058437794 -0.12373705
000050 4d 4c c6 bd 65 eb ee bd d9 71 c2 bd 4f 8e 8b 3d
       -0.09682522 -0.11665992 -0.09494371 0.068142526
000060 1c ac 03 be 32 1e 16 3d 97 50 c9 3d 7f ff 00 3e
       -0.12858623 0.03664989 0.098298244 0.12597464
000070 9d 80 5d be af 99 d9 3d 6c 61 9c 3d d3 bc 9a 3d
       -0.21631093 0.10625016 0.07635769 0.075555466
000080 29 0b 0b 3c 60 66 08 3e 6a 99 cb bd 1b f4 4c bd
       0.0084865475 0.13320303 -0.09941371 -0.050037485
000090 46 5b aa bd c0 3c 24 bb fb 5f 00 3d 34 ae 31 bd
       -0.0831819 -0.0025060624 0.031341534 -0.043379024
0000a0 15 3e 05 bc 7e 06 89 3d 09 2e 0e bd 4c 40 7f bd
       -0.008132477 0.066906914 -0.03471187 -0.062317178
0000b0 87 50 89 bd be 06 b3 bc c1 a6 89 3d b9 55 bc 3d
       -0.067048125 -0.0218538 0.06721259 0.09196038
0000c0 b0 f9 fd 3a 24 de 24 bd f1 4b c1 bd 67 42 c1 bd
       0.0019376781 -0.040250912 -0.09438313 -0.09436493
0000d0 9e e4 c4 bd d0 59 11 bc 71 42 59 3d b7 f9 b4 3c
       -0.09613918 -0.008871511 0.05304188 0.02209173
0000e0 75 92 9d 3d a0 cb 3e bd 2a f2 a5 bd 67 4f 2d bc
       0.0769395 -0.04658091 -0.0810283 -0.010578013
0000f0 7e 9d 8a bd 20 b4 ab 3d 5f dd fc 3d 8e 9f 9d 3d
       -0.067683205 0.083839655 0.12346911 0.07696448
000100 c0 47 6c bc d9 cb 95 bc a2 40 c4 3d 2d 03 1e 3e
       -0.014421403 -0.018285679 0.0958264 0.15430899
000110 7e e8 7a 39 e7 b4 ac bd 57 d3 2e 3d 43 e3 36 be
       0.00023928468 -0.08432942 0.042682018 -0.17860131
000120 dd e6 02 3d 59 0b ae 3d 81 f0 47 bd 23 ea e1 bc
       0.03195845 0.08498258 -0.048813347 -0.027577465
000130 b6 95 8c 3d c6 83 62 3d f1 72 db bd 23 2f 05 3d
       0.068644926 0.05530145 -0.10715283 0.032515656
000140 6d 8c 31 be 0d 2a d4 bd f0 10 e2 bc b0 13 f9 3d
       -0.17338724 -0.10359583 -0.027595967 0.12161958
000150 5f 24 24 3e 75 ad 37 bd cf 01 8b 3d f0 81 c8 3c
       0.160295 -0.044843156 0.06787454 0.024476022
000160 dd a0 05 be b0 b5 3b bd 4b 2c ad bc 2e 6c 24 3d
       -0.13049646 -0.045827568 -0.021139285 0.04014223
000170 e2 bb 10 3e 55 42 88 3d 37 1a 4c bb ba 17 dc 3d
       0.14134172 0.06653277 -0.0031143555 0.10746713
000180 44 3e bb 3d 37 b8 74 3d c5 97 b3 bd 67 9b 56 3d
       0.091427356 0.059745993 -0.08769182 0.052394297
000190 f1 da c1 3d f4 33 23 bd d5 66 ad 3d 82 dc 6f bd
       0.09465588 -0.03984447 0.08466879 -0.058559902
0001a0 2f 88 d7 3c 6d d7 bd 3d d1 29 96 bd 98 11 a6 3c
       0.026310055 0.09269605 -0.073321946 0.020272061
0001b0 8c 5d cf bd cd 55 e6 3d e1 57 85 bc c2 f8 2b 3d
       -0.101252645 0.11246834 -0.016277255 0.04198528
0001c0 91 d5 12 3e 8f 7f 29 3c 8b b5 6a bd cb f2 67 3d
       0.14339282 0.010345354 -0.05730204 0.05662803
0001d0 fd bf ac bd f2 74 4e 3d 29 40 80 bb 3e 2c 06 bc
       -0.08435056 0.050404496 -0.0039138985 -0.008189259
0001e0 b0 59 94 be 9e 8d 97 be bd a7 06 3e 3c a7 75 3d
       -0.28974676 -0.29600233 0.13149925 0.05997394
0001f0 c3 78 19 3d e0 2e ef 3c 52 0e 8b bd 14 40 04 3e
       0.037468683 0.029197156 -0.06789841 0.12915069
000200 92 3b cb 3d 68 eb c4 3c 52 82 93 bd 4d af d6 bd
       0.099234715 0.024038032 -0.07202591 -0.10482655
000210 0e 5e c2 3d 2d 8c 9b bd 76 63 aa 3c d2 c1 c2 bd
       0.09490596 -0.07595096 0.02079938 -0.095096245
000220 76 8e dd bd cb 59 39 bd 60 76 e9 bd c4 12 ee bd
       -0.10818188 -0.04525165 -0.11399531 -0.11624673
000230 aa f2 9e bd 26 fb 8d 3d dc 7a 2b bd 7c 16 56 3d
       -0.07761128 0.069326684 -0.041865215 0.052267537
000240 40 ed 3e bc 1a 76 d8 bd 16 af ae 3d 14 5f b4 3d
       -0.0116532445 -0.10569401 0.08529489 0.08807197
000250 8c 74 f9 3b 94 13 f9 bd d8 e5 3a bd 3f 05 59 bd
       0.0076127704 -0.12161937 -0.045629352 -0.05298352
000260 12 41 cf 3d c1 12 63 3d aa 31 4b 3d 78 28 ac 3d
       0.10119833 0.055437807 0.04960791 0.08406156
000270 89 66 de 3d 1c d3 06 bd c0 fa 8e 3d 7c 7d bd 3d
       0.10859401 -0.032916173 0.069814205 0.0925245
000280 d0 73 fd 3c c7 94 00 3d 53 af c4 bd 60 e0 66 3d
       0.030939013 0.031391885 -0.09603753 0.056366324
000290 80 2b f4 3c 78 a2 f1 3d 78 9c e0 bc aa 71 17 3d
       0.029805899 0.117985666 -0.02741836 0.036973633
0002a0 59 9f a2 bd 4d 95 e0 bd b4 8d 33 bd 44 1c b6 3d
       -0.079405494 -0.10965977 -0.04383631 0.0889211
0002b0 c0 17 c2 3d 46 2c a9 3d da 62 89 3d 0f 69 af 3c
       0.09477186 0.082603976 0.067083076 0.0214124
0002c0 ca 0f a8 bd d0 2e 66 bc d8 b2 1c 3d 9d 16 fc bb
       -0.082061365 -0.014049247 0.038256496 -0.0076931254
0002d0 0a 26 4c bd 98 8e 79 3d e0 bb 2d 3c c2 fb 7f 3d
       -0.049840964 0.060927004 0.010603875 0.062495954
0002e0 38 0d 91 bc d6 00 b8 bd 17 28 c3 3d 58 c9 17 bd
       -0.017706499 -0.089845344 0.09529131 -0.03705725
0002f0 48 5d d9 bd 0c 33 d6 bd 6a 06 c4 bd 87 17 aa bd
       -0.10613495 -0.10458955 -0.09571536 -0.08305269
000300 48 72 c3 bd c3 00 e3 bd 24 df 1d 3d ba 54 46 3e
       -0.09543282 -0.1108413 0.03854288 0.19368258
000310 9b a3 1d 3e bc 0e 3c 3e d7 df e9 bd f3 78 86 3c
       0.15394442 0.18364996 -0.11419647 0.016415095
000320 18 05 20 3e 7e 88 14 3d ca 9f 2e 3e ed a2 eb 3b
       0.15626943 0.03626298 0.17053142 0.007191053
000330 bd 06 9e 3c 9b e8 1e bc 0b df 99 3b 04 ea 81 bd
       0.019290322 -0.009699012 0.0046957782 -0.06343463
000340 29 f1 77 3d b9 86 e2 bd a3 84 6f 3d 6b 0a 60 3d
       0.060532723 -0.110608526 0.0584761 0.054697435
000350 e1 85 ef 3d 71 3b 27 bd 6c ed 07 bd be 2f 3e 3e
       0.11695457 -0.040828172 -0.033185408 0.185729
000360 0a 08 80 3c 2f be 08 3e b1 21 37 bb 20 bb 3b 3e
       0.015628833 0.133538 -0.0027943666 0.18333101
000370 64 fe e5 3d 53 dd b9 bd a0 32 35 bc e4 e0 f6 3d
       0.11230162 -0.09075417 -0.011059433 0.12054613
000380 47 0e 07 bd 10 4f 1d 3e 68 89 a2 3a f2 9d 5f 3d
       -0.0329726 0.15362191 0.0012400569 0.054593988
000390 0f 3e 49 3d 40 fc 25 bd f3 39 38 3d b6 e1 bc bd
       0.04913145 -0.040523767 0.04497714 -0.092227384
0003a0 a0 7d 03 3d b8 fa df 3d 6a 62 19 3e c0 6a f1 3c
       0.032102227 0.10936493 0.14978948 0.029469848
0003b0 78 27 a1 3d 08 50 7a 3d b4 b2 82 bd ba 19 d0 3d
       0.07868856 0.06111148 -0.06381741 0.10161157
0003c0 28 5e 3c 3e fc 7f 88 bd 38 7f 3e 3c f1 51 7f bc
       0.18395293 -0.06665036 0.011627011 -0.015583501
0003d0 86 3e a8 bb d9 52 95 3d d7 d3 95 3d 0e ad 28 bd
       -0.0051344065 0.072911926 0.07315796 -0.041180663
0003e0 e6 3f 56 3e 7b b2 8e 3e f8 51 1b 3e ca 3e f5 bd
       0.20922813 0.27870545 0.15167987 -0.11974867
0003f0 20 21 da 3d d0 ec bb bd 33 34 81 3d e4 66 16 3e
       0.10650849 -0.09176028 0.06308784 0.14687687

bias f4 [32]
000000 b3 bb 91 bd 83 73 de 3d 72 46 3f bd fe a8 d9 3d
       -0.07115879 0.10861876 -0.04669804 0.10627936
000010 78 e0 b3 bd d8 86 ad bc 95 82 35 3e 7c 3d f7 3d
       -0.087830484 -0.021182463 0.17725594 0.12072274
000020 cb ec 05 3e f8 91 3e bc 99 bd 04 bc 76 b8 9c 3d
       0.1307861 -0.011631481 -0.008101844 0.07652371
000030 d3 8a 8c 3c bf 4f 0a bd 43 85 a0 bd 13 da 56 3c
       0.01715604 -0.033767458 -0.07837918 0.013113516
000040 71 04 0d be a6 79 06 bd db 64 aa 3d 36 51 1c 3c
       -0.13771226 -0.032830857 0.08320018 0.009540847
000050 52 c6 0b 3e c2 fc f3 bd 33 0c 19 3c c5 67 92 bd
       0.13649872 -0.11913444 0.009341287 -0.07148699
000060 72 4f 05 3e d0 45 ca 3d 8b 15 79 3d c1 8c 29 bc
       0.13018587 0.09876597 0.06081156 -0.0103485
000070 e1 83 ad bd a9 e5 02 3d b0 b2 9f bd bc 07 d0 3d
       -0.084724195 0.031957302 -0.07797754 0.10157725

weight f4 [128, 7]
000000 2a 27 79 be 23 34 53 3e 95 36 99 bd d7 de 91 3e
       -0.24331346 0.20625357 -0.07481114 0.28490326
000010 94 84 42 be 9f 92 9a 3c f7 1b 25 3e 8c 04 3c 3d
       -0.18995887 0.018868743 0.16123949 0.045902774
000020 a8 e6 a9 be 8f cc a9 bc b2 3a 99 3e 29 4e f4 3c
       -0.3318379 -0.020727424 0.29927593 0.029822426
000030 e6 29 67 bb 3e 04 7d bd 36 c5 59 3e bc 1a 58 3e
       -0.0035272776 -0.061771624 0.21266636 0.21103948
000040 70 fd 4a be 1c 78 85 be 0a 7c b8 be fd ef a3 be
       -0.19823241 -0.260682 -0.36032134 -0.32019034
000050 69 d9 68 3e 0b 51 c1 be 45 f6 8f bd d9 f0 9b 3d
       0.22739185 -0.37757143 -0.07029394 0.076142974
000060 2f 8a c2 3e e3 38 85 3e 89 4a 22 3d d6 2d ff 3d
       0.3799605 0.26019964 0.039621864 0.124599144
000070 72 4f 69 be 1b f4 b8 bd 1e 73 9a 3e 71 b5 80 be
       -0.22784212 -0.090309344 0.30165952 -0.2513843
000080 50 68 86 3e 6f c4 aa bd d2 bf 90 be ff 97 cb 3d
       0.2625146 -0.08338248 -0.28271347 0.099411
000090 78 a0 7b 3e 00 14 70 3e 72 cf 91 3e f2 5a b1 3e
       0.24572933 0.2344513 0.2847858 0.34639698
0000a0 94 a8 7b be 93 76 ab 3e 1d b3 78 3e f6 b1 43 3e
       -0.24576026 0.33488902 0.24287076 0.19110855
0000b0 23 f1 c6 3e 85 de 08 be 0b 85 69 3e 85 42 5c be
       0.38855848 -0.13366134 0.22804658 -0.2150975
0000c0 22 12 3c 3e f2 8f 48 be 03 50 85 3e f2 4d 0d be
       0.18366292 -0.19586161 0.26037607 -0.13799265
0000d0 9a 67 a7 3e 18 e4 64 be 11 82 82 be 71 64 96 3e
       0.3269623 -0.22352636 -0.25489858 0.29373506
0000e0 6b 09 b9 be b8 0a 40 be a2 ed 99 be 31 9e 8b 3e
       -0.36139998 -0.18754089 -0.30064112 0.27269128
0000f0 9e d4 92 3e 30 de 55 3e 22 04 3f bd 13 eb 62 3e
       0.2867784 0.20885539 -0.0466348 0.22159986
000100 85 e0 91 3e 95 bf 34 3e cf e3 9d 3e 0a f8 ab be
       0.28491607 0.17651208 0.30837867 -0.33587676
000110 4a 55 81 3c 0d 7d 9a be 23 6f a3 bd d1 c0 9b be
       0.01578774 -0.3017353 -0.07980182 -0.30420545
000120 38 e1 99 be cd 66 a8 be d5 cc a5 3e 19 3e 36 be
       -0.3005464 -0.3289093 0.32382837 -0.17797126
000130 f1 0e 6c 3c f1 e5 a8 3e a9 a8 82 3e 67 d2 9b 3c
       0.014407859 0.3298793 0.25519302 0.019021226
000140 71 66 83 bc 7a 2f c4 bc 6a aa f0 bd 5a 05 a9 3d
       -0.016040059 -0.02394842 -0.11751254 0.08252974
000150 61 bb fd bd ec 01 06 3e 76 d8 7a 3e eb d1 74 be
       -0.12389255 0.1308667 0.24496636 -0.23908202
000160 ed 3a 4e be 2b 58 9e be 23 1d a8 3e 30 ac c5 3e
       -0.20139666 -0.30926642 0.3283473 0.3860793
000170 2d 99 11 be 8d 5d ca bd 71 d8 93 be cf 4b 9c be
       -0.14218588 -0.09881125 -0.2887607 -0.30526587
000180 e7 aa b9 be 2a d0 1d 3d bc 91 87 bc 10 e7 a6 3e
       -0.362632 0.0385286 -0.016548984 0.32598162
000190 66 92 2a 3c 70 23 b0 3e d8 a3 81 be 85 5e ff 3d
       0.010410881 0.34402037 -0.25320315 0.124692
0001a0 31 da a2 be f1 64 94 3e 56 3b b5 3d c3 55 8f 3e
       -0.31807092 0.28983262 0.08849208 0.27995118
0001b0 06 9d 53 bd 10 5b 92 3e 7d ac d2 3e b4 a4 23 be
       -0.05166342 0.285851 0.41147223 -0.15980798
0001c0 2a 8e 78 be b4 bb 98 be dc b0 1a 3e f1 fd 1a be
       -0.24272981 -0.29830706 0.15106529 -0.15135933
0001d0 66 71 80 3b 69 09 95 3d b2 bf 1c be 30 1e b7 be
       0.003919768 0.072771855 -0.15307501 -0.3576522
0001e0 a1 f7 77 be 20 b8 8b bd 8f 27 f4 bd 0a 12 69 bc
       -0.24215557 -0.068222284 -0.11921608 -0.014225492
0001f0 bd 63 a6 be 5b 53 b2 be 1b 4c cc 3e f3 82 6d 3e
       -0.3249797 -0.3482922 0.39901814 0.23194484
000200 eb 1c 10 3c d6 ae 75 be 92 61 e4 3d 66 dc ce 3d
       0.008795957 -0.23992476 0.111514226 0.101006314
000210 88 2d a2 3d a0 6d fa 3d a8 6a 28 be d3 53 1a 3d
       0.07918841 0.122279406 -0.16446936 0.037677597
000220 b9 e6 28 3e 05 0b 5c be 8c 31 a1 3e a4 34 36 be
       0.16494264 -0.21488579 0.31483114 -0.17793518
000230 93 b5 40 bd 72 92 e9 3c 0e b2 47 3d b0 eb f3 bd
       -0.047048163 0.028512213 0.04875379 -0.11910188
000240 62 88 bd be f4 1e db bc 0d 8f 6d be 0e d1 ce 3e
       -0.37018114 -0.026748158 -0.23199101 0.4039387
000250 e1 fa b4 be b1 9c 1e be 06 91 c4 be 27 29 19 3e
       -0.35347655 -0.1548946 -0.38391894 0.14957105
000260 14 52 5a be 5d f3 c9 3d 47 0c d9 be bd 9e 82 3e
       -0.21320373 0.09860871 -0.4239218 0.25511733
000270 a7 b8 4b be b0 94 d1 3d 50 ec 26 be 73 d3 54 3d
       -0.19894658 0.10233438 -0.16301084 0.051959466
000280 7a 06 c8 3e 51 39 e4 be ee 74 a2 3e 19 dd 89 3e
       0.3906744 -0.4457498 0.31729835 0.26926497
000290 a1 fc 85 bd 2e 8b a8 3e 79 32 da bb ec 55 7a 3d
       -0.06542326 0.32918686 -0.006658849 0.061117098
0002a0 d5 58 e9 3e 02 25 b8 be ea 43 d2 3c 22 1d 86 be
       0.45575586 -0.35965735 0.02566715 -0.26194102
0002b0 c8 19 0f bc b7 d2 35 3e 2d 39 fb 3d ba a9 b6 be
       -0.008734174 0.17756163 0.12266765 -0.35676366
0002c0 eb 91 4f be 4c 52 02 3e d0 94 ef bd 5f 85 a0 be
       -0.20270507 0.12726706 -0.116983056 -0.31351754
0002d0 24 a7 39 3d 4d b4 46 bd 45 ec eb bd 28 7a c2 be
       0.045325413 -0.048511792 -0.11519674 -0.37983823
0002e0 75 b7 8e bd 01 f6 ab be 53 89 ac be 9e 91 74 3e
       -0.069685854 -0.33586124 -0.3369852 0.23883674
0002f0 40 df 78 3e a6 0f 00 3f 91 bc a1 be 40 72 bd 3e
       0.24303913 0.5002388 -0.31589177 0.37001228
000300 3d ba ba bd c9 bc ca 3c 1c af 6a be 81 ee 99 3e
       -0.091175534 0.024748223 -0.22918361 0.30064777
000310 87 f0 fa 3e b5 42 69 be 4b df a3 be f1 e7 c6 3b
       0.49011633 -0.22779353 -0.32006297 0.00607013
000320 2a be 65 3e 77 91 75 3d 6d 55 5e be 3b 1b 8f be
       0.22435823 0.05995318 -0.21712275 -0.27950463
000330 c3 8b fe 3c 50 eb 78 be ef ac c1 be 0c fe 60 bd
       0.031072503 -0.24308515 -0.3782725 -0.054929778
000340 25 8b 8e 3a 7e bf 6e 3e 6b c4 be 3e 82 c9 14 be
       0.0010875209 0.23315236 0.3725923 -0.14529994
000350 68 e0 66 3e be a9 09 3d 03 20 b3 be 9a d8 12 3e
       0.22546542 0.033609144 -0.3498536 0.1434044
000360 e7 4c 12 be d3 bb 4c 3e 7c f2 4a be 6e 3f 81 bb
       -0.14287148 0.19993524 -0.19819063 -0.003944329
000370 62 28 57 3e 28 2f 3c be 90 dc b6 3d eb f2 67 3d
       0.21011499 -0.18377364 0.08928788 0.05662815
000380 1b a0 05 3c f1 d0 bf 3d 83 88 b2 3e 98 20 b9 3e
       0.008155848 0.09366024 0.34869775 0.3615768
000390 08 1e 5d bc fe 7e c6 bd a2 5e cf 3d a2 51 e0 3e
       -0.01349593 -0.096921906 0.10125472 0.4381228
0003a0 3e ca 18 be 2a ce b6 bc 24 0d c7 be 2f 6c a7 be
       -0.149209 -0.022315104 -0.38877213 -0.32699725
0003b0 0c b3 92 be 7c 09 b3 3d 50 3c 8a 3e c9 3d 46 be
       -0.28652227 0.087420434 0.2699914 -0.19359507
0003c0 89 93 98 3e 27 84 be 3e bb b2 3e 3e da a1 48 be
       0.2980006 0.372102 0.18622868 -0.19592991
0003d0 27 96 f9 bd f5 3f 97 be 74 49 88 be 71 34 a9 be
       -0.121868424 -0.29540983 -0.2661854 -0.33047822
0003e0 36 3a a9 3e 19 3c 26 3e 3f 94 91 bc dc 47 9d be
       0.33052224 0.16233863 -0.017770885 -0.30718887
0003f0 6a a8 63 be f3 7e 8a be 15 88 ca 3e ce 04 31 3e
       -0.22232214 -0.2704998 0.39556947 0.17286989

bias f4 [128]
000000 d6 c2 1f 3e 07 0d bc be c0 c4 9d 3e b6 5b 7e 3e
       0.15601668 -0.3672869 0.3081417 0.24839672
000010 a5 1d aa be 3e d3 63 3e 4f 92 46 bd 7c 4c f3 bd
       -0.33225742 0.22248551 -0.048479374 -0.118798226
000020 7b ea 77 3e 79 63 96 3d 41 90 d7 bb e8 d7 fb bd
       0.24210541 0.07343192 -0.0065784757 -0.1229704
000030 dd b9 84 be b9 9e 41 3e ab f3 ee 3e 85 c5 e4 bd
       -0.25923052 0.18908204 0.4667028 -0.11170486
000040 4e 20 b7 be 1f b6 54 be 51 3f a9 3e 1a 94 95 be
       -0.35766834 -0.20772599 0.3305612 -0.29214555
000050 54 bf e0 bd 52 9f fb bc c9 ea ba 3e dc e9 98 3e
       -0.10973993 -0.030715618 0.36507252 0.2986592
000060 7e 31 b9 3e c2 e9 bd be 39 73 d3 3c e3 6f 86 bd
       0.36170572 -0.37092406 0.025811778 -0.065643094
000070 a9 66 7f 3e 11 0a a3 3e 8a f0 e8 bd d6 98 cf 3e
       0.24941505 0.31843618 -0.11374004 0.40546292
000080 b7 fd ad be 6d 29 d6 bd 7a 07 28 3e ca 58 d6 3e
       -0.33982632 -0.1045712 0.16409102 0.41864616
000090 25 04 c9 bd 60 9e 9a 3e 7a be b0 3e 4a 08 08 3e
       -0.09815244 0.30198956 0.34520322 0.13284412
0000a0 19 b0 12 be b5 2a 74 3e 17 7b e9 bd b2 f4 ce 3e
       -0.14324988 0.23844416 -0.11400431 0.40421063
0000b0 22 e8 5c 3e be e2 9c 3e f5 f4 4b be 10 fb d9 3e
       0.21572927 0.3064174 -0.19917662 0.42574358
0000c0 cc b5 8c be dd 5d e5 3c 04 90 a8 3d d1 b1 84 be
       -0.2748245 0.027998859 0.08230594 -0.25916913
0000d0 25 47 2d be f1 08 a3 3e a3 8b c8 3e 94 70 8a 3e
       -0.1692167 0.3184276 0.39169034 0.27039015
0000e0 a0 fb e0 bc 1b 62 34 3e 0d db 88 3e a2 3e 1b 3e
       -0.027463734 0.1761555 0.26729622 0.15160611
0000f0 d8 c1 1d 3d b9 1a 38 3e 94 e3 c0 be fc e1 65 be
       0.038514942 0.17978944 -0.37673628 -0.22449487
000100 10 d5 0c be a6 f5 a9 bd a2 dd 98 be 2d c0 2e 3d
       -0.13753152 -0.08298807 -0.29856592 0.04266374
000110 4b 20 5d 3e d2 da ac be 5a 53 93 bd a9 ce 12 be
       0.2159435 -0.33760697 -0.071936324 -0.14336647
000120 7d 3d 0e be 8d 9c 62 be dc 79 ba 3e ad 74 66 3e
       -0.13890643 -0.22130032 0.36421096 0.22505446
000130 71 bd a7 be 05 d0 b5 bd 0d 89 9b 3e 4b a7 0b bc
       -0.3276172 -0.08877567 0.30378 -0.0085237725
000140 27 10 a7 3e 9d 18 f5 3e 4f 42 c1 be 6e ae d9 3e
       0.3262951 0.4787034 -0.37745902 0.42515892
000150 3b 15 ca 3e f0 65 8a 3e 58 d8 8d be dc 8a 31 3e
       0.39469323 0.27030897 -0.2770412 0.17338127
000160 04 97 81 be 6b 44 d3 bd b0 34 8b 3e 82 bd 7e 3e
       -0.25310528 -0.10315784 0.27188635 0.24876979
000170 8a 4a 6f bc 42 9f f1 3e 60 de d1 3e eb 9f 73 bc
       -0.014605174 0.47191817 0.4098997 -0.01486967
000180 62 98 33 be cb f1 8e be 1f 12 80 be 0f 64 39 3e
       -0.17538598 -0.27918848 -0.25013825 0.18104576
000190 66 6c e9 3c d6 4c 0f 3e be cc 8f 3e 76 08 86 3e
       0.028494071 0.13994154 0.28085893 0.2617833
0001a0 ba dd c9 3d b8 12 cd 3e e7 67 86 3e 1e 5d b5 be
       0.09856744 0.40053344 0.26251146 -0.35422605
0001b0 4e 7c a3 3e d4 79 97 3e 00 b5 3b be 5f 18 be 3e
       0.31930774 0.29585135 -0.18330765 0.3712797
0001c0 5b 26 96 3e 6f 68 86 be 48 e7 9b 3e 88 c7 f8 3e
       0.29326138 -0.26251552 0.3044989 0.4858973
0001d0 68 75 46 be 5f 4a 84 3e bd e0 55 ba ed f1 21 3e
       -0.19380724 0.2583799 -0.0008158794 0.15814944
0001e0 32 cd c5 3e e7 6f 7d be 3c 4c b1 3e 0f d0 68 be
       0.38633114 -0.24749719 0.34628475 -0.22735618
0001f0 9c f5 15 3e 2c d6 35 3e e0 8c af 3e 60 7e 2b be
       0.14644474 0.17757481 0.34287167 -0.16747427

weight f4 [64, 128]
000000 78 e8 9c 3d c2 21 47 3c fe 1a 4e bd 7d a4 3c 3d
       0.076615274 0.012154045 -0.05031871 0.046055306
000010 c9 63 9e bd f1 04 08 bd e2 88 6b bd b2 c1 9d bd
       -0.07733876 -0.033207837 -0.05750359 -0.0770296
000020 8d af 5d bc 14 45 5a 3c 48 f4 a9 bb 96 19 33 3d
       -0.013530624 0.013322134 -0.0051865913 0.043725573
000030 97 10 68 bd 18 ea 1c 3d cb db a1 3c 21 e8 24 bd
       -0.056656446 0.038309187 0.019758126 -0.040260438
000040 6a 15 85 bd 81 05 63 3d a1 8c 86 bc 5d ea 82 3d
       -0.06498225 0.05542517 -0.016424479 0.063923575
000050 bf f0 a0 3c b3 a5 75 3d 30 78 65 bd 67 73 9e 3c
       0.019646047 0.059972476 -0.056022823 0.019342138
000060 c2 af ae bd 33 e9 b2 bd 20 8f 9b 3d 09 a8 af bc
       -0.08529617 -0.087358855 0.07595658 -0.02144243
000070 de 6f 72 bd dc 65 2a bd ec 46 ae 3c 70 c1 0b bd
       -0.059188716 -0.041601047 0.021274053 -0.034120023
000080 9d 01 a3 bd 77 de 1d bc a0 62 8e 3d f0 70 37 3d
       -0.07959292 -0.009635559 0.06952405 0.04478544
000090 31 45 23 3d a2 9e 33 3d ea a9 8c bd d9 6c a9 3d
       0.039860908 0.043852456 -0.06868346 0.08272714
0000a0 ff 17 87 3c 86 2d 83 3d d3 79 86 bc 61 b5 01 3c
       0.016490934 0.06405167 -0.016415512 0.007916779
0000b0 b3 c5 6c bd 4c 02 09 3d a0 1e f4 bb 9e 54 7d 3d
       -0.05780573 0.033449456 -0.00744994 0.061848275
0000c0 bf d0 aa bd 82 da 95 3c cf 88 64 3d fa 7d a4 3a
       -0.083405964 0.01829267 0.055794533 0.0012549751
0000d0 3b bb 65 bd bd 70 a1 bd 18 86 81 bd f7 54 95 bd
       -0.05608676 -0.07882831 -0.063244045 -0.072915964
0000e0 a3 24 7a 3d 2e d1 9e 3d 27 c4 1c bd ab 97 dc 3c
       0.061070096 0.077547416 -0.038273003 0.02692779
0000f0 cc c1 6d 3d 01 03 88 3d ca b3 f7 3c c0 af a6 3c
       0.058046147 0.06641198 0.030237097 0.020347476
000100 99 c3 91 3d 8a df 8d bd ed 61 6f 3d 42 cd a0 bd
       0.071173854 -0.06927402 0.058443 -0.0785165
000110 9c 58 95 3d 39 6b e2 3c e7 6e 29 3d 32 fd aa 3d
       0.072922915 0.027639018 0.04136553 0.083490744
000120 84 11 8c bc d9 86 fa bb 98 26 24 bd 2f 48 ed 3b
       -0.017098196 -0.0076454696 -0.04007587 0.007241271
000130 f6 65 0a bd a9 94 80 bc 6d a1 a3 bd a4 e1 95 bd
       -0.033788644 -0.015695887 -0.07989774 -0.07318428
000140 05 6c 03 3d 78 f3 aa bd 89 73 e5 3b d4 40 79 3c
       0.032085437 -0.08347219 0.0070022983 0.01521321
000150 17 89 1c bd 5d 3d 31 3d fe 2b 42 bd d4 1a 4e bd
       -0.038216677 0.04327141 -0.047405235 -0.050318554
000160 14 9d ab 3d c5 b1 07 bc c7 f4 a9 3d d4 fa a2 3d
       0.0837957 -0.00828213 0.08298641 0.07957998
000170 07 12 62 3d 88 c3 f5 b8 db 94 2d bd 5b 75 5d bd
       0.055192973 -0.00011718931 -0.042378288 -0.054066997
000180 ae d3 9f bd 32 8c fa bc ef 32 07 bd 3f 20 de 3c
       -0.078040466 -0.030584428 -0.03300756 0.027114986
000190 72 a7 23 bd 77 bf 10 3d 4b 19 bb bc 14 7a 85 bd
       -0.03995461 0.035338845 -0.022839209 -0.06517425
0001a0 04 53 9d 3d d1 38 90 bd d1 96 ae bd 8b 3c 2d 3d
       0.076818496 -0.07042087 -0.0852486 0.042294066
0001b0 ea 61 02 bc 21 44 7e bd c7 b4 41 3d 19 0c e1 3c
       -0.007957915 -0.06207669 0.047291543 0.027471589
0001c0 3c 2b a2 3c ae a1 cb ba 39 05 89 bc 63 ba 85 bd
       0.019796006 -0.0015535855 -0.016726123 -0.06529691
0001d0 dc a6 6b bc 9f c5 68 3d 3a 04 12 bc 5e 04 fe ba
       -0.014383044 0.05682909 -0.0089121405 -0.0019379964
0001e0 5f 5d 65 3d b3 40 b0 3d 5c aa 1b bd 67 65 b1 bd
       0.05599725 0.086060904 -0.038004264 -0.08661919
0001f0 88 6b 8e 3c 0f 6a dc 3b f6 fe 38 bc b0 c4 02 3d
       0.01738526 0.0067265104 -0.011291256 0.031925857
000200 1a 8a 9b 3b 6b 5a 44 bd 2e f7 59 bd 9b 61 3d bb
       0.0047466876 -0.04793779 -0.053214245 -0.0028897289
000210 ec ef a7 bd b3 50 f4 bc 12 07 5d 3d 6d ba 93 bd
       -0.08200058 -0.029823637 0.05396182 -0.07213292
000220 e7 b4 83 bd 19 57 d2 bc 2b 2b c9 bb 15 d0 82 bd
       -0.06430989 -0.025676297 -0.006139179 -0.06387345
000230 1d 94 93 3d 72 d2 13 bd 95 4e bc 3c 4f 2b a7 bc
       0.07205985 -0.03608937 0.02298669 -0.020406393
000240 b5 10 d2 bb 19 b2 14 bd 8e f8 bb bd 73 0f 1f ba
       -0.006410683 -0.03630266 -0.091782674 -0.0006067671
000250 e6 c6 8d 3c 3d 4e 44 3c b1 2d 88 bd 0f 81 e5 bb
       0.017306756 0.011981544 -0.0664934 -0.0070039104
000260 ca 49 91 bd 4d 18 a6 bd 11 46 8f bb 59 58 7f 3c
       -0.07094152 -0.08110104 -0.0043723662 0.015585029
000270 d4 da 46 3d 89 b1 a2 bd 09 4f 50 bd 60 f2 8b bd
       0.048548535 -0.079440184 -0.050856624 -0.06833339
000280 b7 91 41 bd 9f 39 56 3d fc 51 5a bc b3 34 5d bd
       -0.047258105 0.052301046 -0.013325211 -0.054005336
000290 26 67 9b bd 36 7c 56 bd 66 3c ca bc 34 7c 0c 3d
       -0.075880334 -0.05236455 -0.024687003 0.034298137
0002a0 f6 75 5c bd a8 da 90 3c bb ea 84 3d 86 cb c4 3c
       -0.053823434 0.017682388 0.06490084 0.024022829
0002b0 88 2d c8 3c 6d 32 a6 bd 53 63 d3 3b 79 f1 41 3d
       0.024435773 -0.08115087 0.0064510494 0.047349427
0002c0 cc 2e 94 3d a1 26 8f bd 90 17 a3 3d 97 c2 86 3b
       0.07235488 -0.0698979 0.079634786 0.0041125524
0002d0 d1 aa 4b 3d 96 a7 45 bd a6 61 5f 3d 1a a9 7e 3d
       0.04972345 -0.048255526 0.054536484 0.062172987
0002e0 95 07 ba bc be 61 b0 3c b0 98 06 bc 30 aa a4 bd
       -0.022708694 0.021530982 -0.0082151145 -0.08040273
0002f0 78 ca 4d 3c 32 bf 6f 3d 99 25 97 bd 5e 61 a1 bd
       0.012560479 0.058531947 -0.07380218 -0.078798994
000300 00 52 a3 3d 32 47 b2 3d 34 65 03 3c 07 93 8e bc
       0.07974625 0.08704986 0.008019734 -0.017404092
000310 d4 f9 c1 ba de 0f 9a bd 51 41 79 b7 ee 62 ac 3d
       -0.0014799186 -0.07522558 -1.4856764e-05 0.08417307
000320 8e 00 24 3d b6 3f c9 3b f1 d7 9a 3d 11 c6 81 3d
       0.04003959 0.006141628 0.07560719 0.06336606
000330 3a de 77 3d 59 4f 6f 3d 5b 48 40 3d ce 3d e0 3b
       0.060514666 0.05842528 0.046944004 0.006843305
000340 03 27 88 bd 04 c3 2c bd 99 36 98 3c 11 66 7b 3d
       -0.06648066 -0.04217817 0.018580722 0.061376635
000350 ff 41 bc 3b 57 38 0a bd 67 09 92 3d d3 38 fd bc
       0.005745172 -0.033745136 0.071306996 -0.030910885
000360 3d 48 6c bd 8c cd 3d 3b 7b a1 28 3d 8b e7 54 bd
       -0.05768608 0.0028961627 0.041169625 -0.05197863
000370 c7 e2 17 3d 8b d0 c5 bd 2b 05 4c 3d 94 70 9c 3d
       0.037081506 -0.09658917 0.049809616 0.0763866
000380 93 e2 93 3d f2 50 5f bd 8f 62 71 3d bf 8f fb 3c
       0.0722095 -0.054520555 0.058931883 0.030708192
000390 7c 78 a6 bd 78 f0 09 bc d0 b1 86 3d 13 dc 5d bd
       -0.08128449 -0.008419149 0.06576884 -0.054164957
0003a0 49 9c bc bd 8e d9 c3 bc 94 83 91 3d ea f7 c9 3c
       -0.092094965 -0.02390745 0.07105175 0.024654347
0003b0 58 54 57 bc 75 9d a7 bd 5b 98 73 3d 20 04 32 bd
       -0.013142668 -0.081843294 0.05947147 -0.043460965
0003c0 b2 47 8e 3d 3c 65 a7 bb 4d 6a 11 3c 4f e8 d6 bc
       0.069472685 -0.0051085036 0.008875442 -0.02623382
0003d0 dc cc a9 bb 9e ef a7 3d 41 12 24 3c ad 42 13 3d
       -0.005181892 0.082 0.010014118 0.03595226
0003e0 63 82 91 3d 8a b4 5e 3d f8 8c 67 3d 49 ac 1d 3d
       0.071049474 0.054371394 0.056530923 0.038494382
0003f0 87 ee 6d 3d c1 6a 44 3d 32 d7 c9 bd 11 6c 77 bc
       0.058088806 0.04795337 -0.098554984 -0.015101449

bias f4 [64]
000000 d3 0d 47 3b c7 5e 9a 3d b1 3d 34 bb fb 70 a5 3c
       0.003037323 0.075376086 -0.0027502591 0.020195475
000010 d9 45 b8 3c c2 75 6b 3c ec 6a 94 3d 03 61 02 3d
       0.022494243 0.014371337 0.07246956 0.0318308
000020 3c de a6 3c a7 0a c2 3c d0 7f 66 3d 74 61 cb 3c
       0.020369641 0.02368672 0.056274235 0.024826743
000030 f7 95 af 39 58 1a f4 bc 56 4f 16 bc 05 17 9b bd
       0.00033490334 -0.029797718 -0.009174189 -0.0757275
000040 0e 6f 91 3c 58 23 1b 3e 87 33 2e bc 69 f9 b4 3d
       0.01775315 0.15150201 -0.010632402 0.08836634
000050 0b 97 c7 3d a9 1e 94 bd eb 9e ba 3d d5 9a a1 bd
       0.09745606 -0.072324105 0.091123424 -0.0789086
000060 c0 20 aa 3d 95 96 d0 bc 4e 5b b7 3d ba af 8f 3d
       0.08307028 -0.025462428 0.08952962 0.07015939
000070 de 9f 1d 3d 6b 56 65 3d 66 87 5b bd 28 47 93 3d
       0.03848254 0.055990618 -0.053595923 0.07191306
000080 ca cd 4e 3d 37 86 b8 3d cc 75 ee 3d c2 29 ea 3c
       0.050489224 0.090099744 0.11643562 0.028584365
000090 44 18 2a bd b0 4e 89 3d 56 0b eb 3d 7f 7a 7a bd
       -0.041527048 0.067044616 0.114767715 -0.061151978
0000a0 f7 db 0c 3c b5 15 a0 bb 38 4b 83 3d 7d ec 8a 3d
       0.008597366 -0.0048854 0.06410831 0.06783388
0000b0 7b 8d 63 3c a2 ec ca 3d 19 fe de bc 0d 32 bd 3c
       0.013888712 0.099084154 -0.027220773 0.023095155
0000c0 d2 e9 94 bc 5b 16 36 3d 19 40 2f 3d 32 20 28 3d
       -0.0181779 0.044454914 0.042785738 0.04104633
0000d0 b5 20 93 3d ab 98 10 3e 32 e9 e7 bc ac 76 ed 3d
       0.07183973 0.14120738 -0.028309438 0.115949005
0000e0 c2 df da 3d fe 00 51 bd 01 b3 d7 bc f0 1d aa bd
       0.1068721 -0.051026337 -0.026330473 -0.083064914
0000f0 24 9c aa 3d 49 42 65 3d f5 99 12 bd 9a 4b 1b 3e
       0.08330563 0.055971418 -0.035791356 0.15165558
