2023/baseline0806/model/WLTP_trained_0822/PPO_actorcritic_3episode.pt (torch, 101507 bytes, 17 tensors)

weight f4 [128, 7]
000000 b4 19 94 be aa cc 4b be 5e a2 71 3e 2b 18 98 be
       -0.2892586 -0.19902292 0.23597094 -0.2970594
000010 07 9d 85 be 05 c3 99 3e f9 56 9c 3e 1e ce 25 bd
       -0.26096365 0.300316 0.30535105 -0.04047977
000020 ac b0 39 be 07 fb ad 3d 21 fc 8e be 93 1b 0c be
       -0.18133801 0.08495145 -0.27926734 -0.13682394
000030 ee 79 b9 be b6 61 9a be d8 29 a7 3d 8f 73 f1 bc
       -0.36225837 -0.30152673 0.08162278 -0.029474048
000040 b6 8b 26 be 2e 7e 13 3e 43 e2 a9 3e 6a 98 bd 3e
       -0.16264233 0.14403602 0.33180436 0.37030345
000050 ca d0 a2 3d 10 4f a2 be 37 05 28 be 5e 8e 6d be
       0.079499796 -0.31700945 -0.1640824 -0.2319884
000060 1f 5e e8 bc 73 d1 28 be 0b d7 82 3e 53 14 d3 3e
       -0.028365193 -0.16486149 0.2555469 0.41226444
000070 cb 4f 9b 3d 74 e7 3b be ec f8 ba be 05 3b a2 3d
       0.07583579 -0.18350011 -0.36518037 0.07921413
000080 87 cd b2 3d 02 f9 3d 3e 78 f0 a7 bc bf c8 67 bd
       0.087306075 0.1855202 -0.020500407 -0.05658793
000090 ac 1c 02 be f3 ce a1 be d2 dc 15 bd 26 e2 94 3e
       -0.1270625 -0.31603202 -0.036587544 0.29078788
0000a0 a5 b5 0d 3e c5 bf a4 3e 94 a8 ad be 0c e3 81 be
       0.13838823 0.3217756 -0.33917677 -0.25368536
0000b0 9a 09 ad be f4 85 42 3c 75 50 8d be c1 60 15 be
       -0.33796388 0.011872757 -0.27600446 -0.1458769
0000c0 7b c1 9a bb 23 d2 cc 3d 86 89 96 be aa 28 b8 3e
       -0.0047227717 0.10001018 -0.29401797 0.35968524
0000d0 ba f8 ad 3e c3 ec a4 3e be b9 bf be 01 36 5d bc
       0.33978826 0.32211885 -0.37446398 -0.013501645
0000e0 bd 59 c6 3e fc a4 fb bb 16 b1 75 be ff d6 d2 3c
       0.3874034 -0.00767958 -0.23993334 0.025737284
0000f0 d7 05 b1 3e b1 d7 97 be db ac 38 3d e2 47 a3 3e
       0.34574768 -0.29656747 0.045086723 0.3189078
000100 02 6e 0a be a5 15 b2 be c8 5e a2 be b3 12 12 be
       -0.13518527 -0.34782138 -0.31712937 -0.14264946
000110 8a 71 b1 3e bb 13 a5 3e 63 23 9c 3e 59 8f 98 3e
       0.34656936 0.32241616 0.30495748 0.29796866
000120 1f 20 94 3d ac f0 3d 3e a9 04 90 be 33 1a 09 3d
       0.07232689 0.1854884 -0.28128555 0.03347225
000130 04 03 8a 3d 7d 0b 3c bd 8a 7c d6 3e e6 63 4d 3e
       0.067388564 -0.045909394 0.4189189 0.2005764
000140 fe 75 c6 bd e7 ce 57 3e ff a7 8d bd 09 38 b9 bd
       -0.09690474 0.2107502 -0.06916808 -0.09043891
000150 6e 7b 88 be 30 09 5d be 1a 3c 89 3e ad 16 98 be
       -0.2665667 -0.21585536 0.26803666 -0.297048
000160 f2 05 72 3e 58 87 1a be de 79 66 3e c1 c7 75 3e
       0.2363508 -0.15090692 0.22507426 0.24001981
000170 fa a8 85 3e 68 1f a6 3e e8 62 dc 3d 1e 01 19 be
       0.2610548 0.32445836 0.10761052 -0.14941832
000180 67 23 1f be 71 c1 89 be 68 74 11 bd 2f 64 ff 3c
       -0.15540849 -0.26905397 -0.035511404 0.031175701
000190 ff ef ed 3d 16 2a f6 3c 3a f3 d3 bc f5 14 23 3e
       0.11618041 0.030049365 -0.025872815 0.15925963
0001a0 9f b7 6c be 62 a5 4f 3e a2 90 84 be 47 f6 0b bc
       -0.23116921 0.20277932 -0.25891596 -0.008542604
0001b0 14 ed 34 3e 73 c8 27 bd a4 a9 98 3e a9 17 7d be
       0.17668563 -0.040962648 0.29816926 -0.24716057
0001c0 62 63 49 be 19 7e b3 be f5 cd 64 be a1 96 8d 3e
       -0.19666818 -0.35057142 -0.22344191 0.27653983
0001d0 0d b6 cd 3d 09 5d 01 be 60 a1 17 3d 96 5b 61 be
       0.10044489 -0.12633146 0.037019134 -0.22007594
0001e0 6f f8 ab 3e 59 55 6b be 73 64 b5 3e 7a 0c 40 be
       0.33587977 -0.22981776 0.354282 -0.1875476
0001f0 f8 5d 06 be 39 03 8a be e2 29 a4 3e 82 a8 03 be
       -0.13121784 -0.26955584 0.32063204 -0.1285725
000200 a7 ff 8a bc c4 78 be be bb 18 94 be 35 14 87 be
       -0.016967608 -0.37201512 -0.28925118 -0.26382604
000210 3e 72 8a be f4 02 85 be a4 49 94 be 89 c9 22 be
       -0.27040285 -0.25978816 -0.28962433 -0.15897192
000220 44 c1 00 be f3 dd e9 bb 63 8a 6c be 0f 97 92 be
       -0.12573725 -0.007137054 -0.23099665 -0.28630874
000230 3c 6b a5 3e 59 78 ae bd 14 fd f2 3d d0 0d c3 3d
       0.32308376 -0.08519048 0.11864677 0.09524119
000240 8f f6 2b 3d ba 7a a8 3e 53 fb aa 3e 09 f1 bd bd
       0.041983183 0.32906133 0.3339487 -0.092744894
000250 f9 bf 52 3c 9d ef a1 bd 73 1a f3 bd cc de 45 3c
       0.012863153 -0.07907031 -0.11870279 0.012077045
000260 bf c8 53 be f2 f8 91 3d 0b ca af be dd 75 b9 3d
       -0.20682047 0.07127561 -0.34333834 0.09055684
000270 9a 49 86 3e 7d f8 8d bd d6 c7 f6 3c 85 54 18 be
       0.2622803 -0.06932161 0.030124586 -0.14875992
000280 f6 50 92 3e 6d ab 7e 3e 1e 4c aa bd 49 f6 41 3e
       0.28577393 0.24870081 -0.083152995 0.18941607
000290 b6 88 87 3e 80 b0 82 3d 28 18 a0 3e b1 69 cd 3e
       0.2647149 0.06381321 0.3126843 0.401197
0002a0 28 5f b1 3e 9a 90 3b be f4 b5 63 3d 14 14 88 be
       0.3464291 -0.1831688 0.055593446 -0.26577818
0002b0 0d 45 a5 3e dc a9 ed bd 24 7f 96 3e c5 d3 64 3d
       0.32279244 -0.11604664 0.29393876 0.05586602
0002c0 0d 46 33 3d 20 20 b3 be c9 5e d8 bd 90 23 21 bd
       0.043767978 -0.34985447 -0.10564954 -0.039340556
0002d0 5d 38 22 3e fa 3b 3f be 31 f0 41 3e 42 b3 7e be
       0.15841813 -0.18675223 0.18939282 -0.24873069
0002e0 37 32 82 3e 5e 46 13 be 76 68 27 be 8f 7d 65 3e
       0.25428936 -0.14382312 -0.16348442 0.22411178
0002f0 f0 9a 1e 3e 9a 04 a1 3e 40 b6 ec 3d b2 0c 1c 3e
       0.15488791 0.31448823 0.11558199 0.15239218
000300 49 ee 81 3e 0f 38 97 3e 45 f3 20 be 3e 7a 93 3e
       0.2537711 0.29534957 -0.157178 0.288042
000310 13 a3 38 bd 01 7c 94 3e 7f f3 f8 bd fc 2e 83 3e
       -0.045077395 0.29000857 -0.12155818 0.25621784
000320 0e f4 5b be a6 0a d0 bd ce 15 06 3e 44 aa a8 3e
       -0.21479818 -0.10158281 0.13094255 0.32942402
000330 bb 99 aa 3d aa 1b 38 3e f2 25 41 be 18 5d de 3d
       0.08330103 0.17979303 -0.18862131 0.108576
000340 b8 ea c2 3e 29 d1 61 3e e5 d6 02 be 7f bf 2a be
       0.380697 0.22052445 -0.12777288 -0.16674612
000350 2a cd 9f bd a4 cb 1d 3e 4c 4d 75 be 50 3c 55 3e
       -0.07802804 0.15409714 -0.23955268 0.20823789
000360 8d 01 9a 3e 48 42 1f 3e 7c ce ea bd 6f 83 ff 3d
       0.30079308 0.15552628 -0.11465165 0.12476241
000370 54 ac 86 bd 76 34 74 3e 51 28 b3 3e 84 a4 82 3e
       -0.06575838 0.23848137 0.34991696 0.2551614
000380 56 45 be 3d c0 6d 3f be 2a b0 98 bd 19 ca c2 3e
       0.092905685 -0.1869421 -0.07455476 0.38044813
000390 86 73 a2 3e 26 48 2d be e2 cd 67 3c 5a c0 61 3e
       0.31728762 -0.16922054 0.014148207 0.22046033
0003a0 86 e8 f0 3d 77 fa 97 3d 56 d2 c2 3e 96 24 59 3e
       0.117631 0.07420819 0.380511 0.21205363
0003b0 de eb 77 be a7 47 ae 3e a3 10 e5 3d e5 22 74 be
       -0.2421107 0.3403904 0.11184814 -0.23841436
0003c0 ab bd 49 be c3 56 b3 bd ec 2b a2 3e d0 66 59 be
       -0.19701259 -0.08756783 0.31674135 -0.21230626
0003d0 90 32 38 3d a6 41 90 3d be 91 9b bc 6c 4b 2d 3e
       0.044970095 0.070437714 -0.018990394 0.16923302
0003e0 e6 dc 2d be 1e 27 9d 3d 8b e4 2c be f9 dc 80 3e
       -0.16978797 0.07673477 -0.16884057 0.2516859
0003f0 cb 9e 57 be 5d 28 90 3e ae 87 53 3d 38 d0 90 3e
       -0.21056668 0.28155795 0.051643066 0.28283858

bias f4 [128]
000000 45 37 83 be f0 48 74 be 86 dd 46 3e 42 29 d3 3e
       -0.25628105 -0.23855948 0.19420442 0.41242415
000010 23 18 6a 3d be d2 17 be 23 db d1 bd 4e e5 eb 3d
       0.057151925 -0.14826486 -0.10246875 0.11518346
000020 6b af 04 bd 9c 02 c9 3e c0 11 9f 3e ae 81 18 3d
       -0.032393854 0.39259803 0.3106823 0.037233047
000030 d7 7d cc 3d fa 7a 68 3e 43 2b 68 3d 80 25 17 be
       0.099849395 0.22703162 0.056681883 -0.14760399
000040 5c 69 4c be 28 23 d1 3d 88 ea ad 3e fc 90 94 3d
       -0.19962066 0.10211784 0.33967996 0.07254216
000050 84 64 8d bd 7e f2 9a be 63 e8 6d 3e b3 08 5c be
       -0.069039375 -0.30263132 0.2323318 -0.21487693
000060 41 93 95 bd 02 0c 91 be a2 14 e9 bd b7 19 9c 3d
       -0.07303477 -0.28329474 -0.113808885 0.07622092
000070 fc 63 c3 be 51 d2 a3 be 2f e8 90 3e f6 8a ff 3b
       -0.3816222 -0.31996396 0.28302142 0.007798548
000080 c5 0c a8 3e 90 da a0 3d 0b 44 95 3e 0f b1 95 be
       0.32822242 0.078541875 0.29153475 -0.29236647
000090 30 3c 94 be 5e f7 cf bd f4 5c a2 be 19 2e c7 bd
       -0.2895217 -0.101546034 -0.31711543 -0.09725589
0000a0 34 a9 49 be 5f 4f c3 be a5 aa f0 bb 1e f3 97 bd
       -0.19693452 -0.38146493 -0.007344561 -0.07419418
0000b0 a2 46 92 be c8 97 87 bc 8a c2 80 be 3e ea d7 3c
       -0.28569514 -0.016551867 -0.25148422 0.026356813
0000c0 38 0c 82 be 84 a6 49 be ec cc 69 3e 4e 07 ce 3e
       -0.25399947 -0.19692427 0.22832078 0.40239948
0000d0 d8 7d 14 3d 90 e5 a3 be 9d 70 14 be 91 d7 5e 3e
       0.036252826 -0.3201108 -0.14496084 0.2176192
0000e0 74 84 9e 3e 4a 57 95 3e 13 cc 8c bd 4c 82 b3 be
       0.3096043 0.2916816 -0.068748616 -0.35060346
0000f0 f2 42 aa be 5d be 1b 3e 2d 52 a8 3c 6d d6 a2 3e
       -0.332542 0.15209337 0.020546997 0.3180422
000100 08 b6 90 3e 6c d3 46 be 4f f3 b5 be bb e1 b9 be
       0.2826388 -0.19416589 -0.35537192 -0.3630503
000110 e7 40 d4 3e 40 1b 1c 3d 3a f9 27 3d 66 dc 02 bd
       0.41455767 0.038111925 0.041009165 -0.03194847
000120 62 d2 85 be 69 5f b4 3e 49 6a 98 3d 88 50 71 bd
       -0.26137072 0.35229042 0.07442147 -0.05891469
000130 b7 c4 17 3e ec f5 99 3e cf 7a b0 bd 2a 5b 9a 3e
       0.14821135 0.30070436 -0.08617174 0.30147678
000140 88 ad 9b 3e 0f a6 95 3e 75 89 32 3e 6b 32 84 be
       0.3040583 0.29228255 0.17435248 -0.25819716
000150 0f b6 12 be e8 bf d9 bd 29 c4 9b be a8 42 6c be
       -0.14327262 -0.10632306 -0.30423096 -0.23072302
000160 5f a5 ac be 30 96 e9 bd 0d 07 c2 3e 1c 3f 96 3e
       -0.33719918 -0.11405599 0.37896004 0.29345024
000170 21 6b c6 3e fc 83 d2 3e 08 ac d1 3d be 00 99 be
       0.38753608 0.4111632 0.102378905 -0.2988338
000180 cd 13 bc bd 7d fb 91 3e f1 82 0d 3e 87 6f a7 be
       -0.09183464 0.28512183 0.13819481 -0.32702276
000190 92 01 d1 3e b3 fe 88 3e 6d 44 49 3e 9a 00 bb 3e
       0.4082151 0.2675682 0.19655009 0.36523896
0001a0 68 9f 55 be 1f a4 dc 3c 70 d9 c3 3d 9d 50 20 be
       -0.2086159 0.026933728 0.09562957 -0.15655752
0001b0 c5 2d 2b be 30 75 eb 3d 7d 91 9c 3d bd 75 80 be
       -0.16716678 0.11496961 0.07644937 -0.25089827
0001c0 81 eb ac be f7 2a 20 be 55 58 9f 3e ae 70 56 3d
       -0.33773425 -0.1564139 0.3112208 0.052353553
0001d0 1d fb 24 be 23 90 c6 3d c5 12 89 3e 96 f0 1d be
       -0.16111417 0.09695461 0.26772133 -0.15423808
0001e0 25 9d 84 3e f6 10 03 be 17 77 1b be b1 91 3d 3e
       0.25901142 -0.12799439 -0.15182148 0.18512608
0001f0 fa aa 46 3e 38 ca 82 be ce 9d a6 3e 2a 18 8b be
       0.1940116 -0.25544906 0.3254227 -0.27166873

weight f4 [64, 128]
000000 fe f1 e2 bc fd f6 ac 3d 9a e1 0d 3b 69 62 3f 3d
       -0.027703281 0.08445547 0.0021649362 0.04672471
000010 e7 fe 78 3d 7f 63 73 bd 81 3d ae 3d be 79 c4 bc
       0.06078997 -0.05942106 0.08507825 -0.023983832
000020 d5 e8 a2 bd 3d 83 6d bd 1b 1c 4a 3c 66 64 b4 3d
       -0.079545654 -0.057986487 0.012335802 0.08808212
000030 54 74 b3 bc 9e 49 b3 3c 74 2a a5 bd 09 d1 87 3c
       -0.021906056 0.02188569 -0.08064738 0.016579168
000040 70 87 5e 3c 9d 18 93 bd bb a4 e8 bc 8a 06 0b bd
       0.0135820955 -0.07182429 -0.028398862 -0.033941783
000050 44 79 16 bd 35 71 89 3d 24 74 03 bc 58 96 60 bd
       -0.03673674 0.06711046 -0.008023296 -0.05483088
000060 88 38 bc 3c f2 71 28 3d bb e9 09 3d 90 ad fa 3b
       0.022976175 0.04112429 0.03367017 0.007650085
000070 88 cb 29 bc d8 c4 88 bd 9d 64 6d bd 8c c4 6d 3d
       -0.010363467 -0.0667817 -0.05795728 0.05804877
000080 ed 73 9e 3d 42 42 ee bc a7 0b 2f bb 69 c5 82 bd
       0.07736955 -0.029084329 -0.0026709826 -0.06385309
000090 40 cb 3d bb a0 50 a0 bd 10 16 b1 3d d5 3e c8 3c
       -0.0028960258 -0.07827878 0.08646786 0.024444023
0000a0 24 22 ca bc 15 3b 9d 3c aa 78 78 3d cb 75 ae 3c
       -0.024674483 0.019193212 0.06066195 0.021296402
0000b0 76 c3 a9 3d 98 4f 13 bd b6 c9 55 bc 84 db 9b bd
       0.08289234 -0.03596458 -0.01304858 -0.07610229
0000c0 7b b4 9a 3d a6 d4 9e bd bb b6 44 ba 97 b9 6c bd
       0.07553955 -0.07755403 -0.00075040356 -0.05779418
0000d0 5a fd 1a bd 59 d6 71 3d 3c e3 d9 bc 63 52 9f 3d
       -0.03783927 0.05904231 -0.026597612 0.07779386
0000e0 3c 65 1a 3d 4c c6 7b bd 63 53 ed bc 3b 73 6d bd
       0.0376942 -0.061468408 -0.028970426 -0.05797122
0000f0 d8 49 90 bd 84 5c a9 bb 97 a9 6f bd 07 4e 86 bd
       -0.070453346 -0.0051684994 -0.058511343 -0.06557851
000100 d2 df 37 bd 1f e0 aa 3d 65 a6 99 3d b7 38 58 3d
       -0.044891186 0.08343529 0.0750244 0.052788462
000110 72 c8 2a 3d 33 ca 20 3d 12 50 15 bb 4a c0 8c 3d
       0.041695066 0.039255332 -0.0022783321 0.06872614
000120 cb f5 64 3d 52 86 54 3d 49 38 73 3c 03 db ad bd
       0.05589847 0.05188591 0.014844962 -0.08489039
000130 9b a2 82 bd 3f 73 9a 3c 7f 84 92 bd f0 89 86 bd
       -0.06378671 0.018853782 -0.07154178 -0.06569278
000140 52 fc 10 3d dc d1 30 bd 65 3d 89 bd 8c 7f eb bc
       0.03539688 -0.043168887 -0.06701163 -0.028747343
000150 56 e8 96 bb 14 26 cd bc eb 99 22 bd 8d 1a 7a 3d
       -0.0046053333 -0.025042571 -0.03969757 0.061060477
000160 01 83 f2 3c 76 74 aa 3d c0 bb 0f bd 0c a5 ac 3c
       0.029603483 0.083229944 -0.03509116 0.021074794
000170 a0 d4 0e bd cf 11 9f 3d da 02 35 3d 32 03 aa bc
       -0.034870744 0.077670686 0.044192173 -0.020753477
000180 d3 b4 ef 3c 3a d5 b3 3c 5d 5e 16 bb c4 8f 52 bd
       0.029261028 0.02195226 -0.0022944428 -0.051406637
000190 e0 93 b5 3b 8d 6f de 3c 21 a7 bc bb d0 e7 00 3d
       0.0055413097 0.027152801 -0.005757228 0.031471074
0001a0 96 88 41 3d e7 0c 6e 3d fa 9c 8f bc 5f 4f 8b bc
       0.0472494 0.058117773 -0.017530907 -0.01700562
0001b0 04 4b 4f 3d f2 ca 90 bd c3 bd a7 3d f7 f9 c5 3c
       0.05060865 -0.07069959 0.08190491 0.024167044
0001c0 a4 4f c5 3c 0d 7e 03 3d aa c2 61 bd 5a 30 96 bd
       0.024085827 0.032102633 -0.055117287 -0.07333441
0001d0 52 ce 37 bd e8 cb 9d 3c fd 42 95 3a 49 20 52 bd
       -0.044874497 0.01926227 0.0011387762 -0.05130032
0001e0 a9 2d 03 bd 4d e0 8e 3d 5e 71 33 3c 69 50 70 bc
       -0.032025967 0.06976376 0.010952322 -0.014667609
0001f0 e0 4e 13 bd 16 77 5e bd 98 b5 93 bd db f3 6b 3d
       -0.035963893 -0.054312788 -0.07212371 0.057605606
000200 26 60 6d 3d 19 4e ab 3d 68 19 64 bd 53 e1 8b bc
       0.057953022 0.08364505 -0.05568829 -0.017075216
000210 79 38 00 bd 14 8e e4 3b 1c d9 47 bd 6e da b5 3c
       -0.031303857 0.006974945 -0.048791036 0.022198882
000220 78 97 36 3b ae 63 39 3d 64 ca 56 bc 8d 1f 27 bd
       0.0027861279 0.045261078 -0.013109777 -0.040801574
000230 ad 24 dc bb 93 21 1e bd ad 60 d6 bb f9 2e 8c bc
       -0.0067182393 -0.038606238 -0.0065422864 -0.017112242
000240 a1 b7 2a 3d dc c1 19 3d a6 86 70 bd b6 37 de 3c
       0.04167903 0.037538394 -0.05872216 0.027126174
000250 f2 61 a1 3d 77 b9 b1 3d 64 4e 61 bc bc 33 12 3d
       0.0788001 0.08677953 -0.0137516 0.03569387
000260 8b ee 4d bd 9a 33 77 3d eb c8 26 3c b1 c5 5d 3d
       -0.05027632 0.060351945 0.0101797385 0.05414361
000270 e4 30 7e 3d a8 3d 27 bd fa 4d 8f 3d fc aa 14 3d
       0.062058344 -0.040830284 0.06997295 0.036295876
000280 2d f4 15 bd d7 5f 89 bd 18 f4 18 3d b3 b1 5c 3d
       -0.036609817 -0.06707733 0.03734216 0.053880405
000290 57 04 9f 3d 9c 3d a6 3d 82 7a 84 3d 98 ac dc bc
       0.077645 0.0811722 0.06468679 -0.026937768
0002a0 15 f3 c7 bc 3c d3 31 bd 24 0f 8a bc da 89 7d 3d
       -0.024407903 -0.04341434 -0.016852923 0.061899044
0002b0 f0 be ab 3d 8d 5b 6b bc 46 c0 5e 3b 1e 94 bd bc
       0.08386028 -0.014365089 0.0033989116 -0.023141917
0002c0 6d b7 95 bd c5 f3 5a bd db 54 a6 3d f6 56 0b bd
       -0.07310376 -0.053455133 0.08121654 -0.03401848
0002d0 5a 23 05 3d ff 7d d7 3c 14 75 90 bd b3 7e 0e bd
       0.032504417 0.026305197 -0.07053581 -0.0347888
0002e0 ec 64 60 bd 29 c8 5a 3b 82 c0 ec 3c a8 b2 6b 3d
       -0.054783747 0.0033383465 0.028900389 0.057543427
0002f0 0c 38 5b 3d 8a fb 87 bd 01 1d 15 3d a8 cb 72 3d
       0.053520247 -0.06639774 0.036404613 0.059276253
000300 c2 3f 14 3d 1c 03 a3 3d 5e 80 34 bd 38 9f ad bd
       0.036193617 0.079595774 -0.044067733 -0.08477634
000310 fe c3 7c bd 23 32 8b 3c ad 5b a4 3d fb cc 42 3d
       -0.06171035 0.01699168 0.08025298 0.047558766
000320 3c a7 97 bc ae 71 39 bd 52 77 3e 3d 4f 72 26 3d
       -0.01851236 -0.04527443 0.04650051 0.040636357
000330 58 8c 8f 3d c9 5e 94 bd e1 94 28 bd 27 d9 d6 3c
       0.0700919 -0.07244641 -0.041157607 0.026226593
000340 9c 99 22 bb c2 f3 3a 3d 51 cf bd bc 4a 3f 94 bd
       -0.0024810797 0.04564262 -0.023170145 -0.07238634
000350 a8 3a 9f 3d e3 04 17 3c 8f 7c c2 bc 7a d9 b0 bd
       0.0777486 0.009217474 -0.023741035 -0.0863523
000360 d0 75 88 3d c4 9c 09 3a e0 64 24 ba 5b df 8c bd
       0.06663096 0.0005249495 -0.0006271135 -0.06878539
000370 14 8b 05 bd 70 d2 91 bd d5 76 ba bb c1 8a 49 3b
       -0.03260334 -0.07120216 -0.0056904354 0.003075287
000380 0e 91 af 3c a9 ca 7d 3d 08 ad 5d 3c 40 28 a7 bd
       0.021431472 0.06196085 0.013530023 -0.08161974
000390 4f 9c 25 bd 31 b5 18 bc 9c fd 8e bd 19 e4 aa 3d
       -0.04043227 -0.009320543 -0.06981966 0.083442874
0003a0 4c 9c d6 bc ef 89 2e bd 20 26 12 bc 64 84 2f bd
       -0.026197575 -0.042612012 -0.0089202225 -0.042850867
0003b0 12 b9 8e 3c 5d d9 6d 3d db 53 94 bd 2e 25 7a 3d
       0.017422233 0.058068622 -0.07242557 0.061070614
0003c0 3a 8f b1 3d c8 8a 48 3c df e5 16 3d 2a 15 8c bd
       0.086698964 0.012240119 0.036840316 -0.06839974
0003d0 a2 6e d8 bc b9 d2 b2 3d 44 30 ef 3b 7e 68 47 3d
       -0.026419941 0.087315984 0.007299455 0.048683636
0003e0 13 3b 68 bd 83 ee 62 bd a4 a0 27 3d f0 bf b0 bb
       -0.056696963 -0.055403244 0.040924683 -0.0053939745
0003f0 9c 46 2f 3d ec 74 ac 3d 1c d7 87 3d 20 07 2b 3d
       0.042791948 0.084207386 0.06632826 0.04175484

bias f4 [64]
000000 c6 4f 94 bd 99 eb a4 bc ed 3a a5 3d f0 10 8d 3d
       -0.07241778 -0.020131873 0.0806788 0.06887996
000010 9f a3 3e 3d 7e 65 88 3d c2 3a 2f 3d 58 2d 87 3d
       0.04654276 0.06659983 0.042780645 0.066004455
000020 1f ff ac 39 db 7b d1 bc 5a 98 c4 3c a6 1a bb bb
       0.00032996477 -0.025571754 0.023998428 -0.005709964
000030 5f 65 94 3d 8b 23 60 3d 94 42 58 3c 72 02 97 3b
       0.072458975 0.054721396 0.013199467 0.004608446
000040 83 be 83 bd 52 9c 63 bc 34 04 31 3d af f1 ad 3b
       -0.064328216 -0.01389225 0.0432169 0.005308352
000050 5a ad bc 3d 66 5d db bb bd b7 4d bb 1d df f2 bb
       0.09212752 -0.0066944836 -0.0031390034 -0.007411851
000060 13 be 49 bd ae 25 6e 3b d4 a6 13 bb 23 7d 88 bc
       -0.049253535 0.0036338377 -0.0022529857 -0.016661232
000070 76 31 70 bd 7b 97 28 bd 95 fe 34 3c 34 cd 10 bd
       -0.05864092 -0.041160088 0.011047025 -0.035351947
000080 13 3f 49 3d 5e 98 70 3d be 17 c2 3c 0f 03 ac bb
       0.049132418 0.05873906 0.023692962 -0.005249388
000090 b7 a5 7b 3d b8 b8 b0 bd 5d 29 75 3d 2e 90 b3 bd
       0.061437335 -0.08628982 0.0598539 -0.087677345
0000a0 99 97 b5 bb ae 6a 40 3d a3 ea 56 3d dd 31 ae bd
       -0.0055417535 0.046976738 0.05246986 -0.085056044
0000b0 ee d3 86 3d 55 5c 0d 3d eb 4e 0d 3d f3 36 ba 3d
       0.06583391 0.034511883 0.03449909 0.09092512
0000c0 e8 a1 8b bd 99 d8 80 3d 84 e2 fa bc ad 54 80 3d
       -0.068179905 0.06291313 -0.03062559 0.062661506
0000d0 37 2f 56 3d 26 e5 83 bd ef ef 3a bc 6e 96 ed 3d
       0.05229112 -0.06440191 -0.011409744 0.11600958
0000e0 3b ea f6 bc c4 36 62 3c 05 72 1d 3d 6f 24 83 bd
       -0.030140987 0.013807002 0.038438816 -0.064034335
0000f0 e5 9e 98 3c 82 43 2c bd 3c 27 e3 3c ba ee f7 3d
       0.018630454 -0.042056568 0.02772867 0.1210608

weight f4 [32, 64]
000000 90 39 3f 3d 38 39 ae bd 1e e6 ef 3d c2 c4 cb bc
       0.046685755 -0.08507007 0.11713813 -0.024874095
000010 33 3c 56 bd 41 81 a5 3d cd 24 f8 3d 4c 21 46 3d
       -0.052303504 0.08081294 0.12116394 0.048371598
000020 60 54 bb 3d be e6 3c bc 71 5d f4 3d 41 a6 f3 3d
       0.09146953 -0.011529623 0.11931885 0.11896945
000030 1e ab a6 3d 93 3e b8 3d 3f 01 83 bd 64 f9 bb 3d
       0.08138107 0.0899631 -0.06396722 0.09178427
000040 b1 f2 95 3c dd d0 3b bd 4d 91 6e 3d da 69 fd bd
       0.0183042 -0.045853484 0.05824404 -0.12373705
000050 0c df e3 bd fc 78 04 be 6f b4 c2 bd 5f 95 3f 3d
       -0.11126527 -0.12936777 -0.09507071 0.04677331
000060 b6 30 53 bd e9 96 af 3c 93 01 9b 3d 20 ee e1 3d
       -0.051560126 0.021434264 0.0756866 0.11031747
000070 0b 64 f4 bd af 99 d9 3d 6c 61 9c 3d 90 d3 70 3d
       -0.11933144 0.10625016 0.07635769 0.05879551
000080 3c 47 a2 bc 4c 89 e3 3d fd ae ca bd 58 43 99 bd
       -0.019809358 0.11110172 -0.098966576 -0.07483548
000090 46 5b aa bd c0 3c 24 bb 27 d3 98 3b 34 ae 31 bd
       -0.0831819 -0.0025060624 0.004663843 -0.043379024
0000a0 a9 bb bd bc ad 9f df 3c ba 6c 3b bd 4c 40 7f bd
       -0.023160772 0.027297819 -0.045757987 -0.062317178
0000b0 da 3b 8a bd d1 98 22 bd 52 18 88 3d d7 ac 85 3d
       -0.06749697 -0.03969652 0.06645264 0.06527107
0000c0 89 b9 e6 3c 24 de 24 bd 1c 4b c1 bd 39 47 e1 bd
       0.028164642 -0.040250912 -0.09438154 -0.10999913
0000d0 bc d0 02 be d0 59 11 bc 4a b8 68 3d 5a 4a 6e 3b
       -0.12774938 -0.008871511 0.056816377 0.0036360235
0000e0 b9 a6 fa 3d 95 3d 13 3d 45 e8 c7 bd 57 a1 2a bc
       0.12238831 0.0359474 -0.09761099 -0.010414443
0000f0 10 9e 8a bd 20 b4 ab 3d ee f6 c5 3d 34 2f 63 3d
       -0.06768429 0.083839655 0.09666239 0.05546494
000100 c0 47 6c bc 40 ef 63 bc 8b ed 3b 3d 88 08 e4 3d
       -0.014421403 -0.013912022 0.045880836 0.1113444
000110 2b 0b 0b bd 51 16 05 be 73 6c 2f 3d 96 f1 fb bd
       -0.033946197 -0.12996794 0.042828035 -0.12301938
000120 4a c0 2b bc 48 77 2b 3c a3 3d 80 bd 5d e9 e1 bc
       -0.010482857 0.010465451 -0.06261756 -0.027577097
000130 86 c4 db bb 56 ba aa bc 59 be dc bd 23 2f 05 3d
       -0.006706777 -0.020840805 -0.107784934 0.032515656
000140 c8 f1 04 bd fd 82 17 bd a7 c1 e3 bc b0 13 f9 3d
       -0.032457143 -0.036990155 -0.027802302 0.12161958
000150 b7 08 f1 3d f3 80 a6 bd d2 f7 89 3d 82 e9 93 bc
       0.1176924 -0.08130064 0.06736721 -0.018055681
000160 cf 9c e2 bd f2 36 b8 bd df 91 8c bd c1 41 34 3b
       -0.11065065 -0.08994855 -0.0686376 0.0027505013
000170 af 8e 06 3e 55 42 88 3d 37 1a 4c bb 9b ae 8a 3d
       0.13140367 0.06653277 -0.0031143555 0.067715846
000180 2a 4f 3e 3d 69 31 91 3c de b4 01 be b4 a9 70 3c
       0.046462215 0.017723756 -0.12666652 0.014688898
000190 f1 da c1 3d f4 33 23 bd 50 07 2b 3d 64 dc 6f bd
       0.09465588 -0.03984447 0.04175502 -0.05855979
0001a0 69 45 c7 bc f2 c4 47 bb 1c f8 c2 bd 98 11 a6 3c
       -0.02432509 -0.0030482379 -0.09519979 0.020272061
0001b0 5f 36 de bd 1e 0b 9b 3d 6b 33 a1 bc 77 0a c2 bb
       -0.10850214 0.0757048 -0.019677838 -0.0059216577
0001c0 12 64 b2 3d 05 ac 29 3c 1c b9 6a bd 46 8b 4a 3c
       0.08710493 0.010355954 -0.05730544 0.012362307
0001d0 4f 2f da bd f2 74 4e 3d 54 d7 89 ba 2e d8 53 bd
       -0.10653555 0.050404496 -0.0010516443 -0.051719837
0001e0 a0 12 d2 bd b9 db d9 bd ad 91 b9 3d 4c 17 76 3d
       -0.10257459 -0.10637612 0.090609886 0.06008081
0001f0 df 77 19 3d e0 2e ef 3c 89 fc eb bd 48 70 b1 3d
       0.037467834 0.029197156 -0.11522777 0.08663994
000200 92 3b cb 3d 68 eb c4 3c a4 16 86 bd 55 f6 c8 bd
       0.099234715 0.024038032 -0.06547287 -0.09812609
000210 97 15 db 3d 76 b2 8e bd 7d 63 aa 3c d2 c1 c2 bd
       0.10697477 -0.069676325 0.020799393 -0.095096245
000220 8b 93 c5 bd fc 24 1f bd 60 76 e9 bd c4 12 ee bd
       -0.09647282 -0.03885363 -0.11399531 -0.11624673
000230 bb ce 8b bd f7 7c a4 3d dc 7a 2b bd 7c 16 56 3d
       -0.0682654 0.08031648 -0.041865215 0.052267537
000240 40 ed 3e bc 1a 76 d8 bd 16 af ae 3d 14 5f b4 3d
       -0.0116532445 -0.10569401 0.08529489 0.08807197
000250 d5 30 50 3c 61 33 e5 bd d8 e5 3a bd 5a fc 43 bd
       0.012706955 -0.111914404 -0.045629352 -0.047848083
000260 36 fe e8 3d ee 9a 7b 3d ea a2 60 3d e8 55 bb 3d
       0.11376612 0.06142705 0.054842867 0.09147245
000270 1b ba f7 3d 1c d3 06 bd c0 fa 8e 3d 70 0e c4 3d
       0.12096044 -0.032916173 0.069814205 0.09573066
000280 a6 5c 2c 3d e0 c7 17 3d d4 23 b7 bd bd f0 89 3d
       0.042080544 0.03705585 -0.089423805 0.0673537
000290 80 2b f4 3c 78 a2 f1 3d 50 fe ab bc aa 71 17 3d
       0.029805899 0.117985666 -0.02099529 0.036973633
0002a0 22 73 96 bd 7a 1a c7 bd 0e fb 01 bd 44 1c b6 3d
       -0.073461786 -0.09721847 -0.031733565 0.0889211
0002b0 c0 17 c2 3d a4 78 b0 3d da 62 89 3d 3c 6d c8 3c
       0.09477186 0.086167604 0.067083076 0.02446615
0002c0 16 f4 8d bd d0 2e 66 bc d8 b2 1c 3d 6e 17 29 ba
       -0.06931321 -0.014049247 0.038256496 -0.00064503297
0002d0 ca 04 27 bd 98 8e 79 3d e0 bb 2d 3c 1d 7f 87 3d
       -0.04077605 0.060927004 0.010603875 0.06616042
0002e0 38 0d 91 bc d6 00 b8 bd 30 94 d4 3d 58 c9 17 bd
       -0.017706499 -0.089845344 0.10379827 -0.03705725
0002f0 48 5d d9 bd 0c 33 d6 bd ff f6 bb bd 1f 2f 92 bd
       -0.10613495 -0.10458955 -0.0917797 -0.07137894
000300 48 72 c3 bd f4 76 ec bd 43 1d 28 3c c4 4f 2a 3e
       -0.09543282 -0.11546126 0.010260883 0.1663199
000310 47 a3 07 3e 5a e4 25 3e 9f 18 ea bd d1 ae b9 bd
       0.13245879 0.1620039 -0.11430477 -0.09066547
000320 87 09 05 3e 8f fc c9 3c 62 da d5 3d 26 97 eb 3b
       0.12991916 0.024656562 0.10442044 0.007189649
000330 fa 63 1d bc e0 5d e6 bc bb 09 77 3b 04 ea 81 bd
       -0.009606356 -0.028120935 0.0037695009 -0.06343463
000340 3e 2c 47 bd 82 86 e4 bd 6b 71 6f 3d 6b 0a 60 3d
       -0.048626177 -0.11158468 0.058457773 0.054697435
000350 07 ec bd 3d 7e 0c 8c bd 1d aa 0c bd 70 8e 23 3e
       0.09273534 -0.0683832 -0.03434192 0.15972304
000360 c8 92 85 bd f8 82 db 3d 82 81 9e bc 9b 44 1f 3e
       -0.06522137 0.1071834 -0.019348864 0.15553515
000370 db bd 0b bd 53 dd b9 bd a0 32 35 bc 3d 43 bb 3d
       -0.034116607 -0.09075417 -0.011059433 0.09143684
000380 d4 47 85 bd dd 92 07 3e 50 f5 f3 bc 53 b5 14 3d
       -0.06507841 0.13239618 -0.02978006 0.036305737
000390 0f 3e 49 3d 40 fc 25 bd 6f 82 be 3c eb e1 bc bd
       0.04913145 -0.040523767 0.023255555 -0.09222778
0003a0 15 25 0c 3c f1 8f ce 3d f5 60 09 3e c0 6a f1 3c
       0.008553763 0.100860484 0.13415892 0.029469848
0003b0 76 0a b1 3d d3 93 2a 3d 75 66 82 bd 27 90 93 3d
       0.086445734 0.041644882 -0.063671984 0.07205229
0003c0 7b 10 ee 3d f2 7d 88 bd 35 75 3e 3c 80 e3 2e bd
       0.11624237 -0.06664647 0.011624624 -0.04269743
0003d0 21 98 19 3c 35 5f 95 3d bc 66 8c 3d 49 3a 80 bd
       0.009374649 0.0729355 0.068555325 -0.06261117
0003e0 46 e9 87 3d c5 40 d0 3d ec 6a ff 3d 5e 89 f5 bd
       0.0663629 0.10168604 0.124715656 -0.11989091
0003f0 85 21 da 3d d0 ec bb bd dc 3a 2c 3d 67 03 ed 3d
       0.106509246 -0.09176028 0.04204832 0.115729146

bias f4 [32]
000000 a6 54 a0 bd c7 ca 83 3d 21 eb 2b bd 5c 10 a6 3d
       -0.078286454 0.06435161 -0.041972283 0.08108589
000010 78 e0 b3 bd d8 86 ad bc d4 d8 21 3e a8 4f e0 3d
       -0.087830484 -0.021182463 0.1580537 0.10952693
000020 6a 16 fe 3d c8 4b d0 bc 99 bd 04 bc 8b 1d 2c 3d
       0.12406619 -0.02542676 -0.008101844 0.042020362
000030 4d ff 0d 3d a2 c9 ed bc 12 82 97 bd 42 af 1b 3d
       0.034667302 -0.02902681 -0.07397856 0.038008936
000040 c8 21 05 be 49 b3 51 bd 31 2f c5 3d 1c 09 c3 3c
       -0.13001168 -0.05119637 0.09628142 0.023808055
000050 d8 7a 02 3e 82 b6 ae bd 20 b4 3c 3c a6 4e 8c bd
       0.12742174 -0.08530904 0.0115175545 -0.068509385
000060 49 98 a4 3d 31 0d a6 3d 48 30 b1 3c 16 3d ca 3a
       0.080368586 0.08107985 0.021629468 0.0015429582
000070 1c 38 a4 bd 0a a4 99 3d c0 cb ab bd 85 19 b9 3d
       -0.080185145 0.07501991 -0.083884716 0.090380706

weight f4 [128, 7]
000000 43 3f 19 be 0d f4 57 3e dc b4 8d bd e4 2d 8a 3e
       -0.14965539 0.21089192 -0.06919262 0.26988137
000010 9d 7e 47 be 99 7f 7c bc 28 d2 1e 3e 8c 04 3c 3d
       -0.19481893 -0.015411281 0.15509856 0.045902774
000020 a8 e6 a9 be 8f cc a9 bc b2 3a 99 3e 29 4e f4 3c
       -0.3318379 -0.020727424 0.29927593 0.029822426
000030 e6 29 67 bb 3e 04 7d bd 17 30 84 3d 56 11 54 3e
       -0.0035272776 -0.061771624 0.06454485 0.20709738
000040 fa d6 52 be 99 e9 78 be 21 79 bd be 23 f5 9d be
       -0.2058982 -0.2430786 -0.37006477 -0.30851087
000050 9f 89 57 3e 6d f9 96 be f0 0e 83 bd 9e f9 a5 3d
       0.21048592 -0.29487172 -0.063993335 0.08104251
000060 97 41 c0 3e c8 34 98 3e fc da be 3a 02 6a fd 3d
       0.3755004 0.2972777 0.0014561112 0.12373735
000070 72 4f 69 be 1b f4 b8 bd 1e 73 9a 3e 71 b5 80 be
       -0.22784212 -0.090309344 0.30165952 -0.2513843
000080 50 68 86 3e 6f c4 aa bd d2 bf 90 be 77 af fb 3b
       0.2625146 -0.08338248 -0.28271347 0.007680829
000090 85 52 77 3e 8a 29 6b 3e cb 7e 94 3e 98 f4 af 3e
       0.24152572 0.22965065 0.29002985 0.34366298
0000a0 56 2b 8d be 15 49 a0 3e b8 18 1c 3e eb b4 38 3e
       -0.27572125 0.31305757 0.15243804 0.18037765
0000b0 83 13 bf 3e 38 55 06 be f7 54 66 3e b9 0f 7d be
       0.37319574 -0.13118446 0.22493349 -0.24713029
0000c0 e0 2c 15 3e f1 bb 45 be e0 46 7e 3e e5 4f 22 be
       0.145679 -0.19309975 0.24831724 -0.1585079
0000d0 7b 95 9c 3e 4d 57 41 be b0 9e 80 be 3b 6d 86 3e
       0.30582795 -0.18880959 -0.2512107 0.2625521
0000e0 12 d5 9d be ee eb 2a be 90 83 87 be 36 57 78 3e
       -0.30826622 -0.16691563 -0.26467562 0.24252018
0000f0 97 a7 a6 3e 7e 8f fe 3d 4d cb d4 bd a3 a0 d6 3d
       0.32549736 0.12429713 -0.10390339 0.10479858
000100 1e 44 89 3e b4 bc 1d 3e b2 9c 98 3e 76 1d ad be
       0.26809782 0.15404016 0.2980705 -0.3381154
000110 46 40 6b 3d 58 e5 a3 be 21 3f 00 be d1 c0 9b be
       0.057434343 -0.32010913 -0.12524082 -0.30420545
000120 0a 2a 98 be c9 98 a9 be e6 8b 92 3e a5 3f 22 be
       -0.29719573 -0.33124378 0.2862236 -0.15844591
000130 c4 27 c9 3c 35 fa 87 3e 66 9f 80 3e 17 7a 66 3c
       0.024555095 0.2655808 0.2512161 0.014067194
000140 ab e4 c0 bc d4 61 0c bd b0 0b e9 bd de a1 8c 3d
       -0.023546537 -0.034272984 -0.11379182 0.06866811
000150 95 52 00 be 7f d4 d4 3d 24 9f 5b 3e 7f 27 8c be
       -0.12531503 0.10392093 0.21447426 -0.27373883
000160 5c 4d 38 be 82 b3 8a be 45 e1 98 3e e0 e9 87 3e
       -0.1799826 -0.2709008 0.29859367 0.2654562
000170 22 1f 18 be 80 3e ef bd 2d 16 93 be 48 5d a2 be
       -0.14855626 -0.11681843 -0.28727856 -0.31711793
000180 40 9b b0 be 29 c6 a2 3c dd a0 0c be 0c 3b aa 3e
       -0.34493446 0.01986988 -0.1373324 0.33248174
000190 2c b5 dc 3b c6 84 b6 3e 01 5e 59 be 78 93 b2 3d
       0.0067354646 0.35648173 -0.21227266 0.08719534
0001a0 b5 75 b2 be bd 95 53 3e e2 7a 98 3d 86 2d 88 3e
       -0.34855428 0.2066259 0.07445313 0.26597232
0001b0 92 5d 60 bd bc 21 8b 3e 8d cd c2 3e bd 8b 3e be
       -0.054776736 0.27174175 0.38047448 -0.18607993
0001c0 2a 8e 78 be b4 bb 98 be dc b0 1a 3e f1 fd 1a be
       -0.24272981 -0.29830706 0.15106529 -0.15135933
0001d0 66 71 80 3b 69 09 95 3d b2 bf 1c be 30 1e b7 be
       0.003919768 0.072771855 -0.15307501 -0.3576522
0001e0 a1 f7 77 be 20 b8 8b bd 8f 27 f4 bd 0a 12 69 bc
       -0.24215557 -0.068222284 -0.11921608 -0.014225492
0001f0 bd 63 a6 be 5b 53 b2 be d3 e2 88 3e 02 10 65 3e
       -0.3249797 -0.3482922 0.26735553 0.22369388
000200 4d ae 2f 3a 6c bc 67 be 81 20 c3 3d 7b 00 01 3e
       0.0006701693 -0.22630471 0.09527684 0.1259784
000210 54 31 9d 3d a0 6d fa 3d a8 6a 28 be d3 53 1a 3d
       0.07675424 0.122279406 -0.16446936 0.037677597
000220 b9 e6 28 3e 05 0b 5c be 8c 31 a1 3e a4 34 36 be
       0.16494264 -0.21488579 0.31483114 -0.17793518
000230 d9 e0 54 bd 74 76 bb 3c a6 a4 30 3d e3 60 ff bd
       -0.051972244 0.022883631 0.04312577 -0.124696516
000240 b3 b1 ba be ff fb 04 bd 90 9b 73 be 15 c2 7d 3e
       -0.364637 -0.032466885 -0.23789811 0.24781068
000250 e1 fa b4 be 00 44 6c be 31 95 9d be 89 be 33 3e
       -0.35347655 -0.23072815 -0.30777887 0.17553152
000260 ee 11 92 be 40 c6 da bb 62 7e a2 be 2c 11 7c 3e
       -0.28529304 -0.0066764653 -0.31737047 0.24615926
000270 fd fc 50 be 6a a2 a8 3d 73 60 12 be 98 04 ea 3c
       -0.20409007 0.08234103 -0.14294605 0.028566644
000280 7c 0f c0 3e 75 44 b5 be 56 d1 a1 3e da e8 88 3e
       0.37511814 -0.3540379 0.31605023 0.26740152
000290 16 c3 b2 bd 04 22 b5 3e f6 5b 1a bd 09 1b 30 3d
       -0.08728616 0.35377514 -0.037685357 0.042994533
0002a0 ac 58 a7 3e 91 e4 b8 be ef fb 9c 3c 39 cc 79 be
       0.3268484 -0.36111882 0.0191631 -0.24394311
0002b0 fb 59 82 bc 95 b3 40 3e ed bd dc 3d ba a9 b6 be
       -0.015912047 0.18818505 0.10778413 -0.35676366
0002c0 eb 91 4f be 4c 52 02 3e d0 94 ef bd 5f 85 a0 be
       -0.20270507 0.12726706 -0.116983056 -0.31351754
0002d0 24 a7 39 3d 4d b4 46 bd 66 2e 15 be 3e 30 b9 be
       0.045325413 -0.048511792 -0.14568481 -0.36169618
0002e0 28 47 f8 bc 68 59 bf be 83 d7 bf be c5 aa 09 3e
       -0.030307367 -0.373729 -0.3746911 0.1344405
0002f0 e9 d2 25 3e 67 19 b7 3e 3f 50 aa be a5 8b b0 3e
       0.16193737 0.35761568 -0.33264348 0.3448154
000300 2a 1f ce bd 11 46 10 3c 53 df 5c be c1 70 89 3e
       -0.10064538 0.008805768 -0.21569566 0.26843837
000310 55 2c bc 3e d0 33 6f be a4 d7 b8 be 6d a4 99 3c
       0.36752573 -0.23359609 -0.3610202 0.018755162
000320 7d fc 63 3e 00 76 c9 3d b1 24 6b be 7e 84 91 be
       0.22264285 0.0983696 -0.22963215 -0.28421396
000330 6a 9e 5c 3d a8 bc 61 be 72 7d b6 be c5 51 87 bc
       0.053862013 -0.22044623 -0.35642582 -0.016518483
000340 1c 7f 4f bd 29 00 67 3e 6e 7b 6d 3e 96 7c 20 be
       -0.05065833 0.22558655 0.23191616 -0.15672526
000350 cc 88 23 3e a2 b0 86 3d 14 c8 a0 be e3 3e a0 3d
       0.15970153 0.06576659 -0.31402647 0.07824495
000360 90 a7 78 be aa 40 8b 3d da d3 47 be ff f7 a7 bb
       -0.2428267 0.06799443 -0.19514409 -0.005125999
000370 ce 6f 70 3e fa c9 42 be ca f0 c1 3d b1 6a 44 3d
       0.2348015 -0.1902236 0.09469755 0.04795331
000380 66 de 33 3c 7e f4 96 3d ac da a3 3e 8e 0f ac 3e
       0.010978317 0.07370852 0.3200277 0.33605617
000390 48 1b 95 3c b2 a0 ae bd df 44 90 3d 86 87 94 3e
       0.018201485 -0.08526744 0.07044386 0.29009646
0003a0 d8 91 1e be 28 8a c2 bd 0c 07 a8 be 89 51 97 be
       -0.15485322 -0.094990075 -0.32817876 -0.29554394
0003b0 d4 49 97 be 8e 42 03 3d d6 71 22 3e 64 0e 52 be
       -0.29548514 0.032045893 0.15863737 -0.20513302
0003c0 bc e8 8f 3e b7 67 bd 3e c1 84 36 3e f8 77 40 be
       0.2810725 0.3699319 0.17824079 -0.18795764
0003d0 66 49 15 be e7 37 ae be c7 06 87 be d5 07 b2 be
       -0.1457878 -0.34027025 -0.26372358 -0.347716
0003e0 51 a4 b0 3e 0a f5 56 3e 53 4d 95 bd 8e c2 b2 be
       0.34500363 0.20991912 -0.07290139 -0.34914058
0003f0 7d c3 71 be c4 7b b2 be 78 eb a9 3e 03 b2 e0 3d
       -0.23609729 -0.3486005 0.3318746 0.10971453

bias f4 [128]
000000 fa 88 0f 3e 07 0d bc be 39 7e 70 3e a3 b9 69 3e
       0.14017096 -0.3672869 0.2348565 0.22824721
000010 a5 1d aa be da c5 1e 3e ce 5f 9c bd 02 c9 11 be
       -0.33225742 0.15505162 -0.07635461 -0.14236835
000020 35 ff 17 3e 9a 4c 29 3d 95 88 bb bb a0 2b 37 be
       0.14843448 0.04133282 -0.005723069 -0.17887735
000030 9e 1e 91 be 9a fc 17 3e 9e dd b0 3e fa 03 37 be
       -0.28343672 0.14842454 0.3454408 -0.1787261
000040 4e 20 b7 be 1f b6 54 be e4 28 91 3e 1a 94 95 be
       -0.35766834 -0.20772599 0.2835151 -0.29214555
000050 e6 45 ec bd 92 25 f5 bd 72 03 b2 3e cf 17 8a 3e
       -0.115367696 -0.119700566 0.34768254 0.2697129
000060 ef 18 9d 3e c2 e9 bd be e6 47 cf bd dd aa 0e be
       0.30683085 -0.37092406 -0.101211354 -0.13932367
000070 d3 ed 5f 3e 56 4b 71 3e ed d4 62 be 7f 98 b0 3e
       0.21868066 0.23563895 -0.22151537 0.34491345
000080 ee 6a b8 be 2a 20 35 be dd f2 05 3e 8a 60 9d 3e
       -0.3601908 -0.17688051 0.13080926 0.30737716
000090 3b 62 20 be a1 81 5d 3e b5 1f 5e 3e 69 e5 3a 3d
       -0.15662472 0.21631481 0.21691783 0.04562894
0000a0 76 6a ee bd 5c 8c 34 3e 36 d9 ef bd b1 6e bc 3e
       -0.116413996 0.17631668 -0.117113516 0.368032
0000b0 fe a5 46 3e bc 3b 60 3e f5 f4 4b be 38 07 ab 3e
       0.19399258 0.21897787 -0.19917662 0.33403945
0000c0 cc b5 8c be 6e 5a d6 3c 57 c1 1f 3c be 81 97 be
       -0.2748245 0.026166167 0.009750686 -0.29591173
0000d0 43 70 6d be 41 e5 84 3e d3 8f af 3e 3d 95 39 3e
       -0.23187356 0.25956157 0.34289417 0.18123336
0000e0 83 27 8c bd 1a 77 e6 3d ad 2f 60 3e 6b f6 f6 3c
       -0.06843474 0.112531856 0.21893187 0.030146798
0000f0 c3 23 80 3c a7 20 b1 3d 8d ae bc be 21 f2 97 be
       0.015642053 0.08648806 -0.36851922 -0.29676917
000100 59 cf 2a be f3 05 10 be a2 dd 98 be 4d 72 c7 bc
       -0.1668066 -0.1406477 -0.29856592 -0.024346495
000110 d7 52 37 3e d2 da ac be 5a 53 93 bd 01 d2 43 be
       0.17902695 -0.33760697 -0.071936324 -0.19123079
000120 7d 3d 0e be 8d 9c 62 be a6 03 94 3e 5e 9e 29 3e
       -0.13890643 -0.22130032 0.28909034 0.16564319
000130 71 bd a7 be 4e 6e 30 be 41 61 8d 3e ee e2 86 bc
       -0.3276172 -0.17229578 0.2761326 -0.01646563
000140 98 80 a5 3e 8a 78 bf 3e 4f 42 c1 be fa 31 b8 3e
       0.32324672 0.37396652 -0.37745902 0.3597563
000150 8f 12 aa 3e 53 10 4d 3e 58 d8 8d be 19 20 02 3e
       0.33217284 0.20025758 -0.2770412 0.12707557
000160 04 97 81 be d3 1b 5e be b7 6e 7d 3e ac 94 1d 3e
       -0.25310528 -0.21690302 0.24749266 0.15388745
000170 84 26 96 bd c9 16 b1 3e f7 ad b9 3e eb 9f 73 bc
       -0.07331565 0.34587696 0.36265537 -0.01486967
000180 96 6e 41 be 2f 13 8f be 1f 12 80 be 21 b7 dc 3d
       -0.18889841 -0.27944323 -0.25013825 0.107771166
000190 c5 bb a2 bc 78 fa 43 3b 8c 87 73 3e 11 2c 64 3e
       -0.019864926 0.002990393 0.23782176 0.22282435
0001a0 cf dc 27 3c 25 72 9e 3e 11 05 16 3e 98 dc b3 be
       0.010245516 0.3094646 0.1465037 -0.35129237
0001b0 1e d0 9a 3e b7 fb 68 3e 05 04 41 be 1a 47 98 3e
       0.30236906 0.22752272 -0.1884919 0.29741746
0001c0 51 9f 74 3e 6f 68 86 be 5d 8e 60 3e c0 94 b9 3e
       0.238889 -0.26251552 0.21929307 0.362463
0001d0 68 75 46 be 58 51 17 3e 7d d2 10 be e2 b9 7a 3d
       -0.19380724 0.14777124 -0.14142795 0.061212428
0001e0 16 0e 97 3e 7e d4 92 be 27 df 88 3e 37 58 6c be
       0.29502934 -0.28677744 0.26732752 -0.23080526
0001f0 b8 7d 9d 3d 2a 70 fb 3d 61 9b 92 3e 01 53 36 be
       0.076899946 0.12277253 0.2863417 -0.17805101

weight f4 [64, 128]
000000 78 e8 9c 3d c2 21 47 3c fe 1a 4e bd 7d a4 3c 3d
       0.076615274 0.012154045 -0.05031871 0.046055306
000010 c9 63 9e bd f1 04 08 bd e2 88 6b bd b2 c1 9d bd
       -0.07733876 -0.033207837 -0.05750359 -0.0770296
000020 8d af 5d bc 14 45 5a 3c 48 f4 a9 bb 96 19 33 3d
       -0.013530624 0.013322134 -0.0051865913 0.043725573
000030 97 10 68 bd 18 ea 1c 3d cb db a1 3c 21 e8 24 bd
       -0.056656446 0.038309187 0.019758126 -0.040260438
000040 6a 15 85 bd 81 05 63 3d a1 8c 86 bc 5d ea 82 3d
       -0.06498225 0.05542517 -0.016424479 0.063923575
000050 bf f0 a0 3c b3 a5 75 3d 30 78 65 bd 67 73 9e 3c
       0.019646047 0.059972476 -0.056022823 0.019342138
000060 c2 af ae bd 33 e9 b2 bd 20 8f 9b 3d 09 a8 af bc
       -0.08529617 -0.087358855 0.07595658 -0.02144243
000070 de 6f 72 bd dc 65 2a bd ec 46 ae 3c 70 c1 0b bd
       -0.059188716 -0.041601047 0.021274053 -0.034120023
000080 9d 01 a3 bd 77 de 1d bc a0 62 8e 3d f0 70 37 3d
       -0.07959292 -0.009635559 0.06952405 0.04478544
000090 31 45 23 3d a2 9e 33 3d ea a9 8c bd d9 6c a9 3d
       0.039860908 0.043852456 -0.06868346 0.08272714
0000a0 ff 17 87 3c 86 2d 83 3d d3 79 86 bc 61 b5 01 3c
       0.016490934 0.06405167 -0.016415512 0.007916779
0000b0 b3 c5 6c bd 4c 02 09 3d a0 1e f4 bb 9e 54 7d 3d
       -0.05780573 0.033449456 -0.00744994 0.061848275
0000c0 bf d0 aa bd 82 da 95 3c cf 88 64 3d fa 7d a4 3a
       -0.083405964 0.01829267 0.055794533 0.0012549751
0000d0 3b bb 65 bd bd 70 a1 bd 18 86 81 bd f7 54 95 bd
       -0.05608676 -0.07882831 -0.063244045 -0.072915964
0000e0 a3 24 7a 3d 2e d1 9e 3d 27 c4 1c bd ab 97 dc 3c
       0.061070096 0.077547416 -0.038273003 0.02692779
0000f0 cc c1 6d 3d 01 03 88 3d ca b3 f7 3c c0 af a6 3c
       0.058046147 0.06641198 0.030237097 0.020347476
000100 99 c3 91 3d 8a df 8d bd ed 61 6f 3d 42 cd a0 bd
       0.071173854 -0.06927402 0.058443 -0.0785165
000110 9c 58 95 3d 39 6b e2 3c e7 6e 29 3d 32 fd aa 3d
       0.072922915 0.027639018 0.04136553 0.083490744
000120 84 11 8c bc d9 86 fa bb 98 26 24 bd 2f 48 ed 3b
       -0.017098196 -0.0076454696 -0.04007587 0.007241271
000130 f6 65 0a bd a9 94 80 bc 6d a1 a3 bd a4 e1 95 bd
       -0.033788644 -0.015695887 -0.07989774 -0.07318428
000140 05 6c 03 3d 78 f3 aa bd 89 73 e5 3b d4 40 79 3c
       0.032085437 -0.08347219 0.0070022983 0.01521321
000150 17 89 1c bd 5d 3d 31 3d fe 2b 42 bd d4 1a 4e bd
       -0.038216677 0.04327141 -0.047405235 -0.050318554
000160 14 9d ab 3d c5 b1 07 bc c7 f4 a9 3d d4 fa a2 3d
       0.0837957 -0.00828213 0.08298641 0.07957998
000170 07 12 62 3d 88 c3 f5 b8 db 94 2d bd 5b 75 5d bd
       0.055192973 -0.00011718931 -0.042378288 -0.054066997
000180 ae d3 9f bd 32 8c fa bc ef 32 07 bd 3f 20 de 3c
       -0.078040466 -0.030584428 -0.03300756 0.027114986
000190 72 a7 23 bd 77 bf 10 3d 4b 19 bb bc 14 7a 85 bd
       -0.03995461 0.035338845 -0.022839209 -0.06517425
0001a0 04 53 9d 3d d1 38 90 bd d1 96 ae bd 8b 3c 2d 3d
       0.076818496 -0.07042087 -0.0852486 0.042294066
0001b0 ea 61 02 bc 21 44 7e bd c7 b4 41 3d 19 0c e1 3c
       -0.007957915 -0.06207669 0.047291543 0.027471589
0001c0 3c 2b a2 3c ae a1 cb ba 39 05 89 bc 63 ba 85 bd
       0.019796006 -0.0015535855 -0.016726123 -0.06529691
0001d0 dc a6 6b bc 9f c5 68 3d 3a 04 12 bc 5e 04 fe ba
       -0.014383044 0.05682909 -0.0089121405 -0.0019379964
0001e0 5f 5d 65 3d b3 40 b0 3d 5c aa 1b bd 67 65 b1 bd
       0.05599725 0.086060904 -0.038004264 -0.08661919
0001f0 88 6b 8e 3c 0f 6a dc 3b f6 fe 38 bc b0 c4 02 3d
       0.01738526 0.0067265104 -0.011291256 0.031925857
000200 e0 15 da 3b 6b 5a 44 bd 54 12 44 bd 64 b4 ec 3a
       0.0066554397 -0.04793779 -0.04786904 0.0018059132
000210 ec ef a7 bd 53 e9 da bc 61 f4 5f 3d 46 b9 93 bd
       -0.08200058 -0.026722586 0.054676417 -0.072130725
000220 7b 34 5e bd 0a c1 be bc 54 1a 0d bb 29 c1 82 bd
       -0.054249268 -0.023285408 -0.0021530585 -0.063844986
000230 1d 94 93 3d 7e a7 e9 bc d9 c5 e1 3c 2b 0a a7 bc
       0.07205985 -0.02852225 0.027560161 -0.02039059
000240 b5 10 d2 bb 19 b2 14 bd 1c 75 b1 bd 73 0f 1f ba
       -0.006410683 -0.03630266 -0.08664915 -0.0006067671
000250 ed c6 8d 3c 45 6d fd 3c 2a 46 80 bd 91 db a9 bb
       0.01730677 0.030935893 -0.06263383 -0.005183645
000260 08 41 82 bd 4d 18 a6 bd 19 46 8f bb e4 d8 ad 3c
       -0.0636006 -0.08110104 -0.00437237 0.021221586
000270 f0 19 6a 3d 71 fb 89 bd 09 4f 50 bd 15 af 7c bd
       0.057153642 -0.06737412 -0.050856624 -0.06169041
000280 b7 91 41 bd 31 91 91 3d 9e 1f f2 bb e0 69 18 bd
       -0.047258105 0.07107771 -0.007389023 -0.037210345
000290 26 67 9b bd d5 02 39 bd ea 42 63 bc 54 ce 21 3d
       -0.075880334 -0.045168716 -0.013870934 0.03950341
0002a0 0c 4b 5c bd 87 b0 dc 3c 19 ef 84 3d fa be f6 3c
       -0.053782508 0.026939644 0.06490917 0.030120362
0002b0 5b d6 fa 3c 08 52 9b bd 53 63 d3 3b 66 12 61 3d
       0.03061979 -0.075840056 0.0064510494 0.054949187
0002c0 cc 2e 94 3d 3c 3a 8f bd d1 20 a3 3d 97 c2 86 3b
       0.07235488 -0.06993529 0.079652436 0.0041125524
0002d0 35 f4 4b 3d 60 0d 31 bd fe b2 76 3d 16 bb 88 3d
       0.04979344 -0.043225646 0.060229294 0.06676309
0002e0 63 1d aa bc 9f 6a fe 3c 53 cc 06 bb 81 a7 a4 bd
       -0.020765966 0.0310567 -0.0020568564 -0.08039761
0002f0 62 0e 83 3c 49 3c 8d 3d 99 25 97 bd 5e 61 a1 bd
       0.01599807 0.06896264 -0.07380218 -0.078798994
000300 f3 51 a3 3d 32 47 b2 3d 34 65 03 3c 29 4b b7 bb
       0.07974615 0.08704986 0.008019734 -0.0055936766
000310 4f df d7 3b de 0f 9a bd 51 41 79 b7 ee 62 ac 3d
       0.0065878998 -0.07522558 -1.4856764e-05 0.08417307
000320 8e 00 24 3d b6 3f c9 3b fd 36 a0 3d 6d ec 8f 3d
       0.04003959 0.006141628 0.07822988 0.070275165
000330 3a de 77 3d f2 62 8a 3d da c2 50 3d 2d 3b e1 3b
       0.060514666 0.067571536 0.050967075 0.0068735094
000340 1c 25 81 bd e7 0c 14 bd 99 36 98 3c 4e 12 93 3d
       -0.06305906 -0.036145117 0.018580722 0.07181226
000350 f9 f3 4c 3c fe b8 f3 bc 67 09 92 3d 6f 49 c2 bc
       0.0125093395 -0.029751297 0.071306996 -0.023716656
000360 3d 48 6c bd e1 6f a8 3c a6 5b 42 3d 64 6f b6 bc
       -0.05768608 0.02056116 0.047450684 -0.022269912
000370 11 8e 4b 3d c7 33 b2 bd c5 8f 5f 3d 94 70 9c 3d
       0.049696032 -0.08701282 0.05458047 0.0763866
000380 4e f5 93 3d f4 50 5f bd 8f 62 71 3d d2 88 17 3d
       0.072245225 -0.054520562 0.058931883 0.036995716
000390 7d 52 a3 bd 78 f0 09 bc df 55 95 3d c0 31 49 bd
       -0.07974718 -0.008419149 0.07291769 -0.04911971
0003a0 66 4c af bd 5d 95 a0 bc 44 42 93 3d c4 f8 c9 3c
       -0.08559494 -0.019602472 0.071903735 0.024654754
0003b0 f6 64 20 bc bd 0c 95 bd 51 98 73 3d 64 b3 1f bd
       -0.009789696 -0.0727782 0.059471432 -0.03898944
0003c0 c1 f8 9f 3d 3c 65 a7 bb 2c 9d 6a 3c 4d 87 83 bc
       0.07811118 -0.0051085036 0.014319699 -0.016055727
0003d0 dc cc a9 bb a6 26 a8 3d 3a 3a 24 3c 11 6b 12 3d
       -0.005181892 0.082104966 0.010023648 0.035746638
0003e0 17 fe a4 3d 8a b4 5e 3d 24 ad 85 3d 49 ac 1d 3d
       0.08056276 0.054371394 0.065271646 0.038494382
0003f0 2e 6d 94 3d b2 6b 57 3d 95 d8 bd bd a1 59 77 bc
       0.07247387 0.05259294 -0.09269825 -0.015097053

bias f4 [64]
000000 d3 0d 47 3b 2d 23 a6 3d c6 43 19 bd 07 8d e7 bc
       0.003037323 0.08112178 -0.03741815 -0.02826549
000010 68 d0 08 bc 53 f7 ed bc ea 3a c8 3c af d4 05 bd
       -0.008350469 -0.029048597 0.024442155 -0.032673534
000020 24 ca a6 3c 45 7f c3 3c e0 a8 37 3d f0 6a da bb
       0.02036006 0.023864398 0.044838786 -0.00666558
000030 5f 15 d1 3a f1 f2 86 bd 56 4f 16 bc 05 17 9b bd
       0.0015951804 -0.06589306 -0.009174189 -0.0757275
000040 32 b9 ec bc 9d 41 b0 3d 3a c2 14 bc 76 fe 87 3d
       -0.028896902 0.08606265 -0.00907951 0.066403314
000050 60 25 16 3d 10 65 9b bd 92 d1 9d 3d d5 9a a1 bd
       0.036656737 -0.075876355 0.07705988 -0.0789086
000060 c2 5c 63 3c 95 96 d0 bc 91 d0 4b 3d 90 8c 0d 3d
       0.013877096 -0.025462428 0.04975945 0.03455788
000070 20 a8 c8 3b db 61 ae 3c 4c 73 a8 bd 84 5a 07 3d
       0.0061235577 0.021286895 -0.08225116 0.033045307
000080 e1 c1 59 bc 58 22 32 3d ce 37 ac 3d 59 c3 b5 3b
       -0.013290853 0.043489784 0.084090814 0.005546969
000090 44 18 2a bd 7c 77 fe 3c 6e f1 ae 3d 7f 7a 7a bd
       -0.041527048 0.031062834 0.08542143 -0.061151978
0000a0 d1 12 6a bc d1 f4 8c bd 70 6a eb 3c 05 93 1c 3d
       -0.014286713 -0.068826325 0.028737277 0.038226146
0000b0 24 40 8f 3c 30 d2 99 3d 19 fe de bc 53 36 bf 3c
       0.01748664 0.07510793 -0.027220773 0.023341333
0000c0 a7 2e 93 bc 13 47 b9 3c 26 e0 68 3d 32 20 28 3d
       -0.017966582 0.022616899 0.05685439 0.04104633
0000d0 ad f8 d5 3c 72 07 9a 3d 05 50 85 bd 46 c9 78 3d
       0.026119554 0.07520951 -0.06509403 0.060738824
0000e0 2e 9f a7 3d fe 00 51 bd 68 59 d5 bc ee 7b af bd
       0.08184658 -0.051026337 -0.026043609 -0.085685596
0000f0 d6 65 78 3d 4b 66 d1 3c 22 0f 9f bd 6e 28 c1 3d
       0.060643993 0.025561472 -0.07766558 0.094315395
