2023/baseline0806/model/WLTP_trained_0822/PPO_actorcritic_56episode.pt (torch, 101527 bytes, 17 tensors)

weight f4 [128, 7]
0	0xbe7295db	-0.23689978
1	0xbeab87d7	-0.33502075
2	0x3e86683e	0.26251405
3	0xbed4e6ae	-0.41582245
4	0xbe8322c6	-0.25612468
5	0x3eca16eb	0.3947061
6	0x3ebb4d34	0.3658234
7	0xbd25ce1e	-0.04047977
8	0xbe39b0ac	-0.18133801
9	0x3dadfb07	0.08495145
10	0xbe8efc21	-0.27926734
11	0xbe0c1b93	-0.13682394
12	0xbeb979ee	-0.36225837
13	0xbe9a61b6	-0.30152673
14	0x3dc95b20	0.09831834
15	0xbe14b0b8	-0.14520538
16	0xbe2ca1ee	-0.16858646
17	0x3d4ca678	0.049963444
18	0x3e9b6b9c	0.30355537
19	0x3ec8a01e	0.3918466
20	0x3d9d4b3d	0.07680366
21	0xbe9bdfdb	-0.30444226
22	0xbe805f77	-0.25072834
23	0xbe73bce8	-0.23802531
24	0xbdcb688a	-0.099320486
25	0xbe487347	-0.19575225
26	0x3e8f3f68	0.27978063
27	0x3ed0f0c2	0.40808684
28	0x3dd0b111	0.10190023
29	0xbe3be774	-0.18350011
30	0xbec515d4	-0.38493216
31	0x3da9b27e	0.08285998
32	0x3d463c74	0.048397496
33	0x3e42f615	0.19039185
34	0xbc1a9ee6	-0.009437298
35	0xbd27fd5d	-0.04101311
36	0xbdcdb67e	-0.10044573
37	0xbe71bd17	-0.23607288
38	0xbd9c35a3	-0.07627418
39	0x3e5a801a	0.2133793
40	0x3e1b90bb	0.15191929
41	0x3eac19d7	0.33613464
42	0xbeada894	-0.33917677
43	0xbe81e30c	-0.25368536
44	0xbead099a	-0.33796388
45	0x3c4285f4	0.011872757
46	0xbe8d5075	-0.27600446
47	0xbe1560c1	-0.1458769
48	0xbb9ac17b	-0.0047227717
49	0x3dba579a	0.0909874
50	0xbeadfa65	-0.33980098
51	0x3eb79859	0.3585842
52	0x3e9c42b1	0.30519632
53	0x3e7e4a60	0.2483306
54	0xbebf45d4	-0.37357962
55	0xbcb84da3	-0.022497958
56	0x3ee0ff09	0.43944576
57	0xbd2f825e	-0.042848937
58	0xbe8e13fb	-0.2774962
59	0xbc3b4456	-0.011429867
60	0x3f05598c	0.5208976
61	0xbe7d0ceb	-0.24711959
62	0x3cf6bce4	0.030119367
63	0x3ea93d6f	0.33054683
64	0xbe6f61e1	-0.23377182
65	0xbeb724d8	-0.35770297
66	0xbecd1744	-0.40056813
67	0xbe34000e	-0.17578146
68	0x3eba9f0b	0.36449465
69	0x3ea28e90	0.31749392
70	0x3e9a1d37	0.30100414
71	0x3e82cdd2	0.25547653
72	0x3d9601cb	0.07324561
73	0x3e1c29bf	0.152503
74	0xbeb1d982	-0.34736258
75	0x3d167da3	0.03674091
76	0x3d763d22	0.060116895
77	0x3cfb095d	0.030644113
78	0x3edff93e	0.43744844
79	0x3e4e24e5	0.20131262
80	0xbdac0ec6	-0.08401255
81	0x3e639c58	0.22227609
82	0xbd088f92	-0.033340044
83	0xbd8bf565	-0.06833915
84	0xbe83313b	-0.25623497
85	0xbea0aa9d	-0.31380168
86	0x3e881325	0.26577106
87	0xbebe03c7	-0.37112257
88	0x3e67da2f	0.22641824
89	0xbe0f1ad8	-0.13975084
90	0x3e612aa7	0.21988927
91	0x3e7ca0a6	0.24670658
92	0x3e37b401	0.1793976
93	0x3e9e667e	0.3093757
94	0x3cfc0dab	0.030768236
95	0xbe31a122	-0.17346624
96	0xbe0fa9d9	-0.14029635
97	0xbe8fcaab	-0.2808431
98	0xbcedb386	-0.029016268
99	0x3ce00c5a	0.02734964
100	0x3dd7e29a	0.10541268
101	0x3cfd02b8	0.030885085
102	0xbd2ec571	-0.042668764
103	0x3e2c1367	0.16804276
104	0xbe6fa9f6	-0.23404679
105	0x3e4fa562	0.20277932
106	0xbe8490a2	-0.25891596
107	0xbc0bf647	-0.008542604
108	0x3e34ed14	0.17668563
109	0xbd27c873	-0.040962648
110	0x3e98a9a4	0.29816926
111	0xbe7d17a9	-0.24716057
112	0xbe496362	-0.19666818
113	0xbeb37e19	-0.35057142
114	0xbe64cdf5	-0.22344191
115	0x3e8d96a1	0.27653983
116	0x3dcdb60d	0.10044489
117	0xbe015d09	-0.12633146
118	0x3d17a160	0.037019134
119	0xbe08fd6c	-0.13377923
120	0x3f098516	0.537187
121	0xbd8be825	-0.068313874
122	0x3efcde10	0.4938817
123	0xbe8320f4	-0.2561108
124	0xbdf9a5cf	-0.121898286
125	0xbe3c2dbd	-0.18376823
126	0x3eb9f94f	0.3632302
127	0xbe279dc7	-0.16368781
128	0x3d73c0a2	0.05950988
129	0xbeca1118	-0.39466166
130	0xbea1e9e3	-0.31623754
131	0xbe7fc59f	-0.2497773
132	0xbe794e5e	-0.24346301
133	0xbe1700bb	-0.14746372
134	0xbe9449a4	-0.28962433
135	0xbcc7d21b	-0.024392178
136	0xbe852120	-0.26001835
137	0x3de3ab3a	0.11116643
138	0xbd9bfa0b	-0.07616051
139	0xbd7ea15d	-0.062165607
140	0x3eacad13	0.33725795
141	0xbe3ba7a9	-0.18325676
142	0x3de992b2	0.11404933
143	0x3c2a801e	0.010406522
144	0x3b745b5f	0.0037285907
145	0x3eb43efc	0.35204303
146	0x3eaa8ab3	0.33308944
147	0xbdbdf109	-0.092744894
148	0x3c52bff9	0.012863153
149	0xbda1ef9d	-0.07907031
150	0xbdf31a73	-0.11870279
151	0x3c45decc	0.012077045
152	0xbe53c8bf	-0.20682047
153	0x3d91f8f2	0.07127561
154	0xbeb34e7f	-0.35020825
155	0x3cf1e8ac	0.029529892
156	0x3e75d80b	0.24008195
157	0xbdf83dc3	-0.12121155
158	0xbc9d11ed	-0.019173587
159	0xbe16a2da	-0.1471056
160	0x3e8834e7	0.2660286
161	0x3e8e49a6	0.27790564
162	0xbe12e29f	-0.14344262
163	0x3e49090d	0.19632359
164	0x3e61007f	0.21972845
165	0x3ceae804	0.028675087
166	0x3eb261d5	0.34840265
167	0x3ed11000	0.4083252
168	0x3ebfb846	0.37445277
169	0xbe9d15db	-0.30680737
170	0x3d6e2694	0.05814226
171	0xbeba4e2c	-0.36387765
172	0x3e9de6e2	0.30840212
173	0xbdc1743f	-0.09446
174	0x3e98fe9b	0.2988175
175	0x3d64d3c5	0.05586602
176	0x3d33460d	0.043767978
177	0xbeb32020	-0.34985447
178	0xbdd85ec9	-0.10564954
179	0xbd212390	-0.039340556
180	0x3e22385d	0.15841813
181	0xbe3f3bfa	-0.18675223
182	0x3e6a9045	0.22906597
183	0xbed2dd9c	-0.411847
184	0x3e8a368b	0.26994738
185	0xbe8f8dee	-0.2803797
186	0xbe3b0419	-0.18263282
187	0x3e816b38	0.25277114
188	0x3e2e7516	0.17036852
189	0x3ea33d29	0.318826
190	0x3d1b5301	0.037920956
191	0x3e1c023f	0.15235232
192	0x3e44207c	0.19153017
193	0x3e8207f7	0.25396702
194	0xbe0df153	-0.13861589
195	0x3e92169c	0.28532875
196	0x3cf43df5	0.0298147
197	0x3ec85445	0.39126793
198	0xbcca3508	-0.02468349
199	0x3ea4c107	0.32178518
200	0xbe761f00	-0.24035263
201	0xbdbdd74c	-0.0926958
202	0x3e686742	0.2269564
203	0x3e94485a	0.2896145
204	0xbcb4b842	-0.022060517
205	0x3e12b8c8	0.14328301
206	0xbe822b94	-0.25423872
207	0x3e121a73	0.14267902
208	0x3ebf06f5	0.37309995
209	0x3e346146	0.17615232
210	0xbde27c09	-0.11058814
211	0xbe8c2d9c	-0.27378547
212	0xbdb7c63e	-0.089733586
213	0x3d817f31	0.06323088
214	0xbe8bf02d	-0.27331677
215	0x3e752316	0.23939165
216	0x3e97d81a	0.2965706
217	0x3e30aa6b	0.1725251
218	0xbe61af6f	-0.22039579
219	0x3dfd74c9	0.123757906
220	0xbe18f603	-0.14937596
221	0x3e6e6364	0.23280102
222	0x3ebaa284	0.36452115
223	0x3e804b4c	0.25057447
224	0x3daf2bb8	0.085532606
225	0xbe916baf	-0.2840247
226	0xbde75637	-0.11295741
227	0x3e974471	0.29544404
228	0x3e93392c	0.28754556
229	0xbe2c1bde	-0.16807505
230	0xbc6c4394	-0.014420409
231	0x3e5eefd1	0.2177117
232	0x3d649221	0.055803422
233	0x3d963fdb	0.07336398
234	0x3ea9b46d	0.33145466
235	0x3e274187	0.1633359
236	0xbe72cf53	-0.237119
237	0x3ea82830	0.3284316
238	0x3e0da03f	0.1383066
239	0xbe9abfac	-0.3022436
240	0xbe2446e7	-0.16042672
241	0xbe3b56fe	-0.18294904
242	0x3e9bdb65	0.30440822
243	0xbe3f1644	-0.18660837
244	0x3d69a916	0.05704602
245	0x3dff6998	0.12471312
246	0x3dd683f9	0.104743905
247	0x3e825945	0.25458732
248	0xbda737bb	-0.081649266
249	0x3dc53f37	0.09631198
250	0xbe6d3d15	-0.23167832
251	0x3e9ecbb1	0.3101478
252	0xbe579ecb	-0.21056668
253	0x3e90285d	0.28155795
254	0x3d5387ae	0.051643066
255	0x3e90d038	0.28283858

bias f4 [128]
0	0xbe38e288	-0.18055165
1	0xbe7448f0	-0.23855948
2	0x3e421b21	0.18955661
3	0x3ed010f2	0.40637928
4	0x3d6942e6	0.056948565
5	0xbe1108e8	-0.14163554
6	0xbdd1db23	-0.10246875
7	0x3db87424	0.09006527
8	0x3ba9ca54	0.00518159
9	0x3ec5460c	0.38530004
10	0x3e958918	0.29206157
11	0x3daee10a	0.085390165
12	0x3db90d7f	0.09035777
13	0x3e5662e0	0.20936155
14	0x3d82b154	0.06381479
15	0xbe172580	-0.14760399
16	0xbe4c695c	-0.19962066
17	0x3e4e847d	0.20167728
18	0x3eb4c138	0.35303664
19	0x3e4d2370	0.2003305
20	0xbd95ff25	-0.073240556
21	0xbe9af27e	-0.30263132
22	0x3e549b04	0.20762259
23	0xbe4f0d05	-0.2021981
24	0xbd98304b	-0.07431086
25	0xbe910c02	-0.28329474
26	0xbdc8383b	-0.0977635
27	0x3d81b1bf	0.063327305
28	0xbe8f3b46	-0.2797491
29	0xbeb324e6	-0.3498909
30	0x3e8ec55a	0.27884942
31	0xbb8da7bc	-0.004322974
32	0x3e98efad	0.29870358
33	0x3d6ce12f	0.05783194
34	0x3e961f56	0.29320782
35	0xbe75fe52	-0.24022797
36	0xbe943c30	-0.2895217
37	0xbdcff75e	-0.101546034
38	0xbe4af560	-0.19820166
39	0xbd2c1476	-0.0420117
40	0xbe3e0774	-0.1855753
41	0xbecd1a23	-0.40059003
42	0xbbee7402	-0.007277013
43	0xbd8eb4c2	-0.069680706
44	0xbe9246a2	-0.28569514
45	0xbce2daca	-0.027692217
46	0xbe938fd6	-0.28820676
47	0x3e64dce9	0.22349896
48	0xbe820c38	-0.25399947
49	0xbdd3683c	-0.103226155
50	0x3e5d0efd	0.21587749
51	0x3ebfeab1	0.37483743
52	0x3c867387	0.01641251
53	0xbea3e590	-0.3201108
54	0xbe14707b	-0.14496033
55	0x3e528432	0.20558241
56	0x3e943d49	0.28953007
57	0x3e78eab1	0.24308278
58	0xbd8cce8b	-0.068753324
59	0xbeb3824c	-0.35060346
60	0xbeaa42f2	-0.332542
61	0x3e11ba39	0.14231195
62	0x39b8c2c1	0.00035240318
63	0x3e8e683c	0.278139
64	0x3e9398bc	0.28827465
65	0xbe46d36c	-0.19416589
66	0xbeb5f34f	-0.35537192
67	0xbe59c5d5	-0.21266873
68	0x3ebef170	0.37293577
69	0x3db201d5	0.08691756
70	0x3dedb677	0.11607068
71	0xbd0a3b1e	-0.033747785
72	0xbe7a5db5	-0.24449809
73	0x3ea650ed	0.32483616
74	0x3d9f8e9f	0.07790875
75	0xbd80a622	-0.06281687
76	0x3e1266ba	0.14297
77	0x3e91e555	0.2849528
78	0xbdc9f121	-0.09860445
79	0x3e96c0b7	0.29443905
80	0x3e94d79e	0.29070753
81	0x3e90e2e0	0.28298092
82	0x3e28c067	0.16479646
83	0xbe84326b	-0.25819716
84	0xbe0aff2a	-0.135739
85	0xbdfd3ea9	-0.12365467
86	0xbe9bc43c	-0.30423152
87	0xbe53c763	-0.20681529
88	0xbeaca55f	-0.33719918
89	0xbe1be0b7	-0.1522244
90	0x3ebb76f0	0.3661418
91	0x3e89649b	0.26834568
92	0x3eb25c42	0.34836012
93	0x3ece81b1	0.40333322
94	0x3db51466	0.08841781
95	0xbe9900be	-0.2988338
96	0x3e077332	0.13227537
97	0x3e858f43	0.26085863
98	0x3e0bc3e9	0.13648953
99	0xbea76f87	-0.32702276
100	0x3ec8058a	0.39066726
101	0x3e8a6984	0.27033627
102	0x3e3ca832	0.18423536
103	0x3eb3b1dc	0.35096633
104	0xbe559f68	-0.2086159
105	0x3c881824	0.016613074
106	0x3da0cf45	0.078520335
107	0xbe1bd9a4	-0.15219742
108	0xbe232381	-0.15931512
109	0x3dd4c625	0.103893556
110	0x3d5ad97a	0.053430058
111	0xbe8075bd	-0.25089827
112	0xbeaceb64	-0.3377334
113	0x3b0bd719	0.0021337925
114	0x3e9d22c6	0.30690593
115	0x3ca6d236	0.020363908
116	0xbe1d1c4b	-0.15342824
117	0x3e63be9f	0.22240685
118	0x3e829e55	0.25511423
119	0xbe1c6450	-0.15272641
120	0x3e81dd7c	0.25364292
121	0xbdc10fba	-0.09426828
122	0xbe1b7717	-0.15182148
123	0x3e7f20ec	0.24914902
124	0x3e3ac3d2	0.18238762
125	0xbe667f44	-0.22509485
126	0x3e9eae31	0.30992272
127	0xbe8b182a	-0.27166873

weight f4 [64, 128]
0	0xbce2f1fe	-0.027703281
1	0x3dacf6fd	0.08445547
2	0x3b0de19a	0.0021649362
3	0x3d3f6269	0.04672471
4	0x3d78fee7	0.06078997
5	0xbd73637f	-0.05942106
6	0x3dae3d81	0.08507825
7	0xbcc479be	-0.023983832
8	0xbda2e8d5	-0.079545654
9	0xbd6d833d	-0.057986487
10	0x3c4a1c1b	0.012335802
11	0x3db46466	0.08808212
12	0xbcb37454	-0.021906056
13	0x3cb3499e	0.02188569
14	0xbda52a74	-0.08064738
15	0x3c87d109	0.016579168
16	0x3c5e8770	0.0135820955
17	0xbd93189d	-0.07182429
18	0xbce8a4bb	-0.028398862
19	0xbd0b068a	-0.033941783
20	0xbd167944	-0.03673674
21	0x3d897135	0.06711046
22	0xbc037424	-0.008023296
23	0xbd609658	-0.05483088
24	0x3cbc3888	0.022976175
25	0x3d2871f2	0.04112429
26	0x3d09e9bb	0.03367017
27	0x3bfaad90	0.007650085
28	0xbc29cb88	-0.010363467
29	0xbd88c4d8	-0.0667817
30	0xbd6d649d	-0.05795728
31	0x3d6dc48c	0.05804877
32	0x3d9e73ed	0.07736955
33	0xbcee4242	-0.029084329
34	0xbb2f0ba7	-0.0026709826
35	0xbd82c569	-0.06385309
36	0xbb3dcb40	-0.0028960258
37	0xbda050a0	-0.07827878
38	0x3db11610	0.08646786
39	0x3cc83ed5	0.024444023
40	0xbcca2224	-0.024674483
41	0x3c9d3b15	0.019193212
42	0x3d7878aa	0.06066195
43	0x3cae75cb	0.021296402
44	0x3da9c376	0.08289234
45	0xbd134f98	-0.03596458
46	0xbc55c9b6	-0.01304858
47	0xbd9bdb84	-0.07610229
48	0x3d9ab47b	0.07553955
49	0xbd9ed4a6	-0.07755403
50	0xba44b6bb	-0.00075040356
51	0xbd6cb997	-0.05779418
52	0xbd1afd5a	-0.03783927
53	0x3d71d659	0.05904231
54	0xbcd9e33c	-0.026597612
55	0x3d9f5263	0.07779386
56	0x3d1a653c	0.0376942
57	0xbd7bc64c	-0.061468408
58	0xbced5363	-0.028970426
59	0xbd6d733b	-0.05797122
60	0xbd9049d8	-0.070453346
61	0xbba95c84	-0.0051684994
62	0xbd6fa997	-0.058511343
63	0xbd864e07	-0.06557851
64	0xbd37dfd2	-0.044891186
65	0x3daae01f	0.08343529
66	0x3d99a665	0.0750244
67	0x3d5838b7	0.052788462
68	0x3d2ac872	0.041695066
69	0x3d20ca33	0.039255332
70	0xbb155012	-0.0022783321
71	0x3d8cc04a	0.06872614
72	0x3d64f5cb	0.05589847
73	0x3d548652	0.05188591
74	0x3c733849	0.014844962
75	0xbdaddb03	-0.08489039
76	0xbd82a29b	-0.06378671
77	0x3c9a733f	0.018853782
78	0xbd92847f	-0.07154178
79	0xbd8689f0	-0.06569278
80	0x3d10fc52	0.03539688
81	0xbd30d1dc	-0.043168887
82	0xbd893d65	-0.06701163
83	0xbceb7f8c	-0.028747343
84	0xbb96e856	-0.0046053333
85	0xbccd2614	-0.025042571
86	0xbd2299eb	-0.03969757
87	0x3d7a1a8d	0.061060477
88	0x3cf28301	0.029603483
89	0x3daa7476	0.083229944
90	0xbd0fbbc0	-0.03509116
91	0x3caca50c	0.021074794
92	0xbd0ed4a0	-0.034870744
93	0x3d9f11cf	0.077670686
94	0x3d3502da	0.044192173
95	0xbcaa0332	-0.020753477
96	0x3cefb4d3	0.029261028
97	0x3cb3d53a	0.02195226
98	0xbb165e5d	-0.0022944428
99	0xbd528fc4	-0.051406637
100	0x3bb593e0	0.0055413097
101	0x3cde6f8d	0.027152801
102	0xbbbca721	-0.005757228
103	0x3d00e7d0	0.031471074
104	0x3d418896	0.0472494
105	0x3d6e0ce7	0.058117773
106	0xbc8f9cfa	-0.017530907
107	0xbc8b4f5f	-0.01700562
108	0x3d4f4b04	0.05060865
109	0xbd90caf2	-0.07069959
110	0x3da7bdc3	0.08190491
111	0x3cc5f9f7	0.024167044
112	0x3cc54fa4	0.024085827
113	0x3d037e0d	0.032102633
114	0xbd61c2aa	-0.055117287
115	0xbd96305a	-0.07333441
116	0xbd37ce52	-0.044874497
117	0x3c9dcbe8	0.01926227
118	0x3a9542fd	0.0011387762
119	0xbd522049	-0.05130032
120	0xbd032da9	-0.032025967
121	0x3d8ee04d	0.06976376
122	0x3c33715e	0.010952322
123	0xbc705069	-0.014667609
124	0xbd134ee0	-0.035963893
125	0xbd5e7716	-0.054312788
126	0xbd93b598	-0.07212371
127	0x3d6bf3db	0.057605606
128	0x3d58cc61	0.052929286
129	0x3dab4e19	0.08364505
130	0xbd78a6a5	-0.0607058
131	0xbcb54644	-0.022128232
132	0xbd1426f8	-0.036169976
133	0x3b095161	0.0020953047
134	0xbd47d91c	-0.048791036
135	0x3cb5da6e	0.022198882
136	0x3b369778	0.0027861279
137	0x3d24b07e	0.04020738
138	0xbc94b8bd	-0.018154496
139	0xbd271f8d	-0.040801574
140	0xbc3ce154	-0.011528332
141	0xbd1e2193	-0.038606238
142	0xbbd660ad	-0.0065422864
143	0xbc8c2ef9	-0.017112242
144	0x3d2ab7a1	0.04167903
145	0x3d19c1dc	0.037538394
146	0xbd827208	-0.06369406
147	0x3cde37b6	0.027126174
148	0x3d971065	0.07376174
149	0x3db1b977	0.08677953
150	0xbc99dae3	-0.018781131
151	0x3cfb34a8	0.030664757
152	0xbd61d575	-0.05513521
153	0x3d77339a	0.060351945
154	0x3ba93a9e	0.0051644584
155	0x3d494c00	0.049144745
156	0x3d7e30e4	0.062058344
157	0xbd3b7bd1	-0.045772377
158	0x3d84f669	0.064923115
159	0x3d001393	0.031268667
160	0xbd2a1215	-0.04152115
161	0xbd93a37e	-0.07208918
162	0x3d050772	0.032477804
163	0x3d5cb1b3	0.053880405
164	0x3d9f0457	0.077645
165	0x3da63d9c	0.0811722
166	0x3d74b2ad	0.05974071
167	0xbcdcac98	-0.026937768
168	0xbcecdf29	-0.028915005
169	0xbd31d33c	-0.04341434
170	0xbcb30dda	-0.02185719
171	0x3d7d89da	0.061899044
172	0x3dabbef0	0.08386028
173	0xbc6b5b8d	-0.014365089
174	0xbacc7ef7	-0.0015601803
175	0xbcbd941e	-0.023141917
176	0xbd95b76d	-0.07310376
177	0xbd5af3c5	-0.053455133
178	0x3d9c09fc	0.07619092
179	0xbd1febb2	-0.039043136
180	0x3ce19627	0.027537419
181	0x3cd77dff	0.026305197
182	0xbd907514	-0.07053581
183	0xbd232389	-0.03982881
184	0xbd74e5fd	-0.059789646
185	0xbadd851f	-0.0016900635
186	0x3cecc082	0.028900389
187	0x3d6bb2a8	0.057543427
188	0x3d5b380c	0.053520247
189	0xbd87fb8a	-0.06639774
190	0x3d008d7b	0.031384926
191	0x3d5e2ec9	0.054243837
192	0x3cff47d7	0.031162186
193	0x3da3031c	0.079595774
194	0xbd34805e	-0.044067733
195	0xbdad9f38	-0.08477634
196	0xbd88b8e1	-0.06675888
197	0x3c8b3223	0.01699168
198	0x3da45bad	0.08025298
199	0x3d2e3c95	0.042538244
200	0xbc97a73c	-0.01851236
201	0xbd3971ae	-0.04527443
202	0x3d3e7752	0.04650051
203	0x3d26724f	0.040636357
204	0x3d853a00	0.06505203
205	0xbd9eaab0	-0.077474
206	0xbd3d0d6f	-0.04615539
207	0x3cd6d927	0.026226593
208	0xbbf4ecbc	-0.00747451
209	0x3d264560	0.040593505
210	0xbce716ea	-0.028209168
211	0xbd943f4a	-0.07238634
212	0x3d9f3aa8	0.0777486
213	0x3b88d264	0.004175471
214	0xbcc27c8f	-0.023741035
215	0xbdb0d97a	-0.0863523
216	0x3d8875d0	0.06663096
217	0x3a099cc4	0.0005249495
218	0xbbba1415	-0.0056786635
219	0xbd973084	-0.073823005
220	0xbd1a3964	-0.03765239
221	0xbd9c2b42	-0.07625438
222	0xbc2fb522	-0.010724338
223	0x3b498ac1	0.003075287
224	0x3caf910e	0.021431472
225	0x3d693961	0.056939486
226	0x3c5dad08	0.013530023
227	0xbda72840	-0.08161974
228	0xbd259c4f	-0.04043227
229	0xbc6b127c	-0.014347669
230	0xbd994b41	-0.07485057
231	0x3da09e04	0.07842639
232	0xbcd69c4c	-0.026197575
233	0xbd43166a	-0.047628798
234	0xbc122620	-0.0089202225
235	0xbd441363	-0.04787005
236	0x3c4ca171	0.0124896625
237	0x3d59334b	0.053027432
238	0xbd9e89ef	-0.077411525
239	0x3d7a252e	0.061070614
240	0x3db18f3a	0.086698964
241	0x3c488ac8	0.012240119
242	0x3d16e5df	0.036840316
243	0xbd9668da	-0.073442176
244	0xbd00b9fa	-0.03142736
245	0x3db2d2b9	0.087315984
246	0x3b149afb	0.0022675383
247	0x3d34045e	0.043949477
248	0xbd7cd4b7	-0.0617263
249	0xbd62ee83	-0.055403244
250	0x3d27a0a4	0.040924683
251	0xbbb0bff0	-0.0053939745
252	0x3d1aa0e7	0.037751105
253	0x3dac74ec	0.084207386
254	0x3d7b1aab	0.06130473
255	0x3d2b0720	0.04175484

bias f4 [64]
0	0xbd944fc6	-0.07241778
1	0xbcce523b	-0.025185695
2	0x3d95c230	0.07312429
3	0x3d98e671	0.07465828
4	0x3ce56f35	0.02800713
5	0x3d6b4925	0.057442803
6	0x3d2cd9ae	0.042199783
7	0x3ddd871e	0.10816787
8	0xbae29ddb	-0.0017289476
9	0xbcc7c890	-0.024387628
10	0x3d0083eb	0.031375807
11	0xbbbb6e94	-0.005719969
12	0x3d8e3150	0.06942999
13	0x3d26b1a3	0.04069675
14	0x3c4a67ec	0.0123538785
15	0x3b970272	0.004608446
16	0x3ccac6d6	0.024753015
17	0x3cb3ec5e	0.021963295
18	0x3d2d9504	0.04237844
19	0x3badf1af	0.005308352
20	0x3dc5b916	0.09654443
21	0x3a8b121c	0.0010610255
22	0xbb8c74f1	-0.0042864014
23	0xbb95b604	-0.004568817
24	0xbc39af40	-0.011333287
25	0xbce7d9fb	-0.028302183
26	0xbd289740	-0.04115987
27	0xbd009509	-0.03139213
28	0x3d2fd1c2	0.04292465
29	0xbd28977b	-0.041160088
30	0x3c34fe95	0.011047025
31	0xbcc2fa86	-0.0238011
32	0x3d5a3b33	0.053279113
33	0x3d6da03b	0.058014136
34	0x3cff3f40	0.03115809
35	0xbc8517cc	-0.016246699
36	0x3d7ba5b7	0.061437335
37	0xbdb0b8b8	-0.08628982
38	0x3d6a7ca4	0.057247773
39	0xbdb3ac09	-0.087730475
40	0xbc4a9435	-0.012364437
41	0x3d686369	0.05673543
42	0x3d62d1a5	0.055375714
43	0xbdae31dd	-0.085056044
44	0x3d5b8221	0.053590897
45	0x3cf51774	0.02991841
46	0x3d0905f9	0.03345296
47	0x3dc3dd12	0.0956365
48	0xbcdf334a	-0.027246136
49	0x3d7cb501	0.061696056
50	0xbcfb24e2	-0.030657236
51	0x3d954cf7	0.072900705
52	0x3caf55e3	0.021403259
53	0xbd8e7c66	-0.06957321
54	0xbc4e2d37	-0.012584022
55	0x3df036e9	0.11729223
56	0x3d7e7cbd	0.06213068
57	0x3e0f1a21	0.13974811
58	0x3d305a29	0.043054733
59	0xbd84de81	-0.06487752
60	0x3c98a0a2	0.018631283
61	0xbd2c4382	-0.042056568
62	0x3cd6278b	0.026141902
63	0x3e03304f	0.12811397

weight f4 [32, 64]
0	0x3d3f3990	0.046685755
1	0xbdb74a9c	-0.089497775
2	0x3e0f88a9	0.14016975
3	0xbbfda824	-0.007740991
4	0xbd47c2b8	-0.048769683
5	0x3dba08e1	0.09083725
6	0x3df81585	0.121134795
7	0xbcff00a7	-0.03112824
8	0x3dec1343	0.115271114
9	0x3cf592bf	0.0299772
10	0x3e0086df	0.12551449
11	0x3df3a641	0.11896945
12	0x3db667a0	0.08906484
13	0x3e06066f	0.13088392
14	0xbd83013f	-0.06396722
15	0x3dbbf964	0.09178427
16	0xbd80ddfe	-0.06292342
17	0xbd8ddda9	-0.06927044
18	0x3d6f5c78	0.058437794
19	0xbdfd69da	-0.12373705
20	0xbdc64c4d	-0.09682522
21	0xbdeeeb65	-0.11665992
22	0xbdc271d9	-0.09494371
23	0x3d8b8e4f	0.068142526
24	0xbe03ac1c	-0.12858623
25	0x3d161e32	0.03664989
26	0x3dc95097	0.098298244
27	0x3e00ff7f	0.12597464
28	0xbe5d809d	-0.21631093
29	0x3dd999af	0.10625016
30	0x3d9c616c	0.07635769
31	0x3d9abcd3	0.075555466
32	0x3c0b0b29	0.0084865475
33	0x3e086660	0.13320303
34	0xbdcb996a	-0.09941371
35	0xbd4cf41b	-0.050037485
36	0xbdaa5b46	-0.0831819
37	0xbb243cc0	-0.0025060624
38	0x3d005ffb	0.031341534
39	0xbd31ae34	-0.043379024
40	0xbc053e15	-0.008132477
41	0x3d89067e	0.066906914
42	0xbd0e2e09	-0.03471187
43	0xbd7f404c	-0.062317178
44	0xbd895087	-0.067048125
45	0xbcb306be	-0.0218538
46	0x3d89a6c1	0.06721259
47	0x3dbc55b9	0.09196038
48	0x3afdf9b0	0.0019376781
49	0xbd24de24	-0.040250912
50	0xbdc14bf1	-0.09438313
51	0xbdc14267	-0.09436493
52	0xbdc4e49e	-0.09613918
53	0xbc1159d0	-0.008871511
54	0x3d594271	0.05304188
55	0x3cb4f9b7	0.02209173
56	0x3d9d9275	0.0769395
57	0xbd3ecba0	-0.04658091
58	0xbda5f22a	-0.0810283
59	0xbc2d4f67	-0.010578013
60	0xbd8a9d7e	-0.067683205
61	0x3dabb420	0.083839655
62	0x3dfcdd5f	0.12346911
63	0x3d9d9f8e	0.07696448
64	0xbc6c47c0	-0.014421403
65	0xbc95cbd9	-0.018285679
66	0x3dc440a2	0.0958264
67	0x3e1e032d	0.15430899
68	0x397ae87e	0.00023928468
69	0xbdacb4e7	-0.08432942
70	0x3d2ed357	0.042682018
71	0xbe36e343	-0.17860131
72	0x3d02e6dd	0.03195845
73	0x3dae0b59	0.08498258
74	0xbd47f081	-0.048813347
75	0xbce1ea23	-0.027577465
76	0x3d8c95b6	0.068644926
77	0x3d6283c6	0.05530145
78	0xbddb72f1	-0.10715283
79	0x3d052f23	0.032515656
80	0xbe318c6d	-0.17338724
81	0xbdd42a0d	-0.10359583
82	0xbce210f0	-0.027595967
83	0x3df913b0	0.12161958
84	0x3e24245f	0.160295
85	0xbd37ad75	-0.044843156
86	0x3d8b01cf	0.06787454
87	0x3cc881f0	0.024476022
88	0xbe05a0dd	-0.13049646
89	0xbd3bb5b0	-0.045827568
90	0xbcad2c4b	-0.021139285
91	0x3d246c2e	0.04014223
92	0x3e10bbe2	0.14134172
93	0x3d884255	0.06653277
94	0xbb4c1a37	-0.0031143555
95	0x3ddc17ba	0.10746713
96	0x3dbb3e44	0.091427356
97	0x3d74b837	0.059745993
98	0xbdb397c5	-0.08769182
99	0x3d569b67	0.052394297
100	0x3dc1daf1	0.09465588
101	0xbd2333f4	-0.03984447
102	0x3dad66d5	0.08466879
103	0xbd6fdc82	-0.058559902
104	0x3cd7882f	0.026310055
105	0x3dbdd76d	0.09269605
106	0xbd9629d1	-0.073321946
107	0x3ca61198	0.020272061
108	0xbdcf5d8c	-0.101252645
109	0x3de655cd	0.11246834
110	0xbc8557e1	-0.016277255
111	0x3d2bf8c2	0.04198528
112	0x3e12d591	0.14339282
113	0x3c297f8f	0.010345354
114	0xbd6ab58b	-0.05730204
115	0x3d67f2cb	0.05662803
116	0xbdacbffd	-0.08435056
117	0x3d4e74f2	0.050404496
118	0xbb804029	-0.0039138985
119	0xbc062c3e	-0.008189259
120	0xbe9459b0	-0.28974676
121	0xbe978d9e	-0.29600233
122	0x3e06a7bd	0.13149925
123	0x3d75a73c	0.05997394
124	0x3d1978c3	0.037468683
125	0x3cef2ee0	0.029197156
126	0xbd8b0e52	-0.06789841
127	0x3e044014	0.12915069
128	0x3dcb3b92	0.099234715
129	0x3cc4eb68	0.024038032
130	0xbd938252	-0.07202591
131	0xbdd6af4d	-0.10482655
132	0x3dc25e0e	0.09490596
133	0xbd9b8c2d	-0.07595096
134	0x3caa6376	0.02079938
135	0xbdc2c1d2	-0.095096245
136	0xbddd8e76	-0.10818188
137	0xbd3959cb	-0.04525165
138	0xbde97660	-0.11399531
139	0xbdee12c4	-0.11624673
140	0xbd9ef2aa	-0.07761128
141	0x3d8dfb26	0.069326684
142	0xbd2b7adc	-0.041865215
143	0x3d56167c	0.052267537
144	0xbc3eed40	-0.0116532445
145	0xbdd8761a	-0.10569401
146	0x3daeaf16	0.08529489
147	0x3db45f14	0.08807197
148	0x3bf9748c	0.0076127704
149	0xbdf91394	-0.12161937
150	0xbd3ae5d8	-0.045629352
151	0xbd59053f	-0.05298352
152	0x3dcf4112	0.10119833
153	0x3d6312c1	0.055437807
154	0x3d4b31aa	0.04960791
155	0x3dac2878	0.08406156
156	0x3dde6689	0.10859401
157	0xbd06d31c	-0.032916173
158	0x3d8efac0	0.069814205
159	0x3dbd7d7c	0.0925245
160	0x3cfd73d0	0.030939013
161	0x3d0094c7	0.031391885
162	0xbdc4af53	-0.09603753
163	0x3d66e060	0.056366324
164	0x3cf42b80	0.029805899
165	0x3df1a278	0.117985666
166	0xbce09c78	-0.02741836
167	0x3d1771aa	0.036973633
168	0xbda29f59	-0.079405494
169	0xbde0954d	-0.10965977
170	0xbd338db4	-0.04383631
171	0x3db61c44	0.0889211
172	0x3dc217c0	0.09477186
173	0x3da92c46	0.082603976
174	0x3d8962da	0.067083076
175	0x3caf690f	0.0214124
176	0xbda80fca	-0.082061365
177	0xbc662ed0	-0.014049247
178	0x3d1cb2d8	0.038256496
179	0xbbfc169d	-0.0076931254
180	0xbd4c260a	-0.049840964
181	0x3d798e98	0.060927004
182	0x3c2dbbe0	0.010603875
183	0x3d7ffbc2	0.062495954
184	0xbc910d38	-0.017706499
185	0xbdb800d6	-0.089845344
186	0x3dc32817	0.09529131
187	0xbd17c958	-0.03705725
188	0xbdd95d48	-0.10613495
189	0xbdd6330c	-0.10458955
190	0xbdc4066a	-0.09571536
191	0xbdaa1787	-0.08305269
192	0xbdc37248	-0.09543282
193	0xbde300c3	-0.1108413
194	0x3cf2c4ef	0.02963492
195	0x3e3b7c52	0.18309143
196	0x3e134417	0.14381443
197	0x3e30d5e9	0.172691
198	0xbde9dfd7	-0.11419647
199	0x3bda3cfb	0.0066601015
200	0x3e147d04	0.14500815
201	0x3d0671cc	0.03282337
202	0x3e285820	0.16439867
203	0x3beba2ed	0.007191053
204	0x3c9b3407	0.018945707
205	0xbc427876	-0.01186954
206	0x3b99df0b	0.0046957782
207	0xbd81ea04	-0.06343463
208	0x3d570eb8	0.05250427
209	0xbdedcff1	-0.11611927
210	0x3d6f84a3	0.0584761
211	0x3d600a6b	0.054697435
212	0x3dda67c4	0.10664323
213	0xbd54a23b	-0.051912528
214	0xbd07ed6c	-0.033185408
215	0x3e330f0d	0.1748621
216	0x3b8f1679	0.0043666926
217	0x3e025fdf	0.12731884
218	0xbbdd3c1a	-0.0067515494
219	0x3e313968	0.17307055
220	0x3dd0dae8	0.10198003
221	0xbdb9dd53	-0.09075417
222	0xbc3532a0	-0.011059433
223	0x3ddf0598	0.10889739
224	0xbd326fc6	-0.043563627
225	0x3e1273f8	0.14302051
226	0xbc132f6d	-0.008983475
227	0x3d328886	0.04358723
228	0x3d493e0f	0.04913145
229	0xbd25fc40	-0.040523767
230	0x3d0d5ccf	0.034512337
231	0xbdbce1b6	-0.092227384
232	0x3cc4167e	0.023936506
233	0x3dde2e18	0.108486354
234	0x3e0ca636	0.1373528
235	0x3cf16ac0	0.029469848
236	0x3da127c1	0.078689106
237	0x3d4cafd1	0.04997236
238	0xbd82b2b4	-0.06381741
239	0x3db94acf	0.09047472
240	0x3e3103c0	0.17286587
241	0xbd887ffc	-0.06665036
242	0x3c3e7f38	0.011627011
243	0xbcd2fc4e	-0.025755074
244	0xbba8622a	-0.005138655
245	0x3d9552d9	0.072911926
246	0x3d95d3d7	0.07315796
247	0xbd55ee3c	-0.05222915
248	0x3e49fbee	0.1972501
249	0x3e888d03	0.26670083
250	0x3e10b180	0.14130211
251	0xbdf53eca	-0.11974867
252	0x3dda2120	0.10650849
253	0xbdbbecd0	-0.09176028
254	0x3d565f19	0.052336786
255	0x3e0bcc92	0.13652256

bias f4 [32]
0	0xbd91bbb3	-0.07115879
1	0x3dde7383	0.10861876
2	0xbd3f4672	-0.04669804
3	0x3dc90dd8	0.098170936
4	0xbdb3e078	-0.087830484
5	0xbcad86d8	-0.021182463
6	0x3e2c8b3b	0.16849987
7	0x3df73d7c	0.12072274
8	0x3e0d8830	0.13821483
9	0xbc2061f4	-0.009788979
10	0xbc04bd99	-0.008101844
11	0x3d898d37	0.06716388
12	0x3c8c8ad3	0.01715604
13	0xbd0a4fbf	-0.033767458
14	0xbda08543	-0.07837918
15	0x3c57c330	0.013169095
16	0xbe0d0471	-0.13771226
17	0xbd2a7b69	-0.0416216
18	0x3daa64db	0.08320018
19	0x3c18b49b	0.009320403
20	0x3e137369	0.14399494
21	0xbde39b67	-0.11113625
22	0x3c8f4622	0.017489497
23	0xbc6ce18e	-0.014458073
24	0x3df864bf	0.12128591
25	0x3db7fb48	0.08983475
26	0x3d7bb6fd	0.061453808
27	0xbb5850ab	-0.0033007066
28	0xbdad83e1	-0.084724195
29	0x3d1f5bd8	0.03890595
30	0xbd9fb2b0	-0.07797754
31	0x3dbc1c6b	0.09185108

weight f4 [128, 7]
0	0xbe793f64	-0.24340588
1	0x3e53252e	0.20619652
2	0xbd996058	-0.07489079
3	0x3e91d636	0.28483742
4	0xbe4195bb	-0.18904774
5	0x3c995820	0.01871878
6	0x3e24ca89	0.16092886
7	0x3d3c048c	0.045902774
8	0xbea9e6a8	-0.3318379
9	0xbca9cc8f	-0.020727424
10	0x3e993ab2	0.29927593
11	0x3cf44e29	0.029822426
12	0xbb6729e6	-0.0035272776
13	0xbd7d043e	-0.061771624
14	0x3e5aeef1	0.21380211
15	0x3e582520	0.21107912
16	0xbe4af038	-0.19818199
17	0xbe8574ee	-0.26065773
18	0xbeb8d58a	-0.36100417
19	0xbea3e50a	-0.3201068
20	0x3e691cc4	0.2276488
21	0xbec1554b	-0.37760386
22	0xbd900d07	-0.07033735
23	0x3d9be09e	0.07611202
24	0x3ec28436	0.37991494
25	0x3e856f8b	0.26061663
26	0x3d2188a8	0.039436966
27	0x3dfe8d9c	0.124293536
28	0xbe694f72	-0.22784212
29	0xbdb8f41b	-0.090309344
30	0x3e9a731e	0.30165952
31	0xbe80b571	-0.2513843
32	0x3e866850	0.2625146
33	0xbdaac46f	-0.08338248
34	0xbe90bfd2	-0.28271347
35	0x3dce7247	0.100803904
36	0x3e7b9cde	0.24571559
37	0x3e7012a9	0.23444618
38	0x3e91c2be	0.2846889
39	0x3eb0e53e	0.34549898
40	0xbe7b4d67	-0.24541245
41	0x3eaba2c3	0.33522615
42	0x3e799e68	0.24376833
43	0x3e43bdac	0.19115323
44	0x3ec6fa30	0.38862753
45	0xbe08d5ee	-0.13362858
46	0x3e689f47	0.2271701
47	0xbe5c5003	-0.21514897
48	0x3e3c57e0	0.18392897
49	0xbe48cd61	-0.19609596
50	0x3e85587d	0.26044074
51	0xbe0d270b	-0.13784425
52	0x3ea778b1	0.32709268
53	0xbe650cf2	-0.2236822
54	0xbe82a649	-0.2551749
55	0x3e965a5c	0.29365814
56	0xbeb95353	-0.36196384
57	0xbe400ab8	-0.18754089
58	0xbe9a570d	-0.3014454
59	0x3e8bfd6a	0.27341777
60	0x3e932e80	0.28746414
61	0x3e558abc	0.20853704
62	0xbd40f122	-0.047104962
63	0x3e63f72b	0.22262256
64	0x3e91e9c3	0.2849866
65	0x3e34bd23	0.17650275
66	0x3e9defa7	0.30846903
67	0xbeabddf3	-0.3356777
68	0x3c65abc4	0.014018003
69	0xbe9af358	-0.30263782
70	0xbda44d7f	-0.08022594
71	0xbe9bc0d1	-0.30420545
72	0xbe99e138	-0.3005464
73	0xbea866cd	-0.3289093
74	0x3ea54ffe	0.32287592
75	0xbe372325	-0.178845
76	0x3c5d4023	0.013504061
77	0x3eaa8cf7	0.33310673
78	0x3e82c48a	0.25540572
79	0x3c9c7d66	0.019102763
80	0xbc811a37	-0.01575957
81	0xbcc3c244	-0.023896344
82	0xbdf6660e	-0.12031184
83	0x3da6dd59	0.081476875
84	0xbdfe06b4	-0.12403622
85	0x3e05fb3c	0.1308412
86	0x3e7ae438	0.24501121
87	0xbe74d95e	-0.23911044
88	0xbe4e8c07	-0.20170604
89	0xbe9e3a1d	-0.30903712
90	0x3ea822db	0.32839093
91	0x3ec6310f	0.38709304
92	0xbe1120df	-0.14172696
93	0xbdc92f92	-0.098235264
94	0xbe93adcf	-0.28843543
95	0xbe9c7e91	-0.30565313
96	0xbeb97d80	-0.3622856
97	0x3d205ef9	0.039153073
98	0xbc7fbec2	-0.015609445
99	0x3ea6bce6	0.32565993
100	0x3c24a2a8	0.010048546
101	0x3eafe9da	0.34358102
102	0xbe818d6b	-0.25303206
103	0x3e00950e	0.1255686
104	0xbea2e31b	-0.31813893
105	0x3e96284b	0.29327616
106	0x3db3dc42	0.08782245
107	0x3e8efc7c	0.27927005
108	0xbd5b25d5	-0.053502876
109	0x3e919859	0.28436545
110	0x3ed1de4b	0.4098991
111	0xbe245d59	-0.16051234
112	0xbe788e2a	-0.24272981
113	0xbe98bbb4	-0.29830706
114	0x3e1ab0dc	0.15106529
115	0xbe1afdf1	-0.15135933
116	0x3b807166	0.003919768
117	0x3d950969	0.072771855
118	0xbe1cbfb2	-0.15307501
119	0xbeb71e30	-0.3576522
120	0xbe77f7a1	-0.24215557
121	0xbd8bb820	-0.068222284
122	0xbdf4278f	-0.11921608
123	0xbc69120a	-0.014225492
124	0xbea663bd	-0.3249797
125	0xbeb2535b	-0.3482922
126	0x3eccd7b0	0.40008307
127	0x3e6d87f1	0.23196389
128	0x3c109a72	0.008825885
129	0xbe75af03	-0.23992543
130	0x3de2f9df	0.110828154
131	0x3dcf2de6	0.10116176
132	0x3da2bdde	0.079463705
133	0x3dfa6da0	0.122279406
134	0xbe286aa8	-0.16446936
135	0x3d1a53d3	0.037677597
136	0x3e28e6b9	0.16494264
137	0xbe5c0b05	-0.21488579
138	0x3ea1318c	0.31483114
139	0xbe3634a4	-0.17793518
140	0xbd40b593	-0.047048163
141	0x3ce99272	0.028512213
142	0x3d47b20e	0.04875379
143	0xbdf3ebb0	-0.11910188
144	0xbebd8862	-0.37018114
145	0xbcdb1ef4	-0.026748158
146	0xbe6d8f0d	-0.23199101
147	0x3ecf49d1	0.40486005
148	0xbeb4fae1	-0.35347655
149	0xbe1e8278	-0.15479457
150	0xbec49ee2	-0.38402468
151	0x3e180db5	0.14848979
152	0xbe5a1cd9	-0.21300067
153	0x3dcabae1	0.098989256
154	0xbed97232	-0.42469937
155	0x3e829632	0.25505215
156	0xbe4bcf11	-0.19903208
157	0x3dd16742	0.10224773
158	0xbe2645fc	-0.16237634
159	0x3d5456f1	0.051840726
160	0x3ec7de6d	0.39036885
161	0xbee48448	-0.44632173
162	0x3ea26c64	0.3172332
163	0x3e89d1b5	0.26917806
164	0xbd8625e6	-0.06550197
165	0x3ea8ca3f	0.32966802
166	0xbbde574e	-0.00678531
167	0x3d791d95	0.060819227
168	0x3ee9e34e	0.45681232
169	0xbeb825e3	-0.35966405
170	0x3cd26275	0.025681714
171	0xbe8625cc	-0.26200712
172	0xbc1b0f7e	-0.009464143
173	0x3e361799	0.1778244
174	0x3dfbd964	0.12297323
175	0xbeb6a9ba	-0.35676366
176	0xbe4f91eb	-0.20270507
177	0x3e02524c	0.12726706
178	0xbdef94d0	-0.116983056
179	0xbea0855f	-0.31351754
180	0x3d39a724	0.045325413
181	0xbd46b44d	-0.048511792
182	0xbdebd978	-0.11516088
183	0xbec27a28	-0.37983823
184	0xbd8f7b32	-0.070059195
185	0xbeabc828	-0.33551145
186	0xbeac3739	-0.33635882
187	0x3e745ff3	0.23864727
188	0x3e787ab0	0.24265552
189	0x3f0052bd	0.5012625
190	0xbea1b590	-0.31583834
191	0x3ebd7bd0	0.37008524
192	0xbdba9f22	-0.091123834
193	0x3cc4dd3e	0.024031278
194	0xbe6a95c8	-0.229087
195	0x3e9a171a	0.3009575
196	0x3efb7145	0.49109855
197	0xbe6942b5	-0.22779353
198	0xbea3a774	-0.31963694
199	0x3bba99bd	0.0056945966
200	0x3e64d58e	0.2234709
201	0x3d770fb0	0.060317695
202	0xbe5dd49f	-0.2166314
203	0xbe8f759e	-0.28019422
204	0x3cfdcc1b	0.030981114
205	0xbe7907e0	-0.2431941
206	0xbec1be51	-0.37840512
207	0xbd5e968e	-0.0543428
208	0x3a8ee8c6	0.0010903112
209	0x3e6e78f3	0.23288326
210	0x3ebf78ba	0.37396795
211	0xbe14c982	-0.14529994
212	0x3e66ee9e	0.22551963
213	0x3d096d84	0.033551708
214	0xbeb30a76	-0.3496892
215	0x3e112b4f	0.14176677
216	0xbe12b0e5	-0.14325292
217	0x3e4de19e	0.20105597
218	0xbe4af6d3	-0.19820718
219	0xbb81957f	-0.003954589
220	0x3e5713bb	0.2100362
221	0xbe3cf009	-0.18450941
222	0x3db76a15	0.089557804
223	0x3d6926d0	0.05692178
224	0x3c0461ab	0.0080799265
225	0x3dbfe1aa	0.09369214
226	0x3eb29966	0.3488266
227	0x3eb92bb9	0.3616617
228	0xbc61fb15	-0.013792773
229	0xbdc6299a	-0.096759036
230	0x3dcfa24e	0.10138379
231	0x3ee0b9a0	0.4389162
232	0xbe18ca3e	-0.149209
233	0xbcb65d6a	-0.02226134
234	0xbec71511	-0.3888326
235	0xbea75f0e	-0.32689708
236	0xbe93e35d	-0.28884402
237	0x3dafdab1	0.08586634
238	0x3e8ac57d	0.27103797
239	0xbe462df9	-0.19353475
240	0x3e989dae	0.298078
241	0x3ebe8c39	0.37216356
242	0x3e3df576	0.18550667
243	0xbe487996	-0.19577631
244	0xbdf8ee0c	-0.12154779
245	0xbe979350	-0.29604578
246	0xbe884974	-0.2661854
247	0xbea955d7	-0.33073303
248	0x3ea94393	0.33059368
249	0x3e271662	0.16317132
250	0xbc938926	-0.018009733
251	0xbe9d7cb4	-0.30759203
252	0xbe639e32	-0.22228315
253	0xbe8a44f5	-0.27005735
254	0x3ecab85d	0.39593783
255	0x3e31346e	0.17305157

bias f4 [128]
0	0x3e207438	0.15669334
1	0xbebc0d07	-0.3672869
2	0x3e9dce10	0.30821276
3	0x3e7f1505	0.24910362
4	0xbeaa1da5	-0.33225742
5	0x3e643285	0.22284897
6	0xbd481f50	-0.048857987
7	0xbdf3a3c5	-0.11896471
8	0x3e785860	0.24252462
9	0x3d95084e	0.072769746
10	0xbbf037a5	-0.007330852
11	0xbdf8d5b5	-0.121501364
12	0xbe84bc4b	-0.25924906
13	0x3e41b77a	0.18917647
14	0x3eefb879	0.4682043
15	0xbde13283	-0.109959625
16	0xbeb7204e	-0.35766834
17	0xbe54b61f	-0.20772599
18	0x3ea940bd	0.33057204
19	0xbe95941a	-0.29214555
20	0xbde0bf54	-0.10973993
21	0xbcfccb5e	-0.030858692
22	0x3ebb0867	0.36529848
23	0x3e991cde	0.29904836
24	0x3eb93a83	0.36177453
25	0xbebde9c2	-0.37092406
26	0x3cd5eced	0.026113952
27	0xbd86a618	-0.065746486
28	0x3e7f689c	0.24942249
29	0x3ea33a10	0.31880236
30	0xbde9c7f6	-0.11415093
31	0x3ecfad69	0.4056199
32	0xbeadf699	-0.33977202
33	0xbdd85fff	-0.10565185
34	0x3e28091a	0.16409722
35	0x3ed68d03	0.41904458
36	0xbdc86648	-0.097851336
37	0x3e9ac446	0.3022787
38	0x3eb14c3d	0.34628478
39	0x3e08bcb9	0.13353242
40	0xbe12daa6	-0.1434122
41	0x3e748ff2	0.23883036
42	0xbde97b17	-0.11400431
43	0x3ecef9e4	0.40425026
44	0x3e5cfb26	0.2158018
45	0x3e9d0a60	0.30671978
46	0xbe4bf4f5	-0.19917662
47	0x3eda664e	0.42656177
48	0xbe8cb5cc	-0.2748245
49	0x3ce760f8	0.02824448
50	0x3da989f1	0.08278263
51	0xbe84dd42	-0.25950056
52	0xbe2ae0b9	-0.16687287
53	0x3ea318e3	0.31854925
54	0x3ec88d70	0.39170408
55	0x3e8ac68b	0.271046
56	0xbce58dc7	-0.028021706
57	0x3e347182	0.17621425
58	0x3e88f13a	0.2674654
59	0x3e1bf723	0.15230994
60	0x3d1af6f3	0.037833165
61	0x3e38d0b0	0.18048358
62	0xbec0a469	-0.37625435
63	0xbe665d73	-0.22496586
64	0xbe0cd369	-0.13752522
65	0xbdaa0f9e	-0.0830376
66	0xbe98dda2	-0.29856592
67	0x3d2e99fd	0.042627323
68	0x3e5d1398	0.21589506
69	0xbeacdad2	-0.33760697
70	0xbd93535a	-0.071936324
71	0xbe131005	-0.1436158
72	0xbe0e3d7d	-0.13890643
73	0xbe629c8d	-0.22130032
74	0x3ebab632	0.3646713
75	0x3e673ce0	0.22581816
76	0xbea7bd71	-0.3276172
77	0xbdb6bd4b	-0.089228235
78	0x3e9ba516	0.30399388
79	0xbc095cf0	-0.008383974
80	0x3ea72d4d	0.3265175
81	0x3ef5a326	0.47976035
82	0xbec1424f	-0.37745902
83	0x3eda6218	0.42652965
84	0x3eca34cc	0.39493406
85	0x3e8ac057	0.2709987
86	0xbe8dd858	-0.2770412
87	0x3e318aa1	0.17338039
88	0xbe819704	-0.25310528
89	0xbdd42d44	-0.10360196
90	0x3e8b97e6	0.27264327
91	0x3e7f0106	0.24902734
92	0xbc801968	-0.015637115
93	0x3ef228ba	0.47296697
94	0x3ed2032d	0.41018048
95	0xbc739feb	-0.01486967
96	0xbe33d79e	-0.1756272
97	0xbe8ef1cb	-0.27918848
98	0xbe80121f	-0.25013825
99	0x3e398363	0.18116526
100	0x3cec08a8	0.028812721
101	0x3e0fc191	0.14038683
102	0x3e8fd265	0.28090206
103	0x3e861f34	0.2619568
104	0x3dcb1628	0.09916335
105	0x3ecdd87d	0.4020423
106	0x3e86b8d2	0.26312882
107	0xbeb564ff	-0.35428616
108	0x3ea3b87d	0.3197669
109	0x3e978a09	0.295975
110	0xbe3bb500	-0.18330765
111	0x3ebe6400	0.3718567
112	0x3e962bcb	0.29330286
113	0xbe86686f	-0.26251552
114	0x3e9c07d1	0.30474713
115	0x3ef99d00	0.48752594
116	0xbe467568	-0.19380724
117	0x3e848964	0.2588607
118	0x38d92c41	0.00010355609
119	0x3e2271d8	0.1586374
120	0x3ec63fe4	0.3872062
121	0xbe7d6668	-0.24746096
122	0x3eb18561	0.34672073
123	0xbe68cac3	-0.22733597
124	0x3e161b0b	0.14658754
125	0x3e35f7b9	0.1777028
126	0x3eaf957d	0.34293738
127	0xbe2b507a	-0.16729918

weight f4 [64, 128]
0	0x3d9ce878	0.076615274
1	0x3c4721c2	0.012154045
2	0xbd4e1afe	-0.05031871
3	0x3d3ca47d	0.046055306
4	0xbd9e63c9	-0.07733876
5	0xbd0804f1	-0.033207837
6	0xbd6b88e2	-0.05750359
7	0xbd9dc1b2	-0.0770296
8	0xbc5daf8d	-0.013530624
9	0x3c5a4514	0.013322134
10	0xbba9f448	-0.0051865913
11	0x3d331996	0.043725573
12	0xbd681097	-0.056656446
13	0x3d1cea18	0.038309187
14	0x3ca1dbcb	0.019758126
15	0xbd24e821	-0.040260438
16	0xbd85156a	-0.06498225
17	0x3d630581	0.05542517
18	0xbc868ca1	-0.016424479
19	0x3d82ea5d	0.063923575
20	0x3ca0f0bf	0.019646047
21	0x3d75a5b3	0.059972476
22	0xbd657830	-0.056022823
23	0x3c9e7367	0.019342138
24	0xbdaeafc2	-0.08529617
25	0xbdb2e933	-0.087358855
26	0x3d9b8f20	0.07595658
27	0xbcafa809	-0.02144243
28	0xbd726fde	-0.059188716
29	0xbd2a65dc	-0.041601047
30	0x3cae46ec	0.021274053
31	0xbd0bc170	-0.034120023
32	0xbda3019d	-0.07959292
33	0xbc1dde77	-0.009635559
34	0x3d8e62a0	0.06952405
35	0x3d3770f0	0.04478544
36	0x3d234531	0.039860908
37	0x3d339ea2	0.043852456
38	0xbd8ca9ea	-0.06868346
39	0x3da96cd9	0.08272714
40	0x3c8717ff	0.016490934
41	0x3d832d86	0.06405167
42	0xbc8679d3	-0.016415512
43	0x3c01b561	0.007916779
44	0xbd6cc5b3	-0.05780573
45	0x3d09024c	0.033449456
46	0xbbf41ea0	-0.00744994
47	0x3d7d549e	0.061848275
48	0xbdaad0bf	-0.083405964
49	0x3c95da82	0.01829267
50	0x3d6488cf	0.055794533
51	0x3aa47dfa	0.0012549751
52	0xbd65bb3b	-0.05608676
53	0xbda170bd	-0.07882831
54	0xbd818618	-0.063244045
55	0xbd9554f7	-0.072915964
56	0x3d7a24a3	0.061070096
57	0x3d9ed12e	0.077547416
58	0xbd1cc427	-0.038273003
59	0x3cdc97ab	0.02692779
60	0x3d6dc1cc	0.058046147
61	0x3d880301	0.06641198
62	0x3cf7b3ca	0.030237097
63	0x3ca6afc0	0.020347476
64	0x3d91c399	0.071173854
65	0xbd8ddf8a	-0.06927402
66	0x3d6f61ed	0.058443
67	0xbda0cd42	-0.0785165
68	0x3d95589c	0.072922915
69	0x3ce26b39	0.027639018
70	0x3d296ee7	0.04136553
71	0x3daafd32	0.083490744
72	0xbc8c1184	-0.017098196
73	0xbbfa86d9	-0.0076454696
74	0xbd242698	-0.04007587
75	0x3bed482f	0.007241271
76	0xbd0a65f6	-0.033788644
77	0xbc8094a9	-0.015695887
78	0xbda3a16d	-0.07989774
79	0xbd95e1a4	-0.07318428
80	0x3d036c05	0.032085437
81	0xbdaaf378	-0.08347219
82	0x3be57389	0.0070022983
83	0x3c7940d4	0.01521321
84	0xbd1c8917	-0.038216677
85	0x3d313d5d	0.04327141
86	0xbd422bfe	-0.047405235
87	0xbd4e1ad4	-0.050318554
88	0x3dab9d14	0.0837957
89	0xbc07b1c5	-0.00828213
90	0x3da9f4c7	0.08298641
91	0x3da2fad4	0.07957998
92	0x3d621207	0.055192973
93	0xb8f5c388	-0.00011718931
94	0xbd2d94db	-0.042378288
95	0xbd5d755b	-0.054066997
96	0xbd9fd3ae	-0.078040466
97	0xbcfa8c32	-0.030584428
98	0xbd0732ef	-0.03300756
99	0x3cde203f	0.027114986
100	0xbd23a772	-0.03995461
101	0x3d10bf77	0.035338845
102	0xbcbb194b	-0.022839209
103	0xbd857a14	-0.06517425
104	0x3d9d5304	0.076818496
105	0xbd9038d1	-0.07042087
106	0xbdae96d1	-0.0852486
107	0x3d2d3c8b	0.042294066
108	0xbc0261ea	-0.007957915
109	0xbd7e4421	-0.06207669
110	0x3d41b4c7	0.047291543
111	0x3ce10c19	0.027471589
112	0x3ca22b3c	0.019796006
113	0xbacba1ae	-0.0015535855
114	0xbc890539	-0.016726123
115	0xbd85ba63	-0.06529691
116	0xbc6ba6dc	-0.014383044
117	0x3d68c59f	0.05682909
118	0xbc12043a	-0.0089121405
119	0xbafe045e	-0.0019379964
120	0x3d655d5f	0.05599725
121	0x3db040b3	0.086060904
122	0xbd1baa5c	-0.038004264
123	0xbdb16567	-0.08661919
124	0x3c8e6b88	0.01738526
125	0x3bdc6a0f	0.0067265104
126	0xbc38fef6	-0.011291256
127	0x3d02c4b0	0.031925857
128	0x3b9b8a1a	0.0047466876
129	0xbd445a6b	-0.04793779
130	0xbd59f72e	-0.053214245
131	0xbb3d619b	-0.0028897289
132	0xbda7efec	-0.08200058
133	0xbcf450b3	-0.029823637
134	0x3d5d0712	0.05396182
135	0xbd93ba6d	-0.07213292
136	0xbd83b4e7	-0.06430989
137	0xbcd25719	-0.025676297
138	0xbbc92b2b	-0.006139179
139	0xbd82d015	-0.06387345
140	0x3d93941d	0.07205985
141	0xbd13d272	-0.03608937
142	0x3cbc4e95	0.02298669
143	0xbca72b4f	-0.020406393
144	0xbbd210b5	-0.006410683
145	0xbd14b219	-0.03630266
146	0xbdbbf88e	-0.091782674
147	0xba1f0f73	-0.0006067671
148	0x3c8dc6e6	0.017306756
149	0x3c444e3d	0.011981544
150	0xbd882db1	-0.0664934
151	0xbbe5810f	-0.0070039104
152	0xbd9149ca	-0.07094152
153	0xbda6184d	-0.08110104
154	0xbb8f4611	-0.0043723662
155	0x3c7f5859	0.015585029
156	0x3d46dad4	0.048548535
157	0xbda2b189	-0.079440184
158	0xbd504f09	-0.050856624
159	0xbd8bf260	-0.06833339
160	0xbd4191b7	-0.047258105
161	0x3d56399f	0.052301046
162	0xbc5a51fc	-0.013325211
163	0xbd5d34b3	-0.054005336
164	0xbd9b6726	-0.075880334
165	0xbd567c36	-0.05236455
166	0xbcca3c66	-0.024687003
167	0x3d0c7c34	0.034298137
168	0xbd5c75f6	-0.053823434
169	0x3c90daa8	0.017682388
170	0x3d84eabb	0.06490084
171	0x3cc4cb86	0.024022829
172	0x3cc82d88	0.024435773
173	0xbda6326d	-0.08115087
174	0x3bd36353	0.0064510494
175	0x3d41f179	0.047349427
176	0x3d942ecc	0.07235488
177	0xbd8f26a1	-0.0698979
178	0x3da31790	0.079634786
179	0x3b86c297	0.0041125524
180	0x3d4baad1	0.04972345
181	0xbd45a796	-0.048255526
182	0x3d5f61a6	0.054536484
183	0x3d7ea91a	0.062172987
184	0xbcba0795	-0.022708694
185	0x3cb061be	0.021530982
186	0xbc0698b0	-0.0082151145
187	0xbda4aa30	-0.08040273
188	0x3c4dca78	0.012560479
189	0x3d6fbf32	0.058531947
190	0xbd972599	-0.07380218
191	0xbda1615e	-0.078798994
192	0x3da35200	0.07974625
193	0x3db24732	0.08704986
194	0x3c036534	0.008019734
195	0xbc8e9307	-0.017404092
196	0xbac1f9d4	-0.0014799186
197	0xbd9a0fde	-0.07522558
198	0xb7794151	-1.4856764e-05
199	0x3dac62ee	0.08417307
200	0x3d24008e	0.04003959
201	0x3bc93fb6	0.006141628
202	0x3d9ad7f1	0.07560719
203	0x3d81c611	0.06336606
204	0x3d77de3a	0.060514666
205	0x3d6f4f59	0.05842528
206	0x3d40485b	0.046944004
207	0x3be03dce	0.006843305
208	0xbd882703	-0.06648066
209	0xbd2cc304	-0.04217817
210	0x3c983699	0.018580722
211	0x3d7b6611	0.061376635
212	0x3bbc41ff	0.005745172
213	0xbd0a3857	-0.033745136
214	0x3d920967	0.071306996
215	0xbcfd38d3	-0.030910885
216	0xbd6c483d	-0.05768608
217	0x3b3dcd8c	0.0028961627
218	0x3d28a17b	0.041169625
219	0xbd54e78b	-0.05197863
220	0x3d17e2c7	0.037081506
221	0xbdc5d08b	-0.09658917
222	0x3d4c052b	0.049809616
223	0x3d9c7094	0.0763866
224	0x3d93e293	0.0722095
225	0xbd5f50f2	-0.054520555
226	0x3d71628f	0.058931883
227	0x3cfb8fbf	0.030708192
228	0xbda6787c	-0.08128449
229	0xbc09f078	-0.008419149
230	0x3d86b1d0	0.06576884
231	0xbd5ddc13	-0.054164957
232	0xbdbc9c49	-0.092094965
233	0xbcc3d98e	-0.02390745
234	0x3d918394	0.07105175
235	0x3cc9f7ea	0.024654347
236	0xbc575458	-0.013142668
237	0xbda79d75	-0.081843294
238	0x3d73985b	0.05947147
239	0xbd320420	-0.043460965
240	0x3d8e47b2	0.069472685
241	0xbba7653c	-0.0051085036
242	0x3c116a4d	0.008875442
243	0xbcd6e84f	-0.02623382
244	0xbba9ccdc	-0.005181892
245	0x3da7ef9e	0.082
246	0x3c241241	0.010014118
247	0x3d1342ad	0.03595226
248	0x3d918263	0.071049474
249	0x3d5eb48a	0.054371394
250	0x3d678cf8	0.056530923
251	0x3d1dac49	0.038494382
252	0x3d6dee87	0.058088806
253	0x3d446ac1	0.04795337
254	0xbdc9d732	-0.098554984
255	0xbc776c11	-0.015101449

bias f4 [64]
0	0x3b470dd3	0.003037323
1	0x3d9a5ec7	0.075376086
2	0xbb218554	-0.002464612
3	0x3ca6a621	0.020342888
4	0x3cbb1a69	0.022839742
5	0x3c6acb81	0.014330746
6	0x3d948ef9	0.07253832
7	0x3d044511	0.03229243
8	0x3ca6de3c	0.020369641
9	0x3cc20aa7	0.02368672
10	0x3d66c24e	0.056337647
11	0x3ccdb9b1	0.025112959
12	0x39af95f7	0.00033490334
13	0xbcf20b9e	-0.029546555
14	0xbc164f56	-0.009174189
15	0xbd9b1705	-0.0757275
16	0x3c937645	0.018000731
17	0x3e1b8adf	0.15189694
18	0xbc2e3387	-0.010632402
19	0x3db5b48b	0.088723265
20	0x3dc85530	0.09781873
21	0xbd9503c1	-0.072761066
22	0x3dbb3a05	0.09141926
23	0xbda19ad5	-0.0789086
24	0x3daa8779	0.083266206
25	0xbcd09695	-0.025462428
26	0x3db7f43f	0.08982133
27	0x3d8ff429	0.07028992
28	0x3d1dfab1	0.038569156
29	0x3d6661c7	0.05624559
30	0xbd5a63bb	-0.053317767
31	0x3d9366af	0.0719732
32	0x3d504325	0.050845284
33	0x3db89d8e	0.09014426
34	0x3def1ad3	0.11675038
35	0x3cea97ec	0.028636895
36	0xbd2a1844	-0.041527048
37	0x3d898d3c	0.067163914
38	0x3deb4976	0.11488621
39	0xbd7a7a7f	-0.061151978
40	0x3c10f1d4	0.008846719
41	0xbb9a1abd	-0.0047028945
42	0x3d838579	0.06421942
43	0x3d8b12ad	0.067906715
44	0x3c638d7b	0.013888712
45	0x3dcad56e	0.0990399
46	0xbcdefe19	-0.027220773
47	0x3cbd320d	0.023095155
48	0xbc94e9d2	-0.0181779
49	0x3d3603a3	0.044437062
50	0x3d2e1a1b	0.042505365
51	0x3d282032	0.04104633
52	0x3d93e305	0.07221035
53	0x3e10e20d	0.14148732
54	0xbce5e718	-0.028064296
55	0x3dee4d2a	0.116358116
56	0x3ddafebd	0.10693119
57	0xbd5100fe	-0.051026337
58	0xbce180fb	-0.027527323
59	0xbdaa0916	-0.08302514
60	0x3dab460d	0.083629705
61	0x3d6662b7	0.056246486
62	0xbd117ed4	-0.035521343
63	0x3e1bb3da	0.15205327
