2023/baseline0806/model/WLTP_trained_0822/PPO_actorcritic_65episode.pt (torch, 101527 bytes, 17 tensors)

weight f4 [128, 7]
000000 d2 c1 74 be 36 76 ab be 12 20 85 3e c0 5b d4 be
       -0.23902062 -0.33488625 0.2600103 -0.4147625
000010 bc 09 63 be b5 d2 c8 3e 7f eb b9 3e 1e ce 25 bd
       -0.22171682 0.39223257 0.36312482 -0.04047977
000020 ac b0 39 be 07 fb ad 3d 21 fc 8e be 93 1b 0c be
       -0.18133801 0.08495145 -0.27926734 -0.13682394
000030 ee 79 b9 be b6 61 9a be fe 61 d2 3d ad 4f 15 be
       -0.36225837 -0.30152673 0.10272597 -0.14581175
000040 08 10 2f be 02 98 50 3d 7b 3a a8 3e 40 87 c7 3e
       -0.17095959 0.050926216 0.32857117 0.38970375
000050 b3 c0 9a 3d ab ba 99 be ca d4 75 be 7f e2 70 be
       0.07556286 -0.3002523 -0.24006954 -0.23523901
000060 17 63 af bd ef 07 2f be f3 ca 8d 3e 53 a8 d0 3e
       -0.08563822 -0.1709287 0.276939 0.4075342
000070 5f e0 d2 3d 74 e7 3b be be 6a c5 be 1b 0b ab 3d
       0.10296702 -0.18350011 -0.38558 0.083517276
000080 f6 42 93 3d 22 84 40 3e 12 ae 34 bc 7c 07 0d bd
       0.07190506 0.18800405 -0.01102783 -0.034430966
000090 9b b6 cd bd 79 87 74 be f2 c7 96 bd 6a e6 73 3e
       -0.10044595 -0.23879804 -0.07362355 0.23818365
0000a0 e2 2f 1a 3e 17 a6 ab 3e 94 a8 ad be 0c e3 81 be
       0.15057328 0.33525154 -0.33917677 -0.25368536
0000b0 9a 09 ad be f4 85 42 3c 75 50 8d be c1 60 15 be
       -0.33796388 0.011872757 -0.27600446 -0.1458769
0000c0 7b c1 9a bb 9c f9 b4 3d b5 a0 ae be f3 5d b6 3e
       -0.0047227717 0.08836672 -0.34106985 0.35618553
0000d0 e5 e0 9c 3e c1 35 8b 3e 93 2e be be 02 19 a1 bc
       0.3064033 0.27189448 -0.37144908 -0.019665245
0000e0 83 0f dc 3e 34 39 2e bd 1d 3b 8d be f5 6b 39 bc
       0.42980585 -0.042535022 -0.27584162 -0.011317243
0000f0 72 bc 04 3f 60 5b 81 be d5 9a c5 3c b4 20 ab 3e
       0.51850045 -0.25265026 0.024121681 0.33423388
000100 34 cc 68 be 82 a3 b6 be 59 25 c8 be b3 7d 1a be
       -0.22734147 -0.35671622 -0.39090994 -0.15087013
000110 d7 4f b9 3e 58 14 a2 3e f2 c3 99 3e 59 48 85 3e
       0.36193725 0.31656146 0.30032307 0.2603176
000120 72 6a 98 3d 97 49 24 3e 2e d1 a4 be a1 72 09 3d
       0.07442178 0.16043697 -0.3219084 0.033556584
000130 86 29 70 3d f6 78 d3 bb 1c d9 da 3e 6a 04 49 3e
       0.05863335 -0.0064536287 0.42743766 0.1963059
000140 49 08 c4 bd c3 ca 53 3e 0c b6 43 bd 5d d1 b2 bd
       -0.09571893 0.20682816 -0.047781035 -0.08731339
000150 f9 dd 81 be 00 0f 9f be cf d0 87 3e ca c3 ba be
       -0.25364664 -0.31066132 0.26526496 -0.364775
000160 ce 89 80 3e 53 de 11 be 73 b8 5f 3e da 6a 7a 3e
       0.25105137 -0.14244966 0.21847706 0.24454823
000170 f2 a9 3b 3e 0f 1a 9f 3e 7a 1d 1a 3d d5 a0 16 be
       0.18326548 0.3107457 0.037625767 -0.1470979
000180 29 81 0f be cc 95 8e be 65 73 19 bc 7b f2 b2 3c
       -0.14014114 -0.2784866 -0.009365891 0.02184414
000190 36 ba e7 3d d1 4b 4d 3c 24 06 72 bd cd ec 3a 3e
       0.11314814 0.012530283 -0.059087887 0.18254395
0001a0 34 5c 60 be 62 a5 4f 3e a2 90 84 be 47 f6 0b bc
       -0.21910173 0.20277932 -0.25891596 -0.008542604
0001b0 14 ed 34 3e 73 c8 27 bd a4 a9 98 3e a9 17 7d be
       0.17668563 -0.040962648 0.29816926 -0.24716057
0001c0 62 63 49 be 19 7e b3 be f5 cd 64 be a1 96 8d 3e
       -0.19666818 -0.35057142 -0.22344191 0.27653983
0001d0 0d b6 cd 3d 09 5d 01 be 60 a1 17 3d f5 53 15 be
       0.10044489 -0.12633146 0.037019134 -0.14582808
0001e0 d5 fd 03 3f cd ed 9e bd 9b 9f ef 3e 56 1f 96 be
       0.5155919 -0.07760201 0.46801457 -0.29320782
0001f0 83 9a 01 be bb fd 42 be 04 ea ba 3e 47 48 24 be
       -0.12656598 -0.19042103 0.36506665 -0.16043197
000200 03 fc 6c 3d da 2e c7 be 58 dd 94 be cc 30 81 be
       0.057857525 -0.38902932 -0.29075122 -0.25232542
000210 f8 e7 7a be 76 19 1e be a4 49 94 be 3f a4 ad bc
       -0.24502552 -0.154394 -0.28962433 -0.021196483
000220 e0 c4 86 be 44 d7 b2 3d 5a bc 9a bd fd 22 7f bd
       -0.2632208 0.08732465 -0.075554565 -0.062289227
000230 6e a9 ae 3e 50 f6 34 be fe e5 ea 3d ca 80 a8 3c
       0.3411364 -0.17672086 0.11469649 0.020569224
000240 3f 45 e9 3c 86 28 b3 3e 87 3e aa 3e 09 f1 bd bd
       0.028475402 0.34991854 0.3325083 -0.092744894
000250 f9 bf 52 3c 9d ef a1 bd 73 1a f3 bd cc de 45 3c
       0.012863153 -0.07907031 -0.11870279 0.012077045
000260 bf c8 53 be f2 f8 91 3d 6f 6a b3 be 85 32 08 3d
       -0.20682047 0.07127561 -0.3504214 0.033251304
000270 50 0d 76 3e ce 1d ed bd 32 12 dd 3b 8f 59 1a be
       0.24028516 -0.115779504 0.006746554 -0.15073226
000280 ea 3e 87 3e f3 2a 93 3e 3c c2 03 be 75 98 4e 3e
       0.26415187 0.28743705 -0.12867063 0.20175345
000290 06 95 74 3e 29 d7 5b 3d 18 b7 b1 3e 4e 63 d1 3e
       0.23884973 0.05367199 0.34710002 0.40896076
0002a0 19 37 c2 3e 77 de 9d be 51 99 5f 3d a9 26 ba be
       0.3793266 -0.3083379 0.054589573 -0.3635762
0002b0 89 f1 aa 3e cf db c5 bd 7e 4d 98 3e c5 d3 64 3d
       0.33387402 -0.09661066 0.29746622 0.05586602
0002c0 0d 46 33 3d 20 20 b3 be c9 5e d8 bd 90 23 21 bd
       0.043767978 -0.34985447 -0.10564954 -0.039340556
0002d0 5d 38 22 3e fa 3b 3f be 1a e9 71 3e 2d 91 d3 be
       0.15841813 -0.18675223 0.23624077 -0.41321698
0002e0 53 7b 88 3e 64 da 90 be a5 ce 1e be 7f ec 80 3e
       0.2665659 -0.2829162 -0.15508516 0.25180432
0002f0 6c f5 2d 3e 8d 89 a4 3e 30 08 33 3d c6 3b 1c 3e
       0.16988152 0.32136193 0.04370898 0.15257177
000300 c6 41 4d 3e 0c f5 8e 3e 8c bb 10 be be 78 91 3e
       0.20044622 0.2792133 -0.14134043 0.2841243
000310 24 81 74 3c e8 f5 bf 3e 73 40 29 bd f4 c4 9b 3e
       0.014923368 0.374923 -0.04132123 0.304237
000320 0e ba 75 be 77 e7 a5 bd cf 5d 57 3e e3 8a 94 3e
       -0.23996755 -0.08100789 0.21031879 0.29012212
000330 26 33 a7 bc 74 9a 13 3e 91 b8 81 be 1f 29 12 3e
       -0.020410132 0.14414388 -0.25336125 0.14273499
000340 94 2e bf 3e 6e 16 35 3e bf 90 da bd a4 e7 87 be
       0.37340224 0.17684337 -0.106721394 -0.26543915
000350 93 02 b4 bd 1b ec 96 3d 43 69 7e be 4a a5 72 3e
       -0.087895535 0.07369252 -0.24844842 0.23695865
000360 cc 8d 97 3e 0d c6 34 3e d9 61 5e be 31 1c fc 3d
       0.2960037 0.17653675 -0.21717013 0.123100646
000370 d6 5c 13 be 60 61 84 3e 7d 41 b9 3e 33 3c 7f 3e
       -0.14390883 0.2585554 0.36182776 0.24925308
000380 d3 d3 af 3d db e4 8f be 65 03 e8 bd 3c e0 99 3e
       0.08585324 -0.2810429 -0.113287725 0.3005389
000390 15 be a0 3e 65 98 30 be 4e 92 8b bc 7a 8f 60 3e
       0.3139502 -0.17245634 -0.017037537 0.21929732
0003a0 09 e5 81 3d 5e a8 99 3d cf 55 af 3e 24 3f 42 3e
       0.06342513 0.075028166 0.34245154 0.18969399
0003b0 a5 9f 76 be e7 4e a7 3e cc a5 10 3e da 90 98 be
       -0.24084337 0.32677385 0.14125746 -0.29798013
0003c0 c8 8c 26 be 81 6a 36 be 47 b1 a8 3e 7c f1 41 be
       -0.16264641 -0.17814066 0.32947752 -0.18939775
0003d0 62 62 62 3d cd fa f6 3d 72 1e b6 3d ef 9a 7a 3e
       0.055269606 0.12059555 0.08892526 0.24473165
0003e0 90 4f cb bd 87 9c bf 3d a7 8a 66 be 16 0e 9c 3e
       -0.09927285 0.09356027 -0.22513829 0.30479497
0003f0 cb 9e 57 be 5d 28 90 3e ae 87 53 3d 38 d0 90 3e
       -0.21056668 0.28155795 0.051643066 0.28283858

bias f4 [128]
000000 fe 1b 39 be f0 48 74 be 03 cd 41 3e 4c 06 d0 3e
       -0.18077084 -0.23855948 0.18925862 0.40629804
000010 27 c4 62 3d 27 33 0e be 23 db d1 bd 2d f3 b6 3d
       0.055362847 -0.138867 -0.10246875 0.08933101
000020 68 ee 2a bb e7 05 c5 3e c0 60 94 3e 7b 70 7a 3d
       -0.0026082043 0.38481066 0.28980064 0.061142426
000030 16 41 b7 3d 74 2b 56 3e bb 40 ab 3d 80 25 17 be
       0.08947961 0.20915014 0.08361956 -0.14760399
000040 5c 69 4c be ec f6 46 3e 60 20 b4 3e 5a 25 4b 3e
       -0.19962066 0.1943013 0.3518095 0.19838467
000050 8b 64 96 bd 7e f2 9a be 38 26 52 3e 34 32 4a be
       -0.07343396 -0.30263132 0.20522392 -0.19745713
000060 ed c2 98 bd 02 0c 91 be 7c 57 c3 bd 24 70 7f 3d
       -0.07459054 -0.28329474 -0.09538171 0.062362805
000070 54 cd 97 be 97 ef b2 be 34 c3 8e 3e 3b 60 a2 bb
       -0.2964884 -0.34948418 0.27883303 -0.004955319
000080 96 8f 97 3e 72 a6 65 3d 7d 93 95 3e 37 f2 78 be
       0.29601735 0.056066938 0.29214087 -0.24311148
000090 30 3c 94 be 5e f7 cf bd 35 81 52 be c6 dd 11 bd
       -0.2895217 -0.101546034 -0.20557101 -0.03561189
0000a0 3f 41 37 be db 19 cd be 29 3c ea bb a1 6c 8d bd
       -0.17895983 -0.4005879 -0.007148285 -0.06905485
0000b0 a2 46 92 be 79 af 0a bd d6 8f 93 be 17 35 62 3e
       -0.28569514 -0.03385875 -0.28820676 0.22090565
0000c0 38 0c 82 be 04 d5 cc bd b4 9c 5a 3e b4 0c bf 3e
       -0.25399947 -0.10001567 0.2134884 0.3731438
0000d0 34 62 81 3c 90 e5 a3 be 7b 70 14 be 28 d0 51 3e
       0.015793897 -0.3201108 -0.14496033 0.20489562
0000e0 89 be 93 3e 2b ba 72 3e 8b ce 8c bd 4c 82 b3 be
       0.28856304 0.2370383 -0.068753324 -0.35060346
0000f0 f2 42 aa be 5b 50 0a 3e fb 09 28 ba d8 e8 8c 3e
       -0.332542 0.13507216 -0.00064101786 0.27521396
000100 40 58 93 3e 6c d3 46 be 4f f3 b5 be 18 b2 5b be
       0.28778267 -0.19416589 -0.35537192 -0.21454656
000110 fa 0d be 3e ba b8 b1 3d 1f a5 e4 3d ff b7 ff bc
       0.37120038 0.08677812 0.11164307 -0.031215666
000120 1e 09 75 be 1b 2b 9f 3e f3 c6 95 3d 22 a6 80 bd
       -0.23929259 0.31087574 0.07313337 -0.06281687
000130 1a c8 11 3e 3f ba 91 3e 80 46 c9 bd a3 9a 93 3e
       0.14236489 0.28462407 -0.098279 0.28828916
000140 cf 59 94 3e aa 07 91 3e a8 d9 28 3e 6b 32 84 be
       0.2897477 0.2832616 0.1648928 -0.25819716
000150 83 97 0b be 10 67 f7 bd 3c c4 9b be 71 01 59 be
       -0.13632016 -0.120802045 -0.30423152 -0.21191956
000160 5f a5 ac be bb ee 19 be 72 4f bb 3e 03 51 88 3e
       -0.33719918 -0.15032475 0.3658405 0.26624307
000170 50 3a b0 3e eb 6b ce 3e d8 0f b5 3d be 00 99 be
       0.3441949 0.4031671 0.088409126 -0.2988338
000180 68 9b 05 3e 22 2a 85 3e b8 e7 07 3e 87 6f a7 be
       0.13047564 0.26008707 0.13271987 -0.32702276
000190 dc d2 c6 3e ec 39 8a 3e df d3 3b 3e 3d e4 b2 3e
       0.38832748 0.26997316 0.18342541 0.34939757
0001a0 68 9f 55 be 5e 4c 9b 3c c0 65 a0 3d fe 49 1c be
       -0.2086159 0.018957313 0.07831907 -0.15262601
0001b0 b5 78 23 be 34 96 d4 3d 93 b5 52 3d bd 75 80 be
       -0.15964015 0.103802115 0.051442694 -0.25089827
0001c0 64 eb ac be d4 81 4f 3d 1d 81 9a 3e 95 d5 a6 3c
       -0.3377334 0.050660923 0.3017663 0.020365516
0001d0 34 7a 17 be 1d 12 57 3e 35 63 82 3e 42 8e 1b be
       -0.1479271 0.21003003 0.25466314 -0.15190986
0001e0 62 11 80 3e 99 8f d3 bb 17 77 1b be c7 3e 7b 3e
       0.25013262 -0.006456327 -0.15182148 0.24535666
0001f0 5d d6 3a 3e 15 d5 6d be 44 66 9e 3e 2a 18 8b be
       0.18245836 -0.23225816 0.30937397 -0.27166873

weight f4 [64, 128]
000000 fe f1 e2 bc fd f6 ac 3d 9a e1 0d 3b 69 62 3f 3d
       -0.027703281 0.08445547 0.0021649362 0.04672471
000010 e7 fe 78 3d 7f 63 73 bd 81 3d ae 3d be 79 c4 bc
       0.06078997 -0.05942106 0.08507825 -0.023983832
000020 d5 e8 a2 bd 3d 83 6d bd 1b 1c 4a 3c 66 64 b4 3d
       -0.079545654 -0.057986487 0.012335802 0.08808212
000030 54 74 b3 bc 9e 49 b3 3c 74 2a a5 bd 09 d1 87 3c
       -0.021906056 0.02188569 -0.08064738 0.016579168
000040 70 87 5e 3c 9d 18 93 bd bb a4 e8 bc 8a 06 0b bd
       0.0135820955 -0.07182429 -0.028398862 -0.033941783
000050 44 79 16 bd 35 71 89 3d 24 74 03 bc 58 96 60 bd
       -0.03673674 0.06711046 -0.008023296 -0.05483088
000060 88 38 bc 3c f2 71 28 3d bb e9 09 3d 90 ad fa 3b
       0.022976175 0.04112429 0.03367017 0.007650085
000070 88 cb 29 bc d8 c4 88 bd 9d 64 6d bd 8c c4 6d 3d
       -0.010363467 -0.0667817 -0.05795728 0.05804877
000080 ed 73 9e 3d 42 42 ee bc a7 0b 2f bb 69 c5 82 bd
       0.07736955 -0.029084329 -0.0026709826 -0.06385309
000090 40 cb 3d bb a0 50 a0 bd 10 16 b1 3d d5 3e c8 3c
       -0.0028960258 -0.07827878 0.08646786 0.024444023
0000a0 24 22 ca bc 15 3b 9d 3c aa 78 78 3d cb 75 ae 3c
       -0.024674483 0.019193212 0.06066195 0.021296402
0000b0 76 c3 a9 3d 98 4f 13 bd b6 c9 55 bc 84 db 9b bd
       0.08289234 -0.03596458 -0.01304858 -0.07610229
0000c0 7b b4 9a 3d a6 d4 9e bd bb b6 44 ba 97 b9 6c bd
       0.07553955 -0.07755403 -0.00075040356 -0.05779418
0000d0 5a fd 1a bd 59 d6 71 3d 3c e3 d9 bc 63 52 9f 3d
       -0.03783927 0.05904231 -0.026597612 0.07779386
0000e0 3c 65 1a 3d 4c c6 7b bd 63 53 ed bc 3b 73 6d bd
       0.0376942 -0.061468408 -0.028970426 -0.05797122
0000f0 d8 49 90 bd 84 5c a9 bb 97 a9 6f bd 07 4e 86 bd
       -0.070453346 -0.0051684994 -0.058511343 -0.06557851
000100 d2 df 37 bd 1f e0 aa 3d 65 a6 99 3d b7 38 58 3d
       -0.044891186 0.08343529 0.0750244 0.052788462
000110 72 c8 2a 3d 33 ca 20 3d 12 50 15 bb 4a c0 8c 3d
       0.041695066 0.039255332 -0.0022783321 0.06872614
000120 cb f5 64 3d 52 86 54 3d 49 38 73 3c 03 db ad bd
       0.05589847 0.05188591 0.014844962 -0.08489039
000130 9b a2 82 bd 3f 73 9a 3c 7f 84 92 bd f0 89 86 bd
       -0.06378671 0.018853782 -0.07154178 -0.06569278
000140 52 fc 10 3d dc d1 30 bd 65 3d 89 bd 8c 7f eb bc
       0.03539688 -0.043168887 -0.06701163 -0.028747343
000150 56 e8 96 bb 14 26 cd bc eb 99 22 bd 8d 1a 7a 3d
       -0.0046053333 -0.025042571 -0.03969757 0.061060477
000160 01 83 f2 3c 76 74 aa 3d c0 bb 0f bd 0c a5 ac 3c
       0.029603483 0.083229944 -0.03509116 0.021074794
000170 a0 d4 0e bd cf 11 9f 3d da 02 35 3d 32 03 aa bc
       -0.034870744 0.077670686 0.044192173 -0.020753477
000180 d3 b4 ef 3c 3a d5 b3 3c 5d 5e 16 bb c4 8f 52 bd
       0.029261028 0.02195226 -0.0022944428 -0.051406637
000190 e0 93 b5 3b 8d 6f de 3c 21 a7 bc bb d0 e7 00 3d
       0.0055413097 0.027152801 -0.005757228 0.031471074
0001a0 96 88 41 3d e7 0c 6e 3d fa 9c 8f bc 5f 4f 8b bc
       0.0472494 0.058117773 -0.017530907 -0.01700562
0001b0 04 4b 4f 3d f2 ca 90 bd c3 bd a7 3d f7 f9 c5 3c
       0.05060865 -0.07069959 0.08190491 0.024167044
0001c0 a4 4f c5 3c 0d 7e 03 3d aa c2 61 bd 5a 30 96 bd
       0.024085827 0.032102633 -0.055117287 -0.07333441
0001d0 52 ce 37 bd e8 cb 9d 3c fd 42 95 3a 49 20 52 bd
       -0.044874497 0.01926227 0.0011387762 -0.05130032
0001e0 a9 2d 03 bd 4d e0 8e 3d 5e 71 33 3c 69 50 70 bc
       -0.032025967 0.06976376 0.010952322 -0.014667609
0001f0 e0 4e 13 bd 16 77 5e bd 98 b5 93 bd db f3 6b 3d
       -0.035963893 -0.054312788 -0.07212371 0.057605606
000200 61 cc 58 3d 19 4e ab 3d a5 a6 78 bd 44 46 b5 bc
       0.052929286 0.08364505 -0.0607058 -0.022128232
000210 f8 26 14 bd 61 51 09 3b 1c d9 47 bd 6e da b5 3c
       -0.036169976 0.0020953047 -0.048791036 0.022198882
000220 78 97 36 3b 7e b0 24 3d bd b8 94 bc 8d 1f 27 bd
       0.0027861279 0.04020738 -0.018154496 -0.040801574
000230 54 e1 3c bc 93 21 1e bd ad 60 d6 bb f9 2e 8c bc
       -0.011528332 -0.038606238 -0.0065422864 -0.017112242
000240 a1 b7 2a 3d dc c1 19 3d 08 72 82 bd b6 37 de 3c
       0.04167903 0.037538394 -0.06369406 0.027126174
000250 65 10 97 3d 77 b9 b1 3d e3 da 99 bc a8 34 fb 3c
       0.07376174 0.08677953 -0.018781131 0.030664757
000260 75 d5 61 bd 9a 33 77 3d 9e 3a a9 3b 00 4c 49 3d
       -0.05513521 0.060351945 0.0051644584 0.049144745
000270 e4 30 7e 3d d1 7b 3b bd 69 f6 84 3d 93 13 00 3d
       0.062058344 -0.045772377 0.064923115 0.031268667
000280 15 12 2a bd 7e a3 93 bd 72 07 05 3d b3 b1 5c 3d
       -0.04152115 -0.07208918 0.032477804 0.053880405
000290 57 04 9f 3d 9c 3d a6 3d ad b2 74 3d 98 ac dc bc
       0.077645 0.0811722 0.05974071 -0.026937768
0002a0 29 df ec bc 3c d3 31 bd da 0d b3 bc da 89 7d 3d
       -0.028915005 -0.04341434 -0.02185719 0.061899044
0002b0 f0 be ab 3d 8d 5b 6b bc f7 7e cc ba 1e 94 bd bc
       0.08386028 -0.014365089 -0.0015601803 -0.023141917
0002c0 6d b7 95 bd c5 f3 5a bd fc 09 9c 3d b2 eb 1f bd
       -0.07310376 -0.053455133 0.07619092 -0.039043136
0002d0 27 96 e1 3c ff 7d d7 3c 14 75 90 bd 89 23 23 bd
       0.027537419 0.026305197 -0.07053581 -0.03982881
0002e0 fd e5 74 bd 1f 85 dd ba 82 c0 ec 3c a8 b2 6b 3d
       -0.059789646 -0.0016900635 0.028900389 0.057543427
0002f0 0c 38 5b 3d 8a fb 87 bd 7b 8d 00 3d c9 2e 5e 3d
       0.053520247 -0.06639774 0.031384926 0.054243837
000300 d7 47 ff 3c 1c 03 a3 3d 5e 80 34 bd 38 9f ad bd
       0.031162186 0.079595774 -0.044067733 -0.08477634
000310 e1 b8 88 bd 23 32 8b 3c ad 5b a4 3d 95 3c 2e 3d
       -0.06675888 0.01699168 0.08025298 0.042538244
000320 3c a7 97 bc ae 71 39 bd 52 77 3e 3d 4f 72 26 3d
       -0.01851236 -0.04527443 0.04650051 0.040636357
000330 00 3a 85 3d b0 aa 9e bd 6f 0d 3d bd 27 d9 d6 3c
       0.06505203 -0.077474 -0.04615539 0.026226593
000340 bc ec f4 bb 60 45 26 3d ea 16 e7 bc 4a 3f 94 bd
       -0.00747451 0.040593505 -0.028209168 -0.07238634
000350 a8 3a 9f 3d 64 d2 88 3b 8f 7c c2 bc 7a d9 b0 bd
       0.0777486 0.004175471 -0.023741035 -0.0863523
000360 d0 75 88 3d c4 9c 09 3a 15 14 ba bb 84 30 97 bd
       0.06663096 0.0005249495 -0.0056786635 -0.073823005
000370 64 39 1a bd 42 2b 9c bd 22 b5 2f bc c1 8a 49 3b
       -0.03765239 -0.07625438 -0.010724338 0.003075287
000380 0e 91 af 3c 61 39 69 3d 08 ad 5d 3c 40 28 a7 bd
       0.021431472 0.056939486 0.013530023 -0.08161974
000390 4f 9c 25 bd 7c 12 6b bc 41 4b 99 bd 04 9e a0 3d
       -0.04043227 -0.014347669 -0.07485057 0.07842639
0003a0 4c 9c d6 bc 6a 16 43 bd 20 26 12 bc 63 13 44 bd
       -0.026197575 -0.047628798 -0.0089202225 -0.04787005
0003b0 71 a1 4c 3c 4b 33 59 3d ef 89 9e bd 2e 25 7a 3d
       0.0124896625 0.053027432 -0.077411525 0.061070614
0003c0 3a 8f b1 3d c8 8a 48 3c df e5 16 3d da 68 96 bd
       0.086698964 0.012240119 0.036840316 -0.073442176
0003d0 fa b9 00 bd b9 d2 b2 3d fb 9a 14 3b 5e 04 34 3d
       -0.03142736 0.087315984 0.0022675383 0.043949477
0003e0 b7 d4 7c bd 83 ee 62 bd a4 a0 27 3d f0 bf b0 bb
       -0.0617263 -0.055403244 0.040924683 -0.0053939745
0003f0 e7 a0 1a 3d ec 74 ac 3d ab 1a 7b 3d 20 07 2b 3d
       0.037751105 0.084207386 0.06130473 0.04175484

bias f4 [64]
000000 c6 4f 94 bd 3b 52 ce bc 51 1a 9b 3d 4b 1a 9a 3d
       -0.07241778 -0.025185695 0.07573379 0.07524546
000010 15 bf fe 3c 46 7f 6e 3d ae d9 2c 3d 02 00 d5 3d
       0.031096974 0.058226846 0.042199783 0.10400392
000020 0e 78 af ba 08 9f fc bc a2 82 f7 3c 94 6e bb bb
       -0.001338722 -0.03083755 0.030213658 -0.005719969
000030 ad ec 8d 3d 72 82 30 3d ec 67 4a 3c 72 02 97 3b
       0.06929908 0.043093152 0.0123538785 0.004608446
000040 6e 8e b1 3c d7 b0 a1 3c 04 95 2d 3d af f1 ad 3b
       0.021674361 0.019737644 0.04237844 0.005308352
000050 1b d7 c8 3d 62 ec 52 3b f1 74 8c bb af f5 63 bb
       0.09806653 0.0032184352 -0.0042864014 -0.003478389
000060 59 5f 23 bc ae 07 e2 bc 5e d6 1d bd 50 c7 07 bd
       -0.009971463 -0.027591553 -0.038534515 -0.033149064
000070 92 b0 32 3d 7b 97 28 bd 95 fe 34 3c 55 1f c1 bc
       0.04362542 -0.041160088 0.011047025 -0.02357451
000080 03 7d 5f 3d 9a 4b 73 3d 34 0d 08 3d 34 16 72 bc
       0.05456258 0.05939827 0.033215716 -0.014775801
000090 b7 a5 7b 3d b8 b8 b0 bd 8f 56 69 3d 09 ac b3 bd
       0.061437335 -0.08628982 0.056967314 -0.087730475
0000a0 a4 c5 5d bc 9a 9a 56 3d 27 d1 65 3d dd 31 ae bd
       -0.013535891 0.052393533 0.056107666 -0.085056044
0000b0 ca ca 5c 3d bb 8e 00 3d f9 05 09 3d 57 95 c3 3d
       0.053904332 0.03138612 0.03345296 0.09549969
0000c0 ac cb ed bc 01 b5 7c 3d e2 24 fb bc 23 e8 94 3d
       -0.029027782 0.061696056 -0.030657236 0.07270839
0000d0 7c b9 b3 3c 66 7c 8e bd 37 2d 4e bc 67 b3 ea 3d
       0.021939032 -0.06957321 -0.012584022 0.114599995
0000e0 f7 25 81 3d f7 b0 0a 3e d1 a7 39 3d 81 de 84 bd
       0.06306069 0.13544069 0.045326058 -0.06487752
0000f0 a2 a0 98 3c 82 43 2c bd 84 b3 d5 3c 41 da 03 3e
       0.018631283 -0.042056568 0.026086576 0.12876226

weight f4 [32, 64]
000000 90 39 3f 3d 9c 4a b7 bd a9 88 0f 3e 24 a8 fd bb
       0.046685755 -0.089497775 0.14016975 -0.007740991
000010 b8 c2 47 bd e1 08 ba 3d 85 15 f8 3d a7 00 ff bc
       -0.048769683 0.09083725 0.121134795 -0.03112824
000020 43 13 ec 3d bf 92 f5 3c df 86 00 3e 41 a6 f3 3d
       0.115271114 0.0299772 0.12551449 0.11896945
000030 a0 67 b6 3d 6f 06 06 3e 3f 01 83 bd 64 f9 bb 3d
       0.08906484 0.13088392 -0.06396722 0.09178427
000040 fe dd 80 bd a9 dd 8d bd 78 5c 6f 3d da 69 fd bd
       -0.06292342 -0.06927044 0.058437794 -0.12373705
000050 4d 4c c6 bd 65 eb ee bd d9 71 c2 bd 4f 8e 8b 3d
       -0.09682522 -0.11665992 -0.09494371 0.068142526
000060 1c ac 03 be 32 1e 16 3d 97 50 c9 3d 7f ff 00 3e
       -0.12858623 0.03664989 0.098298244 0.12597464
000070 9d 80 5d be af 99 d9 3d 6c 61 9c 3d d3 bc 9a 3d
       -0.21631093 0.10625016 0.07635769 0.075555466
000080 29 0b 0b 3c 60 66 08 3e 6a 99 cb bd 1b f4 4c bd
       0.0084865475 0.13320303 -0.09941371 -0.050037485
000090 46 5b aa bd c0 3c 24 bb fb 5f 00 3d 34 ae 31 bd
       -0.0831819 -0.0025060624 0.031341534 -0.043379024
0000a0 15 3e 05 bc 7e 06 89 3d 09 2e 0e bd 4c 40 7f bd
       -0.008132477 0.066906914 -0.03471187 -0.062317178
0000b0 87 50 89 bd be 06 b3 bc c1 a6 89 3d b9 55 bc 3d
       -0.067048125 -0.0218538 0.06721259 0.09196038
0000c0 b0 f9 fd 3a 24 de 24 bd f1 4b c1 bd 67 42 c1 bd
       0.0019376781 -0.040250912 -0.09438313 -0.09436493
0000d0 9e e4 c4 bd d0 59 11 bc 71 42 59 3d b7 f9 b4 3c
       -0.09613918 -0.008871511 0.05304188 0.02209173
0000e0 75 92 9d 3d a0 cb 3e bd 2a f2 a5 bd 67 4f 2d bc
       0.0769395 -0.04658091 -0.0810283 -0.010578013
0000f0 7e 9d 8a bd 20 b4 ab 3d 5f dd fc 3d 8e 9f 9d 3d
       -0.067683205 0.083839655 0.12346911 0.07696448
000100 c0 47 6c bc d9 cb 95 bc a2 40 c4 3d 2d 03 1e 3e
       -0.014421403 -0.018285679 0.0958264 0.15430899
000110 7e e8 7a 39 e7 b4 ac bd 57 d3 2e 3d 43 e3 36 be
       0.00023928468 -0.08432942 0.042682018 -0.17860131
000120 dd e6 02 3d 59 0b ae 3d 81 f0 47 bd 23 ea e1 bc
       0.03195845 0.08498258 -0.048813347 -0.027577465
000130 b6 95 8c 3d c6 83 62 3d f1 72 db bd 23 2f 05 3d
       0.068644926 0.05530145 -0.10715283 0.032515656
000140 6d 8c 31 be 0d 2a d4 bd f0 10 e2 bc b0 13 f9 3d
       -0.17338724 -0.10359583 -0.027595967 0.12161958
000150 5f 24 24 3e 75 ad 37 bd cf 01 8b 3d f0 81 c8 3c
       0.160295 -0.044843156 0.06787454 0.024476022
000160 dd a0 05 be b0 b5 3b bd 4b 2c ad bc 2e 6c 24 3d
       -0.13049646 -0.045827568 -0.021139285 0.04014223
000170 e2 bb 10 3e 55 42 88 3d 37 1a 4c bb ba 17 dc 3d
       0.14134172 0.06653277 -0.0031143555 0.10746713
000180 44 3e bb 3d 37 b8 74 3d c5 97 b3 bd 67 9b 56 3d
       0.091427356 0.059745993 -0.08769182 0.052394297
000190 f1 da c1 3d f4 33 23 bd d5 66 ad 3d 82 dc 6f bd
       0.09465588 -0.03984447 0.08466879 -0.058559902
0001a0 2f 88 d7 3c 6d d7 bd 3d d1 29 96 bd 98 11 a6 3c
       0.026310055 0.09269605 -0.073321946 0.020272061
0001b0 8c 5d cf bd cd 55 e6 3d e1 57 85 bc c2 f8 2b 3d
       -0.101252645 0.11246834 -0.016277255 0.04198528
0001c0 91 d5 12 3e 8f 7f 29 3c 8b b5 6a bd cb f2 67 3d
       0.14339282 0.010345354 -0.05730204 0.05662803
0001d0 fd bf ac bd f2 74 4e 3d 29 40 80 bb 3e 2c 06 bc
       -0.08435056 0.050404496 -0.0039138985 -0.008189259
0001e0 b0 59 94 be 9e 8d 97 be bd a7 06 3e 3c a7 75 3d
       -0.28974676 -0.29600233 0.13149925 0.05997394
0001f0 c3 78 19 3d e0 2e ef 3c 52 0e 8b bd 14 40 04 3e
       0.037468683 0.029197156 -0.06789841 0.12915069
000200 92 3b cb 3d 68 eb c4 3c 52 82 93 bd 4d af d6 bd
       0.099234715 0.024038032 -0.07202591 -0.10482655
000210 0e 5e c2 3d 2d 8c 9b bd 76 63 aa 3c d2 c1 c2 bd
       0.09490596 -0.07595096 0.02079938 -0.095096245
000220 76 8e dd bd cb 59 39 bd 60 76 e9 bd c4 12 ee bd
       -0.10818188 -0.04525165 -0.11399531 -0.11624673
000230 aa f2 9e bd 26 fb 8d 3d dc 7a 2b bd 7c 16 56 3d
       -0.07761128 0.069326684 -0.041865215 0.052267537
000240 40 ed 3e bc 1a 76 d8 bd 16 af ae 3d 14 5f b4 3d
       -0.0116532445 -0.10569401 0.08529489 0.08807197
000250 8c 74 f9 3b 94 13 f9 bd d8 e5 3a bd 3f 05 59 bd
       0.0076127704 -0.12161937 -0.045629352 -0.05298352
000260 12 41 cf 3d c1 12 63 3d aa 31 4b 3d 78 28 ac 3d
       0.10119833 0.055437807 0.04960791 0.08406156
000270 89 66 de 3d 1c d3 06 bd c0 fa 8e 3d 7c 7d bd 3d
       0.10859401 -0.032916173 0.069814205 0.0925245
000280 d0 73 fd 3c c7 94 00 3d 53 af c4 bd 60 e0 66 3d
       0.030939013 0.031391885 -0.09603753 0.056366324
000290 80 2b f4 3c 78 a2 f1 3d 78 9c e0 bc aa 71 17 3d
       0.029805899 0.117985666 -0.02741836 0.036973633
0002a0 59 9f a2 bd 4d 95 e0 bd b4 8d 33 bd 44 1c b6 3d
       -0.079405494 -0.10965977 -0.04383631 0.0889211
0002b0 c0 17 c2 3d 46 2c a9 3d da 62 89 3d 0f 69 af 3c
       0.09477186 0.082603976 0.067083076 0.0214124
0002c0 ca 0f a8 bd d0 2e 66 bc d8 b2 1c 3d 9d 16 fc bb
       -0.082061365 -0.014049247 0.038256496 -0.0076931254
0002d0 0a 26 4c bd 98 8e 79 3d e0 bb 2d 3c c2 fb 7f 3d
       -0.049840964 0.060927004 0.010603875 0.062495954
0002e0 38 0d 91 bc d6 00 b8 bd 17 28 c3 3d 58 c9 17 bd
       -0.017706499 -0.089845344 0.09529131 -0.03705725
0002f0 48 5d d9 bd 0c 33 d6 bd 6a 06 c4 bd 87 17 aa bd
       -0.10613495 -0.10458955 -0.09571536 -0.08305269
000300 48 72 c3 bd c3 00 e3 bd f3 ff eb 3c b6 44 3c 3e
       -0.09543282 -0.1108413 0.02880857 0.18385586
000310 20 95 10 3e 91 09 32 3e d7 df e9 bd 2d c4 5e 3c
       0.14119387 0.17386462 -0.11419647 0.013596577
000320 a8 50 15 3e ca e3 0d 3d 03 8c 2b 3e ed a2 eb 3b
       0.14581549 0.034641065 0.16752629 0.007191053
000330 7c ea 97 3c dc 10 4a bc 0b df 99 3b 04 ea 81 bd
       0.018544428 -0.012333121 0.0046957782 -0.06343463
000340 84 30 78 3d 93 0c e1 bd a3 84 6f 3d 6b 0a 60 3d
       0.060593143 -0.109887265 0.0584761 0.054697435
000350 65 a9 da 3d 41 3b 54 bd 6c ed 07 bd 9e fa 31 3e
       0.10676841 -0.05181432 -0.033185408 0.17380759
000360 3e cc c9 3b a2 24 03 3e 2b dd 84 bb a9 9d 33 3e
       0.006158381 0.12806943 -0.0040546856 0.17540611
000370 af 52 d4 3d 53 dd b9 bd a0 32 35 bc c4 15 e3 3d
       0.10367333 -0.09075417 -0.011059433 0.11088136
000380 ce 7b 3a bd c6 f6 13 3e 47 bb 21 bc 9b e3 2b 3d
       -0.045528226 0.14449605 -0.009871311 0.04196511
000390 0f 3e 49 3d 40 fc 25 bd 57 c0 0f 3d b6 e1 bc bd
       0.04913145 -0.040523767 0.03509554 -0.092227384
0003a0 a1 a2 c5 3c c3 26 df 3d 53 e4 0a 3e c0 6a f1 3c
       0.024125399 0.10896065 0.13563661 0.029469848
0003b0 45 33 a1 3d 87 d0 4c 3d b4 b2 82 bd 14 c3 b6 3d
       0.07871107 0.050003555 -0.06381741 0.08923927
0003c0 43 60 31 3e fc 7f 88 bd 38 7f 3e 3c 7a c9 de bc
       0.17321877 -0.06665036 0.011627011 -0.02719568
0003d0 0d 1d b2 bb d9 52 95 3d d7 d3 95 3d 79 7a 4a bd
       -0.005435592 0.072911926 0.07315796 -0.049433205
0003e0 90 8c 4f 3e 1a 52 8b 3e ad a0 11 3e ca 3e f5 bd
       0.20268464 0.27211076 0.14221449 -0.11974867
0003f0 20 21 da 3d d0 ec bb bd 5d 14 5d 3d e5 93 0a 3e
       0.10650849 -0.09176028 0.053974498 0.1353298

bias f4 [32]
000000 b3 bb 91 bd 83 73 de 3d 72 46 3f bd b9 a0 cf 3d
       -0.07115879 0.10861876 -0.04669804 0.10138077
000010 78 e0 b3 bd d8 86 ad bc 6c bd 2e 3e 44 3f f7 3d
       -0.087830484 -0.021182463 0.17064446 0.12072614
000020 19 08 0d 3e b4 0a db bb 99 bd 04 bc 95 0a 8d 3d
       0.1377262 -0.0066846255 -0.008101844 0.06886784
000030 d3 8a 8c 3c bf 4f 0a bd 43 85 a0 bd 77 c9 52 3c
       0.01715604 -0.033767458 -0.07837918 0.012865416
000040 71 04 0d be 7d c6 23 bd db 64 aa 3d bf 62 07 3c
       -0.13771226 -0.039984215 0.08320018 0.008263289
000050 c8 3f 11 3e c8 d3 e6 bd 84 ac 88 3c 23 ff 07 bd
       0.14184487 -0.11270863 0.016683824 -0.0332023
000060 d3 13 fc 3d 19 58 bd 3d 13 5e 83 3d 28 c1 d0 bb
       0.12308469 0.09245319 0.064144276 -0.0063706823
000070 e1 83 ad bd 25 6d 16 3d b0 b2 9f bd 67 36 c1 3d
       -0.084724195 0.036725182 -0.07797754 0.094342045

weight f4 [128, 7]
000000 00 f3 78 be 71 d4 51 3e 01 78 9a bd 5f 58 91 3e
       -0.24311447 0.20491196 -0.0754242 0.28387734
000010 de 29 3c be cc f0 97 3c 6a ea 22 3e 8c 04 3c 3d
       -0.18375346 0.018547438 0.15909734 0.045902774
000020 a8 e6 a9 be 8f cc a9 bc b2 3a 99 3e 29 4e f4 3c
       -0.3318379 -0.020727424 0.29927593 0.029822426
000030 e6 29 67 bb 3e 04 7d bd 6f a8 64 3e 24 59 59 3e
       -0.0035272776 -0.061771624 0.22329877 0.2122541
000040 1b aa 4a be dc 1d 85 be 0d ed b6 be 37 ce a3 be
       -0.19791453 -0.25999343 -0.3572773 -0.31993267
000050 67 08 6b 3e 36 32 c2 be 90 63 92 bd 3a 1e 9b 3d
       0.22952424 -0.37928933 -0.07147896 0.07574125
000060 50 28 c2 3e fb f1 82 3e 9c 73 1e 3d 27 23 fa 3d
       0.3792138 0.2557524 0.038684472 0.12213736
000070 72 4f 69 be 1b f4 b8 bd 1e 73 9a 3e 71 b5 80 be
       -0.22784212 -0.090309344 0.30165952 -0.2513843
000080 50 68 86 3e 6f c4 aa bd d2 bf 90 be 64 f7 e4 3d
       0.2625146 -0.08338248 -0.28271347 0.111799985
000090 8c 26 7c 3e 5c 76 6f 3e c2 6a 91 3e 51 07 b2 3e
       0.2462408 0.23384994 0.28401762 0.34771207
0000a0 81 f9 78 be 44 d1 ac 3e bf 7c 80 3e ce f9 44 3e
       -0.24313928 0.33753407 0.25095174 0.19235918
0000b0 30 28 c7 3e ad 2a 08 be b6 a3 6b 3e 6f 91 5d be
       0.38897848 -0.1329753 0.2301167 -0.2163751
0000c0 f5 16 3e 3e 8d 83 49 be d0 8b 85 3e aa 5c 0b be
       0.18563445 -0.19679089 0.2608323 -0.13609567
0000d0 1d 30 a8 3e b2 8d 64 be f8 c7 81 be 8d 71 97 3e
       0.32849208 -0.22319677 -0.25347877 0.2957882
0000e0 bb db bb be bd f6 43 be 67 23 9e be ec 5d 8f 3e
       -0.3669108 -0.19137092 -0.30886385 0.28001344
0000f0 3b 42 91 3e 1c 32 53 3e 5e fe 4e bd 86 1a 6c 3e
       0.28370842 0.20624584 -0.050535552 0.23056993
000100 57 b3 92 3e c2 6c 34 3e ee 94 9e 3e 52 32 a9 be
       0.2865245 0.17619613 0.30973 -0.33046204
000110 96 6f 80 b7 c3 f7 9e be d9 03 9a bd d1 c0 9b be
       -1.531075e-05 -0.31048402 -0.07520265 -0.30420545
000120 38 e1 99 be cd 66 a8 be 42 ef a5 3e e2 1d 39 be
       -0.3005464 -0.3289093 0.32409102 -0.18077806
000130 7b 7a 50 3c 11 02 b4 3e e1 25 84 3e 86 82 9d 3c
       0.012724514 0.35157827 0.2581015 0.019227277
000140 ae ba 5c bc 4b c0 1d bc d8 9b 0e be 76 0f 94 3d
       -0.013472242 -0.009628366 -0.13926637 0.072295114
000150 a7 83 01 be 22 31 05 3e 86 20 7b 3e b6 2f 75 be
       -0.12647878 0.13007024 0.24524125 -0.23943982
000160 b0 cc 50 be b3 5c 9d be 77 46 a8 3e fb 7b ca 3e
       -0.20390582 -0.30734786 0.3286626 0.39547715
000170 fe 75 0b be 9b 5a be bd 47 31 92 be f8 6d 99 be
       -0.13619229 -0.09294625 -0.2855322 -0.29966712
000180 33 51 b8 be b3 5d 35 3d ec 6b 12 bc 0b cd a4 3e
       -0.3599945 0.04427881 -0.008936863 0.32187685
000190 e0 a9 d5 3b 13 ab ad 3e f4 cc 85 be a5 1a 08 3e
       0.006520495 0.33919582 -0.2613293 0.13291414
0001a0 e0 65 a3 be f0 40 a0 3e 09 b3 ac 3d 16 3c 8c 3e
       -0.31913662 0.31299543 0.08432586 0.27389592
0001b0 55 2f 89 bd 9c a3 90 3e 34 07 ca 3e 49 94 2c be
       -0.06698481 0.28249824 0.3945862 -0.16853441
0001c0 2a 8e 78 be b4 bb 98 be dc b0 1a 3e f1 fd 1a be
       -0.24272981 -0.29830706 0.15106529 -0.15135933
0001d0 66 71 80 3b 69 09 95 3d b2 bf 1c be 30 1e b7 be
       0.003919768 0.072771855 -0.15307501 -0.3576522
0001e0 a1 f7 77 be 20 b8 8b bd 8f 27 f4 bd 0a 12 69 bc
       -0.24215557 -0.068222284 -0.11921608 -0.014225492
0001f0 bd 63 a6 be 5b 53 b2 be ed 59 d1 3e 6d 78 6e 3e
       -0.3249797 -0.3482922 0.4088892 0.23288126
000200 56 3c 11 3c 81 49 75 be ae 5e ea 3d 59 7d d0 3d
       0.008864483 -0.23953821 0.1144384 0.10180158
000210 32 af a6 3d a0 6d fa 3d a8 6a 28 be d3 53 1a 3d
       0.081388846 0.122279406 -0.16446936 0.037677597
000220 b9 e6 28 3e 05 0b 5c be 8c 31 a1 3e a4 34 36 be
       0.16494264 -0.21488579 0.31483114 -0.17793518
000230 93 b5 40 bd 72 92 e9 3c 0e b2 47 3d b0 eb f3 bd
       -0.047048163 0.028512213 0.04875379 -0.11910188
000240 62 88 bd be f4 1e db bc 0d 8f 6d be 6a 0b d3 3e
       -0.37018114 -0.026748158 -0.23199101 0.41219646
000250 e1 fa b4 be b5 4e 21 be 02 3d c3 be d2 da 19 3e
       -0.35347655 -0.1575268 -0.38132483 0.1502488
000260 02 60 59 be 25 f7 ce 3d 95 d5 dc be e7 e9 81 3e
       -0.2122803 0.10105733 -0.431317 0.25373766
000270 2d 63 4c be ed 31 cf 3d 04 6f 2a be b4 b0 53 3d
       -0.19959708 0.101169445 -0.16643912 0.05168219
000280 62 ca c6 3e 5d fc e6 be 40 b7 a1 3e 5f 82 89 3e
       0.3882628 -0.45114413 0.3158512 0.26857278
000290 15 58 88 bd cd 4c a6 3e 1a 72 e8 bb fe 29 70 3d
       -0.06657425 0.3248047 -0.00709368 0.058633797
0002a0 f1 40 ee 3e b6 54 b8 be b5 59 ca 3c 02 2e 87 be
       0.4653392 -0.3600213 0.024700979 -0.2640229
0002b0 d9 39 d2 bb 78 9f 38 3e 65 42 ff 3d ba a9 b6 be
       -0.0064155874 0.18029583 0.124638356 -0.35676366
0002c0 eb 91 4f be 4c 52 02 3e d0 94 ef bd 5f 85 a0 be
       -0.20270507 0.12726706 -0.116983056 -0.31351754
0002d0 24 a7 39 3d 4d b4 46 bd 3e e3 e8 bd 24 e6 c6 be
       0.045325413 -0.048511792 -0.11371468 -0.38847458
0002e0 20 d9 94 bd ab 58 ac be 20 36 ab be e2 16 73 3e
       -0.07267976 -0.33661398 -0.33439732 0.23739198
0002f0 37 f9 75 3e f4 72 02 3f b3 1c a1 be 9a b2 bd 3e
       0.24020849 0.50956655 -0.31467208 0.37050325
000300 65 f6 b8 bd bf 9e e4 3c 01 b6 6a be 20 2b 9b 3e
       -0.09031371 0.027907727 -0.22920991 0.3030634
000310 96 73 ff 3e ba 4b 67 be d8 cc a2 be 77 18 98 3b
       0.49892873 -0.22587481 -0.31796908 0.0046415883
000320 a9 86 67 3e 6a 92 80 3d 29 75 5a be f1 9e 92 be
       0.22609963 0.06277926 -0.21333756 -0.28636888
000330 4a 1c f0 3c 08 fe 79 be 9c 8d c2 be 14 06 72 bd
       0.029310364 -0.24413311 -0.37998664 -0.059087828
000340 38 a4 f7 3a 55 7f 6c 3e 7c 34 c5 3e ce bb 0f be
       0.0018893545 0.23095448 0.38516605 -0.14036486
000350 39 df 64 3e f5 f3 20 3d d7 42 b0 be 8c ee 01 3e
       0.22350778 0.039295156 -0.34425995 0.12688655
000360 61 50 17 be 5a 30 57 3e 2c 89 4a be 2e 15 93 bb
       -0.14776756 0.21014538 -0.1977889 -0.004488609
000370 b0 90 56 3e 7f 28 3a be e6 ab ba 3d d6 e3 70 3d
       0.20953631 -0.1817951 0.09114818 0.05881103
000380 f8 9c d9 3b 5c f4 bf 3d 87 44 b3 3e 46 96 b9 3e
       0.0066410266 0.0937278 0.3501322 0.36247462
000390 bd 2e 7f bc 68 66 c3 bd af 7d d2 3d 9a a6 e3 3e
       -0.015575108 -0.09541017 0.102778785 0.44463044
0003a0 3e ca 18 be 7b 0a d3 bc 4f 54 c5 be 29 a4 a4 be
       -0.149209 -0.025761833 -0.38540885 -0.32156494
0003b0 24 d0 9e be 50 0d 91 3d e9 2d 8f 3e 6a eb 44 be
       -0.31018174 0.07082617 0.27964714 -0.19230428
0003c0 6c df 98 3e 26 01 bf 3e 37 a4 41 3e f6 f2 47 be
       0.29857957 0.37305564 0.18910299 -0.19526276
0003d0 9f 52 f4 bd 6a 6e 9a be cf d8 88 be df 62 aa be
       -0.11929821 -0.30162364 -0.26727912 -0.33278558
0003e0 ef c5 a8 3e ba db 23 3e ec 43 99 bc e7 f9 9e be
       0.3296351 0.16001788 -0.018709145 -0.31050035
0003f0 ec 8b 63 be 18 90 89 be 0a a7 cb 3e a0 1e 32 3e
       -0.22221345 -0.26867747 0.39775878 0.17394495

bias f4 [128]
000000 5e 00 27 3e 07 0d bc be db 12 9e 3e 7e 20 82 3e
       0.16308734 -0.3672869 0.3087376 0.25415415
000010 a5 1d aa be 24 9b 66 3e bc 27 58 bd ff 44 f1 bd
       -0.33225742 0.22520119 -0.05277227 -0.11780738
000020 76 b1 7b 3e 00 29 87 3d 21 c2 af bb 3f 92 fb bd
       0.24579415 0.06599617 -0.005363718 -0.122837536
000030 ee 10 85 be de 9a 42 3e 09 0d f6 3e fc 30 e1 bd
       -0.2598948 0.1900439 0.4805682 -0.10995671
000040 4e 20 b7 be 1f b6 54 be 28 3e a9 3e 1a 94 95 be
       -0.35766834 -0.20772599 0.33055234 -0.29214555
000050 54 bf e0 bd 74 de 05 bd 9e 05 bc 3e 13 c4 9a 3e
       -0.10973993 -0.03268285 0.36723036 0.30227718
000060 5c 49 b9 3e c2 e9 bd be a4 af ec 3c 2d ea 89 bd
       0.3618878 -0.37092406 0.028892346 -0.067341186
000070 4c 14 7f 3e 97 b8 a4 3e 26 10 f4 bd b2 32 d0 3e
       0.24910086 0.3217208 -0.119171426 0.40663677
000080 6f c4 ad be 9c 22 ef bd 38 e3 27 3e b4 34 d8 3e
       -0.3393893 -0.11676523 0.16395271 0.4222771
000090 8c d7 c5 bd 19 db 9b 3e 30 ee b5 3e 44 d2 0e 3e
       -0.09660253 0.30440596 0.35533285 0.13947397
0000a0 ae ac 13 be 6e cd 77 3e 17 7b e9 bd de de ce 3e
       -0.14421341 0.24199459 -0.11400431 0.4040441
0000b0 6a 3a 5d 3e 95 26 9e 3e f5 f4 4b be 00 1b de 3e
       0.21604314 0.3088881 -0.19917662 0.43379974
0000c0 cc b5 8c be ab 77 f4 3c 51 8d b1 3d d4 0c 86 be
       -0.2748245 0.029842218 0.08669532 -0.26181662
0000d0 15 6b 22 be b0 80 a3 3e be 8b c8 3e b7 96 8d 3e
       -0.15861161 0.31934118 0.39169115 0.2765405
0000e0 f4 ff 0a bd 62 86 34 3e 36 86 89 3e 2e 9b 22 3e
       -0.033935502 0.17629388 0.26860207 0.15879509
0000f0 76 bc f4 3c a2 7b 3d 3e dd f7 bf be 00 50 6a be
       0.029875021 0.18504193 -0.37493792 -0.2288208
000100 05 22 0d be 37 49 a9 bd a2 dd 98 be 91 ac 2e 3d
       -0.13782509 -0.08265918 -0.29856592 0.04264504
000110 a5 52 5c 3e d2 da ac be 5a 53 93 bd e2 af 12 be
       0.21515901 -0.33760697 -0.071936324 -0.14324906
000120 7d 3d 0e be 8d 9c 62 be 84 08 bc 3e 60 59 6d 3e
       -0.13890643 -0.22130032 0.36725247 0.23178625
000130 71 bd a7 be 29 82 c0 bd 70 7f 9c 3e 2e 57 31 bc
       -0.3276172 -0.09399826 0.30565977 -0.010824008
000140 ec 1a a8 3e 66 f2 f9 3e 4f 42 c1 be c2 a8 e0 3e
       0.3283304 0.48817748 -0.37745902 0.43878752
000150 0a 13 cb 3e 9f 2a 8e 3e 58 d8 8d be bb 8a 31 3e
       0.39662963 0.27766892 -0.2770412 0.17338078
000160 04 97 81 be 41 28 df bd 35 b2 8e 3e 4a c3 80 3e
       -0.25310528 -0.1089635 0.27870336 0.25148994
000170 e0 95 cc bc 45 5c f6 3e 19 18 d3 3e eb 9f 73 bc
       -0.02497381 0.4811727 0.41229323 -0.01486967
000180 64 ee 32 be cb f1 8e be 1f 12 80 be 43 74 3a 3e
       -0.17473751 -0.27918848 -0.25013825 0.18208413
000190 2d d2 06 3d f7 13 13 3e 30 d8 8f 3e 6b c2 86 3e
       0.032915283 0.14363085 0.28094625 0.26320204
0001a0 14 93 d5 3d 47 a8 d4 3e b1 ad 88 3e d3 bb b5 be
       0.104284436 0.41534635 0.26695016 -0.3549486
0001b0 25 f6 a5 3e 6d f8 97 3e 00 b5 3b be 68 d3 c0 3e
       0.32414356 0.2968172 -0.18330765 0.3766129
0001c0 71 57 96 3e 6f 68 86 be 14 e8 9c 3e cd 53 00 3f
       0.29363587 -0.26251552 0.30645812 0.5012787
0001d0 68 75 46 be a3 09 87 3e 94 7d f6 3b 32 e7 25 3e
       -0.19380724 0.2637454 0.0075222943 0.16201475
0001e0 69 2c ca 3e a9 e0 7c be 80 35 b3 3e 78 f8 68 be
       0.39487007 -0.24695076 0.35001755 -0.22751033
0001f0 74 57 17 3e de b0 36 3e da d0 af 3e 36 c3 27 be
       0.14779454 0.17840907 0.3433903 -0.16383061

weight f4 [64, 128]
000000 78 e8 9c 3d c2 21 47 3c fe 1a 4e bd 7d a4 3c 3d
       0.076615274 0.012154045 -0.05031871 0.046055306
000010 c9 63 9e bd f1 04 08 bd e2 88 6b bd b2 c1 9d bd
       -0.07733876 -0.033207837 -0.05750359 -0.0770296
000020 8d af 5d bc 14 45 5a 3c 48 f4 a9 bb 96 19 33 3d
       -0.013530624 0.013322134 -0.0051865913 0.043725573
000030 97 10 68 bd 18 ea 1c 3d cb db a1 3c 21 e8 24 bd
       -0.056656446 0.038309187 0.019758126 -0.040260438
000040 6a 15 85 bd 81 05 63 3d a1 8c 86 bc 5d ea 82 3d
       -0.06498225 0.05542517 -0.016424479 0.063923575
000050 bf f0 a0 3c b3 a5 75 3d 30 78 65 bd 67 73 9e 3c
       0.019646047 0.059972476 -0.056022823 0.019342138
000060 c2 af ae bd 33 e9 b2 bd 20 8f 9b 3d 09 a8 af bc
       -0.08529617 -0.087358855 0.07595658 -0.02144243
000070 de 6f 72 bd dc 65 2a bd ec 46 ae 3c 70 c1 0b bd
       -0.059188716 -0.041601047 0.021274053 -0.034120023
000080 9d 01 a3 bd 77 de 1d bc a0 62 8e 3d f0 70 37 3d
       -0.07959292 -0.009635559 0.06952405 0.04478544
000090 31 45 23 3d a2 9e 33 3d ea a9 8c bd d9 6c a9 3d
       0.039860908 0.043852456 -0.06868346 0.08272714
0000a0 ff 17 87 3c 86 2d 83 3d d3 79 86 bc 61 b5 01 3c
       0.016490934 0.06405167 -0.016415512 0.007916779
0000b0 b3 c5 6c bd 4c 02 09 3d a0 1e f4 bb 9e 54 7d 3d
       -0.05780573 0.033449456 -0.00744994 0.061848275
0000c0 bf d0 aa bd 82 da 95 3c cf 88 64 3d fa 7d a4 3a
       -0.083405964 0.01829267 0.055794533 0.0012549751
0000d0 3b bb 65 bd bd 70 a1 bd 18 86 81 bd f7 54 95 bd
       -0.05608676 -0.07882831 -0.063244045 -0.072915964
0000e0 a3 24 7a 3d 2e d1 9e 3d 27 c4 1c bd ab 97 dc 3c
       0.061070096 0.077547416 -0.038273003 0.02692779
0000f0 cc c1 6d 3d 01 03 88 3d ca b3 f7 3c c0 af a6 3c
       0.058046147 0.06641198 0.030237097 0.020347476
000100 99 c3 91 3d 8a df 8d bd ed 61 6f 3d 42 cd a0 bd
       0.071173854 -0.06927402 0.058443 -0.0785165
000110 9c 58 95 3d 39 6b e2 3c e7 6e 29 3d 32 fd aa 3d
       0.072922915 0.027639018 0.04136553 0.083490744
000120 84 11 8c bc d9 86 fa bb 98 26 24 bd 2f 48 ed 3b
       -0.017098196 -0.0076454696 -0.04007587 0.007241271
000130 f6 65 0a bd a9 94 80 bc 6d a1 a3 bd a4 e1 95 bd
       -0.033788644 -0.015695887 -0.07989774 -0.07318428
000140 05 6c 03 3d 78 f3 aa bd 89 73 e5 3b d4 40 79 3c
       0.032085437 -0.08347219 0.0070022983 0.01521321
000150 17 89 1c bd 5d 3d 31 3d fe 2b 42 bd d4 1a 4e bd
       -0.038216677 0.04327141 -0.047405235 -0.050318554
000160 14 9d ab 3d c5 b1 07 bc c7 f4 a9 3d d4 fa a2 3d
       0.0837957 -0.00828213 0.08298641 0.07957998
000170 07 12 62 3d 88 c3 f5 b8 db 94 2d bd 5b 75 5d bd
       0.055192973 -0.00011718931 -0.042378288 -0.054066997
000180 ae d3 9f bd 32 8c fa bc ef 32 07 bd 3f 20 de 3c
       -0.078040466 -0.030584428 -0.03300756 0.027114986
000190 72 a7 23 bd 77 bf 10 3d 4b 19 bb bc 14 7a 85 bd
       -0.03995461 0.035338845 -0.022839209 -0.06517425
0001a0 04 53 9d 3d d1 38 90 bd d1 96 ae bd 8b 3c 2d 3d
       0.076818496 -0.07042087 -0.0852486 0.042294066
0001b0 ea 61 02 bc 21 44 7e bd c7 b4 41 3d 19 0c e1 3c
       -0.007957915 -0.06207669 0.047291543 0.027471589
0001c0 3c 2b a2 3c ae a1 cb ba 39 05 89 bc 63 ba 85 bd
       0.019796006 -0.0015535855 -0.016726123 -0.06529691
0001d0 dc a6 6b bc 9f c5 68 3d 3a 04 12 bc 5e 04 fe ba
       -0.014383044 0.05682909 -0.0089121405 -0.0019379964
0001e0 5f 5d 65 3d b3 40 b0 3d 5c aa 1b bd 67 65 b1 bd
       0.05599725 0.086060904 -0.038004264 -0.08661919
0001f0 88 6b 8e 3c 0f 6a dc 3b f6 fe 38 bc b0 c4 02 3d
       0.01738526 0.0067265104 -0.011291256 0.031925857
000200 1a 8a 9b 3b 6b 5a 44 bd 2e f7 59 bd 9b 61 3d bb
       0.0047466876 -0.04793779 -0.053214245 -0.0028897289
000210 ec ef a7 bd b3 50 f4 bc 12 07 5d 3d 6d ba 93 bd
       -0.08200058 -0.029823637 0.05396182 -0.07213292
000220 e7 b4 83 bd 19 57 d2 bc 2b 2b c9 bb 15 d0 82 bd
       -0.06430989 -0.025676297 -0.006139179 -0.06387345
000230 1d 94 93 3d 72 d2 13 bd 95 4e bc 3c 4f 2b a7 bc
       0.07205985 -0.03608937 0.02298669 -0.020406393
000240 b5 10 d2 bb 19 b2 14 bd 8e f8 bb bd 73 0f 1f ba
       -0.006410683 -0.03630266 -0.091782674 -0.0006067671
000250 e6 c6 8d 3c 3d 4e 44 3c b1 2d 88 bd 0f 81 e5 bb
       0.017306756 0.011981544 -0.0664934 -0.0070039104
000260 ca 49 91 bd 4d 18 a6 bd 11 46 8f bb 59 58 7f 3c
       -0.07094152 -0.08110104 -0.0043723662 0.015585029
000270 d4 da 46 3d 89 b1 a2 bd 09 4f 50 bd 60 f2 8b bd
       0.048548535 -0.079440184 -0.050856624 -0.06833339
000280 b7 91 41 bd 9f 39 56 3d fc 51 5a bc b3 34 5d bd
       -0.047258105 0.052301046 -0.013325211 -0.054005336
000290 26 67 9b bd 36 7c 56 bd 66 3c ca bc 34 7c 0c 3d
       -0.075880334 -0.05236455 -0.024687003 0.034298137
0002a0 f6 75 5c bd a8 da 90 3c bb ea 84 3d 86 cb c4 3c
       -0.053823434 0.017682388 0.06490084 0.024022829
0002b0 88 2d c8 3c 6d 32 a6 bd 53 63 d3 3b 79 f1 41 3d
       0.024435773 -0.08115087 0.0064510494 0.047349427
0002c0 cc 2e 94 3d a1 26 8f bd 90 17 a3 3d 97 c2 86 3b
       0.07235488 -0.0698979 0.079634786 0.0041125524
0002d0 d1 aa 4b 3d 96 a7 45 bd a6 61 5f 3d 1a a9 7e 3d
       0.04972345 -0.048255526 0.054536484 0.062172987
0002e0 95 07 ba bc be 61 b0 3c b0 98 06 bc 30 aa a4 bd
       -0.022708694 0.021530982 -0.0082151145 -0.08040273
0002f0 78 ca 4d 3c 32 bf 6f 3d 99 25 97 bd 5e 61 a1 bd
       0.012560479 0.058531947 -0.07380218 -0.078798994
000300 00 52 a3 3d 32 47 b2 3d 34 65 03 3c 07 93 8e bc
       0.07974625 0.08704986 0.008019734 -0.017404092
000310 d4 f9 c1 ba de 0f 9a bd 51 41 79 b7 ee 62 ac 3d
       -0.0014799186 -0.07522558 -1.4856764e-05 0.08417307
000320 8e 00 24 3d b6 3f c9 3b f1 d7 9a 3d 11 c6 81 3d
       0.04003959 0.006141628 0.07560719 0.06336606
000330 3a de 77 3d 59 4f 6f 3d 5b 48 40 3d ce 3d e0 3b
       0.060514666 0.05842528 0.046944004 0.006843305
000340 03 27 88 bd 04 c3 2c bd 99 36 98 3c 11 66 7b 3d
       -0.06648066 -0.04217817 0.018580722 0.061376635
000350 ff 41 bc 3b 57 38 0a bd 67 09 92 3d d3 38 fd bc
       0.005745172 -0.033745136 0.071306996 -0.030910885
000360 3d 48 6c bd 8c cd 3d 3b 7b a1 28 3d 8b e7 54 bd
       -0.05768608 0.0028961627 0.041169625 -0.05197863
000370 c7 e2 17 3d 8b d0 c5 bd 2b 05 4c 3d 94 70 9c 3d
       0.037081506 -0.09658917 0.049809616 0.0763866
000380 93 e2 93 3d f2 50 5f bd 8f 62 71 3d bf 8f fb 3c
       0.0722095 -0.054520555 0.058931883 0.030708192
000390 7c 78 a6 bd 78 f0 09 bc d0 b1 86 3d 13 dc 5d bd
       -0.08128449 -0.008419149 0.06576884 -0.054164957
0003a0 49 9c bc bd 8e d9 c3 bc 94 83 91 3d ea f7 c9 3c
       -0.092094965 -0.02390745 0.07105175 0.024654347
0003b0 58 54 57 bc 75 9d a7 bd 5b 98 73 3d 20 04 32 bd
       -0.013142668 -0.081843294 0.05947147 -0.043460965
0003c0 b2 47 8e 3d 3c 65 a7 bb 4d 6a 11 3c 4f e8 d6 bc
       0.069472685 -0.0051085036 0.008875442 -0.02623382
0003d0 dc cc a9 bb 9e ef a7 3d 41 12 24 3c ad 42 13 3d
       -0.005181892 0.082 0.010014118 0.03595226
0003e0 63 82 91 3d 8a b4 5e 3d f8 8c 67 3d 49 ac 1d 3d
       0.071049474 0.054371394 0.056530923 0.038494382
0003f0 87 ee 6d 3d c1 6a 44 3d 32 d7 c9 bd 11 6c 77 bc
       0.058088806 0.04795337 -0.098554984 -0.015101449

bias f4 [64]
000000 d3 0d 47 3b c7 5e 9a 3d eb 0a c2 b8 fc 76 ae 3c
       0.003037323 0.075376086 -9.2526745e-05 0.02129697
000010 13 52 d0 3c ed 5c 5e 3c aa cb 94 3d 8b dc 12 3d
       0.025429761 0.01357196 0.07265408 0.035854857
000020 3c de a6 3c a7 0a c2 3c 77 b3 67 3d 55 08 e3 3c
       0.020369641 0.02368672 0.056567635 0.027713934
000030 f7 95 af 39 0d 62 e0 bc 56 4f 16 bc 05 17 9b bd
       0.00033490334 -0.027390504 -0.009174189 -0.0757275
000040 cb 85 a6 3c 49 8d 1e 3e 87 33 2e bc 7b 52 bb 3d
       0.02032747 0.15483584 -0.010632402 0.09146591
000050 2a bc cd 3d 4d a1 99 bd a3 d9 c0 3d d5 9a a1 bd
       0.10045655 -0.07501469 0.09416511 -0.0789086
000060 a6 43 ad 3d 95 96 d0 bc 04 11 bd 3d 9f 9d 91 3d
       0.084601685 -0.025462428 0.09231761 0.07110142
000070 08 c9 1f 3d ba 30 70 3d 8e 90 51 bd 1d b2 93 3d
       0.039010078 0.05864022 -0.05116325 0.07211707
000080 7e 1a 5b 3d e0 82 b8 3d 66 58 f4 3d 10 ee eb 3c
       0.05349206 0.090093374 0.11930923 0.02880004
000090 44 18 2a bd 9c f6 8a 3d 9d f8 ec 3d 7f 7a 7a bd
       -0.041527048 0.06785318 0.11570857 -0.061151978
0000a0 7d a5 34 3c ee 12 62 bb 81 c4 84 3d e2 a7 8b 3d
       0.011025784 -0.0034496146 0.06482793 0.068191305
0000b0 7b 8d 63 3c 8e 4a c9 3d 19 fe de bc 0d 32 bd 3c
       0.013888712 0.09828673 -0.027220773 0.023095155
0000c0 d2 e9 94 bc f6 18 34 3d bd 1a 2a 3d 32 20 28 3d
       -0.0181779 0.043969117 0.041529406 0.04104633
0000d0 22 41 9a 3d 7e f5 12 3e 66 ee d2 bc 3a 94 f4 3d
       0.07531954 0.1435146 -0.025748443 0.119423345
0000e0 95 7f db 3d fe 00 51 bd 9c ea 11 bd 20 2f a9 bd
       0.10717694 -0.051026337 -0.03562413 -0.082609415
0000f0 b5 24 b1 3d 73 8b 70 3d 1e a3 07 bd d0 ee 1e 3e
       0.086495794 0.05872674 -0.033114545 0.15520787
