2023/baseline0806/model/WLTP_trained_0822/PPO_actorcritic_33episode.pt (torch, 101527 bytes, 17 tensors)

weight f4 [128, 7]
-0.24147484 -0.27648228 0.24791123 -0.35778573 -0.23977219 0.37242773 0.35045972 -0.04047977
-0.18133801 0.08495145 -0.27926734 -0.13682394 -0.36225837 -0.30152673 0.11152262 -0.0938607
-0.18144245 0.097885735 0.3394659 0.3755967 0.066528484 -0.29133657 -0.23060524 -0.25907913
-0.0840478 -0.16051881 0.2680831 0.39694908 0.116685726 -0.18350011 -0.44488406 0.14280163
0.07727862 0.18360592 -0.016305605 -0.045621473 -0.06589865 -0.32332465 0.012967305 0.26219442
0.1378579 0.32378268 -0.33917677 -0.25368536 -0.33796388 0.011872757 -0.27600446 -0.1458769
-0.0047227717 0.10261886 -0.33677056 0.33561835 0.31016916 0.30988318 -0.37825298 -0.032806292
0.4408832 -0.042965226 -0.27830252 -0.011458261 0.3900453 -0.23393185 0.043973606 0.34504002
-0.19653948 -0.37610525 -0.36342037 -0.1387369 0.35022298 0.30699947 0.31743106 0.25997758
0.04378067 0.15665667 -0.29916206 0.032768432 0.046448857 -0.06366348 0.39837065 0.1824706
-0.11367115 0.20280355 -0.050720695 -0.10569209 -0.24622342 -0.28812802 0.25066108 -0.34785715
0.2610925 -0.14875302 0.21158025 0.25901562 0.19429898 0.29196388 0.04464118 -0.149426
-0.14625236 -0.28516427 -0.043509196 0.02817335 0.10554413 0.03160193 -0.043011338 0.1618975
-0.23778713 0.20277932 -0.25891596 -0.008542604 0.17668563 -0.040962648 0.29816926 -0.24716057
-0.19666818 -0.35057142 -0.22344191 0.27653983 0.10044489 -0.12633146 0.037019134 -0.14278863
0.46492702 -0.10224663 0.44640812 -0.21823573 -0.12610075 -0.18757741 0.37671554 -0.14459991
0.020825744 -0.3711465 -0.28853807 -0.26274073 -0.256682 -0.14723787 -0.28962433 0.0637486
-0.34816092 0.051599164 -0.046781145 -0.034249846 0.34877634 -0.15539102 0.09171978 0.03692999
0.043677654 0.33589748 0.3178206 -0.092744894 0.012863153 -0.07907031 -0.11870279 0.012077045
-0.20682047 0.07127561 -0.33187884 0.04084755 0.22178978 -0.11186933 0.021013549 -0.14608324
0.26145542 0.28064942 -0.12793969 0.17342038 0.23411378 0.07527152 0.32955027 0.39059332
0.39210343 -0.23705946 0.043491993 -0.29506186 0.3552175 -0.1151971 0.28721792 0.05586602
0.043767978 -0.34985447 -0.10564954 -0.039340556 0.15841813 -0.18675223 0.23576157 -0.33049905
0.24744226 -0.21125388 -0.1490555 0.23466152 0.15523364 0.33158183 0.05902981 0.127577
0.21020359 0.29822063 -0.15437505 0.2694264 -0.013476401 0.34493092 -0.0736482 0.29944575
-0.22221185 -0.11844116 0.17792295 0.30982116 0.009056959 0.15661637 -0.24128896 0.14342973
0.38894835 0.19619548 -0.10022125 -0.24621205 -0.10701566 0.0845965 -0.23806185 0.22627807
0.28476134 0.1895379 -0.1682236 0.117842935 -0.10385026 0.26974243 0.35562044 0.24747121
0.104933836 -0.2591209 -0.12624346 0.3160046 0.329367 -0.16944598 -0.013975272 0.2327005
0.066752024 0.049682144 0.3405952 0.20913154 -0.238083 0.3199395 0.14924112 -0.29378596
-0.20119704 -0.15967275 0.34059942 -0.19949569 0.043519888 0.1356468 0.065099895 0.24438442
-0.10529036 0.05698167 -0.1999 0.3233659 -0.21056668 0.28155795 0.051643066 0.28283858
00000000: 2e45 77be 168f 8dbe 71dc 7d3e b12f b7be
00000010: d786 75be d9ae be3e 756f b33e 1ece 25bd
00000020: acb0 39be 07fb ad3d 21fc 8ebe 931b 0cbe
00000030: ee79 b9be b661 9abe f965 e43d 0a3a c0bd
00000040: 0dcc 39be 5178 c83d 79ce ad3e 364e c03e
00000050: 1640 883d 112a 95be c823 6cbe 05a6 84be
00000060: 4121 acbd 0b5f 24be 3042 893e e93c cb3e
00000070: edf8 ee3d 74e7 3bbe d8c7 e3be 973a 123e
00000080: 4144 9e3d 3103 3c3e 5593 85bc 95dd 3abd
00000090: dff5 86bd cf8a a5be d274 543c 593e 863e
000000a0: 9f2a 0d3e d8c6 a53e 94a8 adbe 0ce3 81be
000000b0: 9a09 adbe f485 423c 7550 8dbe c160 15be
000000c0: 7bc1 9abb d629 d23d 316d acbe 2bd6 ab3e
000000d0: 7ece 9e3e 02a9 9e3e 60aa c1be e45f 06bd
000000e0: 71bb e13e 4efc 2fbd ab7d 8ebe 6ebb 3bbc
000000f0: 04b4 c73e d58b 6fbe ab1d 343d 16a9 b03e
00000100: a541 49be de90 c0be 3c12 babe 0c11 0ebe
00000110: 6d50 b33e 092f 9d3e 5386 a23e c81b 853e
00000120: 5c53 333d 9b6a 203e c52b 99be 3138 063d
00000130: 2841 3e3d 0062 82bd 3df7 cb3e 93d9 3a3e
00000140: 6bcc e8bd bcab 4f3e 81c0 4fbd 1875 d8bd
00000150: fe21 7cbe 8485 93be a656 803e 551a b2be
00000160: ebad 853e b652 18be 7ea8 583e b29d 843e
00000170: 50f6 463e 4a7c 953e acd9 363d 2103 19be
00000180: 2ec3 15be 0d01 92be b336 32bd cccb e63c
00000190: 8527 d83d 0671 013d a82c 30bd 75c8 253e
000001a0: 787e 73be 62a5 4f3e a290 84be 47f6 0bbc
000001b0: 14ed 343e 73c8 27bd a4a9 983e a917 7dbe
000001c0: 6263 49be 197e b3be f5cd 64be a196 8d3e
000001d0: 0db6 cd3d 095d 01be 60a1 173d 2f37 12be
000001e0: ea0a ee3e ae66 d1bd 9b8f e43e 3079 5fbe
000001f0: 8e20 01be 4b14 40be dce0 c03e 0012 14be
00000200: c09a aa3c ea06 bebe 43bb 93be f485 86be
00000210: d36b 83be 86c5 16be a449 94be a08e 823d
00000220: 2642 b2be a559 533d 969d 3fbd 9149 0cbd
00000230: d092 b23e d31e 1fbe 94d7 bb3d e743 173d
00000240: 57e7 323d c1fa ab3e 62b9 a23e 09f1 bdbd
00000250: f9bf 523c 9def a1bd 731a f3bd ccde 453c
00000260: bfc8 53be f2f8 913d 06ec a9be c34f 273d
00000270: dc1c 633e bf1b e5bd 9b24 ac3c d896 15be
00000280: 7cdd 853e 48b1 8f3e 9f02 03be 1d95 313e
00000290: 86bb 6f3e f427 9a3d d0ba a83e d9fb c73e
000002a0: c8c1 c83e b7bf 72be a924 323d 5912 97be
000002b0: 11df b53e 75ec ebbd 3a0e 933e c5d3 643d
000002c0: 0d46 333d 2020 b3be c95e d8bd 9023 21bd
000002d0: 5d38 223e fa3b 3fbe 7b6b 713e 2c37 a9be
000002e0: 8161 7d3e f052 58be 01a2 18be 1c4b 703e
000002f0: 91f5 1e3e 18c5 a93e 3ec9 713d 8ca3 023e
00000300: 9c3f 573e 60b0 983e 7e14 1ebe 42f2 893e
00000310: 1fcc 5cbc c99a b03e ded4 96bd f450 993e
00000320: 818b 63be 4791 f2bd 6f31 363e e1a0 9e3e
00000330: a463 143c 0b60 203e 7414 77be 3edf 123e
00000340: 3d24 c73e 78e7 483e cc40 cdbd 031f 7cbe
00000350: 072b dbbd ee40 ad3d 7cc6 73be 70b5 673e
00000360: 3dcc 913e 3916 423e cf42 2cbe a357 f13d
00000370: 72af d4bd ae1b 8a3e e213 b63e 1869 7d3e
00000380: 8de7 d63d 7fab 84be f745 01be 5bcb a13e
00000390: cba2 a83e 3f83 2dbe 8af8 64bc 0a49 6e3e
000003a0: 49b5 883d 817f 4b3d 7e62 ae3e 9426 563e
000003b0: 08cc 73be 1ccf a33e aad2 183e 1d6b 96be
000003c0: 9906 4ebe 4181 23be 0c63 ae3e 9948 4cbe
000003d0: e941 323d ffe6 0a3e 1853 853d e93f 7a3e
000003e0: 79a2 d7bd 9d65 693d 96b2 4cbe 3790 a53e
000003f0: cb9e 57be 5d28 903e ae87 533d 38d0 903e

bias f4 [128]
-0.19446453 -0.23855948 0.19502781 0.41143426 0.06562204 -0.14851509 -0.10246875 0.098404996
0.0065845214 0.39123785 0.2988179 0.022341408 0.09614065 0.21828827 0.049441498 -0.14760399
-0.19962066 0.19107698 0.35752586 0.20825672 -0.071166925 -0.30263132 0.21926004 -0.20923477
-0.068555266 -0.28329474 -0.10010486 0.06606899 -0.3259074 -0.33469608 0.28237987 0.0073067113
0.31332752 0.06709574 0.29663584 -0.21477297 -0.2895217 -0.101546034 -0.33557406 -0.09539947
-0.20970364 -0.40059003 -0.0016999079 -0.053431604 -0.28569514 -0.03111032 -0.2733642 -0.007423074
-0.25399947 -0.08901157 0.22088784 0.39061913 0.024873676 -0.3201108 -0.14496033 0.21124114
0.30172798 0.26593104 -0.068753324 -0.35060346 -0.332542 0.14614756 0.021213813 0.29569268
0.29322007 -0.19416589 -0.35537192 -0.34667423 0.39060518 0.09318135 0.10267705 -0.036636773
-0.24904284 0.34456187 0.07025823 -0.06281687 0.1517086 0.29393187 -0.09692995 0.29763263
0.29373977 0.28782257 0.17154332 -0.25819716 -0.124040365 -0.12088182 -0.30423152 -0.22029276
-0.33719918 -0.15375793 0.37160647 0.2833468 0.37239775 0.40896428 0.09550257 -0.2988338
0.09927306 0.2675407 0.12656678 -0.32702276 0.39912954 0.2748872 0.19444004 0.36164382
-0.2086159 0.026272248 0.08139398 -0.16694377 -0.14828604 0.10740689 0.0646006 -0.25089827
-0.3377334 -0.07541788 0.3191987 0.032976374 -0.16225815 0.2062481 0.26232564 -0.14679913
0.27322838 -0.0909935 -0.15182148 0.21443002 0.18702644 -0.27958897 0.31610206 -0.27166873
00000000: b621 47be f048 74be 5fb5 473e 83a7 d23e
00000010: d964 863d 5714 18be 23db d1bd 8f88 c93d
00000020: f8c2 d73b 5450 c83e a9fe 983e 5405 b73c
00000030: 64e5 c43d f686 5f3e 2b83 4a3d 8025 17be
00000040: 5c69 4cbe afa9 433e a10d b73e 4041 553e
00000050: f7bf 91bd 7ef2 9abe b485 603e a441 56be
00000060: b466 8cbd 020c 91be c703 cdbd 2e4f 873d
00000070: 56dd a6be 495d abbe 1894 903e 236d ef3b
00000080: 776c a03e 7e69 893d a7e0 973e 72ed 5bbe
00000090: 303c 94be 5ef7 cfbd 5dd0 abbe cc60 c3bd
000000a0: 8dbc 56be 231a cdbe 72cf deba 19db 5abd
000000b0: a246 92be 12db febc 64f6 8bbe 423d f3bb
000000c0: 380c 82be b34b b6bd 6c30 623e 3bff c73e
000000d0: e1c3 cb3c 90e5 a3be 7b70 14be 994f 583e
000000e0: 177c 9a3e 1d28 883e 8bce 8cbd 4c82 b3be
000000f0: f242 aabe b5a7 153e 97c8 ad3c 0865 973e
00000100: f120 963e 6cd3 46be 4ff3 b5be 497f b1be
00000110: 67fd c73e ddd5 be3d 5848 d23d 7110 16bd
00000120: 1605 7fbe 6a6a b03e 8ce3 8f3d 22a6 80bd
00000130: 8059 1b3e 3d7e 963e 3683 c6bd 4e63 983e
00000140: 0f65 963e 7b5d 933e 0da9 2f3e 6b32 84be
00000150: e008 febd e390 f7bd 3cc4 9bbe 6d94 61be
00000160: 5fa5 acbe b872 1dbe 3443 be3e d512 913e
00000170: ebaa be3e c463 d13e da96 c33d be00 99be
00000180: ad4f cb3d 18fb 883e b99a 013e 876f a7be
00000190: b55a cc3e 04be 8c3e 4a1b 473e 6129 b93e
000001a0: 689f 55be e638 d73c e3b1 a63d 4ff3 2abe
000001b0: 4cd8 17be 25f8 db3d 524d 843d bd75 80be
000001c0: 64eb acbe b174 9abd 036e a33e 3c12 073d
000001d0: 0027 26be b432 533e 8c4f 863e 8352 16be
000001e0: 97e4 8b3e cd5a babd 1777 1bbe 8b93 5b3e
000001f0: dc83 3f3e 4926 8fbe 21d8 a13e 2a18 8bbe

weight f4 [64, 128]
-0.027703281 0.08445547 0.0021649362 0.04672471 0.06078997 -0.05942106 0.08507825 -0.023983832
-0.079545654 -0.057986487 0.012335802 0.08808212 -0.021906056 0.02188569 -0.08064738 0.016579168
0.0135820955 -0.07182429 -0.028398862 -0.033941783 -0.03673674 0.06711046 -0.008023296 -0.05483088
0.022976175 0.04112429 0.03367017 0.007650085 -0.010363467 -0.0667817 -0.05795728 0.05804877
0.07736955 -0.029084329 -0.0026709826 -0.06385309 -0.0028960258 -0.07827878 0.08646786 0.024444023
-0.024674483 0.019193212 0.06066195 0.021296402 0.08289234 -0.03596458 -0.01304858 -0.07610229
0.07553955 -0.07755403 -0.00075040356 -0.05779418 -0.03783927 0.05904231 -0.026597612 0.07779386
0.0376942 -0.061468408 -0.028970426 -0.05797122 -0.070453346 -0.0051684994 -0.058511343 -0.06557851
-0.044891186 0.08343529 0.0750244 0.052788462 0.041695066 0.039255332 -0.0022783321 0.06872614
0.05589847 0.05188591 0.014844962 -0.08489039 -0.06378671 0.018853782 -0.07154178 -0.06569278
0.03539688 -0.043168887 -0.06701163 -0.028747343 -0.0046053333 -0.025042571 -0.03969757 0.061060477
0.029603483 0.083229944 -0.03509116 0.021074794 -0.034870744 0.077670686 0.044192173 -0.020753477
0.029261028 0.02195226 -0.0022944428 -0.051406637 0.0055413097 0.027152801 -0.005757228 0.031471074
0.0472494 0.058117773 -0.017530907 -0.01700562 0.05060865 -0.07069959 0.08190491 0.024167044
0.024085827 0.032102633 -0.055117287 -0.07333441 -0.044874497 0.01926227 0.0011387762 -0.05130032
-0.032025967 0.06976376 0.010952322 -0.014667609 -0.035963893 -0.054312788 -0.07212371 0.057605606
0.052929286 0.08364505 -0.0607058 -0.022128232 -0.036169976 0.0020953047 -0.048791036 0.022198882
0.0027861279 0.04020738 -0.018154496 -0.040801574 -0.011528332 -0.038606238 -0.0065422864 -0.017112242
0.04167903 0.037538394 -0.06369406 0.027126174 0.07376174 0.08677953 -0.018781131 0.030664757
-0.05513521 0.060351945 0.0051644584 0.049144745 0.062058344 -0.045772377 0.064923115 0.031268667
-0.04152115 -0.07208918 0.032477804 0.053880405 0.077645 0.0811722 0.05974071 -0.026937768
-0.028915005 -0.04341434 -0.02185719 0.061899044 0.08386028 -0.014365089 -0.0015601803 -0.023141917
-0.07310376 -0.053455133 0.07619092 -0.039043136 0.027537419 0.026305197 -0.07053581 -0.03982881
-0.059789646 -0.0016900635 0.028900389 0.057543427 0.053520247 -0.06639774 0.031384926 0.054243837
0.031162186 0.079595774 -0.044067733 -0.08477634 -0.06675888 0.01699168 0.08025298 0.042538244
-0.01851236 -0.04527443 0.04650051 0.040636357 0.06505203 -0.077474 -0.04615539 0.026226593
-0.00747451 0.040593505 -0.028209168 -0.07238634 0.0777486 0.004175471 -0.023741035 -0.0863523
0.06663096 0.0005249495 -0.0056786635 -0.073823005 -0.03765239 -0.07625438 -0.010724338 0.003075287
0.021431472 0.056939486 0.013530023 -0.08161974 -0.04043227 -0.014347669 -0.07485057 0.07842639
-0.026197575 -0.047628798 -0.0089202225 -0.04787005 0.0124896625 0.053027432 -0.077411525 0.061070614
0.086698964 0.012240119 0.036840316 -0.073442176 -0.03142736 0.087315984 0.0022675383 0.043949477
-0.0617263 -0.055403244 0.040924683 -0.0053939745 0.037751105 0.084207386 0.06130473 0.04175484
00000000: fef1 e2bc fdf6 ac3d 9ae1 0d3b 6962 3f3d
00000010: e7fe 783d 7f63 73bd 813d ae3d be79 c4bc
00000020: d5e8 a2bd 3d83 6dbd 1b1c 4a3c 6664 b43d
00000030: 5474 b3bc 9e49 b33c 742a a5bd 09d1 873c
00000040: 7087 5e3c 9d18 93bd bba4 e8bc 8a06 0bbd
00000050: 4479 16bd 3571 893d 2474 03bc 5896 60bd
00000060: 8838 bc3c f271 283d bbe9 093d 90ad fa3b
00000070: 88cb 29bc d8c4 88bd 9d64 6dbd 8cc4 6d3d
00000080: ed73 9e3d 4242 eebc a70b 2fbb 69c5 82bd
00000090: 40cb 3dbb a050 a0bd 1016 b13d d53e c83c
000000a0: 2422 cabc 153b 9d3c aa78 783d cb75 ae3c
000000b0: 76c3 a93d 984f 13bd b6c9 55bc 84db 9bbd
000000c0: 7bb4 9a3d a6d4 9ebd bbb6 44ba 97b9 6cbd
000000d0: 5afd 1abd 59d6 713d 3ce3 d9bc 6352 9f3d
000000e0: 3c65 1a3d 4cc6 7bbd 6353 edbc 3b73 6dbd
000000f0: d849 90bd 845c a9bb 97a9 6fbd 074e 86bd
00000100: d2df 37bd 1fe0 aa3d 65a6 993d b738 583d
00000110: 72c8 2a3d 33ca 203d 1250 15bb 4ac0 8c3d
00000120: cbf5 643d 5286 543d 4938 733c 03db adbd
00000130: 9ba2 82bd 3f73 9a3c 7f84 92bd f089 86bd
00000140: 52fc 103d dcd1 30bd 653d 89bd 8c7f ebbc
00000150: 56e8 96bb 1426 cdbc eb99 22bd 8d1a 7a3d
00000160: 0183 f23c 7674 aa3d c0bb 0fbd 0ca5 ac3c
00000170: a0d4 0ebd cf11 9f3d da02 353d 3203 aabc
00000180: d3b4 ef3c 3ad5 b33c 5d5e 16bb c48f 52bd
00000190: e093 b53b 8d6f de3c 21a7 bcbb d0e7 003d
000001a0: 9688 413d e70c 6e3d fa9c 8fbc 5f4f 8bbc
000001b0: 044b 4f3d f2ca 90bd c3bd a73d f7f9 c53c
000001c0: a44f c53c 0d7e 033d aac2 61bd 5a30 96bd
000001d0: 52ce 37bd e8cb 9d3c fd42 953a 4920 52bd
000001e0: a92d 03bd 4de0 8e3d 5e71 333c 6950 70bc
000001f0: e04e 13bd 1677 5ebd 98b5 93bd dbf3 6b3d
00000200: 61cc 583d 194e ab3d a5a6 78bd 4446 b5bc
00000210: f826 14bd 6151 093b 1cd9 47bd 6eda b53c
00000220: 7897 363b 7eb0 243d bdb8 94bc 8d1f 27bd
00000230: 54e1 3cbc 9321 1ebd ad60 d6bb f92e 8cbc
00000240: a1b7 2a3d dcc1 193d 0872 82bd b637 de3c
00000250: 6510 973d 77b9 b13d e3da 99bc a834 fb3c
00000260: 75d5 61bd 9a33 773d 9e3a a93b 004c 493d
00000270: e430 7e3d d17b 3bbd 69f6 843d 9313 003d
00000280: 1512 2abd 7ea3 93bd 7207 053d b3b1 5c3d
00000290: 5704 9f3d 9c3d a63d adb2 743d 98ac dcbc
000002a0: 29df ecbc 3cd3 31bd da0d b3bc da89 7d3d
000002b0: f0be ab3d 8d5b 6bbc f77e ccba 1e94 bdbc
000002c0: 6db7 95bd c5f3 5abd fc09 9c3d b2eb 1fbd
000002d0: 2796 e13c ff7d d73c 1475 90bd 8923 23bd
000002e0: fde5 74bd 1f85 ddba 82c0 ec3c a8b2 6b3d
000002f0: 0c38 5b3d 8afb 87bd 7b8d 003d c92e 5e3d
00000300: d747 ff3c 1c03 a33d 5e80 34bd 389f adbd
00000310: e1b8 88bd 2332 8b3c ad5b a43d 953c 2e3d
00000320: 3ca7 97bc ae71 39bd 5277 3e3d 4f72 263d
00000330: 003a 853d b0aa 9ebd 6f0d 3dbd 27d9 d63c
00000340: bcec f4bb 6045 263d ea16 e7bc 4a3f 94bd
00000350: a83a 9f3d 64d2 883b 8f7c c2bc 7ad9 b0bd
00000360: d075 883d c49c 093a 1514 babb 8430 97bd
00000370: 6439 1abd 422b 9cbd 22b5 2fbc c18a 493b
00000380: 0e91 af3c 6139 693d 08ad 5d3c 4028 a7bd
00000390: 4f9c 25bd 7c12 6bbc 414b 99bd 049e a03d
000003a0: 4c9c d6bc 6a16 43bd 2026 12bc 6313 44bd
000003b0: 71a1 4c3c 4b33 593d ef89 9ebd 2e25 7a3d
000003c0: 3a8f b13d c88a 483c dfe5 163d da68 96bd
000003d0: fab9 00bd b9d2 b23d fb9a 143b 5e04 343d
000003e0: b7d4 7cbd 83ee 62bd a4a0 273d f0bf b0bb
000003f0: e7a0 1a3d ec74 ac3d ab1a 7b3d 2007 2b3d

bias f4 [64]
-0.07241778 -0.025185695 0.089241765 0.074041024 0.043249972 0.061061986 0.042199783 0.111256085
0.0019188208 -0.008269679 0.02076961 -0.005719969 0.06598307 0.06638909 0.0123538785 0.004608446
0.02883641 0.030697752 0.04237844 0.005308352 0.09503431 0.002657081 -0.0042864014 -0.0034921211
-0.012647845 -0.012736974 -0.026566662 -0.021737317 0.038258445 -0.041160088 0.011047025 -0.02818534
0.05990838 0.0589928 0.039684456 -0.011251778 0.061437335 -0.08628982 0.056037135 -0.087730475
-0.0039772387 0.065848485 0.052377835 -0.085056044 0.05360106 0.029451018 0.03345296 0.097343564
-0.026111735 0.061696056 -0.030657236 0.07257737 0.022074578 -0.06440191 -0.012584022 0.11193383
0.06910632 0.14113879 0.04566184 -0.06415914 0.018631283 -0.042056568 0.02350856 0.1282966
00000000: c64f 94bd 3b52 cebc 63c4 b63d d2a2 973d
00000010: e226 313d 221c 7a3d aed9 2c3d 3bda e33d
00000020: f180 fb3a 8c7d 07bc 0725 aa3c 946e bbbb
00000030: 2222 873d 01f7 873d ec67 4a3c 7202 973b
00000040: 563a ec3c da79 fb3c 0495 2d3d aff1 ad3b
00000050: 59a1 c23d 6c22 2e3b f174 8cbb 12dc 64bb
00000060: e838 4fbc beae 50bc 54a2 d9bc 7512 b2bc
00000070: e3b4 1c3d 7b97 28bd 95fe 343c f1e4 e6bc
00000080: 7d62 753d 6fa2 713d 2b8c 223d 6159 38bc
00000090: b7a5 7b3d b8b8 b0bd 3287 653d 09ac b3bd
000000a0: 7f53 82bb 92db 863d 248a 563d dd31 aebd
000000b0: c98c 5b3d 4343 f13c f905 093d 105c c73d
000000c0: 47e8 d5bc 01b5 7c3d e224 fbbc 72a3 943d
000000d0: bfd5 b43c 26e5 83bd 372d 4ebc 903d e53d
000000e0: 9d87 8d3d b086 103e e907 3b3d de65 83bd
000000f0: a2a0 983c 8243 2cbd 0695 c03c 2f60 033e

weight f4 [32, 64]
0.046685755 -0.089497775 0.1406979 -0.007149525 -0.04847595 0.09157544 0.121134795 -0.030554641
0.115958296 0.03014576 0.12249729 0.11896945 0.08903708 0.131226 -0.06396722 0.09178427
-0.062134463 -0.056824207 0.058437794 -0.12373705 -0.096357 -0.1159396 -0.09494371 0.06857585
-0.1278916 0.037615404 0.098749354 0.1268119 -0.21560761 0.10625016 0.07635769 0.076223485
0.009039278 0.13382348 -0.09886394 -0.0498002 -0.0831819 -0.0025060624 0.031879697 -0.043379024
-0.007872332 0.066892534 -0.033940267 -0.062317178 -0.067048125 -0.021138154 0.06721259 0.09247292
0.0027009882 -0.040250912 -0.09438313 -0.09388824 -0.09613918 -0.008871511 0.05304188 0.022671778
0.10093913 -0.013543642 -0.08026851 -0.010578013 -0.067683205 0.083839655 0.124050125 0.07741273
-0.014421403 -0.018285679 0.096776776 0.15541139 0.0012219552 -0.08317462 0.042682018 -0.1778347
0.03308275 0.08542912 -0.051350582 -0.027577465 0.068621986 0.055874616 -0.10715283 0.032515656
-0.17231736 -0.096894994 -0.027595967 0.12161958 0.16136104 -0.04350419 0.06787454 0.02576425
-0.12923819 -0.044964936 -0.02080521 0.04110135 0.14243558 0.06653277 -0.0031143555 0.10874316
0.09246902 0.060788445 -0.08637069 0.053444844 0.09465588 -0.03984447 0.08584919 -0.058559902
0.027004352 0.092925504 -0.07154409 0.020272061 -0.101252645 0.11351496 -0.016277255 0.043227516
0.14449303 0.010345354 -0.05730204 0.057677634 -0.08435056 0.050404496 -0.0039138985 -0.007135882
-0.25549942 -0.26239496 0.13271362 0.05997394 0.037468683 0.029197156 -0.066807546 0.13025193
0.099234715 0.024038032 -0.07202591 -0.10482655 0.09490596 -0.07595096 0.02079938 -0.095096245
-0.10818188 -0.04525165 -0.11399531 -0.11624673 -0.07761128 0.069326684 -0.041865215 0.052267537
-0.0116532445 -0.10569401 0.08529489 0.08807197 0.0076127704 -0.12161937 -0.045629352 -0.05298352
0.10119833 0.055437807 0.04960791 0.08406156 0.10859401 -0.032916173 0.069814205 0.0925245
0.030939013 0.031391885 -0.09603753 0.056366324 0.029805899 0.117985666 -0.02741836 0.036973633
-0.079405494 -0.10965977 -0.04383631 0.0889211 0.09477186 0.082603976 0.067083076 0.0214124
-0.082061365 -0.014049247 0.038256496 -0.0076931254 -0.049840964 0.060927004 0.010603875 0.062495954
-0.017706499 -0.089845344 0.09529131 -0.03705725 -0.10613495 -0.10458955 -0.09571536 -0.08305269
-0.09543282 -0.1108413 0.02392462 0.18088281 0.14771067 0.1699116 -0.11419647 0.0025664328
0.14497614 0.035332005 0.10510423 0.007191053 0.005166368 -0.021900311 0.0046957782 -0.06343463
0.040144403 -0.13167791 0.0584761 0.054697435 0.104290016 -0.05414838 -0.033185408 0.17367604
0.001934265 0.11236976 -0.014596635 0.16506086 0.09635616 -0.09075417 -0.011059433 0.10691985
-0.044709485 0.14003935 -0.012827631 0.046779428 0.04913145 -0.040523767 0.03181555 -0.092227384
0.024953134 0.10154709 0.13949533 0.029469848 0.07868856 0.0507632 -0.06381741 0.090148516
0.1690511 -0.06665036 0.011627011 -0.027275322 -0.0050980966 0.0729355 0.07315796 -0.0547181
0.19140251 0.2591722 0.13531913 -0.11974491 0.10650849 -0.09176028 0.050707895 0.13366744
00000000: 9039 3f3d 9c4a b7bd 1c13 103e 9046 eabb
00000010: b88e 46bd e78b bb3d 8515 f83d ba4d fabc
00000020: 8b7b ed3d 3ef4 f63c dcdf fa3d 41a6 f33d
00000030: 1359 b63d 1c60 063e 3f01 83bd 64f9 bb3d
00000040: b580 7ebd 80c0 68bd 785c 6f3d da69 fdbd
00000050: d256 c5bd be71 edbd d971 c2bd 7f71 8c3d
00000060: 04f6 02be 9c12 1a3d 1a3d ca3d fbda 013e
00000070: 3ec8 5cbe af99 d93d 6c61 9c3d 0f1b 9c3d
00000080: 7b19 143c 0609 093e 2d79 cabd 4bfb 4bbd
00000090: 465b aabd c03c 24bb 4994 023d 34ae 31bd
000000a0: f4fa 00bc f4fe 883d f304 0bbd 4c40 7fbd
000000b0: 8750 89bd ec29 adbc c1a6 893d 7162 bd3d
000000c0: 1003 313b 24de 24bd f14b c1bd 7a48 c0bd
000000d0: 9ee4 c4bd d059 11bc 7142 593d 2aba b93c
000000e0: 2db9 ce3d 27e6 5dbc d163 a4bd 674f 2dbc
000000f0: 7e9d 8abd 20b4 ab3d fe0d fe3d 918a 9e3d
00000100: c047 6cbc d9cb 95bc e732 c63d 2a24 1f3e
00000110: 032a a03a 7557 aabd 57d3 2e3d 4d1a 36be
00000120: c781 073d 76f5 ae3d fd54 52bd 23ea e1bc
00000130: af89 8c3d c8dc 643d f172 dbbd 232f 053d
00000140: f673 30be e270 c6bd f010 e2bc b013 f93d
00000150: d43b 253e 7331 32bd cf01 8b3d 8c0f d33c
00000160: 0457 04be 272d 38bd b06f aabc e459 283d
00000170: a2da 113e 5542 883d 371a 4cbb bcb4 de3d
00000180: 6660 bd3d 4efd 783d 1ee3 b0bd fbe8 5a3d
00000190: f1da c13d f433 23bd b3d1 af3d 82dc 6fbd
000001a0: 3b38 dd3c ba4f be3d b585 92bd 9811 a63c
000001b0: 8c5d cfbd 887a e83d e157 85bc 560f 313d
000001c0: fbf5 133e 8f7f 293c 8bb5 6abd 623f 6c3d
000001d0: fdbf acbd f274 4e3d 2940 80bb 1ed4 e9bb
000001e0: d2d0 82be a258 86be 14e6 073e 3ca7 753d
000001f0: c378 193d e02e ef3c 65d2 88bd c360 053e
00000200: 923b cb3d 68eb c43c 5282 93bd 4daf d6bd
00000210: 0e5e c23d 2d8c 9bbd 7663 aa3c d2c1 c2bd
00000220: 768e ddbd cb59 39bd 6076 e9bd c412 eebd
00000230: aaf2 9ebd 26fb 8d3d dc7a 2bbd 7c16 563d
00000240: 40ed 3ebc 1a76 d8bd 16af ae3d 145f b43d
00000250: 8c74 f93b 9413 f9bd d8e5 3abd 3f05 59bd
00000260: 1241 cf3d c112 633d aa31 4b3d 7828 ac3d
00000270: 8966 de3d 1cd3 06bd c0fa 8e3d 7c7d bd3d
00000280: d073 fd3c c794 003d 53af c4bd 60e0 663d
00000290: 802b f43c 78a2 f13d 789c e0bc aa71 173d
000002a0: 599f a2bd 4d95 e0bd b48d 33bd 441c b63d
000002b0: c017 c23d 462c a93d da62 893d 0f69 af3c
000002c0: ca0f a8bd d02e 66bc d8b2 1c3d 9d16 fcbb
000002d0: 0a26 4cbd 988e 793d e0bb 2d3c c2fb 7f3d
000002e0: 380d 91bc d600 b8bd 1728 c33d 58c9 17bd
000002f0: 485d d9bd 0c33 d6bd 6a06 c4bd 8717 aabd
00000300: 4872 c3bd c300 e3bd 91fd c33c 5839 393e
00000310: 7741 173e 4efd 2d3e d7df e9bd 9931 283b
00000320: a074 143e 4bb8 103d e340 d73d eda2 eb3b
00000330: a34a a93b 4868 b3bc 0bdf 993b 04ea 81bd
00000340: 756e 243d 93d6 06be a384 6f3d 6b0a 603d
00000350: 0196 d53d b1ca 5dbd 6ced 07bd 22d8 313e
00000360: 2a87 fd3a 1e22 e63d b926 6fbc b705 293e
00000370: 6156 c53d 53dd b9bd a032 35bc cbf8 da3d
00000380: 4b21 37bd 7a66 0f3e fc2a 52bc c99b 3f3d
00000390: 0f3e 493d 40fc 25bd 0651 023d b6e1 bcbd
000003a0: 846a cc3c ecf7 cf3d ddd7 0e3e c06a f13c
000003b0: 7827 a13d 13ed 4f3d b4b2 82bd c99f b83d
000003c0: bb1b 2d3e fc7f 88bd 387f 3e3c 7f70 dfbc
000003d0: ef0d a7bb 355f 953d d7d3 953d 1620 60bd
000003e0: 05ff 433e 38b2 843e 1991 0a3e d23c f5bd
000003f0: 2021 da3d d0ec bbbd 15b3 4f3d 1ee0 083e

bias f4 [32]
-0.07060095 0.10952049 -0.04669804 0.089290485 -0.087830484 -0.021182463 0.163754 0.12077576
0.14203387 -0.0004399658 -0.008101844 0.06262859 0.01715604 -0.033767458 -0.07837918 0.014679329
-0.13771226 -0.04677697 0.08320018 0.013819747 0.14632638 -0.10655719 0.023477267 -0.07347419
0.117534444 0.08315504 0.06821047 -0.0004883636 -0.084724195 0.04331662 -0.07797754 0.0878774
00000000: 3b97 90bd 474c e03d 7246 3fbd eedd b63d
00000010: 78e0 b3bd d886 adbc 21af 273e 4859 f73d
00000020: 5471 113e 36ab e6b9 99bd 04bc 6b43 803d
00000030: d38a 8c3c bf4f 0abd 4385 a0bd 9181 703c
00000040: 7104 0dbe 3599 3fbd db64 aa3d 386c 623c
00000050: 95d6 153e a83a dabd 6653 c03c a379 96bd
00000060: e6b5 f03d 314d aa3d eeb1 8b3d 8705 00ba
00000070: e183 adbd c56c 313d b0b2 9fbd 11f9 b33d

weight f4 [128, 7]
-0.23187329 0.21094051 -0.07159674 0.28855333 -0.18966961 0.01850961 0.16960633 0.045902774
-0.3318379 -0.020727424 0.29927593 0.029822426 -0.0035272776 -0.061771624 0.17643592 0.20685509
-0.20119917 -0.26273936 -0.3730834 -0.3204622 0.21854807 -0.36515108 -0.06581796 0.07751562
0.38344163 0.2813952 0.040076613 0.13332601 -0.22784212 -0.090309344 0.30165952 -0.2513843
0.2625146 -0.08338248 -0.28271347 0.04974189 0.24289338 0.23212984 0.28811523 0.3394198
-0.25519982 0.32097626 0.20810455 0.18647622 0.3850672 -0.13645625 0.21912059 -0.21634087
0.1721738 -0.18923965 0.26320994 -0.13688509 0.32780093 -0.20757091 -0.2514583 0.29718715
-0.34993327 -0.17867841 -0.30283064 0.27656144 0.3026511 0.2105179 -0.037070293 0.18767461
0.27999628 0.17267321 0.30500582 -0.35741746 0.05667543 -0.28749907 -0.10018902 -0.30420545
-0.3005464 -0.3289093 0.31496716 -0.16572957 0.021848483 0.26178417 0.24907024 0.012728757
-0.024439082 -0.031805128 -0.11832561 0.06401428 -0.11793866 0.13478637 0.24720578 -0.23611452
-0.19265302 -0.31184527 0.3305806 0.3538465 -0.1420888 -0.09782056 -0.2904765 -0.32244164
-0.36283064 0.029222043 -0.048643336 0.3355764 0.016537894 0.35579228 -0.22647679 0.10647938
-0.3149167 0.20886293 0.07842454 0.27046144 -0.04957723 0.27104905 0.38493586 -0.18103658
-0.24272981 -0.29830706 0.15106529 -0.15135933 0.003919768 0.072771855 -0.15307501 -0.3576522
-0.24215557 -0.068222284 -0.11921608 -0.014225492 -0.3249797 -0.3482922 0.36332303 0.22789474
0.006173433 -0.24192587 0.09758235 0.09984387 0.07012806 0.122279406 -0.16446936 0.037677597
0.16494264 -0.21488579 0.31483114 -0.17793518 -0.047048163 0.028512213 0.04875379 -0.11910188
-0.37018114 -0.026748158 -0.23199101 0.37230808 -0.35347655 -0.16963388 -0.3686461 0.15071076
-0.2180074 0.08476367 -0.39729515 0.25992388 -0.19568668 0.10648024 -0.14719465 0.051139064
0.39929003 -0.4305491 0.3221036 0.27266517 -0.061550166 0.34627986 -0.0068953373 0.070152715
0.42202595 -0.36145312 0.02457946 -0.25812563 -0.019674199 0.17331713 0.11449996 -0.35676366
-0.20270507 0.12726706 -0.116983056 -0.31351754 0.045325413 -0.048511792 -0.12094279 -0.3678705
-0.065489955 -0.3395551 -0.34930044 0.23374274 0.24616994 0.46400827 -0.32042116 0.36649013
-0.094331436 0.009627338 -0.22881031 0.29093257 0.45857736 -0.22779353 -0.3271062 0.009349695
0.2160011 0.05755337 -0.22767454 -0.2566009 0.036589436 -0.2396289 -0.37279716 -0.03497282
-0.0019141586 0.24162759 0.29518285 -0.15104769 0.20288682 0.04373688 -0.3507257 0.118253194
-0.1967344 0.1650026 -0.20147349 -0.0060158027 0.20991002 -0.19434437 0.0864775 0.047904514
0.013215182 0.0968229 0.35017493 0.3629797 0.005051717 -0.098275594 0.10263012 0.4106106
-0.149209 -0.028241096 -0.38460332 -0.3464455 -0.23253454 0.12087282 0.23527396 -0.19801961
0.29454628 0.36887676 0.17403187 -0.19660023 -0.13160911 -0.2745747 -0.26189262 -0.3408757
0.34002838 0.18082875 -0.016555535 -0.29607022 -0.22122714 -0.28540525 0.38424817 0.16744533
00000000: 3170 6dbe ca00 583e 50a1 92bd 43bd 933e
00000010: c038 42be 77a1 973c 48ad 2d3e 8c04 3c3d
00000020: a8e6 a9be 8fcc a9bc b23a 993e 294e f43c
00000030: e629 67bb 3e04 7dbd 9eab 343e d2d1 533e
00000040: 2807 4ebe c685 86be ca04 bfbe 9f13 a4be
00000050: 11cb 5f3e 15f5 babe 91cb 86bd 82c0 9e3d
00000060: 7652 c43e 0813 903e 6027 243d 9d86 083e
00000070: 724f 69be 1bf4 b8bd 1e73 9a3e 71b5 80be
00000080: 5068 863e 6fc4 aabd d2bf 90be 27be 4b3d
00000090: 0bb9 783e 72b3 6d3e d783 933e 6fc8 ad3e
000000a0: 8da9 82be 0057 a43e 5c19 553e 9ff3 3e3e
000000b0: 8727 c53e 30bb 0bbe 2661 603e 7688 5dbe
000000c0: 544e 303e 0ac8 41be 74c3 863e 9b2b 0cbe
000000d0: 86d5 a73e 788d 54be 24bf 80be ea28 983e
000000e0: 742a b3be 79f7 36be 9e0c 9bbe 7699 8d3e
000000f0: 16f5 9a3e 0192 573e 05d7 17bd c62d 403e
00000100: ac5b 8f3e 3fd1 303e b929 9c3e 6cff b6be
00000110: 7f24 683d 1433 93be e72f cdbd d1c0 9bbe
00000120: 38e1 99be cd66 a8be 6043 a13e 03b5 29be
00000130: 97fb b23c 9308 863e 450c 7f3e 478c 503c
00000140: 7834 c8bc 1846 02bd b354 f2bd eb19 833d
00000150: d389 f1bd 7005 0a3e 8323 7d3e 01c8 71be
00000160: d546 45be 2faa 9fbe dc41 a93e 5e2b b53e
00000170: ba7f 11be 2556 c8bd 56b9 94be 1217 a5be
00000180: f0c4 b9be 1163 ef3c 3c3e 47bd abd0 ab3e
00000190: 7a7a 873c 682a b63e 88e9 67be dc11 da3d
000001a0: c33c a1be 2ae0 553e 0c9d a03d ec79 8a3e
000001b0: 7e11 4bbd f1c6 8a3e 5016 c53e a761 39be
000001c0: 2a8e 78be b4bb 98be dcb0 1a3e f1fd 1abe
000001d0: 6671 803b 6909 953d b2bf 1cbe 301e b7be
000001e0: a1f7 77be 20b8 8bbd 8f27 f4bd 0a12 69bc
000001f0: bd63 a6be 5b53 b2be 7a05 ba3e 3d5d 693e
00000200: 824a ca3b 6abb 77be 41d9 c73d f17a cc3d
00000210: 4d9f 8f3d a06d fa3d a86a 28be d353 1a3d
00000220: b9e6 283e 050b 5cbe 8c31 a13e a434 36be
00000230: 93b5 40bd 7292 e93c 0eb2 473d b0eb f3bd
00000240: 6288 bdbe f41e dbbc 0d8f 6dbe 2a9f be3e
00000250: e1fa b4be 81b4 2dbe 2ebf bcbe ec53 1a3e
00000260: 553d 5fbe 9398 ad3d 456a cbbe be14 853e
00000270: 1762 48be 5012 da3d 32ba 16be 3277 513d
00000280: be6f cc3e ee70 dcbe c3ea a43e c59a 8b3e
00000290: 071c 7cbd 984b b13e 48f2 e1bb 3aac 8f3d
000002a0: c913 d83e 6210 b9be dd5a c93c 0b29 84be
000002b0: c92b a1bc 0c7a 313e f47e ea3d baa9 b6be
000002c0: eb91 4fbe 4c52 023e d094 efbd 5f85 a0be
000002d0: 24a7 393d 4db4 46bd dab0 f7bd 8659 bcbe
000002e0: 991f 86bd 2bda adbe 82d7 b2be 425a 6f3e
000002f0: f913 7c3e 7e92 ed3e 3e0e a4be 98a4 bb3e
00000300: d730 c1bd fbbb 1d3c 404d 6abe 1df5 943e
00000310: a7ca ea3e b542 69be 777a a7be 772f 193c
00000320: 642f 5d3e 15bd 6b3d 8423 69be 3161 83be
00000330: cede 153d 4761 75be 45df bebe a93f 0fbd
00000340: 81e4 faba 396d 773e 3522 973e 3fac 1abe
00000350: 90c1 4f3e 7125 333d 5292 b3be bb2e f23d
00000360: be74 49be 71f6 283e 114f 4ebe 3620 c5bb
00000370: a7f2 563e 3602 47be 1e1b b13d 8637 443d
00000380: 7e84 583c 164b c63d 214a b33e 7ad8 b93e
00000390: e088 a53b b744 c9bd be2f d23d 8d3b d23e
000003a0: 3eca 18be df59 e7bc baea c4be 4e61 b1be
000003b0: 891d 6ebe 2b8c f73d a8eb 703e a7c5 4abe
000003c0: c5ce 963e 6add bc3e 6935 323e 9251 49be
000003d0: 8ac4 06be 0e95 8cbe ca16 86be 4287 aebe
000003e0: 3318 ae3e 2c2b 393e 799f 87bc 8496 97be
000003f0: 5e89 62be a320 92be 2dbc c43e ca76 2b3e

bias f4 [128]
0.1376965 -0.3672869 0.3028365 0.23057884 -0.33225742 0.19935039 -0.046793558 -0.11425915
0.22098808 0.08576514 -0.0065866746 -0.18356478 -0.25600934 0.18867493 0.4266224 -0.17496252
-0.35766834 -0.20772599 0.32756782 -0.29214555 -0.10973993 -0.029864222 0.35762075 0.28240725
0.35860062 -0.37092406 0.0053744265 -0.06764121 0.2502018 0.305381 -0.1585517 0.39924517
-0.33735827 -0.08433323 0.16222973 0.4024456 -0.10964052 0.28991568 0.30739924 0.101862855
-0.14107476 0.22763224 -0.11400431 0.40284234 0.21124409 0.29547703 -0.19917662 0.39731777
-0.2748245 0.032144874 0.06603853 -0.2598352 -0.2338833 0.3124118 0.39005512 0.24428661
-0.033279825 0.17392552 0.26087677 0.12284185 0.049736064 0.1552326 -0.37534797 -0.21551798
-0.13484608 -0.08206644 -0.29856592 0.042118885 0.21668135 -0.33760697 -0.071936324 -0.14383039
-0.13890643 -0.22130032 0.3499239 0.20255454 -0.3276172 -0.08617747 0.2938672 -0.007194988
0.32047942 0.44722107 -0.37745902 0.40175453 0.3845816 0.24504684 -0.2770412 0.17126364
-0.25310528 -0.113818325 0.25242546 0.23802711 0.004608668 0.43737975 0.39693615 -0.01486967
-0.19604573 -0.27918848 -0.25013825 0.17417851 0.012870809 0.12034474 0.27698407 0.25436383
0.07711063 0.3720979 0.23720095 -0.34961593 0.30457136 0.28941864 -0.18330774 0.35003546
0.29073933 -0.26251552 0.29460022 0.4523648 -0.19380724 0.23444416 -0.019626673 0.13768938
0.36284736 -0.24464162 0.33188403 -0.22454916 0.14373171 0.1718606 0.3387826 -0.17375284
00000000: 5000 0d3e 070d bcbe 630d 9b3e dc1c 6c3e
00000010: a51d aabe 8222 4c3e 9aaa 3fbd b400 eabd
00000020: b34a 623e a2a5 af3d 08d5 d7bb 68f8 3bbe
00000030: a813 83be 0034 413e 406e da3e 6029 33be
00000040: 4e20 b7be 1fb6 54be f8b6 a73e 1a94 95be
00000050: 54bf e0bd d0a5 f4bc 111a b73e af97 903e
00000060: 809a b73e c2e9 bdbe f51b b03b 7a87 8abd
00000070: 731a 803e e65a 9c3e 605b 22be dd69 cc3e
00000080: 39ba acbe e7b6 acbd 8d1f 263e 5a0d ce3e
00000090: 358b e0bd d46f 943e 6f63 9d3e 799d d03d
000000a0: e775 10be 6d18 693e 177b e9bd 5a41 ce3e
000000b0: 5f50 583e c448 973e f5f4 4bbe 3c6d cb3e
000000c0: ccb5 8cbe 58aa 033d 353f 873d 1f09 85be
000000d0: 1b7f 6fbe 70f4 9f3e 4eb5 c73e 4526 7a3e
000000e0: 6d50 08bd 8819 323e a491 853e 8294 fb3d
000000f0: 0bb8 4b3d 4bf5 1e3e 9c2d c0be bfb0 5cbe
00000100: 1715 0abe 7312 a8bd a2dd 98be da84 2c3d
00000110: b7e1 5d3e d2da acbe 5a53 93bd 4648 13be
00000120: 7d3d 0ebe 8d9c 62be 3a29 b33e 756a 4f3e
00000130: 71bd a7be d07d b0bd c375 963e efc3 ebbb
00000140: e115 a43e 29fa e43e 4f42 c1be c5b2 cd3e
00000150: e1e7 c43e 8fed 7a3e 58d8 8dbe bc5f 2f3e
00000160: 0497 81be 9519 e9bd e93d 813e 61bd 733e
00000170: 4f04 973b 3df0 df3e 373b cb3e eb9f 73bc
00000180: 36c0 48be cbf1 8ebe 1f12 80be da5b 323e
00000190: 16e0 523c 4e77 f63d dbd0 8d3e fa3b 823e
000001a0: 2eec 9d3d 9e83 be3e cee4 723e dc00 b3be
000001b0: c7f0 9b3e ae2e 943e 06b5 3bbe d937 b33e
000001c0: c9db 943e 6f68 86be d7d5 963e 5c9c e73e
000001d0: 6875 46be 2112 703e 1ec8 a0bc 72fe 0c3e
000001e0: 21c7 b93e 5583 7abe b4ec a93e 37f0 65be
000001f0: 682e 133e 3afc 2f3e ea74 ad3e 44ec 31be

weight f4 [64, 128]
0.076615274 0.012154045 -0.05031871 0.046055306 -0.07733876 -0.033207837 -0.05750359 -0.0770296
-0.013530624 0.013322134 -0.0051865913 0.043725573 -0.056656446 0.038309187 0.019758126 -0.040260438
-0.06498225 0.05542517 -0.016424479 0.063923575 0.019646047 0.059972476 -0.056022823 0.019342138
-0.08529617 -0.087358855 0.07595658 -0.02144243 -0.059188716 -0.041601047 0.021274053 -0.034120023
-0.07959292 -0.009635559 0.06952405 0.04478544 0.039860908 0.043852456 -0.06868346 0.08272714
0.016490934 0.06405167 -0.016415512 0.007916779 -0.05780573 0.033449456 -0.00744994 0.061848275
-0.083405964 0.01829267 0.055794533 0.0012549751 -0.05608676 -0.07882831 -0.063244045 -0.072915964
0.061070096 0.077547416 -0.038273003 0.02692779 0.058046147 0.06641198 0.030237097 0.020347476
0.071173854 -0.06927402 0.058443 -0.0785165 0.072922915 0.027639018 0.04136553 0.083490744
-0.017098196 -0.0076454696 -0.04007587 0.007241271 -0.033788644 -0.015695887 -0.07989774 -0.07318428
0.032085437 -0.08347219 0.0070022983 0.01521321 -0.038216677 0.04327141 -0.047405235 -0.050318554
0.0837957 -0.00828213 0.08298641 0.07957998 0.055192973 -0.00011718931 -0.042378288 -0.054066997
-0.078040466 -0.030584428 -0.03300756 0.027114986 -0.03995461 0.035338845 -0.022839209 -0.06517425
0.076818496 -0.07042087 -0.0852486 0.042294066 -0.007957915 -0.06207669 0.047291543 0.027471589
0.019796006 -0.0015535855 -0.016726123 -0.06529691 -0.014383044 0.05682909 -0.0089121405 -0.0019379964
0.05599725 0.086060904 -0.038004264 -0.08661919 0.01738526 0.0067265104 -0.011291256 0.031925857
0.0047466876 -0.04793779 -0.053214245 -0.0028897289 -0.08200058 -0.029823637 0.05396182 -0.07213292
-0.06430989 -0.025676297 -0.006139179 -0.06387345 0.07205985 -0.03608937 0.02298669 -0.020406393
-0.006410683 -0.03630266 -0.091782674 -0.0006067671 0.017306756 0.011981544 -0.0664934 -0.0070039104
-0.07094152 -0.08110104 -0.0043723662 0.015585029 0.048548535 -0.079440184 -0.050856624 -0.06833339
-0.047258105 0.052301046 -0.013325211 -0.054005336 -0.075880334 -0.05236455 -0.024687003 0.034298137
-0.053823434 0.017682388 0.06490084 0.024022829 0.024435773 -0.08115087 0.0064510494 0.047349427
0.07235488 -0.0698979 0.079634786 0.0041125524 0.04972345 -0.048255526 0.054536484 0.062172987
-0.022708694 0.021530982 -0.0082151145 -0.08040273 0.012560479 0.058531947 -0.07380218 -0.078798994
0.07974625 0.08704986 0.008019734 -0.017404092 -0.0014799186 -0.07522558 -1.4856764e-05 0.08417307
0.04003959 0.006141628 0.07560719 0.06336606 0.060514666 0.05842528 0.046944004 0.006843305
-0.06648066 -0.04217817 0.018580722 0.061376635 0.005745172 -0.033745136 0.071306996 -0.030910885
-0.05768608 0.0028961627 0.041169625 -0.05197863 0.037081506 -0.09658917 0.049809616 0.0763866
0.0722095 -0.054520555 0.058931883 0.030708192 -0.08128449 -0.008419149 0.06576884 -0.054164957
-0.092094965 -0.02390745 0.07105175 0.024654347 -0.013142668 -0.081843294 0.05947147 -0.043460965
0.069472685 -0.0051085036 0.008875442 -0.02623382 -0.005181892 0.082 0.010014118 0.03595226
0.071049474 0.054371394 0.056530923 0.038494382 0.058088806 0.04795337 -0.098554984 -0.015101449
00000000: 78e8 9c3d c221 473c fe1a 4ebd 7da4 3c3d
00000010: c963 9ebd f104 08bd e288 6bbd b2c1 9dbd
00000020: 8daf 5dbc 1445 5a3c 48f4 a9bb 9619 333d
00000030: 9710 68bd 18ea 1c3d cbdb a13c 21e8 24bd
00000040: 6a15 85bd 8105 633d a18c 86bc 5dea 823d
00000050: bff0 a03c b3a5 753d 3078 65bd 6773 9e3c
00000060: c2af aebd 33e9 b2bd 208f 9b3d 09a8 afbc
00000070: de6f 72bd dc65 2abd ec46 ae3c 70c1 0bbd
00000080: 9d01 a3bd 77de 1dbc a062 8e3d f070 373d
00000090: 3145 233d a29e 333d eaa9 8cbd d96c a93d
000000a0: ff17 873c 862d 833d d379 86bc 61b5 013c
000000b0: b3c5 6cbd 4c02 093d a01e f4bb 9e54 7d3d
000000c0: bfd0 aabd 82da 953c cf88 643d fa7d a43a
000000d0: 3bbb 65bd bd70 a1bd 1886 81bd f754 95bd
000000e0: a324 7a3d 2ed1 9e3d 27c4 1cbd ab97 dc3c
000000f0: ccc1 6d3d 0103 883d cab3 f73c c0af a63c
00000100: 99c3 913d 8adf 8dbd ed61 6f3d 42cd a0bd
00000110: 9c58 953d 396b e23c e76e 293d 32fd aa3d
00000120: 8411 8cbc d986 fabb 9826 24bd 2f48 ed3b
00000130: f665 0abd a994 80bc 6da1 a3bd a4e1 95bd
00000140: 056c 033d 78f3 aabd 8973 e53b d440 793c
00000150: 1789 1cbd 5d3d 313d fe2b 42bd d41a 4ebd
00000160: 149d ab3d c5b1 07bc c7f4 a93d d4fa a23d
00000170: 0712 623d 88c3 f5b8 db94 2dbd 5b75 5dbd
00000180: aed3 9fbd 328c fabc ef32 07bd 3f20 de3c
00000190: 72a7 23bd 77bf 103d 4b19 bbbc 147a 85bd
000001a0: 0453 9d3d d138 90bd d196 aebd 8b3c 2d3d
000001b0: ea61 02bc 2144 7ebd c7b4 413d 190c e13c
000001c0: 3c2b a23c aea1 cbba 3905 89bc 63ba 85bd
000001d0: dca6 6bbc 9fc5 683d 3a04 12bc 5e04 feba
000001e0: 5f5d 653d b340 b03d 5caa 1bbd 6765 b1bd
000001f0: 886b 8e3c 0f6a dc3b f6fe 38bc b0c4 023d
00000200: 1a8a 9b3b 6b5a 44bd 2ef7 59bd 9b61 3dbb
00000210: ecef a7bd b350 f4bc 1207 5d3d 6dba 93bd
00000220: e7b4 83bd 1957 d2bc 2b2b c9bb 15d0 82bd
00000230: 1d94 933d 72d2 13bd 954e bc3c 4f2b a7bc
00000240: b510 d2bb 19b2 14bd 8ef8 bbbd 730f 1fba
00000250: e6c6 8d3c 3d4e 443c b12d 88bd 0f81 e5bb
00000260: ca49 91bd 4d18 a6bd 1146 8fbb 5958 7f3c
00000270: d4da 463d 89b1 a2bd 094f 50bd 60f2 8bbd
00000280: b791 41bd 9f39 563d fc51 5abc b334 5dbd
00000290: 2667 9bbd 367c 56bd 663c cabc 347c 0c3d
000002a0: f675 5cbd a8da 903c bbea 843d 86cb c43c
000002b0: 882d c83c 6d32 a6bd 5363 d33b 79f1 413d
000002c0: cc2e 943d a126 8fbd 9017 a33d 97c2 863b
000002d0: d1aa 4b3d 96a7 45bd a661 5f3d 1aa9 7e3d
000002e0: 9507 babc be61 b03c b098 06bc 30aa a4bd
000002f0: 78ca 4d3c 32bf 6f3d 9925 97bd 5e61 a1bd
00000300: 0052 a33d 3247 b23d 3465 033c 0793 8ebc
00000310: d4f9 c1ba de0f 9abd 5141 79b7 ee62 ac3d
00000320: 8e00 243d b63f c93b f1d7 9a3d 11c6 813d
00000330: 3ade 773d 594f 6f3d 5b48 403d ce3d e03b
00000340: 0327 88bd 04c3 2cbd 9936 983c 1166 7b3d
00000350: ff41 bc3b 5738 0abd 6709 923d d338 fdbc
00000360: 3d48 6cbd 8ccd 3d3b 7ba1 283d 8be7 54bd
00000370: c7e2 173d 8bd0 c5bd 2b05 4c3d 9470 9c3d
00000380: 93e2 933d f250 5fbd 8f62 713d bf8f fb3c
00000390: 7c78 a6bd 78f0 09bc d0b1 863d 13dc 5dbd
000003a0: 499c bcbd 8ed9 c3bc 9483 913d eaf7 c93c
000003b0: 5854 57bc 759d a7bd 5b98 733d 2004 32bd
000003c0: b247 8e3d 3c65 a7bb 4d6a 113c 4fe8 d6bc
000003d0: dccc a9bb 9eef a73d 4112 243c ad42 133d
000003e0: 6382 913d 8ab4 5e3d f88c 673d 49ac 1d3d
000003f0: 87ee 6d3d c16a 443d 32d7 c9bd 116c 77bc

bias f4 [64]
0.003037323 0.075376086 -0.012125808 0.015355069 0.0133224595 0.014681695 0.06832653 0.016848914
0.020369641 0.02375766 0.054451436 0.013998097 0.0005390338 -0.0381936 -0.009174189 -0.0757275
0.008698289 0.13739964 -0.009939902 0.078047484 0.084086426 -0.06687973 0.081256375 -0.0789086
0.075589634 -0.025462428 0.07825838 0.06563176 0.03403973 0.047082596 -0.061444882 0.06949865
0.037777305 0.086511955 0.10687764 0.025862413 -0.041527048 0.060853988 0.11109711 -0.061151978
-0.0001349923 -0.011953946 0.059479974 0.06440557 0.013888712 0.098919086 -0.027220773 0.023095155
-0.0181779 0.0443088 0.054842077 0.04104633 0.05956401 0.13125262 -0.037417874 0.10121132
0.10434893 -0.051026337 -0.023886189 -0.08375714 0.07241776 0.045145705 -0.04558 0.13889927
00000000: d30d 473b c75e 9a3d 53ab 46bc d493 7b3c
00000010: 7246 5a3c 7e8b 703c c8ee 8b3d bc06 8a3c
00000020: 3cde a63c 6d9f c23c 7808 5f3d 4658 653c
00000030: f24d 0d3a e470 1cbd 564f 16bc 0517 9bbd
00000040: 4583 0e3c 7eb2 0c3e f9da 22bc 5cd7 9f3d
00000050: 8135 ac3d 3df8 88bd be69 a63d d59a a1bd
00000060: bdce 9a3d 9596 d0bc ee45 a03d f269 863d
00000070: 3e6d 0b3d aed9 403d a1ad 7bbd 4f55 8e3d
00000080: 60bc 1a3d 2e2d b13d aae2 da3d 69dd d33c
00000090: 4418 2abd 0842 793d e286 e33d 7f7a 7abd
000000a0: b88c 0db9 7cda 43bc 46a1 733d 11e7 833d
000000b0: 7b8d 633c 1796 ca3d 19fe debc 0d32 bd3c
000000c0: d2e9 94bc 257d 353d 16a2 603d 3220 283d
000000d0: 64f9 733d 1667 063e 7c43 19bd e147 cf3d
000000e0: e4b4 d53d fe00 51bd f8ac c3bc dd88 abbd
000000f0: c34f 943d b4ea 383d 18b2 3abd 9c3b 0e3e

weight f4 [32, 64]
-0.124291375 -0.005730137 0.0341781 -0.08423408 0.003586267 0.012648397 -0.06727856 -0.023546495
-0.037420392 0.11383025 -0.0016328964 0.11312532 -0.031392574 -0.0744828 0.080491304 -0.034346104
0.09149095 0.059216358 -0.015687376 0.046534155 -0.01899378 0.0739283 0.032207437 -0.03493999
-0.058298927 0.061937645 -0.099597245 0.121668756 0.096701205 0.05086784 -0.08278388 0.0067480505
0.06619815 0.04441762 0.041097205 0.040442556 0.013617352 -0.012291103 -0.08597618 0.060742006
-0.12498236 0.034054186 -0.11533243 -0.12362402 -0.05211617 -0.015606415 0.04867649 0.04631053
-0.12205808 0.107964344 -0.009117633 -0.05335796 0.022115096 -0.0063430513 0.07196716 -0.0066549373
-0.06732458 -0.08763139 0.09805195 -0.015668735 -0.02270848 -0.109933004 -0.08605565 -0.008692157
0.05935523 -0.077544354 0.17651068 -0.1320255 0.08972991 -0.102088496 -0.030482396 0.021404676
0.011448482 0.0015336933 0.027552584 -0.010687336 -0.10048693 0.23917969 0.008085027 0.07774529
0.011470902 0.088205114 0.119213775 0.15761404 0.016928725 -0.12492147 0.027233062 -0.0062372684
0.08486313 0.12384488 -0.0055156373 0.030227905 -0.04430386 0.25414515 0.026780164 -0.11578944
-0.08772546 -0.07133505 0.22312635 0.05564518 -0.07070243 0.086867586 0.046415925 -0.08632615
0.14082041 0.01830992 -0.030478887 -0.08217651 0.05937271 0.086699806 -0.041191712 0.07186497
-0.124868415 -0.14151771 -0.0743784 0.08414212 0.116136365 0.0101403 0.22203957 0.16919605
-0.089163296 0.074335515 -0.10376573 0.10792604 0.21407415 0.12806715 0.026309969 0.121354915
-0.05391021 0.008456715 -0.008135486 -0.11635885 0.058962435 -0.07595204 -0.031622224 0.12017785
0.02101087 -0.03833959 -0.12716909 0.11156465 0.10294952 0.13405964 0.03088054 0.115431964
0.15302105 0.11650959 -0.0834932 0.080746405 0.09361993 -0.15006405 0.18452339 -0.114038825
0.05124749 -0.06320253 0.050601613 0.023714792 0.011360068 0.088507086 0.105285734 -0.10706076
0.105342366 0.018033147 0.092295684 -0.08254203 0.06257594 0.041285437 -0.08609383 0.105732486
0.06498181 0.032268673 -0.054623973 0.010704731 -0.07986507 -0.11102668 0.06492084 -0.07120531
-0.053310797 -0.11941682 -0.1469746 -0.096781164 0.01472923 0.030174512 0.13689183 0.05787872
-0.09582853 -0.050903946 -0.078589365 -0.08408705 0.18096204 0.0048768795 0.15081145 0.09989512
0.1146428 -0.11800639 -0.072485425 0.0530379 0.0071625886 0.045641825 -0.120028555 -0.043207597
-0.0006572902 0.03815882 -0.1046668 0.08544 -0.08637886 -0.09787538 0.05530055 0.044802994
0.032457683 -0.027719961 0.11176363 0.06992427 -0.030784562 -0.035375103 -0.057186436 -0.08004382
-0.11444456 -0.005036831 -0.0574885 -0.074972 0.081019 0.025218802 0.05210628 -0.11037235
-0.042956334 -0.027240962 0.11991139 -0.10345897 0.0941761 0.048491497 0.09046362 -0.01738973
-0.06940331 0.074082166 0.09052045 0.028807249 -0.039734915 0.116543956 0.11434671 -0.09304394
0.03465928 0.03292954 -0.09216337 0.041232407 0.102171764 0.120915815 0.008428109 -0.12365836
-0.004600346 -0.09825431 0.06600897 -0.013385057 -0.065406956 -0.08124788 0.11777953 -0.12040863
00000000: 7a8c febd e0c3 bbbb 56fe 0b3d eb82 acbd
00000010: 9307 6b3b 393b 4f3c 57c9 89bd 94e4 c0bc
00000020: 2046 19bd d61f e93d e906 d6ba 3fae e73d
00000030: 8095 00bd 708a 98bd a0d8 a43d 80ae 0cbd
00000040: 9b5f bb3d da8c 723d d082 80bc 999a 3e3d
00000050: d898 9bbc b867 973d f2eb 033d 3c1d 0fbd
00000060: dbca 6ebd 54b2 7d3d a4f9 cbbd 782d f93d
00000070: 480b c63d cc5a 503d 988a a9bd c01e dd3b
00000080: e592 873d 40ef 353d 8b55 283d 18a7 253d
00000090: 501b 5f3c 9f60 49bc 4814 b0bd 9ccc 783d
000000a0: c0f6 ffbd 677c 0b3d 6933 ecbd 972e fdbd
000000b0: c477 55bd 0db2 7fbc 0061 473d 1cb0 3d3d
000000c0: 96f9 f9bd 691c dd3d 2062 15bc e08d 5abd
000000d0: b82a b53c 5fd9 cfbb 8563 933d a911 dabb
000000e0: 78e1 89bd 1678 b3bd 76cf c83d b85b 80bc
000000f0: 2207 babc 8e24 e1bd f23d b0bd 8d69 0ebc
00000100: 781e 733d 93cf 9ebd 37bf 343e b131 07be
00000110: 51c4 b73d c613 d1bd 38b6 f9bc dc58 af3c
00000120: 6a92 3b3c 3506 c93a f5b5 e13c f019 2fbc
00000130: 17cc cdbd 85eb 743e 1077 043c ec38 9f3d
00000140: 73f0 3b3c e2a4 b43d 5a26 f43d 9365 213e
00000150: 1cae 8a3c d4d6 ffbd df17 df3c 0062 ccbb
00000160: b8cc ad3d 62a2 fd3d 85bc b4bb 83a0 f73c
00000170: f777 35bd 501f 823e 1362 db3c 0423 edbd
00000180: 68a9 b3bd 1c18 92bd 3c7b 643e 33ec 633d
00000190: 70cc 90bd a2e7 b13d a01e 3e3d c4cb b0bd
000001a0: 3a33 103e affe 953c dcae f9bc 284c a8bd
000001b0: cc30 733d ab8f b13d a4b8 28bd f12d 933d
000001c0: 03bb ffbd 05ea 10be b453 98bd b452 ac3d
000001d0: e7d8 ed3d 8023 263c 575e 633e bb41 2d3e
000001e0: 3f9b b6bd 383d 983d 2183 d4bd 5408 dd3d
000001f0: 4136 5b3e 0924 033e 0188 d73c ed88 f83d
00000200: f4d0 5cbd 098e 0a3c b44a 05bc 8c4d eebd
00000210: 9882 713d be8c 9bbd 4e86 01bd ce1f f63d
00000220: fd1e ac3c f909 1dbd 9d38 02be 027c e43d
00000230: 33d7 d23d ee46 093e 30f9 fc3c 9867 ec3d
00000240: 8db1 1c3e 949c ee3d 7cfe aabd 5f5e a53d
00000250: cebb bf3d 64aa 19be b3f3 3c3e 308d e9bd
00000260: e3e8 513d 5470 81bd a343 4f3d 8645 c23c
00000270: 941f 3a3c 3443 b53d 0ca0 d73d ac42 dbbd
00000280: bdbd d73d 40ba 933c 8505 bd3d cc0b a9bd
00000290: d027 803d eb1a 293d f651 b0bd 468a d83d
000002a0: 2f15 853d 282c 043d 63bd 5fbd e562 2f3c
000002b0: 4c90 a3bd f561 e3bd 38f5 843d 17d4 91bd
000002c0: 6c5c 5abd ce90 f4bd 8280 16be 3435 c6bd
000002d0: de52 713c 8a30 f73c 5f2d 0c3e 3d12 6d3d
000002e0: c041 c4bd a880 50bd 76f3 a0bd d535 acbd
000002f0: 1d4e 393e 3bce 9f3b 516e 1a3e d095 cc3d
00000300: d8c9 ea3d 56ad f1bd 3d73 94bd 453e 593d
00000310: 26b4 ea3b ecf2 3a3d 88d1 f5bd 73fa 30bd
00000320: 004e 2cba 6c4c 1c3d 8c5b d6bd 2bfb ae3d
00000330: 66e7 b0bd e372 c8bd d482 623d 5883 373d
00000340: 59f2 043d f914 e3bc 54e4 e43d 7534 8f3d
00000350: e82f fcbc 7ce5 10bd 533c 6abd 04ee a3bd
00000360: e961 eabd 000c a5bb 1079 6bbd ec8a 99bd
00000370: 4aed a53d a997 ce3c 656d 553d e60a e2bd
00000380: fbf2 2fbd 7028 dfbc 1a94 f53d 4ce2 d3bd
00000390: 66df c03d 059f 463d fe44 b93d e874 8ebc
000003a0: 5323 8ebd 64b8 973d c962 b93d 2efd eb3c
000003b0: 14c1 22bd 99ae ee3d 9c2e ea3d d28d bebd
000003c0: e4f6 0d3d 20e1 063d 26c0 bcbd 50e3 283d
000003d0: 6e3f d13d b6a2 f73d 0d16 0a3c 9840 fdbd
000003e0: 80be 96bb 8e39 c9bd b62f 873d 004d 5bbc
000003f0: 15f4 85bd 4a65 a6bd 6536 f13d cd98 f6bd

bias f4 [32]
-0.06526103 -0.03609767 0.061431237 -0.027238522 -0.037644345 0.056440618 -0.0099152615 0.08089436
-0.028594539 -0.08095284 0.056440845 0.10866669 -0.09121339 -0.11454703 0.09372157 -0.09422386
0.042247392 0.0812118 0.09419953 -0.0685656 0.0054718275 0.06297966 0.012090832 0.036043946
0.03577873 0.122933455 0.036479276 0.020782191 0.15148616 0.04920799 0.14524323 -0.09531233
00000000: 93a7 85bd 27db 13bd 529f 7b3d 5223 dfbc
00000010: f530 1abd 472e 673d 9f73 22bc f1ab a53d
00000020: 183f eabc 9aca a5bd 842e 673d a48c de3d
00000030: 16ce babd a297 eabd 18f1 bf3d 70f8 c0bd
00000040: 9a0b 2d3d 5f52 a63d afeb c03d 1f6c 8cbd
00000050: 044d b33b 7bfb 803d a018 463c d1a2 133d
00000060: b88c 123d 89c4 fb3d 4b6b 153d 6a3f aa3c
00000070: 301f 1b3e 518e 493d a4ba 143e 1c33 c3bd

weight f4 [2, 32]
-0.03248817 0.115506634 -0.16133815 0.18649647 0.0018692549 -0.06357235 0.16659012 -0.14577785
0.21935487 0.101383455 -0.09762632 0.017144725 -0.13100153 -0.06187022 -0.109741546 -0.12499448
0.12842534 0.16034378 -0.084594354 -0.040279366 0.21553403 0.1406731 0.23731494 -0.031979002
-0.030542884 0.17936629 -0.048937175 -0.010161798 -0.079590306 0.04147041 0.12396264 0.10753396
0.20485595 0.1304279 -0.008731444 -0.2145753 0.03955981 0.029558722 -0.13151747 0.057548475
0.013343407 0.11371806 -0.05340731 0.17835242 -0.026461592 -0.074500866 -0.09180867 -0.08381059
0.13840649 -0.15342559 -0.11468413 -0.026912695 -0.10272148 -0.064527795 0.07943017 -0.10293389
-0.08661004 -0.20351365 0.05935809 -0.29290545 0.11868303 -0.13175511 0.0780371 -0.0853079
00000000: 5112 05bd be8e ec3d d435 25be eef8 3e3e
00000010: c901 f53a 3832 82bd 9a96 2a3e ca46 15be
00000020: 909e 603e 21a2 cf3d 4ff0 c7bd 1873 8c3c
00000030: 4425 06be a16b 7dbd 2dc0 e0bd 1bfd ffbd
00000040: ef81 033e 2931 243e ce3f adbd fafb 24bd
00000050: f4b4 5c3e 9c0c 103e b002 733e 6afc 02bd
00000060: 1235 fabc ccab 373e 5972 48bd ac7d 26bc
00000070: 3e00 a3bd e0dc 293d 20e0 fd3d c43a dc3d
00000080: c2c5 513e e48e 053e 550e 0fbc a1b9 5bbe
00000090: 7809 223d 2225 f23c 84ac 06be f3b7 6b3d
000000a0: 4e9e 5a3c 04e5 e83d a0c1 5abd 04a2 363e
000000b0: fbc5 d8bc e993 98bd 2f06 bcbd e3a4 abbd
000000c0: 6eba 0d3e 991b 1dbe 83df eabd 0378 dcbc
000000d0: a45f d2bd 2627 84bd 49ac a23d 01cf d2bd
000000e0: 9b60 b1bd e265 50be 7821 733d b4f7 95be
000000f0: 1710 f33d d0ea 06be ead1 9f3d e9b5 aebd

bias f4 [2]
-0.067506924 0.0193046
00000000: 1241 8abd ae24 9e3c
