2023/baseline0806/model/WLTP_trained_0822/PPO_actorcritic_57episode.pt (torch, 101527 bytes, 17 tensors)

weight f4 [128, 7]
000000 42 e7 71 be 1e 00 ab be 83 79 86 3e 43 78 d4 be
       -0.23623374 -0.33398527 0.2626458 -0.41498002
000010 42 1f 83 be 35 63 ca 3e e7 9e bb 3e 1e ce 25 bd
       -0.25609785 0.39528814 0.3664467 -0.04047977
000020 ac b0 39 be 07 fb ad 3d 21 fc 8e be 93 1b 0c be
       -0.18133801 0.08495145 -0.27926734 -0.13682394
000030 ee 79 b9 be b6 61 9a be 19 8c dd 3d 4d 63 14 be
       -0.36225837 -0.30152673 0.10817737 -0.14491005
000040 01 9f 2c be d1 79 4e 3d 53 eb 9a 3e 15 70 ca 3e
       -0.1685753 0.050409142 0.30257663 0.39538637
000050 a9 3b a6 3d 41 e2 96 be 48 18 7c be 1c f3 71 be
       0.08116848 -0.29469493 -0.24618638 -0.23627895
000060 6c fb bf bd 24 72 49 be 5e db 90 3e 71 3d d3 3e
       -0.09374127 -0.19672447 0.28292364 0.41257814
000070 07 1e df 3d 74 e7 3b be cf 16 c5 be 71 b6 a9 3d
       0.10894399 -0.18350011 -0.38493964 0.08286751
000080 5a c0 42 3d 47 94 45 3e 10 b9 cf bb d8 a9 ef bc
       0.047546722 0.19294845 -0.0063392 -0.029255792
000090 9b b6 cd bd fb f4 71 be 65 c9 9b bd bc 59 59 3e
       -0.10044595 -0.23628609 -0.07606772 0.21225637
0000a0 69 91 1f 3e 0e 8c ae 3e 94 a8 ad be 0c e3 81 be
       0.15582813 0.34091228 -0.33917677 -0.25368536
0000b0 9a 09 ad be f4 85 42 3c 75 50 8d be c1 60 15 be
       -0.33796388 0.011872757 -0.27600446 -0.1458769
0000c0 7b c1 9a bb 04 2f bf 3d ee d5 ae be c9 e8 b6 3e
       -0.0047227717 0.093351394 -0.3414759 0.35724476
0000d0 db d9 9b 3e 3c ea 7d 3e ce 3c be be d2 04 a9 bc
       0.30439648 0.24796385 -0.37155765 -0.020632181
0000e0 38 7d dc 3e a0 7c 32 bd 37 53 8e be 17 1f 46 bc
       0.43064284 -0.043575883 -0.27797863 -0.012092373
0000f0 24 de 06 3f df bf 80 be f0 26 cb 3c 07 f8 ad 3e
       0.5268271 -0.25146386 0.02479884 0.33978292
000100 6e e9 6f be b2 42 b7 be e6 26 cd be 11 f7 34 be
       -0.2342889 -0.35793072 -0.4006874 -0.17672373
000110 0d 5a bc 3e 32 a8 a4 3e 75 bd 9c 3e 17 8e 83 3e
       0.36787453 0.32159573 0.30613294 0.25694343
000120 85 d1 96 3d c8 f4 1e 3e 91 42 b2 be 45 aa 1d 3d
       0.073641814 0.15523064 -0.3481641 0.03849246
000130 5d 39 80 3d c2 c8 93 ba 37 a0 dc 3e 52 f4 49 3e
       0.06260941 -0.001127504 0.43090984 0.19722107
000140 62 4d b9 bd 9b b7 64 3e 36 83 35 bd 85 ad ab bd
       -0.09047963 0.22335665 -0.044314586 -0.083827056
000150 4a c4 7d be d7 07 a0 be be 43 88 3e 97 ca bc be
       -0.2478191 -0.3125598 0.26614183 -0.36873314
000160 b5 f0 66 3e bd 1b 0c be 78 14 65 3e e5 c2 7e 3e
       0.2255276 -0.13682456 0.2237109 0.24879034
000170 ad bd 38 3e 0b 90 9e 3e c7 fc 05 3d f2 c0 31 be
       0.18041106 0.3096927 0.03271177 -0.17358759
000180 69 c4 0e be aa 03 8f be e3 89 a6 bc e0 a8 d8 3c
       -0.13942112 -0.27932483 -0.020329421 0.026447713
000190 ab a6 d7 3d 7d c3 f8 3c aa 6b 2e bd 45 ee 2e 3e
       0.10529836 0.030366654 -0.042583145 0.1708308
0001a0 d2 76 6d be 62 a5 4f 3e a2 90 84 be 47 f6 0b bc
       -0.23189858 0.20277932 -0.25891596 -0.008542604
0001b0 14 ed 34 3e 73 c8 27 bd a4 a9 98 3e a9 17 7d be
       0.17668563 -0.040962648 0.29816926 -0.24716057
0001c0 62 63 49 be 19 7e b3 be f5 cd 64 be a1 96 8d 3e
       -0.19666818 -0.35057142 -0.22344191 0.27653983
0001d0 0d b6 cd 3d 09 5d 01 be 60 a1 17 3d 2b c4 15 be
       0.10044489 -0.12633146 0.037019134 -0.14625613
0001e0 ad dc 06 3f 1e d6 95 bd c7 9e f6 3e 36 d4 82 be
       0.52680475 -0.0731623 0.48168012 -0.2555253
0001f0 00 16 01 be ba 1d 42 be c6 e7 bd 3e 0c 7c 24 be
       -0.12606049 -0.18956652 0.37090892 -0.16062945
000200 79 e9 74 3d ed 64 c8 be a6 30 a2 be b3 24 7d be
       0.05979297 -0.391395 -0.3167774 -0.24721031
000210 17 df 75 be a0 c3 20 be a4 49 94 be 38 96 c5 bc
       -0.24010883 -0.15699625 -0.28962433 -0.024119481
000220 bf 44 85 be 93 47 e6 3d 3c 4d a3 bd b2 65 88 bd
       -0.26029012 0.112441204 -0.07973716 -0.06660022
000230 68 22 b1 3e a9 76 39 be 89 e8 ea 3d a4 3b 61 3c
       0.34596562 -0.18111672 0.11470134 0.01374713
000240 36 f2 2f 3b b2 d5 b5 3e ea 9f ac 3e 09 f1 bd bd
       0.002684725 0.355146 0.33715755 -0.092744894
000250 f9 bf 52 3c 9d ef a1 bd 73 1a f3 bd cc de 45 3c
       0.012863153 -0.07907031 -0.11870279 0.012077045
000260 bf c8 53 be f2 f8 91 3d 10 ca af be 3a 2f 01 3d
       -0.20682047 0.07127561 -0.3433385 0.03153918
000270 ea b6 76 3e a1 ec f1 bd 20 fd a3 bc 4f 57 14 be
       0.24093214 -0.118127115 -0.02001816 -0.1448643
000280 84 de 89 3e d6 78 93 3e 01 b7 0c be f7 ba 4b 3e
       0.26927578 0.28803128 -0.13741685 0.1989554
000290 eb a1 68 3e d5 b9 df 3c 1a ff b3 3e b4 6d d3 3e
       0.22718017 0.027310291 0.35155565 0.41294634
0002a0 e8 3c c5 3e 4d eb 9c be f0 c7 6d 3d 0f 16 ba be
       0.3852303 -0.3064827 0.058052003 -0.36344954
0002b0 9d 42 9d 3e 97 d9 b9 bd 97 57 9b 3e c5 d3 64 3d
       0.30714884 -0.09074705 0.30340263 0.05586602
0002c0 0d 46 33 3d 20 20 b3 be c9 5e d8 bd 90 23 21 bd
       0.043767978 -0.34985447 -0.10564954 -0.039340556
0002d0 5d 38 22 3e fa 3b 3f be 6a ed 74 3e f6 bd d2 be
       0.15841813 -0.18675223 0.23918691 -0.41160554
0002e0 53 20 8a 3e 85 68 8f be 3b c5 3b be d5 39 83 3e
       0.26977786 -0.2800943 -0.18336956 0.2563006
0002f0 fb e6 32 3e 4a 44 a7 3e c4 fb 23 3d 9b 99 1c 3e
       0.17470925 0.32669288 0.040035024 0.15292971
000300 79 66 47 3e d2 82 81 3e a0 27 0b be cf f3 93 3e
       0.19472684 0.2529512 -0.13589334 0.2889695
000310 bf 66 ac 3c 49 78 c3 3e 91 6e 0b bd 8e 5c 9f 3e
       0.021045087 0.38177708 -0.03404099 0.311253
000320 5a ee 75 be 23 bc ad bd 48 d2 5e 3e d0 4b 94 3e
       -0.24016705 -0.0848315 0.21759903 0.2896409
000330 d1 1c b4 bc 23 c1 12 3e 17 25 82 be c8 19 12 3e
       -0.021986397 0.14331488 -0.25418922 0.14267647
000340 99 08 bf 3e 92 69 34 3e 63 52 d0 bd 6b 40 8a be
       0.37311247 0.17618397 -0.10171964 -0.27002272
000350 16 d8 b4 bd ad e3 8a 3d cc 68 8c be aa 2b 78 3e
       -0.088302776 0.06781707 -0.27423704 0.24235407
000360 89 f8 99 3e be 21 3b 3e 93 e9 60 be 17 0a fe 3d
       0.3007243 0.1827459 -0.21964101 0.12404268
000370 e2 8f 17 be 56 55 6d 3e 34 72 bc 3e 1d 93 82 3e
       -0.1480098 0.23177084 0.3680588 0.25502864
000380 90 af bf 3d 5d 69 90 be d3 82 e5 bd 4a ab 98 3e
       0.09359658 -0.28205386 -0.11206593 0.29818183
000390 a4 c9 92 3e 47 43 29 be a8 06 2d bc 4f 60 67 3e
       0.28669465 -0.1652957 -0.010560669 0.22595333
0003a0 61 d2 6f 3d 0b 57 98 3d a5 ce ab 3e 4c 1a 26 3e
       0.058550242 0.07438477 0.33556095 0.16220969
0003b0 9d 03 70 be 59 1d aa 3e 8b 92 16 3e 30 9e 98 be
       -0.23438878 0.33225515 0.14704339 -0.29808187
0003c0 1f ec 23 be c3 d9 37 be 64 66 9b 3e d1 f2 3b be
       -0.16008042 -0.17954163 0.30351555 -0.18354346
0003d0 4f dc 79 3d b9 d4 f8 3d 43 80 c6 3d 86 47 7f 3e
       0.06100112 0.121499486 0.09692433 0.24929628
0003e0 92 f4 b8 bd 50 c5 c4 3d 39 a4 6a be 3d 16 9d 3e
       -0.09031023 0.09607947 -0.22914208 0.3068103
0003f0 cb 9e 57 be 5d 28 90 3e ae 87 53 3d 38 d0 90 3e
       -0.21056668 0.28155795 0.051643066 0.28283858

bias f4 [128]
000000 9b 19 38 be f0 48 74 be 2e 0f 48 3e c9 0a d3 3e
       -0.17978518 -0.23855948 0.1953704 0.41219166
000010 c6 32 79 3d 4c 36 0a be 23 db d1 bd 70 fb bc 3d
       0.060839437 -0.13497275 -0.10246875 0.092276454
000020 6e 5f d2 ba 43 0f c8 3e 6d 37 97 3e 97 b1 86 3d
       -0.0016050169 0.39074144 0.29534474 0.06576841
000030 cb 75 c3 3d 10 0c 58 3e df 26 90 3d 80 25 17 be
       0.095439516 0.21098351 0.07038664 -0.14760399
000040 5c 69 4c be 33 f4 46 3e 76 f8 b6 3e 1c 15 47 3e
       -0.19962066 0.19429092 0.35736436 0.19441646
000050 f4 a1 8a bd 7e f2 9a be cd ea 58 3e 23 7f 48 be
       -0.06769171 -0.30263132 0.2118332 -0.19579749
000060 f4 3a 8b bd 02 0c 91 be b1 a9 bb bd 37 aa 8b 3d
       -0.06798354 -0.28329474 -0.091632254 0.06819575
000070 8f 40 94 be 29 22 b3 be 26 8b 91 3e 10 5a d5 3a
       -0.28955504 -0.34987 0.28426474 0.0016277451
000080 2f 71 9b 3e c2 d4 80 3d 34 c6 98 3e c7 88 78 be
       0.3035979 0.0629058 0.29838717 -0.24270926
000090 30 3c 94 be 5e f7 cf bd 3d 62 52 be 13 f4 36 bd
       -0.2895217 -0.101546034 -0.20545287 -0.04466636
0000a0 c2 ea 45 be 23 1a cd be da 7f cb ba a5 0f 8f bd
       -0.19327834 -0.40059003 -0.0015525774 -0.06985406
0000b0 a2 46 92 be ff e6 d7 bc d6 8f 93 be c8 9f 5c 3e
       -0.28569514 -0.026355265 -0.28820676 0.21545327
0000c0 38 0c 82 be 4e 6d d7 bd be 9b 60 3e a1 db c2 3e
       -0.25399947 -0.10518895 0.21934411 0.3805819
0000d0 46 6b b7 3c 90 e5 a3 be 7b 70 14 be 3f c3 57 3e
       0.02239002 -0.3201108 -0.14496033 0.21070574
0000e0 e3 78 97 3e a8 c3 79 3e 8b ce 8c bd 4c 82 b3 be
       0.29584417 0.24391043 -0.068753324 -0.35060346
0000f0 f2 42 aa be 86 58 06 3e f1 e0 d3 3b ab 7d 90 3e
       -0.332542 0.13119707 0.006466024 0.28220877
000100 f2 9d 96 3e 6c d3 46 be 4f f3 b5 be a5 da 5a be
       0.29417378 -0.19416589 -0.35537192 -0.21372469
000110 61 4f c1 3e bf 65 be 3d fa 71 df 3d c3 4c e4 bc
       0.37755874 0.0929675 0.10910411 -0.027868634
000120 d0 13 7c be 82 ad a1 3e 0e 59 95 3d 22 a6 80 bd
       -0.24616933 0.31577688 0.072923765 -0.06281687
000130 2d 67 18 3e 84 1b 95 3e 25 67 c8 bd 5b 2d 97 3e
       0.14883108 0.29122555 -0.09785298 0.2952679
000140 cd 5c 97 3e 32 2b 94 3e aa 23 2f 3e 6b 32 84 be
       0.2956299 0.28939205 0.17103449 -0.25819716
000150 2a ff 0a be 3f 8e f5 bd 3c c4 9b be a9 f1 56 be
       -0.135739 -0.11990022 -0.30423152 -0.20990624
000160 5f a5 ac be 03 61 1b be 02 47 be 3e 41 14 8c 3e
       -0.33719918 -0.15173726 0.3716355 0.27359203
000170 ff 8e b4 3e 8b 7f d1 3e ca af c1 3d be 00 99 be
       0.35265347 0.4091762 0.09457357 -0.2988338
000180 e8 35 01 3e 73 79 88 3e 5c 1c 03 3e 87 6f a7 be
       0.1261822 0.26655158 0.12803787 -0.32702276
000190 9f 47 ca 3e 2f 6c 8d 3e 63 4c 42 3e f1 56 b6 3e
       0.39507768 0.276216 0.18974452 0.35613206
0001a0 68 9f 55 be 4a 7e c0 3c ff f8 ad 3d 2d e7 1b be
       -0.2086159 0.02349772 0.08494758 -0.15224905
0001b0 01 c1 23 be 7d 07 e0 3d 40 3b 6f 3d bd 75 80 be
       -0.15991594 0.10938928 0.058406115 -0.25089827
0001c0 64 eb ac be 19 05 38 bb 3e 46 9e 3e 51 39 cc 3c
       -0.3377334 -0.002807921 0.30912966 0.024929674
0001d0 80 a3 16 be b7 c7 57 3e 3e 62 85 3e 8a 8d 1c be
       -0.14710808 0.21072279 0.26051515 -0.15288368
0001e0 58 04 84 3e ab 66 bf bd 17 77 1b be b8 23 78 3e
       0.25784564 -0.09345754 -0.15182148 0.24232376
0001f0 e0 04 41 3e 9a 75 6c be ad d8 a1 3e 2a 18 8b be
       0.18849516 -0.23091736 0.31610623 -0.27166873

weight f4 [64, 128]
000000 fe f1 e2 bc fd f6 ac 3d 9a e1 0d 3b 69 62 3f 3d
       -0.027703281 0.08445547 0.0021649362 0.04672471
000010 e7 fe 78 3d 7f 63 73 bd 81 3d ae 3d be 79 c4 bc
       0.06078997 -0.05942106 0.08507825 -0.023983832
000020 d5 e8 a2 bd 3d 83 6d bd 1b 1c 4a 3c 66 64 b4 3d
       -0.079545654 -0.057986487 0.012335802 0.08808212
000030 54 74 b3 bc 9e 49 b3 3c 74 2a a5 bd 09 d1 87 3c
       -0.021906056 0.02188569 -0.08064738 0.016579168
000040 70 87 5e 3c 9d 18 93 bd bb a4 e8 bc 8a 06 0b bd
       0.0135820955 -0.07182429 -0.028398862 -0.033941783
000050 44 79 16 bd 35 71 89 3d 24 74 03 bc 58 96 60 bd
       -0.03673674 0.06711046 -0.008023296 -0.05483088
000060 88 38 bc 3c f2 71 28 3d bb e9 09 3d 90 ad fa 3b
       0.022976175 0.04112429 0.03367017 0.007650085
000070 88 cb 29 bc d8 c4 88 bd 9d 64 6d bd 8c c4 6d 3d
       -0.010363467 -0.0667817 -0.05795728 0.05804877
000080 ed 73 9e 3d 42 42 ee bc a7 0b 2f bb 69 c5 82 bd
       0.07736955 -0.029084329 -0.0026709826 -0.06385309
000090 40 cb 3d bb a0 50 a0 bd 10 16 b1 3d d5 3e c8 3c
       -0.0028960258 -0.07827878 0.08646786 0.024444023
0000a0 24 22 ca bc 15 3b 9d 3c aa 78 78 3d cb 75 ae 3c
       -0.024674483 0.019193212 0.06066195 0.021296402
0000b0 76 c3 a9 3d 98 4f 13 bd b6 c9 55 bc 84 db 9b bd
       0.08289234 -0.03596458 -0.01304858 -0.07610229
0000c0 7b b4 9a 3d a6 d4 9e bd bb b6 44 ba 97 b9 6c bd
       0.07553955 -0.07755403 -0.00075040356 -0.05779418
0000d0 5a fd 1a bd 59 d6 71 3d 3c e3 d9 bc 63 52 9f 3d
       -0.03783927 0.05904231 -0.026597612 0.07779386
0000e0 3c 65 1a 3d 4c c6 7b bd 63 53 ed bc 3b 73 6d bd
       0.0376942 -0.061468408 -0.028970426 -0.05797122
0000f0 d8 49 90 bd 84 5c a9 bb 97 a9 6f bd 07 4e 86 bd
       -0.070453346 -0.0051684994 -0.058511343 -0.06557851
000100 d2 df 37 bd 1f e0 aa 3d 65 a6 99 3d b7 38 58 3d
       -0.044891186 0.08343529 0.0750244 0.052788462
000110 72 c8 2a 3d 33 ca 20 3d 12 50 15 bb 4a c0 8c 3d
       0.041695066 0.039255332 -0.0022783321 0.06872614
000120 cb f5 64 3d 52 86 54 3d 49 38 73 3c 03 db ad bd
       0.05589847 0.05188591 0.014844962 -0.08489039
000130 9b a2 82 bd 3f 73 9a 3c 7f 84 92 bd f0 89 86 bd
       -0.06378671 0.018853782 -0.07154178 -0.06569278
000140 52 fc 10 3d dc d1 30 bd 65 3d 89 bd 8c 7f eb bc
       0.03539688 -0.043168887 -0.06701163 -0.028747343
000150 56 e8 96 bb 14 26 cd bc eb 99 22 bd 8d 1a 7a 3d
       -0.0046053333 -0.025042571 -0.03969757 0.061060477
000160 01 83 f2 3c 76 74 aa 3d c0 bb 0f bd 0c a5 ac 3c
       0.029603483 0.083229944 -0.03509116 0.021074794
000170 a0 d4 0e bd cf 11 9f 3d da 02 35 3d 32 03 aa bc
       -0.034870744 0.077670686 0.044192173 -0.020753477
000180 d3 b4 ef 3c 3a d5 b3 3c 5d 5e 16 bb c4 8f 52 bd
       0.029261028 0.02195226 -0.0022944428 -0.051406637
000190 e0 93 b5 3b 8d 6f de 3c 21 a7 bc bb d0 e7 00 3d
       0.0055413097 0.027152801 -0.005757228 0.031471074
0001a0 96 88 41 3d e7 0c 6e 3d fa 9c 8f bc 5f 4f 8b bc
       0.0472494 0.058117773 -0.017530907 -0.01700562
0001b0 04 4b 4f 3d f2 ca 90 bd c3 bd a7 3d f7 f9 c5 3c
       0.05060865 -0.07069959 0.08190491 0.024167044
0001c0 a4 4f c5 3c 0d 7e 03 3d aa c2 61 bd 5a 30 96 bd
       0.024085827 0.032102633 -0.055117287 -0.07333441
0001d0 52 ce 37 bd e8 cb 9d 3c fd 42 95 3a 49 20 52 bd
       -0.044874497 0.01926227 0.0011387762 -0.05130032
0001e0 a9 2d 03 bd 4d e0 8e 3d 5e 71 33 3c 69 50 70 bc
       -0.032025967 0.06976376 0.010952322 -0.014667609
0001f0 e0 4e 13 bd 16 77 5e bd 98 b5 93 bd db f3 6b 3d
       -0.035963893 -0.054312788 -0.07212371 0.057605606
000200 61 cc 58 3d 19 4e ab 3d a5 a6 78 bd 44 46 b5 bc
       0.052929286 0.08364505 -0.0607058 -0.022128232
000210 f8 26 14 bd 61 51 09 3b 1c d9 47 bd 6e da b5 3c
       -0.036169976 0.0020953047 -0.048791036 0.022198882
000220 78 97 36 3b 7e b0 24 3d bd b8 94 bc 8d 1f 27 bd
       0.0027861279 0.04020738 -0.018154496 -0.040801574
000230 54 e1 3c bc 93 21 1e bd ad 60 d6 bb f9 2e 8c bc
       -0.011528332 -0.038606238 -0.0065422864 -0.017112242
000240 a1 b7 2a 3d dc c1 19 3d 08 72 82 bd b6 37 de 3c
       0.04167903 0.037538394 -0.06369406 0.027126174
000250 65 10 97 3d 77 b9 b1 3d e3 da 99 bc a8 34 fb 3c
       0.07376174 0.08677953 -0.018781131 0.030664757
000260 75 d5 61 bd 9a 33 77 3d 9e 3a a9 3b 00 4c 49 3d
       -0.05513521 0.060351945 0.0051644584 0.049144745
000270 e4 30 7e 3d d1 7b 3b bd 69 f6 84 3d 93 13 00 3d
       0.062058344 -0.045772377 0.064923115 0.031268667
000280 15 12 2a bd 7e a3 93 bd 72 07 05 3d b3 b1 5c 3d
       -0.04152115 -0.07208918 0.032477804 0.053880405
000290 57 04 9f 3d 9c 3d a6 3d ad b2 74 3d 98 ac dc bc
       0.077645 0.0811722 0.05974071 -0.026937768
0002a0 29 df ec bc 3c d3 31 bd da 0d b3 bc da 89 7d 3d
       -0.028915005 -0.04341434 -0.02185719 0.061899044
0002b0 f0 be ab 3d 8d 5b 6b bc f7 7e cc ba 1e 94 bd bc
       0.08386028 -0.014365089 -0.0015601803 -0.023141917
0002c0 6d b7 95 bd c5 f3 5a bd fc 09 9c 3d b2 eb 1f bd
       -0.07310376 -0.053455133 0.07619092 -0.039043136
0002d0 27 96 e1 3c ff 7d d7 3c 14 75 90 bd 89 23 23 bd
       0.027537419 0.026305197 -0.07053581 -0.03982881
0002e0 fd e5 74 bd 1f 85 dd ba 82 c0 ec 3c a8 b2 6b 3d
       -0.059789646 -0.0016900635 0.028900389 0.057543427
0002f0 0c 38 5b 3d 8a fb 87 bd 7b 8d 00 3d c9 2e 5e 3d
       0.053520247 -0.06639774 0.031384926 0.054243837
000300 d7 47 ff 3c 1c 03 a3 3d 5e 80 34 bd 38 9f ad bd
       0.031162186 0.079595774 -0.044067733 -0.08477634
000310 e1 b8 88 bd 23 32 8b 3c ad 5b a4 3d 95 3c 2e 3d
       -0.06675888 0.01699168 0.08025298 0.042538244
000320 3c a7 97 bc ae 71 39 bd 52 77 3e 3d 4f 72 26 3d
       -0.01851236 -0.04527443 0.04650051 0.040636357
000330 00 3a 85 3d b0 aa 9e bd 6f 0d 3d bd 27 d9 d6 3c
       0.06505203 -0.077474 -0.04615539 0.026226593
000340 bc ec f4 bb 60 45 26 3d ea 16 e7 bc 4a 3f 94 bd
       -0.00747451 0.040593505 -0.028209168 -0.07238634
000350 a8 3a 9f 3d 64 d2 88 3b 8f 7c c2 bc 7a d9 b0 bd
       0.0777486 0.004175471 -0.023741035 -0.0863523
000360 d0 75 88 3d c4 9c 09 3a 15 14 ba bb 84 30 97 bd
       0.06663096 0.0005249495 -0.0056786635 -0.073823005
000370 64 39 1a bd 42 2b 9c bd 22 b5 2f bc c1 8a 49 3b
       -0.03765239 -0.07625438 -0.010724338 0.003075287
000380 0e 91 af 3c 61 39 69 3d 08 ad 5d 3c 40 28 a7 bd
       0.021431472 0.056939486 0.013530023 -0.08161974
000390 4f 9c 25 bd 7c 12 6b bc 41 4b 99 bd 04 9e a0 3d
       -0.04043227 -0.014347669 -0.07485057 0.07842639
0003a0 4c 9c d6 bc 6a 16 43 bd 20 26 12 bc 63 13 44 bd
       -0.026197575 -0.047628798 -0.0089202225 -0.04787005
0003b0 71 a1 4c 3c 4b 33 59 3d ef 89 9e bd 2e 25 7a 3d
       0.0124896625 0.053027432 -0.077411525 0.061070614
0003c0 3a 8f b1 3d c8 8a 48 3c df e5 16 3d da 68 96 bd
       0.086698964 0.012240119 0.036840316 -0.073442176
0003d0 fa b9 00 bd b9 d2 b2 3d fb 9a 14 3b 5e 04 34 3d
       -0.03142736 0.087315984 0.0022675383 0.043949477
0003e0 b7 d4 7c bd 83 ee 62 bd a4 a0 27 3d f0 bf b0 bb
       -0.0617263 -0.055403244 0.040924683 -0.0053939745
0003f0 e7 a0 1a 3d ec 74 ac 3d ab 1a 7b 3d 20 07 2b 3d
       0.037751105 0.084207386 0.06130473 0.04175484

bias f4 [64]
000000 c6 4f 94 bd 3b 52 ce bc 5b aa ab 3d 19 79 a2 3d
       -0.07241778 -0.025185695 0.08382102 0.07933254
000010 75 f4 1c 3d 6d 27 7e 3d ae d9 2c 3d a7 d9 e2 3d
       0.03831907 0.062049318 0.042199783 0.1107667
000020 4f aa 3c 3b e4 03 f6 bc e3 e2 de 3c 94 6e bb bb
       0.0028788035 -0.030031152 0.027207797 -0.005719969
000030 a8 de 8d 3d de 91 3f 3d ec 67 4a 3c 72 02 97 3b
       0.06927234 0.04676997 0.0123538785 0.004608446
000040 dd ce 91 3c a8 a3 84 3c 04 95 2d 3d af f1 ad 3b
       0.017798835 0.016191319 0.04237844 0.005308352
000050 ca 81 d2 3d 72 93 04 3c f1 74 8c bb d4 21 e9 3a
       0.102786615 0.008091794 -0.0042864014 0.0017786571
000060 9b 69 94 bb 37 47 c4 bc 44 e6 0f bd ea 78 d9 bc
       -0.0045291907 -0.02395974 -0.035131708 -0.026546914
000070 d5 0c 42 3d 7b 97 28 bd 95 fe 34 3c 41 0d a6 bc
       0.04737552 -0.041160088 0.011047025 -0.020269992
000080 78 4a 77 3d ab 3a 84 3d cc a8 24 3d b3 19 0a bc
       0.060373753 0.064565025 0.04020004 -0.008428979
000090 b7 a5 7b 3d b8 b8 b0 bd e0 ee 7a 3d 09 ac b3 bd
       0.061437335 -0.08628982 0.061262965 -0.087730475
0000a0 75 c3 4a bc f7 d5 59 3d 9c fd 77 3d dd 31 ae bd
       -0.012375702 0.05318257 0.060544595 -0.085056044
0000b0 c8 67 5b 3d 37 43 15 3d f9 05 09 3d 52 df cb 3d
       0.05356577 0.036441054 0.03345296 0.09954704
0000c0 33 46 d7 bc 01 b5 7c 3d e2 24 fb bc 7d 20 9f 3d
       -0.02627859 0.061696056 -0.030657236 0.077698685
0000d0 82 d6 ae 3c 66 7c 8e bd 37 2d 4e bc fe 48 ef 3d
       0.02134252 -0.06957321 -0.012584022 0.11683844
0000e0 3b 7b 90 3d 64 92 0e 3e 16 41 54 3d 81 de 84 bd
       0.07054754 0.13923031 0.051819883 -0.06487752
0000f0 a2 a0 98 3c 82 43 2c bd 85 47 f3 3c f2 1d 09 3e
       0.018631283 -0.042056568 0.02969719 0.1339033

weight f4 [32, 64]
000000 90 39 3f 3d 9c 4a b7 bd a9 88 0f 3e 24 a8 fd bb
       0.046685755 -0.089497775 0.14016975 -0.007740991
000010 b8 c2 47 bd e1 08 ba 3d 85 15 f8 3d a7 00 ff bc
       -0.048769683 0.09083725 0.121134795 -0.03112824
000020 43 13 ec 3d bf 92 f5 3c df 86 00 3e 41 a6 f3 3d
       0.115271114 0.0299772 0.12551449 0.11896945
000030 a0 67 b6 3d 6f 06 06 3e 3f 01 83 bd 64 f9 bb 3d
       0.08906484 0.13088392 -0.06396722 0.09178427
000040 fe dd 80 bd a9 dd 8d bd 78 5c 6f 3d da 69 fd bd
       -0.06292342 -0.06927044 0.058437794 -0.12373705
000050 4d 4c c6 bd 65 eb ee bd d9 71 c2 bd 4f 8e 8b 3d
       -0.09682522 -0.11665992 -0.09494371 0.068142526
000060 1c ac 03 be 32 1e 16 3d 97 50 c9 3d 7f ff 00 3e
       -0.12858623 0.03664989 0.098298244 0.12597464
000070 9d 80 5d be af 99 d9 3d 6c 61 9c 3d d3 bc 9a 3d
       -0.21631093 0.10625016 0.07635769 0.075555466
000080 29 0b 0b 3c 60 66 08 3e 6a 99 cb bd 1b f4 4c bd
       0.0084865475 0.13320303 -0.09941371 -0.050037485
000090 46 5b aa bd c0 3c 24 bb fb 5f 00 3d 34 ae 31 bd
       -0.0831819 -0.0025060624 0.031341534 -0.043379024
0000a0 15 3e 05 bc 7e 06 89 3d 09 2e 0e bd 4c 40 7f bd
       -0.008132477 0.066906914 -0.03471187 -0.062317178
0000b0 87 50 89 bd be 06 b3 bc c1 a6 89 3d b9 55 bc 3d
       -0.067048125 -0.0218538 0.06721259 0.09196038
0000c0 b0 f9 fd 3a 24 de 24 bd f1 4b c1 bd 67 42 c1 bd
       0.0019376781 -0.040250912 -0.09438313 -0.09436493
0000d0 9e e4 c4 bd d0 59 11 bc 71 42 59 3d b7 f9 b4 3c
       -0.09613918 -0.008871511 0.05304188 0.02209173
0000e0 75 92 9d 3d a0 cb 3e bd 2a f2 a5 bd 67 4f 2d bc
       0.0769395 -0.04658091 -0.0810283 -0.010578013
0000f0 7e 9d 8a bd 20 b4 ab 3d 5f dd fc 3d 8e 9f 9d 3d
       -0.067683205 0.083839655 0.12346911 0.07696448
000100 c0 47 6c bc d9 cb 95 bc a2 40 c4 3d 2d 03 1e 3e
       -0.014421403 -0.018285679 0.0958264 0.15430899
000110 7e e8 7a 39 e7 b4 ac bd 57 d3 2e 3d 43 e3 36 be
       0.00023928468 -0.08432942 0.042682018 -0.17860131
000120 dd e6 02 3d 59 0b ae 3d 81 f0 47 bd 23 ea e1 bc
       0.03195845 0.08498258 -0.048813347 -0.027577465
000130 b6 95 8c 3d c6 83 62 3d f1 72 db bd 23 2f 05 3d
       0.068644926 0.05530145 -0.10715283 0.032515656
000140 6d 8c 31 be 0d 2a d4 bd f0 10 e2 bc b0 13 f9 3d
       -0.17338724 -0.10359583 -0.027595967 0.12161958
000150 5f 24 24 3e 75 ad 37 bd cf 01 8b 3d f0 81 c8 3c
       0.160295 -0.044843156 0.06787454 0.024476022
000160 dd a0 05 be b0 b5 3b bd 4b 2c ad bc 2e 6c 24 3d
       -0.13049646 -0.045827568 -0.021139285 0.04014223
000170 e2 bb 10 3e 55 42 88 3d 37 1a 4c bb ba 17 dc 3d
       0.14134172 0.06653277 -0.0031143555 0.10746713
000180 44 3e bb 3d 37 b8 74 3d c5 97 b3 bd 67 9b 56 3d
       0.091427356 0.059745993 -0.08769182 0.052394297
000190 f1 da c1 3d f4 33 23 bd d5 66 ad 3d 82 dc 6f bd
       0.09465588 -0.03984447 0.08466879 -0.058559902
0001a0 2f 88 d7 3c 6d d7 bd 3d d1 29 96 bd 98 11 a6 3c
       0.026310055 0.09269605 -0.073321946 0.020272061
0001b0 8c 5d cf bd cd 55 e6 3d e1 57 85 bc c2 f8 2b 3d
       -0.101252645 0.11246834 -0.016277255 0.04198528
0001c0 91 d5 12 3e 8f 7f 29 3c 8b b5 6a bd cb f2 67 3d
       0.14339282 0.010345354 -0.05730204 0.05662803
0001d0 fd bf ac bd f2 74 4e 3d 29 40 80 bb 3e 2c 06 bc
       -0.08435056 0.050404496 -0.0039138985 -0.008189259
0001e0 b0 59 94 be 9e 8d 97 be bd a7 06 3e 3c a7 75 3d
       -0.28974676 -0.29600233 0.13149925 0.05997394
0001f0 c3 78 19 3d e0 2e ef 3c 52 0e 8b bd 14 40 04 3e
       0.037468683 0.029197156 -0.06789841 0.12915069
000200 92 3b cb 3d 68 eb c4 3c 52 82 93 bd 4d af d6 bd
       0.099234715 0.024038032 -0.07202591 -0.10482655
000210 0e 5e c2 3d 2d 8c 9b bd 76 63 aa 3c d2 c1 c2 bd
       0.09490596 -0.07595096 0.02079938 -0.095096245
000220 76 8e dd bd cb 59 39 bd 60 76 e9 bd c4 12 ee bd
       -0.10818188 -0.04525165 -0.11399531 -0.11624673
000230 aa f2 9e bd 26 fb 8d 3d dc 7a 2b bd 7c 16 56 3d
       -0.07761128 0.069326684 -0.041865215 0.052267537
000240 40 ed 3e bc 1a 76 d8 bd 16 af ae 3d 14 5f b4 3d
       -0.0116532445 -0.10569401 0.08529489 0.08807197
000250 8c 74 f9 3b 94 13 f9 bd d8 e5 3a bd 3f 05 59 bd
       0.0076127704 -0.12161937 -0.045629352 -0.05298352
000260 12 41 cf 3d c1 12 63 3d aa 31 4b 3d 78 28 ac 3d
       0.10119833 0.055437807 0.04960791 0.08406156
000270 89 66 de 3d 1c d3 06 bd c0 fa 8e 3d 7c 7d bd 3d
       0.10859401 -0.032916173 0.069814205 0.0925245
000280 d0 73 fd 3c c7 94 00 3d 53 af c4 bd 60 e0 66 3d
       0.030939013 0.031391885 -0.09603753 0.056366324
000290 80 2b f4 3c 78 a2 f1 3d 78 9c e0 bc aa 71 17 3d
       0.029805899 0.117985666 -0.02741836 0.036973633
0002a0 59 9f a2 bd 4d 95 e0 bd b4 8d 33 bd 44 1c b6 3d
       -0.079405494 -0.10965977 -0.04383631 0.0889211
0002b0 c0 17 c2 3d 46 2c a9 3d da 62 89 3d 0f 69 af 3c
       0.09477186 0.082603976 0.067083076 0.0214124
0002c0 ca 0f a8 bd d0 2e 66 bc d8 b2 1c 3d 9d 16 fc bb
       -0.082061365 -0.014049247 0.038256496 -0.0076931254
0002d0 0a 26 4c bd 98 8e 79 3d e0 bb 2d 3c c2 fb 7f 3d
       -0.049840964 0.060927004 0.010603875 0.062495954
0002e0 38 0d 91 bc d6 00 b8 bd 17 28 c3 3d 58 c9 17 bd
       -0.017706499 -0.089845344 0.09529131 -0.03705725
0002f0 48 5d d9 bd 0c 33 d6 bd 6a 06 c4 bd 87 17 aa bd
       -0.10613495 -0.10458955 -0.09571536 -0.08305269
000300 48 72 c3 bd c3 00 e3 bd 71 ff 09 3d 94 64 41 3e
       -0.09543282 -0.1108413 0.033690874 0.18886024
000310 f9 2d 17 3e 33 a7 36 3e d7 df e9 bd 9a df 49 3c
       0.14763631 0.17837219 -0.11419647 0.012321377
000320 51 4d 1a 3e 15 72 0c 3d 00 1b 2d 3e ed a2 eb 3b
       0.15068556 0.034288485 0.16904831 0.007191053
000330 81 57 9a 3c 79 c4 34 bc 0b df 99 3b 04 ea 81 bd
       0.018840553 -0.011033171 0.0046957782 -0.06343463
000340 87 16 70 3d f4 92 e3 bd a3 84 6f 3d 6b 0a 60 3d
       0.058615234 -0.111120135 0.0584761 0.054697435
000350 bd 29 e6 3d 21 6e 3d bd 6c ed 07 bd c7 c6 38 3e
       0.1123843 -0.046247605 -0.033185408 0.18044578
000360 bc 12 29 3c 66 2e 05 3e a5 d9 a9 bb 92 40 36 3e
       0.010319408 0.13005981 -0.005183416 0.17798069
000370 ae e8 dc 3d 53 dd b9 bd a0 32 35 bc 02 0c ec 3d
       0.10786568 -0.09075417 -0.011059433 0.11525728
000380 71 0d 1f bd b0 25 18 3e bc a2 83 bb 89 d3 46 3d
       -0.038831178 0.14858127 -0.004017202 0.04854158
000390 0f 3e 49 3d 40 fc 25 bd 54 42 25 3d b6 e1 bc bd
       0.04913145 -0.040523767 0.04034646 -0.092227384
0003a0 82 8e e7 3c 51 5f df 3d 11 7c 12 3e c0 6a f1 3c
       0.028266195 0.10906852 0.1430514 0.029469848
0003b0 2b 27 a1 3d 51 33 61 3d b4 b2 82 bd c9 e5 c3 3d
       0.07868799 0.05498058 -0.06381741 0.095653124
0003c0 a0 be 36 3e fc 7f 88 bd 38 7f 3e 3c 4f 1d a9 bc
       0.17846155 -0.06665036 0.011627011 -0.020643858
0003d0 63 73 a8 bb d9 52 95 3d d7 d3 95 3d c7 bf 3c bd
       -0.0051407083 0.072911926 0.07315796 -0.04608133
0003e0 2b 32 51 3e 99 41 8c 3e 3c 6e 16 3e ca 3e f5 bd
       0.20429294 0.27393797 0.14690489 -0.11974867
0003f0 20 21 da 3d d0 ec bb bd 5f 78 6e 3d 70 6a 11 3e
       0.10650849 -0.09176028 0.058220264 0.14200759

bias f4 [32]
000000 b3 bb 91 bd 83 73 de 3d 72 46 3f bd 4e 72 d4 3d
       -0.07115879 0.10861876 -0.04669804 0.103733644
000010 78 e0 b3 bd d8 86 ad bc 72 df 32 3e 44 3f f7 3d
       -0.087830484 -0.021182463 0.1746805 0.12072614
000020 b0 6b 08 3e f5 e7 27 bc 99 bd 04 bc 02 f6 94 3d
       0.1332233 -0.010248174 -0.008101844 0.07273485
000030 d3 8a 8c 3c bf 4f 0a bd 43 85 a0 bd 81 ca 50 3c
       0.01715604 -0.033767458 -0.07837918 0.012743593
000040 71 04 0d be da bf 10 bd db 64 aa 3d 17 1c 0f 3c
       -0.13771226 -0.035339214 0.08320018 0.0087347245
000050 c7 23 0e 3e 8f 63 ef bd c0 74 45 3c 76 a1 38 bd
       0.13880835 -0.11688911 0.012051761 -0.045075856
000060 a9 81 02 3e fd b0 c4 3d be 35 7c 3d e3 9f 07 bc
       0.12744774 0.0960407 0.06157469 -0.008277866
000070 e1 83 ad bd 5b c3 0b 3d b0 b2 9f bd 1a 60 c9 3d
       -0.084724195 0.034121852 -0.07797754 0.09832783

weight f4 [128, 7]
000000 8a 5a 79 be 57 a9 52 3e 51 f3 99 bd a1 9c 91 3e
       -0.24350944 0.2057241 -0.07517112 0.2843981
000010 e3 bd 40 be 67 f3 9c 3c 01 85 24 3e 8c 04 3c 3d
       -0.18822436 0.019159032 0.16066362 0.045902774
000020 a8 e6 a9 be 8f cc a9 bc b2 3a 99 3e 29 4e f4 3c
       -0.3318379 -0.020727424 0.29927593 0.029822426
000030 e6 29 67 bb 3e 04 7d bd 76 1d 5c 3e d3 a8 58 3e
       -0.0035272776 -0.061771624 0.21495613 0.21158151
000040 87 a1 4a be e9 38 85 be 7c 36 b9 be 17 25 a4 be
       -0.1978818 -0.26019982 -0.3617438 -0.32059547
000050 d9 59 69 3e 2b 58 c1 be 3a f8 90 bd d5 64 9b 3d
       0.2278818 -0.3776258 -0.070785955 0.075875916
000060 06 4e c2 3e 3e a8 85 3e 86 3d 23 3d 7b 11 fe 3d
       0.37950152 0.2610492 0.039853595 0.12405678
000070 72 4f 69 be 1b f4 b8 bd 1e 73 9a 3e 71 b5 80 be
       -0.22784212 -0.090309344 0.30165952 -0.2513843
000080 50 68 86 3e 6f c4 aa bd d2 bf 90 be d4 57 d1 3d
       0.2625146 -0.08338248 -0.28271347 0.1022183
000090 f4 14 7c 3e fa 53 70 3e f2 ef 91 3e bf 7a b0 3e
       0.24617368 0.23469535 0.28503376 0.34468648
0000a0 7f 87 7b be 08 cf ab 3e bb 89 7a 3e a7 3c 44 3e
       -0.24563406 0.3355639 0.24466603 0.19163762
0000b0 9b 1f c7 3e 9d 68 08 be 46 c4 67 3e 9e f4 5c be
       0.388913 -0.13321157 0.22633466 -0.21577689
0000c0 98 93 3c 3e e4 53 49 be 49 4f 85 3e be e0 0c be
       0.18415678 -0.19660908 0.26037052 -0.13757607
0000d0 a1 70 a7 3e d5 13 65 be 65 24 82 be e2 93 96 3e
       0.32703117 -0.22370847 -0.25418392 0.294097
0000e0 47 98 b9 be b8 0a 40 be c9 35 9b be fa d1 8c 3e
       -0.3624899 -0.18754089 -0.30314472 0.2750395
0000f0 85 81 93 3e 2a 51 55 3e c9 76 42 bd 5f f8 64 3e
       0.28809753 0.20831743 -0.047476564 0.22360371
000100 b4 34 92 3e a7 da 34 3e 92 37 9e 3e db fe ab be
       0.28555834 0.17661534 0.30901772 -0.33592877
000110 bb 38 3c 3c 4f 7c 9b be 9d 43 a5 bd d1 c0 9b be
       0.011488135 -0.30368277 -0.08069537 -0.30420545
000120 38 e1 99 be cd 66 a8 be 80 de a4 3e 23 c5 37 be
       -0.3005464 -0.3289093 0.32201004 -0.17946295
000130 bb d2 51 3c c1 f2 ab 3e ad 51 83 3e 22 1d 9f 3c
       0.01280659 0.33583644 0.2564825 0.019423071
000140 ae 36 73 bc 45 38 ca bc e5 ea fd bd 6e 2e a4 3d
       -0.01484458 -0.024685035 -0.12398318 0.08016668
000150 54 39 00 be 67 9d 05 3e 65 dd 7a 3e d6 37 75 be
       -0.12521869 0.13048325 0.24498518 -0.23947081
000160 73 fa 4e be 82 b7 9d be 0e 25 a8 3e 2e b8 c6 3e
       -0.20212726 -0.30804068 0.3284077 0.38812393
000170 7d 07 10 be cf 23 c7 bd ba 41 93 be b1 b4 9c be
       -0.14065357 -0.09723627 -0.28761083 -0.30606607
000180 0c 9f b9 be b0 f4 22 3d fc 68 6f bc 31 4d a6 3e
       -0.36254156 0.039784133 -0.014612433 0.32480767
000190 0c 68 1b 3c ab 8b af 3e c7 49 81 be 1d 2a 02 3e
       0.009485256 0.34286246 -0.252516 0.12711377
0001a0 96 e6 a2 be 9a e3 97 3e 55 56 b3 3d de cb 8e 3e
       -0.31816548 0.29665834 0.08756701 0.27889913
0001b0 eb a3 61 bd 03 cd 90 3e 3c b3 d0 3e f1 30 25 be
       -0.055087965 0.28281412 0.40761745 -0.16131951
0001c0 2a 8e 78 be b4 bb 98 be dc b0 1a 3e f1 fd 1a be
       -0.24272981 -0.29830706 0.15106529 -0.15135933
0001d0 66 71 80 3b 69 09 95 3d b2 bf 1c be 30 1e b7 be
       0.003919768 0.072771855 -0.15307501 -0.3576522
0001e0 a1 f7 77 be 20 b8 8b bd 8f 27 f4 bd 0a 12 69 bc
       -0.24215557 -0.068222284 -0.11921608 -0.014225492
0001f0 bd 63 a6 be 5b 53 b2 be f5 65 cd 3e 98 f9 6d 3e
       -0.3249797 -0.3482922 0.4011685 0.23239744
000200 be 8a 14 3c 86 48 75 be 58 7c e1 3d ba 54 ce 3d
       0.009066282 -0.23953447 0.11010045 0.10074754
000210 66 39 a3 3d a0 6d fa 3d a8 6a 28 be d3 53 1a 3d
       0.07969932 0.122279406 -0.16446936 0.037677597
000220 b9 e6 28 3e 05 0b 5c be 8c 31 a1 3e a4 34 36 be
       0.16494264 -0.21488579 0.31483114 -0.17793518
000230 93 b5 40 bd 72 92 e9 3c 0e b2 47 3d b0 eb f3 bd
       -0.047048163 0.028512213 0.04875379 -0.11910188
000240 62 88 bd be f4 1e db bc 0d 8f 6d be ae b3 cf 3e
       -0.37018114 -0.026748158 -0.23199101 0.40566772
000250 e1 fa b4 be b1 36 1e be 46 c8 c4 be d1 df 16 3e
       -0.35347655 -0.1545055 -0.38434047 0.14733817
000260 4f 1d 5a be a3 22 cb 3d 6e d9 d9 be dc 58 82 3e
       -0.21300243 0.09918716 -0.42548698 0.2545842
000270 2b 16 4c be bd 7f d0 3d eb 89 25 be 7b 4b 56 3d
       -0.19930331 0.10180614 -0.16165893 0.052318078
000280 4e bf c7 3e c1 d0 e4 be 21 2b a2 3e b5 aa 89 3e
       0.3901314 -0.44690517 0.3167353 0.26888052
000290 ea 16 87 bd ae 0b a9 3e 7f b0 ce bb 71 22 78 3d
       -0.065961674 0.33016723 -0.006307661 0.06057972
0002a0 05 6a ea 3e c1 42 b8 be 7b b8 d0 3c 9e 80 86 be
       0.4578401 -0.3598843 0.025478592 -0.26270002
0002b0 19 32 27 bc 0f 64 36 3e 88 ee fb 3d ba a9 b6 be
       -0.010204815 0.17811607 0.123013556 -0.35676366
0002c0 eb 91 4f be 4c 52 02 3e d0 94 ef bd 5f 85 a0 be
       -0.20270507 0.12726706 -0.116983056 -0.31351754
0002d0 24 a7 39 3d 4d b4 46 bd bd 99 eb bd 83 f3 c3 be
       0.045325413 -0.048511792 -0.115039326 -0.38271722
0002e0 8b 4d 91 bd e6 61 ab be d8 e0 ab be 43 3c 74 3e
       -0.07094868 -0.33473128 -0.3356998 0.23851113
0002f0 91 20 78 3e f8 94 00 3f ae 7a a1 be 3e a3 bd 3e
       0.24231173 0.5022731 -0.3153891 0.37038606
000300 aa b2 b9 bd 55 23 bf 3c fc 2c 6b be 8b 35 9a 3e
       -0.090672806 0.023332277 -0.22966379 0.30118975
000310 32 e4 fb 3e b5 42 69 be fb 3a a3 be 3b 33 a2 3b
       0.49197537 -0.22779353 -0.31880936 0.004949955
000320 c6 e3 63 3e 1c 0b 78 3d 88 6e 5d be 0d d2 8f be
       0.22254857 0.06055747 -0.21624196 -0.28089944
000330 9a 59 f9 3c f7 5c 79 be cc 00 c2 be 51 a7 5b bd
       0.030438233 -0.2435187 -0.37891233 -0.053626362
000340 1f 3a e0 3a 2e 42 6e 3e 38 33 c0 3e 82 c9 14 be
       0.0017107165 0.23267433 0.37539077 -0.14529994
000350 49 11 67 3e 95 e1 08 3d c5 fa b2 be ab a0 0f 3e
       0.22565188 0.033418257 -0.34956947 0.14026134
000360 08 e5 12 be 97 0b 4f 3e 37 9e 4a be 9c 27 78 bb
       -0.14345181 0.20219265 -0.19786917 -0.0037865406
000370 07 5e 57 3e 98 af 3d be 44 e6 b6 3d c0 28 6a 3d
       0.21031962 -0.18524015 0.089306384 0.05716777
000380 98 57 eb 3b 52 84 bf 3d 38 ae b2 3e e2 0e b9 3e
       0.007182073 0.0935141 0.34898543 0.36144167
000390 b0 89 68 bc 2f e5 c3 bd c2 1e d0 3d 5f 0e e1 3e
       -0.0141929835 -0.09565198 0.101621166 0.43956277
0003a0 3e ca 18 be ca 4d b5 bc 46 27 c7 be 2b 84 a7 be
       -0.149209 -0.02213182 -0.3889715 -0.32718024
0003b0 eb 2a 95 be 0b 5a ac 3d b5 4e 8b 3e 90 b6 45 be
       -0.29134306 0.08415612 0.27208486 -0.19307923
0003c0 08 c6 98 3e 19 c9 be 3e a5 3e 3d 3e d3 f6 48 be
       0.29838586 0.372628 0.18480928 -0.19625406
0003d0 a3 69 f8 bd b2 d8 97 be c2 9d 88 be 62 f8 a9 be
       -0.121295236 -0.29657513 -0.2668286 -0.33197314
0003e0 fa ed a8 3e 70 19 28 3e 30 55 90 bc 37 bd 9d be
       0.32994062 0.16415954 -0.017618746 -0.30808422
0003f0 f4 70 63 be 05 f5 89 be e6 01 cb 3e 44 5b 31 3e
       -0.22211057 -0.26944748 0.39649886 0.17319971

bias f4 [128]
000000 d2 27 21 3e 07 0d bc be 7d d8 9d 3e 16 d5 7f 3e
       0.15737846 -0.3672869 0.3082923 0.2498363
000010 a5 1d aa be 6c 93 64 3e e0 a6 49 bd 0e 36 f3 bd
       -0.33225742 0.22321862 -0.04923141 -0.118755445
000020 38 d3 78 3e e1 6c 93 3d e1 4b 02 bc 2a a7 f7 bd
       0.24299324 0.071985014 -0.007952661 -0.12092431
000030 62 eb 84 be 53 d3 41 3e 34 87 f0 3e 84 25 de bd
       -0.25960833 0.1892827 0.46978152 -0.10846999
000040 4e 20 b7 be 1f b6 54 be d8 42 a9 3e 1a 94 95 be
       -0.35766834 -0.20772599 0.3305881 -0.29214555
000050 54 bf e0 bd d6 1f ff bc ed 27 bb 3e 0e 51 99 3e
       -0.10973993 -0.03114311 0.36553898 0.29944652
000060 b9 31 b9 3e c2 e9 bd be b2 e4 d8 3c 73 0c 87 bd
       0.36170748 -0.37092406 0.026476238 -0.065941714
000070 74 4e 7f 3e 32 6b a3 3e 96 a5 ea bd 24 c2 cf 3e
       0.24932271 0.3191772 -0.11457364 0.40577805
000080 3d 05 ae be 11 fe da bd d0 04 28 3e 1b c6 d6 3e
       -0.33988371 -0.106929906 0.16408086 0.41948017
000090 9b b5 c7 bd 00 eb 9a 3e ed e2 b1 3e 03 89 09 3e
       -0.09751435 0.30257416 0.34743443 0.13431172
0000a0 f3 6a 13 be 19 f7 74 3e 17 7b e9 bd 88 fc ce 3e
       -0.14396267 0.23922385 -0.11400431 0.4042704
0000b0 0f 0b 5d 3e 95 31 9d 3e f5 f4 4b be f0 dd da 3e
       0.2158625 0.3070189 -0.19917662 0.4274745
0000c0 cc b5 8c be ac 20 e6 3c 7d 91 aa 3d da fd 84 be
       -0.2748245 0.028091751 0.08328531 -0.25974923
0000d0 67 0c 29 be 47 28 a3 3e 52 8f c8 3e a5 1e 8b 3e
       -0.16508637 0.31866667 0.39171845 0.27171817
0000e0 58 5c ea bc 40 67 34 3e 10 08 89 3e e9 b3 1c 3e
       -0.028608486 0.17617512 0.26763964 0.15303005
0000f0 63 9b 17 3d e7 8e 39 3e 03 96 c0 be c8 e5 66 be
       0.037013423 0.18120919 -0.3761445 -0.22548592
000100 fb 17 0d be f7 40 aa bd a2 dd 98 be 8b 3d 2e 3d
       -0.13778679 -0.08313172 -0.29856592 0.04253916
000110 07 e2 5c 3e d2 da ac be 5a 53 93 bd f7 53 13 be
       0.21570598 -0.33760697 -0.071936324 -0.14387499
000120 7d 3d 0e be 8d 9c 62 be b5 e7 ba 3e cf 05 68 3e
       -0.13890643 -0.22130032 0.36504903 0.22658466
000130 71 bd a7 be 47 e9 b7 bd a1 c2 9b 3e 16 39 09 bc
       -0.3276172 -0.08980041 0.30421928 -0.008375427
000140 68 4d a7 3e 13 35 f6 3e 4f 42 c1 be 0c 1a db 3e
       0.32676244 0.48087367 -0.37745902 0.4279331
000150 b5 53 ca 3e c1 3f 8b 3e 58 d8 8d be 18 84 31 3e
       0.39516988 0.27197078 -0.2770412 0.17335546
000160 04 97 81 be ed 3f d5 bd e9 0a 8c 3e fc 73 7f 3e
       -0.25310528 -0.104125835 0.27352074 0.24946588
000170 d7 86 89 bc 03 b6 f2 3e 05 2a d2 3e eb 9f 73 bc
       -0.01678793 0.4740449 0.41047683 -0.01486967
000180 db 7d 33 be cb f1 8e be 1f 12 80 be 3c 98 39 3e
       -0.17528479 -0.27918848 -0.25013825 0.18124479
000190 31 75 ee 3c 62 46 10 3e dc d9 8f 3e ef 37 86 3e
       0.029108616 0.14089349 0.280959 0.2621455
0001a0 9a 9f cc 3d 66 a3 ce 3e cf 02 87 3e e5 89 b5 be
       0.09991379 0.40359038 0.2636933 -0.35456768
0001b0 5d f7 a3 3e 15 9a 97 3e 00 b5 3b be bf b4 be 3e
       0.3202466 0.29609743 -0.18330765 0.37247273
0001c0 0d 41 96 3e 6f 68 86 be 2b 29 9c 3e cb 71 fa 3e
       0.29346505 -0.26251552 0.3050016 0.48914942
0001d0 68 75 46 be 7a c8 84 3e 84 b7 63 3a 57 db 22 3e
       -0.19380724 0.259342 0.0008686709 0.15903984
0001e0 18 b9 c6 3e ff 20 7d be e4 bf b1 3e 7f 05 69 be
       0.3881309 -0.24719618 0.34716713 -0.22756003
0001f0 9f 51 16 3e 14 18 36 3e fc 9e af 3e 75 16 2b be
       0.14679573 0.17782623 0.34300983 -0.16707785

weight f4 [64, 128]
000000 78 e8 9c 3d c2 21 47 3c fe 1a 4e bd 7d a4 3c 3d
       0.076615274 0.012154045 -0.05031871 0.046055306
000010 c9 63 9e bd f1 04 08 bd e2 88 6b bd b2 c1 9d bd
       -0.07733876 -0.033207837 -0.05750359 -0.0770296
000020 8d af 5d bc 14 45 5a 3c 48 f4 a9 bb 96 19 33 3d
       -0.013530624 0.013322134 -0.0051865913 0.043725573
000030 97 10 68 bd 18 ea 1c 3d cb db a1 3c 21 e8 24 bd
       -0.056656446 0.038309187 0.019758126 -0.040260438
000040 6a 15 85 bd 81 05 63 3d a1 8c 86 bc 5d ea 82 3d
       -0.06498225 0.05542517 -0.016424479 0.063923575
000050 bf f0 a0 3c b3 a5 75 3d 30 78 65 bd 67 73 9e 3c
       0.019646047 0.059972476 -0.056022823 0.019342138
000060 c2 af ae bd 33 e9 b2 bd 20 8f 9b 3d 09 a8 af bc
       -0.08529617 -0.087358855 0.07595658 -0.02144243
000070 de 6f 72 bd dc 65 2a bd ec 46 ae 3c 70 c1 0b bd
       -0.059188716 -0.041601047 0.021274053 -0.034120023
000080 9d 01 a3 bd 77 de 1d bc a0 62 8e 3d f0 70 37 3d
       -0.07959292 -0.009635559 0.06952405 0.04478544
000090 31 45 23 3d a2 9e 33 3d ea a9 8c bd d9 6c a9 3d
       0.039860908 0.043852456 -0.06868346 0.08272714
0000a0 ff 17 87 3c 86 2d 83 3d d3 79 86 bc 61 b5 01 3c
       0.016490934 0.06405167 -0.016415512 0.007916779
0000b0 b3 c5 6c bd 4c 02 09 3d a0 1e f4 bb 9e 54 7d 3d
       -0.05780573 0.033449456 -0.00744994 0.061848275
0000c0 bf d0 aa bd 82 da 95 3c cf 88 64 3d fa 7d a4 3a
       -0.083405964 0.01829267 0.055794533 0.0012549751
0000d0 3b bb 65 bd bd 70 a1 bd 18 86 81 bd f7 54 95 bd
       -0.05608676 -0.07882831 -0.063244045 -0.072915964
0000e0 a3 24 7a 3d 2e d1 9e 3d 27 c4 1c bd ab 97 dc 3c
       0.061070096 0.077547416 -0.038273003 0.02692779
0000f0 cc c1 6d 3d 01 03 88 3d ca b3 f7 3c c0 af a6 3c
       0.058046147 0.06641198 0.030237097 0.020347476
000100 99 c3 91 3d 8a df 8d bd ed 61 6f 3d 42 cd a0 bd
       0.071173854 -0.06927402 0.058443 -0.0785165
000110 9c 58 95 3d 39 6b e2 3c e7 6e 29 3d 32 fd aa 3d
       0.072922915 0.027639018 0.04136553 0.083490744
000120 84 11 8c bc d9 86 fa bb 98 26 24 bd 2f 48 ed 3b
       -0.017098196 -0.0076454696 -0.04007587 0.007241271
000130 f6 65 0a bd a9 94 80 bc 6d a1 a3 bd a4 e1 95 bd
       -0.033788644 -0.015695887 -0.07989774 -0.07318428
000140 05 6c 03 3d 78 f3 aa bd 89 73 e5 3b d4 40 79 3c
       0.032085437 -0.08347219 0.0070022983 0.01521321
000150 17 89 1c bd 5d 3d 31 3d fe 2b 42 bd d4 1a 4e bd
       -0.038216677 0.04327141 -0.047405235 -0.050318554
000160 14 9d ab 3d c5 b1 07 bc c7 f4 a9 3d d4 fa a2 3d
       0.0837957 -0.00828213 0.08298641 0.07957998
000170 07 12 62 3d 88 c3 f5 b8 db 94 2d bd 5b 75 5d bd
       0.055192973 -0.00011718931 -0.042378288 -0.054066997
000180 ae d3 9f bd 32 8c fa bc ef 32 07 bd 3f 20 de 3c
       -0.078040466 -0.030584428 -0.03300756 0.027114986
000190 72 a7 23 bd 77 bf 10 3d 4b 19 bb bc 14 7a 85 bd
       -0.03995461 0.035338845 -0.022839209 -0.06517425
0001a0 04 53 9d 3d d1 38 90 bd d1 96 ae bd 8b 3c 2d 3d
       0.076818496 -0.07042087 -0.0852486 0.042294066
0001b0 ea 61 02 bc 21 44 7e bd c7 b4 41 3d 19 0c e1 3c
       -0.007957915 -0.06207669 0.047291543 0.027471589
0001c0 3c 2b a2 3c ae a1 cb ba 39 05 89 bc 63 ba 85 bd
       0.019796006 -0.0015535855 -0.016726123 -0.06529691
0001d0 dc a6 6b bc 9f c5 68 3d 3a 04 12 bc 5e 04 fe ba
       -0.014383044 0.05682909 -0.0089121405 -0.0019379964
0001e0 5f 5d 65 3d b3 40 b0 3d 5c aa 1b bd 67 65 b1 bd
       0.05599725 0.086060904 -0.038004264 -0.08661919
0001f0 88 6b 8e 3c 0f 6a dc 3b f6 fe 38 bc b0 c4 02 3d
       0.01738526 0.0067265104 -0.011291256 0.031925857
000200 1a 8a 9b 3b 6b 5a 44 bd 2e f7 59 bd 9b 61 3d bb
       0.0047466876 -0.04793779 -0.053214245 -0.0028897289
000210 ec ef a7 bd b3 50 f4 bc 12 07 5d 3d 6d ba 93 bd
       -0.08200058 -0.029823637 0.05396182 -0.07213292
000220 e7 b4 83 bd 19 57 d2 bc 2b 2b c9 bb 15 d0 82 bd
       -0.06430989 -0.025676297 -0.006139179 -0.06387345
000230 1d 94 93 3d 72 d2 13 bd 95 4e bc 3c 4f 2b a7 bc
       0.07205985 -0.03608937 0.02298669 -0.020406393
000240 b5 10 d2 bb 19 b2 14 bd 8e f8 bb bd 73 0f 1f ba
       -0.006410683 -0.03630266 -0.091782674 -0.0006067671
000250 e6 c6 8d 3c 3d 4e 44 3c b1 2d 88 bd 0f 81 e5 bb
       0.017306756 0.011981544 -0.0664934 -0.0070039104
000260 ca 49 91 bd 4d 18 a6 bd 11 46 8f bb 59 58 7f 3c
       -0.07094152 -0.08110104 -0.0043723662 0.015585029
000270 d4 da 46 3d 89 b1 a2 bd 09 4f 50 bd 60 f2 8b bd
       0.048548535 -0.079440184 -0.050856624 -0.06833339
000280 b7 91 41 bd 9f 39 56 3d fc 51 5a bc b3 34 5d bd
       -0.047258105 0.052301046 -0.013325211 -0.054005336
000290 26 67 9b bd 36 7c 56 bd 66 3c ca bc 34 7c 0c 3d
       -0.075880334 -0.05236455 -0.024687003 0.034298137
0002a0 f6 75 5c bd a8 da 90 3c bb ea 84 3d 86 cb c4 3c
       -0.053823434 0.017682388 0.06490084 0.024022829
0002b0 88 2d c8 3c 6d 32 a6 bd 53 63 d3 3b 79 f1 41 3d
       0.024435773 -0.08115087 0.0064510494 0.047349427
0002c0 cc 2e 94 3d a1 26 8f bd 90 17 a3 3d 97 c2 86 3b
       0.07235488 -0.0698979 0.079634786 0.0041125524
0002d0 d1 aa 4b 3d 96 a7 45 bd a6 61 5f 3d 1a a9 7e 3d
       0.04972345 -0.048255526 0.054536484 0.062172987
0002e0 95 07 ba bc be 61 b0 3c b0 98 06 bc 30 aa a4 bd
       -0.022708694 0.021530982 -0.0082151145 -0.08040273
0002f0 78 ca 4d 3c 32 bf 6f 3d 99 25 97 bd 5e 61 a1 bd
       0.012560479 0.058531947 -0.07380218 -0.078798994
000300 00 52 a3 3d 32 47 b2 3d 34 65 03 3c 07 93 8e bc
       0.07974625 0.08704986 0.008019734 -0.017404092
000310 d4 f9 c1 ba de 0f 9a bd 51 41 79 b7 ee 62 ac 3d
       -0.0014799186 -0.07522558 -1.4856764e-05 0.08417307
000320 8e 00 24 3d b6 3f c9 3b f1 d7 9a 3d 11 c6 81 3d
       0.04003959 0.006141628 0.07560719 0.06336606
000330 3a de 77 3d 59 4f 6f 3d 5b 48 40 3d ce 3d e0 3b
       0.060514666 0.05842528 0.046944004 0.006843305
000340 03 27 88 bd 04 c3 2c bd 99 36 98 3c 11 66 7b 3d
       -0.06648066 -0.04217817 0.018580722 0.061376635
000350 ff 41 bc 3b 57 38 0a bd 67 09 92 3d d3 38 fd bc
       0.005745172 -0.033745136 0.071306996 -0.030910885
000360 3d 48 6c bd 8c cd 3d 3b 7b a1 28 3d 8b e7 54 bd
       -0.05768608 0.0028961627 0.041169625 -0.05197863
000370 c7 e2 17 3d 8b d0 c5 bd 2b 05 4c 3d 94 70 9c 3d
       0.037081506 -0.09658917 0.049809616 0.0763866
000380 93 e2 93 3d f2 50 5f bd 8f 62 71 3d bf 8f fb 3c
       0.0722095 -0.054520555 0.058931883 0.030708192
000390 7c 78 a6 bd 78 f0 09 bc d0 b1 86 3d 13 dc 5d bd
       -0.08128449 -0.008419149 0.06576884 -0.054164957
0003a0 49 9c bc bd 8e d9 c3 bc 94 83 91 3d ea f7 c9 3c
       -0.092094965 -0.02390745 0.07105175 0.024654347
0003b0 58 54 57 bc 75 9d a7 bd 5b 98 73 3d 20 04 32 bd
       -0.013142668 -0.081843294 0.05947147 -0.043460965
0003c0 b2 47 8e 3d 3c 65 a7 bb 4d 6a 11 3c 4f e8 d6 bc
       0.069472685 -0.0051085036 0.008875442 -0.02623382
0003d0 dc cc a9 bb 9e ef a7 3d 41 12 24 3c ad 42 13 3d
       -0.005181892 0.082 0.010014118 0.03595226
0003e0 63 82 91 3d 8a b4 5e 3d f8 8c 67 3d 49 ac 1d 3d
       0.071049474 0.054371394 0.056530923 0.038494382
0003f0 87 ee 6d 3d c1 6a 44 3d 32 d7 c9 bd 11 6c 77 bc
       0.058088806 0.04795337 -0.098554984 -0.015101449

bias f4 [64]
000000 d3 0d 47 3b c7 5e 9a 3d d0 a3 0f bb 9e c0 a7 3c
       0.003037323 0.075376086 -0.0021917708 0.02047759
000010 77 86 bd 3c 84 c5 69 3c 49 aa 94 3d 11 1f 06 3d
       0.023135407 0.014268283 0.07259042 0.03274447
000020 3c de a6 3c a7 0a c2 3c a8 f3 66 3d 8a 87 d0 3c
       0.020369641 0.02368672 0.056384712 0.025455255
000030 f7 95 af 39 11 b7 ef bc 56 4f 16 bc 05 17 9b bd
       0.00033490334 -0.029262098 -0.009174189 -0.0757275
000040 72 ee 95 3c a8 f3 1b 3e 87 33 2e bc 7c 67 b6 3d
       0.018302176 0.15229666 -0.010632402 0.08906457
000050 7a 0c c9 3d 2b db 95 bd e2 e7 bb 3d d5 9a a1 bd
       0.09816833 -0.073171936 0.091750875 -0.0789086
000060 b0 ec aa 3d 95 96 d0 bc 83 a1 b8 3d 13 32 90 3d
       0.08345926 -0.025462428 0.09015181 0.07040801
000070 3e 56 1e 3d 63 9a 67 3d 7e 61 59 bd 23 7e 93 3d
       0.038656466 0.05654372 -0.05307149 0.07201793
000080 0e b1 51 3d 2d ad b8 3d 60 b5 ef 3d c6 f0 ea 3c
       0.051194243 0.09017406 0.117045164 0.028679263
000090 44 18 2a bd b9 d1 89 3d 64 8a eb 3d 7f 7a 7a bd
       -0.041527048 0.067294545 0.11501005 -0.061151978
0000a0 b3 c2 15 3c 3a 4a 94 bb d2 bc 83 3d 0c 34 8b 3d
       0.009140658 -0.00452545 0.06432499 0.067970365
0000b0 7b 8d 63 3c ec b9 ca 3d 19 fe de bc 0d 32 bd 3c
       0.013888712 0.09898743 -0.027220773 0.023095155
0000c0 d2 e9 94 bc ea e6 35 3d b8 59 2d 3d 32 20 28 3d
       -0.0181779 0.04440967 0.04232189 0.04104633
0000d0 ed b2 94 3d 85 2b 11 3e a8 8c e3 bc 22 32 ef 3d
       0.0726069 0.14176758 -0.027777031 0.11679484
0000e0 43 1b db 3d fe 00 51 bd 37 00 ea bc 99 cd a9 bd
       0.10698559 -0.051026337 -0.028564556 -0.08291168
0000f0 fc 0c ac 3d 50 ba 67 3d 77 31 10 bd 0c 1b 1c 3e
       0.08400914 0.056574166 -0.035203423 0.15244693
