2023/baseline0806/model/WLTP_trained/PPO_actorcritic_5epoch.pt (torch, 53459 bytes, 11 tensors)

weight f4 [128, 7]
-0.00205386 0.10598741 -0.20109324 -0.3142362 -0.17292146 0.2149759 -0.1712487 0.1449664
0.1203828 -0.32541817 0.25344548 -0.35617155 0.3461044 -0.016225724 -0.016894674 -0.13710302
-0.14443943 0.24509953 0.13875234 -0.07865057 0.36475304 0.08877499 0.04836057 -0.011379461
0.08556575 0.18280825 0.32103753 -0.124073476 -0.16162963 -0.1402585 0.072038695 0.25986665
0.12879804 -0.2431383 0.15358636 -0.22273117 -0.2915465 0.26961792 0.3112235 -0.3730689
0.16558284 -0.062026445 0.161943 0.216568 -0.32119915 -0.32670194 -0.057726458 -0.11751097
-0.37545964 -0.29627338 0.16341639 0.37265977 -0.217072 0.053638924 -0.21491794 -0.26606083
-0.23829076 -0.030282151 0.18449344 0.026657926 -0.33473662 0.08649228 -0.30226737 0.23087747
-0.28167537 0.07798028 -0.05854078 -0.2123297 -0.18379633 -0.29578212 0.27957165 -0.13527536
0.08451939 -0.2125839 -0.039354168 0.18413179 -0.31201074 0.16433795 -0.104289636 0.20843127
0.32377407 0.25880152 -0.29728925 0.20835727 0.21809535 -0.01373402 0.052754145 0.10820686
0.27067417 -0.23880976 -0.26364568 0.29678267 0.326464 -0.2067815 0.21231762 0.10142118
-0.14896584 0.08245317 0.23022842 -0.28439194 0.20865317 0.15519488 0.171801 -0.124710664
0.021081647 0.12972525 -0.34721443 -0.30350712 0.049411155 0.17966384 -0.038693544 0.35826886
0.10844916 0.26609606 0.37216833 0.11066596 0.37505457 0.06423755 0.097655095 0.17862423
0.1318915 0.24858738 0.24705628 -0.24988554 -0.18210538 -0.10476088 -0.068904385 -0.057854664
-0.177391 -0.10553249 0.0541404 0.1541482 0.13741343 0.26083463 -0.005382404 -0.28734174
-0.33509895 0.013088784 -0.34564006 -0.040415622 -0.2537754 -0.21105333 0.329508 0.33817345
0.13364695 0.004941142 0.043553412 -0.37697777 -0.13742 0.2398181 0.016869884 -0.06874403
-0.24716806 0.25214103 -0.34088635 0.21838738 -0.013342919 -0.03621555 0.30929238 0.06284201
0.10782667 -0.18704306 -0.07210825 -0.026450628 0.34521797 0.1394358 -0.31501547 0.20198871
-0.19597015 -0.11440421 0.26144603 -0.115837984 -0.1280181 0.31030157 0.053387735 -0.2451892
0.18415001 -0.122536354 -0.23756759 0.123396695 0.28948978 -0.10917621 0.1329591 0.21591216
0.3642386 -0.3376257 0.33754945 0.31816134 0.19836412 0.23492323 -0.23121409 -0.27137637
-0.08090647 0.3706583 -0.2448085 0.006538743 -0.07107159 0.13014682 0.19273672 -0.14216392
0.3499773 -0.05607854 0.24689665 -0.20975378 0.09959805 0.31482396 0.093174435 0.02818268
0.17777503 -0.05149757 0.15619428 0.28163892 -0.1987077 0.015753776 -0.12252716 -0.3116994
0.06749943 -0.2746945 -0.37399465 0.24421732 -0.26810592 -0.15347518 0.062077157 -0.11834018
0.3496751 0.1605935 0.2038868 -0.073288985 0.3105534 0.07598925 -0.24605496 0.3674055
0.34459013 -0.15317936 -0.2507813 -0.046916842 0.07846896 -0.032930244 0.0011265277 0.2887369
0.09351179 0.34830436 -0.14979744 0.14013292 0.3197425 -0.3082089 -0.33742937 -0.15824375
-0.13541973 -0.071333595 0.102518715 0.3550183 -0.3110394 0.20827736 -0.07878915 -0.15208155
00000000: 0e9a 06bb ed0f d93d 63eb 4dbe 91e3 a0be
00000010: 5312 31be a422 5c3e d25b 2fbe 1272 143e
00000020: 428b f63d 369d a6be 9bc3 813e 1e5c b6be
00000030: 9934 b13e cfeb 84bc b366 8abc bc64 0cbe
00000040: eee7 13be 5ffb 7a3e 1815 0e3e 8d13 a1bd
00000050: e9c0 ba3e a9cf b53d bc15 463d eb70 3abc
00000060: 193d af3d 1632 3b3e 085f a43e 3c1a febd
00000070: 3d82 25be ed9f 0fbe 0689 933d 3e0d 853e
00000080: a2e3 033e 3ff9 78be be45 1d3e a413 64be
00000090: 9545 95be 5c0b 8a3e b058 9f3e e302 bfbe
000000a0: 8c8e 293e 710f 7ebd 63d4 253e 00c4 5d3e
000000b0: 3774 a4be 7a45 a7be 9472 6cbd 97a9 f0bd
000000c0: 3f3c c0be 25b1 97be a056 273e 43cd be3e
000000d0: 1f48 5ebe 7db4 5b3d 7313 5cbe 2039 88be
000000e0: 7e02 74be 4612 f8bc d9eb 3c3e b961 da3c
000000f0: 9962 abbe dd22 b13d cac2 9abe 256b 6c3e
00000100: c137 90be 20b4 9f3d 75c8 6fbd f56c 59be
00000110: 1b35 3cbe c170 97be 0424 8f3e a085 0abe
00000120: 8018 ad3d 98af 59be d631 21bd 0b8d 3c3e
00000130: dfbf 9fbe 3548 283e ce95 d5bd 026f 553e
00000140: b7c5 a53e a281 843e 4c36 98be 9c5b 553e
00000150: 6354 5f3e a804 61bc bb14 583d 8f9b dd3d
00000160: ce95 8a3e 8c8a 74be 91fc 86be e6f3 973e
00000170: 4a26 a73e 88be 53be ca69 593e e8b5 cf3d
00000180: 808a 18be 35dd a83d 00c1 6b3e d29b 91be
00000190: 2da9 553e 68eb 1e3e 9aec 2f3e 4e68 ffbd
000001a0: 6bb3 ac3c b2d6 043e 17c6 b1be 4965 9bbe
000001b0: 5a63 4a3d ccf9 373e 1f7d 1ebd 046f b73e
000001c0: 981a de3d be3d 883e d98c be3e d6a4 e23d
000001d0: 2707 c03e fa8e 833d 65ff c73d 45e9 363e
000001e0: 910e 073e b18d 7e3e 52fc 7c3e ffe1 7fbe
000001f0: d579 3abe df8c d6bd be1d 8dbd 03f9 6cbd
00000200: fca5 35be 6b21 d8bd 53c2 5d3d 07d9 1d3e
00000210: 1bb6 0c3e 1e8c 853e e15e b0bb 751e 93be
00000220: 1792 abbe 5772 563c bcf7 b0be da8a 25bd
00000230: d9ee 81be 5d1e 58be 46b5 a83e 1225 ad3e
00000240: bfda 083e 4ee9 a13b 1065 323d 3b03 c1be
00000250: d4b7 0cbe e092 753e b632 8a3c acc9 8cbd
00000260: a019 7dbe a118 813e a888 aebe f1a0 5f3e
00000270: 429c 5abc c256 14bd 925b 9e3e 50b3 803d
00000280: 3bd4 dc3d 3788 3fbe 7dad 93bd fdae d8bc
00000290: 69c0 b03e 42c8 0e3e b549 a1be 21d6 4e3e
000002a0: 66ac 48be c14c eabd 41dc 853e 773c edbd
000002b0: 2d17 03be d9df 9e3e 19ad 5a3d e112 7bbe
000002c0: d291 3c3e 57f4 fabd eb44 73be 68b7 fc3d
000002d0: 0138 943e c797 dfbd 6e26 083e 1418 5d3e
000002e0: 7b7d ba3e 47dd acbe 48d3 ac3e 0be6 a23e
000002f0: f71f 4b3e b78f 703e 63c3 6cbe d8f1 8abe
00000300: 4bb2 a5bd edc6 bd3e 14af 7abe f442 d63b
00000310: fb8d 91bd 3545 053e c65c 453e 6b93 11be
00000320: 3a30 b33e 9cb2 65bd 7ad2 7c3e b2c9 56be
00000330: 10fa cb3d 9b30 a13e 3dd2 be3d 5ddf e63c
00000340: a80a 363e 1eef 52bd 65f1 1f3e fa32 903e
00000350: 087a 4bbe 100e 813c 85ef fabd 1097 9fbe
00000360: 243d 8a3d c2a4 8cbe 3a7c bfbe 1b14 7a3e
00000370: 2e45 89be 9928 1dbe 9e44 7e3d 565c f2bd
00000380: 9d08 b33e 9f72 243e b4c7 503e 8918 96bd
00000390: db00 9f3e 40a0 9b3d d5f5 7bbe 931c bc3e
000003a0: 1e6e b03e 0ddb 1cbe 6866 80be e02b 40bd
000003b0: 56b4 a03d dde1 06bd ffa7 933a 53d5 933e
000003c0: 1c83 bf3d f354 b23e 8064 19be 017f 0f3e
000003d0: 4ab5 a33e 8fcd 9dbe 8bc3 acbe a60a 22be
000003e0: 78ab 0abe 5917 92bd 55f5 d13d f5c4 b53e
000003f0: 8e40 9fbe a946 553e 355c a1bd 44bb 1bbe

bias f4 [128]
0.11929357 0.10482292 0.30138347 -0.19486314 -0.16504218 0.21846674 -0.092026226 -0.1810381
0.17958249 0.2026185 0.36041278 0.16389689 -0.16990392 0.20266683 0.0024362789 0.2534997
-0.34593138 -0.28932247 -0.34719598 0.15060066 -0.3164865 0.25716266 -0.17857826 -0.25250286
-0.10524759 0.30374643 -0.24433865 -0.12818366 0.19114624 -0.33878902 -0.20916653 0.17786016
-0.25778008 -0.3499356 -0.24448657 -0.11668672 0.14373305 0.059457306 0.3224531 -0.24087425
0.20634307 -0.17190942 -0.035603356 0.13610128 -0.14731698 -0.3578098 0.14343855 0.13678102
-0.3665184 -0.27829963 0.020625668 -0.011392299 -0.028668415 0.31961223 -0.13025247 0.123703256
0.16471083 0.27261737 0.3297779 -0.17824239 -0.080169514 -0.370925 -0.17946929 -0.2923031
0.17508195 -0.12922417 0.1084832 -0.34914824 0.041637156 -0.112563245 -0.3094822 -0.2663625
0.0046679294 0.061499123 -0.23605882 0.030946082 0.053972777 -0.083881654 0.09014456 -0.022769049
-0.18480106 0.012715374 0.14420018 -0.040225647 -0.28726768 -0.089237615 0.1580753 0.20394245
-0.059430346 -0.31666854 -0.20644926 0.05855983 -0.35058987 -0.26291332 -0.24189231 -0.3464749
-0.31215158 -0.10542857 0.009813332 0.20617333 0.23997168 -0.1773663 -0.13657193 -0.044067863
0.027260153 0.12191085 -0.10080714 0.35944638 -0.07250278 0.01516775 -0.090779275 -0.3454989
0.14744742 -0.20636217 -0.018708618 -0.15186854 0.06653163 0.082934625 0.12346462 0.15328845
-0.082328215 0.35923496 -0.27831423 0.13030708 -0.19872403 -0.051056776 -0.37749746 -0.1907592
00000000: 3050 f43d 66ad d63d ef4e 9a3e 348a 47be
00000010: d100 29be bfb5 5f3e 3f78 bcbd 0d62 39be
00000020: 79e4 373e 397b 4f3e 0688 b83e 96d4 273e
00000030: 4bfb 2dbe e587 4f3e faa9 1f3b b6ca 813e
00000040: eb1d b1be 1322 94be acc3 b1be 0f37 1a3e
00000050: 850a a2be d3aa 833e 38dd 36be 0e48 81be
00000060: 0c8c d7bd a784 9b3e e933 7abe 9442 03be
00000070: d7bb 433e c175 adbe c02f 56be f920 363e
00000080: c0fb 83be c22a b3be b05a 7abe 72f9 eebd
00000090: c22e 133e 8189 733d 9318 a53e bda7 76be
000000a0: 994b 533e 0609 30be d3d4 11bd 225e 0b3e
000000b0: 43da 16be d932 b7be 8ee1 123e 5310 0c3e
000000c0: 4da8 bbbe 4a7d 8ebe 29f7 a83c c4a6 3abc
000000d0: 06da eabc 37a4 a33e e760 05be 2258 fd3d
000000e0: f5a9 283e 8194 8b3e a6d8 a83e 2c85 36be
000000f0: ea2f a4bd e2e9 bdbe ccc6 37be c0a8 95be
00000100: af48 333e 5753 04be 712c de3d 8fc3 b2be
00000110: b98b 2a3d 8f87 e6bd 7374 9ebe aa60 88be
00000120: 6ef5 983b 81e6 7b3d 67b9 71be a382 fd3c
00000130: 8f12 5d3d 25ca abbd b69d b83d 2886 babc
00000140: 7d3c 3dbe 2554 503c 36a9 133e a6c3 24bd
00000150: c014 93be 36c2 b6bd 7ede 213e 4ad6 503e
00000160: 3c6d 73bd 6122 a2be 6f67 53be 6fdc 6f3d
00000170: 8480 b3be 939c 86be 9eb2 77be 2865 b1be
00000180: 55d2 9fbe efea d7bd 19c8 203c 1a1f 533e
00000190: 23bb 753e 839f 35be 83d9 0bbe 8180 34bd
000001a0: af50 df3c 65ac f93d f973 cebd 5b09 b83e
000001b0: 567c 94bd 2882 783c 7cea b9bd 3be5 b0be
000001c0: 75fc 163e 9b50 53be d142 99bc 6d83 1bbe
000001d0: bc41 883d a1d9 a93d 05db fc3d a6f7 1c3e
000001e0: b29b a8bd a5ed b73e 347f 8ebe 386f 053e
000001f0: 507e 4bbe e920 51bd 5947 c1be 6156 43be

weight f4 [64, 128]
-0.01383816 -0.05139964 -0.005172569 0.048733316 -0.0679899 -0.04435897 -0.057122514 0.04159201
-0.06238025 -0.021046331 -0.08078704 -0.0018176407 -0.048932258 0.0054499935 -0.013376253 0.018978173
-0.054098383 0.019102333 0.075372845 0.060354553 -0.059308626 -0.07393833 0.044582035 -0.036858927
-0.0009580199 0.03473031 -0.0294978 -0.0058223573 -0.022042183 -0.0006636687 -0.07140331 0.021401502
0.08849284 -0.023117991 0.081249624 -0.06408809 0.0426208 4.948995e-05 -0.06156364 0.052146766
0.013162615 0.031098552 0.073255375 -0.054312848 0.025570782 0.060518835 -0.016684912 -0.025062548
-0.079390176 0.07376122 -0.0027781492 0.039453894 0.02521545 0.0389306 0.068959005 -0.036388095
-0.084107 0.079357445 0.032317188 0.029181732 0.02838297 -0.079090096 -0.06779865 -0.062016502
-0.019889237 -0.04388754 -0.00021229796 -0.051175952 0.07019725 -0.08445725 0.045022972 0.074887566
-0.013569419 0.04293819 0.0651486 0.017842036 0.07695649 -0.074524045 0.005836726 0.048473567
-0.04838129 0.08783831 -0.08003168 0.019215722 0.081238545 0.00092593755 -0.06247624 0.074696586
-0.074784175 -0.060420502 0.025852604 0.031883936 0.07121182 0.00037563572 -0.018357664 -0.018200375
0.07279017 0.020698015 0.06314556 0.0066087665 -0.026919467 0.018665662 0.04244355 0.0011568331
-0.0023797061 0.042687256 -0.024696684 -0.073094785 -0.014805966 -0.0681286 0.045418087 -0.060051695
0.07696421 -0.0004275969 0.077939846 -0.057317674 -0.036866285 0.081729434 -0.014017738 0.037657775
-0.07634696 0.0419486 0.040861223 0.023057552 -0.061914504 -0.059259977 0.08727004 0.021165902
-0.066657074 0.027512252 0.045850042 0.074757025 0.06696986 -0.07502979 0.05045592 -0.048401482
-0.08069555 -0.010265144 0.06723385 -0.07638235 -0.077264786 -0.043850813 -0.08539496 0.07128826
-0.080227286 -0.005044827 0.07693387 0.049678717 0.0626539 0.07230213 -0.060865864 0.06706869
0.07683015 0.074842684 -0.038784344 -0.05362618 -0.06335273 -0.012909806 -0.010901819 -0.077883005
-0.018950602 0.032794133 -0.08771774 0.00627854 0.044666637 -0.046401903 -0.03253781 -0.06297727
0.032683 0.039402757 0.020777011 0.04724436 -0.07555771 -0.0018453521 -0.03327434 0.027649838
-0.024654426 -0.07017336 -0.039198034 -0.029895505 -0.017815042 0.032172337 0.0039604553 -0.04364244
-0.008907858 0.0509426 -0.0014390021 0.032149706 0.04200038 0.020201175 -0.041097205 -0.04147875
-0.082520634 0.029151894 -0.072591454 -0.023970243 -0.019652227 0.0867938 0.012033945 -0.064871036
0.063808866 -0.057981726 0.010779675 -0.011512188 -0.04192857 -0.07341844 0.025325289 -0.012009043
-0.07963854 0.04370529 0.01566354 -0.020360935 -0.07971228 3.727443e-05 0.027543398 0.040489107
-0.06490549 0.043636493 0.042105027 0.076989464 -0.07273317 -0.044184387 -0.044852264 0.03791007
0.03871355 -0.0518062 -0.07685421 -0.046714373 0.07068726 -0.03651488 0.0049005235 -0.017025543
-0.063917674 -0.04473077 -0.025300385 0.069062054 -0.054183494 0.062229898 0.019299904 -0.018397257
-0.006952529 0.014607629 0.014544618 0.052124616 -0.012150455 0.061922736 -0.08289945 0.057446223
0.018748185 0.040659662 -0.004214095 -0.08559072 0.015032516 0.0032780943 0.053264376 0.0230002
00000000: 73b9 62bc 6e88 52bd a77e a9bb 969c 473d
00000010: 4a3e 8bbd c0b1 35bd 4cf9 69bd 625c 2a3d
00000020: 6f82 7fbd 5b69 acbc ad73 a5bd e73d eeba
00000030: 316d 48bd dc95 b23b 1228 5bbc 1d78 9b3c
00000040: 4496 5dbd 7f7c 9c3c 145d 9a3d 5636 773d
00000050: 9aed 72bd fb6c 97bd a79b 363d 63f9 16bd
00000060: a123 7bba 5f41 0e3d 5fa5 f1bc 79c9 bebb
00000070: cf91 b4bc 0dfa 2dba e63b 92bd 3452 af3c
00000080: bc3b b53d f161 bdbc 3466 a63d 9e40 83bd
00000090: 2693 2e3d 6e93 4f38 282a 7cbd d997 553d
000000a0: 02a8 573c 64c2 fe3c ea06 963d 2677 5ebd
000000b0: d179 d13c 99e2 773d ccae 88bc f94f cdbc
000000c0: 5197 a2bd 1f10 973d 9c11 36bb 689a 213d
000000d0: a290 ce3c b175 1f3d 613a 8d3d af0b 15bd
000000e0: 4a40 acbd 2886 a23d 075f 043d 870e ef3c
000000f0: 6783 e83c fdf9 a1bd 05da 8abd 0405 7ebd
00000100: c1ee a2bc 6cc3 33bd 4d9c 5eb9 e09d 51bd
00000110: 93c3 8f3d ecf7 acbd 026a 383d a75e 993d
00000120: 4552 5ebc f5df 2f3d a16c 853d 7629 923c
00000130: 5d9b 9d3d 10a0 98bd 0242 bf3b 388c 463d
00000140: 762b 46bd 92e4 b33d a6e7 a3bd 4a6a 9d3c
00000150: 6560 a63d 9eba 723a 16e7 7fbd 86fa 983d
00000160: 7228 99bd 7d7b 77bd d7c8 d33c bb98 023d
00000170: 81d7 913d f9f0 c439 d062 96bc f418 95bc
00000180: 0313 953d e28e a93c 7652 813d 5a8e d83b
00000190: 3786 dcbc bbe8 983c 4ad9 2d3d e1a0 973a
000001a0: d8f4 1bbb d5d8 2e3d b350 cabc b8b2 95bd
000001b0: b994 72bc 0287 8bbd 5108 3a3d c4f8 75bd
000001c0: 699f 9d3d 162f e0b9 ed9e 9f3d f0c5 6abd
000001d0: 1a01 17bd c361 a73d a8aa 65bc 0a3f 1a3d
000001e0: cc5b 9cbd 4cd2 2b3d 195e 273d 31e3 bc3c
000001f0: 109a 7dbd 97ba 72bd a2ba b23d 1d64 ad3c
00000200: 8183 88bd 6061 e13c 41cd 3b3d 361a 993d
00000210: 7e27 893d 38a9 99bd deaa 4e3d a240 46bd
00000220: b543 a5bd 222f 28bc e7b1 893d 596e 9cbd
00000230: 003d 9ebd e99c 33bd 8ee3 aebd 94ff 913d
00000240: 344e a4bd 134f a5bb 818f 9d3d e97b 4b3d
00000250: b050 803d 2413 943d 7c4e 79bd 4f5b 893d
00000260: 2059 9d3d 1f47 993d 55dc 1ebd 20a7 5bbd
00000270: 13bf 81bd a783 53bc 8b9d 32bc 2081 9fbd
00000280: 4b3e 9bbc 2453 063d 5ca5 b3bd 36bc cd3b
00000290: 5df4 363d ec0f 3ebd 5e46 05bd 3afa 80bd
000002a0: 9cde 053d c964 213d 8d34 aa3c 4d83 413d
000002b0: 00be 9abd bedf f1ba ad4a 08bd ea81 e23c
000002c0: 14f8 c9bc 0db7 8fbd 1e8e 20bd 6be7 f4bc
000002d0: daf0 91bc 24c7 033d b5c6 813b 6ac2 32bd
000002e0: 44f2 11bc 30a9 503d e69c bcba 69af 033d
000002f0: 9708 2c3d ef7c a53c 8b55 28bd 9fe5 29bd
00000300: 9400 a9bd f4cf ee3c d4aa 94bd 3e5d c4bc
00000310: b5fd a0bc f3c0 b13d 062a 453c 1bdb 84bd
00000320: 39ae 823d 3f7e 6dbd 3c9d 303c 9e9d 3cbc
00000330: 4bbd 2bbd 685c 96bd fb76 cf3c 94c1 44bc
00000340: 8819 a3bd 5104 333d d350 803c facb a6bc
00000350: 3140 a3bd 1d57 1c38 b1a2 e13c e8d7 253d
00000360: 2bed 84bd 2ebc 323d 5276 2c3d a7ac 9d3d
00000370: 21f5 94bd b0fa 34bd 02b7 37bd 9747 1b3d
00000380: 1992 1e3d bd32 54bd bd65 9dbd 9257 3fbd
00000390: 7bc4 903d a090 15bd 9294 a03b 2779 8bbc
000003a0: 45e7 82bd 9d37 37bd c142 cfbc 6870 8d3d
000003b0: 83ef 5dbd c7e4 7e3d d51a 9e3c d8b5 96bc
000003c0: 0ad2 e3bb d654 6f3c 8d4c 6e3c 9f80 553d
000003d0: b412 47bc b2a2 7d3d 30c7 a9bd bb4c 6b3d
000003e0: cb95 993c bf8a 263d 6416 8abb 304a afbd
000003f0: f14a 763c 4cd5 563b bf2b 5a3d ea6a bc3c

bias f4 [64]
-0.022569196 0.04581715 0.028544713 0.050304532 -0.06960211 0.019991703 -0.06170663 -0.01844869
-0.050321974 -0.06700307 -0.05559802 0.06465008 -0.06399975 0.07548638 0.05121072 0.06374639
-0.07197283 0.010761192 -0.02182406 0.0039905743 -0.009167227 0.0064058146 0.012923917 0.026214676
-0.014296274 0.063241966 -0.014170544 -0.024306811 0.022968654 0.054270174 -0.025688453 0.08079967
0.04409372 0.014141803 0.0459032 0.026870422 0.052066453 -0.029327236 0.015406931 0.034031514
-0.004518501 -0.06926058 -0.060637366 -0.030398563 -0.06402854 -0.066419296 -0.07377605 0.00056563684
0.0507048 -0.048627775 0.08720918 0.008414948 0.0109597165 0.05039293 0.03360205 0.056897573
0.05099587 -0.021494858 -0.030690469 -0.053601354 -0.028887503 0.04588459 0.008162483 -0.0003342441
00000000: 09e3 b8bc c4aa 3b3d 9ad6 e93c 200c 4e3d
00000010: 8d8b 8ebd a4c5 a33c 17c0 7cbd b521 97bc
00000020: 6a1e 4ebd e838 89bd c0ba 63bd 4367 843d
00000030: 4d12 83bd 9a98 9a3d 55c2 513d 788d 823d
00000040: 7e66 93bd b64f 303c 5fc8 b2bc 5dc3 823b
00000050: 2332 16bc dee7 d13b d6be 533c 29c0 d63c
00000060: eb3a 6abc 0185 813d 922b 68bc 141f c7bc
00000070: c228 bc3c 674a 5e3d 9770 d2bc 4c7a a53d
00000080: 9e9b 343d 05b3 673c fe04 3c3d 5c1f dc3c
00000090: a243 553d ac3f f0bc 5a6d 7c3c a164 0b3d
000000a0: ef0f 94bb 7ed8 8dbd e35e 78bd 6806 f9bc
000000b0: 6521 83bd d706 88bd e617 97bd 3f47 143a
000000c0: d6af 4f3d eb2d 47bd ba9a b23d dade 093c
000000d0: 6290 333c d168 4e3d 4ea2 093d 6e0d 693d
000000e0: 0ce1 503d fc15 b0bc 946a fbbc 188d 5bbd
000000f0: 7ca5 ecbc 7bf1 3b3d efbb 053c 7c3d afb9

weight f4 [32, 64]
0.07784396 0.10401371 -0.059310507 -0.045497537 -0.02504742 -0.056552213 -0.10394287 0.036484126
-0.07261759 -0.032628834 -0.08385522 0.021772392 -0.10462541 -0.07263716 -0.0064905584 0.08755897
0.0315728 0.00847417 -0.014853968 0.07053917 0.11857303 0.093767606 0.023836907 0.123620495
0.121104196 0.10236488 0.10924225 0.08063412 0.009394987 -0.09186277 0.07981775 0.0006758387
-0.07497523 0.034830965 -0.054717537 0.075445384 0.07757381 -0.06342965 -0.08704199 0.042782575
-0.11980255 -0.03438955 0.124347344 0.11811587 -0.097655885 0.08338819 0.10133195 -0.06041061
0.08339853 0.09446873 0.008556882 0.06957018 0.10974441 -0.015438275 -0.09247784 0.100439705
-0.10549909 -0.029827401 -0.047279827 -0.06303241 -0.08664179 -0.062431853 -0.06472314 -0.11395112
0.12240643 0.10874601 -0.03615065 0.038400233 -0.111750856 0.0394215 -0.016653858 -0.11203705
0.121808685 0.034414142 -0.00667512 -0.10645309 -0.120189026 -0.10868162 0.098501146 -0.101870045
0.119552284 -0.09394023 -0.024603248 -0.08002944 0.024107575 -0.10468181 0.06268557 0.08066785
0.09435158 0.1081045 -0.02657294 -0.03188982 -0.12400914 0.045735776 -0.039938364 0.103465475
-0.088026136 -0.046493664 0.0994028 0.045811903 -0.12331361 0.04206392 -0.096406356 0.10969721
-0.102443084 -0.06453125 0.108234674 -0.09351723 -0.10476799 0.119530134 0.06051943 0.043385398
-0.081282936 0.110694714 -0.08121587 -0.123093195 0.04727758 -0.06313659 0.028324872 0.010746643
-0.12369181 -0.019902363 0.12304102 0.035274595 -0.06901754 -0.010863468 -0.08738586 0.06259544
0.076083355 0.014111903 -0.03532557 -0.02151065 -0.05670643 -0.10985576 -0.11309802 -0.030151356
0.07801057 0.00029885504 -0.04774036 -0.09561761 0.007194073 0.079891324 0.11070829 -0.09167669
0.10706342 -0.021956299 0.124305025 -0.06426143 -0.123336986 0.05879567 0.017307501 0.07855792
0.122785844 -0.028393462 -0.011141973 -0.08002234 0.025208507 0.108942136 0.009958038 -0.1255958
0.10930631 -0.06803152 0.071486734 -0.0451201 -0.09674712 -0.07936854 0.03787475 0.09026311
0.040924553 -0.045818806 0.0933771 -0.004429391 -0.047344282 0.00926892 -0.003892279 -0.0066628824
-0.016371893 -0.10405211 -0.08467329 -0.122736685 -0.014316423 0.049522318 0.103531 -0.007607039
-0.04812221 -0.084867544 0.039120667 0.02021588 0.08824175 0.030306326 -0.06227188 -0.033561632
-0.050047204 -0.10716254 0.006610934 -0.11605823 -0.044377208 -0.104696035 0.06256324 -0.09014047
0.06853816 -0.041265793 0.012893101 -0.11756149 -0.017224412 -0.0041719344 0.1066874 0.030946737
0.09845995 0.10161424 -0.12304109 0.029810546 -0.056416444 0.080389656 -0.066926815 0.001628384
-0.043241512 -0.019012418 -0.01739762 0.063916855 -0.093135856 -0.08258976 0.096988894 -0.017330851
-0.099191695 -0.054639906 0.08972489 -0.0050322847 0.10834087 -0.016926192 0.08987384 0.071265616
0.05281859 -0.05392509 -0.065864116 -0.07847463 0.023681592 0.07604034 -0.11897469 -0.027938213
0.097471096 -0.040412933 -0.10595552 0.017432468 0.040486295 -0.11097754 0.094257675 0.096767694
0.028596126 0.08248439 -0.06225063 -0.07065121 0.08165874 -0.1257227 -0.08810094 0.03583097
00000000: a76c 9f3d 2405 d53d 93ef 72bd a05b 3abd
00000010: 3f30 cdbc 4ba3 67bd 00e0 d4bd 6170 153d
00000020: 88b8 94bd d0a5 05bd 49bc abbd 045c b23c
00000030: d945 d6bd cbc2 94bd c0ae d4bb 1e52 b33d
00000040: 7b52 013d 3fd7 0a3c 0f5e 73bc d776 903d
00000050: 6bd6 f23d 3b09 c03d 9e45 c33c be2c fd3d
00000060: 7a05 f83d aea4 d13d 67ba df3d 8023 a53d
00000070: 6eed 193c 8c22 bcbd 7d77 a33d c42a 313a
00000080: 9d8c 99bd eaaa 0e3d 7f1f 60bd 1c83 9a3d
00000090: 05df 9e3d 68e7 81bd 1243 b2bd c83c 2f3d
000000a0: 0a5b f5bd 0fdc 0cbd d2a9 fe3d bce6 f13d
000000b0: cfff c7bd 6dc7 aa3d 2087 cf3d 1e71 77bd
000000c0: d9cc aa3d d278 c13d 2a32 0c3c cf7a 8e3d
000000d0: adc1 e03d d2f0 7cbc 0665 bdbd 55b3 cd3d
000000e0: e80f d8bd 9858 f4bc 7ea8 41bd 2317 81bd
000000f0: 4071 b1bd 8bb8 7fbd 918d 84bd 345f e9bd
00000100: 39b0 fa3d 3ab6 de3d b412 14bd 9049 1d3d
00000110: a2dd e4bd 7078 213d ac6d 88bc ae73 e5bd
00000120: d576 f93d d8f5 0c3d f7ba dabb 1404 dabd
00000130: aa25 f6bd 7894 debd f8ba c93d 3ea1 d0bd
00000140: d4d7 f43d bc63 c0bd c08c c9bc 7ae6 a3bd
00000150: 407d c53c 6b63 d6bd 4b61 803d 3035 a53d
00000160: 673b c13d e465 dd3d 7faf d9bc e69e 02bd
00000170: 81f8 fdbd 7055 3b3d 6996 23bd b5e5 d33d
00000180: 0c47 b4bd 2470 3ebd b293 cb3d 43a5 3b3d
00000190: d98b fcbd 384b 2c3d b270 c5bd eea8 e03d
000001a0: aecd d1bd f628 84bd 24aa dd3d f685 bfbd
000001b0: 9a90 d6bd 37cc f43d 39e3 773d e3b4 313d
000001c0: ab77 a6bd e9b3 e23d 8254 a6bd 4918 fcbd
000001d0: 23a6 413d c24d 81bd 9009 e83c b012 303c
000001e0: 2252 fdbd 480a a3bc eefc fb3d 187c 103d
000001f0: 1159 8dbd b0fc 31bc 5cf7 b2bd 0a32 803d
00000200: 97d1 9b3d 9c35 673c 8bb1 10bd 1a37 b0bc
00000210: 0045 68bd 0ffc e0bd ef9f e7bd faff f6bc
00000220: 01c4 9f3d a5af 9c39 658b 43bd 2ad3 c3bd
00000230: 42bc eb3b 109e a33d 07bb e23d fdc0 bbbd
00000240: 1144 db3d b2dd b3bc a293 fe3d 7f9b 83bd
00000250: 1a98 fcbd bad3 703d 76c8 8d3c fae2 a03d
00000260: 2577 fb3d 6899 e8bc d28c 36bc c1e2 a3bd
00000270: 1282 ce3c 0e1d df3d 0a27 233c 2f9c 00be
00000280: fddb df3d 1c54 8bbd a367 923d dbcf 38bd
00000290: 5b23 c6bd f98b a2bd 8e22 1b3d dedb b83d
000002a0: 81a0 273d 80ac 3bbd 7e3c bf3d 6d24 91bb
000002b0: 14ec 41bd abdc 173c 9b15 7fbb 4f54 dabb
000002c0: 591e 86bc 4619 d5bd 3169 adbd 5f5d fbbd
000002d0: 6e8f 6abc ead7 4a3d 1008 d43d 7844 f9bb
000002e0: cb1b 45bd 09cf adbd fe3c 203d c69b a53c
000002f0: 17b8 b43d f944 f83c cd10 7fbd ec77 09bd
00000300: 4cfe 4cbd 0978 dbbd 89a0 d83b f0af edbd
00000310: e0c4 35bd e06a d6bd 2821 803d 919b b8bd
00000320: bc5d 8c3d 5206 29bd 963d 533c 14c4 f0bd
00000330: 361a 8dbc b9b4 88bb ec7e da3d 0384 fd3c
00000340: 5fa5 c93d 201b d03d f8fc fbbd 3f35 f43c
00000350: ee14 67bd 55a3 a43d ed10 89bd 806f d53a
00000360: 031e 31bd eebf 9bbc 7485 8ebc d7e6 823d
00000370: 03be bebd d224 a9bd 1da2 c63d 6ef9 8dbc
00000380: 0425 cbbd 18ce 5fbd afc1 b73d dde5 a4bb
00000390: d1e1 dd3d cca8 8abc c70f b83d b5f3 913d
000003a0: 4e58 583d 8ee0 5cbd c4e3 86bd 4fb7 a0bd
000003b0: e6ff c13c 0abb 9b3d 01a9 f3bd aede e4bc
000003c0: ed9e c73d 0888 25bd 35ff d8bd 89ce 8e3c
000003d0: f5d4 253d 3148 e3bd 2b0a c13d 242e c63d
000003e0: 6c42 ea3c 93ed a83d 84fa 7ebd 95b1 90bd
000003f0: b33c a73d 74bd 00be 446e b4bd 7fc3 123d

bias f4 [32]
0.043307815 -0.087751165 -0.044106174 0.11417104 0.069153845 -0.023154708 0.04547993 -0.020763349
-0.0695539 -0.10543757 -0.06333556 0.030750392 0.07479269 0.11323196 -0.024898607 0.11826764
0.10588472 -0.07179804 -0.0028794259 0.004456816 -0.059889603 -0.012614455 -0.070671454 -0.056472752
-0.0064165606 0.026005259 -0.010420342 0.015273577 0.0006881415 -0.0113014225 0.10483183 0.018899323
00000000: 8963 313d e2b6 b3bd ada8 34bd 82d2 e93d
00000010: 88a0 8d3d f1ae bdbc 2a49 3a3d e617 aabc
00000020: 4672 8ebd a7ef d7bd 13b6 81bd 3fe8 fb3c
00000030: e92c 993d 28e6 e73d 2af8 cbbc 4e36 f23d
00000040: 17da d83d da0a 93bd c0b4 3cbb 7b0a 923b
00000050: cd4e 75bd dcac 4ebc 32bc 90bd f94f 67bd
00000060: 0342 d2bb fb08 d53c 15ba 2abc 063e 7a3c
00000070: 6564 343a 9a29 39bc 12b2 d63d c1d2 9a3c

weight f4 [2, 32]
0.13516952 0.16011505 0.095145315 -0.109349206 -0.063491836 -0.0506695 -0.10395379 0.0448642
-0.08569396 0.0015374 -0.028496891 -0.059661623 0.00082432834 -0.175735 0.17611529 0.040282875
-0.12868665 0.07854697 -0.047625307 -0.07660431 -0.11343257 -0.10029693 0.12727505 -0.0011143448
0.15404639 0.16469003 -0.0168474 0.11548144 0.019784657 0.17460582 0.06576292 0.15197766
0.08500044 0.032622974 0.04464037 -0.062415097 -0.048463695 0.15216759 0.08151199 -0.061686154
0.040383544 -0.16554461 -0.004570385 0.1184901 0.121923335 0.058721077 -0.0285666 0.09639044
-0.042521954 -0.0013599062 0.04334974 0.081954576 0.06445358 -0.15567997 -0.15974069 -0.09679853
-0.041348785 0.090412505 0.13590188 0.13986744 -0.15697508 -0.078146145 0.15090857 0.07983636
00000000: e169 0a3e 33f5 233e 8cdb c23d 7af2 dfbd
00000010: 0208 82bd d28a 4fbd bae5 d4bd 86c3 373d
00000020: 5180 afbd 9582 c93a 5072 e9bc bf5f 74bd
00000030: bd17 583a e0f3 33be 9157 343e a8ff 243d
00000040: 6fc6 03be 3cdd a03d c112 43bd b8e2 9cbd
00000050: 564f e8bd 7a68 cdbd 6454 023e 350f 92ba
00000060: 56be 1d3e 81a4 283e 8f03 8abc 8981 ec3d
00000070: 6f13 a23c decb 323e b6ae 863d 08a0 1b3e
00000080: b614 ae3d ab9f 053d d2d8 363d f9a6 7fbd
00000090: de81 46bd d2d1 1b3e c2ef a63d 9faa 7cbd
000000a0: 3769 253d 8784 29be 2bc3 95bb f0aa f23d
000000b0: f1b2 f93d 8385 703d 8104 eabc 5a68 c53d
000000c0: 802b 2ebd e13e b2ba 7f8f 313d cdd7 a73d
000000d0: 3d00 843d 926a 1fbe 1093 23be 4f3e c6bd
000000e0: 585d 29bd 312a b93d dd29 0b3e 6939 0f3e
000000f0: 13be 20be 160b a0bd c787 1a3e 3f81 a33d

bias f4 [2]
0.12347192 -0.122433946
00000000: d9de fc3d a6be fabd

weight f4 [2, 32]
-0.006351216 0.053381797 0.14193077 -0.01541308 -0.114969164 -0.061990846 -0.10004783 0.08592479
-0.13302615 0.123315684 0.063556075 -0.17076722 0.022954658 0.017719047 -0.08654918 -0.0415631
-0.027293148 0.06491093 -0.06641378 0.11292267 -0.005018513 0.15767217 -0.09787749 0.14717576
-0.054430734 -0.078856535 -0.067480035 -0.09104945 0.13400336 -0.115631305 -0.080835275 0.094677076
0.10456868 0.008415482 -0.011601093 0.0087493565 -0.045206904 0.06556077 -0.02826006 0.024090417
0.102712706 0.031361375 -0.027469825 0.12216312 0.1546491 -0.078320436 -0.07362972 -0.06687434
0.059358455 -0.085495144 -0.033180676 0.026892014 0.13262495 -0.04908836 -0.09564289 0.017860755
-0.003339098 -0.031985547 -0.0035511884 0.05439627 -0.16093782 0.05125279 0.13755856 0.03342195
00000000: dd1d d0bb dfa6 5a3d 4d56 113e 2587 7cbc
00000010: f474 ebbd 1dea 7dbd e0e5 ccbd 56f9 af3d
00000020: 0238 08be ef8c fc3d b029 823d 9add 2ebe
00000030: 680b bc3c 8927 913c b240 b1bd 123e 2abd
00000040: e195 dfbc 06f0 843d f303 88bd 0044 e73d
00000050: 5772 a4bb d074 213e fe73 c8bd 3eb5 163e
00000060: c3f2 5ebd 897f a1bd f932 8abd 2278 babd
00000070: 2d38 093e 1bd0 ecbd f78c a5bd 0ee6 c13d
00000080: 1b28 d63d 17e1 093c 8312 3ebc 7659 0f3c
00000090: e02a 39bd ba44 863d a481 e7bc 4459 c53c
000000a0: 0a5b d23d c974 003d 6608 e1bc a830 fa3d
000000b0: 555c 1e3e 7766 a0bd 2ecb 96bd 6af5 88bd
000000c0: da21 733d 1418 afbd 76e8 07bd a44c dc3c
000000d0: d6ce 073e e010 49bd 6be0 c3bd b850 923c
000000e0: c5d4 5abb 4703 03bd 0ebb 68bb a0ce 5e3d
000000f0: e2cc 24be 72ee 513d 27dc 0c3e 74e5 083d

bias f4 [2]
-0.17202765 0.0706299
00000000: 0428 30be 69a6 903d

weight f4 [1, 32]
0.11503788 -0.053901646 -0.10507977 -0.009033126 0.020653477 -0.029478222 -0.01996878 -0.067093335
0.12118684 0.06596282 -0.09643815 0.080165364 0.11633808 -0.068131454 -0.0139728235 -0.08469575
0.11081427 -0.06572912 0.06046684 0.13946842 0.05519298 0.08964258 -0.02999852 0.07093447
0.00781733 -0.04304605 -0.10492102 0.07515569 -0.002133767 0.06607049 -0.10589004 -0.1746271
00000000: fb98 eb3d f9c7 5cbd 1034 d7bd adff 13bc
00000010: 7b31 a93c 507c f1bc 9195 a3bc 3b68 89bd
00000020: ce30 f83d 8417 873d 5d81 c5bd bd2d a43d
00000030: a942 ee3d 8188 8bbd 45ee 64bc f774 adbd
00000040: 98f2 e23d fd9c 86bd 14ac 773d cfd0 0e3e
00000050: 0912 623d 8796 b73d 75bf f5bc 1746 913d
00000060: 4214 003c 0e51 30bd d5e0 d6bd 3aeb 993d
00000070: abd6 0bbb f74f 873d e1dc d8bd 72d1 32be
