2023/baseline0806/model/WLTP_trained/PPO_actorcritic_9epoch.pt (torch, 53459 bytes, 11 tensors)

weight f4 [128, 7]
0	0xbac27ebf	-0.0014838799
1	0x3dd831f8	0.10556406
2	0xbe4d0ef4	-0.20025235
3	0xbea149ab	-0.31501517
4	0xbe303003	-0.17205815
5	0x3e5ca0fd	0.21545787
6	0xbe2f4fcb	-0.17120282
7	0x3e14aaba	0.14518252
8	0x3df5c094	0.11999622
9	0xbea71284	-0.32631314
10	0x3e81dd3b	0.25364098
11	0xbeb6bc07	-0.35690328
12	0x3eb0bff0	0.34521437
13	0xbc8aa9ff	-0.016926764
14	0xbc8ef292	-0.01744965
15	0xbe0c002f	-0.13671945
16	0xbe134a03	-0.14383702
17	0x3e7b5366	0.24543533
18	0x3e0e005b	0.13867323
19	0xbda28705	-0.07935909
20	0x3eba6da9	0.3641179
21	0x3db587e2	0.08863808
22	0x3d440a67	0.047861483
23	0xbc4b9acb	-0.012427042
24	0x3db09ca7	0.08623629
25	0x3e3ab59b	0.1823334
26	0x3ea4a4d9	0.3215702
27	0xbdfca877	-0.123368196
28	0xbe254f49	-0.16143526
29	0xbe1015dd	-0.1407084
30	0x3d92e0e1	0.071717985
31	0x3e84ccd9	0.25937536
32	0x3e036af5	0.1283377
33	0xbe783de1	-0.24242355
34	0x3e1d1810	0.1534121
35	0xbe64e5bf	-0.22353266
36	0xbe951001	-0.29113773
37	0x3e89a294	0.2688185
38	0x3e9fb119	0.31189802
39	0xbebf1711	-0.37322286
40	0x3e29599b	0.16538088
41	0xbd7d9e5e	-0.06191861
42	0x3e262d08	0.16228116
43	0x3e5e26a9	0.21694435
44	0xbea43496	-0.3207137
45	0xbea7856b	-0.32718977
46	0xbd6a650a	-0.057225265
47	0xbdefde38	-0.11712307
48	0xbec0173d	-0.3751773
49	0xbe973e0a	-0.2953952
50	0x3e26de5b	0.1629576
51	0x3ebeb5a7	0.37247965
52	0xbe5ec9a6	-0.2175661
53	0x3d5a455c	0.053288803
54	0xbe5cf732	-0.21578673
55	0xbe87e4e1	-0.26541808
56	0xbe736d42	-0.23772147
57	0xbcfc602c	-0.030807577
58	0x3e3daf46	0.18523893
59	0x3cd4f45b	0.025995424
60	0xbeab1d08	-0.33420587
61	0x3db2aa2e	0.087238654
62	0xbe9ae0c3	-0.30249605
63	0x3e6cb56d	0.23116083
64	0xbe9037c1	-0.28167537
65	0x3da12f47	0.078703456
66	0xbd73472c	-0.059394047
67	0xbe58a847	-0.21157943
68	0xbe3b7edd	-0.18310113
69	0xbe97450c	-0.29544866
70	0x3e8edbf0	0.27902174
71	0xbe09d0d3	-0.13458566
72	0x3dad35f9	0.0845756
73	0xbe5a16d8	-0.21297777
74	0xbd22bca4	-0.039730683
75	0x3e3c0db8	0.18364608
76	0xbe9ff688	-0.31242776
77	0x3e27bfb1	0.16381718
78	0xbdd56930	-0.104204535
79	0x3e548d3a	0.20756999
80	0x3ea6033d	0.32424346
81	0x3e83f03f	0.2576923
82	0xbe98b35f	-0.2982435
83	0x3e54c355	0.20777638
84	0x3e5e971a	0.21737328
85	0xbc67a7b1	-0.014139102
86	0x3d5416c7	0.051779535
87	0x3dde3fb9	0.10851998
88	0x3e8a0aaf	0.26961276
89	0xbe757e38	-0.2397393
90	0xbe875350	-0.2643075
91	0x3e977111	0.2957845
92	0x3ea6f3bd	0.32607833
93	0xbe54c375	-0.20777686
94	0x3e59f2ef	0.21284078
95	0x3dcda2fa	0.10040851
96	0xbe181721	-0.14852573
97	0x3daa1d91	0.083064206
98	0x3e6c192b	0.23056476
99	0xbe917527	-0.28409693
100	0x3e56b39c	0.20966953
101	0x3e1e25f1	0.15444161
102	0x3e310be2	0.17289689
103	0xbdfd7226	-0.12375288
104	0x3cade16c	0.021225654
105	0x3e04c296	0.12964854
106	0xbeb1f4ed	-0.34757176
107	0xbe9b1347	-0.30288145
108	0x3d480762	0.048835166
109	0x3e38edc8	0.18059456
110	0xbd1fa941	-0.038979772
111	0x3eb79735	0.3585755
112	0x3dde8ade	0.108663306
113	0x3e87f02b	0.2655042
114	0x3ebe1155	0.37122598
115	0x3de1d21b	0.110264026
116	0x3ebf7ca5	0.37399784
117	0x3d8144ce	0.063119516
118	0x3dc99951	0.09843696
119	0x3e379f6c	0.17931908
120	0x3e06bd9e	0.1315827
121	0x3e7f5c31	0.24937512
122	0x3e7c740a	0.2465364
123	0xbe7f5bd3	-0.24937372
124	0xbe3b4f86	-0.18292055
125	0xbdd530e2	-0.10409714
126	0xbd8bd48d	-0.0682765
127	0xbd6e320f	-0.05815321
128	0xbe3569ec	-0.17716187
129	0xbdd86f72	-0.105681315
130	0x3d5f1cbf	0.054470774
131	0x3e1e7a68	0.15476382
132	0x3e0d719b	0.13812868
133	0x3e85bd03	0.26120767
134	0xbbb05ee1	-0.005382404
135	0xbe92ecad	-0.28696194
136	0xbeabbf85	-0.33544555
137	0x3c64a536	0.013955405
138	0xbeb0d8b9	-0.34540346
139	0xbd2985b9	-0.041387293
140	0xbe8274f0	-0.2547984
141	0xbe57ba0a	-0.21067062
142	0x3ea848bf	0.32868
143	0x3ead92d7	0.33901092
144	0x3e07cfc8	0.13262856
145	0x3b81faa3	0.003966646
146	0x3d2eebe8	0.042705446
147	0xbec1290d	-0.37726632
148	0xbe0d4397	-0.13795315
149	0x3e750c91	0.23930575
150	0x3c861778	0.016368613
151	0xbd8b825e	-0.06811975
152	0xbe7dba41	-0.24778081
153	0x3e810921	0.25202277
154	0xbeaee338	-0.3415773
155	0x3e60281e	0.21890303
156	0xbc5673d9	-0.013089144
157	0xbd1233a0	-0.035693765
158	0x3e9e0520	0.30863285
159	0x3d7ef42f	0.06224459
160	0x3ddb41ec	0.10705933
161	0xbe405f0b	-0.18786256
162	0xbd931745	-0.07182173
163	0xbcd64d6d	-0.026159966
164	0x3eb0e4b9	0.34549502
165	0x3e0e8844	0.13919169
166	0xbea0d7fb	-0.3141478
167	0x3e4e7950	0.20163465
168	0xbe49a161	-0.19690467
169	0xbdea2f8c	-0.1143485
170	0x3e8563ea	0.2605279
171	0xbdec524f	-0.115391366
172	0xbe0419ee	-0.12900516
173	0x3e9e6b00	0.3094101
174	0x3d5850ce	0.052811436
175	0xbe7b1185	-0.24518402
176	0x3e3c4c38	0.1838845
177	0xbdfafa23	-0.12254741
178	0xbe7361ef	-0.23767827
179	0x3dfd27db	0.123611175
180	0x3e947bfc	0.29000843
181	0xbdde58d7	-0.108567886
182	0x3e08b832	0.13351515
183	0x3e5d926f	0.21637891
184	0x3ebaea6d	0.36506978
185	0xbeaca948	-0.337229
186	0x3ead4b4a	0.33846503
187	0x3ea33be9	0.31881645
188	0x3e4bd4be	0.19905373
189	0x3e70eb08	0.23527157
190	0xbe6cc363	-0.23121409
191	0xbe8b1890	-0.27167177
192	0xbda5721e	-0.08078407
193	0x3ebdd619	0.37077406
194	0xbe7b7d1a	-0.24559441
195	0x3bed37b7	0.0072393077
196	0xbd8feb46	-0.07027297
197	0x3e049fc2	0.12951568
198	0x3e4672e5	0.19379766
199	0xbe126d92	-0.1429961
200	0x3eb3b30f	0.35097548
201	0xbd623922	-0.055230267
202	0x3e7c6fda	0.24652043
203	0xbe55aea4	-0.20867401
204	0x3dcd1348	0.10013443
205	0x3ea1bd0a	0.31589538
206	0x3dbf4c28	0.093406975
207	0x3cebb772	0.028773997
208	0x3e3689cb	0.17826001
209	0xbd545759	-0.051841114
210	0x3e1fd068	0.15606844
211	0x3e90468a	0.28178817
212	0xbe4b3231	-0.19843365
213	0x3c836705	0.016040334
214	0xbdfa403f	-0.12219285
215	0xbe9f366d	-0.3109621
216	0x3d8b7749	0.06809861
217	0xbe8c3508	-0.2738421
218	0xbebf7c3a	-0.37399465
219	0x3e7ace73	0.24492817
220	0xbe899b95	-0.26876512
221	0xbe1c4748	-0.15261567
222	0x3d810fb3	0.063018225
223	0xbdf12c96	-0.11776082
224	0x3eb2c9d7	0.34919617
225	0x3e2427ce	0.1603081
226	0x3e4fd2a1	0.20295192
227	0xbd95fb1b	-0.07323285
228	0x3e9ebc9e	0.31003278
229	0x3d9bd542	0.07609035
230	0xbe7c4a44	-0.24637705
231	0x3ebc5d08	0.36789727
232	0x3eb0324b	0.3441337
233	0xbe1bcf4f	-0.152158
234	0xbe80b9cd	-0.25141755
235	0xbd3e4010	-0.046447814
236	0x3d9f8435	0.07788888
237	0xbd08b1ff	-0.033372875
238	0x3ab7087d	0.0013964322
239	0x3e93a571	0.2883716
240	0x3dc0f8ac	0.094224304
241	0x3eb214ac	0.34781396
242	0xbe18b31d	-0.14912076
243	0x3e0fff89	0.14062323
244	0x3ea40f17	0.32042763
245	0xbe9e3b7d	-0.3090476
246	0xbeac90a7	-0.3370411
247	0xbe219e99	-0.15783156
248	0xbe0b12c0	-0.13581371
249	0xbd93f2e8	-0.07224065
250	0x3dd05355	0.10172144
251	0x3eb56ac4	0.35433018
252	0xbe9ee0ff	-0.31031033
253	0x3e557d74	0.20848638
254	0xbda0d21f	-0.078525774
255	0xbe1b98e7	-0.15195046

bias f4 [128]
0	0x3df3d415	0.11905686
1	0x3dd61515	0.1045324
2	0x3e99f387	0.3006861
3	0xbe46bfb5	-0.19409068
4	0xbe294f3f	-0.16534136
5	0x3e5fca00	0.218544
6	0xbdbc7bc7	-0.09203296
7	0xbe387a30	-0.18015361
8	0x3e36fd2d	0.17870016
9	0x3e4f2944	0.20230585
10	0x3eb8132b	0.35952124
11	0x3e278570	0.16359496
12	0xbe2eac0d	-0.1705782
13	0x3e505e4b	0.2034847
14	0x3af958c0	0.0019023642
15	0x3e821209	0.25404385
16	0xbeb13a6b	-0.34614882
17	0xbe93c016	-0.28857487
18	0xbeb159cd	-0.34638825
19	0x3e1a700a	0.15081802
20	0xbea28ee2	-0.31749636
21	0x3e83c27b	0.25734314
22	0xbe37a205	-0.179329
23	0xbe81a3ca	-0.25320274
24	0xbdd94886	-0.10609536
25	0x3e9bd71e	0.3043756
26	0xbe799a41	-0.2437525
27	0xbe02b26b	-0.12763374
28	0x3e43d95f	0.19125889
29	0xbead7b62	-0.33883196
30	0xbe562a77	-0.20914637
31	0x3e36d175	0.17853339
32	0xbe83d03f	-0.25744817
33	0xbeb359ba	-0.35029393
34	0xbe797312	-0.24360302
35	0xbdf0ba46	-0.11754279
36	0x3e13ebd7	0.14445435
37	0x3d763ec1	0.06011844
38	0x3ea4f03f	0.32214543
39	0xbe77556e	-0.24153683
40	0x3e540e65	0.20708616
41	0xbe2fc8b1	-0.17166401
42	0xbd14a0f8	-0.036286324
43	0x3e0a7a99	0.1352333
44	0xbe162a96	-0.14664683
45	0xbeb747d9	-0.35797003
46	0x3e134750	0.14382672
47	0x3e0caf64	0.13738781
48	0xbebc007c	-0.3671912
49	0xbe8ea8ad	-0.27863064
50	0x3c9fe62a	0.01951893
51	0xbc2a6574	-0.010400165
52	0xbcf27c68	-0.029600337
53	0x3ea359b0	0.31904364
54	0xbe060b08	-0.13090146
55	0x3dfed6c8	0.1244331
56	0x3e27a580	0.16371727
57	0x3e8b3be6	0.27194136
58	0x3ea85b26	0.3288204
59	0xbe3724d9	-0.1788515
60	0xbda4f487	-0.080544524
61	0xbebd728f	-0.37001464
62	0xbe37fb0c	-0.1796686
63	0xbe955920	-0.2916956
64	0x3e32be1f	0.17455338
65	0xbe038c84	-0.12846571
66	0x3ddd95ad	0.10819564
67	0xbeb28f4f	-0.3487496
68	0x3d2cbed5	0.04217418
69	0xbde76bae	-0.11299835
70	0xbe9ee69f	-0.31035325
71	0xbe881020	-0.26574802
72	0x3b6e8924	0.003639766
73	0x3d7c45ea	0.061590113
74	0xbe7137f6	-0.23556504
75	0x3cf830a0	0.030296624
76	0x3d5ca538	0.053868502
77	0xbdab07ad	-0.083510734
78	0x3db90ef0	0.09036052
79	0xbcbf47df	-0.0233497
80	0xbe3c58c1	-0.18393232
81	0x3c45cd3d	0.012072858
82	0x3e14c57d	0.14528461
83	0xbd263f19	-0.04058752
84	0xbe937593	-0.2880064
85	0xbdb50a80	-0.08839893
86	0x3e221fd9	0.15832461
87	0x3e5090c0	0.20367718
88	0xbd70afd7	-0.058761444
89	0xbea25ae8	-0.3170998
90	0xbe5347d9	-0.20632876
91	0x3d70ac8a	0.058758296
92	0xbeb3eb17	-0.35140297
93	0xbe863a89	-0.26216534
94	0xbe783a9e	-0.2424111
95	0xbeb10717	-0.34575722
96	0xbe9fa995	-0.31184068
97	0xbdd742f2	-0.10510816
98	0x3c127e21	0.008941204
99	0x3e52f4d9	0.20601214
100	0x3e75c299	0.24000014
101	0xbe363e95	-0.1779731
102	0xbe0cae83	-0.13738446
103	0xbd3124f9	-0.04324815
104	0x3cdd6b8d	0.027028823
105	0x3df86b76	0.121298715
106	0xbdcc3556	-0.099711105
107	0x3eb89b95	0.360562
108	0xbd9604d3	-0.07325139
109	0x3c83c4e9	0.016085105
110	0xbdbbced5	-0.091703095
111	0xbeb0c203	-0.3452302
112	0x3e1652a8	0.14679968
113	0xbe52b82d	-0.2057807
114	0xbc920218	-0.017823264
115	0xbe1bcddb	-0.15215246
116	0x3d88c350	0.06677878
117	0x3da814fd	0.08207128
118	0x3dfc3646	0.12315039
119	0x3e1c2be3	0.15251116
120	0xbda8259c	-0.082102984
121	0x3eb80167	0.3593857
122	0xbe8ef570	-0.2792163
123	0x3e0555f5	0.13021071
124	0xbe4c89fd	-0.19974513
125	0xbd55113e	-0.052018397
126	0xbec19e92	-0.37816292
127	0xbe42835b	-0.1899542

weight f4 [64, 128]
0	0xbc622e65	-0.013805007
1	0xbd5424c7	-0.051792886
2	0xbbb8fcd1	-0.0056453724
3	0x3d4bc828	0.04975143
4	0xbd8b3287	-0.06796747
5	0xbd335126	-0.04377856
6	0xbd67d03b	-0.05659507
7	0x3d28d33e	0.04121708
8	0xbd7fef28	-0.062483937
9	0xbca804c2	-0.020510081
10	0xbda37960	-0.07982135
11	0xbaa1c226	-0.0012341186
12	0xbd44f853	-0.048088383
13	0x3bc4e462	0.0060086707
14	0xbc4ada65	-0.012381171
15	0x3c98be3d	0.0186454
16	0xbd5ad38e	-0.05342441
17	0x3ca2155b	0.019785574
18	0x3d9920e6	0.07476978
19	0x3d79c36b	0.06097738
20	0xbd71e79b	-0.059058767
21	0xbd980ba2	-0.07424094
22	0x3d344940	0.04401517
23	0xbd16aa0c	-0.036783263
24	0xbaa8d660	-0.0012881272
25	0x3d0b891e	0.034066312
26	0xbcf02694	-0.02931527
27	0xbba22999	-0.0049488065
28	0xbcb60455	-0.022218863
29	0x393c5943	0.0001796233
30	0xbd90d60e	-0.07072078
31	0x3cb5ba79	0.022183644
32	0x3db756ae	0.0895208
33	0xbcb7c1d0	-0.022431284
34	0x3da58060	0.08081126
35	0xbd8491df	-0.06473135
36	0x3d2c8e3f	0.042127844
37	0x3a80ad1a	0.0009817213
38	0xbd7d3b87	-0.061824348
39	0x3d556fdb	0.052108627
40	0x3c5e01b6	0.013550213
41	0x3d028552	0.031865425
42	0x3d983789	0.074324675
43	0xbd5d7ccf	-0.054074105
44	0x3cce4b16	0.025182288
45	0x3d7ab8d2	0.061211415
46	0xbc8049ab	-0.015660128
47	0xbccb952a	-0.0248514
48	0xbda3c0bc	-0.079957455
49	0x3d9833d9	0.07431764
50	0xbb1e0a8e	-0.0024115178
51	0x3d1ece8f	0.03877121
52	0x3ccbed1b	0.024893334
53	0x3d1fb2bf	0.038988825
54	0x3d8ca790	0.068678975
55	0xbd10e009	-0.035369907
56	0xbdac5204	-0.08414081
57	0x3da3dbff	0.08000945
58	0x3d0629ec	0.032754824
59	0x3ce938b8	0.028469428
60	0x3ceafc0c	0.028684638
61	0xbda2ed79	-0.079554506
62	0xbd890c07	-0.06691747
63	0xbd7abe6c	-0.061216757
64	0xbc9b2f7a	-0.018943537
65	0xbd360fdf	-0.04444873
66	0x395d0e26	0.00021081473
67	0xbd51ada6	-0.051190995
68	0x3d8eda73	0.0697526
69	0xbdab89fc	-0.08375928
70	0x3d3a8df0	0.04554552
71	0x3d988263	0.07446744
72	0xbc67aced	-0.01414035
73	0x3d33401d	0.043762315
74	0x3d866581	0.06562329
75	0x3c99e289	0.018784778
76	0x3d9c9548	0.07645661
77	0xbd970c1d	-0.07375357
78	0x3bd936bb	0.006628839
79	0x3d45db84	0.04830505
80	0xbd4245a1	-0.047429685
81	0x3db4f4fe	0.08835791
82	0xbda3e7a6	-0.08003168
83	0x3ca140b9	0.019684182
84	0x3da581c4	0.080813915
85	0x3a03ce8e	0.00050280325
86	0xbd7d0100	-0.06176853
87	0x3d9a66e6	0.075391576
88	0xbd9aad49	-0.07552583
89	0xbd739f10	-0.059477866
90	0x3cd5a22a	0.026078302
91	0x3d04f6aa	0.0324618
92	0x3d9003a0	0.070319414
93	0x3ab8fa34	0.0014112652
94	0xbc94a650	-0.01814571
95	0xbc999dcf	-0.018752007
96	0x3d94d107	0.07266431
97	0x3cb0bcf7	0.02157448
98	0x3d82053a	0.06348653
99	0x3bf541c6	0.0074846474
100	0xbcd676f3	-0.026179766
101	0x3c93c64b	0.01803889
102	0x3d2b5f50	0.041838944
103	0x3aded81d	0.0017001663
104	0xbaa79756	-0.001278619
105	0x3d2fea09	0.042947803
106	0xbcca50b3	-0.024696684
107	0xbd95b2b8	-0.073094785
108	0xbc67fcbd	-0.014159379
109	0xbd89789f	-0.0671246
110	0x3d37e82a	0.044899143
111	0xbd71c640	-0.059026957
112	0x3d9cf97d	0.076647736
113	0xba3940f3	-0.0007066868
114	0x3d9e5cab	0.07732519
115	0xbd6853df	-0.05672061
116	0xbd16ff27	-0.036864426
117	0x3da82452	0.082100525
118	0xbc58f5eb	-0.013242225
119	0x3d1a3f0a	0.037657775
120	0xbd9a3404	-0.075294524
121	0x3d29d964	0.041467085
122	0x3d2af94c	0.041741654
123	0x3cc241da	0.023713041
124	0xbd7984de	-0.060917728
125	0xbd737240	-0.05943513
126	0x3db3bdec	0.08776459
127	0x3cad686e	0.02116796
128	0xbd8a0ce1	-0.06740738
129	0x3cdb4f8e	0.026771333
130	0x3d3a81a0	0.045533776
131	0x3d978baf	0.073996894
132	0x3d888551	0.06666053
133	0xbd9b2627	-0.07575636
134	0x3d4eaade	0.05045592
135	0xbd4640a2	-0.048401482
136	0xbda30715	-0.07960335
137	0xbc275b07	-0.010214574
138	0x3d88516f	0.06656157
139	0xbd9d1262	-0.07669522
140	0xbd9ee0d2	-0.07757725
141	0xbd34eec8	-0.044173032
142	0xbdaf8bfe	-0.08571623
143	0x3d915607	0.070964865
144	0xbda5064f	-0.08057844
145	0xbbb0fd2d	-0.0054012747
146	0x3d9ccb6f	0.076559894
147	0x3d4a2918	0.049355596
148	0x3d7f3ef8	0.06231591
149	0x3d9372b7	0.071996145
150	0xbd7a6ebf	-0.061140772
151	0x3d88b904	0.06675914
152	0x3d9bd22e	0.07608448
153	0x3d97a85b	0.07405158
154	0xbd20892e	-0.039193325
155	0xbd5cf4b0	-0.05394429
156	0xbd8262da	-0.06366511
157	0xbc60483d	-0.013689098
158	0xbc37c68a	-0.011216769
159	0xbd9d440e	-0.07678996
160	0xbca09158	-0.019600555
161	0x3d044448	0.03229168
162	0xbdb45557	-0.0880534
163	0x3bc3626b	0.00596266
164	0x3d35eb54	0.04441388
165	0xbd3f5439	-0.04671118
166	0xbd0687da	-0.032844402
167	0xbd8266c8	-0.0636726
168	0x3d048fa4	0.03236355
169	0x3d2002cf	0.03906518
170	0x3ca420a4	0.020035096
171	0x3d403c39	0.046932433
172	0xbd9b6e89	-0.07589442
173	0xbb103b76	-0.0022008098
174	0xbd0b874b	-0.034064572
175	0x3cdfe0f9	0.027328955
176	0xbccc513e	-0.024941083
177	0xbd8fb70d	-0.07017336
178	0xbd1f388c	-0.038872287
179	0xbcf81158	-0.030281708
180	0xbc987bb9	-0.018613683
181	0x3d024883	0.031807434
182	0x3b6b42e6	0.003589803
183	0xbd35e696	-0.044409357
184	0xbc170f2f	-0.009219929
185	0x3d4dbe39	0.05023024
186	0xbb09955e	-0.002099357
187	0x3d00a4b5	0.031407077
188	0x3d2916e8	0.04128161
189	0x3ca2f567	0.019892408
190	0xbd2b39c5	-0.04180314
191	0xbd2ce6b4	-0.042212203
192	0xbdaa80fb	-0.08325382
193	0x3cec46b8	0.028842315
194	0xbd9553a8	-0.07291347
195	0xbcc72443	-0.024309283
196	0xbca3b39f	-0.019983111
197	0x3db10443	0.08643391
198	0x3c3f76fb	0.011686082
199	0xbd858040	-0.06518602
200	0x3d820c4d	0.063500024
201	0xbd6efa9c	-0.05834447
202	0x3c240b6d	0.01001249
203	0xbc485811	-0.012228028
204	0xbd2d035e	-0.04223954
205	0xbd96fad0	-0.073720574
206	0x3ccc94f6	0.024973374
207	0xbc49de6f	-0.012321099
208	0xbda3ca5d	-0.07997582
209	0x3d31a2e9	0.043368254
210	0x3c894532	0.016756628
211	0xbcaa9f29	-0.020827847
212	0xbda4416f	-0.08020293
213	0xb98fc783	-0.00027423733
214	0x3cdf063c	0.027224652
215	0x3d248d23	0.04017366
216	0xbd867a2b	-0.065662704
217	0x3d2fdcb1	0.042935077
218	0x3d2c7652	0.042105027
219	0x3d9d089a	0.07667656
220	0xbd94f521	-0.07273317
221	0xbd38322c	-0.044969723
222	0xbd37b702	-0.044852264
223	0x3d1a0c6d	0.037609506
224	0x3d1d1982	0.038354404
225	0xbd57243b	-0.052524786
226	0xbd9e22b0	-0.0772146
227	0xbd4227ec	-0.047401354
228	0x3d93016c	0.071780056
229	0xbd18aa1c	-0.037271604
230	0x3b86ca47	0.004113469
231	0xbc8e0393	-0.017335689
232	0xbd839470	-0.064247966
233	0xbd388051	-0.045044247
234	0xbcd1d2e2	-0.025613252
235	0x3d8fadb3	0.07015552
236	0xbd5f4c9f	-0.05451643
237	0x3d7bfce9	0.06152049
238	0x3c9b0b41	0.018926265
239	0xbc9bf514	-0.01903776
240	0xbbef8659	-0.0073097167
241	0x3c6805b5	0.014161517
242	0x3c64c186	0.013962155
243	0x3d53f972	0.05175156
244	0xbc4c7553	-0.012479144
245	0x3d7a65b1	0.061132137
246	0xbdaa7a3e	-0.08324097
247	0x3d6fc5b1	0.058538143
248	0x3c939f8b	0.018020412
249	0x3d274182	0.040833957
250	0xbb8a1664	-0.004214095
251	0xbdb0023e	-0.08594178
252	0x3c764af1	0.015032516
253	0x3b405271	0.0029346014
254	0x3d577ca3	0.052609097
255	0x3cb9723f	0.022637485

bias f4 [64]
0	0xbcbcb9df	-0.023037849
1	0x3d3a4be7	0.045482542
2	0x3cf135b5	0.029444555
3	0x3d4c7d92	0.04992444
4	0xbd8d756d	-0.06907163
5	0x3ca44f9b	0.02005749
6	0xbd7f4e9b	-0.062330823
7	0xbc9e8ec5	-0.019355187
8	0xbd4ab8de	-0.04949271
9	0xbd87aa93	-0.06624331
10	0xbd6060d8	-0.054779857
11	0x3d8401fe	0.064456925
12	0xbd845922	-0.06462313
13	0x3d9c2275	0.0762376
14	0x3d54aadf	0.051920768
15	0x3d8162d5	0.06317679
16	0xbd91677f	-0.070998184
17	0x3c31966f	0.010839089
18	0xbcb5c3b6	-0.022188049
19	0x3b9f3821	0.004858986
20	0xbc21652d	-0.009850782
21	0x3bc4ebed	0.00600957
22	0x3c5c7b04	0.013457064
23	0x3cd6c029	0.026214676
24	0xbc668877	-0.014070622
25	0x3d832fe0	0.06405616
26	0xbc5ce60c	-0.013482582
27	0xbcceafdc	-0.02523034
28	0x3cb99a00	0.02265644
29	0x3d5fde7d	0.05465554
30	0xbcd90c8a	-0.026495237
31	0x3da4ec26	0.08052854
32	0x3d30c8e0	0.04316032
33	0x3c638e46	0.013888901
34	0x3d3f5e95	0.04672106
35	0x3cd8e739	0.026477443
36	0x3d53991d	0.051659692
37	0xbceea824	-0.02913291
38	0x3c822e9f	0.015891371
39	0x3d0ebba0	0.034846902
40	0xbb850567	-0.004059482
41	0xbd8e5f0f	-0.06951725
42	0xbd785ee3	-0.060637366
43	0xbcfcde97	-0.030867858
44	0xbd81e632	-0.063427344
45	0xbd87d1b3	-0.06631794
46	0xbd95748e	-0.07297622
47	0xb8b18344	-8.464468e-05
48	0x3d516416	0.05112084
49	0xbd486ba7	-0.04893079
50	0x3db15b07	0.0865994
51	0x3c02eee2	0.007991524
52	0x3c39abf0	0.011332497
53	0x3d530558	0.051518768
54	0x3d0b4d64	0.034009352
55	0x3d65a3dc	0.05606447
56	0x3d4f3903	0.05059148
57	0xbcb54b09	-0.022130506
58	0xbcff0b64	-0.031133361
59	0xbd58c24a	-0.052919663
60	0xbce8c434	-0.02841387
61	0x3d3dd0a2	0.046341546
62	0x3bee405a	0.007270855
63	0x38b70161	8.726377e-05

weight f4 [32, 64]
0	0x3d9e3a68	0.07725984
1	0x3dd4387b	0.10362335
2	0xbd73a302	-0.05948163
3	0xbd38c35a	-0.045108177
4	0xbccbb74b	-0.024867674
5	0xbd6633c0	-0.056201696
6	0xbdd3d2bf	-0.10342931
7	0x3d1251d4	0.03572257
8	0xbd9570d6	-0.07296912
9	0xbd05434b	-0.03253488
10	0xbdad2f9e	-0.08456348
11	0x3cb0644a	0.021532197
12	0xbdd71df5	-0.10503761
13	0xbd95459e	-0.07288669
14	0xbbdec3e6	-0.0067982553
15	0x3db32214	0.08746734
16	0x3d04d2cb	0.03242759
17	0x3c180456	0.0092783775
18	0xbc67c441	-0.014145912
19	0x3d912d4d	0.070887186
20	0x3df107e8	0.11769086
21	0x3dc05b67	0.093924336
22	0x3cbdf130	0.023186296
23	0x3dfd2cbe	0.123620495
24	0x3df89c39	0.12139172
25	0x3dd03406	0.10166173
26	0x3dde6dfb	0.10860821
27	0x3da3aaab	0.07991537
28	0x3c1d0572	0.009583818
29	0xbdbd6689	-0.09248073
30	0x3da37fc7	0.07983356
31	0x3a5c922e	0.00084141165
32	0xbd9b553a	-0.07584615
33	0x3d0ff733	0.035147857
34	0xbd634736	-0.055487834
35	0x3d9ad762	0.07560612
36	0x3da02867	0.07820206
37	0xbd8122f5	-0.06305496
38	0xbdb24f09	-0.08706481
39	0x3d2c9340	0.042132616
40	0xbdf6d388	-0.12052065
41	0xbd0a43fa	-0.033756234
42	0x3dfea9d2	0.124347344
43	0x3df1552a	0.11783822
44	0xbdc8f49e	-0.09812282
45	0x3dabfe37	0.08398097
46	0x3dce09d2	0.10060467
47	0xbd798d4d	-0.06092577
48	0x3daa2205	0.0830727
49	0x3dc1053a	0.09424825
50	0x3c170fc7	0.00922007
51	0x3d8f73df	0.070045225
52	0x3de1d418	0.11026782
53	0xbc76033a	-0.015015418
54	0xbdbdc1fb	-0.092655145
55	0x3dcf158b	0.10111531
56	0xbdd945c4	-0.1060901
57	0xbceb782c	-0.028743826
58	0xbd43a22f	-0.047762092
59	0xbd82d5be	-0.06388424
60	0xbdb27e6a	-0.08715518
61	0xbd7ca6e1	-0.061682586
62	0xbd85ee80	-0.06539631
63	0xbdeac8f4	-0.1146411
64	0x3dfabb41	0.12242747
65	0x3ddeb63a	0.10874601
66	0xbd1407d5	-0.03614028
67	0x3d1d4990	0.038400233
68	0xbde534c1	-0.11191703
69	0x3d217870	0.0394215
70	0xbc880fb7	-0.016609056
71	0xbde573ae	-0.11203705
72	0x3df9cd48	0.121973574
73	0x3d0d7132	0.03453178
74	0xbbd287a7	-0.0064248624
75	0xbdda0414	-0.10645309
76	0xbdf61264	-0.120152265
77	0xbdde9478	-0.10868162
78	0x3dc9c50d	0.098520376
79	0xbdd0a13e	-0.101870045
80	0x3df4d7d4	0.119552284
81	0xbdc063bc	-0.09394023
82	0xbcc98cc0	-0.024603248
83	0xbda3dcf6	-0.08001129
84	0x3cc57d40	0.024107575
85	0xbdd65a63	-0.10466459
86	0x3d806a7c	0.0627031
87	0x3da53530	0.08066785
88	0x3dc13f9f	0.09435963
89	0x3ddd47fd	0.10804746
90	0xbcd96734	-0.026538469
91	0xbd027cc2	-0.03185726
92	0xbdfcdb22	-0.12346484
93	0x3d3b5570	0.045735776
94	0xbd237875	-0.0399098
95	0x3dd3e1ac	0.10345778
96	0xbdb4470c	-0.088026136
97	0xbd3ef367	-0.046618845
98	0x3dcb9a5c	0.09941551
99	0x3d3c0170	0.04589981
100	0xbdfc5f86	-0.12322907
101	0x3d2c4b38	0.04206392
102	0xbdc5d8a9	-0.09660465
103	0x3de0a8ee	0.10969721
104	0xbdd1cdae	-0.102443084
105	0xbd8428f6	-0.06453125
106	0x3dddaa24	0.108234674
107	0xbdbf85f6	-0.09351723
108	0xbdd6909a	-0.10476799
109	0x3df4d69a	0.119549945
110	0x3d77e8cb	0.060524743
111	0x3d31c3c3	0.043399584
112	0xbda667b5	-0.08125249
113	0x3de2ca31	0.11073721
114	0xbda64401	-0.081184395
115	0xbdfc0d7d	-0.1230726
116	0x3d415a05	0.04720499
117	0xbd814dc2	-0.06313659
118	0x3ce80990	0.028324872
119	0x3c3012b0	0.010746643
120	0xbdfcbf43	-0.12341168
121	0xbca30a48	-0.019902363
122	0x3dfbfcee	0.12304102
123	0x3d107c18	0.035274595
124	0xbd8d5069	-0.06900103
125	0xbc31fcb0	-0.010863468
126	0xbdb2cd58	-0.087305725
127	0x3d80320a	0.06259544
128	0x3d9d55f9	0.076824136
129	0x3c6d133a	0.014469916
130	0xbd100821	-0.035164002
131	0xbcb400a1	-0.021972956
132	0xbd667e6b	-0.056272905
133	0xbddfb893	-0.109238766
134	0xbde7126e	-0.11282812
135	0xbcf0f087	-0.029411567
136	0x3da13d30	0.07872999
137	0x38b59396	8.6582426e-05
138	0xbd3fdad8	-0.046839565
139	0xbdc21528	-0.094766915
140	0x3c01ae0d	0.007915032
141	0x3da51673	0.080609225
142	0x3de44a15	0.111469425
143	0xbdba4de8	-0.09096891
144	0x3ddb271f	0.10700821
145	0xbcbbfa5b	-0.022946527
146	0x3dfd38bb	0.12364336
147	0xbd837b09	-0.064199515
148	0xbdfab4e7	-0.12241536
149	0x3d72d312	0.059283324
150	0x3c9380b7	0.018005712
151	0x3da0e2fa	0.07855792
152	0x3dfb85c4	0.12281373
153	0xbce16149	-0.02751221
154	0xbc2a50f4	-0.010395277
155	0xbda250af	-0.079255454
156	0x3ccc0957	0.024906797
157	0x3de08bb9	0.1096415
158	0x3c2c59f5	0.010519494
159	0xbe00f07a	-0.12591735
160	0x3de1b4cb	0.11020812
161	0xbd89f4be	-0.06736134
162	0x3d940e91	0.07229341
163	0xbd360693	-0.044439863
164	0xbdc63795	-0.0967857
165	0xbda33042	-0.07968189
166	0x3d1c04ca	0.038090505
167	0x3dba6d7b	0.09102913
168	0x3d2ad422	0.041706212
169	0xbd3e71a6	-0.046495102
170	0x3dbf3c7e	0.0933771
171	0xbb71060b	-0.0036777284
172	0xbd3ef92c	-0.046624348
173	0x3c17ba17	0.009260676
174	0xbb4c79d5	-0.0031200547
175	0xbbc484a8	-0.005997259
176	0xbc80312e	-0.01564845
177	0xbdd38983	-0.10328963
178	0xbdac8752	-0.08424248
179	0xbdfc4d95	-0.12319485
180	0xbc745c78	-0.014914624
181	0x3d4a8f69	0.049453173
182	0x3dd31e9a	0.10308571
183	0xbbe3731b	-0.006941212
184	0xbd420e81	-0.047377113
185	0xbdaee8ee	-0.085405216
186	0x3d2253dd	0.03963076
187	0x3caceab4	0.021108009
188	0x3db6428d	0.08899412
189	0x3cf6ab62	0.030111019
190	0xbd7be241	-0.06149507
191	0xbd06c711	-0.03290469
192	0xbd4c094b	-0.04981355
193	0xbddac343	-0.106817745
194	0x3be4f065	0.006986665
195	0xbdee1e8e	-0.116269216
196	0xbd36ca84	-0.044626728
197	0xbdd76126	-0.105165765
198	0x3d7e22d3	0.06204493
199	0xbdb7aac0	-0.08968115
200	0x3d8c5b9c	0.068534106
201	0xbd2a6f31	-0.041609947
202	0x3c59477b	0.013261671
203	0xbdf10d76	-0.117701456
204	0xbc8cb531	-0.017176243
205	0xbb88e68e	-0.004177875
206	0x3dda8c52	0.10671295
207	0x3cfc9542	0.03083289
208	0x3dc90931	0.09816206
209	0x3dce6d7c	0.10079476
210	0xbdfd3845	-0.12364248
211	0x3cf18854	0.029483952
212	0xbd6329de	-0.05545985
213	0x3da44d61	0.08022571
214	0xbd885f3c	-0.066587895
215	0x3ad56f80	0.001628384
216	0xbd31d953	-0.043420147
217	0xbc9d23fe	-0.019182201
218	0xbc8f0440	-0.017458081
219	0x3d830370	0.0639714
220	0xbdbf252a	-0.0933326
221	0xbda813d4	-0.08206907
222	0x3dc6773d	0.09690712
223	0xbc90bfcd	-0.017669583
224	0xbdc93d9b	-0.098262034
225	0xbd621029	-0.055191193
226	0x3db88e18	0.09011477
227	0xbbab119b	-0.0052206046
228	0x3ddc8428	0.10767394
229	0xbc8df23c	-0.01732742
230	0x3db7d526	0.08976202
231	0x3d931bc1	0.07183028
232	0x3d5a5746	0.053305887
233	0xbd5f09b6	-0.05445262
234	0xbd86e3c4	-0.065864116
235	0xbda0aa67	-0.07845002
236	0x3cc4b2b1	0.024010988
237	0x3d9a9d75	0.07549564
238	0xbdf26f0b	-0.11837586
239	0xbce48282	-0.027894262
240	0x3dc7841b	0.09741994
241	0xbd262bad	-0.040568996
242	0xbdd9c6cf	-0.10633623
243	0x3c8b2cf6	0.016989212
244	0x3d23d4b5	0.039997775
245	0xbde466aa	-0.11152394
246	0x3dc18098	0.094483554
247	0x3dc56222	0.09637858
248	0x3cebdc8e	0.028791692
249	0x3da6ab30	0.0813812
250	0xbd7bf8af	-0.06151646
251	0xbd8ebf51	-0.069700845
252	0x3da7628a	0.08173092
253	0xbe01740e	-0.12641928
254	0xbdb53a75	-0.088490404
255	0x3d143ff6	0.03619381

bias f4 [32]
0	0x3d2f611e	0.042817228
1	0xbdb3ab14	-0.08772865
2	0xbd311190	-0.04322964
3	0x3dea4a76	0.114399835
4	0x3d8c63d3	0.068549775
5	0xbcbd9eb3	-0.023146963
6	0x3d3b7488	0.04576543
7	0xbca9c0a7	-0.020721747
8	0xbd9028cf	-0.070390336
9	0xbdd84e50	-0.10561812
10	0xbd807f58	-0.06274289
11	0x3cf41281	0.02979398
12	0x3d9813b6	0.074256346
13	0x3de88dc8	0.113551676
14	0xbcc649a8	-0.024205044
15	0x3df34f10	0.11880314
16	0x3dd7a837	0.10530131
17	0xbd91a07c	-0.07110688
18	0xbb3cb4c0	-0.0028794259
19	0x3b7ce0c9	0.003858613
20	0xbd788897	-0.060677137
21	0xbc5cd36f	-0.013478144
22	0xbd8f0d4e	-0.069849595
23	0xbd6abda6	-0.05730977
24	0xbbde1656	-0.006777565
25	0x3cda38eb	0.026638469
26	0xbc242043	-0.010017457
27	0x3c6c23d1	0.014412836
28	0x39914f30	0.00027715554
29	0xbc3fe5da	-0.011712516
30	0x3dd85426	0.10562925
31	0x3c9febe2	0.019521657

weight f4 [2, 32]
0	0x3e0ae8c9	0.13565363
1	0x3e23f533	0.16011505
2	0x3dc2b053	0.095062874
3	0xbddf3c58	-0.109001815
4	0xbd8299b0	-0.0637697
5	0xbd4e0cc3	-0.05030514
6	0xbdd47183	-0.10373213
7	0x3d399a80	0.04531336
8	0xbdae9cfe	-0.08526038
9	0x3b162a50	0.0022913404
10	0xbce70ee9	-0.028205352
11	0xbd767292	-0.060167857
12	0x3ac411d7	0.001495893
13	0xbe3486ec	-0.17629594
14	0x3e345269	0.17609562
15	0x3d261d4e	0.04055529
16	0xbe037b36	-0.1283997
17	0x3da0237b	0.07819267
18	0xbd4312c1	-0.047625307
19	0xbd9c68dd	-0.076371886
20	0xbde755d1	-0.11295665
21	0xbdcc0d30	-0.09963453
22	0x3e02e97c	0.1278438
23	0xba5a2ddf	-0.00083228754
24	0x3e1e4e0d	0.15459462
25	0x3e2906d4	0.16506511
26	0xbc8b0607	-0.016970647
27	0x3dedb3d9	0.11606569
28	0x3c9d9bd0	0.019239336
29	0x3e333207	0.17499553
30	0x3d88591b	0.066576205
31	0x3e1c3309	0.15253843
32	0x3dac8e3e	0.08425568
33	0x3d03de66	0.032194518
34	0x3d338b71	0.043834154
35	0xbd81309b	-0.06308099
36	0xbd458dad	-0.048230816
37	0x3e1b60ce	0.15173647
38	0x3da6d092	0.081452504
39	0xbd7fa30d	-0.062411357
40	0x3d22a63c	0.039709315
41	0xbe285deb	-0.16442077
42	0xbbada701	-0.0052994494
43	0x3df371bc	0.118869275
44	0x3df914e2	0.12162186
45	0x3d6f4786	0.05841782
46	0xbcef658f	-0.029223232
47	0x3dc410e4	0.09573534
48	0xbd3125e6	-0.043249033
49	0xbb05226d	-0.0020314709
50	0x3d318f7f	0.04334974
51	0x3da67526	0.08127813
52	0x3d82ab5d	0.06380341
53	0xbe1ed763	-0.15511851
54	0xbe244515	-0.16041978
55	0xbdc7af47	-0.097502284
56	0xbd28753a	-0.04112742
57	0x3db7d6d4	0.08976522
58	0x3e0aab4a	0.13541904
59	0x3e0f90f2	0.14020136
60	0xbe1ff68d	-0.15621395
61	0xbda1697d	-0.078814484
62	0x3e1b9dce	0.15196916
63	0x3da55b5c	0.08074066

bias f4 [2]
0	0x3dfdc640	0.12391329
1	0xbdfbdb34	-0.12297669

weight f4 [2, 32]
0	0xbbee3cf9	-0.007270452
1	0x3d5a4706	0.05329039
2	0x3e11f53e	0.14253709
3	0xbc722b45	-0.014780824
4	0xbde963a8	-0.11395961
5	0xbd7db747	-0.061942365
6	0xbdcb2efd	-0.09921072
7	0x3dae3ddb	0.08507892
8	0xbe088a09	-0.13333906
9	0x3dfe2b1b	0.124105655
10	0x3d82e486	0.06391244
11	0xbe2dd34e	-0.16975138
12	0x3cbaf68f	0.022822646
13	0x3c913ba6	0.017728638
14	0xbdb33a93	-0.087514065
15	0xbd26b423	-0.040699136
16	0xbcdb73df	-0.02678865
17	0x3d870ea1	0.06594587
18	0xbd8803f3	-0.06641378
19	0x3de9030d	0.11377535
20	0xbb8ba9e1	-0.0042621945
21	0x3e220a4c	0.1582424
22	0xbdc7ad95	-0.09749905
23	0x3e17375a	0.14767209
24	0xbd5bbf25	-0.053649087
25	0xbd9fecce	-0.07808839
26	0xbd88e029	-0.0668338
27	0xbdb95a6a	-0.09050448
28	0x3e0a2f8f	0.13494705
29	0xbdeb5446	-0.11490683
30	0xbda6cb55	-0.08144251
31	0x3dc41b0f	0.095754735
32	0x3dd84d64	0.10561636
33	0x3c09e117	0.008415482
34	0xbc2c18a3	-0.010503921
35	0x3c20ff12	0.0098264385
36	0xbd35e430	-0.04440707
37	0x3d86771d	0.06565688
38	0xbcded6e2	-0.027202073
39	0x3cc12436	0.023576837
40	0x3dd48bc5	0.103782214
41	0x3d002ad1	0.031290833
42	0xbcd7d679	-0.026347386
43	0x3dfc2442	0.12311603
44	0x3e1f6a5b	0.15567915
45	0xbda15113	-0.07876792
46	0xbd94b3e0	-0.07260871
47	0xbd86b558	-0.06577557
48	0x3d77af6d	0.060470033
49	0xbdacdfa8	-0.084410965
50	0xbd07e876	-0.033180676
51	0x3ce33892	0.027736936
52	0x3e08ea37	0.13370596
53	0xbd44cd87	-0.04804757
54	0xbdc2835e	-0.094977126
55	0x3c9b50ff	0.01895952
56	0xbb203c4e	-0.0024450007
57	0xbcfdb6d0	-0.03097096
58	0xbb249ba6	-0.0025117188
59	0x3d626aef	0.05527776
60	0xbe23eca5	-0.16008241
61	0x3d561158	0.052262634
62	0x3e0c29cf	0.13687824
63	0x3d0cb285	0.034349937

bias f4 [2]
0	0xbe2faeb3	-0.17156486
1	0x3d92f3ae	0.071753845

weight f4 [1, 32]
0	0x3dec2ab8	0.115315855
1	0xbd5d2242	-0.05398775
2	0xbdd8c77c	-0.105849236
3	0xbc178382	-0.0092476625
4	0x3ca6bde8	0.020354226
5	0xbcf0690d	-0.029346967
6	0xbca2b81f	-0.019863186
7	0xbd88609b	-0.06659051
8	0x3df6e958	0.120562255
9	0x3d87ea23	0.06636455
10	0xbdc60ffc	-0.096710175
11	0x3da243ec	0.07923111
12	0x3ded4715	0.115858234
13	0xbd8b6edb	-0.068082534
14	0xbc5d77ec	-0.013517361
15	0xbdadf056	-0.08493106
16	0x3de25aab	0.1105245
17	0xbd87eef4	-0.066373736
18	0x3d77ac14	0.06046684
19	0x3e0e34a9	0.13887276
20	0x3d5f2977	0.054482903
21	0x3db5f74c	0.08885059
22	0xbcf96bad	-0.030446852
23	0x3d8faf7e	0.07015894
24	0x3be2f39c	0.006926013
25	0xbd31c417	-0.043399896
26	0xbdd5f602	-0.10447313
27	0x3d985fb0	0.07440126
28	0xbb42c376	-0.0029718555
29	0x3d8620e9	0.06549246
30	0xbdd6df52	-0.10491814
31	0xbe32af2d	-0.17449637
