2023/baseline0806/model/WLTP_trained/PPO_actorcritic_1episode.pt (torch, 101507 bytes, 17 tensors)

weight f4 [128, 7]
0	0xbe903e6d	-0.28172627
1	0xbe00bd8b	-0.12572305
2	0x3e20d807	0.15707408
3	0xbd9a24dd	-0.07526562
4	0x3c80c6c8	0.015719786
5	0xbe0a6930	-0.13516688
6	0x3eaad091	0.3336225
7	0x3e1d412b	0.15356891
8	0xbea3c96e	-0.31989616
9	0x3e498859	0.19680919
10	0x3e163a96	0.14670786
11	0x3ea3a8bb	0.3196467
12	0xbe4a1ce3	-0.19737582
13	0x3e9fbd98	0.31199336
14	0x3d9dc4ca	0.0770355
15	0xbde03278	-0.10947126
16	0x3e8766cb	0.26445612
17	0xbeb4a103	-0.35279092
18	0xbe9b6076	-0.3034703
19	0xbbe86750	-0.007092394
20	0xbeb0e595	-0.34550157
21	0x3d92620f	0.071476094
22	0xbdf4deb0	-0.11956537
23	0x3e5a6e1a	0.21331063
24	0xbea153f7	-0.31509373
25	0xbe9c2360	-0.3049574
26	0xbe08c587	-0.133566
27	0x3c20a536	0.009805014
28	0xbe3b68ae	-0.18301651
29	0x3d10bb0e	0.03533464
30	0xbe78119f	-0.24225472
31	0xbead19b5	-0.33808675
32	0x3e82702c	0.25476205
33	0xbe6df1f6	-0.23236832
34	0x3cad17f8	0.021129593
35	0xbe6ff34b	-0.23432653
36	0x3dbb3c0b	0.09142312
37	0x3d23b743	0.039969694
38	0x3e26acbd	0.16276832
39	0xbe5bdc47	-0.21470748
40	0x3e76875e	0.24075076
41	0x3e3fa08a	0.18713585
42	0x3e48b0ca	0.1959869
43	0x3e68dbf2	0.22740152
44	0xbea3963f	-0.31950566
45	0x3c8de634	0.017321683
46	0xbe3484c2	-0.17628768
47	0x3e3ffefc	0.18749613
48	0xbd2ac7aa	-0.04169432
49	0xbe86fed5	-0.26366296
50	0x3ead7a9e	0.33882612
51	0x3ebbdb97	0.3669097
52	0x3e180861	0.14846946
53	0xbdf67270	-0.12033546
54	0xbe67f760	-0.2265296
55	0x3eba90d9	0.36438635
56	0xbe923352	-0.2855478
57	0x3e9f6fae	0.31139892
58	0xbe464052	-0.19360474
59	0x3ea73dad	0.32664242
60	0x3e8856b5	0.26628652
61	0xbd91b7ea	-0.07115157
62	0xbb26325f	-0.0025359613
63	0x3cb1a7fe	0.02168655
64	0xbe863f79	-0.262203
65	0x3e2a9641	0.1665888
66	0x3e8e8450	0.2783532
67	0xbc866e88	-0.016410127
68	0x3eabccd6	0.33554715
69	0x3e95d7c8	0.2926619
70	0x3e48baa5	0.19602449
71	0x3ea2013e	0.31641573
72	0xbd5663df	-0.05234134
73	0x3e8b8724	0.27251542
74	0x3eb0be8f	0.34520385
75	0x3e80be7a	0.25145322
76	0xbe651bd8	-0.22373903
77	0xbd68baeb	-0.056818884
78	0x3e8082a5	0.25099674
79	0x3e8d2675	0.27568403
80	0x3e8b567f	0.2721443
81	0x3deb7e19	0.114986606
82	0x3ddd76b1	0.10813654
83	0x3be910f1	0.0071126153
84	0x3e125344	0.14289576
85	0xbea89d11	-0.32932332
86	0xbca7b430	-0.020471662
87	0xbde3cbb6	-0.11122839
88	0x3b479ccc	0.0030458448
89	0x3ea4a253	0.32155094
90	0xbe85af56	-0.26110333
91	0xbe4d8789	-0.20071234
92	0x3d72f82f	0.059318718
93	0xbe80e2c4	-0.25173008
94	0x3eaa4d8a	0.33262283
95	0x3d209215	0.039201815
96	0xbd3f8bc3	-0.046764147
97	0x3e160d1f	0.14653443
98	0x3e0b51f8	0.13605487
99	0xbe177ff6	-0.14794907
100	0xbdc04dc9	-0.09389836
101	0x3d229da2	0.03970111
102	0xbe9ae9e5	-0.30256572
103	0x3e6d3224	0.23163658
104	0xbe2ceeaa	-0.16887918
105	0x3e2c2db4	0.1681431
106	0xbe95fbcd	-0.2929367
107	0x3e23f447	0.16011153
108	0xbd0dea26	-0.03464713
109	0x3e37220c	0.17884082
110	0xbe27b9fe	-0.16379544
111	0x3ea1a570	0.3157153
112	0xbb4cca2a	-0.003124843
113	0xbeb00961	-0.34382156
114	0xbe7f9023	-0.24957328
115	0x3e807960	0.25092602
116	0x3dfba38d	0.12287054
117	0xbd928f38	-0.07156223
118	0x3b565518	0.0032704528
119	0xbe54078f	-0.20706008
120	0xbeace40f	-0.33767745
121	0x3dbcbce0	0.092157125
122	0x3e84e6a3	0.25957212
123	0x3e458dbc	0.19292349
124	0x3eb9f0ea	0.36316615
125	0x3e2e8d61	0.1704612
126	0xbe8fa680	-0.28056717
127	0x3d5ea039	0.05435202
128	0xbe804a08	-0.2505648
129	0x3ea3a266	0.31959838
130	0x3e755cce	0.23961183
131	0xbe60dc43	-0.21959023
132	0xbe76d63d	-0.24105163
133	0xbea7ffbf	-0.32812306
134	0xbdd59219	-0.104282565
135	0x3eae2c14	0.34018004
136	0x3e67028b	0.22559564
137	0xbd230745	-0.039801855
138	0x3d201723	0.039084565
139	0x3e613472	0.21992663
140	0x3e8dd1e2	0.2769919
141	0x3e527d37	0.20555578
142	0xbe613760	-0.2199378
143	0xbeb5f8be	-0.35541338
144	0xbe955b1b	-0.2917107
145	0x3d7dfa49	0.06200627
146	0x3e8a0134	0.26954043
147	0xbe83c190	-0.25733614
148	0x3e7bfed4	0.24608928
149	0x3ea040d2	0.31299454
150	0x3e2f7dc4	0.1713782
151	0xbd322d4c	-0.04350023
152	0x3dae5e6f	0.085141055
153	0x3e338142	0.17529777
154	0x3e405fd5	0.18786557
155	0xbd8d1228	-0.06888229
156	0xbda79bb5	-0.08183996
157	0xbea33224	-0.31874192
158	0xbe021cfa	-0.12706366
159	0xbeaa4fa0	-0.33263874
160	0x3dce5335	0.10074464
161	0xbdd93e52	-0.1060759
162	0xbe63ea9c	-0.22257465
163	0x3eb3c480	0.35110855
164	0xbd6e8673	-0.05823369
165	0xbda20103	-0.07910349
166	0xbe853e8b	-0.2602428
167	0x3e2edbbf	0.17076014
168	0xbe97f272	-0.2967716
169	0x3e375529	0.1790358
170	0xbd01ea9e	-0.03171789
171	0x3eafc56b	0.34330305
172	0x3e2e6667	0.17031251
173	0xbeac62aa	-0.33669025
174	0x3e9f006e	0.31055015
175	0xbc400077	-0.011718861
176	0xbe0b105d	-0.13580461
177	0xbe9b46b6	-0.30327386
178	0xbea9686f	-0.3308749
179	0xbe36ea46	-0.17862806
180	0xbe93e824	-0.28888047
181	0xbe880790	-0.2656827
182	0x3e0c9ffb	0.13732903
183	0xbeb33b4f	-0.35006186
184	0x3eb8c164	0.36085045
185	0xbe4730af	-0.19452165
186	0xbe915de8	-0.28391957
187	0xbd6de95d	-0.05808388
188	0x3e0ddaa9	0.13852943
189	0xbea5d5de	-0.3238973
190	0x3dd315df	0.10306906
191	0x3dc1b98a	0.09459217
192	0xbd95365e	-0.0728576
193	0x3e751346	0.23933133
194	0xbd1f6da7	-0.038922932
195	0xbd676a66	-0.056497954
196	0x3e170c6b	0.14750831
197	0xbe41aea8	-0.18914282
198	0x3e58a043	0.21154885
199	0xbddcdd11	-0.107843526
200	0x3e65e9ad	0.22452421
201	0x3eb2a4db	0.348914
202	0x3ea763ad	0.32693234
203	0xbe585802	-0.21127322
204	0x3eaf6101	0.34253696
205	0xbe84537d	-0.25844947
206	0xbcfa8aba	-0.030583728
207	0x3ded5b59	0.11589689
208	0x3da06c23	0.078331254
209	0x3da48014	0.080322415
210	0x3ccba8af	0.024860708
211	0xbe76cee0	-0.24102354
212	0xbebac35b	-0.3647717
213	0x3eb22eb4	0.34801257
214	0x3e235372	0.159498
215	0x3dfcd183	0.12344649
216	0x3e177683	0.14791302
217	0xbdcb1450	-0.09915984
218	0x3e4c7b49	0.19968905
219	0xbe100c52	-0.140672
220	0xbe0dd15a	-0.13849393
221	0xbea40f50	-0.32042933
222	0x3da3a6d7	0.079908065
223	0x3ea7491e	0.3267297
224	0xbe7dff4b	-0.24804418
225	0xbe827d5b	-0.25486264
226	0xbec077c6	-0.3759138
227	0x3e84dbaf	0.25948855
228	0xbd4635df	-0.04839122
229	0xbe132996	-0.14371333
230	0xbd1fb43a	-0.038990237
231	0xbd50345f	-0.050831195
232	0xbe2ec166	-0.17065963
233	0x3eb14771	0.34624818
234	0xbd94fe5f	-0.0727508
235	0x3de0fada	0.10985346
236	0x3eace980	0.33771896
237	0x3e94dea6	0.29076117
238	0xbda7cc76	-0.08193295
239	0x3e94ef97	0.29089043
240	0xbd8ae285	-0.067814864
241	0xbe5952f0	-0.21223044
242	0xbdcbed13	-0.09957328
243	0xbbe028af	-0.0068407874
244	0xbdc794c4	-0.09745172
245	0x3e563ffc	0.20922846
246	0x3d85fcb2	0.065423384
247	0xbebbf1e3	-0.36707982
248	0x3dd3fea0	0.103513
249	0xbda2a805	-0.079422034
250	0xbd42b471	-0.047535364
251	0x3ddbe59f	0.10737156
252	0x3ebf42a3	0.37355527
253	0x3ebe0659	0.37114218
254	0xbdeb2b68	-0.114828885
255	0xbe30b8d7	-0.17258011

bias f4 [128]
0	0xbe526c4a	-0.20549121
1	0x3d9cecef	0.07662379
2	0x3e94531d	0.2896966
3	0xbdba5bd3	-0.09099545
4	0x3e98dacd	0.29854432
5	0x3ea735d7	0.32658264
6	0xbe8eda8d	-0.27901116
7	0xbc2523be	-0.010079322
8	0xbbc5d044	-0.00603679
9	0x3e256f7f	0.16155814
10	0xbe86609a	-0.26245576
11	0x3cd121e7	0.025528861
12	0x3e7f92a2	0.2495828
13	0x3e4022ba	0.18763247
14	0xbba856f5	-0.005137319
15	0x3ce338f2	0.027737115
16	0x3e9f6cb5	0.31137624
17	0xbe93b7b8	-0.28851104
18	0xbe25eb4e	-0.16203043
19	0x3ea1ee06	0.3162691
20	0x3e5c9277	0.21540247
21	0x3df33d68	0.11876947
22	0x3d33d4d5	0.043904144
23	0xbe3cc3e4	-0.18434101
24	0x3d2a3b17	0.04156026
25	0x3e3bc353	0.18336229
26	0xbe8500d6	-0.259772
27	0x3e67538c	0.22590464
28	0xbe951631	-0.29118493
29	0x3da4c163	0.08044698
30	0xbdbe0fd9	-0.092803665
31	0xbe276f78	-0.16351116
32	0x3c4b4b40	0.012408078
33	0x3e98165c	0.2970456
34	0x3da384dd	0.07984326
35	0x3e350d4d	0.17680855
36	0xbe0f9e76	-0.14025292
37	0xbdd4783c	-0.103744954
38	0x3de3c6b9	0.11121888
39	0x3e3c20f0	0.1837194
40	0x3e3ce1c0	0.18445492
41	0x3de605ed	0.11231599
42	0x3da6831d	0.081304766
43	0x3dc73876	0.09727566
44	0x3e194380	0.14967155
45	0xbda9a314	-0.08283058
46	0xbe004df0	-0.12529731
47	0x3e78cd01	0.24296953
48	0x3e8cefbc	0.27526653
49	0xbe2bc315	-0.16773637
50	0xbea8be1a	-0.32957536
51	0x3d1693f9	0.03676221
52	0x3d72fd28	0.05932346
53	0x3e732f94	0.23748618
54	0xbe91a93c	-0.28449428
55	0xbc328256	-0.010895332
56	0xbe29471e	-0.16531035
57	0x3ebb8ab1	0.3662925
58	0x3a1153b2	0.00055437826
59	0xbde02098	-0.10943717
60	0xbe0479ef	-0.12937139
61	0xbe3d6c5e	-0.1849837
62	0xbeb52992	-0.35383278
63	0xbcd242a5	-0.025666544
64	0xbe32379a	-0.17404023
65	0x3ebb80dd	0.36621752
66	0x3e8f6a26	0.28010672
67	0xbe81b533	-0.25333557
68	0xbe93185b	-0.2872952
69	0x3e3f2771	0.1866739
70	0xbd5a31c8	-0.05327013
71	0x3e62335c	0.22089905
72	0xbda8efd4	-0.082488686
73	0x3e5cd20c	0.21564502
74	0x3e4522cb	0.19251554
75	0xbd2fb5b5	-0.0428979
76	0x3e0dceb2	0.13848379
77	0x3cdaa048	0.026687756
78	0x3ea534e8	0.32266927
79	0xbe9b5f70	-0.3034625
80	0x3cf9d14a	0.030495305
81	0xbdc6fa5a	-0.097157195
82	0xbeb8690b	-0.3601764
83	0xbe9d8417	-0.3076484
84	0x3cfcb749	0.030849116
85	0x3da58a93	0.080830716
86	0xbe999b88	-0.30001473
87	0xbe9bd595	-0.30436388
88	0xbd809040	-0.062775135
89	0x3ea0e635	0.31425634
90	0xbe36772b	-0.17818896
91	0xbcd14efc	-0.025550358
92	0xbd3cb5a1	-0.046071652
93	0xbe7c165a	-0.24617901
94	0x3e20fba1	0.15720989
95	0x3e82e00f	0.25561568
96	0xbde0e3ed	-0.109809734
97	0xbe948149	-0.29004887
98	0x3e0b9c3d	0.13633819
99	0xbe81c522	-0.25345713
100	0xbe046382	-0.12928584
101	0x3d9846d1	0.07435382
102	0x3e8abb5f	0.27096078
103	0x3ea058a4	0.31317627
104	0xbb9ce94f	-0.0047885547
105	0x3eaa8702	0.33306128
106	0xbebbbaa5	-0.36665836
107	0x3e8cbaf4	0.27486384
108	0x3e435de3	0.19078784
109	0x3d89d99e	0.0673096
110	0x3e293349	0.1652347
111	0x3ea54671	0.32280305
112	0x3db461a6	0.088076875
113	0x3e4f7df6	0.20262894
114	0x3deb44d8	0.1148774
115	0x3e7b4760	0.24538946
116	0x3d0a3fb5	0.033752162
117	0xbcc1f173	-0.023674702
118	0xbe9877b1	-0.29778817
119	0x3e70ed6c	0.2352807
120	0x3d38a77f	0.04508161
121	0x3e696a00	0.22794342
122	0xbea33ffd	-0.31884757
123	0xbe77533d	-0.24152847
124	0xbeba837e	-0.36428446
125	0x3d87ea71	0.06636513
126	0x3e97a404	0.29617321
127	0xbcd8779f	-0.026424227

weight f4 [64, 128]
0	0x3cb0023c	0.02148544
1	0x3d4c1e01	0.0498333
2	0x3cc024cf	0.023455052
3	0x3d1005ff	0.03516197
4	0x3d73d92d	0.059533287
5	0x3d4f9eb6	0.050688468
6	0xbd02328a	-0.03178648
7	0x3bcfed29	0.0063454104
8	0x3d9b7b5c	0.07591888
9	0xbd727025	-0.05918898
10	0x3d2aa210	0.04165846
11	0xbd78e177	-0.060761895
12	0xbda7398b	-0.08165272
13	0x3d9c4b69	0.07631571
14	0x3b062f6c	0.0020475043
15	0xbae04c9b	-0.0017112674
16	0xbd88cf52	-0.06680168
17	0xbd56395b	-0.052300792
18	0xbd17bd30	-0.037045658
19	0xbd39e944	-0.045388475
20	0xbd55e3a1	-0.052219037
21	0x3d1e8077	0.038696732
22	0x3cd06c01	0.025442125
23	0xbd892510	-0.06696522
24	0x3d26ee68	0.040754706
25	0xbd6593c7	-0.056049135
26	0x3da99eab	0.08282217
27	0xbc0d32c5	-0.008618061
28	0x3b285b92	0.0025689346
29	0xbd8c6760	-0.06855655
30	0x3b94761b	0.004530681
31	0x3daa5310	0.08316624
32	0x3b6bb05c	0.0035963273
33	0xbd95a72c	-0.07307276
34	0x3b2ceee4	0.0026387507
35	0x3d643222	0.055711873
36	0x3d961d1f	0.07329773
37	0xbdb96ed5	-0.09054343
38	0xbcea65d5	-0.02861301
39	0xbd8856d1	-0.06657184
40	0x3d55446b	0.0520672
41	0xbca614a1	-0.020273509
42	0xbc35ac17	-0.011088393
43	0x3c1ec0eb	0.00968955
44	0xbbbfa8d8	-0.005848985
45	0xbd4c7003	-0.04991151
46	0xbcd036ba	-0.02541672
47	0xbd099160	-0.033585906
48	0xbd535ff4	-0.05160518
49	0xbc10a859	-0.0088292
50	0x3ce9a930	0.028523058
51	0xbc23746b	-0.009976487
52	0x3c4f310d	0.012645972
53	0x39b4889d	0.0003443406
54	0xbd5e93c5	-0.054340143
55	0xbc0b163b	-0.008489187
56	0xbd4e3ea5	-0.05035271
57	0x3d080ceb	0.033215445
58	0xbd7b01ca	-0.061281003
59	0xbdae33c8	-0.0850597
60	0xbd9fec91	-0.07808793
61	0xbd82a39f	-0.063788645
62	0x3d02e36d	0.03195517
63	0xbc1f6edb	-0.00973102
64	0xbd219740	-0.039450884
65	0xbcc07ee5	-0.023498008
66	0x3cbe32e8	0.023217633
67	0xbda5cad7	-0.08095329
68	0x3d823550	0.06357825
69	0xbda3250d	-0.07966051
70	0x3d8b2dca	0.06795843
71	0x3d9926f4	0.07478133
72	0xbd68b196	-0.056809984
73	0x3c3f01ac	0.011658113
74	0xbd084730	-0.033271015
75	0x3cb0ce34	0.0215827
76	0x3d90ed20	0.07076478
77	0x3da256c9	0.07926709
78	0xbcaeef29	-0.021354275
79	0x3d83f61f	0.06443428
80	0x3d2aec24	0.041729107
81	0x3d38d999	0.045129392
82	0xbda4a674	-0.08039561
83	0xbb9693a9	-0.004595239
84	0xbd88ac1f	-0.066734545
85	0xbccf1b98	-0.025281712
86	0x3c81e1b5	0.015854696
87	0xbcaa81b1	-0.020813795
88	0x3d11bb4c	0.03557901
89	0xbcebfd04	-0.02880717
90	0xbda55f14	-0.08074775
91	0x3ced1e6c	0.02894517
92	0xbcb53c04	-0.022123344
93	0x3d3b12fc	0.0456724
94	0x3bcff13b	0.0063458956
95	0x3da06bdc	0.078330725
96	0xbb8f34d6	-0.004370312
97	0x3d9e75af	0.0773729
98	0xbd6290ee	-0.055313997
99	0xbd50aefd	-0.05094813
100	0xbd702d14	-0.05863674
101	0xbd94615e	-0.07245134
102	0xbd917560	-0.07102466
103	0xbda2e41c	-0.07953665
104	0x3da6c9c5	0.08143953
105	0xbd3485f5	-0.044073064
106	0xbd81ecc7	-0.0634399
107	0x3d2d1ee8	0.042265803
108	0xbba2a96e	-0.0049640452
109	0xbd3c1eef	-0.045927938
110	0xbd4e8ac8	-0.05042532
111	0x3d8386a1	0.06422163
112	0x3da94466	0.08264999
113	0xbc7f90d5	-0.0155984955
114	0x3d8bed12	0.06832327
115	0xbd1e787c	-0.03868912
116	0xbd649940	-0.055810213
117	0xbd9b379d	-0.07578967
118	0x3d48aa28	0.0489904
119	0xbd125f02	-0.035735138
120	0xbcf5aa85	-0.029988537
121	0xbda92af2	-0.08260144
122	0xbd8bb1ad	-0.06820998
123	0x3d2d1f88	0.0422664
124	0xbbc3c59f	-0.005974486
125	0xbd940b9d	-0.072287776
126	0x3c5c99d3	0.013464409
127	0xbc46bf40	-0.0121305585
128	0xb9462d37	-0.00018899595
129	0x3d8751fc	0.06607434
130	0x3daae7bb	0.0834498
131	0x3ba19bbc	0.004931895
132	0x3d84e671	0.06489266
133	0xbb99e321	-0.0046962653
134	0x3d4a4ad3	0.049387764
135	0x3daee7f3	0.085403346
136	0x39d75740	0.00041073002
137	0xbd71b411	-0.059009615
138	0x3cb44bff	0.022008894
139	0xbd62d4b2	-0.055378623
140	0xbc24f767	-0.010068751
141	0x3b20b8be	0.0024524177
142	0x3cbe3de6	0.023222875
143	0xbd113bde	-0.035457484
144	0x3d38fb11	0.04516131
145	0x3d55c8dc	0.052193508
146	0x3b243baf	0.0025059988
147	0x3d8a5ffd	0.067565896
148	0x3ce2d904	0.027691372
149	0x3c9ba54f	0.018999724
150	0x3d19c30c	0.037539527
151	0xbd741d2b	-0.05959813
152	0xbd16871a	-0.036749937
153	0xbd9e745c	-0.077370375
154	0xbd1481ad	-0.03625648
155	0xbd52545d	-0.051349986
156	0xbca6eca2	-0.020376507
157	0x3d88aa6a	0.06673129
158	0x3c99adad	0.018759573
159	0xbd8359c8	-0.06413609
160	0xbc672eac	-0.014110249
161	0xbd8009c4	-0.06251863
162	0xbd246263	-0.04013289
163	0xbc2073a1	-0.009793193
164	0x3d907b92	0.07054819
165	0xbdb80914	-0.089861065
166	0x3d6eb3f1	0.058277074
167	0x3c805d29	0.015669422
168	0xbd2389db	-0.03992639
169	0xbc9d3b3b	-0.019193282
170	0xbd46be2f	-0.048521217
171	0x3d1b6320	0.03793633
172	0xbd1f04e1	-0.038823012
173	0xbd727f66	-0.059203528
174	0xbc9b365d	-0.01894682
175	0x3d35feb6	0.044432364
176	0xbda6d5a0	-0.081462145
177	0xbd370ca0	-0.044689775
178	0xbd993ac2	-0.0748191
179	0xbdb12287	-0.08649164
180	0x3ca082e7	0.01959367
181	0x3d9e798e	0.077380285
182	0xbd2119e7	-0.039331343
183	0x3cc9c287	0.02462889
184	0xbcc75850	-0.024334103
185	0x3d292646	0.041296266
186	0xbd8c7cf1	-0.06859768
187	0xbbd5a6f1	-0.006520145
188	0x3d4b17b9	0.04958317
189	0xbd7e5204	-0.062089935
190	0x3d8bb663	0.06821897
191	0x3d98b683	0.07456686
192	0x3bdcf83b	0.0067434586
193	0xbd5402ad	-0.051760364
194	0x3e6b1850	0.22958493
195	0x3d07eb54	0.03318341
196	0xbcdf2e01	-0.027243616
197	0x3d21ead5	0.039530594
198	0xbc1022c2	-0.008797349
199	0xbd894989	-0.06703479
200	0x3d01a21b	0.031648736
201	0x3d83e1d4	0.06439558
202	0xbc97a986	-0.018513452
203	0xbc9bf9f5	-0.019040087
204	0x3cc2bf2d	0.0237728
205	0xbdb279c9	-0.08714635
206	0x3c93298e	0.01796415
207	0x3cff91e0	0.031197488
208	0xbc8e820b	-0.017395994
209	0x3ce928b9	0.0284618
210	0xbd11f8ef	-0.035637792
211	0x3da2d666	0.079510495
212	0x3d8d7d2e	0.06908642
213	0xbadc4a98	-0.0016806899
214	0xbd2c6d3a	-0.042096354
215	0x3cc8c693	0.02450875
216	0x3d0ff610	0.035146773
217	0xbc8558ba	-0.01627766
218	0x3cb99519	0.022654103
219	0xbb7788ca	-0.0037770742
220	0x3ded149b	0.11576196
221	0xbd9cfbf8	-0.07665247
222	0xbdaf5a28	-0.08562118
223	0xbc763db6	-0.0150293615
224	0xbcbce6d1	-0.02305928
225	0x3caebf22	0.021331374
226	0x3cf79725	0.030223439
227	0x3d6f9318	0.05848989
228	0xbd4520b9	-0.04812691
229	0x3d8f308a	0.0699168
230	0x3d21c85d	0.039497722
231	0xbba3e5a6	-0.0050017415
232	0xbbec24c4	-0.0072065312
233	0x3d1b3f6c	0.03790228
234	0x3c341e14	0.010993499
235	0x3da69d61	0.081354864
236	0xbdd98745	-0.10621504
237	0x3d262667	0.040563967
238	0x3e812508	0.25223565
239	0xbdab1688	-0.08353907
240	0xbd37fc1c	-0.044918165
241	0x3e069ef5	0.13146575
242	0x3d5d43d3	0.05401976
243	0xbd182ecb	-0.037154
244	0xbd1bfde0	-0.03808391
245	0x3d2989ea	0.04139129
246	0x3d37f122	0.044907697
247	0x3d636e9d	0.05552541
248	0x3d23eda6	0.04002156
249	0xbd2544ec	-0.040348932
250	0x3d10bd2a	0.03533665
251	0x3d8bf133	0.068331145
252	0x3d40c63a	0.047064044
253	0x3d2ad28b	0.041704696
254	0xbd9eab11	-0.07747472
255	0x3d449488	0.047993213

bias f4 [64]
0	0xbdb8e2f6	-0.09027664
1	0xbbeed1b6	-0.007288183
2	0x3d8c3659	0.068463035
3	0xbbf407a5	-0.0074472004
4	0x3c12a73d	0.0089510055
5	0x3d5d12ae	0.053972892
6	0x3d6a0c3c	0.057140574
7	0xbd1410df	-0.036148902
8	0xbcde8fc0	-0.027168155
9	0xbd0321ed	-0.032014776
10	0x3c164bde	0.009173362
11	0xbd6a46bb	-0.05719636
12	0xbd9c0831	-0.0761875
13	0x3d14f67c	0.03636788
14	0x3c16f1c7	0.009212918
15	0x3d8f940e	0.07010661
16	0x3b34d5b4	0.0027593197
17	0x3d28673d	0.04111408
18	0x3d82c152	0.06384529
19	0xbd931755	-0.071821846
20	0xbc8ed393	-0.01743487
21	0x3d00114f	0.031266507
22	0xbc73dcbc	-0.01488417
23	0xbce21370	-0.02759716
24	0x3cf99b1d	0.030469472
25	0x3ceda3ab	0.029008707
26	0xbd51bb51	-0.05120403
27	0x3cbbe2c5	0.02293528
28	0x3d4f3840	0.050590754
29	0xbda5cd02	-0.08095743
30	0xbd72f048	-0.05931118
31	0xbccb461f	-0.02481371
32	0x3c3722fb	0.011177774
33	0xbd1ebdc9	-0.038755212
34	0x3ca9fc5e	0.02075022
35	0x3e967e58	0.29393268
36	0x3db9fb52	0.09081139
37	0x3d677128	0.0565044
38	0xbce12101	-0.027481558
39	0x3db4a46a	0.08820422
40	0xbd630aa1	-0.05543006
41	0x3d80e2bb	0.062932454
42	0xbd93bd43	-0.07213833
43	0xbd22bfbf	-0.039733645
44	0x3d93306d	0.07186971
45	0x3cb65f16	0.022262137
46	0xbd463f36	-0.048400126
47	0x3bea3152	0.0071469927
48	0xbd9dde3b	-0.07708403
49	0x3d35e0bf	0.044403788
50	0xbd303c90	-0.043026507
51	0xbda822ce	-0.082097635
52	0x3ced21a5	0.028946707
53	0xbc66d34c	-0.014088463
54	0x3da47548	0.08030182
55	0xbb83a58c	-0.0040175375
56	0x3a920e2d	0.0011143141
57	0xbbd15107	-0.006387833
58	0xbcecd2d7	-0.02890913
59	0x3d7ab1fe	0.061204903
60	0x3d9d0773	0.076674365
61	0x3d75d5f0	0.06001848
62	0x3ce2fab3	0.027707433
63	0xbd6370fc	-0.055527672

weight f4 [32, 64]
0	0xbdc04210	-0.093876004
1	0xbdb860fe	-0.09002875
2	0xbbb88310	-0.0056308582
3	0xbd81ea44	-0.06343511
4	0xbd8ecdbc	-0.069728345
5	0xbdf9ba1c	-0.12193701
6	0x3db71050	0.08938658
7	0xbd89f113	-0.067354344
8	0x3d3fb12c	0.046799824
9	0x3d755f8c	0.059905574
10	0xbd8cfb92	-0.06883921
11	0xbd2f8f98	-0.04286155
12	0xbd9a802c	-0.07543978
13	0x3d1ffbf0	0.039058626
14	0x3db32f05	0.08749203
15	0x3cd5d6b1	0.02610335
16	0x3dc90719	0.09815807
17	0x3dd40198	0.103518665
18	0x3db0e157	0.0863673
19	0x3d0998cc	0.033592984
20	0x3dc96cd4	0.098352104
21	0x3da77e7b	0.08178421
22	0x3d35eea7	0.04441705
23	0x3df08ef2	0.11746015
24	0xbd58229d	-0.052767385
25	0x3daedb0c	0.085378736
26	0xbcc4d9c2	-0.024029616
27	0xbd202db1	-0.039106075
28	0x3d09e66c	0.033667013
29	0x3d15f93f	0.036614653
30	0xbd90a164	-0.07062033
31	0x3df657d4	0.12028471
32	0x39a0bb99	0.0003065735
33	0xbda5779b	-0.080794536
34	0xbd6b2e39	-0.05741713
35	0x3e114b6d	0.14188929
36	0x3dc0102a	0.09378083
37	0x3d9363d9	0.07196779
38	0x3ddce1c1	0.10785247
39	0xbdfd8067	-0.123780064
40	0x3d31f4f0	0.04344648
41	0xbdc6b8a8	-0.09703189
42	0x3cf4f856	0.029903572
43	0xbc5a252d	-0.013314527
44	0xbda368e5	-0.079789914
45	0x3dfa903b	0.12234541
46	0xbdc1dc35	-0.09465829
47	0x3c9e96c7	0.019359006
48	0x3e7937c9	0.24337687
49	0xbdc4588c	-0.095872015
50	0x3d7dc458	0.061954826
51	0xbce647b0	-0.028110355
52	0x3d8cbab8	0.06871551
53	0xbde42a97	-0.11140936
54	0x3dc3d6cc	0.09562454
55	0x3cb30def	0.02185723
56	0xbdb4315f	-0.08798479
57	0xbda9cef9	-0.0829143
58	0xbdcd1586	-0.10013871
59	0x3c0739eb	0.008253555
60	0x3dd2adbc	0.102870435
61	0xbdb94b1d	-0.0904753
62	0xbdb0a312	-0.08624853
63	0x3dd69f7a	0.104796365
64	0x3e01d0fb	0.12677376
65	0x3d753ca9	0.059872303
66	0xbdf8f649	-0.1215635
67	0x3c8bc588	0.017061964
68	0x3daeb5d9	0.085307784
69	0xbd76441e	-0.060123555
70	0x3cee17e6	0.02906413
71	0xbcdd2041	-0.026992919
72	0x3d90cf13	0.07070746
73	0xbcf2b950	-0.02962938
74	0x3d06333b	0.0327637
75	0x3c9eb298	0.01937227
76	0xbde137c6	-0.10996966
77	0xbd1671e3	-0.036729705
78	0xbcfae90b	-0.030628702
79	0xbddad49a	-0.10685082
80	0x3df933a5	0.121680535
81	0xbd58adc6	-0.0529001
82	0x3df1a7e6	0.11799602
83	0x3d4abf7c	0.04949902
84	0xbc5c2df5	-0.013438691
85	0x3d9bcd19	0.07607479
86	0x3e0d60b9	0.13806428
87	0x3de85bd9	0.113456436
88	0x3dca1907	0.09868055
89	0xbaa3164d	-0.0012442559
90	0xbd08ad7c	-0.033368573
91	0x3da9bbb9	0.082877584
92	0xbdcf24f0	-0.10114467
93	0xbdc655d4	-0.09684339
94	0x3d943622	0.072368875
95	0x3d676e07	0.056501415
96	0x3dc411ed	0.095737316
97	0xbdba5d62	-0.090998426
98	0x3c1a5f2b	0.009422104
99	0x3ea8e4f5	0.3298718
100	0x3dc2e926	0.09517126
101	0x3df6ec2a	0.120567635
102	0xbced7c7c	-0.028990023
103	0x3db35b36	0.087576315
104	0x3d91c0c6	0.07116847
105	0x3df771b2	0.120822325
106	0x3dcabb32	0.09898986
107	0x3db0162d	0.0859798
108	0x3d64249b	0.055698972
109	0xbd04365f	-0.032278415
110	0x3d724d89	0.059155975
111	0x3d4c9d25	0.049954552
112	0x3e8c4935	0.27399603
113	0xbd96c896	-0.073624775
114	0xbdf2abce	-0.118491754
115	0xbd581c50	-0.052761376
116	0xbd4d6323	-0.050143372
117	0xbdae100f	-0.08499157
118	0xbdf57991	-0.119860776
119	0xbdb4f692	-0.08836092
120	0xbd64a725	-0.055823464
121	0x3e01ea9e	0.12687156
122	0xbd978ce1	-0.073999174
123	0x3dbd5384	0.09244445
124	0xbcef9d3b	-0.029249778
125	0x3d0bd7a0	0.034141183
126	0xbda9ccd0	-0.08291018
127	0xbd9c86d4	-0.07642904
128	0x3dd933d2	0.10605587
129	0xbdfe003c	-0.124023885
130	0xbdf035ce	-0.117290124
131	0x3cac92c8	0.021066085
132	0xbb683140	-0.0035429746
133	0xbca04e80	-0.019568682
134	0xbd2a1e34	-0.04153271
135	0x3d815d9e	0.06316684
136	0xbcd685f8	-0.026186928
137	0x3dd373cc	0.10324821
138	0x3dc884e2	0.097909704
139	0x3d84603a	0.06463666
140	0xbcb0a648	-0.021563664
141	0xbda0cebe	-0.07851933
142	0x3dae4488	0.08509165
143	0xbdcf82a2	-0.10132338
144	0xbc9e4c70	-0.019323558
145	0xbd6f3498	-0.058399767
146	0xbdcce2a0	-0.10004163
147	0xbdae4276	-0.0850877
148	0xbdf63b6c	-0.120230526
149	0xbd91c856	-0.07118289
150	0x3de95122	0.11392428
151	0x3db5c83c	0.08876082
152	0xbcccdd58	-0.025007889
153	0x3df200a6	0.1181653
154	0x3ca49ca0	0.020094216
155	0xbc029620	-0.007970363
156	0x3c344900	0.011003733
157	0x3d533800	0.051567078
158	0xbdf70d02	-0.12063028
159	0x3d730df8	0.059339494
160	0xbd40f79c	-0.04711114
161	0x3d01e10c	0.031708762
162	0x3dfb4dd2	0.122707024
163	0xbdc36e34	-0.09542504
164	0xbd2228cc	-0.03958969
165	0xbd9f29bc	-0.07771632
166	0xbbaa75e0	-0.00520204
167	0xbde48674	-0.111584574
168	0x3d0e5370	0.03474754
169	0xbdb4d36c	-0.08829388
170	0x3c8ec360	0.017427146
171	0xbd907a6e	-0.070546016
172	0x3d89bfd4	0.067260414
173	0xbbec5300	-0.007212043
174	0xbdc995b2	-0.09843005
175	0x3d92271e	0.07136367
176	0xbcea3d70	-0.028593749
177	0x3d358a60	0.044321418
178	0xbd459cb0	-0.048245132
179	0x3bbd2960	0.0057727545
180	0xbde485cc	-0.11158332
181	0x3da2f336	0.07956545
182	0xbdeffeb2	-0.11718501
183	0x3ded430a	0.11585052
184	0xbd7c5074	-0.061600164
185	0xbdc2db4e	-0.09514485
186	0xbd926ff6	-0.07150261
187	0xbd0d77e4	-0.034538165
188	0xbd850d7a	-0.06496711
189	0x3c11d2e0	0.008900374
190	0x3dc350be	0.09536885
191	0x3ccda998	0.025105283
192	0x3c75b420	0.014996558
193	0x3c31bee0	0.010848731
194	0x3ddca042	0.10772754
195	0x3d29859c	0.041387185
196	0x3b392080	0.0028248131
197	0xbd368d34	-0.044568256
198	0xbd828a32	-0.06374015
199	0xbdc8a23a	-0.09796567
200	0xbdd9762a	-0.10618241
201	0x3bc7a2c0	0.0060923994
202	0xbdfaf74a	-0.12254198
203	0xbdb8bb94	-0.09020153
204	0xbd96c492	-0.073617116
205	0xbd6061dc	-0.054780826
206	0xbd58e620	-0.05295384
207	0x3ddf332c	0.10898432
208	0xbd392bcc	-0.045207784
209	0xbc5d31f0	-0.013500676
210	0x3d986704	0.07441524
211	0x3dbacb24	0.09120777
212	0x3c0c4470	0.008561239
213	0xbdc96d0c	-0.09835252
214	0xbdb2cea8	-0.08730823
215	0xbd81e37c	-0.06342217
216	0x3db4ea52	0.088337556
217	0xbd9ebd3c	-0.07750937
218	0x3c558030	0.013031051
219	0x3deb9152	0.11502327
220	0xbdd561f4	-0.10419074
221	0xbdd36fec	-0.10324082
222	0xbdf8c862	-0.12147595
223	0x3d41ed9c	0.047345743
224	0xbdc5497e	-0.09633158
225	0xbd2773d4	-0.040881947
226	0xbdfb839a	-0.122809604
227	0x3b865860	0.0040998906
228	0x3db7f09a	0.08981438
229	0x3dbd0034	0.09228554
230	0x3de8639c	0.11347124
231	0xbc157710	-0.009122625
232	0xbdc65270	-0.096836925
233	0xbdd3b62a	-0.103374794
234	0x3d899d84	0.06719497
235	0xbdf2f718	-0.11863536
236	0xbd108cb8	-0.03529045
237	0x3d9a0192	0.07519831
238	0x3cdbb740	0.026820779
239	0xbd8022a0	-0.06256604
240	0x3d8ffba0	0.070304155
241	0xbc520970	-0.012819633
242	0x3de3b796	0.111190006
243	0xbda10aee	-0.07863413
244	0x3cd873d8	0.026422426
245	0x3d5791e0	0.05262935
246	0xbd69f034	-0.05711384
247	0x3bca9a40	0.006182939
248	0xbdf91c5c	-0.12163612
249	0xbc3598e0	-0.0110838115
250	0x3dfc68cc	0.12324676
251	0x3ddc0456	0.107430145
252	0x3caf5fb0	0.021407932
253	0x3dac6440	0.08417559
254	0x3bf0c480	0.0073476434
255	0xbd8d6030	-0.06903112

bias f4 [32]
0	0xbcc9c0df	-0.0246281
1	0xbd800882	-0.06251623
2	0xbdf22400	-0.11823273
3	0xbc570e30	-0.013125941
4	0x3d05b7ed	0.03264611
5	0xbdac673c	-0.08418128
6	0x3dd76635	0.10517541
7	0x3dbc7f2b	0.09203943
8	0xbd932835	-0.07185403
9	0x3c9a098b	0.018803379
10	0x3d269d6c	0.040677473
11	0xbd681e09	-0.05666927
12	0xbbc2d7fc	-0.0059461575
13	0x3de9bbb7	0.11412757
14	0x3dfbd575	0.12296573
15	0xbc542a94	-0.012949605
16	0x3c6070e9	0.013698795
17	0xbdd352e7	-0.10318547
18	0xbdc5f768	-0.096663296
19	0x3cc68df8	0.024237618
20	0x3d4a8560	0.049443603
21	0x3c73ea32	0.0148873795
22	0x3dc98c41	0.098412044
23	0xbc7dca64	-0.015490148
24	0x3d307850	0.04308349
25	0x3de7a878	0.1131143
26	0x3aa0d337	0.0012269978
27	0xbdfb878b	-0.12281712
28	0xbe026a55	-0.12735875
29	0xbd0e71a1	-0.034776334
30	0x3d4fc018	0.050720304
31	0xbd98940b	-0.07450112

weight f4 [128, 7]
0	0x3dff1009	0.1245423
1	0x3dbd1833	0.09233131
2	0x3e995618	0.29948497
3	0x3e6cec57	0.23137031
4	0xbebc597d	-0.36787024
5	0xbdc12b9f	-0.09432148
6	0xbe07f2b8	-0.13276184
7	0xbe9666fb	-0.29375443
8	0xbe417c75	-0.18895133
9	0x3d4c8e66	0.04994049
10	0x3e2f080d	0.17092915
11	0xbddba3fc	-0.10724637
12	0xbe69f41d	-0.22847028
13	0xbe06b400	-0.13154602
14	0x3e6d5c16	0.23179659
15	0x3e5c5a18	0.21518743
16	0x3ea00867	0.3125641
17	0x3dbaadd9	0.0911519
18	0xbd32ac5b	-0.043621402
19	0x3e35f2fc	0.17768472
20	0x3d8fd8c0	0.07023764
21	0xbf51a808	-0.8189702
22	0xbe336265	-0.17518003
23	0x3ee0718e	0.43836635
24	0x3de7319a	0.112887576
25	0xbe319fbc	-0.1734609
26	0x3d6c98d5	0.05776294
27	0xbe9fbfa9	-0.31200913
28	0xbf29b4d0	-0.6629152
29	0xbe8ebe38	-0.278795
30	0xbe7edde8	-0.24889338
31	0x3e646bab	0.22306697
32	0x3da392d7	0.07986992
33	0x3f16a04a	0.5883833
34	0x3e9f9a20	0.31172276
35	0xbf10bcfa	-0.56538355
36	0x3e4ed96a	0.20200124
37	0xbf93e59c	-1.1554446
38	0xbed916de	-0.4240026
39	0x3e77e7b0	0.24209476
40	0x3e32112d	0.17389365
41	0xbe3b70b1	-0.18304707
42	0x3d0e9a23	0.034814965
43	0xbe6cb7a4	-0.23116928
44	0x3d9eb151	0.07748664
45	0xbebb0cd0	-0.36533213
46	0xbe603869	-0.21896519
47	0xbe6f3613	-0.23360471
48	0x3ed8bcc5	0.4233152
49	0x3e3f9711	0.18709971
50	0x3e184dc2	0.14873412
51	0xbe67164d	-0.22567101
52	0x3e951388	0.29116464
53	0x3e8e1089	0.2774699
54	0x3e9726be	0.29521745
55	0xbecd94e5	-0.4015266
56	0xbea62647	-0.32451078
57	0x3e8befa3	0.27331266
58	0xbe57a038	-0.21057212
59	0xbe5aab48	-0.21354401
60	0x3d9dd391	0.07706369
61	0xbe360de5	-0.17778738
62	0x3ed6fee3	0.41991338
63	0x3e7401a6	0.23828754
64	0xbdca7483	-0.09885504
65	0xbea0da6b	-0.3141664
66	0xbedcaf40	-0.43102455
67	0xbd674ef9	-0.0564718
68	0xbf0dfd21	-0.5546437
69	0x3cbf526f	0.023354737
70	0xbd6b8ff6	-0.05751034
71	0xbebd0a25	-0.36921802
72	0xbe696df6	-0.22795853
73	0xbec0ea64	-0.37678826
74	0x3e914f24	0.28380692
75	0xbd356a25	-0.04429068
76	0xbe987df6	-0.297836
77	0xbeb73084	-0.35779202
78	0xbe23e903	-0.16006856
79	0x3c520df3	0.012820709
80	0xbe9f70a9	-0.3114064
81	0xbea6d70f	-0.32585952
82	0x3e346c64	0.17619473
83	0xbeb9c49c	-0.36282814
84	0xbe99abbd	-0.30013838
85	0x3e9a8e28	0.30186582
86	0xbec5a394	-0.38601363
87	0x3e36da40	0.17856693
88	0xbcd04400	-0.02542305
89	0x3ea8408e	0.3286175
90	0xbdebf136	-0.11520617
91	0xbee02b49	-0.43783024
92	0xbe34732d	-0.17622061
93	0xbd83f828	-0.064438164
94	0xbe8b5c30	-0.2721877
95	0x3d340e76	0.043959104
96	0x3e06bba7	0.13157521
97	0x3e9f5b88	0.3112452
98	0xbe956766	-0.2918045
99	0xbe31a862	-0.17349389
100	0x3ea06808	0.3132937
101	0xbea02518	-0.312783
102	0xbe40ea93	-0.18839483
103	0xbe8782e6	-0.26467055
104	0x3e1e6660	0.1546874
105	0xbf0b44ae	-0.5440167
106	0x3e4f5040	0.20245457
107	0x3f5c4454	0.8604176
108	0xbdbbfa20	-0.09178567
109	0x3dd2b229	0.102878876
110	0x3ef04f19	0.46935347
111	0x3ee46b6f	0.44613215
112	0x3eb611c3	0.35560426
113	0xbe8f6128	-0.28003812
114	0x3ecc5204	0.39906323
115	0xbe33af8f	-0.17547439
116	0xbe860e8a	-0.26182967
117	0x3e881d1c	0.2658471
118	0x3ea629ba	0.3245371
119	0xbe2d4485	-0.1692067
120	0xbe6355b1	-0.22200657
121	0xbe25c24b	-0.16187398
122	0x3e8ec18b	0.27882037
123	0xbcf5f1ff	-0.03002262
124	0xbe65e6d6	-0.22451338
125	0x3b3175ba	0.0027078227
126	0x3ef873bc	0.48525798
127	0xbe0379c4	-0.12839419
128	0x3edc7aef	0.4306254
129	0xbe9782f3	-0.29592094
130	0xbebc5064	-0.36780083
131	0x3c8032b9	0.015649186
132	0xbe999684	-0.29997647
133	0xbe44b946	-0.19211301
134	0xbec1e5f8	-0.37870765
135	0x3e497a4d	0.1967556
136	0x3e0f132d	0.13972159
137	0x3d15f0be	0.036606543
138	0x3e9d3353	0.3070322
139	0xbdb54a82	-0.08852102
140	0xbeb0c9d3	-0.3452898
141	0x3ebe680f	0.37188765
142	0xbe874e71	-0.26427034
143	0xbec08a95	-0.3760573
144	0x3db8ebd6	0.09029357
145	0xbe87f212	-0.26551872
146	0xbdd4d4f9	-0.10392184
147	0x3df66916	0.12031762
148	0xbe53ff8b	-0.2070295
149	0x3e9c9188	0.30579782
150	0xbd67df3c	-0.056609377
151	0x3e4ce2f6	0.20008454
152	0xbe782403	-0.24232487
153	0xbd88c078	-0.066773355
154	0x3d0468da	0.032326557
155	0x3e1479a9	0.14499535
156	0xbe724a29	-0.23661102
157	0xbeccff61	-0.4003859
158	0x3deadc7c	0.11467835
159	0x3e6cfb51	0.23142745
160	0xbdab2dd8	-0.083583534
161	0x3e47047b	0.19435303
162	0xbeb5db76	-0.35518998
163	0x3e5d6253	0.21619539
164	0xbdf53421	-0.119728334
165	0xbe49e516	-0.19716296
166	0xbec48090	-0.38379335
167	0xbc8dabdf	-0.017293869
168	0x3e38eee2	0.18059877
169	0x3eb1b3bf	0.34707448
170	0xbe8c4aba	-0.27400762
171	0xbeb81e9a	-0.35960847
172	0xbec5bcf7	-0.3862073
173	0xbe91e96b	-0.28498396
174	0x3cc20ce6	0.023687791
175	0x3e392bd2	0.18083122
176	0x3d5359e6	0.051599406
177	0xbdfcdd00	-0.1234684
178	0x3d3798d4	0.044823483
179	0xbefbbbef	-0.4916682
180	0xbf065604	-0.52475
181	0x3d25ca97	0.040476408
182	0x3e0923d5	0.13392575
183	0x3d9b771b	0.07591077
184	0x3e3ed97f	0.18637656
185	0x3e86f65b	0.2635983
186	0xbee7ee3e	-0.45298952
187	0xbbd330e3	-0.0064450367
188	0x3e7aa6c6	0.24477682
189	0x3e26fc3d	0.16307159
190	0x3e24b6af	0.16085313
191	0x3c4d4388	0.012528308
192	0x3e070cb6	0.13188443
193	0x3e34527b	0.17609589
194	0xbe644e1d	-0.22295423
195	0x3dbd94c4	0.092568904
196	0xbe9c7901	-0.3056107
197	0xbeac9860	-0.33710003
198	0x3c0a71ba	0.008449966
199	0xbe1a3110	-0.15057778
200	0xbead64cf	-0.33865973
201	0xbe47fe7d	-0.19530673
202	0xbe72f088	-0.23724568
203	0x3df2502b	0.11831697
204	0xbeb2ca5a	-0.34920007
205	0x3e88380b	0.26605257
206	0x3e838a17	0.25691292
207	0xbe9c94c1	-0.3058224
208	0x3e8d235b	0.27566037
209	0xbe846fbb	-0.25866494
210	0xbe1d6867	-0.15371858
211	0xbeba189e	-0.36346906
212	0xbeeb4d13	-0.4595724
213	0xbeaa269a	-0.33232576
214	0x3df5a242	0.11993839
215	0x3e06faa8	0.13181555
216	0xbe0f6007	-0.14001475
217	0xbc172a60	-0.009226412
218	0x3d8beff3	0.06832876
219	0xbe8ec9f5	-0.27888456
220	0xbe3249b7	-0.17410932
221	0x3edd4b2a	0.43221408
222	0xbf418609	-0.75595146
223	0xbea759d8	-0.32685733
224	0xbeaf232e	-0.34206527
225	0xbe861f0e	-0.26195568
226	0x3e84aa9f	0.25911424
227	0x3e14943b	0.1450967
228	0xbd0d90a0	-0.034561753
229	0xbe851cc5	-0.25998512
230	0x3ebaff40	0.36522865
231	0x3e2a0a35	0.16605456
232	0x3eaf60ef	0.34253642
233	0x3e9c1d31	0.3049102
234	0xbe0ab733	-0.13546447
235	0xbd10d4ad	-0.035359073
236	0xbe8ec319	-0.27883223
237	0x3ec17ca2	0.377904
238	0xbeb4b63e	-0.3529529
239	0x3e9f7d86	0.31150454
240	0x3ebe3bc4	0.37154973
241	0xbdff4a1b	-0.12465306
242	0x3df541e5	0.11975459
243	0xbe7ef9a0	-0.24899912
244	0xbec39d8e	-0.38206142
245	0x3d9e3452	0.07724823
246	0xbe685bec	-0.22691315
247	0x3e236934	0.159581
248	0xbddc9bc9	-0.10771901
249	0x3e132a2e	0.14371559
250	0xbe3a2883	-0.18179516
251	0xbdd8ad78	-0.105799615
252	0x3d964aa8	0.07338458
253	0xbe85142d	-0.25991955
254	0xbe131b5a	-0.14365903
255	0x3e7531d9	0.23944797

bias f4 [128]
0	0x3ea12d7b	0.3148001
1	0x3ed1278f	0.40850493
2	0x3de1a0c3	0.11016991
3	0x3f520391	0.8203669
4	0x3f614bda	0.88006365
5	0x3f43cf1b	0.7648789
6	0xbe9dafbb	-0.30798134
7	0x3ea77336	0.32705086
8	0x3ecbcc79	0.39804438
9	0x3dc0c6ad	0.094128944
10	0x3e74ced6	0.23907027
11	0x3e2acad6	0.16678938
12	0x3f052b55	0.52019244
13	0x3f3e20f4	0.7426903
14	0xbeaa91bf	-0.3331432
15	0x3d36f0cc	0.044663236
16	0x3d3b6a94	0.045755938
17	0x3f0f0a69	0.5587526
18	0xbd0c3b00	-0.034235954
19	0x3ec8d409	0.3922427
20	0xbe8c4307	-0.27394888
21	0x3ee4225c	0.44557464
22	0x3eee2304	0.4651109
23	0x3ec36eeb	0.3817056
24	0x3dc96838	0.09834331
25	0x3d3193a6	0.0433537
26	0x3d6b2bd7	0.057414856
27	0x3ea44af9	0.3208845
28	0xbd63725f	-0.055528995
29	0xbeac7a95	-0.33687273
30	0x3eab163f	0.3341541
31	0x3ee17152	0.4403177
32	0x3ef35a8a	0.47530013
33	0xbcb9ea0c	-0.02269461
34	0xbe98d668	-0.2985108
35	0x3eaa5f37	0.33275768
36	0xbec0112e	-0.37513107
37	0xbe144129	-0.14477982
38	0xbe4f95c6	-0.20271978
39	0x3b77e593	0.0037826046
40	0x3d8d201b	0.06890889
41	0x3ea3a12c	0.31958902
42	0x3f21d60d	0.6321724
43	0xbe6f4286	-0.2336522
44	0x3f025fd2	0.5092746
45	0x3f2199e4	0.63125443
46	0x3ee87d4a	0.45408088
47	0x3ec7d22c	0.39027536
48	0x3f2dbd75	0.67867213
49	0x3f3ac630	0.7295866
50	0x3e9a5cc5	0.30148903
51	0xbeb95e67	-0.36204836
52	0x3e7b95f6	0.24568924
53	0x3e85c971	0.2613025
54	0x3da265d6	0.0792958
55	0x3de2acca	0.11068113
56	0x3e83a75d	0.25713626
57	0x3e30533f	0.17219256
58	0xbeb79b50	-0.35860682
59	0x3e8ad52a	0.27115756
60	0x3eb97fbe	0.36230272
61	0x3e986276	0.2976262
62	0x3f3b2b40	0.7311287
63	0x3f1d07d2	0.6134006
64	0xbd254854	-0.04035218
65	0x3f1c3871	0.6102362
66	0x3f25afbf	0.6472129
67	0x3eb2997a	0.34882718
68	0x3ef68b0d	0.48152962
69	0xbe2fe2a3	-0.17176299
70	0x3f1d33eb	0.61407346
71	0x3da8346d	0.082131244
72	0xbc44490e	-0.011980308
73	0xbeaa05b4	-0.33207476
74	0xbd4188dc	-0.04724966
75	0x3eb66aa8	0.35628247
76	0x3f2845b1	0.6573134
77	0x3f16f744	0.5897105
78	0xbd8eab22	-0.06966235
79	0x3e831852	0.25604492
80	0x3f399ebd	0.7250784
81	0x3dfe023b	0.12402769
82	0x3f151b3b	0.58244675
83	0x3e9be8f5	0.3045117
84	0x3dfc0bbd	0.123069264
85	0x3e96a876	0.294254
86	0x3d5f3fe0	0.054504275
87	0x3f015b6a	0.5053011
88	0x3e42be93	0.19018011
89	0x3e6fad47	0.23405944
90	0x3ed9f850	0.4257226
91	0xbeaea3e9	-0.3410943
92	0x3e34b01c	0.17645305
93	0xbe9e486d	-0.3091463
94	0x3efbd6fc	0.49187458
95	0x3f2dd2a6	0.6789955
96	0x3f0afbbc	0.54290366
97	0x3f04e038	0.5190463
98	0x3f059625	0.5218223
99	0xbbf0f705	-0.007353666
100	0x3f0fc434	0.5615876
101	0x3ee97ed6	0.4560458
102	0x3f1f67d8	0.6226783
103	0xbdcae643	-0.099072
104	0xbe13aab5	-0.14420588
105	0x3eb3eca6	0.35141486
106	0x3ebcd306	0.36879748
107	0x3f0150a6	0.50513685
108	0xbe23dcca	-0.16002193
109	0x3e39b817	0.18136631
110	0x3f05100e	0.5197762
111	0x3c2aa77a	0.010415906
112	0x3f29c0ca	0.663098
113	0xbd106d99	-0.03526077
114	0xbead7cc0	-0.3388424
115	0xbe1c5dd7	-0.15270172
116	0x3f02ee54	0.5114491
117	0x3ef950cb	0.48694453
118	0x3d2df398	0.042468637
119	0xbdd26d30	-0.10274732
120	0x3f1e424a	0.618199
121	0x3ee74e07	0.45176718
122	0xbe9da0fb	-0.3078688
123	0x3f0b231a	0.54350436
124	0xbe156713	-0.14590101
125	0xbe5bb845	-0.21457012
126	0x3d6d4d6f	0.057935175
127	0x3f04d704	0.5189059

weight f4 [64, 128]
0	0x3e268866	0.1626297
1	0x3ea9027d	0.3300971
2	0xbd9153e1	-0.07096077
3	0x3f931695	1.1491266
4	0x3fa16898	1.2610044
5	0x3faa1871	1.3288709
6	0x3eb682c8	0.35646653
7	0x3e104bec	0.14091462
8	0x3e6a9a2e	0.22910377
9	0x3e1a693f	0.1507921
10	0x3e8c28db	0.2737492
11	0xbd2dd59c	-0.042440042
12	0x3e89a789	0.26885632
13	0x3eee4cf3	0.46543083
14	0xbd35d08c	-0.04438834
15	0x3f8d05f7	1.1017445
16	0xbd02d888	-0.03194478
17	0x3e3886a2	0.18020108
18	0xbdf08876	-0.11744778
19	0x3e79ff1d	0.24413724
20	0xbb1a561f	-0.0023549867
21	0x3e1a084e	0.1504223
22	0x3e08741c	0.13325542
23	0x3dcc8e54	0.099880844
24	0x3ceb5409	0.028726595
25	0xbd5186a8	-0.05115381
26	0xbcba715a	-0.022759128
27	0x3e0bf83c	0.13668913
28	0xbcf1b7e3	-0.02950663
29	0xbd09b3cd	-0.033618737
30	0x3e80cd8d	0.25156823
31	0x3e8d59c2	0.27607542
32	0x3e4abf0a	0.19799438
33	0x3b7b5d9b	0.0038355354
34	0x3e8cbff9	0.27490214
35	0x3e59a2ba	0.21253482
36	0xbcfabba9	-0.030607061
37	0xbb3c199e	-0.0028701792
38	0xbd918322	-0.0710509
39	0xbde734e6	-0.112893865
40	0x3d2f6594	0.04282148
41	0x3eadca98	0.3394363
42	0x3e508189	0.20361914
43	0x3ca8a018	0.020584151
44	0x3e09c559	0.13454188
45	0x3edbdc60	0.4294157
46	0x3dedaca5	0.11605195
47	0x3e4003d8	0.18751466
48	0x3eb8bf91	0.36083654
49	0x3e2c7451	0.16841246
50	0x3e4e86a4	0.20168549
51	0xbd857f6b	-0.06518444
52	0x3dfeba9b	0.12437936
53	0x3d111c87	0.035427596
54	0x3e56e17b	0.20984451
55	0x3e255ada	0.16147938
56	0x3dfcb202	0.1233864
57	0x3db9b473	0.09067621
58	0xbda95773	-0.08268633
59	0x3e352705	0.17690666
60	0x3dc1fdc8	0.09472233
61	0x3dd97d45	0.106195964
62	0x3f25d1f8	0.6477351
63	0x3e75c477	0.24000727
64	0xbb8bc91e	-0.0042659184
65	0x3dc046b0	0.093884826
66	0x3ec22e7e	0.37926096
67	0x3e343a94	0.17600471
68	0x3dc2224a	0.09479196
69	0xbd007863	-0.03136481
70	0x3f1e339f	0.6179752
71	0xb9928067	-0.00027942957
72	0xbd955d15	-0.072931446
73	0xbd39b1a9	-0.045335446
74	0xbd441f05	-0.047881145
75	0x3d9bccf5	0.07607452
76	0x3e26241d	0.16224714
77	0x3ec55ba3	0.38546476
78	0xbf1025ef	-0.5630788
79	0x3e222e75	0.15838034
80	0x3f541ada	0.8285347
81	0x3db9b4dd	0.090677
82	0x3e4cc19d	0.19995733
83	0x3def8a64	0.11696318
84	0x3cb96442	0.022630814
85	0x3e7b7bc3	0.2455893
86	0x3d4a20e0	0.04934776
87	0x3e9b0b06	0.30281848
88	0x3de11850	0.10990965
89	0x3ee22cc5	0.4417478
90	0x3e724361	0.23658516
91	0x3ce891ac	0.028389774
92	0x3e24fdfe	0.16112515
93	0xbc38d3f6	-0.011281004
94	0x3e984ffb	0.2974852
95	0x3e830e6c	0.2559694
96	0x3de232cb	0.11044844
97	0x3e41037b	0.18848984
98	0x3e98ee21	0.29869178
99	0xbdd6e77e	-0.104933724
100	0x3d972d1c	0.07381651
101	0x3e403e46	0.18773755
102	0x3edef56a	0.4354661
103	0xbcd88800	-0.026432037
104	0x3d24f002	0.04026795
105	0x3d5d9fc0	0.054107428
106	0x3e3ece68	0.18633425
107	0x3e14ddd7	0.1453775
108	0xbc0993e2	-0.008397074
109	0x3e24ab6d	0.16081019
110	0x3e35cd36	0.17754063
111	0xbc6bd58c	-0.014394175
112	0x3ebe07b0	0.3711524
113	0xbc837da2	-0.016051117
114	0x3d32d691	0.043661658
115	0x3bb51481	0.005526126
116	0x3e2cea6b	0.16886298
117	0x3ed872c7	0.42275068
118	0xbe9120d8	-0.2834537
119	0xbe1b9c9c	-0.1519646
120	0x3e1d8d19	0.15385856
121	0x3dd7a072	0.105286494
122	0x3ce74152	0.02822939
123	0x3ea59210	0.32338
124	0x3d0314d3	0.03200228
125	0x3da7c2f2	0.0819148
126	0x3c2211ac	0.009891909
127	0x3de87734	0.11350861
128	0x3d7886f9	0.060675595
129	0x3ea51f88	0.3225062
130	0x3dd505d7	0.104015045
131	0x3f8db815	1.1071802
132	0x3f9e2c92	1.2357352
133	0x3f965d20	1.174717
134	0x3e7dc1cf	0.24780963
135	0x3e516d07	0.20451747
136	0x3e8ebd98	0.27879024
137	0x3e0742fb	0.13209145
138	0x3e406cad	0.18791457
139	0xbd87eb18	-0.066366374
140	0x3e8acad2	0.27107865
141	0x3ec77a21	0.38960364
142	0x3d378e18	0.044813246
143	0x3f802989	1.0012676
144	0x3d8adff4	0.06780997
145	0x3e216b0d	0.15763493
146	0xbd702c7e	-0.05863618
147	0x3e853e07	0.26023886
148	0xbd4a8b1f	-0.049449082
149	0x3d3e5b39	0.046473715
150	0x3e2f0f9d	0.170958
151	0x3e0325a8	0.12807333
152	0x3d4c73af	0.049915012
153	0xbc9233e2	-0.017847005
154	0x3d12fc68	0.035885245
155	0x3e0667e6	0.13125572
156	0x3d7f3e3f	0.062315222
157	0xbd8b8891	-0.06813157
158	0x3e6be472	0.23036364
159	0x3e2c82e4	0.16846806
160	0x3e7d2cfa	0.24724188
161	0x3d461859	0.048363063
162	0x3ec2a11a	0.38013536
163	0x3e5032b5	0.20331843
164	0x3d977e1c	0.073971
165	0x3d8ce078	0.068787515
166	0xbd48ca4b	-0.049021047
167	0xbd90a78d	-0.07063208
168	0x3d23e2c3	0.04001118
169	0x3ebd19d3	0.36933765
170	0x3e541a5e	0.20713183
171	0xbb7adbca	-0.0038277977
172	0x3df80c50	0.121117234
173	0x3ee8955b	0.4542645
174	0x3e193296	0.14960703
175	0x3d9c8d35	0.076441206
176	0x3ed345a8	0.4126408
177	0x3e91eb05	0.28499618
178	0x3d8ffa7a	0.070301965
179	0xbe035659	-0.12825908
180	0x3e1908db	0.14944784
181	0x3d11a7a2	0.035560258
182	0x3e1e5365	0.154615
183	0x3d345499	0.04402599
184	0x3d7b6a6d	0.061380792
185	0x3da8ffd6	0.08251922
186	0x3dae264e	0.085034
187	0x3d774443	0.060367834
188	0x3e27dea7	0.16393529
189	0x3c5685fa	0.013093466
190	0x3f33fbb4	0.70305943
191	0x3ea489b0	0.32136297
192	0x3d72dfd3	0.059295487
193	0x3e1888bf	0.14895914
194	0x3e892624	0.2678691
195	0x3dd37bfc	0.103263825
196	0x3e13f276	0.1444796
197	0x3d82bde9	0.06383879
198	0x3f365d40	0.7123604
199	0x3d8cfbe0	0.06883979
200	0xbd9a8a8f	-0.07545959
201	0xbd9f16b6	-0.07768004
202	0xbe3de796	-0.18545374
203	0x3e288e37	0.164605
204	0x3e106564	0.14101177
205	0x3eabf3bf	0.335844
206	0xbed67ce2	-0.41892153
207	0x3cd4e046	0.025985848
208	0x3f325dd0	0.69674397
209	0x3c19ddab	0.009391229
210	0x3dedf4f6	0.11618988
211	0x3d894bf5	0.06703941
212	0xbd6a09c9	-0.057138238
213	0x3ea4f417	0.32217476
214	0x3e2b776e	0.16744778
215	0x3eaa8677	0.33305714
216	0x3de821de	0.11334585
217	0x3ee61e88	0.44945168
218	0x3eb4c3b1	0.3530555
219	0x3d440041	0.047851805
220	0x3e220727	0.15823041
221	0x3d77bd28	0.060483128
222	0x3e7b67b1	0.24551274
223	0x3e6d6497	0.23182903
224	0x3e3fb848	0.18722641
225	0x3e75c7c4	0.24001986
226	0x3e32f57d	0.17476459
227	0xbd157c97	-0.03649577
228	0x3e33eab0	0.17569995
229	0x3e14f3bf	0.14546107
230	0x3ed6578a	0.41863662
231	0xbda78889	-0.08180339
232	0xbdaf194a	-0.085497454
233	0x3c6bef4a	0.014400313
234	0x3e51bebd	0.20482917
235	0x3e284527	0.1643263
236	0x3d3e2554	0.046422318
237	0x3e30b574	0.17256719
238	0x3e8b57ca	0.27215415
239	0x3d8387aa	0.0642236
240	0x3ea93430	0.33047628
241	0xbbeef3bf	-0.0072922404
242	0x3ba878bd	0.0051413462
243	0xbdad05c5	-0.08448366
244	0x3e83be12	0.2573095
245	0x3e84a439	0.25906542
246	0xbe6c302e	-0.23065254
247	0xbd4d2b40	-0.050090075
248	0x3dc490f3	0.09597959
249	0x3e01db03	0.12681203
250	0x3d1e4bd9	0.038646553
251	0x3ebbfcda	0.36716348
252	0xbd68eb55	-0.056865055
253	0xba03b170	-0.00050236937
254	0xbd9508d4	-0.072770745
255	0x3e090b27	0.1338316

bias f4 [64]
0	0x3e53bc2a	0.20677248
1	0x3e84d46d	0.25943318
2	0x3e1f2906	0.15542993
3	0xbd57cd9c	-0.05268632
4	0x3c6b3627	0.014356173
5	0x3e777451	0.24165465
6	0x3e6a90a6	0.22906741
7	0x3d1a2a58	0.03763804
8	0xbdb3ba36	-0.08775751
9	0x3e977755	0.2958323
10	0xbc0e47fd	-0.0086841555
11	0x3c80c9ea	0.01572128
12	0x3e92269d	0.28545085
13	0xbdbdc296	-0.0926563
14	0xbd2ee42d	-0.042698074
15	0x3e782eae	0.24236557
16	0x3e8131e5	0.2523338
17	0x3e86723a	0.26259023
18	0x3e6968bc	0.22793859
19	0xbd8de5a6	-0.069285676
20	0x3e86d73f	0.26336095
21	0x3e3415f8	0.17586505
22	0x3bc10e14	0.005891571
23	0xbd836ceb	-0.06417259
24	0xbdb2caea	-0.08730109
25	0x3e85cac3	0.26131257
26	0x3e9449e1	0.28962615
27	0x3e594cd3	0.21220712
28	0xbde8ae9b	-0.11361428
29	0xbcb816b3	-0.022471761
30	0x3e2ab62c	0.16671056
31	0x3ac9f008	0.0015406618
32	0x3e9030e6	0.28162307
33	0x3d5c93d2	0.05385191
34	0x3e882a06	0.2659456
35	0xbd9e6c4e	-0.07735501
36	0xbd364967	-0.044503596
37	0xbc7b65ce	-0.015344096
38	0x3e7f5a7a	0.24936858
39	0xbd8f4cea	-0.06997092
40	0xbda71a7c	-0.08159348
41	0xbd68d595	-0.056844313
42	0x3e5a0ffb	0.21295159
43	0xbd6a4dbf	-0.05720305
44	0xbd4bd7ed	-0.04976647
45	0x3d543dcd	0.05181675
46	0xbcdab516	-0.026697677
47	0xbd245e09	-0.04012874
48	0xbdea9399	-0.11453933
49	0x3e5a4e8c	0.21319026
50	0x3ca8526f	0.02054712
51	0xbd1cb102	-0.038254745
52	0x3e6e5eb3	0.23278312
53	0xbc8dd40e	-0.01731303
54	0x3c686372	0.014183866
55	0x3d975b25	0.07390431
56	0x3e2b653f	0.16737841
57	0x3e971a06	0.29512042
58	0x3e91fba3	0.28512296
59	0x3e805c23	0.25070295
60	0x3ea386e4	0.3193885
61	0x3ca69f8d	0.020339752
62	0xbd36fd2d	-0.04467504
63	0x3e8ef8dd	0.27924243
