2023/baseline0806/model/WLTP_trained/PPO_actorcritic_14epoch.pt (torch, 53473 bytes, 11 tensors)

weight f4 [128, 7]
0	0x3ea90d1a	0.33017808
1	0xbe0625d4	-0.13100368
2	0x3ea12b20	0.31478214
3	0xbe02ed57	-0.1278585
4	0xbe77ceb5	-0.24199946
5	0xbeacde6f	-0.33763453
6	0x3e887339	0.26650408
7	0xbe8d7931	-0.27631524
8	0xbda8def1	-0.08245648
9	0x3e53041a	0.20607033
10	0xbdccb9b2	-0.09996356
11	0x3dd9f36e	0.10642134
12	0xbe03f9f8	-0.12888324
13	0x3e88ed9d	0.26743785
14	0xbcb10167	-0.021607114
15	0xbd73ff36	-0.05956956
16	0xbe177ee6	-0.14794502
17	0x3d755012	0.059890814
18	0x3cd468e6	0.025928926
19	0xbd28860c	-0.041143462
20	0xbe2cb7e4	-0.16867024
21	0x3d70fb54	0.058833435
22	0x3e35896c	0.17728204
23	0x3e960f45	0.29308525
24	0x3e5ea873	0.21743946
25	0xbe8b98a8	-0.27264905
26	0xbe857c04	-0.2607118
27	0xbd48df2a	-0.04904095
28	0xbea35ff2	-0.31909138
29	0xbe271c64	-0.16319424
30	0xbe91fc1d	-0.2851266
31	0xbe14e474	-0.14540273
32	0x3e6a5af9	0.22886266
33	0x3e212c37	0.15739523
34	0xbe364c0e	-0.1780245
35	0xbbae236a	-0.0053142803
36	0xbe67f9df	-0.22653912
37	0x3dae7b79	0.08519644
38	0x3d9443a0	0.07239461
39	0x3e3e0e55	0.18560155
40	0xbc9abb84	-0.018888243
41	0xbdd0728d	-0.10178099
42	0xbd4f74a7	-0.050648358
43	0x3e9791db	0.29603466
44	0xbddd6b96	-0.10811536
45	0x3eb8ec78	0.3611791
46	0x3e24ad88	0.16081822
47	0xbc73263a	-0.014840657
48	0x3e3d2c8c	0.18474025
49	0xbe2f9bbb	-0.1714925
50	0xbe589f69	-0.2115456
51	0x3def6b62	0.116904035
52	0x3ea371e3	0.31922826
53	0xbe7a1780	-0.24423027
54	0x3e9510e2	0.29114443
55	0x3e9030e2	0.28162295
56	0xbe5795f0	-0.2105329
57	0x3e9ff9e1	0.3124533
58	0xbc46948c	-0.012120377
59	0xbca79540	-0.02045691
60	0xbc557b4f	-0.013029887
61	0x3e9967d1	0.29962018
62	0xbec01de7	-0.37522814
63	0x3ca5b828	0.020229414
64	0xbdfcbcac	-0.12340674
65	0xbe7ed887	-0.24887286
66	0xbe1fb5f1	-0.15596749
67	0x3e78abbe	0.24284264
68	0xbe9c92f2	-0.3058086
69	0x3ea38094	0.31934035
70	0xbe556375	-0.20838721
71	0xbd6db028	-0.058029324
72	0xbd61613e	-0.055024378
73	0xbe7eb6b1	-0.24874379
74	0xbe17e30b	-0.14832704
75	0xbe7aaf73	-0.24480991
76	0x3d98a155	0.07452647
77	0x3e7f97c6	0.2496024
78	0xbc108f0b	-0.008823167
79	0x3eb8069a	0.35942537
80	0x3e856e90	0.26060915
81	0xbe0b2b2f	-0.13590692
82	0x3dcd59c5	0.10026888
83	0xbddb006b	-0.10693439
84	0xbeb78a6c	-0.35847795
85	0x3e334c5c	0.17509598
86	0xbe7f21dc	-0.2491526
87	0x3e5e476e	0.21706936
88	0x3d8a5151	0.06753791
89	0xbe8b7a03	-0.27241525
90	0xbdd50951	-0.104021676
91	0x3ead0955	0.33796182
92	0xbe9473d5	-0.28994623
93	0xbe02bb9e	-0.12766883
94	0xbe209a29	-0.15683807
95	0x3eadb1c0	0.33924675
96	0x3ea05fdd	0.31323138
97	0xbda70168	-0.08154565
98	0xbe41d5d5	-0.18929227
99	0xbd0f0460	-0.03491628
100	0xbebec620	-0.37260532
101	0xbeb05a24	-0.34443772
102	0x3e280cb7	0.164111
103	0x3e811282	0.25209433
104	0x3e95b766	0.29241484
105	0xbe993928	-0.2992642
106	0x3e6c640e	0.23085043
107	0x3d79a7b0	0.060950935
108	0xbec211e5	-0.37904277
109	0x3e94d8b8	0.29071593
110	0xbe04a665	-0.129541
111	0xbe39c1de	-0.1814036
112	0x3eb80948	0.3594458
113	0xbe589606	-0.2115098
114	0x3d87f610	0.066387296
115	0x3cbfd70d	0.023417974
116	0x3e992684	0.29912198
117	0x3d433f77	0.047667947
118	0xbd5ba8cf	-0.053627785
119	0xbe4b6345	-0.19862087
120	0x3e2611e0	0.16217756
121	0xbe824f1f	-0.2545099
122	0xbcbf3aa4	-0.023343392
123	0x3e8a50cf	0.27014777
124	0x3eb52b19	0.35384443
125	0xbe497c60	-0.19676352
126	0xbe052ce3	-0.13005404
127	0xbd7145f5	-0.058904607
128	0xbd385a3b	-0.045007925
129	0xbda9fe36	-0.0830044
130	0xbe90560b	-0.28190646
131	0xbe829b1b	-0.2550896
132	0x3e4556a2	0.19271329
133	0x3c6d0eda	0.014468873
134	0xbe202d8d	-0.15642376
135	0x3e09e86c	0.13467568
136	0xbd81b8ca	-0.06334074
137	0x3e833d4f	0.25632712
138	0xbea1a137	-0.3156831
139	0x3d248758	0.040168136
140	0x3e354d25	0.1770521
141	0xbea436a6	-0.32072943
142	0xbea6329e	-0.32460493
143	0xbea74e66	-0.32677
144	0xbb1ca136	-0.00238998
145	0x3e73e9e5	0.23819692
146	0x3cd8f42d	0.02648362
147	0xbe0600e5	-0.13086279
148	0x3e9cdccb	0.30637202
149	0xbe6f5c65	-0.2337509
150	0xbd2ee106	-0.042695068
151	0xbe62fed6	-0.22167525
152	0x3d899d9d	0.067195155
153	0xbda758dd	-0.08171246
154	0x3e3b3781	0.18282892
155	0xbe38537a	-0.18000594
156	0xbe97d01c	-0.29650962
157	0x3e9d4af5	0.3072125
158	0x3e692bd8	0.22770631
159	0xbeb29d3e	-0.3488559
160	0xbeb7ff36	-0.35936898
161	0xbe17bf61	-0.14819099
162	0x3e8e1cdb	0.2775639
163	0xbe7df0a9	-0.24798836
164	0xbd712565	-0.058873553
165	0xbeb018f6	-0.34394044
166	0xbea3fc57	-0.32028458
167	0x3e8b7bc1	0.27242854
168	0x3c856bd8	0.016286775
169	0x3d096600	0.03354454
170	0xbe56d815	-0.20980866
171	0x3e1e512a	0.15460649
172	0x3eb95f9e	0.36205763
173	0x3ea1be6a	0.31590587
174	0x3c31e9b1	0.010858939
175	0xbe615661	-0.22005607
176	0xbaf17475	-0.0018421548
177	0xbe1ab611	-0.15108515
178	0x3e43dac2	0.19126418
179	0x3d547380	0.051867962
180	0x3eb33c35	0.35006872
181	0xbe22291c	-0.15835994
182	0xbe222093	-0.15832739
183	0x3e03a9c0	0.12857723
184	0xbe9fe99a	-0.3123291
185	0x3d9e29d2	0.0772282
186	0xbe2662a8	-0.16248572
187	0xbe61ebcb	-0.22062604
188	0xbe5604b2	-0.20900229
189	0x3e2f7e9d	0.17138143
190	0xbe9f787f	-0.3114662
191	0xbe8c61ef	-0.27418467
192	0xbe868d2f	-0.2627959
193	0xbe9dbc7f	-0.30807874
194	0xbe84fdb7	-0.2597482
195	0xbebc6408	-0.36795068
196	0xbe93f7d3	-0.28900012
197	0x3e218488	0.15773213
198	0xbe18a416	-0.14906344
199	0xb890c37e	-6.902868e-05
200	0xbe8c9108	-0.274544
201	0xbe9ce4f1	-0.30643418
202	0xbe7bd1cd	-0.24591751
203	0xbe7611ed	-0.24030276
204	0x3d74205a	0.059601165
205	0x3e4365ad	0.19081755
206	0xbb2bb7fe	-0.0026202197
207	0x3d6d6a6e	0.057962827
208	0x3e0e0586	0.13869295
209	0xbe307277	-0.17231165
210	0x3e662456	0.22474799
211	0x3eb0a8d5	0.3450381
212	0x3e7f5426	0.24934444
213	0x3e84eefd	0.25963584
214	0xbe1b4b5a	-0.15165463
215	0xbe34101e	-0.17584273
216	0xbebe3cfe	-0.37155908
217	0x3ea003e9	0.31252983
218	0xbe908002	-0.28222662
219	0x3e58f795	0.21188195
220	0x3eb0b9cd	0.34516755
221	0x3e780d90	0.24223924
222	0xbb70c924	-0.0036740983
223	0xbe8a0826	-0.26959342
224	0x3ec05c84	0.37570584
225	0x3dd2cb44	0.10292676
226	0x3d7cfe07	0.061765697
227	0xbe3b85d7	-0.18312775
228	0x3dccb993	0.09996333
229	0xbe7b0159	-0.24512233
230	0xbe5d9a97	-0.21641003
231	0x3ea0430d	0.31301156
232	0xbdafd49c	-0.08585474
233	0xbeb4432d	-0.352075
234	0x3e60da3e	0.21958253
235	0xbdde86b2	-0.10865535
236	0x3e919d27	0.2844021
237	0xbe937f5e	-0.2880811
238	0xbb84beb8	-0.0040510558
239	0xbeba8576	-0.36429948
240	0xbeb82a76	-0.35969895
241	0x3ea88151	0.3291116
242	0x3e7d0e07	0.24712382
243	0xbe34720c	-0.1762163
244	0xbe088d6d	-0.133352
245	0xbea3a5d0	-0.31962442
246	0xbe657aa9	-0.22410072
247	0xbe91fe16	-0.28514165
248	0x3e3aed49	0.1825458
249	0x3e8e34f6	0.2777478
250	0xbe8398fb	-0.25702652
251	0x3e674e36	0.22588429
252	0x3e6b4a46	0.22977552
253	0x3e8576ef	0.26067302
254	0xbeab48e1	-0.3345404
255	0x3dd26ea7	0.102750115

bias f4 [128]
0	0xbe6e0530	-0.23244166
1	0x3e5e94bf	0.2173643
2	0xbd608db4	-0.05482264
3	0xbeb5a9b4	-0.35481036
4	0x3e5605b8	0.20900619
5	0xbe219e30	-0.15783
6	0xbe101e85	-0.14074142
7	0x3da2ab99	0.07942886
8	0xbd14c1d0	-0.036317647
9	0x3e458b84	0.19291502
10	0xbeaf3812	-0.34222466
11	0xbdce9a6f	-0.100880496
12	0xbdf52377	-0.11969655
13	0xbe358aa6	-0.17728671
14	0x3d8948eb	0.06703361
15	0x3eae0c00	0.3399353
16	0xbead67b8	-0.33868194
17	0xbe32bdf6	-0.17455277
18	0xba7d681a	-0.00096666964
19	0x3e00384e	0.12521479
20	0x3eb08a1f	0.34480378
21	0xbe9362f8	-0.28786445
22	0x3d35d6a2	0.044394143
23	0x3ead3f95	0.33837572
24	0xbd90ab09	-0.07063872
25	0xbe65f68e	-0.22457334
26	0x3e10b38e	0.14130995
27	0x3e4c5302	0.1995354
28	0x3e751576	0.23933968
29	0xbddc62e0	-0.107610464
30	0xbe1efbe0	-0.1552577
31	0xbe2eebf3	-0.17082195
32	0x3e904db1	0.28184274
33	0xbe42f13c	-0.19037336
34	0x3e5b9c58	0.21446359
35	0xbe89f408	-0.26943994
36	0xbe2ad9bd	-0.16684623
37	0xbe662197	-0.22473751
38	0x3e1a1c2f	0.15049814
39	0x3d1f2609	0.038854633
40	0x3c8b3aa2	0.016995732
41	0xbe1874e3	-0.14888339
42	0x3deae8be	0.11470173
43	0x3eaaa82f	0.3333144
44	0xbe9083e2	-0.2822562
45	0x3e5e5b6b	0.2171456
46	0xbe46bac8	-0.19407189
47	0x3e3a4fd0	0.18194509
48	0x3e8fb4ac	0.2806753
49	0xbe3a6496	-0.18202433
50	0x3eaabb18	0.33345866
51	0x3bb072d1	0.005384781
52	0xbe86da52	-0.2633844
53	0x3d5dc8df	0.054146644
54	0xbe0a5e57	-0.1351255
55	0xbe59ac4e	-0.21257135
56	0xbe448e29	-0.19194855
57	0xbe34cc0d	-0.17655964
58	0xbe8f8db6	-0.28037804
59	0x3e1cacfe	0.15300366
60	0x3eb18b25	0.3467647
61	0x3c14dc7f	0.0090857735
62	0x3e007364	0.12544018
63	0x3c2afbda	0.010436023
64	0x3ebe49ea	0.37165767
65	0xbdac1d2c	-0.084040016
66	0xbd15cfed	-0.036575247
67	0xbeaff5a2	-0.3436709
68	0x3e281118	0.16412771
69	0xbd1b7ba2	-0.037959702
70	0x3e1d5e83	0.15368085
71	0xbebb44bb	-0.36575875
72	0x3e8084d1	0.2510133
73	0x3eb954c3	0.3619748
74	0x3e5346a3	0.20632415
75	0xbe99bfe6	-0.3002922
76	0xbe355152	-0.17706802
77	0x3e76780a	0.24069229
78	0x3daaeaad	0.08345542
79	0x3eb6ec0b	0.35726961
80	0x3e5173b2	0.2045429
81	0x3d8f8e06	0.07009511
82	0xbe7f0dbc	-0.24907583
83	0xbe9525f9	-0.29130533
84	0x3c6f5313	0.014607209
85	0x3e8d19ce	0.2755875
86	0xbe002593	-0.12514333
87	0xbe024173	-0.1272028
88	0x3ebc1edf	0.36742303
89	0xbe46e22e	-0.19422218
90	0xbeb852ef	-0.36000773
91	0xbd9960f1	-0.07489193
92	0x3e444f51	0.19170882
93	0xbe6c7568	-0.23091662
94	0xbe38a6b0	-0.18032336
95	0xbea2bf75	-0.31786695
96	0x3d8e2f09	0.06942565
97	0x3e0ed76b	0.13949363
98	0xbeb93940	-0.3617649
99	0x3e22fd42	0.15916923
100	0x3de9aa9c	0.11409494
101	0xbdb59f81	-0.088683136
102	0xbd18e780	-0.03733015
103	0xbd53861b	-0.051641565
104	0x3eb14e5b	0.34630093
105	0xbe2771d6	-0.16352019
106	0xbea2421a	-0.31691056
107	0x3ebfd191	0.37464574
108	0x3e80d254	0.25160468
109	0xbb3da91c	-0.0028939908
110	0x3dbba1e7	0.0916174
111	0x3e824a7e	0.25447458
112	0xbe1d8278	-0.15381801
113	0x3bf5ea68	0.00750475
114	0xbea8b119	-0.32947615
115	0x3c97359d	0.018458182
116	0x3eb0cbf3	0.345306
117	0xbea8acb3	-0.3294426
118	0x3ebb4887	0.3657877
119	0xbe4418e5	-0.19150122
120	0xbd8b7e83	-0.068112396
121	0xbd7b5e98	-0.06136951
122	0x3ea647a7	0.3247654
123	0xbea6ed2e	-0.3260283
124	0xbe9a2554	-0.30106604
125	0xbe45002b	-0.19238345
126	0xbebcbcff	-0.36862943
127	0xbe9ffce0	-0.31247616

weight f4 [64, 128]
0	0xbcf7ab61	-0.030233087
1	0x3c8271aa	0.01592334
2	0xbdb1e3c6	-0.086860225
3	0xbb5dc434	-0.003383887
4	0xbd07e676	-0.03317877
5	0xbdad1a2c	-0.084522575
6	0x3d8470cd	0.064668275
7	0x3da8ebef	0.08248126
8	0xbcfd86fd	-0.030948156
9	0x3daaadfa	0.08333965
10	0xba4541d3	-0.0007524762
11	0xbdad3ee8	-0.08459264
12	0xbd1ad0ce	-0.037796788
13	0xbd6ee77f	-0.05832624
14	0xbd2ef247	-0.042711522
15	0xbcb5cb7f	-0.022191761
16	0xbdb3afd0	-0.08773768
17	0x3d79804a	0.06091336
18	0xbd3ddbea	-0.046352305
19	0xbc69a632	-0.014260815
20	0xbcc9d696	-0.024638455
21	0xbd0f6c02	-0.035015114
22	0xbdaafd3a	-0.083490804
23	0x3d1a8039	0.03771994
24	0x3d7e8efc	0.06214808
25	0xbd66ba7c	-0.05633019
26	0x3d570bbb	0.05250142
27	0x3ca5f780	0.020259619
28	0xbd914e35	-0.07094995
29	0xbcb92759	-0.02260177
30	0xbd4e2c4c	-0.050335214
31	0xbd829a2b	-0.063770615
32	0xbd46958f	-0.048482474
33	0x3cc396a1	0.023875536
34	0xbd7df964	-0.062005416
35	0x3d9526c8	0.072827876
36	0x3d550bb3	0.05201311
37	0xbd9eedb0	-0.07760179
38	0xbda6795d	-0.08128617
39	0xbc8a6eef	-0.0168986
40	0x3c6358b9	0.013876134
41	0x3d7a748a	0.061146297
42	0xbd8c1fb3	-0.06841984
43	0x3d122400	0.035678864
44	0xbd717a4c	-0.058954522
45	0xbd819142	-0.06326534
46	0xbd97452f	-0.073862426
47	0x3d8b3212	0.067966595
48	0x3db5a3ca	0.08869131
49	0x3d8bc9a2	0.06825568
50	0xbc884e8c	-0.016639017
51	0xbd592801	-0.053016666
52	0xbc2fa604	-0.010720734
53	0xbbf94efd	-0.007608293
54	0x3dade618	0.084911525
55	0xbd5aaed6	-0.053389393
56	0x3d9b0c8c	0.075707525
57	0x3ce51d82	0.027968172
58	0x3d7c02e4	0.061526194
59	0xbb4acdf3	-0.003094551
60	0x3d9efdac	0.07763228
61	0x3bb1326b	0.0054076216
62	0x3d986d63	0.07442739
63	0x3d251238	0.040300578
64	0x3d393d3e	0.04522442
65	0x3da629de	0.08113454
66	0x3da933ae	0.0826181
67	0xbd437ed5	-0.04772838
68	0xbd93f09c	-0.07223627
69	0x3bc92307	0.006138209
70	0x3d0cc343	0.034365904
71	0x3d1af764	0.037833586
72	0x3d12aab4	0.035807326
73	0xbcbc38d6	-0.02297632
74	0x3d9fec4b	0.07808741
75	0x3d5a514d	0.05330019
76	0xbce6438e	-0.028108384
77	0x3bee052b	0.0072637997
78	0x3d326f58	0.043563217
79	0xbd2661e5	-0.040620703
80	0xbb5ae9c8	-0.0033403505
81	0x3db6d431	0.08927191
82	0x3d75050f	0.059819277
83	0xbd427198	-0.047471613
84	0xbcc7028d	-0.024293208
85	0xbd98e926	-0.074663445
86	0xbcd9ead8	-0.02660124
87	0x3d79d004	0.060989395
88	0xba4a0a82	-0.0007707254
89	0x3d95e1a2	0.07318427
90	0xbcc03b0d	-0.023465658
91	0xbd92533e	-0.071447834
92	0x3d035e96	0.032072626
93	0xbc01114b	-0.007877658
94	0xb8ea90ae	-0.00011184938
95	0xbd54b230	-0.051927745
96	0xbd8bb45d	-0.06821511
97	0xbd9d8001	-0.076904304
98	0xbd41e908	-0.047341377
99	0xbcd8ac54	-0.02644936
100	0xbd7f0267	-0.06225815
101	0xbd0e9aed	-0.034815717
102	0x3b979996	0.004626463
103	0x3b8daac6	0.0043233363
104	0x3ccaadf8	0.024741158
105	0x3cb2aed1	0.021811875
106	0xbb12ee12	-0.0022419733
107	0x3c8a09d8	0.016850397
108	0x3d0c9fc0	0.034332037
109	0x3d836cd2	0.0641724
110	0xbd9f38ab	-0.077744804
111	0x3d537ff1	0.051635686
112	0xbbf7cdb3	-0.007562363
113	0x3d1146b5	0.035467822
114	0xbcc4acee	-0.02400824
115	0x3d8ec72b	0.06971582
116	0xbd86f76c	-0.06590161
117	0xbd7bb840	-0.06145501
118	0x3bddf187	0.006773177
119	0x3d572c56	0.052532516
120	0x3b7230f1	0.003695544
121	0xbd86c27c	-0.06580064
122	0xbcc845a3	-0.024447268
123	0x3d9f9d7e	0.07793711
124	0xbcbfc664	-0.02341003
125	0x3d181269	0.037126932
126	0x3d80b48f	0.06284439
127	0xbda0869b	-0.07838174
128	0x3d6a1778	0.057151288
129	0x3d06e435	0.03293248
130	0x3d90a097	0.0706188
131	0x3d4a9f9c	0.04946862
132	0x3d2b8a69	0.041880045
133	0xbd90dc9e	-0.070733294
134	0x3da935d1	0.08262218
135	0x3cf9822b	0.030457577
136	0xbcc9d8a6	-0.024639439
137	0xbce99940	-0.028515458
138	0xbd96cb1c	-0.07362959
139	0x3cd936a3	0.02651531
140	0xbda5e564	-0.081003934
141	0x3d929273	0.07156839
142	0xbb31b59c	-0.0027116304
143	0x3d6545f6	0.055974923
144	0xbd1f1d0b	-0.038846057
145	0x3d494efa	0.049147584
146	0xbca0fc7f	-0.01965165
147	0x3d5a0241	0.053224806
148	0xbb9d4100	-0.0047990084
149	0x3d9d120b	0.07669457
150	0xbd22e412	-0.039768286
151	0x3d83a0df	0.06427168
152	0x3d754377	0.059878793
153	0x3d9c66f7	0.076368265
154	0xbce110e9	-0.027473884
155	0x3d1e5d54	0.038663223
156	0x3d8fa878	0.07014555
157	0x3d1a5d0e	0.0376864
158	0x3d93daec	0.072194904
159	0x3d83b220	0.06430459
160	0x3d0083ad	0.031375576
161	0xbd495b3b	-0.04915927
162	0xbda9358f	-0.082621686
163	0xbd9be841	-0.07612658
164	0x3d61943e	0.055073015
165	0x3da6b597	0.08140104
166	0x3ce619f8	0.028088555
167	0x3a2b4b6e	0.0006534372
168	0xbc83fc76	-0.016111594
169	0x3cbc1042	0.022956971
170	0xbd170359	-0.036868427
171	0xbdb395f2	-0.08768834
172	0x3d092131	0.03347892
173	0xbab31142	-0.001366176
174	0xbd72bf0b	-0.059264224
175	0xbd5851fc	-0.05281256
176	0xbb9431ed	-0.004522553
177	0x3a96762f	0.0011479313
178	0x3d968c4c	0.07350978
179	0xbd471a2d	-0.048608948
180	0x3c8953d0	0.016763598
181	0xbc5b65e5	-0.013390993
182	0x3d8c6e77	0.06857007
183	0xbc9a0a0b	-0.018803617
184	0x3c9a8534	0.018862344
185	0x3d7873d0	0.060657322
186	0xbce28f09	-0.027656095
187	0x3d8cb065	0.06869582
188	0x3da0a6eb	0.07844337
189	0xbcc76483	-0.02433992
190	0x3da08f33	0.07839813
191	0xbd6a1b2c	-0.05715482
192	0x3dacf4d5	0.084451355
193	0x3d742d0f	0.059613284
194	0x3be2f97c	0.0069267135
195	0x3d8833b2	0.06650485
196	0xbd3cc3f3	-0.04608531
197	0xbd26d691	-0.04073197
198	0xbd840228	-0.06445724
199	0xbce83c13	-0.028348958
200	0x3d8a344d	0.06748257
201	0xbccb2302	-0.024796966
202	0xbd67ab60	-0.05655992
203	0x3c8b2753	0.016986525
204	0xbd976c34	-0.07393685
205	0x3ce06dd7	0.027396126
206	0x3db0d6da	0.0863473
207	0x3d97bc48	0.07408959
208	0xbd4f3236	-0.050584994
209	0x3d6208f3	0.055184316
210	0x3d8b54a7	0.068032555
211	0x3d90fc0b	0.070793234
212	0x3d5ea750	0.05435878
213	0xbc04085e	-0.0080586355
214	0xbd2f6c7f	-0.04282808
215	0x3d294e28	0.0413343
216	0x3d0bb91a	0.034112073
217	0xbdb3e20c	-0.087833494
218	0x3d882277	0.06647199
219	0xbd4a0f64	-0.049331084
220	0x3d0a7907	0.033806827
221	0x3d8fc07f	0.070191376
222	0xbd0bf165	-0.03416576
223	0xbd61e039	-0.055145476
224	0xbd4dee7c	-0.050276265
225	0x3c45d712	0.012075203
226	0x3d96c53c	0.07361838
227	0xbba0ff12	-0.0049132193
228	0x3d03f69e	0.032217614
229	0xbd0b538c	-0.034015223
230	0xbc8280d6	-0.015930574
231	0x3d26a659	0.040685985
232	0xbca0d0a4	-0.019630738
233	0x3d9bfc3b	0.076164685
234	0x3c46c255	0.012131293
235	0x3d38caea	0.04511539
236	0x3cdde66c	0.027087413
237	0xbdb4d035	-0.08828775
238	0xbd126f88	-0.035750896
239	0xbd5ab51a	-0.05339537
240	0xbd7bc10a	-0.061463393
241	0x3cf569e4	0.02995772
242	0x3a188f30	0.00058196764
243	0xbb0b37ec	-0.0021243049
244	0x3d85d1cb	0.065341555
245	0xbd9bbbb8	-0.07604164
246	0x3c11fd48	0.008910485
247	0x3bbd80e1	0.005783186
248	0xbd39a1fb	-0.045320492
249	0x3cc5d377	0.024148686
250	0xba2d9476	-0.00066215487
251	0xbc58af53	-0.013225394
252	0xbd326df2	-0.043561883
253	0x3d021367	0.031756785
254	0xbd01b89f	-0.03167021
255	0xbd190286	-0.037355922

bias f4 [64]
0	0xbd5a8878	-0.053352803
1	0xbdb446e6	-0.08802585
2	0xbd8dae5e	-0.069180235
3	0x3d09e6c0	0.033667326
4	0x3d076af2	0.033060975
5	0x3dae456c	0.08509335
6	0xbd7c1497	-0.061543074
7	0x3d415009	0.047195468
8	0xbce7af2c	-0.02828177
9	0x3d8eb01d	0.06967185
10	0x3d8f20d4	0.06988683
11	0xbcf40cd3	-0.029791271
12	0xbdafe1f7	-0.08588021
13	0xbd87f649	-0.06638772
14	0xbdaf5a89	-0.0856219
15	0xbd6763f7	-0.05649182
16	0x3d5bbfbf	0.05364966
17	0xbceac33d	-0.02865755
18	0xbd8de13b	-0.06927725
19	0xbd6481e6	-0.055787943
20	0x3d9c2a63	0.07625272
21	0x3d8b540d	0.06803141
22	0x3d1f1269	0.038835917
23	0x3d66aaa1	0.05631507
24	0x3ca02668	0.019549564
25	0xbb600d5a	-0.0034187646
26	0xbcfd3660	-0.030909717
27	0xbda9e70d	-0.082960226
28	0xbd744126	-0.059632443
29	0xbd080e6b	-0.033216875
30	0x3d10ebda	0.035381176
31	0x3d78b4e8	0.0607194
32	0x3c5433fb	0.012951846
33	0xbda90196	-0.082522556
34	0xbd97c515	-0.07410637
35	0x3daf8a80	0.08571339
36	0x3d6935f6	0.056936227
37	0x3d7323fc	0.05936049
38	0xbd43432d	-0.047671486
39	0x3dab36d9	0.08360071
40	0xbd968f12	-0.07351507
41	0xbd8ed288	-0.069737494
42	0x3dabbe06	0.083858535
43	0x3d7672a4	0.060167924
44	0x3d175238	0.036943644
45	0x3d030042	0.031982668
46	0xbc652e00	-0.013988018
47	0xbdab4a46	-0.08363776
48	0x3da4b1d8	0.080417335
49	0xbd3f9cfa	-0.046780564
50	0x3d9c9390	0.07645333
51	0x3d8328dd	0.064042784
52	0x3d91bd0a	0.071161345
53	0x3bb59a70	0.005542092
54	0x3c249b58	0.010046802
55	0x3d0244fa	0.031804062
56	0xbcc4fe26	-0.024046969
57	0xbd7f19c5	-0.062280435
58	0x3d20ff33	0.039305877
59	0xbb61c17c	-0.00344476
60	0x3d4641ba	0.048402525
61	0x3d13ea1f	0.036111947
62	0xba93973b	-0.001126028
63	0x3d1f8e36	0.038953982

weight f4 [32, 64]
0	0xbdfee6ad	-0.12446342
1	0xbdfe7e30	-0.12426412
2	0x3d1b3f95	0.037902433
3	0xbd09b712	-0.033621855
4	0x3dc9366e	0.09824835
5	0x3b7e0106	0.0038757934
6	0xbde54174	-0.11194125
7	0x3db7cf0b	0.08975037
8	0x3d9275e3	0.07151391
9	0xbd9c6051	-0.076355584
10	0x3d9d3770	0.076765895
11	0x3b729728	0.0037016366
12	0xbd7a1df4	-0.06106372
13	0xbd86452c	-0.06556162
14	0xbda08f4f	-0.07839834
15	0xbd2b8478	-0.04187438
16	0xbdb54dbd	-0.08852718
17	0xbd4a3e01	-0.049375538
18	0x3d5bc0f0	0.053650796
19	0x3d92d728	0.07169944
20	0x3de235ea	0.110454395
21	0x3d813bd6	0.06310241
22	0xbdf5f766	-0.12010078
23	0x3d998f78	0.074980676
24	0xbcce125e	-0.025155243
25	0x3d2d9128	0.04237476
26	0x3ccb9d45	0.024855265
27	0xbbd42210	-0.006473787
28	0xbd9eda60	-0.077564955
29	0xbd768528	-0.06018558
30	0x3c7b6d84	0.015345935
31	0x3d52178c	0.051291987
32	0xbdfa0a79	-0.12209029
33	0xbd9cd9ce	-0.076587304
34	0xbdb06bf0	-0.086143374
35	0x3deb7c9b	0.11498376
36	0xbdbcdf12	-0.09222235
37	0xbc236534	-0.009972859
38	0xbd3e1406	-0.046405815
39	0x3c2be118	0.010490678
40	0x3daefb67	0.08544045
41	0x3ddc57cc	0.107589334
42	0xbdc5af65	-0.096525945
43	0x3d5a3b04	0.053278938
44	0xbd7504df	-0.0598191
45	0x3dee0e8a	0.11623867
46	0xbc94556a	-0.018107135
47	0x3da5bb9a	0.08092423
48	0xbc199a3a	-0.009375149
49	0x3df7b709	0.12095458
50	0xbd588ebd	-0.0528705
51	0xbd9303ca	-0.07178457
52	0x3b8cc2ec	0.0042956974
53	0x3ce061ec	0.027390443
54	0x3d652e5f	0.055952426
55	0x3d474910	0.048653662
56	0xbdbaa446	-0.09113364
57	0x3d66c47e	0.056339733
58	0xbd8bc63d	-0.0682492
59	0x3d7fdb2b	0.062464874
60	0xbb1ef830	-0.0024256818
61	0x3c3c04c0	0.011475742
62	0xbdc23c35	-0.0948414
63	0x3c9073dc	0.017633371
64	0xbd9f8f53	-0.07791009
65	0xb850c071	-4.977029e-05
66	0xbbf9988b	-0.0076170615
67	0x3dc59e70	0.0964936
68	0x3daf5ae7	0.0856226
69	0x3c4594c8	0.012059398
70	0xbd752d72	-0.059857793
71	0xbd32768a	-0.04357008
72	0xbb5eecca	-0.003401565
73	0xbceccf23	-0.028907364
74	0x3dbc16db	0.09184047
75	0xbdb24759	-0.08705015
76	0x3dd3a8c4	0.10334924
77	0x3bafdee6	0.0053671477
78	0xbd0080f3	-0.031372976
79	0xbcef503d	-0.029213065
80	0xbc84ba4c	-0.016202115
81	0x3db58dfd	0.08864973
82	0xbd505905	-0.050866146
83	0x3d1afadd	0.037836898
84	0x3dcfc303	0.101446174
85	0x3d17e0cb	0.037079614
86	0x3cec7b73	0.028867459
87	0x3da962de	0.082708105
88	0xbd9ef7e4	-0.07762125
89	0xbcd08841	-0.025455596
90	0xba6f063c	-0.00091180555
91	0x3da47cf4	0.080316454
92	0x3dc690e9	0.09695608
93	0x3d980c14	0.07424179
94	0xbcb223a7	-0.021745516
95	0xbc817431	-0.015802475
96	0x3d5d50b5	0.054032046
97	0xbd6f869e	-0.05847799
98	0xbdf99093	-0.121857785
99	0x3d9e5d13	0.07732596
100	0x3da8c3ba	0.08240457
101	0x3cdb182b	0.026744923
102	0x3d436008	0.047699004
103	0xbcb01481	-0.021494152
104	0xbd0f1649	-0.034933362
105	0x3df6483b	0.120254956
106	0xbd18ce55	-0.03730615
107	0xbd84e0ba	-0.06488176
108	0x3d840593	0.06446376
109	0xbda19919	-0.07890529
110	0xbc01b850	-0.007917479
111	0x3d4654d2	0.048420735
112	0x3dd92bee	0.10604082
113	0x3d28f09d	0.04124509
114	0xbcf6bf66	-0.030120563
115	0xbd58044a	-0.052738465
116	0x3d2f2008	0.042755157
117	0x3dc1b74c	0.09458789
118	0xbc7fec0a	-0.015620241
119	0xbda72c2e	-0.081627235
120	0x3ce2f1b2	0.02770314
121	0xbc9935f1	-0.01870248
122	0xbda4b260	-0.08041835
123	0x3bea1fc3	0.0071448996
124	0x3cf995d0	0.030466944
125	0x3de1d79e	0.11027454
126	0xbddbf6ec	-0.10740456
127	0x3cb80e8f	0.02246788
128	0xbc3432f4	-0.010998476
129	0xbc9e5450	-0.019327313
130	0xbd09ecb1	-0.033672992
131	0x3d26b576	0.0407004
132	0x3dc9d19e	0.098544344
133	0x3b865e2f	0.004100583
134	0x3ddb021b	0.10693761
135	0xbd5291ec	-0.051408693
136	0x3d5f9571	0.054585878
137	0x3ca6b88c	0.02035167
138	0x3dc3e397	0.09564894
139	0xbdeddf49	-0.11614854
140	0xbd5bf50f	-0.053700503
141	0xbd886bf8	-0.066612184
142	0x3d456e48	0.048200876
143	0xbdb0fee8	-0.086423695
144	0xbc8fc0e4	-0.017548032
145	0x3d75c52d	0.060002495
146	0x3d3bf18b	0.04588465
147	0xbc7bcdc1	-0.01536888
148	0xbd822a30	-0.06355703
149	0xbb1cff40	-0.0023955852
150	0xbd7efb3b	-0.06225131
151	0xbcd1fc7f	-0.025633095
152	0x3d58fb2f	0.052973922
153	0xbda79aeb	-0.08183845
154	0xbd84b438	-0.064796865
155	0xbdc4b803	-0.0960541
156	0xbde06596	-0.10956876
157	0x3d8850df	0.0665605
158	0xbbe2eb4a	-0.0069250213
159	0xbca764b0	-0.020433754
160	0xbde3daaf	-0.11125695
161	0x3d8882c4	0.066655666
162	0x3d86f206	0.06589131
163	0x3d7844d2	0.060612507
164	0xbdc16b8c	-0.09444341
165	0x3d4e9157	0.050431576
166	0xbde52ae8	-0.11189824
167	0xbcae89d4	-0.021305956
168	0x3d5a289e	0.05326139
169	0x3d8c9a2f	0.06865346
170	0xbdb17144	-0.08664182
171	0xbd86a2ec	-0.06574044
172	0x3c9743f0	0.018465012
173	0x3dc0fffd	0.09423826
174	0xbdefbb5d	-0.117056586
175	0x3ced80d6	0.028992098
176	0xbdb891b1	-0.090121634
177	0x3de89a66	0.11357574
178	0xbdc92b3e	-0.09822701
179	0xbca8f9ce	-0.020626929
180	0xbd1acb13	-0.037791323
181	0x3dfd1fe2	0.12359597
182	0x3b7cbeba	0.003856583
183	0xbdd5ec10	-0.10445416
184	0x3d89a35f	0.06720614
185	0xbcff199d	-0.031140143
186	0x3d902c0f	0.070396535
187	0xbc5c8cec	-0.013461333
188	0x3d945bd8	0.0724408
189	0xbb425180	-0.0029650629
190	0x3ca54925	0.02017648
191	0xbd8c814e	-0.068606004
192	0x3dbd2522	0.09235598
193	0xbd9bdc99	-0.07610435
194	0xbdf03e46	-0.11730628
195	0x3d86c31d	0.06580184
196	0x3de75290	0.112950444
197	0xbdf06698	-0.11738318
198	0x3dc4a662	0.096020475
199	0xbd54f8a0	-0.05199492
200	0x3d8d81c8	0.069095194
201	0xbc2a37da	-0.010389293
202	0x3d844a9c	0.06459543
203	0xbd86dac3	-0.06584694
204	0x3c39cf65	0.011340951
205	0xbdf849d7	-0.12123459
206	0x3d147922	0.036248334
207	0xbcd36747	-0.025806082
208	0x3c8e0e4d	0.017340804
209	0x3d3d2fcc	0.04618816
210	0xbcd1fcda	-0.025633264
211	0x3cae5aba	0.021283496
212	0x3dfcf3e8	0.12351209
213	0xbdd46564	-0.10370901
214	0xbd6c9aa7	-0.057764675
215	0x3ce1a0b5	0.027542451
216	0xbdf9305e	-0.121674284
217	0xbdb5bcd9	-0.088739105
218	0x3dbd244d	0.092354394
219	0x3db9881e	0.090591654
220	0xbdba5aec	-0.09099373
221	0x3b829d19	0.0039860127
222	0x3d3790e2	0.044815905
223	0x3d14726d	0.036241937
224	0x3d1f7411	0.03892905
225	0x3db3b7d2	0.08775295
226	0x3d4ed063	0.0504917
227	0x3dc66ca2	0.09688689
228	0xbba58756	-0.0050515337
229	0xbc01ef4f	-0.007930591
230	0xbda28d9a	-0.079371646
231	0x3da789b9	0.081805654
232	0xbdc14713	-0.094373845
233	0x3d746c41	0.05967355
234	0xbdbc813d	-0.09204338
235	0xbdb59cae	-0.08867775
236	0x3d933e9b	0.071896754
237	0x3d3feb10	0.046855032
238	0xbddfc4f4	-0.10926238
239	0x3dca964b	0.09891947
240	0x3b7cc768	0.0038571004
241	0xbdcc9926	-0.09990148
242	0x3d790372	0.0607943
243	0xbc1acfa2	-0.009448918
244	0xbddbbbf5	-0.10729209
245	0xbdecdcad	-0.11565528
246	0xbcc5588b	-0.024090072
247	0x3dc267aa	0.094924286
248	0x3d5869cb	0.052835267
249	0xbd2e0daa	-0.0424935
250	0x3d3ecb5a	0.04658065
251	0xbdbe1f1b	-0.09283277
252	0x3dd0c26b	0.10193332
253	0xbdf9988e	-0.121873006
254	0x3d8cece4	0.06881121
255	0x3de1dda8	0.11028606

bias f4 [32]
0	0x3dcf418c	0.10119924
1	0xbd92092e	-0.07130657
2	0xbd163dc6	-0.036680005
3	0x3cfe126d	0.031014645
4	0xbc39129b	-0.01129594
5	0xbdca39d2	-0.098743096
6	0xbd7ea888	-0.062172443
7	0xbae33277	-0.0017333765
8	0xbc2d60b3	-0.010582137
9	0xbd92b6a9	-0.07163746
10	0xbd83d60d	-0.06437311
11	0x3d6993bb	0.057025652
12	0xbd9b0e39	-0.07571072
13	0xbdb34e85	-0.08755211
14	0xbd9bc24e	-0.0760542
15	0xbda19e8f	-0.07891571
16	0x3d2941af	0.041322406
17	0xbdca8683	-0.09888937
18	0xbd951f80	-0.07281399
19	0x3c6535b0	0.013989851
20	0x3d0caccb	0.034344476
21	0x3d72c258	0.059267372
22	0x3d28c244	0.04120089
23	0xbcdcbc00	-0.026945114
24	0x3de4ac51	0.11165679
25	0xbd344ae3	-0.04401673
26	0x3b4cb8e3	0.003123813
27	0xbd8b425e	-0.06799768
28	0x3d7ad6fa	0.061240174
29	0x3da0519f	0.07828068
30	0x3ce4e21b	0.027939847
31	0x3d26c98e	0.04071956

weight f4 [2, 32]
0	0xbdb74e85	-0.08950523
1	0xbe082181	-0.1329403
2	0xbd3d497e	-0.046212666
3	0x3c85c5d0	0.016329676
4	0xbd99b63d	-0.07505462
5	0xbdbdd871	-0.092697985
6	0xbde46639	-0.1115231
7	0x3e1764c4	0.14784533
8	0x3b1ee687	0.0024246292
9	0xbdfc589b	-0.12321588
10	0xbe061b6a	-0.13096395
11	0xbd161fec	-0.036651537
12	0x3dcbbdac	0.099482864
13	0xbd593774	-0.0530314
14	0x3b2b8cfd	0.0026176565
15	0x3d31ee47	0.04344013
16	0x3e193185	0.14960296
17	0xbc9843c0	-0.018586993
18	0x3e1e420d	0.15454884
19	0x3df319fe	0.11870192
20	0x3df771d8	0.12082261
21	0x3dcddd7c	0.100520104
22	0x3d455eb1	0.048186008
23	0xbe210083	-0.15722851
24	0x3e30376b	0.1720864
25	0x3daa6369	0.08319742
26	0x3e217847	0.15768538
27	0xbe313e97	-0.17309032
28	0x3d150c67	0.03638878
29	0x3d0f3447	0.034961965
30	0xbd9e2aaa	-0.07722981
31	0xbe012d54	-0.12614948
32	0x3d112fda	0.035446025
33	0x3c6490ff	0.013950585
34	0xbdaa04af	-0.083016746
35	0x3de3802e	0.11108433
36	0xbd333d7a	-0.0437598
37	0x3e2f0790	0.17092729
38	0xbe29c5a6	-0.16579303
39	0xbe01d762	-0.12679818
40	0xbc2234aa	-0.009900251
41	0x3d280656	0.041021667
42	0x3d974007	0.07385259
43	0x3e206ecf	0.1566727
44	0x3df9ec10	0.122032285
45	0x3d958405	0.07300571
46	0xbdd1f685	-0.10252098
47	0xbdb6e3e0	-0.089301825
48	0x3de457e9	0.1114958
49	0xbd5a9b90	-0.053371012
50	0xbcee2e26	-0.02907474
51	0xbdbf2d09	-0.09334762
52	0xbdbc0f54	-0.09182611
53	0x3d876551	0.066111214
54	0xbe2e286b	-0.17007606
55	0xbcb6f083	-0.022331482
56	0xbd4e4c13	-0.05036552
57	0x3bc0a7e0	0.0058793873
58	0x3d1172a7	0.03550973
59	0xbdd20c9e	-0.10256313
60	0x3e22084e	0.1582348
61	0x3e1cc8e5	0.1531101
62	0xbdf8ad2c	-0.12142405
63	0xbd6710d4	-0.056412533

bias f4 [2]
0	0x3e13be28	0.14428008
1	0x3d8378f4	0.06419554

weight f4 [2, 32]
0	0x3e228c0d	0.15873738
1	0x3dcb1463	0.09915998
2	0xbd1c9610	-0.03822905
3	0x3dd5e434	0.10443917
4	0x3cef57ef	0.029216735
5	0x393e52cf	0.0001815066
6	0xbcf76b2a	-0.030202467
7	0xbda463bf	-0.080268376
8	0x3df94f6b	0.12173351
9	0xbe1cdc68	-0.15318453
10	0x3e066eff	0.13128279
11	0x3deceb1b	0.1156828
12	0xbe23d355	-0.15998586
13	0x3e1b0de9	0.15142025
14	0xbb3c3e00	-0.0028723478
15	0x3e06d540	0.13167286
16	0x3d1cbc3e	0.03826546
17	0xbe009775	-0.12557776
18	0x3d5cdc7a	0.0539212
19	0x3d0ea0e5	0.03482141
20	0xbe1ace35	-0.15117724
21	0x3dc2e82b	0.09516939
22	0x3d4dff07	0.05029204
23	0x3dd1a764	0.10237005
24	0x3d87813b	0.06616446
25	0xbe280110	-0.16406655
26	0x3e1b0668	0.15139163
27	0x3d7b72a1	0.061388616
28	0x3dd3df22	0.103452936
29	0x3e13e2ea	0.1444203
30	0xbdb6e6cd	-0.089307405
31	0xbe04d2cd	-0.12971039
32	0xbd87e766	-0.066359326
33	0x3da078f0	0.07835567
34	0x3e05b002	0.13055423
35	0xbdf3a2ff	-0.118963234
36	0xbd0790c4	-0.033097044
37	0x3e1b0597	0.15138851
38	0x3e104222	0.14087728
39	0xbd1e0a67	-0.03858414
40	0x3dcb64be	0.099313244
41	0x3d931c26	0.07183103
42	0xbd35caeb	-0.04438297
43	0x3d81ebca	0.06343801
44	0x3cde9364	0.02716989
45	0xbd8b6ada	-0.0680749
46	0x3e166fd0	0.1469109
47	0xbdb9c256	-0.0907027
48	0x3b5c406a	0.003360773
49	0xbce9dd2d	-0.028547848
50	0x3db1d1b3	0.08682575
51	0xbc581031	-0.013187454
52	0x3d64f699	0.055899236
53	0xbe25e523	-0.1620069
54	0x3e138adf	0.14408444
55	0x3cd1b2aa	0.025597889
56	0x3dbdba01	0.09263993
57	0xbdcd4d1f	-0.10024475
58	0x3e223b68	0.15842974
59	0xbda792e1	-0.08182312
60	0xbd16a557	-0.036778774
61	0xbd855411	-0.06510175
62	0xbcc138f0	-0.02358672
63	0xbe04fa5d	-0.12986131

bias f4 [2]
0	0xbe1d0173	-0.15332584
1	0xbe0b71c3	-0.13617615

weight f4 [1, 32]
0	0xbc3fedcb	-0.011714409
1	0x3c3a5b46	0.0113743
2	0x3e042465	0.12904508
3	0x3cfd2004	0.030899055
4	0x3db83555	0.08994547
5	0xbe250cd3	-0.16118173
6	0x3d8c60f9	0.068544336
7	0xbd942b1e	-0.072347865
8	0xbe12b9c8	-0.14328682
9	0x3dfe5b39	0.12419743
10	0x3c7c47ca	0.015397975
11	0x3df2d6fa	0.1185741
12	0x3decc7b2	0.11561526
13	0xbdd88f16	-0.105741665
14	0x3df091c4	0.117465526
15	0xbd8fec06	-0.0702744
16	0x3e33734e	0.17524454
17	0x3dd82847	0.10554557
18	0x3df08a76	0.11745159
19	0xbe22b876	-0.15890679
20	0x3de24ca1	0.11049772
21	0xbe324ac5	-0.17411335
22	0xbc95df37	-0.018294914
23	0xbb4153a6	-0.0029499321
24	0xbc8d35c3	-0.01723755
25	0x3da6f50d	0.081522085
26	0x3d8773f2	0.06613912
27	0x3e2b76e3	0.1674457
28	0x3e36ad3c	0.17839521
29	0xbd1ff5d8	-0.039052814
30	0xbe21e6c6	-0.1581069
31	0xbd1f51f4	-0.038896516
