2023/baseline0806/model/WLTP_trained/PPO_actorcritic_6epoch.pt (torch, 53459 bytes, 11 tensors)

weight f4 [128, 7]
000000 b3 10 f5 ba b9 e2 d8 3d 9d ae 4d be 2a ff a0 be
       -0.0018696993 0.10590119 -0.20086141 -0.31444675
000010 4c dd 30 be 25 4c 5c 3e ea 4d 2f be 04 87 14 3e
       -0.17271918 0.21513422 -0.17119566 0.1450463
000020 e9 5a f6 3d 42 b9 a6 be bb c2 81 3e b8 73 b6 be
       0.120290585 -0.32563215 0.2534388 -0.3563516
000030 b2 13 b1 3e aa b5 86 bc ba 30 8c bc 0e 48 0c be
       0.3458534 -0.016444046 -0.017113078 -0.13699362
000040 f4 c3 13 be 94 16 7b 3e fd 02 0e 3e 5b 85 a1 bd
       -0.14430219 0.24520332 0.13868327 -0.07886764
000050 09 a5 ba 3e f3 b6 b5 3d e1 79 45 3d 85 e0 3e bc
       0.36454037 0.088727854 0.048211936 -0.011650209
000060 ab 87 af 3d 18 20 3b 3e ed 76 a4 3e 9b a9 fd bd
       0.085707985 0.18273962 0.32121983 -0.12385865
000070 2f 88 25 be 97 c2 0f be 65 60 93 3d 7f fa 84 3e
       -0.16165231 -0.14039074 0.0719612 0.25972363
000080 4f c5 03 3e bf b6 78 be c1 33 1d 3e 8c 41 64 be
       0.12868236 -0.24288462 0.15351774 -0.22290629
000090 64 33 95 be 66 f4 89 3e 5e 72 9f 3e 8d 09 bf be
       -0.2914077 0.26944274 0.31141943 -0.37311974
0000a0 89 91 29 3e de a3 7d bd 15 f3 25 3e 00 c4 5d 3e
       0.16559424 -0.061923854 0.1620601 0.216568
0000b0 37 74 a4 be 7a 45 a7 be 41 e8 6b bd f9 78 f0 bd
       -0.32119915 -0.32670194 -0.05759454 -0.11741824
0000c0 c1 2f c0 be c9 90 97 be 6e 34 27 3e 25 c8 be 3e
       -0.37536433 -0.2960265 0.16328594 0.37262073
0000d0 37 6f 5e be 5f 17 5b 3d 33 56 5c be b7 1e 88 be
       -0.21722113 0.053489085 -0.21517257 -0.26585934
0000e0 f5 e9 73 be 76 50 f9 bc f3 16 3d 3e f3 16 d9 3c
       -0.23819716 -0.030433875 0.18465786 0.0265002
0000f0 86 4c ab be 77 77 b1 3d 07 d3 9a be 3d 84 6c 3e
       -0.3345682 0.08665364 -0.30239126 0.2309732
000100 c1 37 90 be aa 14 a0 3d ca 9f 70 bd e7 34 59 be
       -0.28167537 0.07816441 -0.058746137 -0.21211587
000110 1e 00 3c be aa 66 97 be b0 12 8f 3e 94 59 0a be
       -0.1835942 -0.29570514 0.27943945 -0.13510734
000120 d5 18 ad 3d 04 c9 59 be ea d4 21 bd 64 63 3c 3e
       0.08452002 -0.21268088 -0.03950969 0.1839729
000130 8c d1 9f be fe 23 28 3e 69 83 d5 bd 09 30 55 3e
       -0.3121456 0.1641998 -0.10425455 0.20819105
000140 7f d7 a5 3e 61 5c 84 3e c6 59 98 be f2 30 55 3e
       0.32390973 0.2585173 -0.29755992 0.20819452
000150 30 22 5f 3e 66 0d 63 bc 11 fd 56 3d 1f bb dd 3d
       0.21790385 -0.013858175 0.052487437 0.10826706
000160 ad 71 8a 3e d6 d2 74 be e2 0f 87 be 00 d4 97 3e
       0.27039853 -0.23908553 -0.26379305 0.2965393
000170 a8 1c a7 3e f3 00 54 be f2 89 59 3e ca 36 cf 3d
       0.3263905 -0.20703487 0.21244028 0.10117872
000180 77 5d 18 be f2 4a a9 3d 04 db 6b 3e 21 90 91 be
       -0.14879404 0.08266248 0.23032767 -0.28430274
000190 e3 ef 55 3e 05 b9 1e 3e a6 35 30 3e 7e e1 fe bd
       0.20892291 0.15500267 0.17207965 -0.12445353
0001a0 3a c8 ac 3c 62 ca 04 3e 5c d4 b1 be 12 4b 9b be
       0.02109157 0.12967828 -0.3473233 -0.30330712
0001b0 91 98 49 3d d1 38 38 3e 8a f7 1e bd 01 7c b7 3e
       0.049217764 0.17990424 -0.03881029 0.35836795
0001c0 9a 4a de 3d 32 24 88 3e e2 6c be 3e 33 54 e2 3d
       0.10854073 0.26590115 0.37192446 0.11051216
0001d0 09 e4 bf 3e 24 fb 82 3d 4f 81 c8 3d 79 1e 37 3e
       0.37478665 0.063955575 0.09790289 0.17882718
0001e0 7a ed 06 3e e1 be 7e 3e 6c d3 7c 3e 1f b7 7f be
       0.13176528 0.24877502 0.24690026 -0.24972199
0001f0 d8 bd 3a be c3 24 d6 bd 52 a1 8c bd 8d 14 6d bd
       -0.18236482 -0.104562305 -0.06866707 -0.057880927
000200 cb 83 35 be 7f 56 d8 bd 33 67 5e 3d 36 0d 1e 3e
       -0.17726056 -0.10563373 0.054297637 0.15434727
000210 96 f1 0c 3e c6 9c 85 3e e1 5e b0 bb 10 10 93 be
       0.13764033 0.2609617 -0.005382404 -0.28723192
000220 26 a0 ab be da 5b 5a 3c c5 f2 b0 be 7b 7d 26 bd
       -0.3352062 0.013327563 -0.34560218 -0.04064701
000230 e1 10 82 be 93 fe 57 be 27 9c a8 3e db 41 ad 3e
       -0.25403503 -0.21093206 0.32931635 0.33839306
000240 c9 93 08 3e e1 f7 98 3b 6b 93 31 3d d5 00 c1 be
       0.13337626 0.0046682213 0.04335348 -0.37695947
000250 56 df 0c be 21 73 75 3e be e7 88 3c cd 61 8c bd
       -0.13757071 0.239697 0.016712066 -0.068545915
000260 12 53 7d be 08 1c 81 3e cd a4 ae be 31 c9 5f 3e
       -0.2473872 0.252167 -0.34110108 0.21854092
000270 ee 9a 59 bc e5 af 13 bd 14 3f 9e 3e 68 4c 80 3d
       -0.013281567 -0.036056418 0.309075 0.06264573
000280 9c 5d dc 3d 4e c3 3f be 2c 87 93 bd b6 42 d8 bc
       0.10760042 -0.18726847 -0.07203516 -0.026398998
000290 5d ca b0 3e 8e a7 0e 3e 24 2a a1 be 10 ba 4e 3e
       0.3452939 0.13931105 -0.31477463 0.20188165
0002a0 ee ec 48 be f5 49 ea bd 30 bb 85 3e 94 ff ec bd
       -0.19621632 -0.114398874 0.26119375 -0.11572185
0002b0 55 5d 03 be e8 bf 9e 3e 2a cf 59 3d 33 f2 7a be
       -0.12828572 0.31005788 0.053176083 -0.24506454
0002c0 ee 88 3c 3e 6d d9 fa bd 52 55 73 be 9c 02 fd 3d
       0.1841161 -0.12248502 -0.23763016 0.12354013
0002d0 df 51 94 3e bd 2a df bd e4 53 08 3e 1d 3e 5d 3e
       0.28968713 -0.108968236 0.13313252 0.21605726
0002e0 57 99 ba 3e d3 cb ac be 21 f4 ac 3e fd fd a2 3e
       0.36445114 -0.33749256 0.33780006 0.31834403
0002f0 c9 58 4b 3e 78 ad 70 3e 63 c3 6c be fc ef 8a be
       0.19858088 0.23503673 -0.23121409 -0.2713622
000300 82 d7 a5 bd 15 da bd 3e 22 ea 7a be cd 31 dd 3b
       -0.080977455 0.37080446 -0.24503377 0.0067503215
000310 b4 27 91 bd 41 19 05 3e d9 a5 45 3e 58 cd 11 be
       -0.07087651 0.12997915 0.19301547 -0.14238489
000320 fb 50 b3 3e f3 ad 64 bd 19 a7 7c 3e 9a 83 56 be
       0.3502272 -0.055829953 0.24673118 -0.2094864
000330 10 4f cc 3d 0b 53 a1 3e a1 0c bf 3d 76 8c e7 3c
       0.099760175 0.3150867 0.09328581 0.02826522
000340 65 19 36 3e 90 97 53 bd 0f e2 1f 3e 9c 3e 90 3e
       0.17783125 -0.051658213 0.15613578 0.28172767
000350 b5 61 4b be b9 fc 81 3c 06 b5 fa bd cf 77 9f be
       -0.19861491 0.015867578 -0.12241559 -0.31146094
000360 7a 8f 8a 3d 84 87 8c be 3a 7c bf be fd 50 7a 3e
       0.06765647 -0.2744714 -0.37399465 0.24444957
000370 5e 62 89 be 7a e7 1c be 1d 35 7f 3d 5a e5 f1 bd
       -0.2683286 -0.15322676 0.062306512 -0.118113235
000380 df f5 b2 3e ef 5b 24 3e 0e 86 50 3e 15 19 96 bd
       0.3495321 0.16050695 0.20363638 -0.07329003
000390 e4 f3 9e 3e 85 b3 9b 3d 88 ff 7b be 24 2e bc 3e
       0.3104545 0.076026 -0.24609196 0.36753953
0003a0 97 5c b0 3e 51 99 1c be 28 7d 80 be c3 1b 40 bd
       0.3444564 -0.1529286 -0.25095487 -0.046901476
0003b0 82 4e a0 3d 3c b0 07 bd cb c6 a4 3a 56 c8 93 3e
       0.07827474 -0.033127055 0.0012571452 0.28863782
0003c0 b9 f6 bf 3d eb 41 b2 3e 6d 20 19 be ff a2 0f 3e
       0.093732305 0.34815916 -0.14953776 0.14027022
0003d0 1d d2 a3 3e de ec 9d be 02 b4 ac be 90 d9 21 be
       0.3199624 -0.30844778 -0.33731085 -0.1580565
0003e0 1a dd 0a be 95 9b 92 bd b2 79 d1 3d 56 aa b5 3e
       -0.13560906 -0.07158581 0.1022829 0.35481519
0003f0 0c 24 9f be 59 58 55 3e 30 1d a1 bd 9c b6 1b be
       -0.3108219 0.20834483 -0.07866895 -0.15206379

bias f4 [128]
000000 88 54 f4 3d 2d 90 d6 3d 2f 32 9a 3e 0a 56 47 be
       0.119301856 0.10476718 0.30116412 -0.19466415
000010 c0 1e 29 be 60 cf 5f 3e 21 65 bc bd 77 20 39 be
       -0.16515636 0.21856451 -0.09198976 -0.1807879
000020 1b a5 37 3e 80 6d 4f 3e 66 6b b8 3e 1b bd 27 3e
       0.17934076 0.20256615 0.36019439 0.16380732
000030 00 28 2e be 88 c8 4f 3e ff b2 17 3b 11 da 81 3e
       -0.17007446 0.2029134 0.0023147461 0.25361684
000040 49 1f b1 be cb 02 94 be 0e a4 b1 be d5 50 1a 3e
       -0.3459418 -0.2890838 -0.34695476 0.15069897
000050 8d 2c a2 be 22 ba 83 3e 18 18 37 be 62 61 81 be
       -0.31674615 0.25727946 -0.17880285 -0.2526961
000060 b2 0c d8 bd d4 a0 9b 3e bd 01 7a be d8 19 03 be
       -0.105492964 0.3039614 -0.24414726 -0.12802827
000070 54 b0 43 3e 61 82 ad be b0 3c 56 be cb 58 36 3e
       0.19110233 -0.33888534 -0.20921588 0.1780731
000080 15 f5 83 be 17 35 b3 be 08 17 7a be f6 75 ef bd
       -0.2577292 -0.35001442 -0.24422848 -0.11692421
000090 01 67 13 3e 13 f5 73 3d 36 09 a5 3e 36 de 76 be
       0.14394762 0.059559893 0.3223359 -0.24108204
0000a0 f7 7c 53 3e 9b f8 2f be e9 7c 12 bd 5d 28 0b 3e
       0.20653139 -0.17184679 -0.035763655 0.13589616
0000b0 7c ad 16 be ed 3c b7 be 14 f6 12 3e 58 2d 0c 3e
       -0.14714617 -0.3578867 0.14351684 0.13689172
0000c0 22 c3 bb be df 90 8e be ab a1 a6 3c 08 39 36 bc
       -0.36672312 -0.27844903 0.020340761 -0.011121996
0000d0 6e f1 ec bc 3e 8c a3 3e 02 8c 05 be d7 ce fd 3d
       -0.028923716 0.31942934 -0.1304169 0.12392967
0000e0 12 68 28 3e cc 79 8b 3e 57 bb a8 3e 96 b7 36 be
       0.1644595 0.2724136 0.3295543 -0.1784347
0000f0 82 6b a4 bd 1f c7 bd be 00 dd 37 be d6 93 95 be
       -0.08028318 -0.3706598 -0.17955399 -0.29214352
000100 de 29 33 3e 82 18 04 be 50 f8 dd 3d b4 b0 b2 be
       0.1749644 -0.12899974 0.108383775 -0.3490044
000110 6d 07 2b 3d 11 a9 e6 bd 91 93 9e be 01 49 88 be
       0.04175513 -0.112627156 -0.3097196 -0.26618198
000120 fc db 8f 3b 04 ed 7b 3d 7c 8b 71 be 28 55 fc 3c
       0.004390238 0.061505333 -0.23588365 0.030802324
000130 22 a4 5c 3d 24 94 ab bd d6 a6 b8 3d 3f 9c bb bc
       0.053867467 -0.08377865 0.090161964 -0.022901652
000140 92 fd 3c be 79 ac 4d 3c 5b f0 13 3e 07 4b 25 bd
       -0.18456104 0.012553328 0.14447157 -0.040354755
000150 91 33 93 be 52 40 b6 bd 0f e6 21 3e 72 cb 50 3e
       -0.2875028 -0.08898987 0.15810417 0.20390108
000160 8c 95 72 bd 2c 36 a2 be a6 8f 53 be c2 f7 6f 3d
       -0.05922465 -0.31681955 -0.20660266 0.05858589
000170 c1 9f b3 be e4 83 86 be f8 e4 77 be cf 48 b1 be
       -0.3508282 -0.262725 -0.24208438 -0.3462586
000180 b1 c4 9f be d1 b6 d7 bd c6 95 1c 3c de 0e 53 3e
       -0.3120475 -0.10532916 0.009557193 0.2061114
000190 4a af 75 3e 79 d8 35 be 9f 0f 0c be 49 7a 33 bd
       0.23992649 -0.17758359 -0.13677834 -0.043817792
0001a0 bd 21 df 3c 03 30 f9 3d 1c df cd bd 48 2e b8 3e
       0.027237767 0.12167361 -0.1005232 0.3597281
0001b0 1d db 94 bd 96 55 7c 3c 35 6b ba bd 72 e1 b0 be
       -0.07268355 0.015401265 -0.09102479 -0.34547
0001c0 b8 c6 16 3e f0 2d 53 be 9c 27 97 bc 95 94 1b be
       0.14724243 -0.20622993 -0.018451504 -0.15193398
0001d0 35 61 88 3d e9 59 a9 3d 07 b1 fc 3d bc b8 1c 3e
       0.06659166 0.08269102 0.12338453 0.15304846
0001e0 1f 8d a8 bd 51 f1 b7 3e 48 a3 8e be d4 65 05 3e
       -0.08230042 0.35926297 -0.2785895 0.13027126
0001f0 ca c3 4b be 44 37 52 bd 9b 5d c1 be 2f 1a 43 be
       -0.19898906 -0.051322237 -0.37766728 -0.19052957

weight f4 [64, 128]
000000 a5 6d 62 bc 87 16 53 bd b2 bf af bb 4e a4 48 3d
       -0.013820087 -0.051535156 -0.005363428 0.04898482
000010 25 6a 8b bd 09 40 35 bd c6 4a 69 bd b4 b7 29 3d
       -0.06807355 -0.04425052 -0.056956075 0.04143496
000020 0c 9b 7f bd a4 1f ab bc 3c eb a4 bd b7 68 e2 ba
       -0.062403724 -0.02088911 -0.0805268 -0.0017273639
000030 27 7f 47 bd 90 53 b6 3b 56 11 57 bc bf 26 9a 3c
       -0.048705246 0.0055641606 -0.013126692 0.018817304
000040 2b 19 5d bd 90 ec 9d 3c 58 ef 99 3d e0 de 77 3d
       -0.05397908 0.01927784 0.07516354 0.060515285
000050 d4 d5 72 bd b4 b9 97 bd b5 d7 35 3d 45 46 17 bd
       -0.059285954 -0.07408467 0.044395167 -0.03693225
000060 79 62 90 ba 1c 68 0d 3d bd ef f1 bc b0 af b7 bb
       -0.0011015675 0.034523115 -0.029533261 -0.0056056604
000070 ee a2 b5 bc 38 0f f3 b9 af e6 91 bd 07 a9 b0 3c
       -0.022172417 -0.0004635991 -0.071240775 0.021564974
000080 6b ca b5 3d 32 0a bc bc 7c 08 a6 3d 4b b1 83 bd
       0.08876499 -0.02295408 0.08107087 -0.064303
000090 87 dc 2d 3d e9 19 88 39 c8 af 7c bd cb 54 55 3d
       0.04244664 0.00025959246 -0.061691076 0.052082818
0000a0 be 29 58 3c 53 2b 00 3d f6 97 96 3d 6b 8c 5e bd
       0.013193546 0.031291317 0.07353203 -0.05433313
0000b0 d3 0f d0 3c d4 82 78 3d b7 79 86 bc a7 8e cd bc
       0.02539817 0.060671642 -0.01641546 -0.025092436
0000c0 c1 fc a2 bd e8 6d 97 3d 2d a2 2d bb d9 b3 20 3d
       -0.07958365 0.0739401 -0.002649437 0.039234016
0000d0 29 60 cd 3c db 13 1f 3d 7e ec 8c 3d a2 ff 13 bd
       0.025070267 0.038837295 0.06881045 -0.036132462
0000e0 76 65 ac bd 8e dc a2 3d 38 eb 04 3d 93 4f ed 3c
       -0.0841779 0.07952224 0.032450885 0.028968608
0000f0 49 3b e9 3c 32 5d a2 bd 93 5b 8a bd 13 34 7d bd
       0.028470652 -0.07927932 -0.06755748 -0.06181724
000100 15 fa a0 bc 1c 93 34 bd 14 ab 19 b9 c4 e3 51 bd
       -0.019650498 -0.044085607 -0.00014654949 -0.051242605
000110 17 65 8f 3d 81 95 ac bd 16 d8 38 3d 6a 06 99 3d
       0.07001703 -0.08426953 0.04512795 0.074719265
000120 34 ad 61 bc 6f c2 30 3d f7 96 85 3d ac 38 94 3c
       -0.013774205 0.043154176 0.06522935 0.01809343
000130 65 35 9d 3d f8 34 98 bd 05 3b c6 3b f9 0e 46 3d
       0.076762 -0.07431978 0.006049516 0.048354123
000140 36 2b 45 bd 06 2a b4 3d a6 e7 a3 bd 05 1e 9e 3c
       -0.048136912 0.08797078 -0.08003168 0.019301424
000150 c6 09 a6 3d ca c8 43 3a f6 2d 7f bd fc 4a 99 3d
       0.08107333 0.00074685796 -0.06229969 0.07485005
000160 ff 9a 99 bd c3 70 76 bd 8c a7 d4 3c 2d 05 03 3d
       -0.07500266 -0.06016613 0.025958799 0.031987358
000170 06 5e 91 3d ed cc 25 3a 1b 76 95 bc 55 b1 96 bc
       0.07098012 0.0006324787 -0.018244794 -0.018395105
000180 31 d7 94 3d e7 80 ab 3c 91 6f 81 3d 17 65 e0 3b
       0.07267607 0.020935489 0.06320108 0.0068479883
000190 c5 cc da bc d2 57 97 3c 33 f5 2c 3d 10 85 a0 3a
       -0.02670897 0.018474493 0.042226028 0.0012246687
0001a0 76 70 09 bb 89 2d 2f 3d b3 50 ca bc b8 b2 95 bd
       -0.0020971573 0.042768035 -0.024696684 -0.073094785
0001b0 f8 b1 70 bc 61 fa 8a bd 47 41 39 3d 44 dc 74 bd
       -0.014690869 -0.06786037 0.04522827 -0.059780374
0001c0 5f 50 9d 3d f7 8a 16 ba d9 2f 9f 3d 64 21 6a bd
       0.07681345 -0.0005742753 0.07772798 -0.05716075
0001d0 3c 49 17 bd 6f 70 a7 3d 1a 78 62 bc 0a 3f 1a 3d
       -0.036935076 0.08175742 -0.01382258 0.037657775
0001e0 dc cb 9b bd 3a 5c 2b 3d 59 4e 28 3d 12 42 be 3c
       -0.076072425 0.041836 0.041090343 0.023224864
0001f0 84 82 7c bd 5a 36 73 bd 56 df b2 3d e3 ba ac 3c
       -0.061647907 -0.059378006 0.08734004 0.021085208
000200 38 f7 88 bd f5 90 df 3c 99 65 3b 3d cb a3 98 3d
       -0.06687778 0.0272908 0.045751188 0.07453116
000210 d0 f4 88 3d 1c 1b 9a bd de aa 4e 3d a2 40 46 bd
       0.06687319 -0.07524702 0.05045592 -0.048401482
000220 d2 ac a4 bd f1 0d 28 bc 3a 4b 89 3d 94 a1 9c bd
       -0.08040775 -0.01025723 0.067038015 -0.07648006
000230 e9 6e 9e bd 50 06 34 bd 12 18 af bd a2 ca 91 3d
       -0.07735998 -0.043951333 -0.08549513 0.07118727
000240 88 87 a4 bd d0 e2 a8 bb 77 52 9d 3d 6a 12 4b 3d
       -0.08033663 -0.0051539913 0.076817445 0.049578108
000250 d7 1b 80 3d f0 e0 93 3d 1d a8 79 bd 98 28 89 3d
       0.0625531 0.07220638 -0.06095134 0.06697196
000260 a0 e3 9c 3d c2 cb 98 3d 23 61 1f bd 28 0f 5c bd
       0.076606035 0.07460739 -0.038910996 -0.05372539
000270 49 f2 81 bd 1a 52 57 bc c5 39 34 bc 33 ea 9e bd
       -0.0634504 -0.013142133 -0.011000101 -0.07759514
000280 aa c9 9c bc ef b1 05 3d 48 dc b3 bd cb 7e ca 3b
       -0.01913913 0.032640394 -0.0878225 0.0061796657
000290 07 a0 36 3d 44 75 3e bd eb aa 05 bd e9 68 81 bd
       0.044586208 -0.046498552 -0.032633703 -0.06318838
0002a0 01 76 05 3d 99 f7 20 3d 17 68 a8 3c 21 1d 41 3d
       0.03258324 0.039298628 0.020557446 0.04714692
0002b0 13 f5 9a bd 5b 0e 00 bb 38 2c 09 bd c8 af e1 3c
       -0.075662754 -0.0019539807 -0.033489436 0.02754964
0002c0 f9 b4 ca bc 0d b7 8f bd 7a 28 20 bd 49 e3 f5 bc
       -0.024744498 -0.07017336 -0.0391011 -0.030015605
0002d0 b5 da 93 bc 6b 52 03 3d 6b ff 7b 3b 0a ab 33 bd
       -0.018048624 0.03206102 0.0038451802 -0.043864287
0002e0 0f 82 13 bc 51 cb 4f 3d 46 1b d6 ba 15 c5 02 3d
       -0.009003176 0.050731007 -0.0016335032 0.031926233
0002f0 fe 28 2b 3d 56 b2 a4 3c 23 2e 29 bd f2 c9 2a bd
       0.04178714 0.020104568 -0.041303765 -0.041696496
000300 80 72 a9 bd a1 04 ee 3c 82 df 94 bd c9 3a c5 bc
       -0.08273792 0.029054942 -0.07269193 -0.024075883
000310 5c d6 a1 bc 97 86 b1 3d 55 64 43 3c f5 0e 85 bd
       -0.019755535 0.08668249 0.0119257765 -0.064969935
000320 91 7b 82 3d 38 f2 6d bd 9e f8 2c 3c 43 13 40 bc
       0.06371225 -0.058092326 0.010557322 -0.011723342
000330 3b 23 2c bd 02 8e 96 bd f5 95 ce 3c 8f 5a 46 bc
       -0.042025786 -0.073513046 0.02521799 -0.012106552
000340 77 50 a3 bd 6b 96 32 3d 75 ac 82 3c f9 f8 a7 bc
       -0.07974332 0.04360048 0.015951375 -0.020504462
000350 af 8e a3 bd 6b 42 7c b8 5a d2 e0 3c a3 70 25 3d
       -0.07986199 -6.014334e-05 0.027444053 0.040390622
000360 40 64 85 bd 28 e5 31 3d 52 76 2c 3d 6d 79 9d 3d
       -0.06513262 0.04343143 0.042105027 0.07689176
000370 21 f5 94 bd 31 f1 35 bd 02 b7 37 bd b9 e4 1a 3d
       -0.07273317 -0.04441947 -0.044852264 0.037815783
000380 f8 1c 1e 3d 7f 03 55 bd 5e 9f 9d bd 7a 2a 40 bd
       0.038601846 -0.052005287 -0.076964125 -0.04691551
000390 6b 5b 91 3d 54 7d 16 bd be f9 98 3b 6a 44 8c bc
       0.07097515 -0.036740616 0.0046684435 -0.017122466
0003a0 23 1d 83 bd 68 9c 37 bd a8 0a d0 bc 66 07 8e 3d
       -0.06402042 -0.044826895 -0.025395706 0.06935005
0003b0 4f 5c 5e bd bb 0a 7e 3d 44 27 9d 3c 53 4f 98 bc
       -0.05428725 0.062021952 0.019183762 -0.018592512
0003c0 69 76 e7 bb 08 14 6d 3c 74 68 6b 3c 71 09 55 3d
       -0.007063676 0.014470108 0.014368165 0.052010957
0003d0 a5 c0 48 bc f5 ab 7c 3d 51 fe a9 bd 72 7a 6c 3d
       -0.012252961 0.06168743 -0.0830046 0.05773396
0003e0 ce d2 97 3c b7 83 26 3d 64 16 8a bb 9c 82 af bd
       0.018533137 0.040652957 -0.004214095 -0.08569834
0003f0 f1 4a 76 3c 44 d2 4f 3b 5a 5c 59 3d 55 7e bb 3c
       0.015032516 0.0031711021 0.05306659 0.022887388

bias f4 [64]
000000 ec 45 ba bc eb 3a 3b 3d f7 f4 eb 3c a5 96 4d 3d
       -0.02273842 0.045710485 0.028803332 0.050192494
000010 20 36 8e bd 13 d7 a3 3c 6d 89 7d bd ac 32 99 bc
       -0.06943917 0.020000016 -0.061898638 -0.01870092
000020 f2 22 4d bd 4e e7 88 bd dc dc 62 bd 8c 37 84 3d
       -0.050082155 -0.06684743 -0.05538641 0.06455907
000030 01 6b 83 bd fb 15 9b 3d 4c 97 52 3d 25 37 82 3d
       -0.06416894 0.07572552 0.05141382 0.06358174
000040 a6 db 92 bd d9 2f 30 3c 6e 21 b3 bc 73 5c 8a 3b
       -0.07170801 0.010753595 -0.021866526 0.0042224466
000050 8b 9f 19 bc 97 8b cd 3b 34 04 56 3c 29 c0 d6 3c
       -0.009376417 0.006272744 0.013062526 0.026214676
000060 fd 58 68 bc 7c 14 82 3d 5f 99 64 bc 7d 18 c9 bc
       -0.014181373 0.06351563 -0.013952582 -0.02454781
000070 86 95 bb 3c df ff 5e 3d dd 3c d4 bc 7c 60 a5 3d
       0.022898447 0.054443236 -0.025907928 0.080750436
000080 f2 79 33 3d 1a 14 68 3c 60 fc 3c 3d ec f1 da 3c
       0.043817468 0.014164949 0.04613912 0.026726685
000090 b1 fd 54 3d 9a 1c f0 bc 16 08 7f 3c 6e 64 0c 3d
       0.05199975 -0.029310513 0.015565893 0.034275465
0000a0 68 a1 8e bb 02 01 8e bd e3 5e 78 bd 59 ef f9 bc
       -0.004352737 -0.06933786 -0.060637366 -0.030509638
0000b0 df a6 82 bd 55 0e 88 bd 7e a7 96 bd fd 99 cf 39
       -0.063794844 -0.066433586 -0.07356165 0.00039596847
0000c0 9e 02 50 3d 1c a7 47 bd 6f 52 b2 3d f1 80 08 3c
       0.050783746 -0.048743352 0.08707129 0.008331523
0000d0 6f 27 35 3c 41 94 4f 3d d0 d5 09 3d 27 10 68 3d
       0.011056765 0.050678495 0.033651173 0.05665603
0000e0 cb 78 50 3d 76 00 b1 bc 61 b7 fc bc ab a7 5a bd
       0.050896447 -0.021606665 -0.03084916 -0.053382557
0000f0 24 ab eb bc f0 56 3c 3d 5b 79 01 3c a7 c5 36 b9
       -0.02876813 0.045981348 0.007902469 -0.00017430504

weight f4 [32, 64]
000000 07 02 9f 3d 18 c7 d4 3d 5c 75 73 bd 23 e3 39 bd
       0.077640586 0.103895366 -0.059438094 -0.04538263
000010 ee d3 cc bc e5 49 67 bd a2 8d d4 bd 5c 53 14 3d
       -0.0250034 -0.056466956 -0.10378577 0.03621231
000020 1b 11 95 bd bf d8 05 bd d7 1f ac bd f5 0e b1 3c
       -0.07278653 -0.03267741 -0.084045105 0.021613577
000030 0e a0 d6 bd 3f 10 95 bd 9d 74 d8 bb 7c 2a b3 3d
       -0.10479747 -0.07278489 -0.0066056983 0.087483376
000040 77 3c 02 3d 88 72 0e 3c f5 84 70 bc 80 aa 90 3d
       0.031795945 0.008694299 -0.014680137 0.0706377
000050 75 4d f2 3d 41 1f c0 3d 1e 96 c1 3c be 2c fd 3d
       0.1183118 0.09380961 0.023631152 0.123620495
000060 41 2b f8 3d ad 32 d1 3d 62 4e df 3d f3 ac a4 3d
       0.12117625 0.10214744 0.10903622 0.080408
000070 d7 c4 1a 3c b1 89 bc bd 70 6f a3 3d ac e7 40 3a
       0.009446344 -0.0920595 0.079802394 0.00073587405
000080 27 15 9a bd 25 a9 0e 3d 35 33 61 bd 73 9a 9a 3d
       -0.07523566 0.034829278 -0.054980475 0.0754899
000090 e4 39 9f 3d d9 a6 81 bd 7d 9b b2 bd 76 4f 2e 3d
       0.07774714 -0.06330652 -0.08721063 0.04255625
0000a0 47 d4 f5 bd 39 14 0c bd d2 a9 fe 3d 8c 9b f1 3d
       -0.12003379 -0.034198973 0.124347344 0.11797246
0000b0 12 69 c8 bd 42 12 ab 3d 6e 19 cf 3d 89 31 78 bd
       -0.097856656 0.08353092 0.10112272 -0.060594115
0000c0 e9 7a aa 3d 6b 50 c1 3d b5 2a 0f 3c e2 c5 8e 3d
       0.083242245 0.09439167 0.0087382095 0.06971337
0000d0 b0 01 e1 3d b6 08 79 bc a0 30 bd bd 1d 06 ce 3d
       0.1098665 -0.015199831 -0.0923779 0.1005976
0000e0 76 7c d8 bd 40 16 f2 bc 00 3f 42 bd ad 9d 81 bd
       -0.10570614 -0.029551625 -0.047423363 -0.063289024
0000f0 d8 d9 b1 bd e8 e9 7e bd 49 fb 84 bd e8 cb e9 bd
       -0.086841285 -0.06223479 -0.06493241 -0.11415845
000100 d6 d5 fa 3d 3a b6 de 3d 1f c8 13 bd 90 49 1d 3d
       0.12247817 0.10874601 -0.036079522 0.038400233
000110 ce ce e4 bd 70 78 21 3d b7 d0 87 bc ae 73 e5 bd
       -0.11172257 0.0394215 -0.016579015 -0.11203705
000120 12 d3 f9 3d d8 f5 0c 3d 31 f7 d5 bb 14 04 da bd
       0.121984616 0.034414142 -0.0065297117 -0.10645309
000130 2c fe f5 bd 78 94 de bd 74 e1 c9 3d 3e a1 d0 bd
       -0.1201137 -0.10868162 0.09857455 -0.101870045
000140 d4 d7 f4 3d bc 63 c0 bd c0 8c c9 bc 37 c0 a3 bd
       0.119552284 -0.09394023 -0.024603248 -0.079956464
000150 40 7d c5 3c bc 3d d6 bd 93 87 80 3d 30 35 a5 3d
       0.024107575 -0.10460994 0.06275859 0.08066785
000160 aa 61 c1 3d a9 81 dd 3d 86 97 d9 bc 6c 50 02 bd
       0.09442456 0.10815746 -0.02656151 -0.031814978
000170 14 ac fd bd 70 55 3b 3d 01 49 23 bd 19 08 d4 3d
       -0.12386337 0.045735776 -0.039864544 0.10353107
000180 0c 47 b4 bd c3 4f 3e bd 8c b9 cb 3d cc f9 3b 3d
       -0.088026136 -0.046462785 0.099475 0.04589252
000190 52 4d fc bd 38 4b 2c 3d b2 70 c5 bd ee a8 e0 3d
       -0.12319435 0.04206392 -0.096406356 0.10969721
0001a0 ae cd d1 bd f6 28 84 bd 24 aa dd 3d f6 85 bf bd
       -0.102443084 -0.06453125 0.108234674 -0.09351723
0001b0 9a 90 d6 bd ae f2 f4 3d dd 2b 78 3d 12 fe 31 3d
       -0.10476799 0.1196035 0.060588706 0.04345519
0001c0 c2 4f a6 bd 87 dc e2 3d ff 2c a6 bd 15 f2 fb bd
       -0.08120681 0.110772185 -0.08114051 -0.12302033
0001d0 2f db 41 3d c2 4d 81 bd 90 09 e8 3c b0 12 30 3c
       0.04732817 -0.06313659 0.028324872 0.010746643
0001e0 87 0e fd bd 48 0a a3 bc ee fc fb 3d 18 7c 10 3d
       -0.123562865 -0.019902363 0.12304102 0.035274595
0001f0 39 33 8d bd b0 fc 31 bc ab cd b2 bd 0a 32 80 3d
       -0.068945356 -0.010863468 -0.08730634 0.06259544
000200 90 4b 9c 3d 86 f9 68 3c 58 1c 10 bd 92 4e b1 bc
       0.076316 0.014219647 -0.03518328 -0.02164391
000210 a7 a9 67 bd 62 94 e0 bd a4 57 e7 bd bf dc f4 bc
       -0.056558277 -0.10965802 -0.11296013 -0.029890416
000220 30 3b a0 3d d2 11 51 39 e9 73 42 bd 02 46 c3 bd
       0.07823789 0.00019938432 -0.04747382 -0.09534837
000230 6c 60 f3 3b d9 15 a4 3d 96 3a e3 3d 9e 47 bb bd
       0.007427266 0.080119796 0.11095159 -0.09144519
000240 68 6e db 3d fa e7 b5 bc 50 54 fe 3d d1 85 83 bd
       0.10714418 -0.022205342 0.12418425 -0.06422008
000250 6c 0b fc bd a5 84 71 3d be 88 8f 3c fa e2 a0 3d
       -0.12306866 0.05896439 0.017521258 0.07855792
000260 2e 90 fb 3d 4c 7d e6 bc dc cb 32 bc ec 65 a3 bd
       0.122833595 -0.028135918 -0.010912862 -0.079784244
000270 53 15 ce 3c 9c 8b df 3d 8c 8b 26 3c f5 ab 00 be
       0.025156653 0.109153 0.0101651065 -0.12565596
000280 a4 68 e0 3d 70 e2 8a bd 92 ef 92 3d 2e e8 37 bd
       0.109574586 -0.06781471 0.07174601 -0.04489916
000290 85 14 c6 bd 07 be a2 bd e0 34 1b 3d 46 59 b9 3d
       -0.096718825 -0.07946401 0.037892222 0.09050231
0002a0 ea 9c 28 3d b6 37 3c bd 7e 3c bf 3d 8e 50 89 bb
       0.04116527 -0.045951568 0.0933771 -0.004190511
0002b0 15 f7 40 bd 01 75 16 3c 0e e9 6f bb af a6 d2 bb
       -0.047110636 0.009183169 -0.0036607417 -0.0064285616
0002c0 13 23 84 bc 61 9e d4 bd 9b 15 ad bd ae a1 fb bd
       -0.016130006 -0.10381771 -0.084513865 -0.12286697
0002d0 cf 0d 6c bc ee 46 4a 3d f0 d3 d3 3d 9b 2d f2 bb
       -0.014407589 0.04938405 0.10343158 -0.0073906905
0002e0 58 24 44 bd 49 fb ad bd 49 dc 20 3d e7 bc a7 3c
       -0.047886223 -0.084951945 0.03927258 0.020475818
0002f0 5a 36 b5 3d 4d 3a f8 3c 82 22 7e bd f4 ac 08 bd
       0.08848257 0.030301237 -0.062044628 -0.033368066
000300 af a4 4c bd 15 41 db bd 52 c0 db 3b a5 d3 ed bd
       -0.049961742 -0.10705773 0.006706276 -0.116126336
000310 28 14 36 bd 98 ac d6 bd f0 9c 7f 3d c1 5b b8 bd
       -0.044452816 -0.104821384 0.062405527 -0.09001876
000320 30 69 8c 3d af e2 28 bd e3 e5 54 3c 5c d3 f0 bd
       0.068560004 -0.041231807 0.012994262 -0.117590636
000330 6b f3 8c bc 03 9b 87 bb 3a 7f da 3d f2 4c fd 3c
       -0.017205914 -0.004138352 0.10668798 0.03092048
000340 c2 79 c9 3d a5 a4 cf 3d 50 49 fc bd 55 65 f3 3c
       0.098376766 0.10138825 -0.12318671 0.029711405
000350 d0 f6 65 bd fd 86 a4 3d b3 d1 88 bd 80 6f d5 3a
       -0.056143582 0.080335595 -0.06680622 0.001628384
000360 f4 59 31 bd d8 2f 9c bc 49 b3 8e bc c6 ee 82 3d
       -0.043298677 -0.019065782 -0.017419474 0.06393199
000370 ef d8 be bd da e1 a8 bd f0 92 c6 3d e2 c9 8e bc
       -0.093187205 -0.08246203 0.09695995 -0.01743025
000380 17 9b ca bd d9 22 60 bd c7 f9 b7 3d 43 08 a7 bb
       -0.09892862 -0.054720733 0.08983188 -0.0050974204
000390 ef 81 dd 3d 8d b7 8b bc 0c 50 b8 3d 6e 4c 92 3d
       0.108157985 -0.017055297 0.08999643 0.07143484
0003a0 ac d3 58 3d 42 70 5d bd c4 e3 86 bd 9a a9 a0 bd
       0.05293624 -0.054062136 -0.065864116 -0.07844849
0003b0 a5 b7 c2 3c ba 71 9b 3d 21 50 f3 bd d8 c9 e4 bc
       0.02376921 0.07590051 -0.11880518 -0.027928278
0003c0 da 96 c7 3d 46 bd 25 bd 82 37 d9 bd 7e be 8d 3c
       0.097455695 -0.04046371 -0.106062904 0.017302748
0003d0 53 44 25 3d 83 c7 e3 bd f6 ea c0 3d e4 f4 c5 3d
       0.040348362 -0.11122038 0.09419815 0.0966585
0003e0 84 c9 ea 3c 72 5a a8 3d b5 32 7e bd a1 27 90 bd
       0.028660543 0.08220376 -0.062060077 -0.070388086
0003f0 8b 48 a7 3d 63 ec 00 be fe a3 b4 bd 3f 53 13 3d
       0.08168133 -0.12590174 -0.088203415 0.03596806

bias f4 [32]
000000 1b e3 30 3d fa 90 b3 bd dc 9f 33 bd 98 e9 e9 3d
       0.043185335 -0.087678865 -0.043853626 0.114215076
000010 66 59 8d 3d e1 8d be bc 14 8f 3a 3d 4a 39 aa bc
       0.06901817 -0.023261013 0.045546606 -0.02077927
000020 e2 df 8e bd 95 f6 d7 bd 78 67 81 bd 9d b4 f9 3c
       -0.06976296 -0.10545079 -0.06318563 0.030481631
000030 cc e5 98 3d 06 2a e8 3d 3e 4b ca bc 11 7d f2 3d
       0.07465705 0.1133614 -0.024694081 0.11840261
000040 64 8c d8 3d d6 8e 92 bd c0 b4 3c bb 29 cb 8b 3b
       0.105736524 -0.0715615 -0.0028794259 0.004266162
000050 c6 54 76 bd 12 de 52 bc 4e 45 90 bd 49 4b 68 bd
       -0.06013944 -0.0128703285 -0.07044469 -0.056712423
000060 16 46 d5 bb 2c bc d6 3c 66 2a 29 bc 2c 3d 76 3c
       -0.006508599 0.026212774 -0.01032505 0.015029233
000070 f1 d9 1e 3a e8 bf 3a bc 31 19 d7 3d d5 15 9c 3c
       0.00060596975 -0.011398293 0.10502852 0.01905338

weight f4 [2, 32]
000000 47 8f 0a 3e 33 f5 23 3e 2a e7 c2 3d 55 b5 df bd
       0.13531218 0.16011505 0.09516747 -0.10923258
000010 e5 22 82 bd 1b 2f 4f bd a9 b4 d4 bd e8 4e 38 3d
       -0.06354312 -0.050582033 -0.10386021 0.044997126
000020 ff 39 af bd 08 a8 e1 3a 9e 96 e8 bc 46 f0 74 bd
       -0.08555984 0.0017216215 -0.028392132 -0.059799455
000030 d7 be 84 3a 29 23 34 be 68 60 34 3e 4d 6e 25 3d
       0.0010127675 -0.17591538 0.17614901 0.040388394
000040 f4 ab 03 be db c0 a0 3d c1 12 43 bd 34 b5 9c bd
       -0.12858564 0.07849284 -0.047625307 -0.07651749
000050 20 06 e8 bd a4 03 cd bd 9f 7e 02 3e e4 83 85 ba
       -0.11329293 -0.1001046 0.12743615 -0.0010186401
000060 0c e6 1d 3e 87 c2 28 3e 9a ef 89 bc 7c de ec 3d
       0.15419787 0.16480456 -0.016837884 0.11565873
000070 6e f4 a0 3c e8 eb 32 3e 4d 28 87 3d 68 cf 1b 3e
       0.019647803 0.17472804 0.06599484 0.15215838
000080 cf a6 ad 3d 7a 17 05 3d ad f5 35 3d c0 3a 80 bd
       0.08479082 0.032493092 0.044423748 -0.06261206
000090 d7 91 45 bd 68 af 1b 3e 7d d8 a6 3d 6d 81 7d bd
       -0.048234787 0.15203631 0.081467606 -0.06189101
0000a0 e1 aa 24 3d 93 39 29 be 8a a6 9c bb 51 fa f2 3d
       0.040202025 -0.16525869 -0.004780595 0.1186415
0000b0 71 79 f9 3d a5 b0 70 3d b8 8f eb bc 6d 01 c5 3d
       0.12181366 0.05876221 -0.028755054 0.096194126
0000c0 09 06 2f bd 47 49 cb ba 7f 8f 31 3d 7f 6f a7 3d
       -0.042730365 -0.0015509509 0.04334974 0.08175563
0000d0 f0 9c 83 3d c2 3d 1f be d8 c7 23 be d8 a7 c6 bd
       0.06426418 -0.15550902 -0.15994203 -0.096999824
0000e0 e8 28 29 bd 70 c7 b8 3d 4d 03 0b 3e ab 54 0f 3e
       -0.041298777 0.09022415 0.13575478 0.13997142
0000f0 95 81 20 be f5 70 a0 bd 40 ce 1a 3e 90 f7 a3 3d
       -0.15674432 -0.07834045 0.1511774 0.08006203

bias f4 [2]
000000 66 26 fd 3d 57 1f fb bd
       0.123608395 -0.12261837

weight f4 [2, 32]
000000 e6 44 d7 bb 6c d4 5a 3d a5 71 11 3e 04 14 7a bc
       -0.0065694926 0.053425238 0.14203508 -0.015263561
000010 d6 ea ea bd 1b 88 7d bd c1 81 cc bd f3 91 af 3d
       -0.11470573 -0.06189738 -0.09985686 0.085727595
000020 65 42 08 be 59 f7 fc 3d df 54 82 3d ed 95 2e be
       -0.13306578 0.12351865 0.06363844 -0.1704938
000030 a9 20 bc 3c b9 e1 90 3c 70 cc b1 bd 39 69 29 bd
       0.022964792 0.017685758 -0.086815715 -0.041360114
000040 74 8e de bc 24 78 85 3d f3 03 88 bd f4 ba e7 3d
       -0.027167536 0.06517056 -0.06641378 0.11314955
000050 bd 44 9d bb de b8 21 3e 84 2e c8 bd 55 d8 16 3e
       -0.004799454 0.15793177 -0.09774497 0.14730962
000060 eb 08 5e bd b6 13 a1 bd 3e e4 89 bd 39 26 ba bd
       -0.054207724 -0.07865088 -0.06732987 -0.09089322
000070 f2 7a 09 3e 37 6f ec bd 78 ca a5 bd 97 74 c2 3d
       0.13425806 -0.1154465 -0.080952585 0.09494894
000080 78 ae d6 3d 17 e1 09 3c 9f 92 39 bc b0 d2 13 3c
       0.10482496 0.008415482 -0.011326461 0.0090224
000090 3c 5b 38 bd ba 44 86 3d a4 45 e5 bc 32 53 c4 3c
       -0.045008883 0.06556077 -0.027987309 0.023965452
0000a0 40 e7 d2 3d 23 63 00 3d 19 bc de bc a0 b0 fa 3d
       0.10298014 0.031344544 -0.027189301 0.1224072
0000b0 23 9f 1e 3e ec ad a0 bd b6 44 96 bd e7 62 88 bd
       0.15490393 -0.07845673 -0.07337324 -0.06659489
0000c0 33 44 74 3d f7 8c ae bd 76 e8 07 bd a6 24 de 3c
       0.059635352 -0.08522981 -0.033180676 0.027117085
0000d0 1f 15 08 3e 5d f7 47 bd 72 b2 c3 bd aa 8d 94 3c
       0.13289307 -0.04881989 -0.0955552 0.018133957
0000e0 2f 46 4b bb 24 02 02 bd 56 61 58 bb e9 b0 5f 3d
       -0.0031017174 -0.031740323 -0.0033017 0.054612074
0000f0 d9 90 24 be f5 f2 52 3d 33 a6 0c 3e ff cd 09 3d
       -0.1607088 0.051501233 0.13735275 0.03364372

bias f4 [2]
000000 91 0c 30 be 18 39 91 3d
       -0.17192294 0.07090968

weight f4 [1, 32]
000000 52 c1 eb 3d f9 c7 5c bd 24 b8 d7 bd 7a 80 15 bc
       0.11511482 -0.053901646 -0.10533169 -0.0091248695
000010 60 83 a8 3c 50 7c f1 bc e3 96 a3 bc 5d 1d 89 bd
       0.020570457 -0.029478222 -0.01996941 -0.06695054
000020 9c dd f7 3d 5e 58 87 3d 57 b3 c5 bd eb a0 a3 3d
       0.121028155 0.066086516 -0.09653347 0.07989677
000030 38 ef ed 3d f5 97 8b bd 49 07 63 bc 50 a8 ad bd
       0.11617893 -0.06816093 -0.013856717 -0.08479369
000040 62 b2 e2 3d 30 12 87 bd 14 ac 77 3d 4f a0 0e 3e
       0.1106918 -0.06595266 0.06046684 0.1392834
000050 25 24 61 3d 1b 19 b7 3d 28 34 f7 bc 7e c1 90 3d
       0.05496611 0.08940335 -0.030176237 0.07068156
000060 e6 5b f7 3b 7e e8 30 bd af a4 d6 bd 83 76 99 3d
       0.007548797 -0.04319047 -0.1048063 0.074933074
000070 ea 9d 1c bb f6 df 86 3d 70 52 d8 bd 06 cb 32 be
       -0.0023897835 0.06585686 -0.10562599 -0.1746026
