2023/baseline0806/model/WLTP_trained/PPO_actorcritic_5episode.pt (torch, 101251 bytes, 17 tensors)

weight f4 [128, 7]
000000 3a 51 7b bc 1f fc d2 ba 22 88 43 3e 6d 8e 85 bd
       -0.01533919 -0.0016096866 0.190949 -0.06521306
000010 d9 2b 59 be fa e7 83 3e 86 6b 22 3e 9b ba 7c 3e
       -0.21208133 0.25762922 0.1586133 0.2468056
000020 ef f2 51 3e 0e 25 70 3e 43 b1 08 3e a4 de 8d 3d
       0.20502828 0.23451635 0.1334887 0.06927231
000030 04 64 2a be b3 c6 0c 3e 28 4b bb bd ce b6 8a 3e
       -0.16639715 0.13747673 -0.09145194 0.27092594
000040 fa e7 39 be 61 bd 34 3c ac 97 9d bb 31 5b 41 be
       -0.18154898 0.01103148 -0.0048093405 -0.18882443
000050 a7 0b a1 be 19 38 82 be 6b c5 bb be 2f 1a 66 3e
       -0.31454203 -0.25433424 -0.36674055 0.22470926
000060 fb 12 86 3e 9b 81 be be 50 09 45 be 35 95 99 be
       0.26186356 -0.37208256 -0.19241834 -0.29996648
000070 36 a0 7f be 41 21 a2 3e 00 79 8c 3e bb f2 83 3e
       -0.2496346 0.31665996 0.27436066 0.25771126
000080 2f 01 9e bd 10 47 69 be fc f3 c7 bd 0d 5e 9c 3e
       -0.077150695 -0.22781014 -0.09763333 0.30540505
000090 81 f4 e6 bd f3 b2 19 3e 2b c2 de 3d b7 e0 37 3e
       -0.11277104 0.1500967 0.10876878 0.17956816
0000a0 27 66 12 3d c7 c0 64 3e c8 bb 00 bd 75 bf 0b bd
       0.03574195 0.22339164 -0.031429082 -0.034118135
0000b0 f8 a4 c9 bd 5e e4 5e bc c9 48 3a 3d 95 fa 96 be
       -0.098459184 -0.013604252 0.04547957 -0.29488054
0000c0 0a 4f 81 be 1c c3 21 be ef 04 8e be 62 80 09 3c
       -0.25255615 -0.15797085 -0.2773814 0.008392425
0000d0 df 60 e1 bd 31 5d ed bd 0d e8 ce 3d 45 40 b3 be
       -0.11004805 -0.115900405 0.10102854 -0.3500997
0000e0 9f e4 16 3e 46 a5 98 3e 6e e3 8c be 0c 58 0b 3e
       0.1473565 0.29813594 -0.27517265 0.13607806
0000f0 35 43 e5 3d d6 c7 bc 3b 8f fa 79 3e 48 47 8c be
       0.11194459 0.005761127 0.24411987 -0.27398133
000100 68 b9 b2 be b5 69 65 3e d9 54 3a be 20 58 21 bd
       -0.3490708 0.22403605 -0.1819643 -0.039390683
000110 42 d9 6a be bc df 78 3e c5 42 42 be 50 c2 c0 3c
       -0.2293444 0.24304098 -0.18970783 0.023530155
000120 ec 9b 06 bd 1e 22 41 be e8 d5 44 be dc 95 2c bc
       -0.032863542 -0.18860671 -0.19222224 -0.010533776
000130 8c 31 95 3e 3b 00 51 3e 1a ac 70 3e b5 98 91 3e
       0.29139364 0.20410244 0.23503152 0.2843682
000140 a1 1e 91 3e 07 31 21 be 5a b1 3a be 16 b4 bb be
       0.2834368 -0.15741359 -0.18231717 -0.36660832
000150 73 b8 17 3e 70 3e 27 3e ae 3b 3c 3d 9a a2 89 be
       0.14816456 0.16332412 0.045955352 -0.26881868
000160 1d d6 91 3d 62 45 0e 3e 4b a7 82 be b6 ae 44 be
       0.07120917 0.13893655 -0.2551826 -0.19207272
000170 69 b9 a3 be ac 7c 1e 3e 47 ed 9e 3e a2 b9 52 3c
       -0.31977394 0.15477246 0.31040403 0.012861641
000180 2d f6 b5 be f9 6a af be 97 c3 2b be 5d cf 85 3b
       -0.3553938 -0.342613 -0.1677383 0.0040835575
000190 b4 7a e3 bd 1d 1b 9c bd 38 1f 1a be 73 e7 cd 3d
       -0.11107388 -0.07622359 -0.15050972 0.10053911
0001a0 0e 14 9e be dd 57 5f bd 00 e7 9f be 26 11 36 be
       -0.30874676 -0.054527152 -0.31230927 -0.17779979
0001b0 56 9e bc be ec 82 80 be 12 6f 88 be cd 15 c1 be
       -0.3683955 -0.25099885 -0.2664724 -0.37711945
0001c0 77 43 d9 3c 8c 4e 3d be 49 95 11 bd cb 21 99 bd
       0.026521428 -0.18486995 -0.03554276 -0.074771486
0001d0 03 0c 81 3e fd 20 9f 3d 3e f2 38 be 1e 68 5c be
       0.25204477 0.07769964 -0.18061158 -0.21524093
0001e0 08 69 57 3e 81 35 0c be 8f ac 1a 3c ad 93 83 3e
       0.2103616 -0.13692285 0.009440555 0.25698605
0001f0 49 e2 65 3e bb 1f 8a be c2 71 60 3e aa c0 87 be
       0.22449602 -0.26977333 0.21918395 -0.2651418
000200 97 7b 99 3e 6d e1 46 3e 9d 15 81 bb 72 00 a9 bd
       0.29977104 0.1942193 -0.003939344 -0.08252038
000210 81 b4 f7 bd 13 0d 6c 3e 9a 0f bc bd 44 93 9e be
       -0.12094975 0.23051862 -0.09182663 -0.3097173
000220 4c f8 6c 3d 93 94 ee 3d df 42 b3 be ec 55 3a be
       0.05785398 0.11649432 -0.35011956 -0.18196839
000230 15 63 96 be 46 09 bd be ed 6d 31 bc 7d e6 20 be
       -0.2937247 -0.36921138 -0.010829431 -0.15712924
000240 0a 82 1f be b4 7a 91 bd d8 4a 98 3d e2 62 fa bd
       -0.1557695 -0.07103482 0.0743615 -0.12225892
000250 a5 46 27 3e da 5e 9a 3e 7b fd 3d be c0 43 37 3e
       0.16335543 0.3015049 -0.18553726 0.17896938
000260 d4 08 18 3e 67 b5 a7 3e aa 19 59 be 09 b9 9d be
       0.14847118 0.32755587 -0.21201196 -0.30805233
000270 d0 13 71 3e 8e 7a 89 3e 73 1e 41 bd 7c 53 87 3d
       0.23542714 0.26851314 -0.04714818 0.0660772
000280 8d 36 c5 bc 2e 71 39 bd 1e 71 67 be be 9e b7 3d
       -0.024073863 -0.045273952 -0.22601745 0.089658245
000290 28 3d 83 3e be a6 7f be 2c d1 af be 3c 75 6d bd
       0.25632596 -0.24965951 -0.34339273 -0.05797313
0002a0 40 4d 83 be fe 6a 6d be f9 f0 9f 3e d0 ee 24 3c
       -0.25644875 -0.23185346 0.31238535 0.010066703
0002b0 52 18 44 3b 2a c8 0d be c0 49 98 be dc 7c 6c 3e
       0.0029921723 -0.13845888 -0.29743767 0.23094505
0002c0 c5 a6 df bc 8b f3 17 be d7 2f 85 3e 91 ed 51 be
       -0.027301202 -0.14838998 0.2601306 -0.2050078
0002d0 98 5c 86 3e dd 7f 0f be 4f e6 a8 bd c6 2c 19 3e
       0.26242518 -0.1401362 -0.08247053 0.14958486
0002e0 f9 b3 b1 bd 91 b3 b2 3e 49 d8 c4 bc 4e 5a 20 3e
       -0.08676905 0.34902623 -0.024028914 0.15659449
0002f0 c8 99 8a be e2 8d 95 3d 29 8c 3a 3e 44 4b 63 be
       -0.2707045 0.073024526 0.1821753 -0.2219668
000300 d0 48 b1 be 5a 38 82 be 7e ef 98 3e 9d bc f8 3d
       -0.34625864 -0.25433618 0.29870218 0.1214535
000310 5d 77 be 3e 69 aa 14 3e 9b f1 1c 3e dc 9a 8f be
       0.37200442 0.14518131 0.1532654 -0.28047836
000320 91 10 35 3d f4 63 19 3e f2 34 9d be aa 16 44 3e
       0.044205252 0.14979535 -0.30704457 0.1914927
000330 8d fb 27 be e3 26 3d be 90 e2 87 3e 5d a1 3e 3e
       -0.16404553 -0.18471865 0.2654004 0.18616243
000340 c7 b6 66 be fc c4 d3 bc 71 08 15 3d f0 b5 3e 3d
       -0.22530662 -0.025850765 0.036385003 0.046560228
000350 02 f0 32 3e b6 a0 86 3e ae 5a 80 3e ce 63 3e 3e
       0.17474368 0.26294488 0.25069183 0.1859276
000360 16 03 8a bd 50 dc 92 bd fe c0 82 bd 9e ee 97 be
       -0.0673887 -0.071709275 -0.063844666 -0.29674238
000370 2a 36 98 3d 50 9e 66 be 0c 60 26 be a3 6e 9b be
       0.07432206 -0.22521329 -0.16247576 -0.30357847
000380 79 45 c9 bd 23 25 82 be 43 ec 45 3e 69 bf 06 3d
       -0.09827704 -0.25418958 0.19328408 0.032897387
000390 29 2c b1 3e 67 a2 40 3e f3 1c 13 3e f0 a4 07 be
       0.34604004 0.18811952 0.14366512 -0.13246512
0003a0 37 4a b5 be 2c 74 b9 3e 85 b6 bd be b9 18 54 be
       -0.35408184 0.36221445 -0.37053314 -0.20712556
0003b0 1b f2 e2 bd 1d 2c 80 be 68 0d 97 be 89 50 56 be
       -0.11081334 -0.25033656 -0.29502416 -0.20929159
0003c0 17 08 96 be f0 c0 cf 3c 29 1b 5c be dc 42 d5 bb
       -0.29303047 0.025360554 -0.21494736 -0.0065082144
0003d0 16 79 22 be e7 92 63 bd cb c2 b8 3e 14 c4 88 3e
       -0.15866503 -0.05556002 0.36086115 0.26712096
0003e0 40 f5 23 be f1 0f 83 3e 26 ca af be be dd 89 bd
       -0.16011524 0.255981 -0.34333915 -0.06731747
0003f0 46 4b 83 3c d4 f8 85 be 7f bf 49 3d 99 a3 c6 3e
       0.016027104 -0.26166403 0.04925489 0.3879669

bias f4 [128]
000000 86 2f 8a 3d f7 cc 9a be 3a 47 89 bd b8 af a4 3c
       0.067473456 -0.302345 -0.067030385 0.02010332
000010 ce 40 36 be a5 a0 1a 3e 41 e9 a5 bd 47 11 f3 3d
       -0.17798159 0.15100344 -0.0810113 0.1186853
000020 48 af 15 3d 9a e1 ac be eb 99 96 bd 1d d4 08 be
       0.036544114 -0.3376587 -0.07353576 -0.13362165
000030 89 48 6d 3e bf 27 05 3e c1 17 8f 3d 45 dd ba be
       0.23172201 0.13003443 0.069869526 -0.3649694
000040 74 31 85 be e1 f3 a4 be ec 2d a0 bc ec d1 f8 3d
       -0.26014292 -0.32217315 -0.019553147 0.121494144
000050 7d 1d 73 be 64 7c d9 bd b6 7a ab 3e 8c 20 3b bc
       -0.23741718 -0.10619429 0.3349206 -0.011421334
000060 fc 3f 35 3e bb b0 de 3d e4 df d5 bd 0c 37 78 3e
       0.1770019 0.108735524 -0.104430944 0.24239749
000070 a2 e5 2e be c0 fd 81 be 2b 57 c3 be 6d 02 7b 3d
       -0.17079785 -0.25388908 -0.3815244 0.06128161
000080 37 bb 3f 3e 24 15 a3 3e 8c 13 0e 3e 00 25 80 3e
       0.1872376 0.31852067 0.13874644 0.2502823
000090 31 9e 83 3d 37 12 a7 bd 54 30 43 be 78 b5 68 be
       0.06426657 -0.08157771 -0.19061404 -0.22725475
0000a0 58 a3 55 be f1 66 5d 3e b0 1c 82 3e 27 5c 8b 3e
       -0.20863092 0.216213 0.25412512 0.27218744
0000b0 a8 7b 9a 3e 19 4f 81 3d 9b 8f 5e 3e 53 5f 0e be
       0.30172467 0.06313915 0.21734469 -0.13903551
0000c0 ea c2 9a 3e 1c 5f b4 3e 53 06 1d 3e 26 9d 76 3e
       0.30226833 0.35228813 0.15334444 0.24083385
0000d0 ac 3e bf 3e 71 7d b3 3e 76 47 99 be 81 40 d4 bd
       0.37352502 0.35056642 -0.29937333 -0.10363866
0000e0 f0 f1 b2 be b2 80 53 3e dd 68 a9 3e 7e 23 8a 3d
       -0.3495021 0.20654562 0.33087817 0.06745051
0000f0 25 8a 66 3d 9d 30 9c 3e 2a 81 85 3e 50 b5 60 3e
       0.05628409 0.3050584 0.26075107 0.21944165
000100 34 49 9c be af cd 1f 3e df 3e ba 3e 4b de b6 be
       -0.305246 0.15605806 0.36376092 -0.3571647
000110 59 94 25 be a3 87 c3 3e 58 f0 b5 be 00 13 ea bd
       -0.16169871 0.3818942 -0.3553493 -0.11429405
000120 7b 00 a2 3e e5 25 07 3e 36 e8 ec 3d 31 2a 7c 3d
       0.31640992 0.1319805 0.11567728 0.061563674
000130 88 b7 83 be 31 c1 a0 3d 32 ec 45 3d 60 37 86 be
       -0.2572596 0.07849348 0.048320957 -0.26214123
000140 38 29 48 be cc 7e f1 3a b6 57 14 3d ed d3 f7 bd
       -0.19546974 0.0018424629 0.03621646 -0.121009685
000150 01 26 62 3e 48 67 f5 bc b6 89 9d be 09 27 2b be
       0.2208481 -0.029956475 -0.30769128 -0.1671411
000160 8c 49 5c be dd 9e 87 be 6c 56 59 3e ee 12 a9 3c
       -0.21512431 -0.2648839 0.21224374 0.02063891
000170 1d fc cf 3d be 1b b1 3e e8 dc 8b 3d 1c 40 46 3e
       0.10155509 0.34591478 0.06829244 0.19360393
000180 66 00 81 3e 8d 66 11 3d a8 26 3e be d4 25 91 be
       0.25195616 0.03549819 -0.18569434 -0.28349173
000190 d4 03 c3 be 37 ef 3e 3e b7 af a7 be 5a ba 95 3e
       -0.38088858 0.1864594 -0.32751247 0.29243737
0001a0 f3 a1 20 3d 78 e8 8d 3e 62 0a 64 3e 70 a3 68 be
       0.039216947 0.27716422 0.22269586 -0.22718596
0001b0 77 75 57 be d6 dc f1 3d f3 8e 90 3d 81 a3 95 be
       -0.21040903 0.11809699 0.070585154 -0.29226306
0001c0 5e 88 60 be b8 24 a2 3e 04 60 99 3e 38 04 b0 be
       -0.2192702 0.3166864 0.29956067 -0.3437822
0001d0 8e 37 60 be 6f 25 a2 3e 77 42 a6 be 3e e4 4d 3e
       -0.21896192 0.31669185 -0.32472584 0.20106599
0001e0 52 c1 75 bd 29 5c 9b be 2b 05 aa 3e 03 8a 4d 3c
       -0.059998818 -0.3034375 0.33207068 0.012545112
0001f0 99 8a ca bd 77 1f ac 3d 5c 67 d6 bd d7 de 41 be
       -0.09889717 0.08404439 -0.10468933 -0.18932663

weight f4 [64, 128]
000000 85 7a 80 3d 41 1a 8f 3d f2 b0 ce 3c bb 8f aa bd
       0.06273369 0.069874294 0.025230858 -0.08328196
000010 c0 2d b4 bc 28 9b 99 bd 58 4e b7 bd 7c 1b 58 bc
       -0.021994472 -0.07500297 -0.0895049 -0.013190147
000020 d6 b3 4d bd cd 06 43 3d 40 d0 8b 3c d9 bc 92 ba
       -0.050220333 0.047613908 0.017067075 -0.0011195197
000030 bd f3 74 3d d8 55 7f bc d8 03 3b bd f3 64 e8 3c
       0.05980276 -0.015584432 -0.045657963 0.028368449
000040 8e 97 78 bd 33 25 dc bb 29 81 b0 3b 1c 17 1f 3d
       -0.06069141 -0.0067183017 0.005386491 0.0388404
000050 3c e2 66 3d 8f af 2d 3d 2b 77 80 bd b0 3b 9f bc
       0.056368098 0.042403754 -0.062727295 -0.01943764
000060 0b ac 90 bd d6 a8 a7 3d f3 ca d7 bc 88 ca 45 3d
       -0.070640646 0.081865 -0.02634189 0.048288852
000070 e5 a3 49 3d c7 46 9a bd 21 4b 84 3d 39 b9 51 b8
       0.049228568 -0.07533031 0.06459642 -5.0001985e-05
000080 a3 9e 71 3d 99 c2 83 3d f5 23 c6 bc a6 44 93 bd
       0.05898918 0.06433601 -0.024187068 -0.07190828
000090 e3 c6 e6 bc ea 62 45 3c 1f 7f 89 bd b3 2d b4 bc
       -0.028171008 0.012047509 -0.067136995 -0.021994447
0000a0 0f 05 a0 bd 95 12 13 bc a2 b4 5f bd 38 79 94 bd
       -0.07813465 -0.008976598 -0.054615624 -0.07249683
0000b0 04 89 d8 bc 51 81 61 3d 97 7d e4 3c 81 f0 da bc
       -0.026432522 0.055054966 0.027891917 -0.02672601
0000c0 8f e5 16 bd 07 06 98 bd 23 fc ae 3c 2b 95 c3 3d
       -0.036840018 -0.074230246 0.021360463 0.09549936
0000d0 df fc 80 bd c1 39 af 3d 08 47 57 3d 02 b0 3a bd
       -0.06298231 0.085559376 0.052557975 -0.04557801
0000e0 64 17 ac bc a6 93 be 3c c7 6f 9d bc 8c 9a 89 3d
       -0.021007247 0.023263764 -0.019218339 0.067189306
0000f0 13 3e 41 bd a8 58 39 bd 8f 51 f9 bc ba e6 41 bd
       -0.04717834 -0.045250565 -0.030434398 -0.04733918
000100 9c 93 a2 3d e0 6b b6 3d 4e 10 54 3c a7 2a a0 3d
       0.079383105 0.08907294 0.01294334 0.07820635
000110 18 25 6b 3d 39 7c 7d bd 88 df ec 3c 2d 44 ff 3b
       0.057408422 -0.061886046 0.028915182 0.0077901096
000120 d3 e5 0e 3d 88 f2 80 3d 84 a3 bc bd c9 38 bb bc
       0.034887146 0.06296259 -0.09210876 -0.022854226
000130 36 fd 7b 3d 9d 61 93 bd c3 b4 72 3d fa 56 80 3d
       0.061520778 -0.07196353 0.05925442 0.062665895
000140 ec ac bd 3d d6 58 63 3d 4f 82 ac bd e5 83 bd bc
       0.09261498 0.055504642 -0.08423292 -0.023134181
000150 15 16 f6 3c 05 8f e7 3c 1f b9 b5 3c 5c b8 6c bd
       0.030039826 0.02826644 0.022183 -0.057793006
000160 9b 76 cb bd a3 eb a3 bd 83 63 64 3d a1 42 08 bc
       -0.099347316 -0.080039285 0.055758964 -0.008316667
000170 50 e9 d6 3b 0e 36 92 bb eb 10 e3 3b fd 89 02 bd
       0.0065585747 -0.00446201 0.006929507 -0.031869877
000180 5b 64 9c 3d 13 0c 78 3d 96 3c 1f bd 40 a8 ba bc
       0.07636329 0.06055839 -0.03887614 -0.022785306
000190 ba bf 66 bd 4b 7f 96 3d e8 a8 c7 3b 58 37 3e bd
       -0.05633519 0.07348498 0.0060931332 -0.0464395
0001a0 89 de 38 3d df a5 96 3a de 08 a5 bc 6e 99 81 3d
       0.0451341 0.0011493525 -0.02014583 0.063280925
0001b0 59 b9 1e bd ad 54 a0 3d 4d b4 a5 3d 80 0b 60 bd
       -0.03875098 0.078286506 0.0809103 -0.054698467
0001c0 a2 c8 02 3d 03 27 96 3c 03 27 71 3b fb f0 f5 b9
       0.03192962 0.01832915 0.0036796934 -0.00046909586
0001d0 54 e3 93 bc d4 01 ac 3d 66 08 0f bb 64 20 66 bd
       -0.018052734 0.08398786 -0.0021825074 -0.056183234
0001e0 d0 71 a4 3d 9c 8e 8a bc e0 9d 77 bd 18 e7 95 bd
       0.080295205 -0.016913705 -0.060453296 -0.07319468
0001f0 96 66 13 3d 5e 45 8c 3d 2d a7 6d bd 3f ca a8 3c
       0.035986505 0.06849168 -0.05802076 0.020604251
000200 c1 97 03 3c 6d 65 93 3d 65 89 88 3d 85 95 85 3d
       0.008031786 0.0719708 0.06666831 0.06522659
000210 77 54 9c bd 9b 97 12 3d ae 43 b6 bd 85 0a 61 3d
       -0.07633298 0.035789113 -0.088996276 0.054941673
000220 a6 f3 da bc a4 91 c7 bc 74 fa 42 3d 78 46 20 bd
       -0.026727509 -0.024361439 0.047602132 -0.039129704
000230 10 11 85 3d ae e5 88 bc f9 34 98 bd ce ad 60 3d
       0.06497395 -0.016711082 -0.07431979 0.054853253
000240 8b 86 87 3c 7d 68 d9 3c b7 98 fb 3c c7 b4 af 3d
       0.016543647 0.026539082 0.030712469 0.085794024
000250 46 61 a4 3d bb 60 19 3d 3d 4e 93 3d a2 5a fb bc
       0.08026366 0.037445765 0.07192657 -0.030682866
000260 6f 87 f0 3c a4 bf 96 bd 54 79 81 3d 64 76 04 3d
       0.029361455 -0.07360771 0.0632197 0.03233947
000270 bd a0 42 bc 12 04 9f bd e7 03 7e bd dd 49 1a 3d
       -0.011879143 -0.07764448 -0.06201544 0.037668098
000280 bb c4 a7 bd 4e b9 bf bb 5a 20 8b bd 6b bf 8a bd
       -0.0819182 -0.0058509475 -0.0679328 -0.06774791
000290 00 d9 a7 3d 93 03 f3 bc bc 84 bb 3d af 47 82 bd
       0.08195686 -0.02966479 0.091561764 -0.06361329
0002a0 00 a7 bb bd fd 0a 88 3d 45 21 cc bc 67 cb f5 3c
       -0.09162712 0.06642721 -0.024918208 0.030004216
0002b0 52 f7 3f 3c 4b e9 54 3d 20 49 ac bc bb 07 92 3d
       0.011716681 0.051980298 -0.021030962 0.07130381
0002c0 2e 7f 17 3d b3 42 90 39 ff d9 0d bd f6 24 f8 3c
       0.036986522 0.00027515515 -0.034631725 0.030291062
0002d0 e1 a3 6e bd f8 62 d0 bc 1d 40 6a bd c6 91 60 3d
       -0.058261756 -0.025437817 -0.05719005 0.05482652
0002e0 c6 c4 15 ba ca 45 6c bc 89 b7 2e 3d eb 03 ce 3c
       -0.00057132205 -0.014420936 0.0426555 0.025148353
0002f0 ce 3d 9c bd fb e9 7e 3d 50 54 5b bd 0a 4e d7 bc
       -0.07628976 0.06223486 -0.053547204 -0.02628233
000300 b4 ad 98 bd b5 88 54 bc 6e 31 1e 3d ad 34 40 3c
       -0.07455006 -0.012972047 0.03862136 0.011731309
000310 9a e5 f0 bc 5c e8 e0 3a c1 ce 68 bc 20 6d 2a bc
       -0.029406358 0.0017159092 -0.01420945 -0.010401994
000320 55 92 21 3d b3 7a 7f bd a4 bb fc 3c 00 4a 83 bd
       0.039446194 -0.062372874 0.030851193 -0.06410599
000330 61 51 a6 bd 0f ce 05 bb f4 d3 1f bd e9 b9 9e 3d
       -0.081209905 -0.002041701 -0.039020494 0.07750303
000340 0b 44 51 3c 90 af 10 3d 22 2b a4 3d ed 6f 68 3d
       0.01277257 0.03532368 0.080160394 0.056747366
000350 6d 01 dc bc 96 5f 40 bd 22 04 96 bd 75 48 71 bd
       -0.026856149 -0.046966158 -0.07325007 -0.05890699
000360 4f bb 7e 3d f1 75 39 3c 14 86 6c bd c4 55 96 bc
       0.06219035 0.011319623 -0.057745054 -0.018351443
000370 f7 2a 0f 3d 25 ba a0 bd 9a 6b a0 bd f2 43 90 bc
       0.034953084 -0.07848004 -0.07833023 -0.017610524
000380 1c 68 03 3c c0 6c a2 bd 1e 1d 4a 3d d4 5e 7f 3c
       0.008020427 -0.07930899 0.049344175 0.015586574
000390 da 60 4b bd 79 56 2c bd d8 ca c5 3c 5d 77 73 3d
       -0.04965291 -0.042074654 0.024144575 0.059440006
0003a0 35 f1 c8 bc a9 f2 fa bb ad 54 64 bd 3a a8 a7 ba
       -0.024529079 -0.007658322 -0.055744816 -0.0012791224
0003b0 b0 3e 4e bd 36 30 ff bc f0 7d 97 bc 4f 60 9c 3b
       -0.050352752 -0.031150918 -0.018492669 0.004772223
0003c0 23 93 39 bd cc f7 67 3b 88 94 92 3d ae fa 36 3d
       -0.045306336 0.0035395501 0.07157236 0.04467266
0003d0 5b 89 e8 3a 6f 4d 62 bd be e7 a0 bc 9c 01 03 bd
       0.001774113 -0.055249628 -0.019641753 -0.031983957
0003e0 34 8e 13 3d 5b 40 10 bc 3a 2b a3 bd 01 92 c9 bc
       0.036024287 -0.008804406 -0.07967229 -0.024605753
0003f0 65 95 42 3d 35 d5 28 3d 8d 88 80 3d 4a 3b 8b 3d
       0.047505755 0.041218955 0.06276045 0.06798418

bias f4 [64]
000000 b5 70 a2 bd dc e2 99 3d a4 01 3b 3b 6a ca 9c 3d
       -0.079316534 0.07513973 0.0028534913 0.07655795
000010 46 d6 7d bd 7b 44 cc 3d cf fe e4 bc 99 c3 29 3a
       -0.061971925 0.09973999 -0.027953533 0.00064759847
000020 32 28 8b bd 30 09 06 3b f3 d0 6b bc 15 31 0a b9
       -0.06794776 0.0020452254 -0.014393079 -0.0001317899
000030 b1 34 f9 bb 86 50 0b 3d e8 9d a9 3d 84 8d ff 3c
       -0.0076051583 0.03401234 0.08282071 0.03119541
000040 37 e4 83 bd 10 1a 75 3d 5c 1d 89 bd 08 0f bc bd
       -0.06440013 0.05983931 -0.06695053 -0.091825545
000050 7f b8 14 bd a4 b1 53 3a 2c 0c 63 3d 8d 64 a0 bc
       -0.03630876 0.0008075482 0.05543153 -0.019579196
000060 de 7a 65 3c 88 18 1e bd 3d fd 4c 3d 29 3a 8c bd
       0.014006345 -0.038597614 0.050046194 -0.06847031
000070 91 f6 1f bd 30 1f 6b bc c5 ce a1 bd 05 6b a8 3c
       -0.039053503 -0.014350697 -0.07900766 0.020558843
000080 d4 e0 1f 3d ce 16 8b bd ad 17 89 bd 4f a3 b8 3d
       0.039032772 -0.06791459 -0.06693969 0.09015524
000090 5f e4 8e bd f2 19 af 3b a6 4f a0 3d 75 b0 bc 3c
       -0.06977152 0.005343669 0.07827692 0.02303336
0000a0 42 6d 32 bc 8d 68 da bc 1a 47 58 bd d1 11 8f 3b
       -0.010890307 -0.026661182 -0.052802183 0.0043661376
0000b0 79 12 98 3d 12 d5 93 bb 18 10 8d 3d d7 94 9b bd
       0.074253984 -0.004511484 0.06887835 -0.07596748
0000c0 94 03 13 3d cf 75 70 3d c6 a4 be bd f3 a7 67 bd
       0.035892084 0.0587061 -0.09308772 -0.056556653
0000d0 17 7f b7 3d aa e0 a9 3c fa bd 26 3c 52 f7 68 3d
       0.08959787 0.020737011 0.01017713 0.056876488
0000e0 fc 3e 8f 3b c1 3e 2a bd 35 cc cb bc 3d 74 cf bc
       0.004371522 -0.041563753 -0.024877647 -0.025323981
0000f0 11 1b a3 bd 80 b0 58 3d 97 d2 73 3d 03 bf 3a bd
       -0.07964147 0.0529027 0.059527006 -0.04559232

weight f4 [32, 64]
000000 e7 96 fe 3d e7 28 ad 3c c2 ae d5 bb 27 13 fc 3d
       0.12431126 0.021137668 -0.006521077 0.123083405
000010 1a 2e a8 bc e8 15 94 bd 9f c0 86 bd 45 db a0 3d
       -0.020529795 -0.07230741 -0.06579708 0.07854322
000020 12 23 a3 3d 24 5c a0 bd 2c 3d 68 3d 0c 24 56 3d
       0.079656735 -0.078300744 0.056698963 0.05228047
000030 2f ec b0 b9 94 75 35 bd bc 3a 7b bd 0b 0a f3 bd
       -0.00033745306 -0.044301584 -0.06133531 -0.1186715
000040 83 96 c8 bd 07 08 29 3d b6 9c 95 bd 88 da f3 3d
       -0.09794333 0.04126742 -0.07305281 0.11906916
000050 c7 1c 86 3c 1e a5 c9 bd a3 19 02 bd 0a 79 9e 3d
       0.016371144 -0.09845947 -0.03176273 0.0773793
000060 f4 6f 00 be 43 b0 51 3c ba b5 3f bd 04 16 af bd
       -0.12542707 0.012798372 -0.046804167 -0.08549121
000070 6c ea 7b 3d f8 75 08 be 8d f1 93 3d db 57 30 3d
       0.06150286 -0.13326252 0.072238065 0.043052536
000080 57 2f f3 bd e6 54 75 3d 58 7c ea 3d 2e 55 4b 3d
       -0.11874264 0.05989542 0.11449498 0.04964178
000090 02 ec e5 bd 7f 96 d3 bd ce cc 1d 3d 65 94 a2 3d
       -0.112266555 -0.10331439 0.038525395 0.0793846
0000a0 4f 04 83 bd 48 f4 89 bd d6 de 10 bc 7a 1e 2b 3d
       -0.06397306 -0.06736046 -0.008842191 0.04177711
0000b0 16 f7 b4 bd d2 b6 d0 bc 27 76 cc 3c dd 23 1c 3b
       -0.088361904 -0.0254778 0.024958683 0.0023825087
0000c0 86 b0 59 3d 0a c0 cc 3d 70 16 b5 3d 54 14 ec bc
       0.05314686 0.09997566 0.0884217 -0.028818287
0000d0 d4 06 5a bd 38 d8 9a bd f4 24 83 bd 5f c3 41 bd
       -0.053229168 -0.07560772 -0.064035326 -0.04730546
0000e0 d9 ca f6 3d 40 cc 24 bc 96 5d fd bd bb 9e cd bd
       0.12050409 -0.010058463 -0.12371366 -0.10040041
0000f0 76 b9 10 3d af 71 10 3d 23 2e b5 bd 86 07 8c 3d
       0.03533312 0.035264667 -0.088466905 0.068373725
000100 5f b0 a9 3d a8 9c 9d bd ce 9e 68 3d 1f 50 c4 bd
       0.08285593 -0.076958954 0.056792073 -0.095855944
000110 4e a7 da 3d 34 c0 0b 3d 04 76 cf bd b6 0e 07 3d
       0.10676442 0.034118846 -0.101299316 0.032973014
000120 3c 38 00 be 47 67 e5 3d 48 6b 1f bd ca 22 2f bd
       -0.12521452 0.11201339 -0.03892067 -0.042757787
000130 45 26 98 3d 12 6f a6 3d 52 1d d7 bd 6c 43 05 bd
       0.07429174 0.08126654 -0.10503639 -0.032535
000140 a1 7c c3 bd 81 b6 ec bd fd 4e c4 3c 8d 0a 93 3d
       -0.095452555 -0.11558247 0.023963446 0.07179747
000150 f2 0c ae bd a0 4a e5 bd 9b 92 e1 bd b0 77 36 ba
       -0.08498563 -0.11195874 -0.11014291 -0.0006960584
000160 ea 2a f0 bc d0 07 41 3b f5 17 d7 bc 58 80 ac bd
       -0.029317338 0.002945412 -0.02625654 -0.08422917
000170 2e cc d2 bd 24 15 ed bc 0a 5a f2 3d 3e 75 9e bd
       -0.102928504 -0.028940745 0.1183358 -0.07737206
000180 f5 bb 8a 3d f2 45 27 3c 4f 87 41 bd 2a 24 fa bd
       0.06774131 0.010209547 -0.04724818 -0.12213929
000190 57 2d e7 bd cc c3 66 3d d6 fe b4 3c b1 76 a5 3d
       -0.11287945 0.05633907 0.022094171 0.08079279
0001a0 7c 7f fa 3d 90 80 18 bc df 88 02 3c 8f b9 3c bd
       0.12231347 -0.009307995 0.007967203 -0.0460754
0001b0 0b 42 ed 3c 5b 67 1b bd 21 46 93 3d bd c7 ec 3c
       0.028962156 -0.037940364 0.071911104 0.028903836
0001c0 51 50 68 3d 24 cd 77 3d c8 02 f9 3b 8e 6c 9e bd
       0.05671722 0.06049837 0.0075992085 -0.07735549
0001d0 02 82 d2 bd d2 ed 15 3d e2 cb 17 3c 54 49 f7 bd
       -0.10278703 0.036603756 0.009264918 -0.12074533
0001e0 ec d9 77 bd 0b b9 8b bd fa 4f d1 bd 8d 4b 01 3d
       -0.06051056 -0.068224035 -0.102203324 0.03156619
0001f0 81 d3 c8 3d 0c e0 9f bd 56 e1 a3 3d fd 43 e0 3b
       0.09805966 -0.078064054 0.08001964 0.0068440423
000200 ed 8b 11 3d 70 6c 77 bd 0a 4e b2 bd a1 05 09 3e
       0.035533834 -0.06040615 -0.08706291 0.13381054
000210 22 72 51 3c 99 82 05 be ed a6 80 3d 75 75 79 bd
       0.012783559 -0.130381 0.062818386 -0.06090303
000220 24 73 d1 bd 8a a1 8e 3d 05 6e ac 3d c4 bc 08 bb
       -0.102270395 0.06964405 0.08419422 -0.0020864466
000230 ba e5 3d bd 4e eb 8d bd c0 0d 6e bd 9c 59 94 bd
       -0.046361662 -0.069296464 -0.05811858 -0.07243654
000240 26 c9 ee 3d 2d 79 26 bd c0 cb 11 bb 2e de 1b 3d
       0.1165946 -0.040642906 -0.0022246689 0.038053684
000250 80 5f 6a 3d 83 cb 73 3d 6d 77 95 bb 64 6f bc bd
       0.057219982 0.059520256 -0.004561356 -0.092009336
000260 19 de 8b bd 6d 40 5a 3d 47 ca e1 bb 1f f1 49 bd
       -0.06829471 0.053284097 -0.0068905684 -0.049302217
000270 e9 dc 1e 3d c9 16 2c bd 22 9c 02 3e a3 33 93 3c
       0.038784895 -0.042013917 0.12754872 0.017968958
000280 66 d0 dc bd b2 3e ec 3d 15 ba 68 3d fd 83 d1 bc
       -0.10781936 0.11535396 0.056818087 -0.025575632
000290 60 b3 a3 bd c1 5a 84 3c cc 07 f9 3d f0 aa 17 3a
       -0.079931974 0.016156556 0.1215969 0.00057856645
0002a0 de 8c 86 3d 4c 0c aa bd fc b8 af 3d 51 71 80 3d
       0.06569837 -0.08303127 0.08580205 0.062716134
0002b0 0b 60 9f bc f8 77 f6 bc 6f f0 02 be a8 38 8e bd
       -0.019454977 -0.030086502 -0.1278703 -0.069444
0002c0 11 49 05 3e 65 3a 0c be 64 e8 9c 3b b4 13 47 3d
       0.13016154 -0.13694151 0.0047884453 0.048602775
0002d0 a2 3a f0 3d 9b b5 18 3d 20 3a 88 bd 67 0f 91 bd
       0.11729933 0.037282567 -0.066517115 -0.07083016
0002e0 78 a4 02 be 1a fe d0 bd 1f ed a7 3c 23 5c 52 3d
       -0.12758052 -0.10204716 0.02049881 0.0513574
0002f0 10 56 66 3d 3d 51 fa bd 1c 46 f2 bd 7b 8d 85 bc
       0.05623442 -0.12222526 -0.118297786 -0.016302815
000300 bf 5f e3 3d 98 10 cc bd 8e 15 ef bd 35 cf a1 3d
       0.111022465 -0.099641025 -0.11674033 0.0790085
000310 d7 40 14 3d 09 b9 df bd 5f a7 77 bd 76 68 db 3d
       0.03619465 -0.109239645 -0.060462352 0.10713284
000320 57 a4 9a ba 64 92 62 3d 07 08 95 bb 38 56 26 3d
       -0.0011798245 0.05531539 -0.004548076 0.04060957
000330 65 26 2e 3d e9 5c ec bd 26 52 97 bd a1 a8 86 bc
       0.042517085 -0.11541159 -0.073887154 -0.01643783
000340 0b 8e f5 bb fe 8d e7 bd 3f 1d af bd 9f 89 62 bd
       -0.0074937395 -0.1130638 -0.085505 -0.055307027
000350 b2 0d 5e 3d 18 c7 f6 bd 7e db 37 3c c3 86 be 3d
       0.05421228 -0.12049693 0.011221765 0.093030475
000360 8f 0d f3 3d 6b e2 2b bd 1e d1 db bc 23 f9 e4 bb
       0.118678205 -0.041963976 -0.026833113 -0.006987707
000370 33 96 a3 bc 82 3c c8 3d 86 d9 1b 3d 34 d3 e4 ba
       -0.019969082 0.09777166 0.038049243 -0.0017457963
000380 3e c4 24 bd 5c 74 9f 38 56 86 93 bd 0f 3c ee bc
       -0.040226214 7.6033844e-05 -0.07203357 -0.029081373
000390 da 87 a2 3d 19 c3 0f 3d 5e 04 33 bd 59 8d ab 3c
       0.07936068 0.03509817 -0.043705337 0.020941423
0003a0 98 2b ba 3d 3e 28 b3 bd a7 fa 3a bd 13 54 00 be
       0.09090346 -0.0874791 -0.045649197 -0.12532072
0003b0 97 0c d8 3d 2c 6e bb bd da a0 ad bd a1 89 4f 39
       0.10549276 -0.09151873 -0.084779456 0.00019792329
0003c0 f6 fb bc bd 27 37 37 bd ac b4 c8 3d ee 55 ba 3d
       -0.09227745 -0.04473033 0.098000854 0.09098421
0003d0 84 2a 04 3d e4 ab 98 bd f6 a7 59 3d 10 d1 ac bc
       0.03226711 -0.074546605 0.053138696 -0.021095783
0003e0 53 8a 7c 3d 38 b9 b6 bd 0c f3 b7 bd e3 af 30 3d
       0.061655354 -0.089220464 -0.089819044 0.04313649
0003f0 46 8d e2 bc d5 6e fe 3b 85 bd b9 3b 81 6d 7f bb
       -0.027655255 0.007764677 0.0056683444 -0.0038975182

bias f4 [32]
000000 33 52 cd bd c1 da 3c 3d 6d d1 81 3c 00 0d c0 bd
       -0.10025444 0.046107057 0.015846932 -0.093774796
000010 f4 6d 8f 3d 0c 22 93 bd 8f eb b8 bd e2 48 ed 3d
       0.07003394 -0.07184228 -0.09029304 0.11586167
000020 38 17 79 bd 24 58 c5 bd 81 fa 06 3d f4 af 35 bd
       -0.06081316 -0.09635952 0.032953743 -0.044357255
000030 a5 76 82 bd 5a 49 90 3d bb 6e bf bd a0 aa 33 3c
       -0.06370286 0.07045241 -0.09347292 0.010965973
000040 6c 1a 84 bd 17 76 df bd 13 cb 35 bd 42 6d 84 3d
       -0.06450352 -0.10911196 -0.04438312 0.06466152
000050 ac 00 ac 3d cf d9 64 bd f9 64 a3 bd 5a c7 8f 3d
       0.08398566 -0.05587178 -0.079782434 0.07020445
000060 f0 0f e6 bd ba 66 4e 3d e9 5e 2d 3d 4d 3f e5 bd
       -0.112335086 0.050390936 0.04232684 -0.11193714
000070 34 aa ce 3d bd 00 c2 bd 74 ea 92 3d e2 0d 0d bd
       0.100910574 -0.09472797 0.07173625 -0.034437068

weight f4 [128, 7]
000000 52 f4 99 be 35 8d b2 be 52 68 43 3e 1e 25 a2 3e
       -0.30069214 -0.34873357 0.19082764 0.31668943
000010 c6 f4 6a 3e 6e 9f 08 bd eb a5 88 3e 22 35 c3 be
       0.22944936 -0.03335517 0.26689085 -0.38126475
000020 20 f4 69 be d3 64 d5 be 36 dc 60 bd f7 bb 42 3e
       -0.22847033 -0.41678485 -0.05489751 0.19017015
000030 fb c7 11 be dc dc be be 2e 61 b9 3d 44 f7 6d 3d
       -0.14236443 -0.37277877 0.09051739 0.05809714
000040 33 c9 60 be 5a ab a5 bd 43 59 8c be 88 e2 98 be
       -0.21951751 -0.08089323 -0.2741185 -0.2986033
000050 93 10 e0 3c 4d 9b 4b 3e bf 4a a1 3d 96 8f 83 3e
       0.027351653 0.19883461 0.07875585 0.25695485
000060 87 aa 7b 3e 6d d3 6c 3e 48 e9 5c 3e c3 43 90 3e
       0.2457677 0.23127528 0.21573365 0.28176698
000070 6e 00 f8 bc fe 7b 33 3d 17 6d 18 3d fd 1d 73 bd
       -0.030273642 0.04381942 0.03721341 -0.05935477
000080 81 11 64 3e e6 66 66 be 23 3e 6d 3e a1 2c 89 3e
       0.22272302 -0.2250019 0.23168235 0.26791862
000090 98 83 aa be 81 aa 01 be bc a3 2c be 09 0e 63 3e
       -0.33303523 -0.12662698 -0.16859335 0.22173323
0000a0 a2 fc a4 3e d0 15 01 be d4 9c b0 3e ef 6f cd 3e
       0.32223994 -0.12605977 0.3449465 0.4012446
0000b0 19 13 76 3e 01 fc a4 be f8 c4 c4 3d 99 fd 34 be
       0.24030723 -0.32223514 0.09607881 -0.17674865
0000c0 6a d1 5c be 5c 6d 89 3e f1 23 06 3c 70 18 cc 3e
       -0.2156426 0.26841247 0.00818728 0.39862394
0000d0 e0 b3 94 3e 96 0a 8a be 1e 6f 94 be b7 41 70 be
       0.29043484 -0.269612 -0.28991026 -0.23462568
0000e0 7a 22 1e 3d 8d 0a c8 be 37 25 e5 3d cf 52 b0 bd
       0.0386071 -0.3907055 0.11188739 -0.086095445
0000f0 ea 98 00 be e4 d1 6a 3e d1 32 5c be 71 23 9e 3e
       -0.12558332 0.2293163 -0.2150376 0.30886415
000100 48 a7 54 be 8d a1 1c be 57 29 c0 3e e8 00 26 3e
       -0.20766938 -0.15296002 0.3753154 0.16211283
000110 7c 24 10 3c 1b 5c 59 be f8 74 e2 3e e0 0e 2c bd
       0.008797761 -0.21226542 0.44229865 -0.042006373
000120 19 cd 97 3d 6b c7 bb bd 66 6c d6 3d 14 e3 b0 bd
       0.07412166 -0.09168895 0.10469894 -0.08637062
000130 94 0f 56 3c 43 79 8c bc 2b 5e dc bd f0 cf a7 be
       0.013065238 -0.017147666 -0.107601486 -0.3277583
000140 16 7c 84 3e 24 92 86 be 8f 46 1f be fb 09 bd be
       0.2587592 -0.2628337 -0.1555426 -0.36921677
000150 cc 29 22 bd 20 a1 b8 be e5 14 0f be d6 0d 6c 3e
       -0.03959064 -0.3606043 -0.13972814 0.23052153
000160 58 e4 8c 3e dc c2 61 3e 80 f1 8a 3e b6 0c c6 bc
       0.27517962 0.22046989 0.27137375 -0.024175983
000170 52 4f 8c bd aa 6b 5e 3c 08 cd a9 3d 7b af db 3d
       -0.06851067 0.013575474 0.0829106 0.107268296
000180 f7 86 94 be 71 87 52 be 64 0f ff 3d ea a9 8a 3e
       -0.2900922 -0.2055948 0.124541074 0.2708276
000190 0a 74 12 3e 7a 18 82 be 58 99 18 be e4 49 66 3d
       0.14302078 -0.254093 -0.14902246 0.05622281
0001a0 b8 03 8d 3e 5b f1 c0 be 40 18 3f be 98 0a c9 be
       0.275419 -0.3768414 -0.18661594 -0.39265895
0001b0 4b ec a4 be 73 ef 5f bd 6b 48 91 3e e4 52 ba be
       -0.32211527 -0.054671716 0.28375563 -0.36391366
0001c0 90 96 40 3d 9b c7 49 be 4e 26 53 be 32 2e a4 3e
       0.047018588 -0.1970505 -0.20620081 0.32066494
0001d0 f6 71 06 be ad 25 d0 bd 0c ea 91 bd 06 90 91 be
       -0.1312941 -0.10163436 -0.07124719 -0.28430194
0001e0 dd 1e b3 be 0e 0e 6d 3e ff 3a a9 bb 8c f2 0a bd
       -0.34984484 0.23149893 -0.0051645036 -0.033922717
0001f0 06 f3 73 bd 3b 0e 37 be 6a d3 c9 3e 96 ff 70 3c
       -0.059557937 -0.17876522 0.3941911 0.014709374
000200 c3 c0 42 be f0 bd b3 3e f6 bf 21 be 64 91 58 3e
       -0.19018845 0.35105848 -0.15795884 0.21149212
000210 36 c9 94 be 82 40 79 3e 2a b6 36 be 00 4b 83 3e
       -0.29059762 0.24341014 -0.17842928 0.25643158
000220 65 df cf 3e 82 17 9c 3e 30 e6 9a 39 15 53 2c 3e
       0.40600124 0.30486685 0.00029544672 0.16828568
000230 31 58 0a 3e 58 26 5b 3e be 8e d5 3e ed 7e 35 3d
       0.13510205 0.21401346 0.41710466 0.0443105
000240 67 79 8a 3e b0 ea 9a bd a6 2f e1 3d 60 92 0e be
       0.27045748 -0.07564294 0.10995416 -0.13923025
000250 b3 83 07 3d 12 09 c7 bd 49 5a be be 8d 61 60 be
       0.033084583 -0.09718527 -0.37178257 -0.21912213
000260 05 12 30 be a8 18 60 bd b9 ac 3f 3e 4f d8 6d be
       -0.17194374 -0.054711014 0.18718232 -0.23227046
000270 7f 5e a1 3e c3 7f a7 3e b4 71 30 3e 29 21 63 3e
       0.31517407 0.32714662 0.17230874 0.22180618
000280 3f 36 bc 3c 66 29 81 be 1b e3 b1 bd 6b 6b 72 3e
       0.022975085 -0.25226897 -0.08685895 0.23673789
000290 6e f1 9a be 89 45 82 3e d7 11 cd 3e 27 81 a6 3e
       -0.3026232 0.25443676 0.40052673 0.3252041
0002a0 bf b1 a8 3e 36 34 30 3e 73 5f a1 bd bc 54 ad 3c
       0.3294811 0.17207417 -0.078795336 0.021158569
0002b0 ee e2 72 be a7 8e 37 3e e6 50 38 3d b1 b6 84 bd
       -0.2371938 0.17925511 0.044999026 -0.06480158
0002c0 93 c8 13 bd 28 31 8f be 19 e6 76 be b6 c9 28 3e
       -0.036079954 -0.2796719 -0.24111213 0.16483197
0002d0 00 6f a4 3e 67 cf fc 3b d9 0b b6 be af 7c ba be
       0.32115936 0.007715154 -0.35555914 -0.3642325
0002e0 a8 5a 87 bd 4b ad cc be c3 a0 8b be cd d8 d3 bd
       -0.06609088 -0.39975962 -0.2727109 -0.10344086
0002f0 6d 54 0e 3e b0 fd a5 be 7b b8 ab bc 0d 11 02 3e
       0.13899393 -0.3242011 -0.02096199 0.12701817
000300 af 86 22 bb 89 4d ae 3d 5b d0 ad 3e 68 8e 37 3e
       -0.0024799516 0.085108824 0.33948025 0.17925417
000310 9a dd a2 3e ad f0 28 be 67 6e 8a be f8 3e 1b 3e
       0.31809694 -0.1649806 -0.27037355 0.1516074
000320 f7 1a 80 be 78 40 c0 be 61 5d 24 3e 5e 72 81 bd
       -0.25020573 -0.37549186 0.16051246 -0.06320642
000330 27 1d 9c be 1e c4 ad bd 3c 39 04 be 14 b5 07 bd
       -0.3049099 -0.08484672 -0.12912458 -0.033131674
000340 98 22 a2 bd 9b c8 16 3e 91 92 66 bd d5 4e b2 be
       -0.079167545 0.14724962 -0.05629212 -0.3482577
000350 7c 00 a4 3d 0e a3 9b 3e 24 64 15 bd 05 00 1e bd
       0.08007905 0.30397838 -0.036472455 -0.038574237
000360 40 1f 7f 3e 24 96 ed bd c3 35 94 be 9d 87 d2 3c
       0.24914265 -0.11600903 -0.28947267 0.025699431
000370 f0 ec 65 bd 5d 92 ea 3d ca b7 9a 3d 7c ad fd 3d
       -0.056134164 0.11453698 0.07554586 0.12386605
000380 1a b2 ba be ad 68 89 be 47 61 b5 be 1d e7 ed bc
       -0.36464006 -0.26837674 -0.3542578 -0.029040867
000390 32 f4 63 3e 2f 51 a6 3e 0b e9 33 3e e1 43 88 3e
       0.22261122 0.32483813 0.17569368 0.26614287
0003a0 44 8d 13 3e 4e a0 96 bd 89 2c 2f 3d 5a c7 75 be
       0.14409357 -0.073547944 0.04276708 -0.24001828
0003b0 de 34 83 3e 6f b8 39 bd 73 f2 ee bd 15 67 35 3e
       0.25626272 -0.045341905 -0.11667337 0.17715104
0003c0 4f 8e d6 be 3f 2a 81 3e 48 ba da 3d 7d bd 74 3d
       -0.41905448 0.25227544 0.106800616 0.059751023
0003d0 25 50 ae be 36 b0 e1 3d 46 9c 92 be 16 b0 ca be
       -0.3404552 0.11019938 -0.28634852 -0.39587468
0003e0 c4 71 89 3e e9 5a 98 be 14 b4 10 be 99 41 83 be
       0.2684461 -0.2975686 -0.14131194 -0.25635985
0003f0 5f f7 02 be 85 4d 32 bd 27 b8 55 3e fc 40 87 bc
       -0.12789677 -0.04353096 0.2087103 -0.01651048

bias f4 [128]
000000 43 24 98 be 6b a4 0e 3d 5b e3 b9 be 4d 48 d4 bd
       -0.29715165 0.03482477 -0.3630627 -0.10365353
000010 7a 20 b9 be 35 c9 fd bd dd f2 83 3c 98 85 4d bd
       -0.3615759 -0.12391893 0.016107017 -0.050176233
000020 94 ee 14 bd 3d b5 78 3e 94 12 19 be df 41 34 be
       -0.03636034 0.24287887 -0.14948493 -0.17603253
000030 d2 68 2b be d3 13 03 be 13 87 54 3e 40 58 a2 3e
       -0.16739205 -0.12800531 0.20754652 0.31707954
000040 4c 66 aa 3e 3a 46 92 be ed e1 80 3e 55 d2 ce 3d
       0.3328117 -0.28569204 0.25172368 0.100987114
000050 2b 53 bf 3e 0d 8c aa be 52 4f 9a bc 64 3b 84 be
       0.3736814 -0.33309975 -0.018836651 -0.2582656
000060 3f 07 e0 bd 4c 07 3f bd fb c2 b3 be b0 6b 87 be
       -0.10938882 -0.04663782 -0.35109696 -0.26449347
000070 0a a2 a6 3e 2d 49 fe bc 41 cd d9 be ad 53 a5 be
       0.325455 -0.031040752 -0.4253941 -0.32290402
000080 ac e9 8e be eb d0 d8 3e 9b 4e c3 be ee 74 0d bd
       -0.27912652 0.42346892 -0.3814591 -0.03453534
000090 b5 1c 82 be 70 74 09 be 72 1e 32 bd 7f e0 5d be
       -0.25412527 -0.13423324 -0.043486066 -0.2166767
0000a0 ad 1d 3c be 2d 1c a7 be 96 74 b9 bd fb 26 a6 be
       -0.18370695 -0.32638684 -0.0905544 -0.32451615
0000b0 de 90 b8 3e 10 b2 c8 3e 8e dd 4d 3e db a0 a1 3e
       0.36048025 0.3919835 0.20104048 0.31568035
0000c0 30 2f 2d be 00 6e bf be a6 9f 04 3e 91 52 95 3e
       -0.16912532 -0.3738861 0.12951526 0.29164556
0000d0 c4 6b 35 3d 26 e2 8a 3e 35 5b 8f 3e 0b 87 ba be
       0.044292226 0.27125663 0.27999273 -0.36431155
0000e0 c4 6c f8 3d 14 f5 92 be 7a 39 85 3e 41 6e 1e be
       0.121301204 -0.28702605 0.26020414 -0.15471746
0000f0 e4 c1 61 be a6 27 df 3e df 01 ca 3c 2d e3 cc 3d
       -0.2204662 0.43584937 0.024659095 0.10004268
000100 c9 38 a8 be 7b fe 84 3e 46 7b a2 be ba a4 59 3e
       -0.32855824 0.25975403 -0.31734675 0.21254244
000110 2c 82 d7 3e 1b 6b fc bd c2 79 3f 3c 4f 4d 13 be
       0.420915 -0.12325116 0.011686744 -0.1438496
000120 66 74 b1 3e 76 9b 17 3e e7 d6 b3 be 4a 4a c0 3e
       0.34659117 0.14805397 -0.35124895 0.37556678
000130 54 b7 b7 3e cd 7b cb 3d b0 d1 84 be 14 11 d1 3e
       0.35882056 0.099357225 -0.2594123 0.40833342
000140 c9 57 10 bd 55 09 42 3e 57 ef 5c be 2f e8 ac 3c
       -0.03523997 0.18948872 -0.21575676 0.021106808
000150 a9 74 91 3e 6e 8f 0f 3e 40 f1 d0 3e 9b 2a b8 bd
       0.28409317 0.14019558 0.4080906 -0.08992501
000160 0e 75 7f bd ac 90 48 be 03 3d 82 3d 2d e1 05 3e
       -0.06236749 -0.19586438 0.06359293 0.13074179
000170 dc 47 8f 3e d4 36 72 3e c9 2b 8e 3e 3c 27 ac be
       0.27984512 0.23653728 0.2776778 -0.33623683
000180 27 b7 52 be 2a 65 40 3e a7 56 47 be d7 c9 9d be
       -0.2057768 0.18788591 -0.19466649 -0.30818054
000190 3d 90 74 3e fa e0 d8 be 48 63 cb 3e f9 f9 90 3e
       0.23883148 -0.42359143 0.39724183 0.28315714
0001a0 5e 32 93 be 81 04 13 3e f1 b8 18 be 1c 9c b3 3e
       -0.28749365 0.14357187 -0.149143 0.3508004
0001b0 e5 6b a1 be 90 f9 65 3e 41 3a 8e be 94 ee 99 3e
       -0.3152763 0.22458482 -0.2777882 0.30064833
0001c0 ad d5 cb bc 3d d1 ad be ae 85 63 be be 25 99 be
       -0.024882162 -0.339487 -0.22218964 -0.29911608
0001d0 c4 68 94 be a3 93 9f be d7 29 7e 3e b0 a0 84 3c
       -0.2898618 -0.31167325 0.24820648 0.016189903
0001e0 ea be ad 3e 25 72 c1 3e 37 d3 98 be 79 d9 c7 be
       0.33934718 0.37782398 -0.29848644 -0.39033106
0001f0 6f a1 66 3b f8 8d 64 3e d7 11 cc 3e 41 48 c3 3e
       0.0035191437 0.22319782 0.3985736 0.38141063

weight f4 [64, 128]
000000 f7 27 56 3d 59 b4 ca 3d 3c ec 17 bd ee ea 74 bd
       0.052284207 0.0989768 -0.037090525 -0.05979436
000010 5d 6e 19 3e 98 c1 4f 3b f9 ff a4 bd 5f fd 27 bc
       0.14983507 0.0031701084 -0.080566354 -0.0102532795
000020 b9 96 90 bb cf 83 81 bd 02 b5 d5 bd 09 37 99 3d
       -0.004412499 -0.063239686 -0.10434915 0.074812
000030 5f 09 e6 3d 2b 60 99 bb 80 e1 17 bd 47 ff b6 3d
       0.11232256 -0.0046806536 -0.037080288 0.08935409
000040 7f 23 0b be 3b 6f c3 3d d6 c1 2b 3d 52 b9 bd 3c
       -0.1358776 0.095427 0.041932903 0.023159657
000050 40 91 a4 bd 3b be b3 3d 4e d5 16 bd 2e 79 ed 3d
       -0.08035517 0.08776518 -0.036824517 0.11595379
000060 44 2d 02 bd a1 95 b8 3d f2 7e 4f 3d 1c 9c af bb
       -0.03178145 0.090129144 0.050658174 -0.005359186
000070 02 9d 40 bd f2 2a 8d 3d 08 7f f5 3d 38 88 a2 3d
       -0.047024734 0.06892957 0.1198712 0.07936138
000080 ae ab 49 3d d3 5d 91 bd 87 fa b0 bc ad 16 d4 3c
       0.049235992 -0.07097974 -0.021603836 0.025889719
000090 cb 73 a9 3d 8a 07 80 3d b2 87 f3 bb ac 71 97 3d
       0.08274039 0.06251438 -0.0074319476 0.07394728
0000a0 0c 0a cf bc 78 a3 47 3d 9b 63 03 3e 62 af d5 3d
       -0.025273345 0.04873988 0.12830965 0.10433842
0000b0 91 bd a3 bd 5a d5 2c bd d4 28 3c bc 7a 3f 01 be
       -0.07995141 -0.042195655 -0.011484344 -0.1262187
0000c0 a8 f8 ba 3d 22 ed 45 3b 5e f5 ca bd 87 70 91 bd
       0.09129459 0.0030201157 -0.09910081 -0.07101541
0000d0 68 d9 74 3a 00 1c dd bc 2d cc a9 3c 86 26 dd 3d
       0.00093402574 -0.02699089 0.020727241 0.107983634
0000e0 2f 40 17 bd 00 50 65 3d c1 b9 d4 3c 42 b5 65 3d
       -0.036926445 0.055984497 0.02596748 0.056081064
0000f0 da 0c 1d bc d6 72 99 3a 78 ce 4d bd 30 27 13 bd
       -0.009585584 0.0011707197 -0.050245732 -0.035926044
000100 e5 05 ca bc 9d fe a8 bd 46 7c 7a 3d 65 fc 02 bd
       -0.024661014 -0.08251689 0.061153673 -0.031978983
000110 37 82 ae 3c 7d 4a c0 3d 3e 74 92 3c b5 ef 3a 3d
       0.021302326 0.093892075 0.017877694 0.04563876
000120 9b 1b 6d 3b f5 d8 e7 3c 6e c6 99 3c 50 25 f7 bc
       0.0036179784 0.028301695 0.018771376 -0.03016916
000130 0c 3c b8 3c 45 4a dc 3d 63 77 36 3d 2c 43 b3 bd
       0.02248957 0.10756353 0.04454745 -0.087530464
000140 ec ee c5 3c f4 7c e6 3d 17 02 b2 bc 44 a5 91 3d
       0.024161778 0.11254302 -0.021729512 0.071116
000150 d9 95 4f bd df 59 68 3c 72 55 0f 3d 68 99 fe 3d
       -0.050680015 0.014181583 0.034993596 0.12431604
000160 16 31 de 3d 8d 90 18 3d 40 c6 21 3d 77 63 84 bc
       0.10849206 0.03724723 0.039495707 -0.01616071
000170 84 48 80 bd 3a c1 f5 3d a1 54 95 3c 53 50 0b 3d
       -0.06263831 0.11999746 0.01822883 0.03401215
000180 0e 06 af 3d 30 fd 01 bd 40 9d 98 bd 5a 7e 04 3d
       0.08546077 -0.0317356 -0.07451868 0.03234706
000190 6d f4 09 bd 67 a2 f5 3c 16 8d b3 bc 13 d7 f6 3b
       -0.03368037 0.029984666 -0.021917861 0.007532963
0001a0 da 36 b1 3d 68 14 0e bd 44 25 f7 3d 9f 65 c0 bd
       0.0865304 -0.03468743 0.12067655 -0.09394383
0001b0 8d e4 07 3e fe 8f f9 bd 3a d1 0d bd 9a cc f5 bc
       0.13270779 -0.121856675 -0.034623362 -0.030004788
0001c0 26 5e 21 3d 87 9c a8 3c aa 4a a9 3a 05 4b d2 3d
       0.039396428 0.02058245 0.0012915928 0.10268215
0001d0 cb fc ad 3d 07 c6 7f 3d 32 51 4e bd 7a 03 06 3d
       0.08495482 0.062444713 -0.050370403 0.03271816
0001e0 c2 3c 3d 3a 09 da 81 bd 73 36 de bc 95 20 5a 3d
       0.00072188315 -0.06340415 -0.027125573 0.05325373
0001f0 62 1b c4 3c 98 80 b0 bd 3c 8e f8 bc cc 60 06 bc
       0.023938838 -0.08618277 -0.03034126 -0.008201789
000200 ce 9b e0 3d 2b 7b b5 3d e9 29 de 3d 06 36 0b 3d
       0.109672174 0.08861383 0.108478375 0.033987068
000210 c6 85 3d 3d 69 65 a1 3d d4 36 1c 3d 4c bd 8a bd
       0.046270154 0.078806706 0.038138226 -0.06774387
000220 53 09 27 bc 7f dd bb bd cf 3d 05 be fa 15 3a 3d
       -0.010195094 -0.091731064 -0.1301186 0.045431115
000230 3a b8 82 bc 65 4f 2c 3b 76 43 84 bd 76 f1 43 3d
       -0.015956987 0.002629244 -0.0645818 0.047837697
000240 07 29 1d bd c2 7c 09 3d 4a 26 df bd 91 56 e9 bd
       -0.038369205 0.033566244 -0.10895975 -0.11393464
000250 5e c7 0c bd 2c b6 be 3d bc 3f ce b8 0a 8d d9 3d
       -0.03436982 0.0931209 -9.834717e-05 0.10622604
000260 20 75 d3 bd ab f4 db 3c b9 f7 e5 3d d5 7d a8 3c
       -0.10325074 0.026850065 0.1122889 0.020567814
000270 06 b2 18 39 07 b0 bc 3d 2a 53 35 3c 11 85 fc 3d
       0.00014562169 0.09213262 0.011067191 0.12330068
000280 7d 9a ac bb b8 1a f9 bd 68 99 93 3d f1 05 bd 3d
       -0.00526744 -0.12163299 0.07206994 0.09229649
000290 64 64 fb 3d 32 cd 48 3d a8 37 dc 3d 4d e4 25 3d
       0.12275007 0.049023814 0.10752803 0.040500928
0002a0 c2 ba a4 3d 2c 42 f1 3d 07 c0 9b 3c 45 61 53 3d
       0.08043434 0.117801994 0.019012464 0.051606435
0002b0 48 90 ae 3b 69 08 d1 bc 1c 96 94 bd 0c c2 a8 bd
       0.0053272583 -0.025516706 -0.072551936 -0.082401365
0002c0 2e e6 03 3d c0 05 35 bb 0c 58 ce bd 0e 16 45 3b
       0.03220194 -0.0027621835 -0.10075387 0.003007296
0002d0 88 0a d0 bc f2 cb 35 3d 09 cf 02 be 63 e8 be 3d
       -0.025395647 0.04438395 -0.1277429 0.09321668
0002e0 13 08 85 3b a8 0e 3c 3c 67 cf 83 bd 2f fd e7 3d
       0.0040598004 0.011478104 -0.06436043 0.11327588
0002f0 9d 71 db 3d 6e 42 28 bd 0a 64 eb bb 7b 56 ad bc
       0.107150294 -0.041078977 -0.0071835564 -0.021159401
000300 d9 ca cd 3d 99 98 9d 3c c7 dc 21 3d 1b bc 4b bd
       0.10048456 0.019237803 0.03951719 -0.04973994
000310 77 a0 4e bd d8 45 5b 3c 47 7e f6 bc a1 4e ac 3d
       -0.050446 0.013383351 -0.03008951 0.08413435
000320 82 69 50 3d f4 ea e5 3c 8b 62 d0 3b 15 22 ef bd
       0.05088187 0.028066136 0.0063594035 -0.116764225
000330 e4 aa 75 bd 4b 10 93 bc 87 4e 93 3d 12 6b 67 bd
       -0.059977427 -0.017952105 0.07192712 -0.056498595
000340 fa 4c 49 3d 9d 5d d8 bc dc 75 fc 3d cd 8e df 3d
       0.049145676 -0.026411826 0.123271674 0.10915909
000350 6f 07 19 bd 04 a9 ae 3c 64 c2 91 bd a0 46 11 3d
       -0.037360605 0.021320827 -0.07117155 0.035467744
000360 7a 88 40 bd 37 c7 c0 3d b7 e1 cb bd 87 3c a4 bd
       -0.047005154 0.09412997 -0.09955161 -0.08019357
000370 cd a9 3d ba 66 cc 84 bc 97 65 ac bd ab 25 71 3c
       -0.000723508 -0.016210746 -0.08417814 0.014718453
000380 91 c0 6c bc 0d 31 e6 3c 75 ed 96 bd 3c 45 b9 ba
       -0.014450208 0.028099561 -0.0736951 -0.0014135013
000390 e8 4c 1f 3b fa 1d eb 3d 46 cb 8d bd 78 01 4a bc
       0.0024307314 0.11480327 -0.06923537 -0.012329452
0003a0 16 ad fc 3b 40 b0 83 bd cb 76 af 3d 09 87 bf bd
       0.007711063 -0.064301014 0.0856758 -0.09351928
0003b0 49 5c e4 3b 10 89 ab bd 66 28 8f 3d fb f0 1c bd
       0.006969009 -0.08375752 0.06990127 -0.038315754
0003c0 89 9f 11 bd 45 d9 f5 3d 03 fe 5d 3b d8 30 aa 3d
       -0.035552535 0.120043315 0.0033873327 0.083100975
0003d0 58 48 f6 3d bc 7e d9 3d 7a ec 06 ba b2 1a cf 3d
       0.12025517 0.10619876 -0.0005146932 0.101125136
0003e0 c9 40 c7 3c 40 14 64 3a fb c2 6c bc 81 61 59 3d
       0.024322884 0.0008700527 -0.014450784 0.053071503
0003f0 92 e0 25 bd 37 3f 82 bb 54 ac 91 bd 90 66 de bd
       -0.04049737 -0.003974821 -0.07112947 -0.10859406

bias f4 [64]
000000 07 6c eb 3b 6f 79 dc bd 28 dd ee 3d 94 f2 53 3d
       0.0071845087 -0.10765349 0.11663276 0.051745012
000010 aa 43 d3 3c b9 09 80 bc b8 81 73 3d e7 90 1b 3d
       0.0257891 -0.015629636 0.05944988 0.037979987
000020 6e 3b b8 bd 27 e0 ef 3d 0a bc 03 3d 1a 1e c1 3d
       -0.0899571 0.117126755 0.03216175 0.094295695
000030 46 ec 8a bd 71 49 e6 bd 94 0e cb bd 81 00 ac 3c
       -0.06783347 -0.112444766 -0.0991489 0.020996334
000040 bb 93 6e bd 00 99 84 bd 13 ea dd bd b8 22 b9 bd
       -0.058246356 -0.06474495 -0.10835662 -0.09039825
000050 6f b4 bc bd 04 a2 41 3c c3 a6 f5 3d ae c0 ce bd
       -0.092141025 0.011818413 0.11994698 -0.100953445
000060 21 c5 b0 bd 55 61 e0 bd 7f 15 c6 3c e6 03 1a 3d
       -0.08631349 -0.109560646 0.024180172 0.037601374
000070 cd 33 5d 3d 42 99 2d bd 91 ab a9 3d 3e 5e 33 bd
       0.05400448 -0.042382486 0.08284677 -0.04379105
000080 61 f0 4d 3d 6b cf ad 3d 13 be fd bd 8c 16 80 3d
       0.05027807 0.084868275 -0.123897694 0.062543005
000090 1e fe f9 bd 0d e0 80 bc 99 b0 ad bd ec 13 e0 bd
       -0.12206672 -0.015731836 -0.08480949 -0.109413
0000a0 e4 8c 1e 3d 7a 1d 8b bd 2a 83 04 bd 1b 69 a2 3d
       0.038708583 -0.067927316 -0.03235165 0.079302035
0000b0 8e 0b 9c bc 85 69 21 bd 9c a3 47 3b 1a 52 83 bd
       -0.019048478 -0.039407272 0.003046251 -0.06412144
0000c0 bb 7a 65 ba 62 20 8a 3d 52 a0 08 bd 90 9e 9c 3d
       -0.0008753945 0.06744458 -0.03335602 0.07647431
0000d0 49 87 92 bd ea 6e c5 bd 2b ec 4e 3d c4 76 ea 3d
       -0.0715471 -0.09640296 0.050518196 0.11448434
0000e0 14 32 c0 bd b3 67 a2 3d 06 93 bc 3d 71 d0 b3 bd
       -0.09384552 0.07929935 0.0920773 -0.087799914
0000f0 df 5d 27 bd 9d 72 01 3e 1f 4f 92 3d b3 b4 e4 3d
       -0.040861007 0.12641378 0.071439974 0.11167278
