2023/baseline0806/model/WLTP_trained/PPO_actorcritic_20epoch.pt (torch, 53473 bytes, 11 tensors)

weight f4 [128, 7]
00000000: 3cdf a83e 8da8 06be 45ef a03e 0143 03be
00000010: 1842 77be 0c7e acbe 1418 883e 509f 8dbe
00000020: 461d a8bd 4931 533e 790d ccbd b63a d93d
00000030: a4f8 03be 5c0c 893e 6701 b1bc 36ff 73bd
00000040: e67e 17be 1250 753d e668 d43c 0c86 28bd
00000050: e4b7 2cbe ab2a 713d 261d 363e 6c67 963e
00000060: 01f0 5e3e d286 8bbe c37e 85be e877 47bd
00000070: 694a a3be 641c 27be 9ce1 91be 6f1f 15be
00000080: 4882 6a3e 8573 213e 1a39 36be ad8d b0bb
00000090: 09fa 67be 3183 ae3d 2c2a 943d 0a86 3d3e
000000a0: 076a 99bc 5646 d0bd da0b 4fbd 398c 973e
000000b0: 8586 ddbd 96db b83e e287 243e d551 7cbc
000000c0: 2029 3d3e 1b5b 30be 44e7 58be 47c9 ee3d
000000d0: 8d58 a33e c1c9 79be 280e 953e e803 903e
000000e0: 96e1 57be 2fc1 9f3e 58f4 4abc 1360 aabc
000000f0: 0aff 4bbc e448 993e 1850 c0be 007b a63c
00000100: 8b37 fcbd 81c3 7ebe 18c6 1fbe 0a87 783e
00000110: 98d4 9cbe 5e68 a33e 474e 55be 8e6a 6bbd
00000120: 1603 61bd 9a64 7ebe 285d 18be 6f2c 7bbe
00000130: 29c1 993d 71a6 7f3e 3e60 0bbc 4f05 b83e
00000140: 7689 853e 8468 0bbe 2ce6 cc3d 5b15 dabd
00000150: 64a0 b7be 80cc 333e 533d 7fbe c5ab 5e3e
00000160: e2d5 893d 623e 8bbe 5cbb d5bd c502 ad3e
00000170: 5a13 95be eb3f 03be 7d7d 20be ca86 ad3e
00000180: 00f9 9f3e 4acc a7bd cdd7 41be 833d 0dbd
00000190: a479 bebe 194b b0be 3c01 283e a648 813e
000001a0: aa12 963e 320b 99be 5257 6c3e c604 7c3d
000001b0: 6449 c2be 8a14 953e 2a8b 04be 6887 39be
000001c0: 6afd b73e ef49 58be 4930 883d c825 c23c
000001d0: 9d4a 993e e5f1 443d aada 5abd fc2f 4bbe
000001e0: c34f 263e db5c 82be f23d bdbc a653 8a3e
000001f0: 7351 b53e a24e 49be 7385 04be bde5 71bd
00000200: 7aad 37bd 1555 aabd a35d 90be c4db 82be
00000210: 3feb 453e 0f22 6d3c 7128 20be a6ee 093e
00000220: 38d6 81bd 3751 833e 1074 a1be 2358 253d
00000230: db63 353e a636 a4be 82ee a5be 7e89 a7be
00000240: 668f 16bb 7303 743e e3eb d93c 2ad3 05be
00000250: d1df 9c3e 604b 6fbe 7794 2ebd 345d 63be
00000260: 58b4 893d b847 a7bd c969 3b3e 5253 38be
00000270: d184 97be cbff 9c3e b175 693e e6a7 b2be
00000280: 83d3 b7be 968b 17be fdd9 8d3e 955d 7ebe
00000290: ee72 72bd 0bdb afbe 372f a4be 2e85 8b3e
000002a0: 541a 853c 0b2f 093d 93fd 56be 1b33 1e3e
000002b0: 9a3b b93e ca8d a13e dd86 2c3c 32c5 61be
000002c0: d163 07bb 4913 1bbe aba8 433e f234 533d
000002d0: 670c b33e b17a 22be 1e93 21be 41f5 033e
000002e0: 9928 a0be 9f57 9e3d 8698 26be 3a30 62be
000002f0: a7e8 55be c194 2f3e 7c34 9fbe 2280 8cbe
00000300: 5d53 86be fbee 9dbe 9350 85be d45c bcbe
00000310: 5fd6 93be 0bc5 213e 18b3 18be a5d0 9a38
00000320: 5aa9 8cbe da21 9dbe 161f 7bbe d9a0 75be
00000330: e11b 753d 8ac5 433e cfaf 20bb 0d01 6e3d
00000340: af8b 0e3e a716 30be 4b5b 663e e68f b03e
00000350: 489b 7f3e 6bd2 843e ea26 1bbe 8282 33be
00000360: d1e7 bdbe 4420 a03e 7274 90be c86e 593e
00000370: 85a8 b03e f266 783e a47d 55bb 5286 89be
00000380: acab c03e aa3b d33d 6939 803d 4979 3bbe
00000390: 5df5 cc3d abd8 7abe fcaf 5cbe 660a a03e
000003a0: 1117 b0bd 5969 b4be 6e48 613e 4af6 debd
000003b0: ca62 913e a9b3 93be eea7 58bb 7685 babe
000003c0: 6327 b8be 0466 a83e b452 7d3e 3113 35be
000003d0: 9d83 07be a501 a4be 396a 65be 472f 92be
000003e0: 2a6a 3b3e 411a 8e3e c984 83be 7c26 663e
000003f0: 8750 6b3e 8072 853e 0042 abbe 2a7b d23d
0.32982814 -0.13150235 0.31432548 -0.12818529 -0.24146307 -0.33689916 0.2658087 -0.27660608
-0.082087085 0.2062427 -0.09963507 0.10606901 -0.12887818 0.26767242 -0.021607114 -0.05956956
-0.14794502 0.059890814 0.025928926 -0.041143462 -0.16867024 0.058878582 0.17784557 0.2937578
0.21771242 -0.27251297 -0.26073274 -0.048698336 -0.31892708 -0.16319424 -0.2849244 -0.14562772
0.22901261 0.15766723 -0.1779522 -0.005387983 -0.22653975 0.085211165 0.07234606 0.18508163
-0.018727316 -0.101696655 -0.050548412 0.2959917 -0.10816673 0.3610503 0.1606746 -0.01540037
0.18472719 -0.17222254 -0.21181971 0.11659484 0.31903496 -0.2439337 0.29112363 0.2812798
-0.21082148 0.31202075 -0.012387358 -0.020797765 -0.012450943 0.29938424 -0.37561107 0.020322323
-0.123152815 -0.24879266 -0.1560291 0.24270263 -0.30630946 0.31915563 -0.20830642 -0.057474665
-0.054934584 -0.24843064 -0.14879286 -0.24528669 0.075075455 0.24965836 -0.008506833 0.3594155
0.26081437 -0.13614088 0.10004839 -0.106486045 -0.35864556 0.1755848 -0.24925737 0.21745212
0.06730248 -0.27196032 -0.104361266 0.33791175 -0.29116327 -0.12817352 -0.1567287 0.33891898
0.3124466 -0.08193262 -0.18929978 -0.03448249 -0.3720218 -0.34432295 0.16406721 0.2525074
0.29311115 -0.29891354 0.23080185 0.06152799 -0.37946618 0.29117233 -0.12943712 -0.1811806
0.35935527 -0.21121953 0.06649835 0.023699656 0.29939738 0.04808225 -0.05343119 -0.19842523
0.16241364 -0.25461468 -0.023100827 0.27016944 0.35413703 -0.19658902 -0.12941532 -0.059056986
-0.044843175 -0.08317009 -0.2819644 -0.25558293 0.1932802 0.014473452 -0.15640427 0.13469943
-0.06339687 0.256479 -0.3153386 0.040367257 0.17713873 -0.32072943 -0.3240853 -0.32722086
-0.0022973656 0.23829441 0.026601737 -0.13068834 0.30639508 -0.23368597 -0.042622056 -0.22203523
0.06723851 -0.08167976 0.18302073 -0.18000534 -0.29593518 0.30663905 0.22798802 -0.3489372
-0.35903558 -0.14799342 0.27705374 -0.24840386 -0.059191637 -0.34346804 -0.32067272 0.27250046
0.016247906 0.03349213 -0.20995168 0.15449183 0.36178285 0.3155349 0.010530201 -0.2204788
-0.002065886 -0.15144075 0.1910731 0.051564164 0.349704 -0.15867116 -0.15778777 0.12886526
-0.31280974 0.07731556 -0.1626912 -0.2208871 -0.20889531 0.17146589 -0.3109473 -0.27441508
-0.26235476 -0.3084639 -0.26038036 -0.36789572 -0.2887449 0.15797822 -0.14912069 7.382155e-05
-0.27472955 -0.3068989 -0.24523577 -0.2398714 0.05984104 0.19118324 -0.0024518853 0.05810647
0.13920473 -0.17196141 0.22495763 0.34484786 0.24961579 0.25941786 -0.15151563 -0.17530254
-0.37090924 0.31274617 -0.2821384 0.21233666 0.3450357 0.2425802 -0.0032576108 -0.2686029
0.37630975 0.103141144 0.0626095 -0.18307985 0.10007737 -0.24496715 -0.21551508 0.31257933
-0.085981496 -0.35236624 0.22000286 -0.1088682 0.28395683 -0.28848007 -0.0033059078 -0.36429948
-0.3596755 0.32890332 0.2473858 -0.17683102 -0.132338 -0.32032505 -0.22403802 -0.28551695
0.18302217 0.27754405 -0.25687245 0.22475618 0.22979937 0.2606392 -0.33448792 0.10277398

bias f4 [128]
00000000: 1f77 6ebe cd4e 5d3e b48d 60bd 5896 b5be
00000010: 9147 573e 25b0 21be 6925 10be 7cac a23d
00000020: 0fed 15bd 76ac 453e 10f0 aebe 7456 cebd
00000030: 461c f6bd e785 35be 4b7a 8b3d c134 ae3e
00000040: af76 adbe 3983 32be dde9 70ba 5ea0 003e
00000050: ffc6 b03e 6a5e 93be a7a5 383d 3595 ad3e
00000060: 1fa6 90bd 715d 66be 372e 123e d8a7 4c3e
00000070: f001 763e cd7a dbbd 9dfa 1ebe 61b1 2ebe
00000080: 2632 903e f45e 43be ab5f 5b3e f853 8abe
00000090: cbc0 2abe 02cb 65be c1b3 183e 6fb3 1c3d
000000a0: 2f83 803c 2683 18be 8deb e93d ba4a aa3e
000000b0: 53ac 90be 152a 5f3e f1a5 46be 32c6 3a3e
000000c0: bea6 8f3e de46 3abe 712c aa3e 8a43 bd3b
000000d0: f0b1 86be 042c 5a3d aa65 0abe 1ca5 59be
000000e0: cd8b 44be c820 35be 038f 8fbe bcb3 1d3e
000000f0: 91a8 b13e 67dd 0a3c 510b 003e fcf5 2e3c
00000100: 42a3 be3e cd82 abbd f2f1 14bd e712 b0be
00000110: 4ff9 283e 108d 1dbd 8332 1c3e 7a6d bbbe
00000120: f216 803e 399d b93e ce3a 533e 31db 99be
00000130: 6ed7 34be b541 773e 1e33 a83d e363 b73e
00000140: c1d2 513e 412d 903d 9bb1 7fbe 0155 95be
00000150: c751 6d3c d8da 8c3e de81 00be 1b36 02be
00000160: 2fd6 bb3e 6379 46be c565 b8be 0199 99bd
00000170: 67af 433e 1ab1 6cbe ac1b 38be 3fb9 a2be
00000180: cf8e 8f3d 1af7 0d3e f66c b9be 7e86 233e
00000190: f802 eb3d 5999 b5bd 8ec5 19bd 8384 50bd
000001a0: fa42 b13e db7f 27be ce60 a2be 690e c03e
000001b0: 8f6b 813e 6567 3ebb 5be5 ba3d e042 823e
000001c0: d83c 1dbe 3a54 df3b d6c2 a8be 927b 933c
000001d0: e9ce b03e e7a4 a8be fa50 bb3e c418 44be
000001e0: 2ab4 8abd b460 7dbd 6b9d a53e 7be3 a6be
000001f0: 3d08 9abe cc0e 45be afdd bcbe f780 a0be
-0.23287629 0.21612091 -0.05482264 -0.35466266 0.21023394 -0.1578985 -0.14076771 0.07943055
-0.03660303 0.1930407 -0.34167528 -0.100750834 -0.120171115 -0.17726861 0.06810435 0.34024623
-0.3387961 -0.1743287 -0.0009190122 0.12561175 0.34526822 -0.2878297 0.045079853 0.33902898
-0.07062935 -0.22496583 0.14275442 0.19985902 0.24024177 -0.10716782 -0.15525289 -0.17059852
0.2816326 -0.1907919 0.21423213 -0.27017188 -0.16675107 -0.22440723 0.1491232 0.03825706
0.015687553 -0.14893779 0.11421881 0.33260137 -0.28256473 0.21793397 -0.19399239 0.18239668
0.28056902 -0.18191096 0.3323703 0.0057758735 -0.2630763 0.053264633 -0.13515344 -0.2125439
-0.19193955 -0.17688286 -0.28038797 0.15400594 0.34698918 0.008475638 0.12504317 0.010678764
0.3723393 -0.08374558 -0.03636355 -0.3438942 0.16501354 -0.038464606 0.15253644 -0.3660696
0.25017506 0.36252764 0.20627901 -0.30050042 -0.17660305 0.24146159 0.08212875 0.35818395
0.20490552 0.070398815 -0.24970095 -0.29166415 0.014484829 0.27510715 -0.1254954 -0.12715952
0.36686847 -0.19382243 -0.36015144 -0.07499886 0.1910988 -0.23114434 -0.17979306 -0.31781957
0.070096605 0.13863793 -0.36215943 0.15969273 0.114751756 -0.08867139 -0.03754192 -0.050907623
0.34621412 -0.16357367 -0.3171448 0.37510994 0.25277373 -0.0029053327 0.09125777 0.25441647
-0.15355241 0.0068154605 -0.32961148 0.018003259 0.3453286 -0.3293831 0.36585218 -0.19150072
-0.06772645 -0.0618598 0.32346663 -0.3259543 -0.3008441 -0.19243926 -0.3688788 -0.31348392

weight f4 [64, 128]
00000000: 9259 fabc 4608 833c c6e3 b1bd 7a90 5cbb
00000010: 76e6 07bd 971e adbd a193 843d c2dd a83d
00000020: 6135 febc 8f8b a93d 4ff5 a8ba 2f5d adbd
00000030: 9b03 1dbd eb85 70bd 1ce7 30bd 6049 b3bc
00000040: 916e b4bd 0958 783d c063 3fbd d4a1 6fbc
00000050: 1dd7 cdbc a498 0fbd 0875 abbd 8110 1a3d
00000060: d457 7d3d 0552 67bd 8172 563d 4dc5 aa3c
00000070: 2d66 91bd 059b b8bc fdef 4dbd 9cf3 82bd
00000080: f83a 47bd 0428 c23c c284 80bd f23e 943d
00000090: 571d 573d de49 9fbd 5248 a6bd 0aae 8cbc
000000a0: ce15 5a3c e70b 7a3d 55e0 8cbd 0302 113d
000000b0: c2c2 73bd e718 81bd d5e5 97bd bf8d 8b3d
000000c0: 3e3c b53d 8892 8b3d 8c4e 88bc 5812 59bd
000000d0: 0588 31bc 069d f7bb b484 ad3d fe56 5cbd
000000e0: fd16 9b3d d578 e43c bf44 7a3d 2ad1 32bb
000000f0: dad4 9e3d cbab b33b 59ad 973d 34f8 243d
00000100: 74c9 3b3d 8998 a43d 0c1d a93d e948 42bd
00000110: 03f8 94bd 6ed6 d03b 9838 0d3d fa05 1a3d
00000120: cecc 133d 2c97 b9bc cb77 9f3d 9422 583d
00000130: 05b8 e5bc ae31 e23b 40e1 333d 8beb 26bd
00000140: 74b3 6dbb ee9b b63d 9422 763d f48d 41bd
00000150: cc28 c5bc e50b 9abd 0916 d9bc feae 7a3d
00000160: 6acb b6ba d079 953d c381 c5bc 2ddb 92bd
00000170: aebb 033d efbf 03bc f369 0eb9 d3ba 55bd
00000180: e721 8bbd cac8 9dbd 1ded 41bd 54ac d8bc
00000190: 3984 7fbd 20f7 0dbd 4547 8f3b ae0b 923b
000001a0: 3aad c43c c6ed b13c 9102 17bb b26a 893c
000001b0: 099e 0d3d 59b0 833d 9b4b 9fbd 77fc 503d
000001c0: e015 efbb 9ab3 113d 1c6d c9bc 7d35 8f3d
000001d0: 5f73 87bd 2b12 7bbd 9012 d73b 6ba0 573d
000001e0: 5fb1 663b ed84 88bd be55 cebc b10a 9f3d
000001f0: aafb c3bc a02a 1a3d fb1e 823d 198f a1bd
00000200: 9794 6a3d 2b77 063d 97a0 903d f9da 4a3d
00000210: 3716 2b3d d48a 90bd 9e09 a93d de30 f83c
00000220: 5c4f cabc 86f7 e6bc 05de 95bd f603 d93c
00000230: e065 a4bd 11a5 923d b62d 12bb 8410 683d
00000240: 5fca 1ebd a7f2 483d a31b 9dbc dbe2 5b3d
00000250: 860a 9ebb 8484 9c3d cc96 21bd 6876 843d
00000260: 6d88 753d e502 9c3d 4d35 ddbc 597f 1f3d
00000270: d4b8 903d 3791 193d 561e 943d e0f3 833d
00000280: 6d11 013d 2538 49bd ae53 a7bd e7de 9abd
00000290: 464d 623d 8fec a63d 6261 e33c 66c6 283a
000002a0: 0510 80bc b555 bb3c f6dd 16bd 3e8d b3bd
000002b0: a695 093d 96fe 01bb 745e 72bd c5e7 57bd
000002c0: 2b35 92bb e827 a83a 0296 973d 3e1c 44bd
000002d0: bc8a 893c 60b5 59bc b350 8c3d 2f06 99bc
000002e0: e1f7 983c b9da 783d 47ff debc 2d5e 8b3d
000002f0: 2d73 a03d 7323 c7bc 90a2 a03d 8d4f 69bd
00000300: 7da9 ac3d 719d 773d afce e93b cbc7 873d
00000310: 6d8a 3cbd b90d 25bd 5579 84bd 8b83 e8bc
00000320: 4ce2 893d 701c cfbc c47e 67bd b75d 8c3c
00000330: 6e03 98bd 03b3 e13c c196 b13d 9c9d 973d
00000340: 4599 4ebd e48e 613d 9837 8a3d 3f87 903d
00000350: 3ebe 5d3d fd1f 01bc 8cce 2ebd 4c71 283d
00000360: e64d 0c3d b750 b4bd 1179 883d 0a99 49bd
00000370: d4ec 083d bd46 903d 3539 0cbd 74b9 61bd
00000380: df46 4dbd d104 443c 93e6 963d 2f7f 98bb
00000390: 1d9f 033d f3c7 0abd 74fe 81bc ff2f 273d
000003a0: 0568 9dbc 585b 9c3d 519c 4b3c e8e2 383d
000003b0: fc11 dc3c 2550 b5bd ef5b 11bd 8d24 5abd
000003c0: a5a3 7cbd d4d6 f23c 8797 3c3a 6a68 0bbb
000003d0: 06a1 853d b003 9bbd ffb6 153c a380 b93b
000003e0: 59b7 3abd 7a0c cd3c b0d1 4c38 9fa4 57bc
000003f0: dbc1 31bd e4f2 023d d962 02bd 35d1 16bd
-0.030560289 0.015995156 -0.086860225 -0.003365545 -0.03317877 -0.084531 0.064734705 0.08245422
-0.031031312 0.08278572 -0.001289049 -0.08465039 -0.038333517 -0.058721464 -0.043189153 -0.021885574
-0.08810151 0.060630832 -0.04672599 -0.014625985 -0.025126988 -0.03505768 -0.08371931 0.037613396
0.061851338 -0.056474704 0.052355293 0.020846033 -0.070995666 -0.022534857 -0.0502777 -0.06394121
-0.04864022 0.023700722 -0.062753215 0.07238568 0.052518215 -0.07777761 -0.08119263 -0.017172832
0.013310863 0.061046507 -0.068787254 0.03540231 -0.059511907 -0.06303578 -0.07416884 0.06814145
0.08849381 0.06815058 -0.016639017 -0.05299601 -0.010835652 -0.0075565604 0.08472577 -0.0537939
0.07572744 0.027889648 0.061100718 -0.0027285316 0.07755442 0.005483126 0.0740611 0.040275767
0.045846418 0.08036906 0.082574934 -0.047432814 -0.07273867 0.0063732183 0.0344778 0.037603356
0.03608399 -0.022655092 0.077865206 0.05276735 -0.028041849 0.006902895 0.043915987 -0.040751975
-0.0036270292 0.0891646 0.06009157 -0.047254518 -0.024067305 -0.075218 -0.026499765 0.06120204
-0.001394612 0.072986245 -0.024109727 -0.07170711 0.032161407 -0.008041366 -0.00013581644 -0.052180123
-0.06793576 -0.07704313 -0.04734527 -0.02644936 -0.062381957 -0.034659505 0.0043725097 0.0044569587
0.024008382 0.021719825 -0.0023042301 0.01677451 0.034574542 0.0643012 -0.077780925 0.05102202
-0.007296309 0.035571672 -0.02458816 0.06992624 -0.06613802 -0.061296623 0.006563492 0.05264322
0.0035200936 -0.066659786 -0.02518737 0.07765711 -0.023923714 0.037638307 0.06353565 -0.07888622
0.057270613 0.03282849 0.0706188 0.049525235 0.041769233 -0.07057729 0.082537875 0.03029674
-0.024696045 -0.0281942 -0.073177375 0.026491147 -0.080272436 0.0716039 -0.0022305078 0.056656376
-0.038767215 0.049059536 -0.019178217 0.053683143 -0.004823032 0.07642463 -0.03945045 0.06467897
0.05994456 0.076177396 -0.027002955 0.038939808 0.07066503 0.037492003 0.072323486 0.06443
0.03151076 -0.04912581 -0.081702575 -0.075620465 0.055249475 0.08150589 0.027756397 0.0006438255
-0.015632639 0.022868017 -0.036832772 -0.08767174 0.03358998 -0.0019835583 -0.05917211 -0.052711267
-0.0044619045 0.0012829276 0.074016586 -0.047878496 0.016789787 -0.013287872 0.0685133 -0.018679706
0.018672885 0.060755465 -0.027221335 0.06805072 0.07834468 -0.024308896 0.07843506 -0.05696063
0.08430765 0.060452882 0.0071352343 0.06629904 -0.04603045 -0.04029629 -0.06468455 -0.028383037
0.06732616 -0.025282115 -0.056517377 0.01713453 -0.07422529 0.02755118 0.08671332 0.074031085
-0.050439138 0.05506791 0.06748885 0.07057046 0.054136507 -0.007881162 -0.042677447 0.041123673
0.034253977 -0.08804458 0.066637166 -0.049218215 0.033428982 0.07044742 -0.034234244 -0.055108503
-0.050116416 0.011964039 0.07368197 -0.0046538333 0.032134164 -0.033882093 -0.015868403 0.040817257
-0.01921464 0.0763461 0.012427405 0.04513827 0.026864044 -0.08853177 -0.035488065 -0.053257514
-0.0616795 0.029643454 0.000719421 -0.0021271952 0.065248534 -0.07569063 0.009137868 0.0056610866
-0.04558501 0.025030363 4.8832677e-05 -0.013161807 -0.043397766 0.03196992 -0.03183255 -0.03682061

bias f4 [64]
00000000: 6df8 5bbd 0023 b4bd 10eb 8dbd 16cc 043d
00000010: e626 063d 28f8 ae3d f909 79bd 01d8 413d
00000020: 3b2a e9bc bb57 8f3d f9a6 903d 29a5 f3bc
00000030: 475a b0bd 0650 87bd 19ba afbd d64b 65bd
00000040: 0485 593d b282 eabc f984 8ebd b110 68bd
00000050: e487 9e3d 2878 8a3d 5940 1f3d 867b 633d
00000060: 4078 9c3c 2119 90bb 8511 febc ae26 aabd
00000070: 0cad 74bd 2db6 09bd 24e5 0f3d 0c0a 773d
00000080: ce73 553c d057 aabd 33bb 97bd 694c b13d
00000090: 7667 693d 9570 763d 7e34 42bd 6354 a93d
000000a0: 7d98 97bd cfd0 8ebd 0d47 a93d a472 763d
000000b0: 926c 153d 1aa4 013d 1ef4 69bc d9c6 aabd
000000c0: 9df3 a33d a424 3fbd 6046 9c3d 3b45 843d
000000d0: e366 903d 4b13 bf3b beb3 2a3c edea ff3c
000000e0: a7a5 c1bc 1560 7fbd ac9a 233d 10e1 57bb
000000f0: 656d 4b3d 1fea 133d e3f4 a6ba 219b 1e3d
-0.053703714 -0.08795738 -0.069296 0.032421194 0.03275194 0.08543426 -0.060800526 0.047325138
-0.02846252 0.06999155 0.070630975 -0.02974184 -0.08610969 -0.0660706 -0.08580417 -0.055980526
0.05310537 -0.028626774 -0.06958956 -0.056656543 0.07740763 0.06761199 0.038879726 0.055537723
0.019100308 -0.004397527 -0.031014213 -0.08308159 -0.059735343 -0.033621002 0.035130635 0.060312316
0.013028098 -0.0831753 -0.07408752 0.08657152 0.056983434 0.06016596 -0.04741334 0.082680486
-0.07402132 -0.06973421 0.08265505 0.060167924 0.036480494 0.03165064 -0.0142793935 -0.083387084
0.0800545 -0.046665803 0.076306105 0.06458517 0.07050874 0.0058311573 0.01041883 0.031239951
-0.02363856 -0.06234749 0.03994243 -0.0032940544 0.049664874 0.036111947 -0.0012737777 0.03872216

weight f4 [32, 64]
00000000: 7fa5 febd e1af febd 2d52 193d d895 0bbd
00000010: 33c1 c83d 6681 5d3b 0876 e6bd 48fa b73d
00000020: 2aed 913d 2019 9dbd d105 9d3d 4b87 5a3b
00000030: 31ac 7abd 7d3b 86bd edb4 a0bd f8a8 2bbd
00000040: 5157 b6bd 075e 4abd af74 5c3d bb7d 923d
00000050: 9bcb e13d e58f 803d 2f06 f6bd 64fd 993d
00000060: d581 d0bc 6af5 2b3d b07f c83c fa4a d8bb
00000070: 53be 9fbd 30ef 77bd 8ae8 763c b74e 513d
00000080: 793b fabd ced9 9cbd e111 b1bd c152 eb3d
00000090: df29 bdbd a783 25bc be60 3fbd 1b94 233c
000000a0: fd23 ae3d 2907 dc3d 35e1 c6bd 043b 5a3d
000000b0: 0ca8 74bd ad37 ed3d f4f4 92bc 4755 a53d
000000c0: 9082 1ebc e490 f63d 2b81 5dbd ca8a 93bd
000000d0: 6109 7f3b c83f de3c 3337 643d 1049 473d
000000e0: 70ed babd e979 663d c9a7 8cbd fd14 7e3d
000000f0: 50a0 3fbb c004 3c3c f787 c3bd b021 883c
00000100: 0ccd 9fbd 38e2 92b8 c199 f4bb bb69 c53d
00000110: 925c ae3d 2b68 453c 00e8 74bd 08f4 31bd
00000120: 8346 51bb e69a ecbc eea4 bb3d 73a3 b0bd
00000130: 181d d33d 30aa b43b 5c58 00bd da23 f0bc
00000140: 5010 84bc a849 b53d f5d5 50bd 2ebe 193d
00000150: 8664 d03d e424 163d 7cfd e93c 0137 aa3d
00000160: abab 9ebd a839 c9bc 6c4e 51ba 1e28 a43d
00000170: 5ae3 c63d 2384 983d 8dc5 b3bc 1628 7dbc
00000180: eecf 5c3d 3c44 6ebd 7689 f9bd 2980 9e3d
00000190: c298 a83d 32f3 d93c 1b5a 453d d988 aabc
000001a0: 8a6d 0fbd 0a11 f63d 5bdd 17bd bae0 84bd
000001b0: 93c6 843d c848 a1bd eb74 ebbb 042d 473d
000001c0: 5da9 d83d 5be8 283d a142 f7bc da99 56bd
000001d0: f0a4 2e3d 5c9e c13d 3658 80bc a6fe a5bd
000001e0: 8860 de3c 2bfd 9bbc 301d a4bd 2fb9 e73b
000001f0: e888 f93c 9ed7 e13d 2470 dbbd 2368 b73c
00000200: 7d27 39bc c0ac 9ebc ea4b 07bd b44b 273d
00000210: 308c c93d 8df1 843b f0e1 da3d fbcd 51bd
00000220: 7383 5f3d f168 a63c 013c c33d 8d21 edbd
00000230: 905b 5abd 2ec1 88bd 0b5b 433d 79fd b0bd
00000240: cb1b 90bc 060a 753d 6d96 3b3d 8dfd 7cbc
00000250: b547 81bd 40ff 1cbb b47d 7ebd 69f1 cdbc
00000260: 9880 5a3d 204a a6bd 5106 84bd 6add c4bd
00000270: 9261 e0bd c359 883d 9054 e1bb 6c7b a9bc
00000280: 84f4 e3bd c482 883d e1b4 863d 11b6 773d
00000290: b99b c1bd 1035 4e3d 5812 e5bd eb34 acbc
000002a0: 7436 5a3d 9c81 8c3d 50c7 b0bd eca2 86bd
000002b0: f503 963c bb1d c23d 56f0 eebd a2a5 eb3c
000002c0: 4ebd b8bd 5780 e83d 3623 cabd 09de acbc
000002d0: 3609 1bbd a801 fd3d c7e6 7c3b 10ec d5bd
000002e0: afd2 893d 37d2 ffbc a21c 8f3d 3c54 5ebc
000002f0: 29bb 933d 8051 42bb 66da a33c fab3 8cbd
00000300: 3fec bb3d 20d0 9cbd 463e f0bd bc34 863d
00000310: 5c78 e73d 24b0 f0bd efd2 c33d a0f8 54bd
00000320: a341 8d3d 8180 2ebc 12e5 823d 482c 88bd
00000330: d98a 333c a519 f9bd 70c4 153d a769 d6bc
00000340: f618 8b3c d1a3 3c3d 4aa7 d3bc 17ff a83c
00000350: 001e fd3d ab8a d5bd a819 6ebd 6d34 de3c
00000360: a2a4 f9bd 2861 b6bd c482 bd3d cd5a b93d
00000370: e07a bbbd b88a 803b 8e74 363d 5570 143d
00000380: e385 1d3d a1f4 b43d 400d 4f3d 6611 c53d
00000390: b466 95bb 6a2f 03bc 8755 a3bd e934 a73d
000003a0: a195 c1bd be6a 723d 9da6 bbbd ae9c b5bd
000003b0: b6d4 933d 4932 453d 58fb e0bd 78c8 cb3d
000003c0: 8a4c 833b e948 cdbd 085e 783d 1888 12bc
000003d0: 1f45 dcbd 91d8 edbd 208e c9bc 0a92 c13d
000003e0: 8c15 583d 03c5 2dbd 38cb 3f3d 2c8d bebd
000003f0: ebf7 cf3d 8e98 f9bd 9bea 8b3d 2a4c e13d
-0.124339096 -0.1243589 0.037431885 -0.03407845 0.09802475 0.0033799051 -0.112529814 0.08983284
0.071253136 -0.07670808 0.07667125 0.00333448 -0.06119937 -0.06554315 -0.07847009 -0.041909188
-0.08903373 -0.049406078 0.053822216 0.071528874 0.11025163 0.06277446 -0.12012898 0.075190336
-0.025452534 0.041982092 0.024474949 -0.006600735 -0.07799973 -0.06053084 0.01507009 0.05110046
-0.12218375 -0.076587304 -0.08645988 0.114903934 -0.09236502 -0.010102189 -0.04672312 0.009984042
0.08502958 0.10743553 -0.097109236 0.053278938 -0.059730574 0.11582885 -0.017939068 0.08072906
-0.009674683 0.120393544 -0.054078262 -0.07204206 0.0038915502 0.027130023 0.055716705 0.048653662
-0.09127319 0.056268606 -0.0686794 0.062031735 -0.002923984 0.011475742 -0.095474176 0.016617626
-0.078027815 -7.003959e-05 -0.007464618 0.09639307 0.0851375 0.012048761 -0.059791565 -0.043445617
-0.0031932897 -0.028882455 0.09162317 -0.086249255 0.103082836 0.005513452 -0.031334266 -0.02931397
-0.01612106 0.088519394 -0.050985295 0.037534885 0.10175423 0.036656275 0.028563254 0.083112724
-0.07747587 -0.024563625 -0.0007984403 0.08015464 0.097113326 0.07447078 -0.021944785 -0.015451452
0.053909235 -0.058170542 -0.12184422 0.07739288 0.08232261 0.026605222 0.048181634 -0.020817207
-0.035016574 0.12014969 -0.037076335 -0.06488176 0.064831875 -0.0787521 -0.0071855686 0.048626915
0.105791785 0.041237216 -0.030183138 -0.052392818 0.042637765 0.09454033 -0.015667062 -0.08105211
0.027145639 -0.019041618 -0.080133796 0.007071636 0.03046079 0.11027454 -0.107147485 0.022388523
-0.011300919 -0.019369483 -0.03303138 0.04084368 0.09841192 0.0040571154 0.106876254 -0.05122183
0.05456872 0.020313712 0.09532929 -0.11578665 -0.053309977 -0.06677471 0.047694247 -0.08642096
-0.017591378 0.059824012 0.045797754 -0.015441311 -0.06312505 -0.0023955852 -0.0621316 -0.025139527
0.053345293 -0.08119607 -0.06446517 -0.09612544 -0.1095611 0.06657746 -0.0068765357 -0.020688735
-0.11130622 0.066655666 0.06577469 0.060476366 -0.0945353 0.050343573 -0.111851394 -0.021021327
0.053274587 0.068606585 -0.08631766 -0.06574044 0.018312434 0.09478327 -0.11666934 0.028765503
-0.09020482 0.11352604 -0.09869997 -0.021101968 -0.03785058 0.123538315 0.0038589702 -0.10445416
0.06729638 -0.031228168 0.06987883 -0.013569888 0.07213432 -0.0029650629 0.020001601 -0.06870265
0.0917592 -0.07656884 -0.11730628 0.06553027 0.113022536 -0.11752346 0.09561717 -0.05199492
0.06897285 -0.010650755 0.06391348 -0.06649071 0.010958397 -0.121630944 0.03656429 -0.026173426
0.016979676 0.046054665 -0.025836606 0.020629449 0.12359238 -0.104268394 -0.058129936 0.027124608
-0.12189604 -0.0890525 0.09253457 0.09050522 -0.09154296 0.0039227866 0.04454475 0.03623994
0.038457762 0.08835722 0.050549746 0.09622459 -0.0045593623 -0.00800691 -0.079752974 0.08164389
-0.094523676 0.05918383 -0.09162638 -0.08867775 0.07218306 0.04814366 -0.1098544 0.09950346
0.004006927 -0.10023672 0.06063655 -0.00894358 -0.10755371 -0.116135724 -0.024603903 0.09451683
0.052754924 -0.042424213 0.046824664 -0.0930427 0.101547085 -0.121873006 0.06831857 0.11000855

bias f4 [32]
00000000: 23e0 cc3d 2044 92bd 0684 16bd 9067 023d
00000010: fb46 3abc 29bb cabd f85e 7fbd 63c5 12bb
00000020: cca5 2fbc d8fc 92bd 5147 84bd 013b 6b3d
00000030: fedf 9abd 7430 b3bd e0d7 9bbd af70 a2bd
00000040: 5229 2b3d c10e cabd 7224 94bd b035 653c
00000050: 83fe 093d 8db8 703d 44c2 283d 52a4 ddbc
00000060: a3bc e43d dfd5 33bd abb4 583b 5979 8bbd
00000070: 84bd 7c3d 3b09 9f3d 70d9 e03c e81c 243d
0.10003688 -0.071419 -0.036747 0.031837046 -0.011369462 -0.09898979 -0.06234643 -0.0022395484
-0.010720681 -0.07177132 -0.06458915 0.057429317 -0.07562254 -0.08749476 -0.07609534 -0.07931649
0.041787453 -0.09866095 -0.07233514 0.013989851 0.033689987 0.05876975 0.04120089 -0.027055893
0.11168792 -0.043905135 0.003306667 -0.068102546 0.061704174 0.077654324 0.027447432 0.04006663

weight f4 [2, 32]
00000000: c047 b7bd b2d2 07be f1e1 3cbd 15be 813c
00000010: b875 99bd 3894 bebd 2528 e5bd 2921 173e
00000020: 49b7 293b c7f3 fbbd f124 06be af8c 15bd
00000030: 04e9 cb3d 7b70 5abd b567 2e3b 248f 313d
00000040: 0275 193e e279 9dbc 2b4e 1e3e fe19 f33d
00000050: cf1e f63d c1ff cd3d b15e 453d e7f2 20be
00000060: 1b6c 303e 6f4b aa3d c478 213e e42e 31be
00000070: 5fae 143d b97c 0e3d 265b 9dbd 644f 01be
00000080: e846 0f3d 5092 673c e686 a9bd 7e13 e43d
00000090: ce0d 34bd 48b6 2e3e 38e4 29be c8a8 01be
000000a0: 6c0f 1ebc 96bf 283d 8ba1 973d b673 203e
000000b0: 44e9 f93d 7d2e 953d 44d4 d1bd b3eb b5bd
000000c0: e352 e43d cf0e 5bbd cc47 eebc 092d bfbd
000000d0: 6ba2 bbbd bb5c 873d 6b28 2ebe defa b5bc
000000e0: f89a 4ebd b949 c83b 4b88 113d 5d0a d2bd
000000f0: 7a11 223e 0d73 1d3e d40e f8bd d0fd 66bd
-0.08949232 -0.13263968 -0.046113912 0.015837708 -0.07493156 -0.09305614 -0.111892976 0.14758743
0.00258966 -0.12302356 -0.1310003 -0.03651112 0.099565536 -0.053329926 0.0026612107 0.0433494
0.14986041 -0.019223157 0.15459506 0.11870192 0.12017595 0.10058547 0.048186008 -0.1571766
0.17228739 0.08315169 0.15768725 -0.17303044 0.036299106 0.034786914 -0.07683401 -0.12627941
0.03497973 0.014134005 -0.08277683 0.1113653 -0.043958478 0.17061722 -0.16590965 -0.12662041
-0.009647232 0.041198336 0.07403859 0.1566914 0.12202695 0.072842576 -0.102455646 -0.08882847
0.11148622 -0.05348092 -0.02908697 -0.09334762 -0.09161838 0.06609484 -0.17007606 -0.02221435
-0.05044076 0.006112304 0.03553037 -0.10255883 0.1582698 0.1537592 -0.12112203 -0.0563944

bias f4 [2]
00000000: 81d5 133e 1580 833d
0.14436914 0.06420914

weight f4 [2, 32]
00000000: ef45 213e 39e3 cb3d 6f9b 18bd b86f d63d
00000010: 5f4e f43c e688 073a b87d f4bc 7bce a3bd
00000020: 3d27 fa3d 5c86 1cbe fea7 063e 09b7 ed3d
00000030: 0882 23be 237d 1b3e f77e 24bb 0f16 073e
00000040: 200f 1e3d 5b83 ffbd 7adc 5c3d e5a0 0e3d
00000050: 35ce 1abe 3d66 c33d 07ff 4d3d 4ed4 d23d
00000060: 4213 883d 7714 27be 045f 1b3e 3fdd 7c3d
00000070: d5fe d03d a826 143e 7734 b6bd 8a8e 04be
00000080: b06c 8abd f13e a23d eb75 063e c355 f6bd
00000090: 82cb 06bd af3f 1b3e bc88 103e 17d2 1cbd
000000a0: b40e cd3d 6005 943d 2cb4 34bd 437e 7e3d
000000b0: bc88 e33c e73e 8bbd ce1a 173e f291 b9bd
000000c0: af43 043b cd1f e9bc b3d1 b13d 3110 58bc
000000d0: 99f6 643d eb28 27be df8a 133e e16f d83c
000000e0: a51f bb3d 499a cbbd 8bed 203e 3ce1 a5bd
000000f0: 2006 1cbd 0bca 87bd 47be cbbc f8f9 04be
0.15749334 0.09955449 -0.037257608 0.104705274 0.029822526 0.0005170241 -0.029845104 -0.079983674
0.12214515 -0.15285629 0.13150021 0.11607177 -0.15967572 0.15184455 -0.002510009 0.13192008
0.038588643 -0.12476226 0.0539212 0.03482141 -0.15117724 0.09540985 0.05029204 0.102944
0.06644298 -0.163164 0.15172964 0.061734434 0.10204855 0.14467871 -0.088967256 -0.12945
-0.06759012 0.07922161 0.1313092 -0.120280765 -0.032908924 0.15161012 0.1411466 -0.038286295
0.1001257 0.07227588 -0.044117138 0.06213213 0.027775161 -0.06799107 0.14756319 -0.0906104
0.0020181944 -0.028457547 0.08682575 -0.013187454 0.055899236 -0.16324203 0.14408444 0.026420536
0.09136895 -0.09941537 0.15715615 -0.08099601 -0.03809178 -0.066303335 -0.024871005 -0.1298598

bias f4 [2]
00000000: 2553 1ebe a7c3 0cbe
-0.15461405 -0.1374651

weight f4 [1, 32]
00000000: 23b9 2abc 0089 303c 4eb4 033e 7beb 033d
00000010: baae b73d be71 25be 3170 8a3d 61ee 94bd
00000020: a3c6 13be 69c3 fd3d d2ef 763c f1a0 f53d
00000030: c20b ec3d b96b d9bd 7ccc ef3d 9157 90bd
00000040: a7d1 343e 3533 d73d 768a f03d 76b8 22be
00000050: a14c e23d ee03 31be 37df 95bc 18c0 5ebb
00000060: cce3 82bc b20f a53d 0efd 893d 0284 2a3e
00000070: 8b06 383e 54bc 1abd d898 20be 2d00 20bd
-0.010420117 0.010774851 0.1286175 0.032206994 0.08968873 -0.1615667 0.0675968 -0.0727203
-0.14431243 0.12390787 0.015071826 0.11993588 0.1152568 -0.106162496 0.11708924 -0.07047952
0.17658101 0.10507814 0.11745159 -0.15890679 0.11049772 -0.17286655 -0.018294914 -0.0033989009
-0.015977763 0.08059634 0.067377195 0.1665192 0.17971246 -0.03777726 -0.15683305 -0.039062668
