2023/baseline0806/model/WLTP_trained/PPO_actorcritic_10episode.pt (torch, 101271 bytes, 17 tensors)

weight f4 [128, 7]
0	0xbc83b719	-0.016078519
1	0x3af72f6a	0.0018858735
2	0x3e464ed7	0.19366013
3	0xbd7e00a9	-0.06201235
4	0xbe5d0055	-0.21582158
5	0x3e8d4fce	0.2759995
6	0x3e271489	0.16316427
7	0x3e7ccf00	0.24688339
8	0x3e50c3e0	0.2038722
9	0x3e6f999e	0.23398444
10	0x3e07f963	0.13278727
11	0x3d8e4bff	0.06948089
12	0xbe2a76f2	-0.16646937
13	0x3e0c1e04	0.13683325
14	0xbdbad125	-0.091219224
15	0x3e888d3e	0.2667026
16	0xbe3deb56	-0.18546805
17	0x3bda1acc	0.0066560265
18	0xbb5d270a	-0.0033745193
19	0xbe408e62	-0.18804315
20	0xbea40aa1	-0.3203936
21	0xbe82237b	-0.25417694
22	0xbebc6238	-0.36793685
23	0x3e6508ab	0.22366588
24	0x3e84ab3a	0.25911885
25	0xbebe42d0	-0.3716035
26	0xbe455913	-0.1927226
27	0xbe9b421c	-0.30323875
28	0xbe7fc18b	-0.24976175
29	0x3ea12095	0.3147017
30	0x3e8bf3cd	0.27334443
31	0x3e8390fd	0.25696555
32	0xbd9de8d8	-0.07710427
33	0xbe69fcb6	-0.22850308
34	0xbdc9fb08	-0.098623335
35	0x3e9c6257	0.30543777
36	0xbdd2c4ef	-0.10291468
37	0x3e1ebc7d	0.1550159
38	0x3de86573	0.11347475
39	0x3e373242	0.17890266
40	0x3d1731be	0.036912672
41	0x3e6a3c86	0.2287465
42	0xbcfe2616	-0.03102402
43	0xbd54420a	-0.051820792
44	0xbdd91ae0	-0.10600829
45	0xbcb8f5e3	-0.022578185
46	0x3d483279	0.04887626
47	0xbe97133a	-0.29506856
48	0xbe8783be	-0.264677
49	0xbe21c250	-0.1579678
50	0xbe8e5573	-0.27799568
51	0x3c05ea4b	0.008173536
52	0xbde245a3	-0.110484384
53	0xbded203e	-0.11578415
54	0x3dcef6fb	0.101057015
55	0xbeb360ff	-0.3503494
56	0x3e16c589	0.14723791
57	0x3e99cfed	0.30041447
58	0xbe8b3f63	-0.27196798
59	0x3e0eec26	0.13957271
60	0x3de4190b	0.11137589
61	0x3bbc8baf	0.0057539563
62	0x3e80e55d	0.2517499
63	0xbe8ca069	-0.27466133
64	0xbeb44976	-0.35212296
65	0x3e61efb8	0.22064102
66	0xbe3cb646	-0.18428907
67	0xbd23462a	-0.039861836
68	0xbe69a78d	-0.22817822
69	0x3e751b24	0.23936135
70	0xbe4250f7	-0.18976198
71	0x3c807421	0.015680375
72	0xbd1aa993	-0.037759375
73	0xbe475c31	-0.19468762
74	0xbe448c5d	-0.1919417
75	0xbc331239	-0.010929638
76	0x3e920a8e	0.28523678
77	0x3e511b8f	0.20420669
78	0x3e772368	0.241346
79	0x3e92c0e4	0.2866279
80	0x3e922398	0.2854278
81	0xbe214946	-0.15750608
82	0xbe394d73	-0.18095951
83	0xbebaab85	-0.36458984
84	0x3e17a35a	0.14808407
85	0x3e26b338	0.16279304
86	0x3d384e0e	0.044996314
87	0xbe89b911	-0.26899007
88	0x3d9156db	0.070966445
89	0x3e0e83b0	0.13917422
90	0xbe83022b	-0.25587592
91	0xbe43c253	-0.19117098
92	0xbea3f6e5	-0.32024303
93	0x3e1e646d	0.15467997
94	0x3e9eb204	0.3099519
95	0x3c7c6df9	0.015407079
96	0xbeb68343	-0.3564702
97	0xbeafacd3	-0.34311542
98	0xbe2bbfcc	-0.16772383
99	0x3b3e5cd1	0.0029047022
100	0xbde787a5	-0.11305169
101	0xbd9f09ac	-0.07765517
102	0xbe19fff2	-0.15039042
103	0x3dcd8df9	0.10036845
104	0xbe9f9e14	-0.31175292
105	0xbd5c6a82	-0.05381251
106	0xbea4f8ba	-0.32221013
107	0xbe3d6b44	-0.1849795
108	0xbec27ea1	-0.37987235
109	0xbe7f4a46	-0.24930677
110	0xbe8888d1	-0.26666883
111	0xbec4e0f9	-0.3845289
112	0x3cda1ffc	0.02662658
113	0xbe3f3af6	-0.18674836
114	0xbd16d351	-0.03682262
115	0xbd9c0f1b	-0.07620069
116	0x3e81943a	0.253084
117	0x3d9e4614	0.0772821
118	0xbe3a964c	-0.18221396
119	0xbe5c4e0e	-0.2151415
120	0x3e56cce8	0.20976603
121	0xbe0c79e9	-0.1371838
122	0x3c0ddbe5	0.008658384
123	0x3e83ee47	0.2576773
124	0x3e6447c0	0.22292995
125	0xbe8a68f1	-0.2703319
126	0x3e6082d1	0.21924902
127	0xbe84634f	-0.25857016
128	0x3e9af1de	0.30262655
129	0x3e49db14	0.19712478
130	0xbb8e323a	-0.0043394836
131	0xbda71ee7	-0.08160191
132	0xbdf10f77	-0.11770528
133	0x3e6c689c	0.2308678
134	0xbdc843cd	-0.09778557
135	0xbe9f731d	-0.31142512
136	0x3d5d2dce	0.05399876
137	0x3df03d4c	0.117304415
138	0xbeb3727f	-0.3504829
139	0xbe3d9fa1	-0.18517925
140	0xbe964feb	-0.29357848
141	0xbec005e6	-0.375045
142	0xbc5a3c5c	-0.013320055
143	0xbe23ec42	-0.16008094
144	0xbe1ea90e	-0.15494177
145	0xbd91fa99	-0.07127876
146	0x3d921537	0.07132953
147	0xbdfa28d3	-0.12214818
148	0x3e25c417	0.16188084
149	0x3e9a318b	0.30115923
150	0xbe3ffd97	-0.1874908
151	0x3e378d00	0.17924881
152	0x3e17a143	0.1480761
153	0x3ea7868a	0.32719833
154	0xbe592378	-0.21204937
155	0xbe9e65fd	-0.30937186
156	0x3e701634	0.2344597
157	0x3e892403	0.26785287
158	0xbd414af5	-0.047190625
159	0x3d869eb5	0.0657324
160	0xbcc8d5cb	-0.024516007
161	0xbd39573c	-0.04524921
162	0xbe667140	-0.22504139
163	0x3dbe912b	0.09305032
164	0x3e843711	0.25823262
165	0xbe7fbe05	-0.2497483
166	0xbeafa4bb	-0.34305367
167	0xbd5e54ce	-0.054280095
168	0xbe838807	-0.25689718
169	0xbe6f438e	-0.23365614
170	0x3e9f19a7	0.3107426
171	0x3c105b84	0.0088108815
172	0x3b4c0bd3	0.0031134977
173	0xbe149fa5	-0.14514025
174	0xbe995e69	-0.29954842
175	0x3e6c2404	0.23060614
176	0xbd1106da	-0.035406925
177	0xbe23fa63	-0.16013484
178	0x3e75e701	0.24013902
179	0xbe524f2c	-0.20538014
180	0x3e863fc0	0.26220512
181	0xbe1d0e23	-0.15337424
182	0xbda8b9d0	-0.08238566
183	0x3e192d8d	0.14958782
184	0xbdb18b47	-0.08669143
185	0x3eb2a2f1	0.3488994
186	0xbcc3541f	-0.023843823
187	0x3e20871c	0.1567654
188	0xbe8aa18d	-0.27076378
189	0x3d954fef	0.07290637
190	0x3e3a07e8	0.18167078
191	0xbe641933	-0.22275238
192	0xbeb181ae	-0.3466925
193	0xbe824d9d	-0.2544984
194	0x3e989aec	0.29805696
195	0x3df75622	0.120769754
196	0x3ebe70b3	0.37195358
197	0x3e1bb9d2	0.15207604
198	0x3e201e3a	0.1563653
199	0xbe8da450	-0.27664423
200	0x3d323b8e	0.043513827
201	0x3e1aa045	0.151002
202	0xbe9b85db	-0.3037556
203	0x3e44c607	0.19216166
204	0xbe2bd9a4	-0.16782242
205	0xbe3f57c9	-0.18685831
206	0x3e865abb	0.26241097
207	0x3e412215	0.18860658
208	0xbe65918b	-0.22418801
209	0xbcef79c1	-0.029232861
210	0x3d1524cd	0.03641205
211	0x3d3b4a0e	0.04572492
212	0x3e3290ee	0.17438099
213	0x3e866231	0.2624679
214	0x3e807b04	0.25093853
215	0x3e3de789	0.18545355
216	0xbd8ae83a	-0.06782575
217	0xbd8ecf3c	-0.069731206
218	0xbd8c23a0	-0.068427324
219	0xbe9950c6	-0.29944438
220	0x3d9148f1	0.070939906
221	0xbe64318e	-0.22284529
222	0xbe257d9a	-0.16161194
223	0xbe9dd7c0	-0.30828667
224	0xbdc9ccf4	-0.09853545
225	0xbe7d3d39	-0.24730386
226	0x3e46f463	0.19429164
227	0x3d1315e3	0.035909545
228	0x3eb0c600	0.34526062
229	0x3e408b47	0.1880313
230	0x3e155556	0.14583334
231	0xbe078f08	-0.13238156
232	0xbeb5ea8d	-0.3553051
233	0x3eb934bc	0.36173046
234	0xbebdfbb2	-0.3710609
235	0xbe53e314	-0.20692092
236	0xbde3c227	-0.11121016
237	0xbe80754e	-0.25089496
238	0xbe9707c7	-0.2949812
239	0xbe62c5dd	-0.22145791
240	0xbe9f148c	-0.31070364
241	0x3c3c761f	0.011502772
242	0xbe5b7f3f	-0.2143526
243	0xbbe821b4	-0.007084096
244	0xbe352976	-0.17691597
245	0xbd6473d4	-0.055774525
246	0x3eb95f04	0.36205304
247	0x3e893de0	0.2680502
248	0xbe230677	-0.15920435
249	0x3e827a85	0.254841
250	0xbeadbdfc	-0.3393401
251	0xbd878928	-0.06617957
252	0x3c85351a	0.016260672
253	0xbe7eccc8	-0.24882805
254	0x3d5d3568	0.05400601
255	0x3ec9049f	0.39261338

bias f4 [128]
0	0x3d9952e8	0.07486516
1	0xbe9af1b6	-0.30262536
2	0xbd8ed989	-0.06975085
3	0x3ca4b7be	0.020107146
4	0xbe370924	-0.1787458
5	0x3e1d6363	0.15369944
6	0xbdb5447c	-0.08850953
7	0x3df2d100	0.1185627
8	0x3d178b56	0.036998115
9	0xbeaf7564	-0.3426925
10	0xbd98f4d8	-0.07468575
11	0xbe07e62b	-0.13271396
12	0x3e6ccf8a	0.23126045
13	0x3e055501	0.13020708
14	0x3d8e5963	0.06950643
15	0xbebb40e7	-0.36572954
16	0xbe86cad2	-0.26326615
17	0xbea50ab7	-0.32234737
18	0xbc93d993	-0.018048083
19	0x3df7720e	0.12082301
20	0xbe7536c4	-0.23946673
21	0xbdd939c3	-0.1060672
22	0x3eab6a43	0.3347951
23	0xbc365b58	-0.0111301765
24	0x3e316994	0.17325431
25	0x3ddad45d	0.10685036
26	0xbdd5d351	-0.10440696
27	0x3e77b395	0.24189599
28	0xbe2c828d	-0.16846676
29	0xbe84d79a	-0.2594574
30	0xbec37b55	-0.38180032
31	0x3d49ffdd	0.049316276
32	0x3e3fe5d6	0.18740019
33	0x3ea30095	0.31836382
34	0x3e0be9a0	0.1366334
35	0x3e81132c	0.2520994
36	0x3d8894a4	0.06668976
37	0xbda0c2bc	-0.07849643
38	0xbe429ab4	-0.19004327
39	0xbe6ced67	-0.23137437
40	0xbe59cc66	-0.21269378
41	0x3e5b6397	0.2142471
42	0x3e816c3a	0.25277883
43	0x3e9086c7	0.28227827
44	0x3e9abe26	0.30223197
45	0x3d7b4f5f	0.06135499
46	0x3e6382bc	0.2221784
47	0xbe0e75b5	-0.13912089
48	0x3ea621f0	0.32447767
49	0x3eb52be2	0.35385042
50	0x3e1c5768	0.15267718
51	0x3e78e725	0.24306925
52	0x3ebee573	0.3728443
53	0x3eb33abd	0.3500575
54	0xbe993e6a	-0.2993043
55	0xbdd5488f	-0.1041423
56	0xbeb2d4e8	-0.3492806
57	0x3e537396	0.20649561
58	0x3eaa27ef	0.33233592
59	0x3d8677df	0.06565832
60	0x3d600839	0.05469534
61	0x3e9c971c	0.30584037
62	0x3e8aa9b9	0.27082613
63	0x3e61b55d	0.22041841
64	0xbe9d3676	-0.30705613
65	0x3e212e81	0.15740396
66	0x3ebacf8a	0.36486465
67	0xbeba4762	-0.36382586
68	0xbe256305	-0.16151054
69	0x3ec53c0e	0.3852238
70	0xbeb55565	-0.35416713
71	0xbdec4161	-0.115359075
72	0x3ea48b23	0.32137403
73	0x3e0666f5	0.13125212
74	0x3de75272	0.11295022
75	0x3d791759	0.06081328
76	0xbe841fb6	-0.25805444
77	0x3db255b9	0.087077565
78	0x3d4752d6	0.048662983
79	0xbe8680d9	-0.26270178
80	0xbe492f1b	-0.19646876
81	0x3ba51368	0.005037714
82	0x3d14dd8f	0.036344107
83	0xbdf7f12c	-0.12106547
84	0x3e69ccae	0.22831985
85	0xbcfee8b8	-0.031116828
86	0xbe9dbb7d	-0.30807105
87	0xbe2d05f8	-0.16896808
88	0xbe5d1c39	-0.21592797
89	0xbe875db3	-0.26438674
90	0x3e5a4a7a	0.21317473
91	0x3c847e10	0.016173393
92	0x3dd0ac1f	0.101890795
93	0x3eb105ab	0.34574637
94	0x3d8e66c8	0.06953198
95	0x3e451ff2	0.19250467
96	0x3e814775	0.2524983
97	0x3cd7d787	0.026347889
98	0xbe3f5543	-0.18684869
99	0xbe9197b0	-0.2843604
100	0xbec37f0a	-0.3818286
101	0x3e3ee594	0.18642265
102	0xbea80fb2	-0.32824475
103	0x3e980651	0.2969232
104	0x3d2f5191	0.042802397
105	0x3e8d8e70	0.27647734
106	0x3e63f169	0.2226006
107	0xbe6e6c0f	-0.23283409
108	0xbe5743e1	-0.21021987
109	0x3df20128	0.11816627
110	0x3d91fccf	0.071282975
111	0xbe964796	-0.2935149
112	0xbe6137f4	-0.21994
113	0x3ea44c03	0.32089242
114	0x3e996e82	0.29967123
115	0xbeb039b6	-0.3441903
116	0xbe609515	-0.2193187
117	0x3ea220d1	0.31665662
118	0xbea6990b	-0.32538638
119	0x3e4ce7e0	0.20010328
120	0xbd83a45a	-0.06427832
121	0xbe9ca451	-0.30594113
122	0x3eab00f5	0.33399168
123	0x3c85f976	0.016354304
124	0xbdca0b2c	-0.09865412
125	0x3db1eb26	0.08687429
126	0xbdd950e4	-0.10611132
127	0xbe43d31f	-0.19123505

weight f4 [64, 128]
0	0x3d805ee8	0.06268102
1	0x3d8f8c88	0.07009226
2	0x3cd0505a	0.02542894
3	0xbdaa2b73	-0.083090685
4	0xbcb2e8b4	-0.021839477
5	0xbd99c74f	-0.07508718
6	0xbdb71630	-0.08939779
7	0xbc5f1dc1	-0.013617934
8	0xbd4d0052	-0.050049134
9	0x3d437363	0.047717463
10	0x3c8cba7b	0.017178765
11	0x3a7d08e9	0.0009652512
12	0x3d7427d0	0.05960828
13	0xbc7c558e	-0.015401257
14	0xbd3c0c80	-0.04591036
15	0x3ce8f39d	0.028436476
16	0xbd790c03	-0.06080247
17	0xbbda3f63	-0.0066603883
18	0x3bade000	0.005306244
19	0x3d1ed37a	0.0387759
20	0x3d673f5d	0.056456912
21	0x3d2de5f7	0.04245564
22	0xbd80944e	-0.06278287
23	0xbc98a0fa	-0.018631447
24	0xbd915927	-0.070970826
25	0x3da777e9	0.08177168
26	0xbcd6a70d	-0.026202703
27	0x3d451aef	0.04812139
28	0x3d487031	0.04893512
29	0xbd992a55	-0.07478777
30	0x3d847639	0.06467862
31	0xb7cad6fc	-2.4180386e-05
32	0x3d709ff6	0.0587463
33	0x3d835b87	0.06413942
34	0xbcc556d0	-0.024089247
35	0xbd9375a6	-0.07200174
36	0xbce6d86d	-0.028179372
37	0x3c49404d	0.012283397
38	0xbd887878	-0.066636026
39	0xbcb397b5	-0.021922925
40	0xbd9fa7c2	-0.07795669
41	0xbc1574de	-0.009122102
42	0xbd641bd1	-0.05569059
43	0xbd94715b	-0.07248183
44	0xbcd97897	-0.02654676
45	0x3d6314b0	0.05543965
46	0x3ce3cdec	0.027808152
47	0xbcdc8817	-0.026920361
48	0xbd172bad	-0.036906887
49	0xbd981a27	-0.07426863
50	0x3cade47f	0.02122712
51	0x3dc38e67	0.095486455
52	0xbd81657e	-0.06318186
53	0x3daf045e	0.08545755
54	0x3d57e309	0.052706752
55	0xbd396bc9	-0.045268808
56	0xbcab5235	-0.020913223
57	0x3cbe1f59	0.023208307
58	0xbc9e855c	-0.0193507
59	0x3d89ba28	0.067249596
60	0xbd41addc	-0.047284946
61	0xbd39caeb	-0.045359533
62	0xbd004370	-0.031314313
63	0xbd419215	-0.047258455
64	0x3da2e07c	0.07952973
65	0x3db63901	0.088975914
66	0x3c53b291	0.0129209915
67	0x3da04a7c	0.07826707
68	0x3d69ea88	0.057108432
69	0xbd7ddde0	-0.061979175
70	0x3cedce37	0.029028995
71	0x3bfdc5a7	0.0077445093
72	0x3d0e4687	0.03473523
73	0x3d812770	0.0630635
74	0xbdbc40e9	-0.09192068
75	0xbcb92414	-0.022600211
76	0x3d76dfa4	0.060271874
77	0xbd931e77	-0.07183545
78	0x3d734bc4	0.059398428
79	0x3d80984f	0.062790506
80	0x3dbd4c79	0.092431016
81	0x3d646005	0.055755634
82	0xbdac3721	-0.084089525
83	0xbcbde5d2	-0.023180876
84	0x3cf45518	0.029825732
85	0x3cdb8ce0	0.026800573
86	0x3cb5102f	0.022102444
87	0xbd6c789d	-0.057732213
88	0xbdcb62ed	-0.09930978
89	0xbda3d9b3	-0.08000507
90	0x3d64d114	0.055863455
91	0xbc0e3828	-0.008680381
92	0x3bd38a24	0.0064556766
93	0xbb8ea846	-0.004353556
94	0x3c007015	0.007839222
95	0xbd0695e2	-0.032857783
96	0x3d9c04d0	0.076181054
97	0x3d786e3a	0.060651995
98	0xbd1f232c	-0.038851902
99	0xbcb9b52a	-0.022669394
100	0xbd664a77	-0.05622336
101	0x3d95a7d1	0.07307399
102	0x3bc24ee1	0.0059298133
103	0xbd3e9928	-0.04653278
104	0x3d3805b5	0.044927318
105	0x3a830ead	0.000999888
106	0xbca9c773	-0.020724988
107	0x3d81b5c5	0.06333498
108	0xbd1e4ee1	-0.038649444
109	0x3da0bb1f	0.078481905
110	0x3da6248d	0.0811244
111	0xbd5faa79	-0.054605935
112	0x3d028861	0.031868342
113	0x3c95a97b	0.018269291
114	0x3b6e84c0	0.0036395043
115	0xb9c8463e	-0.00038199307
116	0xbc94378f	-0.018092899
117	0x3dabcfff	0.083892815
118	0xbb0a3686	-0.0021089627
119	0xbd662c78	-0.056194752
120	0x3da3f6d0	0.0800606
121	0xbc899500	-0.016794682
122	0xbd781646	-0.060568117
123	0xbd96b9a6	-0.073596284
124	0x3d13c0fc	0.036072716
125	0x3d8c132b	0.068395935
126	0xbd6d05a1	-0.057866696
127	0x3ca95c90	0.02067402
128	0x3c3449e9	0.01100395
129	0x3d9315c8	0.07181889
130	0x3d858cf6	0.06521027
131	0x3d834702	0.06410028
132	0xbd9ed496	-0.07755391
133	0x3d173b8b	0.03692202
134	0xbdbb6508	-0.091501296
135	0x3d5de23e	0.05417084
136	0xbcd1985f	-0.025585352
137	0xbcd494f6	-0.025949936
138	0x3d421849	0.04738644
139	0xbd255f8d	-0.040374327
140	0x3d893abf	0.06700658
141	0xbc949d65	-0.018141458
142	0xbd99b096	-0.07504384
143	0x3d598597	0.053105917
144	0x3c73a073	0.014869797
145	0x3ccee746	0.025256764
146	0x3cfc4b4f	0.030797629
147	0x3dae338c	0.085059255
148	0x3da19b43	0.07890942
149	0x3d216a2b	0.03940789
150	0x3d98420e	0.07434474
151	0xbd0e9915	-0.03481396
152	0x3cf1c89c	0.029514603
153	0xbd950dc8	-0.07278019
154	0x3d7ea19c	0.06216584
155	0x3d1232e2	0.035693057
156	0xbc7eaabd	-0.015543637
157	0xbdb4611d	-0.088075854
158	0xbd8457b8	-0.064620435
159	0x3d148dfe	0.036268227
160	0xbda301b1	-0.07959307
161	0x3b7e134f	0.0038768833
162	0xbd8ccd95	-0.06875149
163	0xbd87cf3e	-0.06631325
164	0x3da6f6bd	0.0815253
165	0xbcfb572b	-0.030681213
166	0x3dbc2d5d	0.0918834
167	0xbd7e5181	-0.062089447
168	0xbdbfb15f	-0.09360003
169	0x3d870ff7	0.06594842
170	0xbcce57c9	-0.025188344
171	0x3d017098	0.03160152
172	0x3c5bc99e	0.0134147685
173	0x3d5fde3f	0.05465531
174	0xbca1129f	-0.0196622
175	0x3d9118e4	0.07084826
176	0x3d1b9949	0.03798798
177	0x3ada9bb0	0.0016678479
178	0xbd096667	-0.033544924
179	0x3d03d997	0.03218993
180	0xbd43dc87	-0.047817733
181	0xbcc15a6f	-0.023602692
182	0xbd75151c	-0.059834585
183	0x3d626a15	0.05527695
184	0xbafe4819	-0.0019400149
185	0xbc64f017	-0.0139732575
186	0x3d33b4c7	0.043873575
187	0x3cd74edb	0.026282718
188	0xbdae286b	-0.08503803
189	0x3d82b598	0.063822925
190	0xbd4d9151	-0.050187413
191	0xbccb62b7	-0.024827344
192	0xbd9bf246	-0.07614569
193	0xbc3712d1	-0.01117392
194	0x3d23882f	0.039924797
195	0x3c28e0d3	0.0103075085
196	0xbcea792e	-0.028622236
197	0x3b57a273	0.0032903224
198	0xbc82a04c	-0.015945576
199	0xbc3f58fa	-0.0116789285
200	0x3d281bc6	0.04104211
201	0xbd80c098	-0.06286734
202	0x3cfec941	0.031101825
203	0xbd85666a	-0.065136746
204	0xbda9d9d3	-0.082935
205	0x39e50f51	0.00043689695
206	0xbd1c310b	-0.03813271
207	0x3d9bd03c	0.07608077
208	0xbc7f18fe	-0.015569923
209	0x3d16505e	0.036697738
210	0x3daac302	0.08337976
211	0x3d63b1cc	0.055589482
212	0xbcc265ee	-0.023730244
213	0xbd467fde	-0.048461787
214	0xbd99cf51	-0.075102456
215	0xbd769c52	-0.060207672
216	0x3d772369	0.060336504
217	0x3c06a825	0.0082188
218	0xbd5954ba	-0.053059317
219	0xbca0ba3b	-0.019620052
220	0x3cf96001	0.030441286
221	0xbd99da80	-0.07512379
222	0xbd9dde2f	-0.07708394
223	0xbc8edd47	-0.017439498
224	0x3c1879ce	0.009306384
225	0xbda2b4e7	-0.07944661
226	0x3d45f451	0.0483287
227	0x3c5f9ef4	0.013648737
228	0xbd5590c2	-0.052140005
229	0xbd2de6ac	-0.042456314
230	0x3cb3af60	0.021934211
231	0x3d789ad2	0.060694523
232	0xbcbb2a32	-0.022847269
233	0xbbb861e8	-0.0056269057
234	0xbd47417b	-0.04864643
235	0xbb26d10f	-0.0025454198
236	0xbd5045d9	-0.050847862
237	0xbcefacef	-0.029257266
238	0xbbf25a5f	-0.007396027
239	0x3b22b161	0.0024824964
240	0xbd4ee160	-0.050507903
241	0x3ba774b1	0.0051103462
242	0x3d947592	0.07248987
243	0x3d316f2d	0.043318916
244	0xbc9ad2dc	-0.018899374
245	0xbd5cd377	-0.053912606
246	0xbcaca67d	-0.021075482
247	0xbd0771ba	-0.033067442
248	0x3d0e6fa8	0.034774452
249	0xbccd16c4	-0.02503527
250	0xbda0951d	-0.07840941
251	0xbcd19edd	-0.025588447
252	0x3d3d43f5	0.046207387
253	0x3d1a43b4	0.037662223
254	0x3d7c980e	0.06166845
255	0x3d88bcb0	0.06676614

bias f4 [64]
0	0xbda29f8f	-0.0794059
1	0x3d9d9043	0.07693531
2	0x3b664420	0.003513582
3	0x3d98a276	0.07452862
4	0xbd7eae4d	-0.062177945
5	0x3dd66ace	0.1046959
6	0xbce7dcef	-0.028303592
7	0xb99e9b03	-0.000302516
8	0xbd883359	-0.06650419
9	0x3a7c9cf7	0.00096364267
10	0xbc7852f1	-0.0151564935
11	0xba79c5a5	-0.00095280475
12	0xbafa90af	-0.0019116605
13	0x3cde370c	0.027125858
14	0x3dac2cce	0.08406983
15	0x3d06152b	0.03273503
16	0xbd839284	-0.0642443
17	0x3d7ade34	0.061247066
18	0xbd88e551	-0.06684364
19	0xbdbb26de	-0.09138273
20	0xbd138090	-0.03601128
21	0x3b52dc42	0.003217474
22	0x3d6ae4ca	0.057347097
23	0xbca7fbaa	-0.020505745
24	0x3c5a3e03	0.013320449
25	0xbd1cbeda	-0.038267948
26	0x3d4ef6eb	0.050528448
27	0xbd8e7a6f	-0.06956946
28	0xbd1fe8df	-0.039040443
29	0xbc6dc5ca	-0.014512489
30	0xbdb24212	-0.08704008
31	0x3ca4305f	0.020042596
32	0x3d482e60	0.04887235
33	0xbd8cabc5	-0.068687
34	0xbd894bd0	-0.06703913
35	0x3db9c189	0.09070117
36	0xbd8d4cda	-0.06899424
37	0x3bbdae11	0.0057885726
38	0x3d9ea5d0	0.0774647
39	0x3cb9f17b	0.022698155
40	0xbc2e804f	-0.010650708
41	0xbcd49f75	-0.025954941
42	0xbd57d669	-0.05269471
43	0x3cd16a49	0.025563376
44	0x3d997528	0.07493049
45	0xbb8baf9c	-0.0042628776
46	0x3d8df77e	0.06931971
47	0xbd9bc18d	-0.07605276
48	0x3d117751	0.03551418
49	0x3d73f6b9	0.059561465
50	0xbdc0c1c4	-0.09411958
51	0xbd69842a	-0.057010807
52	0x3daeb85a	0.08531256
53	0x3c9854b5	0.018595079
54	0x3c47e94c	0.012201618
55	0x3d6a7dbd	0.05724882
56	0x3b997a68	0.0046837814
57	0xbd25712d	-0.040391136
58	0xbcca8d9b	-0.024725726
59	0xbcd9b2d2	-0.026574526
60	0xbda4ed2f	-0.08053052
61	0x3d5c1d8b	0.053739112
62	0x3d84abe8	0.06478101
63	0xbd3ac2b1	-0.04559583

weight f4 [32, 64]
0	0x3dfe7ed5	0.12426535
1	0x3cacf3c9	0.02111234
2	0xbbb98136	-0.005661155
3	0x3dfb8825	0.12281827
4	0xbcae0bc6	-0.021245848
5	0xbd92b1de	-0.07162832
6	0xbd886144	-0.06659177
7	0x3da183c4	0.078864604
8	0x3da8cd75	0.08242313
9	0xbda07c72	-0.07836236
10	0x3d6a81dd	0.057252754
11	0x3d55d669	0.05220643
12	0xbb2c6b67	-0.0026309134
13	0xbd3b919a	-0.045793153
14	0xbd75e11a	-0.060029127
15	0xbdf1c67c	-0.11805436
16	0xbdc7fa5a	-0.09764548
17	0x3d36e339	0.04465029
18	0xbd916237	-0.07098811
19	0x3df279e1	0.11839653
20	0x3c8c46ed	0.017123664
21	0xbdc9550c	-0.098306745
22	0xbcffae5b	-0.031211069
23	0x3d9f151e	0.077677
24	0xbe007ebe	-0.12548348
25	0x3c4ced52	0.012507753
26	0xbd3db1ee	-0.046312265
27	0xbdb09ea8	-0.08624011
28	0x3d7a549c	0.061115846
29	0xbe079749	-0.13241304
30	0x3d93f666	0.07224731
31	0x3d305a52	0.043054886
32	0xbdf28a8a	-0.118428305
33	0x3d74aadc	0.059733257
34	0x3deb7f9c	0.11498949
35	0x3d4d7d34	0.05016823
36	0xbde4ed31	-0.11178053
37	0xbdd2c5e5	-0.10291652
38	0x3d1f1a58	0.038843483
39	0x3da1ceb3	0.07900753
40	0xbd81fda6	-0.06347208
41	0xbd895b73	-0.06706896
42	0xbc1449b0	-0.009050772
43	0x3d2934a2	0.04130996
44	0xbdb27312	-0.08713354
45	0xbcbfb0c6	-0.023399722
46	0x3cd6c1df	0.026215492
47	0x3b2ae634	0.0026077153
48	0x3d57b320	0.05266106
49	0x3dcdcb59	0.10048551
50	0x3db4679d	0.08808825
51	0xbcf20aea	-0.02954622
52	0xbd58a774	-0.05289407
53	0xbd9c0994	-0.076190144
54	0xbd81362d	-0.06309161
55	0xbd407234	-0.046983913
56	0x3df7e0f6	0.12103455
57	0xbc192035	-0.009346058
58	0xbdfb8e7d	-0.12283037
59	0xbdcf3782	-0.10118009
60	0x3d10e944	0.03537871
61	0x3d15fdd2	0.036619015
62	0xbdb388b9	-0.08766312
63	0x3d8cefa0	0.06881642
64	0x3da9d555	0.08292643
65	0xbd9df4fe	-0.07712744
66	0x3d662102	0.056183822
67	0xbdc399fa	-0.09550853
68	0x3ddbe941	0.10737849
69	0x3d091fae	0.033477478
70	0xbdce816d	-0.1008328
71	0x3d05326e	0.032518797
72	0xbe01fdb4	-0.12694436
73	0x3de56d81	0.11202527
74	0xbd2035df	-0.039113875
75	0xbd2f1541	-0.04274488
76	0x3d975ad2	0.073903695
77	0x3dac1e87	0.0840426
78	0xbde0ae38	-0.109707296
79	0xbd0a852b	-0.033818405
80	0xbdc3a458	-0.095528305
81	0xbdf3b49f	-0.11899685
82	0x3cc09aa7	0.023511244
83	0x3d9394e6	0.072061345
84	0xbdaf2174	-0.085513026
85	0xbde568d0	-0.11201632
86	0xbde2d397	-0.11075514
87	0xba4708ad	-0.00075925404
88	0xbcee7e4f	-0.029112963
89	0x3b61aae4	0.0034434134
90	0xbcfa7d79	-0.030577408
91	0xbda83519	-0.082132526
92	0xbdd2bdb0	-0.10290086
93	0xbcf48027	-0.029846264
94	0x3df25f28	0.11834556
95	0xbd9e3ad6	-0.07726066
96	0x3d88f697	0.06687658
97	0x3c2b385e	0.010450451
98	0xbd42b90b	-0.047539752
99	0xbdface21	-0.12246347
100	0xbde77d36	-0.11303179
101	0x3d657349	0.056018148
102	0x3cc60807	0.02417375
103	0x3da68946	0.081316516
104	0x3df43371	0.11923874
105	0xbc230057	-0.0099488115
106	0x3c06791d	0.008207587
107	0xbd3e61fd	-0.046480168
108	0x3cca34cc	0.024683379
109	0xbd1e32a3	-0.03862251
110	0x3d92a97d	0.071612336
111	0x3cec9967	0.028881742
112	0x3d69693b	0.05698512
113	0x3d6b4df7	0.0574474
114	0x3c34a216	0.011024972
115	0xbd9dc94b	-0.07704409
116	0xbdd2820a	-0.10278709
117	0x3d18830c	0.03723435
118	0x3c11478a	0.008867154
119	0xbdf7b151	-0.12094367
120	0xbd7e7362	-0.062121756
121	0xbd8e0aaa	-0.06935628
122	0xbdd21db4	-0.10259572
123	0x3d04c1e5	0.032411475
124	0x3dc857e8	0.09782392
125	0xbda09366	-0.07840614
126	0x3da2c321	0.07947374
127	0x3b92cf1e	0.0044802567
128	0x3d12add2	0.0358103
129	0xbd81e8ef	-0.06343257
130	0xbdb72556	-0.08942668
131	0x3e0afdfd	0.13573451
132	0x3c7a515e	0.0152781885
133	0xbe089751	-0.13338973
134	0x3d83f60d	0.06443415
135	0xbd82824a	-0.06372507
136	0xbdda98e6	-0.10673694
137	0x3d8e7f1e	0.069578394
138	0x3daa3c11	0.08312238
139	0xbb057bbd	-0.0020367943
140	0xbd426b89	-0.047465835
141	0xbd0ced63	-0.034406077
142	0xbd8e02cb	-0.069341265
143	0xbda48d3a	-0.08034749
144	0x3deed908	0.11662489
145	0xbd5977b9	-0.053092692
146	0xbb51ac0d	-0.003199342
147	0x3d23a32a	0.039950527
148	0x3d6a52c1	0.057207827
149	0x3d736068	0.059418112
150	0xbbe72b08	-0.0070546903
151	0xbdbcad28	-0.092127144
152	0xbd89cca0	-0.06728482
153	0x3d8748e4	0.066057
154	0xbc246a4c	-0.010035109
155	0xbd3ffb6f	-0.046870645
156	0x3d1e82aa	0.03869883
157	0xbd317a83	-0.043329727
158	0x3e023932	0.12717131
159	0x3c99a8d9	0.01875727
160	0xbde1ee47	-0.11031776
161	0x3dede842	0.11616565
162	0x3d63c584	0.055608287
163	0xbcd9e573	-0.026598668
164	0xbda48e56	-0.08034961
165	0x3c71f7ae	0.014768524
166	0x3dfda7c9	0.12385518
167	0x3b8748f6	0.0041285707
168	0x3d6bed23	0.057599198
169	0xbdb2c652	-0.08729233
170	0x3db2c7d5	0.08729521
171	0x3d61690c	0.05503182
172	0xbcc3eb9d	-0.02391606
173	0xbd01c34b	-0.031680387
174	0xbe0391b7	-0.12848555
175	0xbd8e32fb	-0.069433175
176	0x3e06247f	0.1309986
177	0xbe1c8020	-0.15283251
178	0x3c025a22	0.00795606
179	0x3d4b01fa	0.049562432
180	0x3df06bfd	0.11739347
181	0x3d23337d	0.039844025
182	0xbd8a409c	-0.067506045
183	0xbd92b33a	-0.07163091
184	0xbe0e64d7	-0.13905655
185	0xbdd4b2ac	-0.103856415
186	0x3c9ee2e8	0.019395307
187	0x3d599709	0.053122554
188	0x3d576e83	0.052595627
189	0xbdfc34e9	-0.12314779
190	0xbdf602bf	-0.120122425
191	0xbc94b6e6	-0.018153619
192	0x3de4c801	0.1117096
193	0xbdce05e5	-0.10059718
194	0xbdff4296	-0.12463872
195	0x3dbacf87	0.09121614
196	0x3d380d35	0.04493447
197	0xbdf87174	-0.121310145
198	0xbd64b917	-0.055840578
199	0x3dd61a90	0.10454285
200	0xbc412c72	-0.011790382
201	0x3d626387	0.055270698
202	0xbc312801	-0.01081276
203	0x3d277d92	0.040891238
204	0x3d25ef0d	0.04051118
205	0xbdb8a4a1	-0.090157755
206	0xbdb4ea23	-0.088337205
207	0xbd439c17	-0.04775628
208	0xbc072a70	-0.008249864
209	0xbe0d98ba	-0.13827792
210	0xbdb32283	-0.08746817
211	0xbd57e630	-0.05270976
212	0x3d5a98b0	0.05336827
213	0xbdf76b3f	-0.120810024
214	0x3b85ffb1	0.0040893187
215	0x3dbb09be	0.091327175
216	0x3dfa24c0	0.12214041
217	0xbd0d18cd	-0.03444748
218	0xbcff4c01	-0.031164171
219	0xbb43075e	-0.002975903
220	0xbca1d197	-0.01975326
221	0x3dc34b8c	0.09535894
222	0x3d186d5e	0.037213676
223	0x3bc81385	0.0061058425
224	0xbd39e987	-0.045388725
225	0x3afa56ef	0.0019099395
226	0xbd9cd898	-0.076584995
227	0xbd03fa38	-0.03222105
228	0x3da0b856	0.07847659
229	0x3cf34845	0.029697547
230	0xbd26ef9c	-0.040755853
231	0x3d35d3c7	0.04439142
232	0x3da8c2ff	0.082403176
233	0xbde4c9a2	-0.11171271
234	0xbcf429c1	-0.029805066
235	0xbe04eaf5	-0.12980254
236	0x3dca06b2	0.09864558
237	0xbdc2708f	-0.09494125
238	0xbdb09909	-0.08622939
239	0xba02d23b	-0.0004990433
240	0xbdb596a9	-0.08866627
241	0xbd7bffc3	-0.06152321
242	0x3dd129aa	0.10213025
243	0x3dbf4baa	0.09340604
244	0x3d03a793	0.032142233
245	0xbd87b122	-0.06625582
246	0x3d51cefb	0.051222783
247	0xbcc8cd82	-0.024512056
248	0x3d0a2e17	0.03373536
249	0xbdbd4925	-0.09242467
250	0xbdbd6dc6	-0.09249453
251	0x3d3ddfa2	0.04635585
252	0xbcefc414	-0.029268302
253	0x3bb6e77a	0.0055817934
254	0x3a893ef2	0.001047103
255	0xbbe01d5f	-0.006839439

bias f4 [32]
0	0xbdcc7cc4	-0.09984735
1	0x3d3bebca	0.045879163
2	0x3c763b8e	0.015028847
3	0xbdc4a69c	-0.09602091
4	0x3d8819ee	0.06645571
5	0xbda73790	-0.081648946
6	0xbdb8e3f8	-0.090278566
7	0x3dedbdf5	0.11608497
8	0xbd5aadf9	-0.05338857
9	0xbdc93990	-0.09825432
10	0x3d0272b8	0.031847686
11	0xbd367550	-0.04454547
12	0xbd8882f8	-0.06665605
13	0x3d8ff213	0.07028594
14	0xbdbccd96	-0.092189
15	0x3c2c9968	0.010534622
16	0xbd81b34b	-0.063330255
17	0xbddf8003	-0.10913088
18	0xbd3194f5	-0.043354947
19	0x3d83c2b1	0.06433619
20	0x3daff48a	0.08591564
21	0xbd65162a	-0.05592934
22	0xbda32cc5	-0.079675235
23	0x3d9212ae	0.07132469
24	0xbdda5a9e	-0.10661815
25	0x3d4a84a1	0.04944289
26	0x3d30ac67	0.043133166
27	0xbde7fe93	-0.11327853
28	0x3dcfce4f	0.10146772
29	0xbdc21edd	-0.09478543
30	0x3d92d5b4	0.07169667
31	0xbd0cc723	-0.0343696

weight f4 [128, 7]
0	0xbe9c79be	-0.30561632
1	0xbeb560a8	-0.35425305
2	0x3e382180	0.17981529
3	0x3ea09c81	0.31369403
4	0x3e2f8cca	0.1714355
5	0xbcd45d22	-0.025923315
6	0x3e813f15	0.2524344
7	0xbec4ce5c	-0.3843869
8	0xbe6d149b	-0.23152392
9	0xbed941a8	-0.42432904
10	0xbd66baef	-0.056330618
11	0x3e1ec65e	0.15505359
12	0xbe095b05	-0.13413627
13	0xbec40619	-0.38285902
14	0x3dac445c	0.08411476
15	0x3d4cd88c	0.050011203
16	0xbe6fd067	-0.23419343
17	0xbdaedaaf	-0.08537804
18	0xbea2a098	-0.31763148
19	0xbe8c53ea	-0.2740777
20	0x3bdd00df	0.0067444886
21	0x3e4de25a	0.20105878
22	0x3da67165	0.08127097
23	0x3e863e07	0.26219198
24	0x3e7cf1e7	0.24701653
25	0x3e7f9e02	0.24962619
26	0x3e57c58f	0.21071456
27	0x3e93d352	0.28872162
28	0xbd283680	-0.0410676
29	0x3cee488e	0.029087331
30	0x3c0fee6c	0.008784872
31	0xbd8a25e8	-0.06745511
32	0x3e0a2154	0.13489276
33	0xbe4f420e	-0.20240042
34	0x3e4772ec	0.19477433
35	0x3e881472	0.265781
36	0xbeab905d	-0.33508578
37	0xbe0686e8	-0.131374
38	0xbe2d8dfb	-0.16948693
39	0x3e4af950	0.19821668
40	0x3ea584ea	0.32327968
41	0xbe075b71	-0.13218476
42	0x3eb3f4ae	0.35147613
43	0x3ed1909e	0.40930647
44	0x3e82e955	0.25568643
45	0xbea2b7da	-0.31780893
46	0x3e2335f0	0.15938544
47	0xbe407a66	-0.18796691
48	0xbe48d9ce	-0.19614336
49	0x3e8aab17	0.27083656
50	0x3c36aa25	0.011148964
51	0x3ecf1d9f	0.40452287
52	0x3e95745e	0.29190344
53	0xbe7a22c7	-0.24427329
54	0xbe95e441	-0.29275706
55	0xbe68b27f	-0.22724341
56	0x3d0fb551	0.035085026
57	0xbeca1377	-0.39467975
58	0x3dd40542	0.10352565
59	0xbdb4548a	-0.08805187
60	0xbe20de6d	-0.15709849
61	0x3e6e4337	0.23267828
62	0xbe672c98	-0.22575605
63	0x3e9f91bc	0.31165874
64	0xbe511ad9	-0.20420398
65	0xbe1612de	-0.14655635
66	0x3ec119b1	0.37714913
67	0x3e3ce779	0.18447675
68	0x3bba6fe4	0.005689608
69	0xbe50da22	-0.20395711
70	0x3ee4fc0f	0.44723555
71	0xbd135c1d	-0.035976518
72	0x3daec6b7	0.085339956
73	0xbdb50ee1	-0.088407286
74	0x3e13da94	0.1443885
75	0xbdbe7f70	-0.093016505
76	0x3ce51f33	0.027968979
77	0xbcb24a61	-0.021763982
78	0xbde5b6cd	-0.11216507
79	0xbeacc3e6	-0.3374321
80	0x3e832e3a	0.25621206
81	0xbe954b8e	-0.29159206
82	0xbe0cbcfb	-0.13743965
83	0xbec4402d	-0.38330212
84	0xbd4408b5	-0.047859866
85	0xbebe2323	-0.37136182
86	0xbe24e802	-0.16104129
87	0x3e6614f2	0.22468928
88	0x3e36cb7a	0.17851058
89	0x3e69f49f	0.22847222
90	0x3e7b729a	0.24555436
91	0xbd03b8e6	-0.032158755
92	0xbd9f8de3	-0.077907346
93	0xbba4104f	-0.005006827
94	0x3d9f4c71	0.07778252
95	0x3d06ab73	0.03287835
96	0xbe8ba8a7	-0.2727711
97	0xbe6b8659	-0.23000468
98	0x3e024493	0.12721471
99	0x3e8c0fd6	0.27355832
100	0x3e18aa16	0.14908633
101	0xbe815794	-0.2526213
102	0xbdee04a8	-0.11621982
103	0x3d4d8f2f	0.05018538
104	0x3e911e43	0.283434
105	0xbec2e73a	-0.38067037
106	0xbe4416a4	-0.19149262
107	0xbecf0266	-0.40431517
108	0xbea5f8d9	-0.32416418
109	0xbdbedf74	-0.09319964
110	0x3e92fd59	0.28708914
111	0xbec16ea8	-0.37779737
112	0x3d749c31	0.05971927
113	0xbe37cbe2	-0.17948869
114	0xbe30ab10	-0.17252755
115	0x3ea8eb45	0.32991996
116	0xbd00662a	-0.03134743
117	0xbddd7c7d	-0.1081476
118	0xbcf466b9	-0.029834138
119	0xbe93c8c8	-0.2886412
120	0xbeb59a47	-0.35469267
121	0x3e61caf4	0.22050077
122	0xbbf7c339	-0.007561114
123	0xbdae199c	-0.08500978
124	0xbd5dff4a	-0.05419854
125	0xbe45164c	-0.19246787
126	0x3ecc5278	0.3990667
127	0x3ca90abc	0.020635001
128	0xbe374f12	-0.17901257
129	0x3eb55110	0.35413408
130	0xbddc40ee	-0.10754572
131	0x3e4f9296	0.20270762
132	0xbe8d3b4c	-0.27584302
133	0x3e7d053e	0.24709031
134	0xbe32133c	-0.1739015
135	0x3e87f8ed	0.26557103
136	0x3ed0f660	0.4081297
137	0x3ea9be6c	0.33153093
138	0xbbc7562e	-0.0060832715
139	0x3e387da4	0.18016678
140	0x3e0ec705	0.13943107
141	0x3e600199	0.2187561
142	0x3edb5b0b	0.42842898
143	0x3d3e9e92	0.046537943
144	0x3e9bc449	0.3042319
145	0xbdb666cf	-0.08906328
146	0x3dfedef8	0.12444872
147	0xbe1197a0	-0.14217997
148	0x3cf3e9d6	0.029774588
149	0xbdd4df64	-0.10394171
150	0xbebf2854	-0.37335455
151	0xbe7696ae	-0.24080917
152	0xbe282b19	-0.1642269
153	0xbd82c8df	-0.06385969
154	0x3e4c30ad	0.19940443
155	0xbe5dac70	-0.21647811
156	0x3eb0612f	0.34449145
157	0x3eabc679	0.3354986
158	0x3e812037	0.2521989
159	0x3e4a8150	0.19775891
160	0x3d7cf52f	0.061757263
161	0xbe83d14f	-0.25745627
162	0xbdbf9e60	-0.093563795
163	0x3e6519af	0.22373079
164	0xbe9cb365	-0.30605617
165	0x3e4be476	0.1991137
166	0x3ecba65f	0.3977537
167	0x3e9e5f43	0.30932054
168	0x3eab7c4f	0.33493277
169	0x3e36e90b	0.17862336
170	0xbd86d193	-0.06582942
171	0x3cc9f883	0.024654632
172	0xbe3fb9f7	-0.18723284
173	0x3e2e0cd7	0.16997086
174	0x3d7e6f76	0.062118016
175	0xbd8a983a	-0.06767316
176	0xbd217dff	-0.0394268
177	0xbe92cbf2	-0.28671223
178	0xbe7884ef	-0.2426946
179	0x3e08d5a3	0.13362746
180	0x3ea54dc5	0.32285896
181	0xba96ace3	-0.0011495616
182	0xbeb7c826	-0.3589489
183	0xbebc55ee	-0.3678431
184	0xbd984ac9	-0.07436139
185	0xbecd7270	-0.4012637
186	0xbe99ff22	-0.30077463
187	0xbdc33bff	-0.09532928
188	0x3e03a4a5	0.12855776
189	0xbea7f7ab	-0.32806143
190	0xbcd437ed	-0.025905574
191	0x3df0b114	0.11752525
192	0xbba51725	-0.0050381594
193	0x3d38d0fd	0.04512118
194	0x3eacd7f2	0.33758503
195	0x3e2b9127	0.1675459
196	0x3ea4a565	0.32157436
197	0xbe246e44	-0.16057688
198	0xbe8605b9	-0.2617624
199	0x3e1d7e5b	0.15380232
200	0xbe551f54	-0.20812732
201	0xbebc8a24	-0.36824143
202	0x3e2eee0b	0.17082994
203	0xbd8a56e4	-0.06754854
204	0xbe9ea2c9	-0.3098357
205	0xbdc374fb	-0.09543797
206	0xbe06bd8c	-0.13158244
207	0xbd99052a	-0.07471688
208	0xbd92e889	-0.07173259
209	0x3e08ac87	0.13347064
210	0xbd771455	-0.060322125
211	0xbeb4cb9d	-0.35311595
212	0x3d91082b	0.07081636
213	0x3e9a36e3	0.3012
214	0xbd9d1cd9	-0.07671518
215	0xbd006fd0	-0.031356633
216	0x3e728d3c	0.23686689
217	0xbdf6eba9	-0.12056667
218	0xbe96eecb	-0.2947906
219	0x3c6059cf	0.013693287
220	0xbd704d5f	-0.058667537
221	0x3d50851c	0.050908193
222	0x3da5adc5	0.080897845
223	0x3ddf58b7	0.10905593
224	0xbebd3f3e	-0.36962312
225	0xbe8c248d	-0.27371636
226	0xbebc25cb	-0.36747584
227	0xbd00a53f	-0.03140759
228	0x3e1f7828	0.1557318
229	0x3ea5cca6	0.32382697
230	0x3e23bdaa	0.1599032
231	0x3e8a7ebe	0.27049822
232	0x3e18bddd	0.14916177
233	0xbd811a1c	-0.06303808
234	0x3d3a02d2	0.045412846
235	0xbe356f2c	-0.1771819
236	0x3e7b82d1	0.24561621
237	0xbd010db1	-0.031507198
238	0xbdf7010d	-0.12060747
239	0x3e30d848	0.17270005
240	0xbedb0b22	-0.4278193
241	0x3e7fc585	0.24977691
242	0x3d9e63dc	0.077338904
243	0x3d8afa52	0.06786026
244	0xbeb47c68	-0.35251164
245	0x3ddcb3e9	0.10776503
246	0xbe93c6e5	-0.28862682
247	0xbecd4310	-0.40090227
248	0x3e88d31a	0.26723558
249	0xbea2d877	-0.31805775
250	0xbe09bf1b	-0.13451807
251	0xbe86e85a	-0.26349145
252	0xbe07fb0d	-0.13279362
253	0xbd4ca460	-0.049961448
254	0x3e48fb64	0.19627148
255	0xbca30084	-0.019897707

bias f4 [128]
0	0xbea29a22	-0.3175822
1	0x3cb4ee69	0.02208634
2	0xbec75c6a	-0.38937694
3	0xbdc190d1	-0.0945145
4	0xbecfbf45	-0.40575615
5	0xbe07e295	-0.13270028
6	0x3d2fc36b	0.042910974
7	0xbd249b84	-0.040187374
8	0xbd503107	-0.050828006
9	0x3e824d62	0.25449663
10	0xbe044cb7	-0.1291989
11	0xbe47847b	-0.19484131
12	0xbe4e2deb	-0.20134704
13	0xbe248ded	-0.16069765
14	0x3e5fbc52	0.21849182
15	0x3e9a530d	0.30141488
16	0x3ec4d32c	0.3844236
17	0xbe9b5e03	-0.30345163
18	0x3e8b33cb	0.27187952
19	0x3dedc95d	0.116106726
20	0x3ec857a9	0.3912938
21	0xbeb0c169	-0.3452256
22	0x3cfb2aef	0.03066012
23	0xbe8f31ee	-0.2796778
24	0xbdb267fa	-0.08711238
25	0xbd6f6c5e	-0.058452956
26	0xbebae965	-0.3650619
27	0xbe8f9d1a	-0.28049546
28	0x3eadfd82	0.33982474
29	0xbd482a1e	-0.04886829
30	0xbee25d15	-0.4421164
31	0xbeaee761	-0.34160903
32	0xbe9958e7	-0.2995064
33	0x3ee1ff2c	0.44139993
34	0xbecb86bd	-0.39751235
35	0xbd365b2b	-0.04452054
36	0xbe8c77c6	-0.2743513
37	0xbe15618b	-0.14587991
38	0xbd785f5c	-0.060637817
39	0xbe76fcf0	-0.24119925
40	0xbe4a2ee9	-0.19744457
41	0xbeae2d25	-0.34018818
42	0xbde3fd20	-0.11132264
43	0xbeaed6fe	-0.341484
44	0x3ec1cbac	0.37850702
45	0x3ece62b5	0.40309682
46	0x3e5aa1ab	0.21350734
47	0x3ea75c08	0.32687402
48	0xbe4289e7	-0.18997918
49	0xbec9fce8	-0.39450765
50	0x3e198161	0.1499076
51	0x3ea8b9e9	0.32954338
52	0x3d834e4b	0.064114176
53	0x3e92a0fa	0.2863844
54	0x3e998d73	0.2999073
55	0xbec18c6b	-0.37802443
56	0x3e1114ac	0.14168042
57	0xbea61385	-0.32436767
58	0x3e8fc52a	0.28080112
59	0xbe373330	-0.1789062
60	0xbe6e391a	-0.2326397
61	0x3ee729d5	0.45149103
62	0x3d298010	0.041381896
63	0x3de086e9	0.10963232
64	0xbeaceb1a	-0.33773118
65	0x3e8e20b8	0.27759337
66	0xbea8e8c3	-0.32990083
67	0x3e6cc0e7	0.23120461
68	0x3ede43ff	0.43411252
69	0xbe0bf7ee	-0.13668796
70	0x3d06fd3b	0.032956343
71	0xbe25be03	-0.16185765
72	0x3eb7cdd7	0.3589923
73	0x3e2887b9	0.16458024
74	0xbebb2fcb	-0.365599
75	0x3ec945f6	0.39311188
76	0x3ebfd5c7	0.37467787
77	0x3da35436	0.07975046
78	0xbe8a3aed	-0.26998082
79	0x3ed691c1	0.41908076
80	0xbd3c1ac6	-0.04592397
81	0x3e36d7f3	0.17855816
82	0xbe67eacc	-0.22648162
83	0x3c2b497b	0.010454531
84	0x3e97fb9f	0.2968416
85	0x3e22c4bf	0.15895365
86	0x3ed77bfa	0.42086774
87	0xbde18721	-0.11012102
88	0xbda2196e	-0.079150066
89	0xbe546b36	-0.20744023
90	0x3da39fba	0.0798945
91	0x3e1e3caa	0.15452829
92	0x3ea04827	0.31305048
93	0x3e672d51	0.2257588
94	0x3e9addc5	0.30247322
95	0xbeb131e5	-0.3460838
96	0xbe5fd95a	-0.21860257
97	0x3e51257e	0.20424458
98	0xbe20969c	-0.15682453
99	0xbea6a4a1	-0.32547477
100	0x3e82242a	0.25418216
101	0xbedf5cfe	-0.43625635
102	0x3ed15e6e	0.40892357
103	0x3e92fbf4	0.2870785
104	0xbe9aa137	-0.30201122
105	0x3e235d48	0.15953553
106	0xbe26b30e	-0.16279241
107	0x3ebf929f	0.3741655
108	0xbea9603b	-0.3308123
109	0x3e77801b	0.24169962
110	0xbea2c98e	-0.317944
111	0x3ea2774e	0.31731647
112	0xbd0bfba3	-0.034175526
113	0xbebb21f4	-0.36549342
114	0xbe79c9c5	-0.24393375
115	0xbea01d89	-0.31272534
116	0xbe9f98da	-0.31171304
117	0xbea53e52	-0.3227411
118	0x3e74c6f0	0.23904014
119	0xbc4ddd8a	-0.012565026
120	0x3eb75210	0.35804796
121	0x3ed02faf	0.4066138
122	0xbea6d5ea	-0.32585078
123	0xbed279c4	-0.41108525
124	0xbbad017f	-0.0052797194
125	0x3e7bebe0	0.24601698
126	0x3ed6edfa	0.41978437
127	0x3ed0b558	0.40763354

weight f4 [64, 128]
0	0x3d647cb5	0.055782992
1	0x3dcfbdd8	0.10143632
2	0xbccc3c25	-0.024931023
3	0xbd7f097d	-0.062264908
4	0x3e37cf1a	0.17950097
5	0x3c87dc72	0.016584609
6	0xbdabc7e6	-0.08387737
7	0xbc30ed74	-0.010798801
8	0x3b479f4d	0.003045994
9	0xbd8a66d4	-0.06757894
10	0xbdd2f70b	-0.10301026
11	0x3da53f37	0.08068698
12	0x3e0605a1	0.13088085
13	0x3caad1a9	0.020851927
14	0xbd2a367b	-0.041555863
15	0x3db7734a	0.089575365
16	0xbe277256	-0.1635221
17	0x3dcb8f08	0.099393904
18	0x3d1e8f3f	0.03871083
19	0x3c9e0502	0.019289497
20	0xbdadf530	-0.084940314
21	0x3dbd5171	0.09244049
22	0xbd8e24d9	-0.06940622
23	0x3df4b382	0.11948301
24	0xbcfd6acc	-0.030934714
25	0x3dc0c71b	0.09412976
26	0x3d5d995b	0.05410133
27	0xbaa35955	-0.0012462536
28	0xbd51843b	-0.051151495
29	0x3d958627	0.07300978
30	0x3e02f3f3	0.12788372
31	0x3dac7f63	0.084227346
32	0x3d56cc73	0.05244107
33	0xbd9a79d0	-0.07542765
34	0xbc82b59f	-0.015955744
35	0x3d17ee57	0.037092533
36	0x3dbdfac3	0.092763446
37	0x3d89891c	0.06715605
38	0xbb5f3159	-0.0034056513
39	0x3dc20724	0.09474018
40	0xbcaa76f2	-0.02080867
41	0x3d5c74dd	0.053822387
42	0x3e088c32	0.1333473
43	0x3dddd17d	0.10830972
44	0xbdb14ff8	-0.08657831
45	0xbd4c8ba1	-0.049937848
46	0xbcac7148	-0.02105011
47	0xbe095de3	-0.13414721
48	0x3dc1fd00	0.09472084
49	0x3bf5354c	0.00748316
50	0xbdd514a8	-0.104043305
51	0xbdf182bf	-0.11792516
52	0xbc056253	-0.008141118
53	0xbd038d31	-0.032117072
54	0x3c46d6c4	0.012136165
55	0x3de4cf82	0.111723915
56	0xbd25ff7f	-0.040526863
57	0x3dcd83f8	0.10034937
58	0x3ca98e25	0.020697663
59	0x3d80e3a1	0.06293417
60	0xbbb7ffc9	-0.0056152088
61	0xbb907855	-0.004408876
62	0xbd5cd4d7	-0.053913917
63	0xbd216cb2	-0.0394103
64	0xbc912bd5	-0.017721096
65	0xbdb58216	-0.088627025
66	0x3d8afbda	0.06786318
67	0xbd1cf8fb	-0.038323384
68	0x3c8ebb7e	0.017423388
69	0x3dce5714	0.100752026
70	0x3c6f14ad	0.014592332
71	0x3d4c57c4	0.049888387
72	0xbb8bcac8	-0.004266117
73	0x3cca174e	0.024669316
74	0x3cc3a355	0.023881594
75	0xbd0c69e1	-0.03428066
76	0x3c1b3ba9	0.009474673
77	0x3ddbc3f0	0.107307315
78	0x3d5c38bc	0.053765044
79	0xbdbc35bc	-0.091899365
80	0x3cdb56a5	0.026774714
81	0x3de20039	0.11035199
82	0xbc8f2ad3	-0.017476475
83	0x3d960ea4	0.07327011
84	0xbd66d05f	-0.056351062
85	0x3c33e6c3	0.010980311
86	0x3cde0cc2	0.027105693
87	0x3e025d44	0.1273089
88	0x3de3d91d	0.111253954
89	0x3d22677f	0.039649483
90	0x3d0d9c98	0.034573168
91	0xbd06d5a6	-0.032918595
92	0xbd90c240	-0.070683
93	0x3dd0285c	0.10163948
94	0x3c410c00	0.011782646
95	0x3d1f97bb	0.03896306
96	0x3db88051	0.090088494
97	0xbd30bd43	-0.043149244
98	0xbda68ae6	-0.081319615
99	0x3d1cb32d	0.038256813
100	0xbd22e032	-0.03976459
101	0x3d1e9243	0.038713705
102	0xbcd77e6c	-0.0263054
103	0xbc284146	-0.010269469
104	0x3dba2080	0.0908823
105	0xbd1da92b	-0.03849141
106	0x3e012937	0.12613378
107	0xbdd029ef	-0.10164248
108	0x3e1170c3	0.14203171
109	0xbe008664	-0.12551266
110	0xbccf3f35	-0.025298694
111	0xbd0b8acd	-0.034067918
112	0x3d294646	0.041326784
113	0x3d23222a	0.039827503
114	0x3ba55cda	0.005046469
115	0x3ddd0073	0.10791101
116	0x3de22eef	0.11044108
117	0x3d882b18	0.066488445
118	0xbd7a0db6	-0.061048232
119	0x3d3bf28e	0.045885615
120	0xbc12f79f	-0.00897017
121	0xbd8af0a5	-0.067841806
122	0x3d0ff7c5	0.0351484
123	0x3d83db45	0.06438307
124	0x3ce02bc3	0.027364617
125	0xbdbb2e3c	-0.09139678
126	0xbd0f3b41	-0.03496862
127	0xbc72be52	-0.014815884
128	0x3de4bf16	0.11169259
129	0x3db845ac	0.08997664
130	0x3debe8ab	0.11518987
131	0x3d05eeba	0.03269837
132	0x3d8641cd	0.06555519
133	0x3db01981	0.085986145
134	0x3d142533	0.03616829
135	0xbd8baaba	-0.06819673
136	0xbbbf2651	-0.005833425
137	0xbdc116d9	-0.09428186
138	0xbe046730	-0.12929988
139	0x3d472893	0.04862268
140	0xbb900799	-0.004395437
141	0x3c905470	0.017618388
142	0xbd8971b3	-0.067111395
143	0x3d44d8f1	0.048058454
144	0xbd695423	-0.056965005
145	0x3d12c433	0.03583164
146	0xbde2e3be	-0.110785946
147	0xbdedc0bb	-0.11609026
148	0xbd17511a	-0.03694258
149	0x3dc411f0	0.09573734
150	0xbc99b066	-0.018760871
151	0x3dde1d76	0.10845463
152	0xbdd26a15	-0.1027414
153	0x3cefbffc	0.02926635
154	0x3de9eea4	0.1142247
155	0x3cbd04f5	0.023073653
156	0xbb1824c0	-0.0023215264
157	0x3dc11c0c	0.09429178
158	0x3c816693	0.015795982
159	0x3e012024	0.12609917
160	0xbb602315	-0.0034200598
161	0xbdfe42c9	-0.12415082
162	0x3d9a2c4d	0.07527981
163	0x3dc8d183	0.09805586
164	0x3e045dc5	0.12926395
165	0x3d554cff	0.052075382
166	0x3de1223d	0.109928586
167	0x3d51b669	0.05119935
168	0x3da9ab51	0.08284629
169	0x3df74819	0.120742984
170	0x3cb36d20	0.02190262
171	0x3d5cb322	0.05388177
172	0x3aaa7dca	0.0013007459
173	0xbcf5c94c	-0.030003212
174	0xbda081ee	-0.07837282
175	0xbdb1d543	-0.086832546
176	0x3d0ba26b	0.03409044
177	0xb94ca0c7	-0.0001951485
178	0xbdd454d8	-0.10367745
179	0xbcb94440	-0.022615552
180	0xbcf8d672	-0.030375693
181	0x3d29ab9d	0.04142343
182	0xbe080e03	-0.13286595
183	0x3dc34f76	0.0953664
184	0x3b093569	0.0020936376
185	0x3d10c13d	0.035340536
186	0xbd8a6dd5	-0.0675923
187	0x3df00a46	0.117207095
188	0x3de01b19	0.109426685
189	0xbd351a16	-0.04421433
190	0xbc17a023	-0.009254488
191	0xbcbe745c	-0.023248844
192	0x3dd5954a	0.10428865
193	0x3c7ffc1d	0.015624073
194	0x3d32b6cc	0.04363136
195	0xbd5bb911	-0.05364329
196	0xbd57c428	-0.052677304
197	0x3c91aea0	0.017783463
198	0xbd0313be	-0.03200125
199	0x3db13314	0.086523205
200	0x3d3eb358	0.046557754
201	0x3cd51ac0	0.026013732
202	0x3c18115d	0.0092814835
203	0xbdf3d809	-0.1190644
204	0xbd8aa853	-0.067703865
205	0xbc91bfaa	-0.017791588
206	0x3d9b34e1	0.07578445
207	0xbd71a444	-0.058994547
208	0x3d4fab8b	0.050700705
209	0xbcdfe2a8	-0.027329758
210	0x3e00b6a1	0.12569667
211	0x3de1e02a	0.11029084
212	0xbd2633ea	-0.040576853
213	0x3c9faf52	0.019492779
214	0xbd9b23d9	-0.07575197
215	0x3d1837fe	0.037162773
216	0xbd3a3403	-0.04545976
217	0x3dc3b216	0.095554516
218	0xbdd1ac67	-0.10237961
219	0xbdb9a16e	-0.090639934
220	0xbbada307	-0.0052989754
221	0xbcda7954	-0.026669182
222	0xbdb44e42	-0.08803989
223	0x3c901cee	0.01759192
224	0xbc424837	-0.011858038
225	0x3cadbf63	0.021209424
226	0xbda173b1	-0.078833945
227	0x3af734f8	0.001886039
228	0xba7bb82a	-0.0009602333
229	0x3df55318	0.119787395
230	0xbd92e788	-0.07173067
231	0xbca65420	-0.020303786
232	0x3c28c826	0.010301625
233	0xbd883eba	-0.06652589
234	0x3db55fc4	0.088561565
235	0xbdc8ea18	-0.09810275
236	0x3c4b2380	0.012398601
237	0xbdafbe98	-0.08581275
238	0x3d9a92f8	0.07547563
239	0xbd2671b7	-0.04063579
240	0xbd0d0b6d	-0.034434725
241	0x3e06699e	0.13126227
242	0x3bb53e5a	0.0055311145
243	0x3db025a9	0.08600933
244	0x3e0cbe1a	0.13744393
245	0x3dde2f64	0.10848883
246	0xbba80652	-0.0051277066
247	0x3de00a30	0.10939443
248	0x3c9c1271	0.019051762
249	0xbadb13d8	-0.0016714288
250	0x3cb4893d	0.022038097
251	0x3d764ac4	0.060129896
252	0xbd1ed2be	-0.0387752
253	0xbbe2a56d	-0.006916693
254	0xbd974114	-0.073854595
255	0xbde5db81	-0.11223508

bias f4 [64]
0	0x3b1aad6a	0.0023601898
1	0xbde21359	-0.110388465
2	0x3df69af4	0.12041274
3	0x3d608067	0.054809954
4	0x3ca5097c	0.020146124
5	0xbc9bf873	-0.019039368
6	0x3d828876	0.06373684
7	0x3d29eed2	0.041487522
8	0xbdc0314f	-0.09384405
9	0x3df402c8	0.11914593
10	0x3d13872d	0.036017586
11	0x3dc8e043	0.098083995
12	0xbd99dc74	-0.07512751
13	0xbdee78f6	-0.11644165
14	0xbdd740fd	-0.105104424
15	0x3cc7b0c1	0.024376275
16	0xbd7b1c00	-0.061306
17	0xbd8d7d74	-0.06908694
18	0xbde46df1	-0.11153782
19	0xbdc37088	-0.09542948
20	0xbdc68048	-0.096924365
21	0x3c755440	0.0149737
22	0x3dfdb4ca	0.123879984
23	0xbdd4deb2	-0.10394038
24	0xbdb72c64	-0.08944014
25	0xbde7fb12	-0.11327185
26	0x3c8e5406	0.01737405
27	0x3d277bb0	0.040889442
28	0x3d6cd07a	0.057816006
29	0xbd41fec1	-0.047362093
30	0x3db6beb9	0.08923096
31	0xbd1fe49d	-0.039036382
32	0x3d5a5d88	0.053311855
33	0x3db82c0a	0.08992775
34	0xbe021a43	-0.1270533
35	0x3d87b9ae	0.066272125
36	0xbe00753e	-0.12544724
37	0xbc3091eb	-0.010776977
38	0xbdb48dd5	-0.08816115
39	0xbde87ce2	-0.113519445
40	0x3d33c801	0.04389191
41	0xbd92d273	-0.07169046
42	0xbd19354f	-0.037404355
43	0x3dad1e32	0.08453025
44	0xbcb95bf0	-0.022626847
45	0xbd32ca18	-0.043649763
46	0x3bf5eee5	0.007505285
47	0xbd972555	-0.073801674
48	0xbc17d279	-0.009266489
49	0x3d9224ee	0.0713595
50	0xbcf4879e	-0.029849824
51	0x3da24342	0.07922985
52	0xbd9f97f3	-0.07792654
53	0xbdcd6fa9	-0.10031063
54	0x3d77c79a	0.06049309
55	0x3df3f8b2	0.11912669
56	0xbdcc0ae2	-0.09963013
57	0x3db71540	0.089396
58	0x3dc24dd7	0.09487503
59	0xbdbabfec	-0.091186374
60	0xbd398fa3	-0.045303
61	0x3e06a075	0.13147147
62	0x3d9b0c39	0.07570691
63	0x3decacf2	0.11556424
